exp/auto-lstm/2-classes/version_43/checkpoints/epoch=17.ckpt (torch_old, 66136 bytes, 24 tensors)

exp_avg f4 [128, 3]
000000 c1 fe f9 39 c7 e6 a4 3a aa 52 7a 3a 2c ae 96 3a
       0.00047682787 0.0012580984 0.0009549061 0.0011495999
000010 c4 3a 17 3a 10 af 84 3a 79 68 fc 3a 88 b7 da 3a
       0.00057689496 0.0010122973 0.001925721 0.0016686777
000020 17 b8 2c 3a c5 aa 2d 3a 9e 98 83 3b f1 f5 ad 3b
       0.0006588711 0.0006624873 0.004015996 0.0053088595
000030 f1 33 20 bc 60 cb 2c 3b d4 cb a1 3b 43 67 c7 b9
       -0.009778009 0.0026366338 0.0049376283 -0.00038033174
000040 a1 70 0e 3a 12 cf e6 3a 20 22 1d bb cb ce 0f 3a
       0.0005433653 0.0017609319 -0.002397664 0.00054858316
000050 79 56 2c 3b ac de 85 3b 71 7c 6d b9 64 4a d0 3a
       0.002629666 0.0040853824 -0.0002264844 0.0015891311
000060 fb 84 ac 38 66 3b e0 ba 57 f2 37 b9 98 12 bf b9
       8.226369e-05 -0.0017107546 -0.00017542519 -0.00036444212
000070 03 0e af b8 dc 67 cb b9 57 bb 17 bb 6a 31 c3 b9
       -8.34726e-05 -0.00038796559 -0.0023152435 -0.00037230115
000080 42 e6 05 3b 95 8f 66 3a 2b fb e3 b9 2f 08 cd 3a
       0.0020431434 0.0008795199 -0.0004348395 0.0015642698
000090 f4 56 07 ba ae 1c ca 38 e8 df ec 3a 4f 9b a5 3b
       -0.00051627983 9.6374526e-05 0.00180721 0.0050539146
0000a0 4a 45 6c 3b 64 83 24 3b 06 1e 2f 3b e8 bb d0 ba
       0.0036052042 0.002510273 0.0026720776 -0.0015925141
0000b0 5b 4c d6 bb a9 53 c5 3a 62 a5 ed ba 0a 50 16 bb
       -0.006539864 0.001505484 -0.0018130953 -0.002293589
0000c0 98 ac e7 ba 76 97 80 3b 09 30 97 3b 16 68 ff 3b
       -0.0017675338 0.0039243056 0.0046138805 0.0077943904
0000d0 e4 8e 7b 3b e7 78 1a bb 63 bb 6c bb 77 68 83 ba
       0.003838473 -0.0023570599 -0.0036122433 -0.001002564
0000e0 c3 67 f7 ba d6 b7 c2 3b d2 97 48 3b 3c d6 6c 38
       -0.0018875528 0.005942325 0.003060807 5.6466306e-05
0000f0 1c 56 4f 38 50 c2 2e b9 3b af b9 39 18 03 cd 3a
       4.943284e-05 -0.0001666632 0.00035416507 0.0015641181
000100 4c 0c cf 3a 68 f6 a0 3a ba ce 82 bb 32 33 62 3b
       0.0015796511 0.0012280466 -0.003991929 0.0034515378
000110 e0 85 53 bb 9a 76 86 bb d1 85 94 bb d5 f3 d8 bb
       -0.003227584 -0.004103494 -0.0045325537 -0.006620864
000120 1f 7a 18 b8 73 14 a6 3b 8e dd 71 3b bf 0a 1b bb
       -3.6353358e-05 0.0050683557 0.0036905739 -0.0023657528
000130 b2 ce f1 b9 41 96 81 3a be 08 d2 3b 3a ea 0e 3b
       -0.00046121102 0.0009886698 0.0064097336 0.002180709
000140 75 bc 0a ba a6 42 b1 3a 94 c1 ae ba c2 18 3a bb
       -0.00052923645 0.0013523891 -0.0013332837 -0.0028396104
000150 fc ab f5 b7 44 6a 98 ba da 3e a6 ba 71 a5 1b bb
       -2.9286362e-05 -0.0011628349 -0.0012683526 -0.0023749734
000160 28 76 c5 39 ea 11 a4 3b eb 7c be 3b bc 4c e0 3a
       0.000376628 0.0050070183 0.005813231 0.0017112712
000170 8c 90 92 bb f6 87 b3 ba 13 46 84 3a 84 af 9e b9
       -0.0044727977 -0.0013697136 0.0010091685 -0.00030266878
000180 aa 1b 04 3a 40 d0 cc 39 16 d0 76 39 cf 8e 4e 3a
       0.00050395227 0.0003906507 0.00023537906 0.00078795565
000190 da 6f 96 39 6c 24 fc 39 8f ad 19 3b 32 4b df 3a
       0.00028693565 0.00048092322 0.0023449396 0.001703596
0001a0 36 de 38 3a 08 2e 47 3a 88 83 82 3b 5c d6 b0 3b
       0.0007052155 0.0007598107 0.003982965 0.0053966474
0001b0 f8 31 08 bc a0 17 a0 3a 83 71 83 3b cf 44 d9 b8
       -0.008312695 0.0012214072 0.0040113344 -0.00010360183
0001c0 2b 79 4a 39 e1 ad 9d 3a 8b 98 ee ba f3 3b 2a 38
       0.0001930936 0.0012029969 -0.001820342 4.058699e-05
0001d0 d5 fa e7 3a 21 74 64 3b f7 71 02 b9 24 51 d1 3a
       0.0017698655 0.0034859257 -0.00012440221 0.0015969616
0001e0 99 40 a6 b9 12 2b 75 ba 5e cd aa 39 09 83 b2 b9
       -0.00031710116 -0.0009352426 0.00032577937 -0.00034048434
0001f0 0f ae ce 37 f8 15 6f b9 0e f6 fb ba fc ef 19 ba
       2.4638166e-05 -0.00022801 -0.001922311 -0.0005872247
000200 cb 47 ba 3a e8 26 54 3a 7a e5 20 ba f2 43 90 3a
       0.001421207 0.00080929557 -0.00061377103 0.0011006577
000210 c4 a5 8c 39 a5 64 16 ba 4a 1f 97 3a e4 1b ed 3b
       0.00026826386 -0.0005737043 0.0011529711 0.007235991
000220 2b b1 28 3b 18 77 fa 3a a9 34 25 3b c2 f1 8a ba
       0.0025740366 0.0019108979 0.002520839 -0.0010600614
000230 57 62 ba bb f9 d8 23 3b 07 a9 23 bb fe 07 67 bb
       -0.0056879926 0.0025001152 -0.0024972574 -0.0035252566
000240 f2 fe 68 bb f8 90 d0 3b 90 cb e6 3b 05 2f 27 3c
       -0.003555235 0.006364938 0.0070433095 0.010204081
000250 24 2a 0c 3b 48 2b 6e bb c0 e8 4a bb 29 f8 93 b9
       0.0021387422 -0.0036341716 -0.0030961484 -0.0002822292
000260 b7 cb 8f ba f4 6e aa 3b cb cc 15 3b 79 e9 3c 39
       -0.0010970746 0.005201215 0.0022857662 0.00018016052
000270 f8 87 1d 39 b9 be 8d b9 44 4a 74 39 f4 b3 05 3b
       0.00015023339 -0.00027035715 0.0002329732 0.002040145
000280 fe d7 a0 3a 97 36 81 3a d0 2a 1b ba 05 e6 de 39
       0.0012271402 0.0009858188 -0.00059191603 0.00042514518
000290 cc df 8d bb 78 91 a9 bb 26 b5 03 bb a8 21 7f bb
       -0.004329657 -0.005174812 -0.0020096987 -0.0038929973
0002a0 16 82 fc 39 11 81 01 3b 47 5a b2 3a 4c 99 c6 ba
       0.00048162107 0.0019760767 0.0013607227 -0.0015151887
0002b0 31 cb a1 b9 fd 15 37 3a b8 c4 cb 3b 85 bd e0 3a
       -0.00030859702 0.00069841725 0.006218519 0.0017146325
0002c0 74 4c 95 ba 77 79 57 3a fd 0d 48 ba 5d db 00 bb
       -0.0011390583 0.0008219699 -0.0007631479 -0.0019662
0002d0 4a 9a d4 39 eb c8 9c ba 40 6d b6 ba 7d d6 1b bb
       0.00040550745 -0.0011961734 -0.0013918057 -0.0023778968
0002e0 a8 73 bc 39 b1 e6 96 3b e9 74 d2 3b c2 6b 0d 3a
       0.00035944325 0.0046051373 0.006422628 0.00053947803
0002f0 af 12 9f bb 95 d3 8f ba 72 7b 25 3a bd a6 77 b9
       -0.004854522 -0.001097309 0.0006312645 -0.0002361787
000300 6f 19 96 bc a7 eb cb bc af 20 ca bc 39 3b 52 3c
       -0.018322675 -0.024892641 -0.024673788 0.012831503
000310 32 ec 02 3c 35 33 64 3c ae 3f 08 bd 4a c1 c9 bc
       0.007990884 0.013928224 -0.033263855 -0.0246283
000320 a7 83 31 bc 30 59 84 bb 2d 96 58 bc d2 bd 98 bc
       -0.010834611 -0.0040389523 -0.013219398 -0.0186452
000330 06 93 7a 3c e3 bf 88 3b 7e 30 b4 bb a6 a5 f1 3a
       0.015293842 0.0041732653 -0.005498945 0.0018436208
000340 06 b8 45 bb 32 f8 7f bc 47 27 84 3c c2 2d 5b bb
       -0.00301695 -0.015623139 0.01613201 -0.0033444022
000350 82 bb 94 bc b6 88 5c 3c b7 c3 ad 3a 8f 5e 26 3c
       -0.018155817 0.013460329 0.001325718 0.01015438
000360 da 6e cc bb 6b 32 2d bc 08 cc 02 3c 7e 67 a2 bb
       -0.0062388005 -0.010571103 0.007983215 -0.004956185
000370 e6 67 fc 39 03 14 e0 ba 43 87 31 3c 62 37 47 3b
       0.00048142596 -0.0017095808 0.010835472 0.0030398
000380 c5 94 ff bb 0c 5e b3 3b 79 11 fd 3a 66 29 01 3d
       -0.007799717 0.0054738577 0.0019307575 0.03153362
000390 5c f8 74 3a 9a 02 01 3b 47 de ff bb 70 29 62 bc
       0.000934487 0.0019685389 -0.00780848 -0.013803825
0003a0 cf e7 10 bc f5 12 7c bc 3e 3d 39 bc ad 5c e8 3a
       -0.00884433 -0.015385379 -0.011306105 0.0017727815
0003b0 fa e8 d1 3c 5d d9 b7 3b 48 f6 e9 bb bb eb 03 bc
       0.025623787 0.0056106285 -0.0071399547 -0.008051808
0003c0 50 d9 49 bc 0c 43 99 3c 12 2f 9a 3c 20 34 17 bd
       -0.012319878 0.018708728 0.018821273 -0.036914945
0003d0 a2 8e 4e bc dd b3 cd 39 eb 7c 40 3d 7e 7a 9d bb
       -0.0126072485 0.00039234656 0.04699413 -0.004805862
0003e0 56 3f 8e 3b e6 d2 31 bd a6 76 ab bc a3 2a 47 bb
       0.0043410463 -0.04341402 -0.0209306 -0.0030390404
0003f0 0e b1 b9 3a 95 05 8b bb 88 82 c3 3b 1d bb 46 bb
       0.0014167146 -0.004242609 0.0059664883 -0.003032393

exp_avg_sq f4 [128, 3]
000000 2c 5d 46 37 9a 48 54 38 af d9 70 38 f1 8a b6 37
       1.1823413e-05 5.0612354e-05 5.7423193e-05 2.176079e-05
000010 18 eb 70 37 e1 d0 da 37 5e 97 b1 37 6c 54 30 38
       1.4359852e-05 2.6084892e-05 2.117053e-05 4.2040294e-05
000020 3c 6a a4 37 a4 2d e5 38 f8 31 47 38 be 9b 63 38
       1.9599793e-05 0.00010928072 4.7491834e-05 5.4266064e-05
000030 3b d2 c0 38 17 bc 31 39 ed 94 0a 39 66 29 f9 36
       9.194432e-05 0.00016950104 0.00013216185 7.4255977e-06
000040 1c b8 e3 36 80 84 9b 37 3f f5 5d 37 21 d1 8d 37
       6.7865603e-06 1.853914e-05 1.3229727e-05 1.6905893e-05
000050 bc 42 70 37 72 6a 62 38 d6 11 10 39 40 b3 58 39
       1.4320653e-05 5.3981734e-05 0.00013739555 0.00020666141
000060 bc fd a6 36 86 c6 82 37 45 ee e1 36 76 b7 76 35
       4.976724e-06 1.5589652e-05 6.7332608e-06 9.190911e-07
000070 fb 62 81 36 c2 8e c1 35 a9 30 8c 37 8f 3f 74 37
       3.8560224e-06 1.4421169e-06 1.671196e-05 1.4558332e-05
000080 93 9b 5d 37 e3 ea 3e 38 b5 b2 07 38 75 bc 83 38
       1.3208849e-05 4.5518285e-05 3.2352942e-05 6.2816696e-05
000090 e5 9f c5 37 74 fc 4d 37 45 c2 70 37 30 7c 61 3a
       2.3558687e-05 1.2277731e-05 1.4350347e-05 0.0008601574
0000a0 5c ce ff 39 e2 80 01 3a 12 d9 ed 37 22 ac 83 38
       0.0004879114 0.00049401645 2.8353683e-05 6.278629e-05
0000b0 79 5a 68 38 11 7c 4f 38 39 19 34 38 1e 5c 6f 38
       5.539737e-05 4.946819e-05 4.2938835e-05 5.706783e-05
0000c0 b5 3c f3 37 ac 82 8a 37 b7 2f 1c 38 a3 cf fe 39
       2.8996126e-05 1.651173e-05 3.7237736e-05 0.00048601357
0000d0 c5 c2 f9 38 5e 01 a5 39 52 25 1c 39 90 36 f3 38
       0.00011909524 0.0003147227 0.00014891222 0.00011597306
0000e0 54 eb 98 38 be 86 f7 37 bc dd 70 38 bd cf c1 37
       7.291758e-05 2.9507439e-05 5.7426965e-05 2.3104129e-05
0000f0 99 b9 53 36 9f 23 9f 36 46 10 20 36 91 91 5e 38
       3.1549482e-06 4.742716e-06 2.385133e-06 5.3064494e-05
000100 bc 59 e0 37 c5 d6 58 38 13 2c 34 39 b9 20 2a 39
       2.6744667e-05 5.1698433e-05 0.00017182557 0.00016224654
000110 e1 41 38 39 7a eb cb 39 d1 6c 99 39 92 9c 8b 39
       0.00017572149 0.0003889462 0.0002926351 0.000266288
000120 12 9e 03 38 c6 f8 3b 39 4a 20 62 39 e7 81 88 38
       3.138005e-05 0.00017926385 0.00021565068 6.5091815e-05
000130 5c c8 a1 37 77 d3 80 38 a4 bc 77 39 ac e3 9c 38
       1.9285995e-05 6.142904e-05 0.0002362603 7.481067e-05
000140 74 1c 38 39 d3 c7 c7 36 fd 3b c8 36 e9 28 20 37
       0.00017558207 5.9539248e-06 5.967448e-06 9.546268e-06
000150 c0 37 d4 37 0d 25 4d 37 11 14 b2 37 e3 28 ab 38
       2.529833e-05 1.2227579e-05 2.1228598e-05 8.161531e-05
000160 0d 96 22 38 89 ed b8 38 a3 9e 24 39 81 42 80 38
       3.8763555e-05 8.818048e-05 0.00015699356 6.115903e-05
000170 53 ff 1e 39 94 d5 a9 36 c1 5d ca 36 12 99 d7 36
       0.0001516317 5.0614562e-06 6.0309835e-06 6.425319e-06
000180 ca bb 11 37 fe f8 24 37 23 9b 69 37 6a a6 5d 37
       8.6863965e-06 9.833135e-06 1.3924003e-05 1.3211373e-05
000190 ca 19 27 37 9a b6 88 37 fb b1 9f 37 ad 30 a2 37
       9.95998e-06 1.6297494e-05 1.9037156e-05 1.9334571e-05
0001a0 5c ef 98 37 ae 20 da 38 03 59 25 38 25 09 69 38
       1.8231272e-05 0.00010401137 3.9421964e-05 5.5560045e-05
0001b0 13 1b c4 38 5c 41 33 39 cc c2 27 39 5b 79 04 36
       9.351051e-05 0.00017095119 0.00015998929 1.974017e-06
0001c0 77 b5 ce 35 b6 56 96 36 74 c2 e5 36 ec 87 0f 37
       1.5401009e-06 4.480443e-06 6.847369e-06 8.555111e-06
0001d0 7e a5 0f 37 8b 23 ec 37 da ec 9f 38 3d 68 ec 38
       8.561996e-06 2.8149943e-05 7.625828e-05 0.00011272773
0001e0 46 ee f4 35 fb 04 96 36 f4 58 ea 35 b8 ba cc 34
       1.8248763e-06 4.470928e-06 1.7460247e-06 3.8133817e-07
0001f0 bb 44 5e 35 aa 2c b1 34 1f ff 3a 37 21 65 bc 36
       8.280146e-07 3.3001317e-07 1.1145864e-05 5.6146096e-06
000200 f4 34 db 36 5b 71 95 37 b2 c1 49 37 9e 23 bf 37
       6.532873e-06 1.781497e-05 1.2025632e-05 2.278556e-05
000210 9a 71 d7 37 79 4e 46 37 93 b2 92 37 d3 07 9b 3a
       2.5682897e-05 1.18199905e-05 1.7487711e-05 0.0011827893
000220 32 30 40 3a 40 86 83 3a dc 91 24 38 a9 26 b6 38
       0.00073314004 0.0010034516 3.923649e-05 8.685637e-05
000230 7f 15 8d 38 87 53 50 38 59 bc 33 38 fb 32 64 38
       6.727408e-05 4.9668855e-05 4.2852338e-05 5.4406915e-05
000240 56 89 67 38 d5 4f f8 37 7e 16 67 38 3d 43 5c 39
       5.5202596e-05 2.9601078e-05 5.509564e-05 0.00021005883
000250 bd 31 6f 38 d2 8d 48 39 d3 5d 19 38 08 5b e4 37
       5.7028363e-05 0.00019126319 3.6565423e-05 2.7222108e-05
000260 28 af bf 37 52 f7 d6 37 c1 ff 7a 37 f4 ff 04 37
       2.2850538e-05 2.5625955e-05 1.49607085e-05 7.927407e-06
000270 5c f9 a8 35 14 57 ee 35 4d 0d 8d 35 4d 90 79 38
       1.2589549e-06 1.7757725e-06 1.050919e-06 5.9500617e-05
000280 60 b1 f8 37 71 b4 89 38 67 95 41 39 ea 2b 09 39
       2.96465e-05 6.566279e-05 0.00018461571 0.00013081697
000290 89 7b 79 39 e6 d2 86 39 b7 b9 17 39 a9 2b 28 39
       0.00023792511 0.00025715603 0.00014469666 0.00016037993
0002a0 a3 48 e5 36 f9 a3 c9 37 47 82 1d 38 17 8b e3 37
       6.833188e-06 2.4037423e-05 3.7553047e-05 2.7125277e-05
0002b0 b7 a4 06 37 1c ff f3 37 55 df 1c 39 e5 f2 77 38
       8.025373e-06 2.9086652e-05 0.00014960517 5.9115602e-05
0002c0 37 54 dd 38 71 b6 d3 36 ca c1 a3 36 f0 fd fe 36
       0.000105537874 6.309529e-06 4.8803386e-06 7.599352e-06
0002d0 9f 22 d2 37 50 f4 09 37 e4 1e ad 37 6c 6a cf 38
       2.5050073e-05 8.22272e-06 2.0637592e-05 9.890352e-05
0002e0 ad af 29 38 62 a9 e5 38 d6 3b 87 39 34 6c f7 38
       4.045635e-05 0.00010951121 0.00025793788 0.00011798032
0002f0 27 be a2 39 84 c1 17 36 f0 24 0f 36 1c a6 4c 36
       0.00031040722 2.2613394e-06 2.133016e-06 3.0495057e-06
000300 dd f3 b3 3a 8b 11 31 3b bb 38 5a 3b c2 79 15 3b
       0.0013729293 0.0027018513 0.0033297974 0.002280817
000310 a2 59 6b 3a 28 c7 06 3b 5b ab ca 3b 8f 3a 6a 3c
       0.0008977895 0.0020565484 0.006184978 0.014296188
000320 77 1c 64 3c 03 a6 5e 3b e3 3e 90 3a e3 4c ee 3a
       0.013922802 0.0033973462 0.001100507 0.0018180873
000330 e0 f8 a5 3b 49 d8 f4 3b f8 96 1c 3c 6b c8 b5 3a
       0.0050650686 0.0074720723 0.009557478 0.0013868933
000340 ba 0e 62 3a 1e b7 1a 3b 8d 19 b2 3a df 2e 9c 3a
       0.000862341 0.0023607682 0.0013587937 0.0011915824
000350 44 c5 de 3a 8b eb d3 3a 91 81 96 3b 1e ec c5 3b
       0.0016996046 0.001616822 0.0045930822 0.0060401103
000360 d5 25 83 3a 04 ac ca 3a cf 57 25 3a 01 6f 36 3a
       0.0010005782 0.0015462642 0.0006307335 0.000695929
000370 7e 3d 78 3a 80 19 18 3a bb 76 b8 3a b2 ee b3 3a
       0.0009469612 0.00058021396 0.001407347 0.0013727753
000380 76 58 5b 3a 9e dc 4f 3b 4a ca c0 3b f2 ef 02 3c
       0.0008367369 0.0031717191 0.0058834897 0.007991778
000390 fe 31 a0 3b 7a 6b b0 3a c5 91 34 3b ff de 32 3d
       0.004888772 0.0013459765 0.0027552706 0.043669697
0003a0 8d 15 e4 3c 39 d5 3a 3d a7 20 bb 3a 14 9b a5 3b
       0.027842307 0.0456135 0.0014276699 0.005053887
0003b0 17 57 3d 3b 02 02 3c 3b fc 7a 13 3b 69 81 38 3b
       0.002889102 0.002868772 0.0022503724 0.0028153306
0003c0 73 4a 8c 3b a8 69 15 3b bc f2 ff 3a 0f 41 9c 3c
       0.004281336 0.0022798572 0.0019527297 0.019073991
0003d0 67 78 e2 3b db 46 85 3c cb 10 69 3c 81 40 eb 3b
       0.0069113257 0.016269138 0.014225195 0.0071793203
0003e0 d8 8b cb 3b 65 5e c1 3b e3 e2 71 3b b3 d2 1c 3b
       0.006211739 0.0059011453 0.0036908917 0.0023929297
0003f0 34 0f bd 3a 97 76 08 3b 2a 2d b0 3a 33 5b c8 3b
       0.0014424087 0.0020822638 0.0013441194 0.0061143874

exp_avg f4 [128, 32]
000000 32 69 e8 b7 e5 0c 80 38 82 5f ff b8 cf e0 ea b9
       -2.770554e-05 6.1059174e-05 -0.00012177137 -0.00044799453
000010 f0 31 ea b9 1a ea be b8 6c 01 39 b9 11 0b 89 39
       -0.00044669164 -9.103511e-05 -0.00017643505 0.0002613892
000020 e0 dc b7 38 a2 ff d3 38 a8 e9 2d b9 63 6b a2 38
       8.767261e-05 0.00010108879 -0.0001658561 7.744764e-05
000030 c6 9c a8 b9 0e e1 e1 b9 fa c8 85 b9 b2 2f ad 39
       -0.00032160262 -0.00043083023 -0.00025517476 0.00033032667
000040 55 ab 34 3a f9 df 6e b9 1f e8 c2 b8 83 d8 07 b9
       0.00068919855 -0.00022780885 -9.293877e-05 -0.0001295526
000050 2d 08 88 38 68 55 09 ba 1b 94 b6 b9 c6 a2 88 39
       6.486508e-05 -0.0005238862 -0.00034824092 0.00026061217
000060 cc aa 3a b8 79 66 c8 b8 f3 8f 16 3a c8 4e c6 b8
       -4.4504923e-05 -9.55583e-05 0.0005743496 -9.45605e-05
000070 ce 57 07 b9 c2 fb ad b9 c4 11 fd b8 36 47 68 b9
       -0.00012907313 -0.00033184706 -0.00012067289 -0.00022151772
000080 3d cc 70 b7 10 dc 10 38 96 87 81 b8 bb 84 70 b9
       -1.4352668e-05 3.4537225e-05 -6.176454e-05 -0.0002293763
000090 63 97 70 b9 fd 93 56 b8 36 bb c9 b8 49 92 10 39
       -0.0002294458 -5.11594e-05 -9.6192976e-05 0.00013787406
0000a0 e4 90 5c 38 bb 81 51 38 a7 2b ba b8 03 d8 50 38
       5.2587027e-05 4.9950304e-05 -8.877302e-05 4.979224e-05
0000b0 79 4b 2d b9 a1 21 6b b9 04 c5 ff b8 c8 1a 32 39
       -0.00016526681 -0.00022423874 -0.000121960446 0.0001698538
0000c0 3a 0e b9 39 3b cc ee b8 d6 1b 36 b8 58 e6 86 b8
       0.0003529655 -0.00011386765 -4.3418106e-05 -6.432523e-05
0000d0 82 88 17 38 37 ff 8d b9 bc 1f 38 b9 c2 05 0f 39
       3.612834e-05 -0.00027083766 -0.0001755943 0.00013639688
0000e0 ea 10 aa b7 a5 26 54 b8 59 b9 98 39 4b d2 3d b8
       -2.0273455e-05 -5.058073e-05 0.00029129794 -4.5256962e-05
0000f0 99 b8 8e b8 8c a3 32 b9 cc 73 7f b8 36 26 ef b8
       -6.805472e-05 -0.00017036329 -6.0904582e-05 -0.000114035254
000100 8f a4 10 b8 a2 af ff 37 28 25 5b b8 af 2f 0a b9
       -3.4485533e-05 3.0480154e-05 -5.2248273e-05 -0.00013178469
000110 79 12 ef b8 77 a2 f1 b7 3a bc 48 b8 18 f6 a6 38
       -0.00011399849 -2.8805092e-05 -4.7859015e-05 7.961335e-05
000120 87 bd 49 37 0f 03 f4 37 96 90 2d b8 91 e2 bd 37
       1.2024661e-05 2.9088491e-05 -4.138107e-05 2.2636059e-05
000130 ca 07 bf b8 f1 a3 06 b9 d5 4d 96 b8 2b 7d b9 38
       -9.1090405e-05 -0.00012840309 -7.167055e-05 8.844802e-05
000140 43 43 4e 39 c8 f1 9e b8 24 a8 00 b7 6f 8f 83 b8
       0.00019670748 -7.5790624e-05 -7.668543e-06 -6.273283e-05
000150 7e 1b 92 37 5b 6c 21 b9 86 7f bd b8 60 53 66 38
       1.7417358e-05 -0.00015394522 -9.0359754e-05 5.4913922e-05
000160 60 20 62 b8 e4 0e 90 b7 f0 67 2b 39 c3 cb ce b7
       -5.391275e-05 -1.7173072e-05 0.0001634655 -2.4651998e-05
000170 42 58 fa b7 45 ad c7 b8 cb d6 72 b8 2a b8 85 b8
       -2.984342e-05 -9.5213334e-05 -5.7897338e-05 -6.3762374e-05
000180 db 67 6b b6 80 3f 3f 38 a4 21 1c 38 f3 c5 29 38
       -3.507818e-06 4.5597088e-05 3.722463e-05 4.0477094e-05
000190 b3 c8 0e b7 c3 f5 65 b8 e1 94 80 b8 72 e3 ec b7
       -8.5105885e-06 -5.4826738e-05 -6.1312465e-05 -2.8239305e-05
0001a0 d9 cb 89 38 8f a7 3a b8 d3 5d 54 b8 0d 3a c0 38
       6.570639e-05 -4.4501907e-05 -5.063212e-05 9.166086e-05
0001b0 89 e6 a2 38 b9 e4 04 39 f4 3a 08 39 16 88 ef b8
       7.7677025e-05 0.00012673707 0.00012991932 -0.00011421756
0001c0 e7 72 8e b8 eb 1e 5b 39 e9 09 31 38 33 83 a9 38
       -6.79249e-05 0.00020896985 4.2209318e-05 8.082986e-05
0001d0 8f 9e df 37 83 df cc 38 62 37 12 39 cf 00 86 b7
       2.6657506e-05 9.76911e-05 0.00013944277 -1.5974421e-05
0001e0 01 cf a3 37 27 e6 3f b8 3f 49 d7 b8 55 fb 98 38
       1.9527508e-05 -4.5752295e-05 -0.00010265642 7.294739e-05
0001f0 3d dc 53 38 49 48 13 b8 31 58 5d 39 da 6e 6d 38
       5.0511433e-05 -3.5114852e-05 0.00021109056 5.660844e-05
000200 37 a4 7d b7 80 94 c7 37 77 32 4e 38 df e6 91 38
       -1.5118209e-05 2.37918e-05 4.9161226e-05 6.957142e-05
000210 71 f2 dd 37 8c 38 fd b7 fe 21 a8 b7 31 24 3c b7
       2.6458149e-05 -3.0186282e-05 -2.004299e-05 -1.12141e-05
000220 49 51 29 38 9b 56 43 b8 7f 32 ac b6 fe 90 b6 38
       4.0368443e-05 -4.657228e-05 -5.131878e-06 8.705443e-05
000230 96 96 a5 38 cb 49 08 39 f2 23 00 39 e2 2e da b8
       7.895862e-05 0.0001299746 0.00012220422 -0.00010403783
000240 7a 5b 26 b9 27 2a f3 38 e4 26 f1 37 17 6e a3 38
       -0.00015865071 0.000115949944 2.8747549e-05 7.7929515e-05
000250 4b 45 b7 36 05 f6 23 39 ca e0 fe 38 3b 66 02 b8
       5.4618918e-06 0.00015636541 0.00012153534 -3.1089625e-05
000260 e3 ff 7c b7 1f 43 91 b7 ff f7 1b b9 1f 66 8d 38
       -1.5079949e-05 -1.7316603e-05 -0.00014874338 6.7424255e-05
000270 ed a7 41 38 93 2c 2b 38 0d 0a 41 39 a7 6f 96 38
       4.617118e-05 4.081109e-05 0.00018409659 7.173354e-05
000280 69 ce 9c 36 2e 7d a5 37 b0 fa 21 b8 35 b2 3a b9
       4.6731916e-06 1.9727824e-05 -3.8618862e-05 -0.0001780473
000290 32 a4 49 b9 07 8d 25 b8 94 95 b1 b8 4c d1 d5 38
       -0.00019230021 -3.9470408e-05 -8.467879e-05 0.00010195616
0002a0 51 35 5e 38 df 7a 26 38 76 5c a7 b8 a9 25 32 38
       5.297858e-05 3.9691917e-05 -7.980403e-05 4.247358e-05
0002b0 10 a0 04 b9 81 c0 30 b9 f9 eb c3 b8 97 07 08 39
       -0.00012648129 -0.00016856381 -9.342278e-05 0.00012972798
0002c0 4b c3 92 39 6a 05 98 b8 86 0a 42 b8 9f e3 01 b8
       0.00027992795 -7.248933e-05 -4.6263005e-05 -3.0967985e-05
0002d0 2f 4c fe 37 ac 8c 5b b9 90 d8 13 b9 71 65 01 39
       3.0314635e-05 -0.00020937872 -0.00014099688 0.00012340189
0002e0 e6 66 15 37 57 e6 4c b8 2b 61 6c 39 60 1a 13 b8
       8.90505e-06 -4.885191e-05 0.00022542912 -3.5072095e-05
0002f0 f9 6d 64 b8 e0 16 0e b9 20 57 d0 b7 a5 66 bc b8
       -5.4461856e-05 -0.00013550697 -2.4836103e-05 -8.9836576e-05
000300 aa 2b ba b7 90 60 23 38 f9 fb 50 b8 01 9e 6f b9
       -2.219326e-05 3.895216e-05 -4.9825732e-05 -0.00022851677
000310 9c cd 87 b9 ec d5 86 b8 c1 00 f1 b8 39 85 1b 39
       -0.00025902397 -6.429464e-05 -0.00011491916 0.00014831581
000320 7f c6 8b 38 a9 80 2a 38 e9 df c6 b8 d8 85 a8 38
       6.665009e-05 4.0650983e-05 -9.483082e-05 8.0357946e-05
000330 4d 01 27 b9 8e 44 67 b9 26 bd d6 b8 94 0b 2c 39
       -0.00015926846 -0.00022055415 -0.00010239547 0.00016407511
000340 1a 37 b7 39 50 f3 ea b8 63 53 5a b8 ec 61 19 b8
       0.00034945534 -0.0001120331 -5.205291e-05 -3.656924e-05
000350 57 23 22 38 ee 45 87 b9 18 33 34 b9 3e 6f 14 39
       3.8656723e-05 -0.00025801308 -0.00017185172 0.00014155821
000360 27 6b 06 b8 64 2d 88 b8 a4 96 96 39 86 a2 bf b7
       -3.2047883e-05 -6.49344e-05 0.00028722466 -2.2844655e-05
000370 f3 51 8c b8 e9 19 3e b9 08 8d 0e 34 b0 90 e3 b8
       -6.6909844e-05 -0.00018129464 1.3276087e-07 -0.00010851154
000380 37 e6 cc b7 20 d2 4c 38 c4 a1 4f b6 81 16 4e b7
       -2.4425897e-05 4.8833084e-05 -3.0939564e-06 -1.2283796e-05
000390 ac e1 97 b7 2c 40 33 b8 26 93 1d b8 d5 5b 31 37
       -1.810569e-05 -4.273669e-05 -3.756876e-05 1.0571403e-05
0003a0 27 ee 17 38 20 bd ae b7 65 29 0b b8 86 a7 6b 38
       3.6223002e-05 -2.0830485e-05 -3.3178734e-05 5.6184384e-05
0003b0 a9 58 b2 37 eb 2e 3b 38 67 52 7e 38 7b 2b 45 b8
       2.126054e-05 4.462797e-05 6.0635062e-05 -4.7008954e-05
0003c0 9f ef ee 36 56 6b df 38 7f 3e 4b 38 f4 b5 01 37
       7.1208483e-06 0.000106534615 4.8457176e-05 7.731363e-06
0003d0 03 3f ba 37 69 4a 8d 37 8a b7 9c 38 77 fb 2a b7
       2.220227e-05 1.684316e-05 7.4728465e-05 -1.0191338e-05
0003e0 75 05 ab b7 0f 5b ad b7 da f4 90 b7 f6 d1 06 38
       -2.038733e-05 -2.066561e-05 -1.7280156e-05 3.214363e-05
0003f0 28 52 dd 37 5a d2 40 b8 f8 4d b4 38 38 93 b5 37
       2.638351e-05 -4.5972272e-05 8.597592e-05 2.1645435e-05

exp_avg_sq f4 [128, 32]
000000 f5 3e 5d 34 66 fc 82 34 4c 4b 4b 33 c1 95 a0 35
       2.0605133e-07 2.439803e-07 4.7333103e-08 1.1964513e-06
000010 2b 44 52 35 f5 16 20 33 40 38 b5 33 94 11 25 35
       7.8330294e-07 3.7273782e-08 8.438701e-08 6.149287e-07
000020 99 d4 13 33 88 af 97 32 0b d1 84 33 c1 5b eb 33
       3.441946e-08 1.7658536e-08 6.184754e-08 1.095973e-07
000030 45 3d 72 34 27 37 6a 35 3e 02 8a 35 65 71 28 35
       2.2560296e-07 8.725205e-07 1.0282454e-06 6.274989e-07
000040 a3 b2 55 35 08 21 22 34 d9 c7 98 33 36 11 e1 33
       7.9608634e-07 1.5099442e-07 7.1144036e-08 1.04805096e-07
000050 00 c0 84 32 8c e6 f8 34 e3 fe fd 34 20 70 96 34
       1.5454134e-08 4.6361345e-07 4.7310377e-07 2.802126e-07
000060 be 7b 1f 34 60 82 0d 34 74 0d 95 35 88 b4 04 34
       1.4853046e-07 1.3179078e-07 1.110528e-06 1.2359135e-07
000070 de 29 ce 33 5b 38 9a 35 b0 a2 2f 34 fa f8 4d 33
       9.600238e-08 1.1490296e-06 1.635733e-07 4.7956725e-08
000080 a0 cb 04 34 6f 49 36 34 bb 70 0c 33 e5 75 1b 35
       1.2367536e-07 1.6976786e-07 3.2698818e-08 5.791356e-07
000090 55 d6 d3 34 f6 33 bc 32 60 b1 51 33 59 9b 71 34
       3.945776e-07 2.190971e-08 4.8822926e-08 2.2501389e-07
0000a0 37 d4 cf 32 7f 18 ff 31 17 04 19 33 b7 3f 65 33
       2.4194476e-08 7.4242616e-09 3.5626808e-08 5.3376166e-08
0000b0 81 95 0c 34 dc a2 32 35 f1 a6 c5 34 2a b3 4e 34
       1.3092905e-07 6.654716e-07 3.6815575e-07 1.9250425e-07
0000c0 91 09 97 34 f7 25 c7 33 52 76 d6 33 79 85 a3 33
       2.8132902e-07 9.2735654e-08 9.986674e-08 7.6145575e-08
0000d0 c4 eb 58 32 ce be 31 34 1b 24 a1 34 cb b3 02 34
       1.2626462e-08 1.6553824e-07 3.0014857e-07 1.2172602e-07
0000e0 5c 90 ae 33 49 b0 1a 33 df dd d5 34 6e d3 9c 33
       8.128765e-08 3.601625e-08 3.9835774e-07 7.302775e-08
0000f0 47 f4 89 33 6a 73 01 35 51 db 8b 33 7d fe cb 32
       6.4239934e-08 4.8224194e-07 6.512585e-08 2.3748038e-08
000100 ed f7 f1 33 fb 13 67 34 cf 50 cb 33 4d c2 73 35
       1.12675345e-07 2.152082e-07 9.467623e-08 9.08073e-07
000110 9f 95 44 35 a6 f7 84 32 67 4c 42 33 0f 0b b2 34
       7.323342e-07 1.547944e-08 4.5238632e-08 3.316313e-07
000120 99 49 3f 33 63 eb 5e 32 6e 05 92 33 12 b3 65 33
       4.453759e-08 1.29756215e-08 6.7996424e-08 5.348108e-08
000130 5d a5 19 34 06 52 95 35 9d da 5a 35 a4 c8 06 35
       1.4309394e-07 1.1125237e-06 8.152945e-07 5.021086e-07
000140 01 89 08 35 f2 25 16 34 5a 74 15 34 e4 08 08 33
       5.0863315e-07 1.3983643e-07 1.3919035e-07 3.1673054e-08
000150 6e e6 f1 32 6c fa 9b 34 c0 54 1c 35 3c 68 96 34
       2.816088e-08 2.9053206e-07 5.8237856e-07 2.8015518e-07
000160 7b 15 73 33 5a d7 ed 33 a6 2f 67 35 1c d5 52 34
       5.6597383e-08 1.1075345e-07 8.6123543e-07 1.9635303e-07
000170 f6 5c 26 34 cc b6 87 35 0f 02 24 34 55 a0 00 33
       1.5493774e-07 1.0111485e-06 1.5274439e-07 2.9948144e-08
000180 4a d1 fa 33 e4 f0 a1 33 00 17 8a 33 e9 b1 5b 34
       1.16796016e-07 7.5409645e-08 6.4303094e-08 2.0460688e-07
000190 0f a1 bf 33 cc 33 06 33 db c0 2e 33 e1 0b 3e 34
       8.923427e-08 3.1246415e-08 4.0687933e-08 1.769945e-07
0001a0 b0 89 1c 33 33 d4 b1 32 59 ce 87 33 39 f2 ee 33
       3.6446806e-08 2.0702009e-08 6.323962e-08 1.1126799e-07
0001b0 8b a4 83 33 ae 60 c1 34 b5 13 36 34 85 13 cd 33
       6.130093e-08 3.6019395e-07 1.695724e-07 9.549607e-08
0001c0 26 ca eb 33 00 8e 48 34 53 15 e3 33 9b d7 04 34
       1.0979811e-07 1.8678111e-07 1.057439e-07 1.2371895e-07
0001d0 bc d5 6a 32 36 23 e8 33 4f d1 2a 34 7c c7 57 34
       1.366919e-08 1.0809747e-07 1.590863e-07 2.0096007e-07
0001e0 d6 7b 0e 34 76 3b 84 33 a6 fd 01 34 78 ce 07 33
       1.3269832e-07 6.157545e-08 1.2106338e-07 3.161992e-08
0001f0 4b 66 69 33 de f8 31 34 d4 bd 6b 34 54 a8 1f 33
       5.4342575e-08 1.6574947e-07 2.195514e-07 3.7173166e-08
000200 93 52 eb 33 fe 91 51 34 8a d5 b9 34 41 e6 4c 35
       1.09580604e-07 1.9517753e-07 3.4614305e-07 7.6330986e-07
000210 1a 25 a8 35 46 4f 98 33 97 73 b0 33 42 78 15 34
       1.2527773e-06 7.092471e-08 8.216664e-08 1.3920456e-07
000220 02 25 09 34 cd ef 33 33 fb a0 09 34 3e 9b 81 34
       1.2772583e-07 4.1894783e-08 1.2817684e-07 2.4141076e-07
000230 fb 0d 89 34 46 a9 4c 36 91 47 16 35 e5 d9 62 34
       2.552841e-07 3.04969e-06 5.59835e-07 2.112716e-07
000240 d5 b5 0f 35 14 63 d9 34 00 73 8d 34 fe ea 35 34
       5.353625e-07 4.0491489e-07 2.634697e-07 1.6942428e-07
000250 ea bd 7d 33 a4 66 a0 34 0f 57 d7 35 7d ba d4 34
       5.907888e-08 2.9877003e-07 1.6044086e-06 3.9623765e-07
000260 1f f3 7e 34 c6 b9 7d 33 c0 23 28 35 67 f3 d4 34
       2.374404e-07 5.9075113e-08 6.26369e-07 3.9665176e-07
000270 02 c1 05 35 3d 82 2e 35 3d ed c3 34 59 ab d0 33
       4.9827224e-07 6.500957e-07 3.6494194e-07 9.716923e-08
000280 79 ba 61 33 86 0f 5a 33 9e 83 79 32 cd f1 6a 34
       5.255649e-08 5.07712e-08 1.4523634e-08 2.1880915e-07
000290 fd b4 06 34 98 61 82 32 90 bb b4 32 b0 98 12 34
       1.2545566e-07 1.5178372e-08 2.1040051e-08 1.3652857e-07
0002a0 c9 16 f9 31 f5 ae 0e 31 35 be cc 32 21 3f 0a 33
       7.249444e-09 2.0763171e-09 2.3835222e-08 3.2188044e-08
0002b0 f3 87 00 33 ae c6 08 34 b9 9a 53 34 45 3a 24 34
       2.9925967e-08 1.2738266e-07 1.9707194e-07 1.5294889e-07
0002c0 ff 57 29 34 20 0f 9b 33 f2 70 49 32 48 6c 7b 32
       1.5771364e-07 7.220501e-08 1.1725421e-08 1.4634743e-08
0002d0 c0 96 31 31 20 11 c6 33 3f 6b 93 33 62 b3 96 33
       2.5842581e-09 9.2232085e-08 6.864729e-08 7.017549e-08
0002e0 49 b8 3f 33 9c 35 5c 33 da e1 86 34 15 d2 a5 32
       4.463826e-08 5.12715e-08 2.5123774e-07 1.9304062e-08
0002f0 aa a1 c6 32 15 83 9b 34 f8 16 a3 33 cb d3 55 32
       2.312375e-08 2.8966375e-07 7.594457e-08 1.2446388e-08
000300 24 5f 16 33 1c 75 31 33 e9 38 aa 32 5f 03 6f 34
       3.5011126e-08 4.1317534e-08 1.9816484e-08 2.2259836e-07
000310 a0 43 41 34 09 e6 5b 32 34 33 04 33 28 99 fb 33
       1.7999128e-07 1.2799782e-08 3.0780214e-08 1.1715957e-07
000320 2c 1d 86 32 0e df 96 31 b1 11 d3 32 62 81 09 33
       1.5612919e-08 4.390933e-09 2.4571678e-08 3.201547e-08
000330 67 1e 60 33 09 f3 63 34 13 8b 4c 34 0f f1 10 34
       5.2181715e-08 2.1229438e-07 1.9049575e-07 1.3498742e-07
000340 63 4d 66 34 88 6d 4d 33 19 91 dd 32 e3 40 d5 32
       2.1448572e-07 4.78299e-08 2.5793769e-08 2.482597e-08
000350 8b be c8 31 b5 bf 0e 34 92 f2 e9 33 60 f0 c1 33
       5.8424283e-09 1.3294523e-07 1.0894031e-07 9.030987e-08
000360 0b ce fa 32 77 e4 06 33 57 e2 8f 34 14 af d1 32
       2.9197528e-08 3.1407094e-08 2.680051e-07 2.4410419e-08
000370 09 52 e8 32 2e c3 85 34 72 a3 0d 33 9b 35 82 32
       2.704566e-08 2.4915192e-07 3.2977773e-08 1.5158369e-08
000380 e1 5e 0a 35 f3 ef e8 34 bd a5 40 34 0e c3 d5 35
       5.1547073e-07 4.3387953e-07 1.7941689e-07 1.5926505e-06
000390 0c 38 11 35 41 49 0d 34 6b d6 1a 34 26 a3 bf 35
       5.409827e-07 1.3158298e-07 1.4420372e-07 1.4278091e-06
0003a0 0d e7 5b 33 28 e6 07 33 84 f5 10 34 16 01 ea 34
       5.120005e-08 3.1641463e-08 1.3500363e-07 4.3586687e-07
0003b0 76 9b 07 34 6c 41 3f 35 9a 06 ca 35 b6 8b 9f 35
       1.2629411e-07 7.1248246e-07 1.5052094e-06 1.1887084e-06
0003c0 05 3f 41 35 bc fe 2e 35 56 98 ba 33 e9 ed 2f 34
       7.198981e-07 6.519074e-07 8.68901e-08 1.6384696e-07
0003d0 1d 7c 06 33 c1 3e dc 34 66 02 9d 34 8f b9 58 35
       3.1312187e-08 4.1023853e-07 2.9245274e-07 8.0736294e-07
0003e0 ad 42 f8 34 17 bd 04 35 b8 74 d6 35 8c 83 b1 33
       4.6242113e-07 4.9448994e-07 1.5978212e-06 8.266133e-08
0003f0 db 4b 11 34 54 d6 0b 36 a9 c9 7b 35 ae 8a 37 33
       1.3531773e-07 2.083737e-06 9.379824e-07 4.2734136e-08

exp_avg f4 [128]
000000 fd 7e ed 3a 7d 1c 72 3a 39 b1 06 3a 99 98 71 b9
       0.001811951 0.00092358125 0.00051381026 -0.00023040398
000010 29 46 f8 b9 d4 3c 3e 3a 5c 15 64 3a da c3 80 b6
       -0.0004735452 0.0007256989 0.00087006926 -3.8374974e-06
000020 fd c2 42 3a 8d 06 7b 38 94 a9 ea 39 7d f4 0a 3b
       0.0007429568 5.9849164e-05 0.00044758304 0.0021202855
000030 ba b8 58 b9 25 8a c4 38 d9 04 68 3a 5d 56 1a ba
       -0.00020668181 9.37174e-05 0.000885082 -0.0005887503
000040 fa 33 9e ba b3 0f 16 3b 73 97 0f 3b 38 1a 02 3b
       -0.0012069934 0.002289754 0.002191034 0.0019852053
000050 88 66 2e 39 e3 8a 0e ba 52 f9 90 38 84 40 2f 3b
       0.00016632129 -0.0005437566 6.9128946e-05 0.0026741335
000060 b5 27 94 3b 4c 07 05 3a 9c 0d b2 ba 52 4a c9 39
       0.004521335 0.00050746347 -0.0013584378 0.0003839308
000070 6c d4 70 b8 1c 20 93 39 10 86 76 3b 2c 36 04 ba
       -5.7418292e-05 0.00028061948 0.0037616529 -0.00050434726
000080 68 86 04 3a 85 c8 89 39 eb 9b 26 39 02 a4 b1 39
       0.00050554285 0.00026280075 0.00015889078 0.00033882266
000090 a2 94 af 39 03 79 84 39 de 1d 4c 3a 86 be 91 b9
       0.0003348934 0.00025267163 0.0007786433 -0.00027798506
0000a0 fc 2c 6f 39 b2 51 c7 37 5c a0 85 39 b4 ab 7a 3a
       0.00022809574 2.3760691e-05 0.00025487214 0.0009562329
0000b0 48 e4 40 39 8c 3c 9f b9 50 09 67 3a d7 ac e8 b7
       0.00018395588 -0.00030371954 0.00088133384 -2.773704e-05
0000c0 e6 4b da ba e2 9b 82 3a cf 3c 6a 3a fe 56 47 3a
       -0.00166547 0.000996467 0.0008935453 0.00076042104
0000d0 b5 68 3b 38 95 31 ea 39 fc 9f dd b8 ae 83 06 3b
       4.468179e-05 0.000446689 -0.000105679006 0.0020525265
0000e0 38 9c 91 3a d3 15 f7 38 9c c2 fc b8 97 04 11 39
       0.0011109179 0.00011781943 -0.00012052545 0.00013829987
0000f0 4e 2f 99 38 21 be 81 39 f3 d2 dd 3a ef dc b8 b9
       7.30442e-05 0.00024746454 0.001692383 -0.00035259823
000100 e9 06 df 3a 5c 69 b1 b9 ec 12 8c 3b 90 9d 13 bb
       0.0017015609 -0.0003383857 0.0042747166 -0.0022524334
000110 2b b4 f3 ba 8a 5b 46 3a be fe 1e 3b ce 2d 77 bb
       -0.0018593123 0.0007566741 0.0024260725 -0.003771651
000120 70 6f 01 bb 26 16 98 b8 52 07 36 3b 41 fb a3 bb
       -0.001975026 -7.25205e-05 0.002777536 -0.005004317
000130 6e 25 17 3a b4 90 e5 3a 64 a0 e6 b9 16 96 1e bb
       0.00057657703 0.0017514438 -0.0004398852 -0.0024198345
000140 3c 30 b6 bb 48 f3 d1 3b 74 dc 78 3b 6b d5 2c 3b
       -0.005559949 0.006407175 0.0037973197 0.0026372324
000150 c3 41 ee ba d4 7d ed 39 61 37 f4 39 a9 2e 48 bb
       -0.0018177558 0.00045297912 0.00046580567 -0.003054539
000160 2b b5 2c b9 16 1d 1b 3a 7a 38 49 3a 0f 83 a4 39
       -0.00016470689 0.0005917115 0.0007675957 0.00031378164
000170 1c 57 61 3a 19 c0 d6 b9 1b 44 95 3a 79 1f 16 3b
       0.0008596049 -0.00040960385 0.0011388095 0.0022906943
000180 94 27 e9 3a 28 65 44 3a 68 cd 5a 3a a7 f0 ac b9
       0.0017788284 0.000749188 0.0008346648 -0.00032985696
000190 e0 58 92 b9 8c 5a 02 3a 13 68 59 3a 99 f9 17 39
       -0.00027913507 0.0004972599 0.00082934013 0.00014493465
0001a0 1e e6 7b 3a 0f 62 c4 38 07 62 24 3a f5 65 06 3b
       0.000960918 9.364273e-05 0.0006270711 0.0020507548
0001b0 67 60 68 ba 8b 90 a7 b9 0e 67 6f 3a 09 56 9d b9
       -0.0008864463 -0.00031960415 0.0009132483 -0.00030009475
0001c0 88 a5 9b ba 28 1f 20 3b 70 59 05 3b bf ee 19 3b
       -0.0011874894 0.0024432633 0.0020347498 0.002348825
0001d0 95 65 3d 39 fc 4f 9d ba 93 bb bb 39 0f 60 fc 3a
       0.00018062287 -0.0012001987 0.00035807173 0.0019254702
0001e0 f3 6f 80 3b a6 6b e7 39 fa 91 1a ba 34 ad 16 3a
       0.0039195954 0.00044139958 -0.0005896386 0.0005747855
0001f0 b9 c0 09 38 e3 60 82 b8 74 28 68 3b e7 e9 15 ba
       3.2842832e-05 -6.2169296e-05 0.0035424503 -0.0005718753

exp_avg_sq f4 [128]
000000 6f d7 35 38 0d c6 96 37 d9 52 29 38 97 03 86 36
       4.33544e-05 1.7973618e-05 4.0369898e-05 3.993929e-06
000010 3a a1 15 38 9e 76 10 37 0d 96 0e 37 6b 77 7a 38
       3.5674522e-05 8.610687e-06 8.498796e-06 5.971586e-05
000020 9d 28 14 37 3c 5f 1b 36 68 2c 86 37 4d 5e ae 38
       8.830943e-06 2.3152234e-06 1.5994723e-05 8.3145314e-05
000030 90 fb db 36 9d 77 4e 3a 3b 6a d9 37 97 9a a5 36
       6.5559943e-06 0.00078761 2.5917883e-05 4.93538e-06
000040 6c 7c 20 37 25 3e 9e 39 30 ce a7 38 95 17 36 38
       9.565712e-06 0.0003018241 8.001586e-05 4.3414144e-05
000050 9f c6 68 36 72 6d a3 37 ba d9 58 39 6b fe e3 39
       3.4686307e-06 1.9482079e-05 0.00020680475 0.0004348637
000060 00 56 10 39 de fc e2 37 89 bf 42 37 92 75 af 36
       0.00013764948 2.705905e-05 1.1607896e-05 5.2290934e-06
000070 fc 29 74 37 9f 21 34 36 fe 48 17 39 9a e4 e5 36
       1.4553309e-05 2.684166e-06 0.00014427674 6.8513446e-06
000080 91 85 21 37 3f 6f ef 36 8c f9 ae 37 26 1e 1c 36
       9.627446e-06 7.135706e-06 2.085862e-05 2.326336e-06
000090 eb fb 50 37 0b 80 18 36 24 8e 63 36 17 40 53 37
       1.245642e-05 2.2724296e-06 3.3908373e-06 1.2591502e-05
0000a0 b9 68 df 35 7e c5 22 35 68 55 6a 36 7f ee 06 38
       1.6645273e-06 6.063709e-07 3.491843e-06 3.2170206e-05
0000b0 05 bb 85 36 09 07 ee 39 05 09 85 37 00 4d 22 36
       3.985481e-06 0.0004540014 1.5859036e-05 2.41847e-06
0000c0 b6 74 0f 37 d0 36 c8 38 ff c3 80 37 36 76 3d 37
       8.550638e-06 9.546953e-05 1.5350057e-05 1.1292801e-05
0000d0 28 73 a0 35 ec c0 68 37 07 cd b9 38 8a cb 14 39
       1.1954444e-06 1.3873196e-05 8.859677e-05 0.00014190204
0000e0 d5 14 d3 37 36 bc f4 36 2e f2 7a 36 bd 3c 1d 36
       2.516286e-05 7.2936773e-06 3.739387e-06 2.3430177e-06
0000f0 e8 d6 1b 37 55 b0 47 36 b8 54 32 39 96 b3 b7 35
       9.288757e-06 2.975595e-06 0.00017006963 1.3686829e-06
000100 42 45 84 38 f9 33 af 38 bc 40 18 39 5d bb fc 38
       6.307151e-05 8.354331e-05 0.00014519965 0.000120511955
000110 11 ae 38 3a a7 91 e2 37 e0 26 1e 39 30 26 e2 39
       0.0007044981 2.7009124e-05 0.00015082536 0.0004313453
000120 e7 b1 89 38 ac 2f 7f 37 88 14 d1 38 21 e3 29 3a
       6.565806e-05 1.5210284e-05 9.969721e-05 0.0006480683
000130 b3 1b c8 39 16 74 60 3b 24 b9 b9 38 67 3a f8 38
       0.0003816761 0.003424888 8.8559726e-05 0.0001183644
000140 6f fa 1e 3a af 90 40 3a e9 1b f9 38 e0 db b7 38
       0.0006064539 0.0007345778 0.00011878444 8.767075e-05
000150 12 a1 f5 37 64 1d c9 39 c9 3a 53 3a ba 4a 94 3a
       2.928128e-05 0.00038359605 0.0008057771 0.0011313774
000160 29 65 ee 38 1c 44 36 37 fe db 12 39 7c 6c bf 38
       0.00011367567 1.0863903e-05 0.00014005598 9.1277965e-05
000170 c6 67 c1 38 16 c9 97 38 76 35 2c 3a 18 13 cc 38
       9.2222865e-05 7.237696e-05 0.00065692456 9.7310345e-05
000180 37 0e 48 38 6d 72 70 37 43 41 3c 38 f2 3d 34 36
       4.7696954e-05 1.4331757e-05 4.4883473e-05 2.6858147e-06
000190 4e db cd 37 93 78 08 37 5c 5f 22 37 f4 71 4a 38
       2.4540026e-05 8.134305e-06 9.678155e-06 4.826668e-05
0001a0 1f e7 61 37 1e 78 22 36 f6 c9 aa 37 70 36 a9 38
       1.3464857e-05 2.4209799e-06 2.0359625e-05 8.068688e-05
0001b0 7a cd 28 37 41 30 7e 3a a8 a7 09 38 e6 b6 4b 36
       1.0061422e-05 0.00096965214 3.2819487e-05 3.0355818e-06
0001c0 bd 6a 1f 37 a7 1c 82 39 22 7b 9c 38 e8 1a 2f 38
       9.5019905e-06 0.0002481688 7.461595e-05 4.174831e-05
0001d0 51 44 84 36 6d ad 96 37 11 7d a6 39 4f b5 28 3a
       3.9418596e-06 1.7962151e-05 0.0003175517 0.00064357085
0001e0 22 44 eb 38 05 17 98 37 c9 84 99 36 12 b5 dc 36
       0.00011218364 1.8130531e-05 4.5752136e-06 6.5775903e-06
0001f0 f8 02 83 37 45 78 5c 36 8d 40 9f 39 c7 c4 dd 36
       1.56178e-05 3.285256e-06 0.00030374937 6.609221e-06

exp_avg f4 [128]
000000 fd 7e ed 3a 7d 1c 72 3a 39 b1 06 3a 99 98 71 b9
       0.001811951 0.00092358125 0.00051381026 -0.00023040398
000010 29 46 f8 b9 d4 3c 3e 3a 5c 15 64 3a da c3 80 b6
       -0.0004735452 0.0007256989 0.00087006926 -3.8374974e-06
000020 fd c2 42 3a 8d 06 7b 38 94 a9 ea 39 7d f4 0a 3b
       0.0007429568 5.9849164e-05 0.00044758304 0.0021202855
000030 ba b8 58 b9 25 8a c4 38 d9 04 68 3a 5d 56 1a ba
       -0.00020668181 9.37174e-05 0.000885082 -0.0005887503
000040 fa 33 9e ba b3 0f 16 3b 73 97 0f 3b 38 1a 02 3b
       -0.0012069934 0.002289754 0.002191034 0.0019852053
000050 88 66 2e 39 e3 8a 0e ba 52 f9 90 38 84 40 2f 3b
       0.00016632129 -0.0005437566 6.9128946e-05 0.0026741335
000060 b5 27 94 3b 4c 07 05 3a 9c 0d b2 ba 52 4a c9 39
       0.004521335 0.00050746347 -0.0013584378 0.0003839308
000070 6c d4 70 b8 1c 20 93 39 10 86 76 3b 2c 36 04 ba
       -5.7418292e-05 0.00028061948 0.0037616529 -0.00050434726
000080 68 86 04 3a 85 c8 89 39 eb 9b 26 39 02 a4 b1 39
       0.00050554285 0.00026280075 0.00015889078 0.00033882266
000090 a2 94 af 39 03 79 84 39 de 1d 4c 3a 86 be 91 b9
       0.0003348934 0.00025267163 0.0007786433 -0.00027798506
0000a0 fc 2c 6f 39 b2 51 c7 37 5c a0 85 39 b4 ab 7a 3a
       0.00022809574 2.3760691e-05 0.00025487214 0.0009562329
0000b0 48 e4 40 39 8c 3c 9f b9 50 09 67 3a d7 ac e8 b7
       0.00018395588 -0.00030371954 0.00088133384 -2.773704e-05
0000c0 e6 4b da ba e2 9b 82 3a cf 3c 6a 3a fe 56 47 3a
       -0.00166547 0.000996467 0.0008935453 0.00076042104
0000d0 b5 68 3b 38 95 31 ea 39 fc 9f dd b8 ae 83 06 3b
       4.468179e-05 0.000446689 -0.000105679006 0.0020525265
0000e0 38 9c 91 3a d3 15 f7 38 9c c2 fc b8 97 04 11 39
       0.0011109179 0.00011781943 -0.00012052545 0.00013829987
0000f0 4e 2f 99 38 21 be 81 39 f3 d2 dd 3a ef dc b8 b9
       7.30442e-05 0.00024746454 0.001692383 -0.00035259823
000100 e9 06 df 3a 5c 69 b1 b9 ec 12 8c 3b 90 9d 13 bb
       0.0017015609 -0.0003383857 0.0042747166 -0.0022524334
000110 2b b4 f3 ba 8a 5b 46 3a be fe 1e 3b ce 2d 77 bb
       -0.0018593123 0.0007566741 0.0024260725 -0.003771651
000120 70 6f 01 bb 26 16 98 b8 52 07 36 3b 41 fb a3 bb
       -0.001975026 -7.25205e-05 0.002777536 -0.005004317
000130 6e 25 17 3a b4 90 e5 3a 64 a0 e6 b9 16 96 1e bb
       0.00057657703 0.0017514438 -0.0004398852 -0.0024198345
000140 3c 30 b6 bb 48 f3 d1 3b 74 dc 78 3b 6b d5 2c 3b
       -0.005559949 0.006407175 0.0037973197 0.0026372324
000150 c3 41 ee ba d4 7d ed 39 61 37 f4 39 a9 2e 48 bb
       -0.0018177558 0.00045297912 0.00046580567 -0.003054539
000160 2b b5 2c b9 16 1d 1b 3a 7a 38 49 3a 0f 83 a4 39
       -0.00016470689 0.0005917115 0.0007675957 0.00031378164
000170 1c 57 61 3a 19 c0 d6 b9 1b 44 95 3a 79 1f 16 3b
       0.0008596049 -0.00040960385 0.0011388095 0.0022906943
000180 94 27 e9 3a 28 65 44 3a 68 cd 5a 3a a7 f0 ac b9
       0.0017788284 0.000749188 0.0008346648 -0.00032985696
000190 e0 58 92 b9 8c 5a 02 3a 13 68 59 3a 99 f9 17 39
       -0.00027913507 0.0004972599 0.00082934013 0.00014493465
0001a0 1e e6 7b 3a 0f 62 c4 38 07 62 24 3a f5 65 06 3b
       0.000960918 9.364273e-05 0.0006270711 0.0020507548
0001b0 67 60 68 ba 8b 90 a7 b9 0e 67 6f 3a 09 56 9d b9
       -0.0008864463 -0.00031960415 0.0009132483 -0.00030009475
0001c0 88 a5 9b ba 28 1f 20 3b 70 59 05 3b bf ee 19 3b
       -0.0011874894 0.0024432633 0.0020347498 0.002348825
0001d0 95 65 3d 39 fc 4f 9d ba 93 bb bb 39 0f 60 fc 3a
       0.00018062287 -0.0012001987 0.00035807173 0.0019254702
0001e0 f3 6f 80 3b a6 6b e7 39 fa 91 1a ba 34 ad 16 3a
       0.0039195954 0.00044139958 -0.0005896386 0.0005747855
0001f0 b9 c0 09 38 e3 60 82 b8 74 28 68 3b e7 e9 15 ba
       3.2842832e-05 -6.2169296e-05 0.0035424503 -0.0005718753

exp_avg_sq f4 [128]
000000 6f d7 35 38 0d c6 96 37 d9 52 29 38 97 03 86 36
       4.33544e-05 1.7973618e-05 4.0369898e-05 3.993929e-06
000010 3a a1 15 38 9e 76 10 37 0d 96 0e 37 6b 77 7a 38
       3.5674522e-05 8.610687e-06 8.498796e-06 5.971586e-05
000020 9d 28 14 37 3c 5f 1b 36 68 2c 86 37 4d 5e ae 38
       8.830943e-06 2.3152234e-06 1.5994723e-05 8.3145314e-05
000030 90 fb db 36 9d 77 4e 3a 3b 6a d9 37 97 9a a5 36
       6.5559943e-06 0.00078761 2.5917883e-05 4.93538e-06
000040 6c 7c 20 37 25 3e 9e 39 30 ce a7 38 95 17 36 38
       9.565712e-06 0.0003018241 8.001586e-05 4.3414144e-05
000050 9f c6 68 36 72 6d a3 37 ba d9 58 39 6b fe e3 39
       3.4686307e-06 1.9482079e-05 0.00020680475 0.0004348637
000060 00 56 10 39 de fc e2 37 89 bf 42 37 92 75 af 36
       0.00013764948 2.705905e-05 1.1607896e-05 5.2290934e-06
000070 fc 29 74 37 9f 21 34 36 fe 48 17 39 9a e4 e5 36
       1.4553309e-05 2.684166e-06 0.00014427674 6.8513446e-06
000080 91 85 21 37 3f 6f ef 36 8c f9 ae 37 26 1e 1c 36
       9.627446e-06 7.135706e-06 2.085862e-05 2.326336e-06
000090 eb fb 50 37 0b 80 18 36 24 8e 63 36 17 40 53 37
       1.245642e-05 2.2724296e-06 3.3908373e-06 1.2591502e-05
0000a0 b9 68 df 35 7e c5 22 35 68 55 6a 36 7f ee 06 38
       1.6645273e-06 6.063709e-07 3.491843e-06 3.2170206e-05
0000b0 05 bb 85 36 09 07 ee 39 05 09 85 37 00 4d 22 36
       3.985481e-06 0.0004540014 1.5859036e-05 2.41847e-06
0000c0 b6 74 0f 37 d0 36 c8 38 ff c3 80 37 36 76 3d 37
       8.550638e-06 9.546953e-05 1.5350057e-05 1.1292801e-05
0000d0 28 73 a0 35 ec c0 68 37 07 cd b9 38 8a cb 14 39
       1.1954444e-06 1.3873196e-05 8.859677e-05 0.00014190204
0000e0 d5 14 d3 37 36 bc f4 36 2e f2 7a 36 bd 3c 1d 36
       2.516286e-05 7.2936773e-06 3.739387e-06 2.3430177e-06
0000f0 e8 d6 1b 37 55 b0 47 36 b8 54 32 39 96 b3 b7 35
       9.288757e-06 2.975595e-06 0.00017006963 1.3686829e-06
000100 42 45 84 38 f9 33 af 38 bc 40 18 39 5d bb fc 38
       6.307151e-05 8.354331e-05 0.00014519965 0.000120511955
000110 11 ae 38 3a a7 91 e2 37 e0 26 1e 39 30 26 e2 39
       0.0007044981 2.7009124e-05 0.00015082536 0.0004313453
000120 e7 b1 89 38 ac 2f 7f 37 88 14 d1 38 21 e3 29 3a
       6.565806e-05 1.5210284e-05 9.969721e-05 0.0006480683
000130 b3 1b c8 39 16 74 60 3b 24 b9 b9 38 67 3a f8 38
       0.0003816761 0.003424888 8.8559726e-05 0.0001183644
000140 6f fa 1e 3a af 90 40 3a e9 1b f9 38 e0 db b7 38
       0.0006064539 0.0007345778 0.00011878444 8.767075e-05
000150 12 a1 f5 37 64 1d c9 39 c9 3a 53 3a ba 4a 94 3a
       2.928128e-05 0.00038359605 0.0008057771 0.0011313774
000160 29 65 ee 38 1c 44 36 37 fe db 12 39 7c 6c bf 38
       0.00011367567 1.0863903e-05 0.00014005598 9.1277965e-05
000170 c6 67 c1 38 16 c9 97 38 76 35 2c 3a 18 13 cc 38
       9.2222865e-05 7.237696e-05 0.00065692456 9.7310345e-05
000180 37 0e 48 38 6d 72 70 37 43 41 3c 38 f2 3d 34 36
       4.7696954e-05 1.4331757e-05 4.4883473e-05 2.6858147e-06
000190 4e db cd 37 93 78 08 37 5c 5f 22 37 f4 71 4a 38
       2.4540026e-05 8.134305e-06 9.678155e-06 4.826668e-05
0001a0 1f e7 61 37 1e 78 22 36 f6 c9 aa 37 70 36 a9 38
       1.3464857e-05 2.4209799e-06 2.0359625e-05 8.068688e-05
0001b0 7a cd 28 37 41 30 7e 3a a8 a7 09 38 e6 b6 4b 36
       1.0061422e-05 0.00096965214 3.2819487e-05 3.0355818e-06
0001c0 bd 6a 1f 37 a7 1c 82 39 22 7b 9c 38 e8 1a 2f 38
       9.5019905e-06 0.0002481688 7.461595e-05 4.174831e-05
0001d0 51 44 84 36 6d ad 96 37 11 7d a6 39 4f b5 28 3a
       3.9418596e-06 1.7962151e-05 0.0003175517 0.00064357085
0001e0 22 44 eb 38 05 17 98 37 c9 84 99 36 12 b5 dc 36
       0.00011218364 1.8130531e-05 4.5752136e-06 6.5775903e-06
0001f0 f8 02 83 37 45 78 5c 36 8d 40 9f 39 c7 c4 dd 36
       1.56178e-05 3.285256e-06 0.00030374937 6.609221e-06

exp_avg f4 [12, 32]
000000 00 00 00 00 00 00 00 00 00 00 00 00 00 00 00 00
       0.0 0.0 0.0 0.0
000010 00 00 00 00 00 00 00 00 00 00 00 00 00 00 00 00
       0.0 0.0 0.0 0.0
000020 00 00 00 00 00 00 00 00 00 00 00 00 00 00 00 00
       0.0 0.0 0.0 0.0
000030 00 00 00 00 00 00 00 00 00 00 00 00 00 00 00 00
       0.0 0.0 0.0 0.0
000040 00 00 00 00 00 00 00 00 00 00 00 00 00 00 00 00
       0.0 0.0 0.0 0.0
000050 00 00 00 00 00 00 00 00 00 00 00 00 00 00 00 00
       0.0 0.0 0.0 0.0
000060 00 00 00 00 00 00 00 00 00 00 00 00 00 00 00 00
       0.0 0.0 0.0 0.0
000070 00 00 00 00 00 00 00 00 00 00 00 00 00 00 00 00
       0.0 0.0 0.0 0.0
000080 00 00 00 00 00 00 00 00 00 00 00 00 00 00 00 00
       0.0 0.0 0.0 0.0
000090 00 00 00 00 00 00 00 00 00 00 00 00 00 00 00 00
       0.0 0.0 0.0 0.0
0000a0 00 00 00 00 00 00 00 00 00 00 00 00 00 00 00 00
       0.0 0.0 0.0 0.0
0000b0 00 00 00 00 00 00 00 00 00 00 00 00 00 00 00 00
       0.0 0.0 0.0 0.0
0000c0 00 00 00 00 00 00 00 00 00 00 00 00 00 00 00 00
       0.0 0.0 0.0 0.0
0000d0 00 00 00 00 00 00 00 00 00 00 00 00 00 00 00 00
       0.0 0.0 0.0 0.0
0000e0 00 00 00 00 00 00 00 00 00 00 00 00 00 00 00 00
       0.0 0.0 0.0 0.0
0000f0 00 00 00 00 00 00 00 00 00 00 00 00 00 00 00 00
       0.0 0.0 0.0 0.0
000100 00 00 00 00 00 00 00 00 00 00 00 00 00 00 00 00
       0.0 0.0 0.0 0.0
000110 00 00 00 00 00 00 00 00 00 00 00 00 00 00 00 00
       0.0 0.0 0.0 0.0
000120 00 00 00 00 00 00 00 00 00 00 00 00 00 00 00 00
       0.0 0.0 0.0 0.0
000130 00 00 00 00 00 00 00 00 00 00 00 00 00 00 00 00
       0.0 0.0 0.0 0.0
000140 00 00 00 00 00 00 00 00 00 00 00 00 00 00 00 00
       0.0 0.0 0.0 0.0
000150 00 00 00 00 00 00 00 00 00 00 00 00 00 00 00 00
       0.0 0.0 0.0 0.0
000160 00 00 00 00 00 00 00 00 00 00 00 00 00 00 00 00
       0.0 0.0 0.0 0.0
000170 00 00 00 00 00 00 00 00 00 00 00 00 00 00 00 00
       0.0 0.0 0.0 0.0
000180 00 00 00 00 00 00 00 00 00 00 00 00 00 00 00 00
       0.0 0.0 0.0 0.0
000190 00 00 00 00 00 00 00 00 00 00 00 00 00 00 00 00
       0.0 0.0 0.0 0.0
0001a0 00 00 00 00 00 00 00 00 00 00 00 00 00 00 00 00
       0.0 0.0 0.0 0.0
0001b0 00 00 00 00 00 00 00 00 00 00 00 00 00 00 00 00
       0.0 0.0 0.0 0.0
0001c0 00 00 00 00 00 00 00 00 00 00 00 00 00 00 00 00
       0.0 0.0 0.0 0.0
0001d0 00 00 00 00 00 00 00 00 00 00 00 00 00 00 00 00
       0.0 0.0 0.0 0.0
0001e0 00 00 00 00 00 00 00 00 00 00 00 00 00 00 00 00
       0.0 0.0 0.0 0.0
0001f0 00 00 00 00 00 00 00 00 00 00 00 00 00 00 00 00
       0.0 0.0 0.0 0.0
000200 00 00 00 00 00 00 00 00 00 00 00 00 00 00 00 00
       0.0 0.0 0.0 0.0
000210 00 00 00 00 00 00 00 00 00 00 00 00 00 00 00 00
       0.0 0.0 0.0 0.0
000220 00 00 00 00 00 00 00 00 00 00 00 00 00 00 00 00
       0.0 0.0 0.0 0.0
000230 00 00 00 00 00 00 00 00 00 00 00 00 00 00 00 00
       0.0 0.0 0.0 0.0
000240 00 00 00 00 00 00 00 00 00 00 00 00 00 00 00 00
       0.0 0.0 0.0 0.0
000250 00 00 00 00 00 00 00 00 00 00 00 00 00 00 00 00
       0.0 0.0 0.0 0.0
000260 00 00 00 00 00 00 00 00 00 00 00 00 00 00 00 00
       0.0 0.0 0.0 0.0
000270 00 00 00 00 00 00 00 00 00 00 00 00 00 00 00 00
       0.0 0.0 0.0 0.0
000280 00 00 00 00 00 00 00 00 00 00 00 00 00 00 00 00
       0.0 0.0 0.0 0.0
000290 00 00 00 00 00 00 00 00 00 00 00 00 00 00 00 00
       0.0 0.0 0.0 0.0
0002a0 00 00 00 00 00 00 00 00 00 00 00 00 00 00 00 00
       0.0 0.0 0.0 0.0
0002b0 00 00 00 00 00 00 00 00 00 00 00 00 00 00 00 00
       0.0 0.0 0.0 0.0
0002c0 00 00 00 00 00 00 00 00 00 00 00 00 00 00 00 00
       0.0 0.0 0.0 0.0
0002d0 00 00 00 00 00 00 00 00 00 00 00 00 00 00 00 00
       0.0 0.0 0.0 0.0
0002e0 00 00 00 00 00 00 00 00 00 00 00 00 00 00 00 00
       0.0 0.0 0.0 0.0
0002f0 00 00 00 00 00 00 00 00 00 00 00 00 00 00 00 00
       0.0 0.0 0.0 0.0
000300 00 00 00 00 00 00 00 00 00 00 00 00 00 00 00 00
       0.0 0.0 0.0 0.0
000310 00 00 00 00 00 00 00 00 00 00 00 00 00 00 00 00
       0.0 0.0 0.0 0.0
000320 00 00 00 00 00 00 00 00 00 00 00 00 00 00 00 00
       0.0 0.0 0.0 0.0
000330 00 00 00 00 00 00 00 00 00 00 00 00 00 00 00 00
       0.0 0.0 0.0 0.0
000340 00 00 00 00 00 00 00 00 00 00 00 00 00 00 00 00
       0.0 0.0 0.0 0.0
000350 00 00 00 00 00 00 00 00 00 00 00 00 00 00 00 00
       0.0 0.0 0.0 0.0
000360 00 00 00 00 00 00 00 00 00 00 00 00 00 00 00 00
       0.0 0.0 0.0 0.0
000370 00 00 00 00 00 00 00 00 00 00 00 00 00 00 00 00
       0.0 0.0 0.0 0.0
000380 00 00 00 00 00 00 00 00 00 00 00 00 00 00 00 00
       0.0 0.0 0.0 0.0
000390 00 00 00 00 00 00 00 00 00 00 00 00 00 00 00 00
       0.0 0.0 0.0 0.0
0003a0 00 00 00 00 00 00 00 00 00 00 00 00 00 00 00 00
       0.0 0.0 0.0 0.0
0003b0 00 00 00 00 00 00 00 00 00 00 00 00 00 00 00 00
       0.0 0.0 0.0 0.0
0003c0 00 00 00 00 00 00 00 00 00 00 00 00 00 00 00 00
       0.0 0.0 0.0 0.0
0003d0 00 00 00 00 00 00 00 00 00 00 00 00 00 00 00 00
       0.0 0.0 0.0 0.0
0003e0 00 00 00 00 00 00 00 00 00 00 00 00 00 00 00 00
       0.0 0.0 0.0 0.0
0003f0 00 00 00 00 00 00 00 00 00 00 00 00 00 00 00 00
       0.0 0.0 0.0 0.0
