exp/triplet-conv/6-classes/version_24/checkpoints/epoch=4.ckpt (torch_old, 153330 bytes, 65 tensors)

exp_avg f4 [8, 2, 3]
000000 43 2d 54 bb 18 ef 7f 3b fc d4 7d 3a 1a 1c bc bb
       -0.003237561 0.0039052423 0.0009682921 -0.0057406547
000010 1b 00 6f 3a ac 9c b6 bb 41 78 75 3b 10 ff 4b bb
       0.0009117142 -0.005572876 0.003745571 -0.003112737
000020 c8 a1 ca 3a 64 61 54 bb 67 e4 d4 3b 7c d6 ef bb
       0.0015459592 -0.0032406682 0.0064969542 -0.0073192697
000030 67 f3 72 3a f2 53 a4 39 50 55 e1 39 a7 24 1a ba
       0.0009267837 0.00031343062 0.00042978907 -0.00058800954
000040 62 52 17 3a 6f d1 17 ba f9 31 57 3a 25 97 3b bb
       0.0005772469 -0.0005791401 0.00082090456 -0.0028624025
000050 96 08 e3 39 bb f1 cb 3b 2d 3b 4c bb ae 5f 1a 3b
       0.0004330321 0.006223885 -0.0031163201 0.0023555565
000060 f1 a7 83 b9 9b a9 aa 39 ae 0b 7b 3b a4 09 98 3b
       -0.00025111393 0.00032551293 0.0038306522 0.004639821
000070 9f e6 a1 bb b7 da 2f 3b c9 e4 67 3a ed 90 30 b9
       -0.0049408223 0.0026833245 0.00088460423 -0.00016838657
000080 0b c4 6d 3a 22 a2 8b 3b 22 af 0b 3b 2a 09 7e ba
       0.0009070045 0.004261271 0.0021314104 -0.00096906966
000090 82 77 d1 39 59 5f 95 3a 85 aa ff b9 38 2b 24 3b
       0.00039952627 0.0011396214 -0.00048764437 0.0025050174
0000a0 66 3d 9d 3b b2 d6 17 3a a4 ee f8 3a 63 d5 4d bb
       0.004798579 0.0005792185 0.0018992019 -0.0031407706
0000b0 11 99 62 3b 11 54 1c ba 5a 47 87 ba 77 4d ad bb
       0.0034576098 -0.00059634546 -0.0010320947 -0.0052887755

exp_avg_sq f4 [8, 2, 3]
000000 02 b3 c7 38 a1 02 d4 38 c9 1b ac 38 28 4b cc 38
       9.522402e-05 0.000101094374 8.2067745e-05 9.741477e-05
000010 3d d2 b4 38 1c f7 ab 38 6c d2 0e 39 c1 54 0c 39
       8.622229e-05 8.199943e-05 0.00013620564 0.00013383014
000020 cd 35 f0 38 80 5e 07 39 22 5b 2d 39 d4 af 2d 39
       0.00011454113 0.00012909807 0.00016532515 0.00016564067
000030 17 7a 15 39 c3 ce 02 39 ea bd 1f 39 e9 54 e0 38
       0.0001425523 0.00012474791 0.0001523417 0.00010696968
000040 18 92 0f 39 08 e8 05 39 a7 d2 15 39 27 a2 fa 38
       0.00013691967 0.00012770307 0.00014288221 0.00011951132
000050 ff 2a 0b 39 34 73 e7 38 0d 25 fe 38 3c ba 02 39
       0.0001327209 0.000110363966 0.00012118565 0.00012467144
000060 be ea e8 38 ca fe c3 38 81 1d f7 38 4d fa fb 38
       0.00011106346 9.345783e-05 0.00011783373 0.00012015235
000070 bd cf d6 38 c0 6c 0e 39 a8 4a 12 39 ac ef f9 38
       0.000102430095 0.00013582688 0.00013951457 0.000119178876
000080 57 31 10 39 8e db bc 38 d8 a3 e2 38 ef 5f 0a 39
       0.0001375129 9.005434e-05 0.00010807038 0.00013196444
000090 41 f8 e6 38 08 36 bf 38 60 1d b6 38 6b 9b ae 38
       0.000110134955 9.117654e-05 8.683908e-05 8.3259154e-05
0000a0 05 d5 f5 38 4d b4 a0 38 a9 7a df 38 82 04 e2 38
       0.00011722188 7.662978e-05 0.00010656316 0.000107773594
0000b0 da 44 04 39 95 b9 0a 39 18 12 e0 38 68 53 11 39
       0.0001261415 0.0001322984 0.000106845226 0.00013859349

exp_avg f4 [8]
000000 2c 93 74 3a 7f 63 56 3a 13 b6 42 3a 30 53 81 ba
       0.00093297916 0.0008178278 0.0007427644 -0.0009866711
000010 3f fe 1e 3b 31 aa 25 ba 25 b9 e2 3a 9b 76 2f 3a
       0.002426043 -0.0006319611 0.0017297609 0.0006693394

exp_avg_sq f4 [8]
000000 4c 77 b7 36 96 bb a1 37 d2 46 70 37 30 56 02 37
       5.467713e-06 1.9280047e-05 1.4321604e-05 7.768671e-06
000010 ef 80 36 37 49 e7 f5 36 3b 4f cb 37 0d ad 58 37
       1.0878065e-05 7.328494e-06 2.423638e-05 1.2914895e-05

exp_avg f4 [16, 8, 3]
000000 b8 41 97 ba 4b 53 8a 3b e0 86 39 bb e1 7d 5f 39
       -0.0011539971 0.004221355 -0.0028309152 0.00021313831
000010 c5 b4 ef ba 43 ce d6 ba 5a 39 85 3b dc 40 3e ba
       -0.0018288126 -0.0016388375 0.0040656747 -0.00072575896
000020 1b c6 50 3b c5 a9 5d b9 aa cb d5 39 9b 3d 80 3a
       0.0031856361 -0.00021139446 0.00040778267 0.0009783985
000030 14 23 bb 39 5d 26 ff b9 06 6f 15 3b b0 06 21 bb
       0.00035693555 -0.00048665973 0.002280177 -0.0024570636
000040 e0 1d 9d 3b de 61 98 bb 7f 1a b6 3b 00 70 31 bb
       0.004794821 -0.0046503386 0.005557358 -0.0027074814
000050 29 9b af 3b b5 1f 5f 3b d8 a7 40 b9 6c f1 ad 3b
       0.0053590727 0.0034045998 -0.00018373074 0.0053083207
000060 67 60 33 ba d0 bd 97 ba fc d5 2b 3b 9e 23 06 3b
       -0.0006842673 -0.0011576954 0.0026220074 0.0020468007
000070 6f 3f d3 bb 39 76 36 3b 70 3a 9b b9 34 2d 80 3b
       -0.006446771 0.0027841462 -0.00029607443 0.0039116386
000080 90 cd f9 b8 91 31 0a 39 ac c9 ca 3a fb b1 63 bb
       -0.00011911534 0.0001317917 0.001547148 -0.0034743536
000090 b6 e1 2b 3b 14 53 04 b7 7e e7 88 3b ab b4 17 3b
       0.0026227063 -7.887156e-06 0.0041779866 0.0023148458
0000a0 e5 8b 56 3a d6 a5 49 39 0f 6f b0 3a 31 38 97 3b
       0.0008184298 0.00019230632 0.0013460832 0.004614853
0000b0 fd 16 3d 3a 54 3a 32 3b cc 09 1a 3b e8 ee 7b 3b
       0.00072132034 0.002719541 0.0023504375 0.003844196
0000c0 c9 f3 df ba a2 c4 10 3b d4 2a 48 3b 1c 28 f1 ba
       -0.0017086203 0.0022089859 0.0030543106 -0.0018398794
0000d0 4b a8 da ba c1 1c 87 ba 85 e5 95 3a f1 06 45 3b
       -0.0016682235 -0.0010308252 0.00114362 0.0030063952
0000e0 9c f1 0b 3b be 8e fd 3a 8f 42 f9 ba 8a 4a c1 ba
       0.0021353727 0.0019344909 -0.0019017028 -0.0014746946
0000f0 60 3f 0a 3b fc 89 21 3b a8 c2 b7 3a 14 eb 4b 3b
       0.0021094903 0.0024648895 0.0014019804 0.003111546
000100 17 ea 59 b8 be 83 d7 ba c4 a7 5f 3b 00 6c 87 3b
       -5.1954845e-05 -0.001644246 0.0034127096 0.0041327477
000110 4e 44 7d 3a 0f 23 61 3b 4f 58 82 3b 3f 0e 0c 3b
       0.0009661362 0.0034353172 0.0039778124 0.0021370796
000120 14 d3 a5 3a db cc a9 ba 8a e7 23 3a 2c 77 e3 39
       0.0012651407 -0.0012954728 0.00062524586 0.00043385604
000130 7d ab f2 b9 c8 be ba 3a 49 11 85 3a a3 f9 11 ba
       -0.00046285606 0.0014247531 0.0010152246 -0.000556851
000140 1e 22 e1 ba 13 d6 7b ba d2 d2 18 3b 20 21 8d b9
       -0.0017176305 -0.00096067897 0.0023319018 -0.00026918296
000150 83 d0 e4 ba 8d 60 84 ba 54 f0 be 3a e2 12 08 bb
       -0.0017457161 -0.0010099575 0.0014567473 -0.0020763208
000160 fd f1 13 3a c8 d7 14 3a 33 44 dc b9 5c 26 d3 ba
       0.0005643664 0.0005677906 -0.00042012482 -0.0016109454
000170 91 7a b7 ba 92 b2 a1 ba e8 10 86 ba f7 1b e6 b8
       -0.001399832 -0.0012336543 -0.0010228427 -0.000109724635
000180 77 8f d4 ba 4d 64 50 b9 54 6e 10 3b f2 b7 ad ba
       -0.0016217072 -0.00019873791 0.0022038417 -0.0013253673
000190 24 01 cb 39 04 6b 03 3a 7e 96 1c ba 61 61 18 3a
       0.00038720027 0.00050132 -0.0005973353 0.00058128504
0001a0 a2 bb 86 3a a9 5a 58 3b 19 62 cd b9 1b 8a d4 ba
       0.0010279308 0.0033013022 -0.00039173735 -0.0016215475
0001b0 e9 0e 22 bb 97 7f 26 3b 3f 7d 8c ba 4d 07 80 3b
       -0.0024728125 0.002540564 -0.0010718479 0.0039071203
0001c0 83 aa b6 b9 d5 bb dd 38 77 0a 98 ba 19 a3 ab 3a
       -0.00034840786 0.00010573088 -0.0011599798 0.0013094872
0001d0 66 36 39 b9 c1 8d fc ba 0b d6 21 3b 1c 1a f1 b9
       -0.0001766324 -0.001926832 0.002469423 -0.00045986555
0001e0 df 08 83 3a ba c1 01 bb 77 81 e0 3a de d4 13 ba
       0.0009997151 -0.0019799308 0.0017128427 -0.00056393247
0001f0 c0 86 82 bb 27 62 37 b7 b8 e5 05 3b c1 fc 3c 3b
       -0.0039833486 -1.0930503e-05 0.0020431112 0.0028837177
000200 70 27 d5 39 39 70 24 b8 58 5e 01 3b 7e 7a 9f b9
       0.0004065591 -3.9205162e-05 0.001974007 -0.00030418107
000210 91 02 e5 39 be 77 4d b9 a0 91 36 3b b7 33 b7 3a
       0.00043680196 -0.00019594931 0.0027857795 0.0013977204
000220 99 f6 1d 3a 77 17 09 3b 85 30 0b 3a 6e 3c 5f 3b
       0.00060258206 0.0020918527 0.0005309659 0.0034063119
000230 0a f3 a4 3a 9e 2d 14 3a 65 7a 13 3b 0d 5c 49 3b
       0.0012584638 0.00056525494 0.0022503373 0.0030725033
000240 7b 29 ea ba 39 0f 6f 36 77 0f 84 b9 54 5e 58 b8
       -0.0017865145 3.5622636e-06 -0.00025188524 -5.1586263e-05
000250 c3 b9 2f ba 50 f3 89 3a d2 9d 71 38 dc 75 61 ba
       -0.0006703401 0.0010524783 5.760586e-05 -0.0008600631
000260 68 09 80 3a e7 b5 40 39 d6 d7 98 ba 84 44 8d ba
       0.0009768428 0.00018378311 -0.0011661004 -0.0010777866
000270 cf fe 01 3b 6d 57 70 3a 47 37 2b ba 9f b6 94 ba
       0.0019835716 0.0009168301 -0.0006531369 -0.0011345929
000280 82 b1 e9 39 f6 d5 aa ba 4b 55 a7 3a ff 0f cf b9
       0.00044573477 -0.0013033736 0.0012766508 -0.00039494035
000290 a3 4b 82 3a f3 9e 0e 3b ed 93 7d b7 69 fe 8e b9
       0.0009940754 0.0021762222 -1.5114417e-05 -0.000272739
0002a0 7a 5e 3c bb 4d 43 be 3a 18 51 43 bb 73 d8 5b bb
       -0.0028742836 0.0014515907 -0.0029802974 -0.0033545762
0002b0 4a c9 f5 ba 19 45 9b bb f4 48 27 3b 31 c4 7f 3a
       -0.0018752005 -0.0047384617 0.0025525661 0.0009756713
0002c0 25 a7 d0 3b 66 2f 00 3b e4 b3 2e bb b3 5f b0 3a
       0.0063675814 0.0019559502 -0.0026657516 0.0013456255
0002d0 06 66 a3 3a e7 ab 89 3b a4 aa 47 ba 17 c9 16 3b
       0.0012466318 0.0042014006 -0.0007616675 0.0023008042
0002e0 89 f5 25 39 8f a1 df b8 de 5e 9e 3b 81 a8 19 3b
       0.00015827095 -0.00010663561 0.0048330864 0.0023446383
0002f0 85 08 06 3c a7 0c 3f 3b fa 6b 68 3b b5 5e 54 3b
       0.008180742 0.0029151828 0.003546475 0.0032405083
000300 d2 ba 2f 3a eb e4 47 3a 77 b7 b0 3a 31 53 65 bb
       0.00067035586 0.0007625359 0.0013482411 -0.0034992213
000310 47 2b 92 3a 58 e7 90 3a 80 14 e5 39 6e 85 31 b9
       0.0011151814 0.0011055274 0.00043693557 -0.00016929742
000320 85 db 14 ba 99 f8 0c bb b3 a8 83 bb f4 b8 08 bb
       -0.0005678463 -0.002151048 -0.0040179132 -0.0020862194
000330 ea a6 3f 3b 39 67 06 3b 25 3d 38 bb b3 fc 0b 39
       0.0029243776 0.0020508303 -0.0028112617 0.00013350211
000340 4a 5b 81 bb 40 bc 80 b9 8f 94 28 3b 04 fd 3f 3b
       -0.00394765 -0.0002455432 0.0025723313 0.0029295096
000350 84 01 20 bb b9 e3 e6 3a fb 7c 93 3a e6 28 8b bb
       -0.0024414966 0.0017615474 0.0011252457 -0.004246819
000360 c5 1c c6 3a 4a 42 02 3b 04 1e 67 39 32 02 92 3a
       0.0015114775 0.0019875937 0.00022041058 0.001113957
000370 fe 3f 13 ba 18 b9 05 3b ec 18 97 3a 6a 47 19 3a
       -0.00056171406 0.0020404514 0.0011527813 0.00058471283
000380 cb 1e 9f ba 6a c3 5b ba 26 d0 d7 b9 16 7f b1 b7
       -0.0012139914 -0.0008383306 -0.00041163078 -2.1159223e-05
000390 0a e0 29 ba 2d 8f 0c bb 8d ed 26 3a 70 51 88 3a
       -0.0006480223 -0.0021447644 0.0006367795 0.0010400247
0003a0 4d eb c8 b9 61 8d c9 ba c7 3e b2 39 0a e7 53 ba
       -0.00038322285 -0.0015377217 0.00033997578 -0.0008083439
0003b0 ef c3 c3 ba 8c dc 0e b9 74 99 a2 ba 71 c6 45 b9
       -0.0014935712 -0.00013624335 -0.0012405352 -0.00018861309
0003c0 03 5b fc ba 91 b0 59 ba 81 a6 5b 3a 09 ee 73 ba
       -0.0019253198 -0.00083042035 0.0008378998 -0.00093051844
0003d0 6a c5 75 3b e6 0b d0 ba e5 cd 10 bb bf f2 0f bb
       0.00375017 -0.0015872687 -0.002209538 -0.0021964756
0003e0 95 30 ed b9 11 44 04 3b f7 16 40 b9 0c ba 8c b9
       -0.0004524036 0.0020182172 -0.00018319102 -0.00026841497
0003f0 9a 9f 33 bb 82 d7 b0 39 a1 1f 13 bb b7 81 e3 39
       -0.0027408362 0.00033729902 -0.0022449272 0.0004339346

exp_avg_sq f4 [16, 8, 3]
000000 dc f8 bc 38 37 e0 d1 38 e9 b0 c8 38 7e d3 13 39
       9.010892e-05 0.0001000766 9.569695e-05 0.000140978
000010 0d c4 af 38 35 8e 07 39 9c bb b3 38 e4 a3 76 38
       8.3811676e-05 0.0001292758 8.57033e-05 5.8803605e-05
000020 7a a3 b7 38 8e e6 ff 38 7b 68 fa 38 29 05 d5 38
       8.75657e-05 0.00012202292 0.0001194039 0.000101575926
000030 2f 1d 24 39 f7 cd 14 39 f4 cf ef 38 9a 52 aa 38
       0.0001565113 0.00014191108 0.000114351424 8.1216174e-05
000040 09 b9 c7 38 af 6c d1 38 34 b8 0f 39 9f d1 cb 38
       9.523525e-05 9.9861405e-05 0.00013706164 9.718839e-05
000050 a4 bc 35 39 8a be f0 38 ba 5f d4 38 08 7f dd 38
       0.00017331779 0.000114795825 0.00010126778 0.000105617626
000060 75 5f 1d 38 58 a5 25 38 70 2b 08 38 75 df 1a 38
       3.752062e-05 3.9493054e-05 3.246538e-05 3.692457e-05
000070 be c4 80 38 b2 f0 a7 38 45 09 3c 38 95 7f 34 38
       6.140162e-05 8.0080135e-05 4.4831326e-05 4.3034164e-05
000080 d4 f8 5c 38 7d e3 4f 38 72 bf 3b 38 4c 56 09 38
       5.2683827e-05 4.956451e-05 4.476257e-05 3.2743716e-05
000090 8c ef 7f 38 43 97 03 38 56 1a 67 38 39 f3 1f 38
       6.1019833e-05 3.1373707e-05 5.509922e-05 3.8135073e-05
0000a0 74 18 28 38 ac c0 40 38 0d f3 9c 38 bd 06 6a 38
       4.0077095e-05 4.5955807e-05 7.4839314e-05 5.5796223e-05
0000b0 6f 85 b7 38 dc 5c 9e 38 32 9b 6a 38 06 54 95 38
       8.750974e-05 7.5513235e-05 5.5934484e-05 7.120524e-05
0000c0 57 b5 83 38 00 29 4b 38 3e 60 66 38 36 26 b8 38
       6.280344e-05 4.8437156e-05 5.4925906e-05 8.780921e-05
0000d0 45 14 bd 38 47 1c b0 38 e2 c1 69 38 cd 1a 69 38
       9.015998e-05 8.397601e-05 5.5732096e-05 5.557649e-05
0000e0 b1 45 8d 38 64 fe 45 38 a6 ff 1e 38 74 97 96 38
       6.736385e-05 4.720538e-05 3.7908227e-05 7.180768e-05
0000f0 ec 1b 68 38 29 0b b1 38 a6 b7 af 38 7e 07 5a 38
       5.5339115e-05 8.4420964e-05 8.3788575e-05 5.1982228e-05
000100 3a 21 92 38 7c d1 67 38 b8 19 86 38 66 45 c2 38
       6.9680114e-05 5.526979e-05 6.3944084e-05 9.263567e-05
000110 45 fd aa 38 48 84 a5 38 be 3d a7 38 9e c1 a1 38
       8.153407e-05 7.8924524e-05 7.974681e-05 7.713142e-05
000120 30 49 c9 37 63 9c d4 37 c4 1c 04 38 76 79 30 38
       2.3995148e-05 2.5345193e-05 3.1498043e-05 4.207479e-05
000130 26 07 8f 37 af fe 36 38 02 fa d0 37 3f 0e b2 37
       1.7050257e-05 4.3629374e-05 2.4911951e-05 2.1225887e-05
000140 0f 08 cc 37 dd d5 ef 37 8b 97 fc 37 3c 1f 14 38
       2.4322448e-05 2.8590608e-05 3.0111309e-05 3.531504e-05
000150 23 e3 24 38 4b 4f 1e 38 6b ee 4c 37 1b a3 ee 37
       3.9312185e-05 3.7743983e-05 1.22148585e-05 2.8447763e-05
000160 18 45 de 37 ce 4a 01 38 e3 63 1d 38 a3 83 21 38
       2.6496637e-05 3.0825664e-05 3.7524744e-05 3.8507987e-05
000170 8b af c8 37 6c e8 f8 37 97 6d 13 38 0c 45 ed 36
       2.3923601e-05 2.9672134e-05 3.5149595e-05 7.0711885e-06
000180 4c a1 ed 37 ee 66 b4 37 2b 56 ef 37 0a 8a 17 38
       2.8327711e-05 2.1505602e-05 2.8531145e-05 3.6129764e-05
000190 db ce 42 38 7b a6 05 38 d9 e0 dd 37 ce 6b b3 37
       4.6445854e-05 3.1864718e-05 2.6449956e-05 2.1388663e-05
0001a0 0b 38 b2 37 13 51 e7 37 f2 bc d6 37 bf ea e7 37
       2.124535e-05 2.7575099e-05 2.5598772e-05 2.7646658e-05
0001b0 f7 8c 1b 38 f7 7f 0f 38 bd 25 29 38 4e 92 00 38
       3.7086164e-05 3.4213033e-05 4.0327886e-05 3.0653835e-05
0001c0 7e 4b 09 38 c5 48 23 38 40 d1 25 38 f2 81 30 38
       3.2733653e-05 3.893e-05 3.9533945e-05 4.208269e-05
0001d0 b4 4c 2f 38 cd e3 f0 37 9f 8a f3 37 51 d2 f5 37
       4.1794687e-05 2.8716307e-05 2.9032408e-05 2.9304212e-05
0001e0 f2 af 00 38 2b c5 d9 37 ec e8 d1 37 b1 8f 15 38
       3.068144e-05 2.596023e-05 2.5023204e-05 3.565819e-05
0001f0 bd b8 2f 38 e7 1c 11 38 ba 65 b1 37 e2 1c ad 37
       4.1895302e-05 3.459761e-05 2.1147414e-05 2.0636657e-05
000200 75 7b a1 37 df ea 07 38 68 70 8e 37 8b c4 11 38
       1.9250185e-05 3.240525e-05 1.6980062e-05 3.475374e-05
000210 db f9 fe 37 95 11 16 38 8d 9f 27 38 76 1f 00 38
       3.0395508e-05 3.577916e-05 3.9964496e-05 3.054688e-05
000220 1b 77 d0 37 6a c5 03 38 0c 4b 08 38 30 06 e2 37
       2.4850995e-05 3.141669e-05 3.249482e-05 2.694418e-05
000230 5e 0f ea 37 5f 62 9a 37 b2 2d bf 37 9c be d9 37
       2.790213e-05 1.8404038e-05 2.2790253e-05 2.5957175e-05
000240 35 72 e9 37 be 2e e1 37 a3 2d c6 37 2e 7a 0f 38
       2.7828946e-05 2.6843856e-05 2.362469e-05 3.4207646e-05
000250 b7 ec ca 37 c5 91 0f 38 68 94 81 37 4e f4 a5 37
       2.4190505e-05 3.4229615e-05 1.5447105e-05 1.9783296e-05
000260 21 ba a1 37 42 2b 0d 38 61 49 f0 37 7c 80 fd 37
       1.9279369e-05 3.3657307e-05 2.86444e-05 3.021978e-05
000270 67 f9 40 38 3b 04 0c 38 12 6f 9b 37 1a 1d ea 37
       4.600864e-05 3.338254e-05 1.8529161e-05 2.7908525e-05
000280 ba 36 d1 37 dd 85 da 37 52 e7 1b 38 8a 89 fe 37
       2.4940226e-05 2.604996e-05 3.7170314e-05 3.0343206e-05
000290 8e b5 ce 37 4d 91 14 38 13 7b 93 37 4b b0 0e 37
       2.4641657e-05 3.542127e-05 1.7581076e-05 8.504906e-06
0002a0 41 fc a6 38 92 78 b7 38 3c a2 8a 38 76 a9 d9 38
       7.962483e-05 8.748578e-05 6.610571e-05 0.00010378931
0002b0 f1 04 ed 38 c0 2f be 38 03 d2 a2 38 27 25 a2 38
       0.00011301961 9.0688e-05 7.76388e-05 7.731682e-05
0002c0 e4 60 d3 38 ec 5f 87 38 45 38 a9 38 77 49 9d 38
       0.00010079311 6.4551685e-05 8.069029e-05 7.500027e-05
0002d0 9c 8c dd 38 56 b1 d1 38 45 c3 bb 38 8b 03 97 38
       0.00010564292 9.998928e-05 8.953227e-05 7.200901e-05
0002e0 0c 4f 9f 38 26 d2 b8 38 e1 06 1c 39 40 cb 05 39
       7.5964344e-05 8.812947e-05 0.00014879882 0.00012759585
0002f0 6a 2b 16 39 2d 41 fb 38 f8 16 c0 38 46 e9 cb 38
       0.00014321288 0.000119807526 9.159552e-05 9.723245e-05
000300 30 09 5e 38 d3 98 55 38 8e 0b 6f 38 10 b4 85 38
       5.293748e-05 5.0925486e-05 5.69928e-05 6.3754735e-05
000310 6a 03 bc 38 8b b5 b2 38 64 53 c6 37 76 7a 1b 38
       8.9651745e-05 8.5215164e-05 2.3642271e-05 3.706893e-05
000320 df 61 13 38 7f d1 8e 38 f3 8c 4f 38 c5 c6 5c 38
       3.513868e-05 6.810109e-05 4.9483915e-05 5.2637206e-05
000330 fd 0c 8b 38 7d 1a 80 38 10 7e 8e 38 5c 9e 49 38
       6.630456e-05 6.1084495e-05 6.7945686e-05 4.8069618e-05
000340 af 42 05 38 16 71 45 38 79 56 4d 38 bd 6b 79 38
       3.1771775e-05 4.707378e-05 4.8956343e-05 5.9466565e-05
000350 d9 ee 7a 38 ea 9a 40 38 23 c8 36 38 90 32 20 38
       5.982709e-05 4.5920642e-05 4.3578573e-05 3.8194063e-05
000360 11 f1 24 38 1b c9 29 38 d8 98 28 38 51 4f 83 38
       3.9325158e-05 4.0480034e-05 4.0196668e-05 6.2613406e-05
000370 42 52 24 38 aa b5 96 38 00 f8 3c 38 e4 27 11 38
       3.9177256e-05 7.186395e-05 4.505366e-05 3.4607845e-05
000380 ed 1d 17 38 31 6c 23 38 6e 54 2e 38 85 0d 37 38
       3.6029076e-05 3.896299e-05 4.1563464e-05 4.364319e-05
000390 93 cf d4 37 3b 4d 61 38 26 bb 43 38 57 46 24 38
       2.5369029e-05 5.3716107e-05 4.666592e-05 3.9166156e-05
0003a0 fb 82 17 38 06 df 48 38 fa b2 7d 38 d2 96 13 38
       3.612319e-05 4.7891423e-05 6.0486585e-05 3.5187993e-05
0003b0 12 43 83 38 e3 2e 25 38 1d 4b 5a 38 b6 b1 80 38
       6.2590596e-05 3.9382732e-05 5.2045205e-05 6.136617e-05
0003c0 e0 46 c0 37 e4 2a c6 37 fc ed 6c 37 a6 85 f4 37
       2.2921187e-05 2.3623412e-05 1.4122106e-05 2.9149302e-05
0003d0 0b bd b8 37 37 30 e2 37 b0 4d 99 37 c9 cb 83 37
       2.202254e-05 2.6963751e-05 1.8275197e-05 1.5711312e-05
0003e0 90 f3 95 37 c2 cb 8b 37 1d d5 dc 37 26 ab b0 37
       1.7875602e-05 1.6664973e-05 2.6325282e-05 2.1060532e-05
0003f0 11 6e 1c 38 19 b8 1b 38 db 2c d5 37 c4 4c 9e 37
       3.7295806e-05 3.7126334e-05 2.5412466e-05 1.8870815e-05

exp_avg f4 [16]
000000 10 27 8d b9 cb 79 57 b9 5d 25 83 38 7d 53 0c 3a
       -0.0002692272 -0.00020549369 6.253526e-05 0.0005353017
000010 26 47 db 39 6e 29 7b 39 ee 9f cc 38 1b 9b 72 36
       0.00041823945 0.00023952659 9.757267e-05 3.6151093e-06
000020 12 ab ed 39 0c 92 eb 39 30 36 36 b9 b9 d0 f0 39
       0.0004533162 0.00044931506 -0.00017377059 0.00045931878
000030 09 e8 9b b9 7d ab 66 38 d6 72 3f 39 40 0d f5 b9
       -0.00029736783 5.4995984e-05 0.00018257959 -0.00046739914

exp_avg_sq f4 [16]
000000 86 3c 83 34 4f 12 a1 35 fe 2e aa 35 48 37 96 35
       2.4444688e-07 1.2000763e-06 1.2679664e-06 1.119196e-06
000010 3c 78 7b 35 5b 4f a3 35 06 4e 7f 35 a3 09 1c 35
       9.367975e-07 1.2167542e-06 9.510844e-07 5.812855e-07
000020 a3 cf 72 35 16 56 2d 35 f4 f3 d0 35 a1 41 48 35
       9.0454176e-07 6.4572794e-07 1.5568207e-06 7.460131e-07
000030 a3 e0 84 35 5a 49 6d 35 c4 ae 96 35 6a b8 bd 35
       9.900144e-07 8.839612e-07 1.1226734e-06 1.4135269e-06

exp_avg f4 [16]
000000 02 0e 85 ba e8 7f 8f ba 1b 90 16 3b e1 ff b7 ba
       -0.0010151269 -0.0010948153 0.0022974077 -0.001403805
000010 ef a9 c6 39 28 ed 98 ba ff e6 7b 39 0a fc f9 b9
       0.00037892113 -0.0011667358 0.00024023278 -0.00047680765
000020 16 56 fa 38 22 71 51 ba a9 ff 2b 39 ef 70 d9 3a
       0.00011936964 -0.00079895754 0.00016403072 0.0016589443
000030 3d ae 4e ba ef 73 0e 3a 9b 96 d0 b9 35 4d fd 39
       -0.000788424 0.00054341456 -0.0003978506 0.00048313444

exp_avg_sq f4 [16]
000000 c1 a1 4f 37 d4 96 57 37 15 d1 a7 37 51 84 50 37
       1.2375823e-05 1.2850116e-05 2.0005313e-05 1.2428573e-05
000010 d0 14 15 37 6c 82 45 37 39 af 54 37 60 e0 40 37
       8.885938e-06 1.1772481e-05 1.2676982e-05 1.1496333e-05
000020 4f 99 99 37 43 60 35 37 df 78 7e 37 95 32 65 37
       1.8310411e-05 1.0810853e-05 1.5167722e-05 1.3661241e-05
000030 e0 4d 1c 37 e2 e3 45 37 33 35 6c 37 a8 7a 5f 37
       9.316456e-06 1.1795173e-05 1.4079083e-05 1.3320394e-05

exp_avg f4 [16]
000000 0f 81 bd b9 56 e7 90 b9 53 fb c4 39 45 fc cc 39
       -0.00036145045 -0.0002763818 0.00037571284 0.00039097868
000010 b4 cc c1 b9 4f ba d5 b8 b0 d7 13 b9 55 79 7d 39
       -0.00036964344 -0.00010191334 -0.00014099362 0.0002417316
000020 f0 62 18 38 ce cb 7d 38 46 a9 8e 39 53 49 61 38
       3.6331767e-05 6.050971e-05 0.0002721047 5.371247e-05
000030 b8 a5 09 b9 f5 08 c2 38 45 a0 47 39 25 f9 41 38
       -0.00013127073 9.252309e-05 0.00019037824 4.624682e-05

exp_avg_sq f4 [16]
000000 4e c3 5b 35 2f 42 72 35 f9 6b 6e 35 67 ef 88 35
       8.1868063e-07 9.0248335e-07 8.881903e-07 1.0202465e-06
000010 f5 14 5d 35 3c 23 09 35 85 f2 9f 35 34 4b 5a 35
       8.235941e-07 5.108775e-07 1.1917006e-06 8.1320763e-07
000020 15 f3 65 35 76 ea 31 35 ee 2e 60 35 80 a1 40 35
       8.566288e-07 6.6278824e-07 8.3514794e-07 7.176059e-07
000030 c0 1d 3f 35 d0 e6 54 35 2c 3d 6a 35 33 96 41 35
       7.1196337e-07 7.931203e-07 8.726081e-07 7.211667e-07

exp_avg f4 [32, 16, 3]
000000 d2 51 94 ba c5 60 8c 3a b4 d8 ad ba df d9 6b 3a
       -0.0011315888 0.0010709992 -0.0013263435 0.0008997004
000010 3b e9 df 3a d7 ff 88 ba dc f4 b9 3a 24 c8 82 ba
       0.0017083058 -0.0010452223 0.0014187354 -0.000997786
000020 22 01 ae ba 8f 00 36 ba a2 2e 8e 3a 5f f4 ab b9
       -0.0013275484 -0.0006942832 0.0010847638 -0.00032797732
000030 d5 f0 58 3a a0 7b 7a ba b5 44 7f ba 19 f4 4b 3a
       0.0008275633 -0.0009555165 -0.0009737716 0.0007780209
000040 dc e9 a9 ba 0a bb 59 39 bf 66 ee b9 7f 9a bd b9
       -0.0012963372 0.0002076441 -0.0004547145 -0.00036163998
000050 6b 35 55 3a 35 8f 11 bb 30 a3 17 3a c0 dc b3 3a
       0.0008133265 -0.0022210602 0.00057845097 0.0013722405
000060 59 ed 09 ba 93 65 9e 3a d6 10 bc ba 87 32 ad ba
       -0.0005261503 0.0012084715 -0.0014348279 -0.0013213911
000070 e4 5c e4 36 df ba 4d ba 84 09 1a bb 0d 36 d3 3a
       6.8057434e-06 -0.00078479754 -0.0023504207 0.0016114131
000080 8e a5 12 ba 99 5d 77 3a 12 07 2a b9 43 d4 8a 3a
       -0.00055941276 0.00094362494 -0.00016215097 0.0010591823
000090 c9 e5 e2 b9 95 35 92 ba cc db 6f 3a ff 47 af 3a
       -0.00043277282 -0.0011154885 0.0009149879 0.0013372897
0000a0 c4 9e 35 3a 59 6d 19 3b aa 23 84 3a 54 11 de ba
       0.000692826 0.0023411124 0.001008143 -0.001694242
0000b0 76 aa 06 3b a6 56 21 bb d5 6c f7 3a 77 67 44 bb
       0.002054838 -0.0024618297 0.0018877039 -0.0029968896
0000c0 1e 2b 56 3a 48 cc 44 3a b8 65 2f 3b 1c 45 00 bb
       0.0008169877 0.0007507247 0.002676351 -0.0019572442
0000d0 09 55 ab b4 8c c8 78 bb 40 c6 23 ba ff 4a 14 3a
       -3.1913103e-07 -0.0037961332 -0.0006247498 0.0005656927
0000e0 57 4f 93 3a 5f 0a fe 3a f9 77 90 3b 27 7c 0e 3b
       0.0011238855 0.0019381753 0.004408833 0.002174148
0000f0 74 71 bc ba a6 75 3d 3b f5 57 3f 39 e6 0b 84 38
       -0.0014377073 0.0028909235 0.00018247946 6.296467e-05
000100 e5 3c 1d 3b a6 22 85 3b 3b 7a fa 3a 8b dd 8e 3b
       0.0023992595 0.0040629683 0.0019109914 0.004359906
000110 57 9e 6c 3b 74 cd a6 ba 6c 4d ab 3a 57 c8 2c 38
       0.003610512 -0.0012726025 0.0013069338 4.1194577e-05
000120 1b 01 84 ba 96 d7 38 ba 1c 74 cc 39 2f 8f 93 39
       -0.001007113 -0.0007051168 0.0003899642 0.00028144705
000130 f3 05 1d 3b 11 3a 61 3b 8c 42 02 3a b4 fc e4 3a
       0.0023959845 0.0034366886 0.00049690227 0.0017470331
000140 90 ed e6 3a 85 dc 94 ba 86 58 d5 3a ab 33 1c 3b
       0.0017618407 -0.0011357224 0.0016276992 0.0023834507
000150 13 42 d5 ba 5c 97 86 bb 4c 56 2e bb 7a fa 98 b9
       -0.0016270302 -0.004107399 -0.002660173 -0.0002917832
000160 44 6f c1 3a 1e a5 45 ba de 0a 26 3a 86 ca 54 3b
       0.0014757891 -0.0007539558 0.0006334017 0.0032469346
000170 75 51 51 3b 18 7f 63 b9 4d ab dc 38 2a 5d 10 3b
       0.0031939421 -0.00021695753 0.00010522325 0.0022028186
000180 3c fd ac 3a 39 65 1b ba 36 d3 27 3a 32 41 9e ba
       0.0013198028 -0.0005927864 0.00064020173 -0.0012073873
000190 18 4d 9b b8 9a 8d 16 b9 90 1e 42 ba 82 71 54 3a
       -7.405336e-05 -0.00014357865 -0.0007405067 0.0008104072
0001a0 d2 20 13 b9 e8 8a ca 37 7f 13 88 3a e8 be 0f b8
       -0.00014031239 2.414496e-05 0.0010381787 -3.4271652e-05
0001b0 72 6e 30 ba fb 3a f0 39 df 93 28 3a 33 54 26 39
       -0.0006730325 0.0004582031 0.0006430726 0.0001586236
0001c0 f3 23 83 3a 03 ce 0c 37 e6 c0 ac 3a 56 35 8c 3a
       0.001000522 8.392616e-06 0.0013180047 0.0010697048
0001d0 72 9c 1a b9 d4 f6 76 ba de 2a 74 3a 8a e1 a9 ba
       -0.00014744865 -0.00094209355 0.0009314249 -0.0012960893
0001e0 f9 90 6c b9 86 14 88 ba 76 95 33 3a bd 21 7e 38
       -0.0002256072 -0.0010382093 0.00068505795 6.058974e-05
0001f0 26 d8 0f 3a b9 d0 e0 b8 b8 d6 54 3a e5 66 4b ba
       0.0005487226 -0.0001072003 0.0008119154 -0.0007759168
000200 b0 b3 56 3a e5 a4 74 3a 1c 5e 8d 39 70 b6 6c ba
       0.00081902277 0.00093324325 0.00026963733 -0.0009029871
000210 51 b2 04 ba 3b 73 1b ba e0 e5 dc b8 2a f1 1b b8
       -0.00050619716 -0.00059299514 -0.00010533235 -3.717948e-05
000220 75 36 14 3a a3 34 e7 ba 9b 0c c2 b9 eb 8f 27 3b
       0.00056538667 -0.0017639588 -0.00037011955 0.002556796
000230 0c 16 88 ba 9b 1c 07 3a f9 29 c3 ba 1f e1 c4 3a
       -0.0010382547 0.0005154104 -0.0014889828 0.0015020705
000240 12 32 bb 39 10 02 9d 36 16 c4 9e ba ee 32 a1 ba
       0.00035704725 4.6792047e-06 -0.0012112882 -0.0012298503
000250 43 7b 2a 3b b6 cd c5 ba e4 b4 7d 39 d1 e9 c1 3a
       0.002601341 -0.0015091214 0.00024195347 0.0014794414
000260 a1 f0 3e bb e0 ef 2f bb 44 f1 0e 3b 3d 46 09 bb
       -0.0029135125 -0.0026845858 0.0021811286 -0.0020946406
000270 d2 a5 dd 39 57 a9 aa 36 e1 30 cf 38 bb 8c b1 3a
       0.0004227595 5.0861086e-06 9.8796336e-05 0.0013545969
000280 01 54 23 bb 68 25 21 39 f6 8a 13 bb 7d 47 b4 39
       -0.0024921896 0.00015368091 -0.0022513247 0.00034385538
000290 f4 7b 2c 39 8a 99 85 ba eb 0c d7 39 12 ff 52 ba
       0.00016449374 -0.0010192853 0.0004101762 -0.00080488727
0002a0 ca 4e 8f 3a f0 48 20 bb 3b b4 83 3a 6f b5 e6 b9
       0.0010933515 -0.0024457537 0.001004822 -0.00044004197
0002b0 07 3e 14 b9 d8 bd 12 bb 4f 07 b8 ba df a4 ac b9
       -0.00014137487 -0.0022390988 -0.0014040264 -0.00032929235
0002c0 78 4f 9f 3a cc 36 aa ba 06 cf 10 bb 9a c6 fc 3a
       0.0012154421 -0.0012986301 -0.0022096052 0.0019285262
0002d0 20 30 06 3b 8d c0 c8 ba 74 9a e9 3a f1 44 2d bb
       0.0020475462 -0.0015316174 0.001782252 -0.0026438797
0002e0 bc fe c1 3a 49 8a 91 ba e4 12 83 3a aa ee 1b ba
       0.0014800648 -0.0011103834 0.0010000137 -0.00059483445
0002f0 52 b9 6c ba 5b d7 84 3a b8 48 7d ba 03 6c 04 3a
       -0.00090303004 0.0010134982 -0.000966202 0.00050514954
000300 58 7e 2f 39 8e d9 cb 3a 93 03 0c 3a af 5c 53 ba
       0.00016736367 0.0015552507 0.0005341109 -0.0008062822
000310 b8 37 83 ba 5a 21 96 ba 24 cb 4e ba ed 04 23 3a
       -0.0010011112 -0.0011454031 -0.00078885467 0.00062186905
000320 b0 23 c7 3a bb ef 82 3a e0 af a0 39 bc 78 13 ba
       0.0015193131 0.0009989658 0.00030648615 -0.0005625596
000330 8d 6d bd 39 4f 15 1e b9 dd 90 46 ba 72 02 29 39
       0.0003613051 -0.00015075992 -0.0007574687 0.00016118007
000340 d8 3c a8 3a 33 66 b6 3a 03 a1 b0 3a 1d 25 3c 3a
       0.0012835516 0.0013915956 0.001347572 0.0007177161
000350 d3 11 87 b9 cd 84 20 b8 81 a7 16 3a 54 d5 21 ba
       -0.00025762487 -3.8270653e-05 0.0005747006 -0.0006173451
000360 51 f0 ec b9 0b 87 57 b9 3a 41 0c b8 3b 6f 53 36
       -0.00045192477 -0.00020554305 -3.3439348e-05 3.1506195e-06
000370 79 6c 9a 3a f7 3d 97 3a 34 76 e4 3a f4 1d 92 3a
       0.0011781595 0.0011538853 0.0017430247 0.0011147843
000380 3b 85 c7 ba 6d a1 44 39 fd 85 8f 3a 86 75 46 3a
       -0.0015222201 0.00018752152 0.0010949966 0.0007570613
000390 f4 ac 22 ba 24 4b 23 38 ab 57 b4 39 25 91 95 b9
       -0.00062055816 3.893221e-05 0.00034397593 -0.00028527636
0003a0 e7 76 73 39 ef cf 1f 39 2b 99 4c ba f5 57 e7 39
       0.0002321858 0.00015240883 -0.0007804806 0.00044125287
0003b0 be 82 ad 3a 97 63 e9 38 65 79 45 3a 5b 26 ec b9
       0.0013237817 0.00011128856 0.0007533043 -0.00045042005
0003c0 16 1b 3d 3a 90 53 e3 b9 9f f2 0e 3a 11 7c 36 ba
       0.0007213814 -0.00043359073 0.00054530235 -0.00069612364
0003d0 b0 9d 8d 39 f7 cf 08 3b b3 8c ed ba b5 74 08 b9
       0.00027011102 0.002087591 -0.0018123597 -0.00013013447
0003e0 58 85 f8 39 b2 5e 00 ba fd ad 4a ba 39 ea cc 3a
       0.00047401595 -0.0004896923 -0.0007731615 0.0015633769
0003f0 d5 18 1f ba d6 3b 93 3a e4 3e d8 3a 1d 71 7d ba
       -0.0006069069 0.0011233042 0.0016498235 -0.0009668039

exp_avg_sq f4 [32, 16, 3]
000000 1c 60 8e 37 c9 92 91 37 9e f3 8b 37 78 5a 8d 37
       1.6972474e-05 1.73537e-05 1.6683534e-05 1.6850638e-05
000010 c7 1f 97 37 34 52 89 37 72 89 91 37 45 32 4f 37
       1.80154e-05 1.6369951e-05 1.734935e-05 1.2349866e-05
000020 8c 0b 93 37 44 77 91 37 aa b5 6c 37 66 75 76 37
       1.7529142e-05 1.7340884e-05 1.4108993e-05 1.4690077e-05
000030 c0 a5 a6 37 00 63 ab 37 1c ae a2 37 88 73 5a 37
       1.9865925e-05 2.0430889e-05 1.939298e-05 1.3020712e-05
000040 95 31 8d 37 a8 06 9c 37 d3 d9 9e 37 47 fb 95 37
       1.6831598e-05 1.8599749e-05 1.89365e-05 1.7879194e-05
000050 a3 d5 3a 37 36 15 9a 37 94 5e 37 37 e3 92 a6 37
       1.1136205e-05 1.8368108e-05 1.0929671e-05 1.9857142e-05
000060 ed 15 8e 37 81 87 a4 37 7d 31 ae 37 0b d9 33 37
       1.693793e-05 1.9613422e-05 2.0765461e-05 1.0719766e-05
000070 67 0d 70 37 1b 40 77 37 0d de d5 37 96 bd b0 37
       1.4308235e-05 1.4737273e-05 2.549498e-05 2.1069118e-05
000080 6e 58 a7 37 1d 8c b6 37 99 4b aa 37 35 3d af 37
       1.994913e-05 2.1761336e-05 2.0300782e-05 2.0890127e-05
000090 9e ff a5 37 34 f4 75 37 b8 7b 7e 37 90 6a 48 37
       1.9788564e-05 1.4659996e-05 1.5168385e-05 1.194574e-05
0000a0 0b d8 bf 37 15 34 a9 37 9e e6 af 37 44 d4 af 37
       2.2869577e-05 2.0170623e-05 2.0969015e-05 2.096047e-05
0000b0 95 c6 be 37 83 d5 ad 37 30 3c a7 37 16 26 c7 37
       2.2742237e-05 2.0722631e-05 1.9935978e-05 2.3740384e-05
0000c0 58 24 7e 38 6c c9 51 38 b8 30 59 38 fb f5 46 38
       6.0592167e-05 5.001707e-05 5.1782205e-05 4.7435966e-05
0000d0 80 75 4c 38 fb f8 60 38 e0 6d 25 38 97 97 4b 38
       4.874682e-05 5.3637643e-05 3.9441395e-05 4.854015e-05
0000e0 14 4f 51 38 c9 b7 42 38 32 4c 69 38 d0 36 23 38
       4.990313e-05 4.6424368e-05 5.562249e-05 3.8913277e-05
0000f0 cf 89 46 38 09 a1 4f 38 af 6a 64 38 39 01 48 38
       4.7335223e-05 4.950262e-05 5.4458793e-05 4.7684855e-05
000100 9c 8e 5a 38 4c 74 4c 38 6f ec 76 38 7e 43 5b 38
       5.2108066e-05 4.87457e-05 5.8871166e-05 5.2276526e-05
000110 94 07 1e 38 d7 c0 6a 38 e1 51 34 38 c8 89 4c 38
       3.7677193e-05 5.5969544e-05 4.29916e-05 4.876571e-05
000120 df c1 26 38 66 d2 66 38 b6 15 2d 38 2f 1a 4b 38
       3.975804e-05 5.5032222e-05 4.1266634e-05 4.8423357e-05
000130 15 69 4c 38 ed 7a 63 38 98 2b 4b 38 c9 fc 41 38
       4.8735255e-05 5.42355e-05 4.843957e-05 4.625021e-05
000140 c9 61 57 38 ec 3b 3f 38 fe f6 27 38 89 a5 2a 38
       5.1351064e-05 4.5593755e-05 4.0045932e-05 4.0685325e-05
000150 fa 41 58 38 83 18 65 38 56 48 3e 38 f9 0f 29 38
       5.155986e-05 5.4620683e-05 4.5366898e-05 4.0307616e-05
000160 86 75 4b 38 61 d8 2b 38 f0 65 5a 38 89 63 9b 38
       4.8508424e-05 4.0971096e-05 5.2070187e-05 7.409516e-05
000170 9f e8 77 38 98 69 3d 38 89 c2 48 38 e0 26 57 38
       5.9106034e-05 4.5159453e-05 4.786489e-05 5.12962e-05
000180 4a 3e 14 37 36 76 da 36 c4 47 58 37 04 6e 32 37
       8.83599e-06 6.510668e-06 1.28913125e-05 1.0635242e-05
000190 09 bc 4d 37 a9 33 14 37 e0 19 23 37 90 a3 3b 37
       1.22627325e-05 8.8335155e-06 9.721582e-06 1.1184151e-05
0001a0 e4 92 3d 37 1c 80 55 37 0e 34 13 37 36 fe 42 37
       1.12994785e-05 1.2725617e-05 8.774003e-06 1.1622489e-05
0001b0 72 a7 06 37 6f 18 63 37 47 13 5d 37 31 34 46 37
       8.026009e-06 1.3535943e-05 1.3177115e-05 1.1813871e-05
0001c0 a1 c3 59 37 81 bb 48 37 c1 c9 4f 37 55 bb 2f 37
       1.2979756e-05 1.1964586e-05 1.2385136e-05 1.04744295e-05
0001d0 34 2d 47 37 07 fc 36 37 67 17 f9 36 27 65 3a 37
       1.1871849e-05 1.0906725e-05 7.4235027e-06 1.1110015e-05
0001e0 68 3b 38 37 3a 9c 51 37 aa 42 22 37 60 75 1a 37
       1.0981086e-05 1.2493745e-05 9.671474e-06 9.206444e-06
0001f0 a1 f1 e2 36 cc 82 32 37 f5 b3 78 37 ae 64 11 37
       6.763454e-06 1.064008e-05 1.4823851e-05 8.666115e-06
000200 9c 95 54 37 2a ad 32 37 97 47 6f 37 33 cd 61 37
       1.2671018e-05 1.0649945e-05 1.4262178e-05 1.3458822e-05
000210 2a 4d 6b 37 a9 4d 36 37 51 e9 51 37 51 7f 16 37
       1.4025058e-05 1.0866127e-05 1.2511694e-05 8.97034e-06
000220 78 d1 60 37 1b f3 34 37 46 e7 6d 37 f5 13 72 37
       1.3400211e-05 1.07854385e-05 1.4180148e-05 1.4428971e-05
000230 2f 5f 42 37 70 e6 2e 37 5d ca 0e 37 29 39 e4 36
       1.1585463e-05 1.0424861e-05 8.510976e-06 6.801584e-06
000240 db 23 94 37 91 e4 c7 37 3a e9 ba 37 e1 3e 64 37
       1.7659671e-05 2.3829083e-05 2.2281532e-05 1.3604499e-05
000250 6f ff cb 37 d2 7a 9c 37 ba 5d a1 37 6e 11 a3 37
       2.4318431e-05 1.8653842e-05 1.923634e-05 1.943923e-05
000260 0e c0 8f 37 e5 bc af 37 a3 65 b7 37 27 6e a3 37
       1.713636e-05 2.0949587e-05 2.1862628e-05 1.9482408e-05
000270 50 75 a1 37 ec b8 c4 37 0b 36 94 37 3b f6 b4 37
       1.9247324e-05 2.3451132e-05 1.766814e-05 2.1572332e-05
000280 42 53 b3 37 40 f7 a5 37 45 23 99 37 a5 a4 b1 37
       2.1377233e-05 1.9784668e-05 1.8255445e-05 2.1176713e-05
000290 fc 31 af 37 79 b3 ab 37 fc c7 af 37 b7 36 93 37
       2.0884901e-05 2.0468362e-05 2.095475e-05 1.7549244e-05
0002a0 ec 46 b3 37 e5 af af 37 01 3a b1 37 dc f0 b8 37
       2.1371488e-05 2.0943533e-05 2.1127054e-05 2.2046668e-05
0002b0 c8 5b 92 37 07 31 ab 37 a8 09 b4 37 ce 9d ba 37
       1.7447295e-05 2.0407619e-05 2.1462169e-05 2.2246411e-05
0002c0 96 86 ad 37 09 3d b4 37 b0 95 ba 37 07 cf 9f 37
       2.0685879e-05 2.1486094e-05 2.2242632e-05 1.9050682e-05
0002d0 c3 52 bb 37 8d a9 b9 37 f5 ca 9f 37 a1 65 bb 37
       2.2330676e-05 2.2132672e-05 1.9048786e-05 2.2339462e-05
0002e0 b3 8d b5 37 f9 d1 b3 37 7b 62 ba 37 ac 3a ce 37
       2.1642865e-05 2.1436239e-05 2.2218786e-05 2.4584435e-05
0002f0 8a 03 c3 37 4a fa be 37 db dd c5 37 2e ca b8 37
       2.324746e-05 2.2766315e-05 2.358754e-05 2.2028657e-05
000300 b7 37 ff 37 b5 22 ea 37 ed 07 f7 37 62 ef d0 37
       3.0424313e-05 2.7911135e-05 2.9448385e-05 2.4907004e-05
000310 6d 94 42 37 e6 4e 9c 37 ca 69 97 37 af 7f e1 37
       1.1597859e-05 1.863339e-05 1.8049865e-05 2.6881547e-05
000320 12 9c 74 37 e0 4d 37 37 ed 1e ca 37 ed 53 98 37
       1.4579871e-05 1.0925782e-05 2.4094677e-05 1.8158893e-05
000330 f4 1e d2 37 cd 08 df 37 35 fe ce 37 29 ea cc 37
       2.5048364e-05 2.658777e-05 2.4675488e-05 2.4427734e-05
000340 21 9b b5 37 9a 9f ab 37 d7 8c a8 37 a1 f8 bd 37
       2.1649119e-05 2.0459109e-05 2.0092744e-05 2.2646333e-05
000350 57 ab e6 37 74 e1 ba 37 78 d0 ba 37 e8 ab cc 37
       2.7497923e-05 2.2277913e-05 2.2270004e-05 2.4398745e-05
000360 90 36 ed 37 97 17 fc 37 29 e9 f3 37 b5 c4 9f 37
       2.827801e-05 3.0051726e-05 2.9076431e-05 1.9045876e-05
000370 ad 70 b1 37 70 de 7c 37 61 44 cb 37 c7 0a fa 37
       2.1152513e-05 1.5072161e-05 2.4231327e-05 2.9807341e-05
000380 da d7 e7 37 ad be b2 37 93 15 ac 37 fc 27 b8 37
       2.763786e-05 2.1308044e-05 2.0514044e-05 2.1953128e-05
000390 a7 1d 82 37 e9 18 e1 37 d9 70 be 37 27 10 cb 37
       1.5511016e-05 2.683369e-05 2.2702314e-05 2.4207007e-05
0003a0 00 06 d2 37 e5 0d c4 37 01 97 1a 38 f6 e8 0b 38
       2.5036745e-05 2.337149e-05 3.6857095e-05 3.3357144e-05
0003b0 0b 5b f3 37 2a ef 08 38 87 98 1d 38 47 03 0b 38
       2.9010253e-05 3.2647666e-05 3.757377e-05 3.3143235e-05
0003c0 b3 9e 78 37 b9 d7 fd 36 3b 64 45 37 ba c7 78 37
       1.4818902e-05 7.565101e-06 1.1765452e-05 1.4828454e-05
0003d0 f3 de 6e 37 7a c9 86 37 1d eb 48 37 11 2c 87 37
       1.4237815e-05 1.6067865e-05 1.19756705e-05 1.6113774e-05
0003e0 3c 46 5d 37 93 f7 48 37 68 69 79 37 e8 ab 43 37
       1.3188979e-05 1.1978572e-05 1.4866098e-05 1.1662931e-05
0003f0 71 a8 2f 37 45 7e 89 37 d8 cb 8a 37 02 c3 5e 37
       1.0470031e-05 1.6390472e-05 1.6545804e-05 1.3277635e-05

exp_avg f4 [32]
000000 d1 67 c5 39 85 b8 a0 b9 ec 1a 93 b9 ab 13 b6 b7
       0.00037652117 -0.00030655056 -0.00028058083 -2.170525e-05
000010 56 b4 12 b9 92 c5 6c b9 b6 8e 1d ba 45 f3 0a b9
       -0.00013990825 -0.00022580315 -0.00060103403 -0.0001325133
000020 49 0f d2 39 87 cc df 39 7b e5 29 39 16 e8 86 38
       0.0004006571 0.0004268626 0.00016202584 6.432847e-05
000030 28 0e 5a b9 8d 83 56 b9 a2 4e 82 39 8d 5b 8e 39
       -0.00020795374 -0.00020457637 0.00024854118 0.0002715256
000040 1b 24 9a b9 f4 a3 e2 b9 20 72 66 b9 a6 53 8c 38
       -0.0002940007 -0.00043228234 -0.00021977024 6.691301e-05
000050 46 51 a0 b9 9f 33 99 b9 3f 03 32 39 d3 09 25 ba
       -0.00030578132 -0.00029220895 0.00016976612 -0.00062957144
000060 61 b4 6c 39 d9 4e 07 b8 b5 80 3f b9 08 3b 41 3a
       0.0002257391 -3.225994e-05 -0.00018263127 0.0007371162
000070 01 07 c3 b9 9b f6 89 39 99 61 99 38 58 2a 22 39
       -0.00037198517 0.00026314412 7.3137875e-05 0.00015465298

exp_avg_sq f4 [32]
000000 d9 e2 b4 35 90 2d c2 35 08 4d a2 35 a9 5a 5f 35
       1.3477066e-06 1.4467387e-06 1.209236e-06 8.32059e-07
000010 e1 01 07 36 ad 7a 56 35 e0 23 d1 35 da 9f 96 35
       2.0117661e-06 7.989973e-07 1.5582154e-06 1.1222394e-06
000020 bd da 6f 35 8c f8 93 35 6a 09 5b 35 34 a9 05 36
       8.9352744e-07 1.102469e-06 8.1597557e-07 1.9917034e-06
000030 ff 54 6e 35 b9 ca 9a 35 9c 47 ea 35 9e 8a c9 35
       8.8785595e-07 1.1532894e-06 1.74552e-06 1.501601e-06
000040 78 c0 c0 35 2f f7 93 35 02 b6 20 35 de 9f b1 35
       1.436113e-06 1.1024293e-06 5.98695e-07 1.3234055e-06
000050 6e fd bc 35 1e 43 98 35 0d ca 50 35 a7 18 06 36
       1.4080849e-06 1.1344416e-06 7.778006e-07 1.9981906e-06
000060 36 40 c0 35 44 76 4b 35 ba 7f c9 35 f0 32 61 35
       1.4323803e-06 7.579549e-07 1.501284e-06 8.3893156e-07
000070 c8 78 ae 35 73 0f 1c 36 ea 08 8f 35 60 f8 83 35
       1.2999162e-06 2.3254804e-06 1.0656925e-06 9.832547e-07

exp_avg f4 [32]
000000 35 c0 ba 39 46 b9 0a ba 4e 4b e8 b8 11 e9 b2 ba
       0.0003561989 -0.000529189 -0.00011076649 -0.0013649781
000010 bb af 1c b9 3e cf 26 39 57 52 39 37 2a 1e ac 39
       -0.00014942784 0.00015908197 1.10460305e-05 0.0003282887
000020 c5 f2 c6 b9 31 4b 1e ba 58 0e de b9 50 92 65 ba
       -0.0003794638 -0.0006038426 -0.00042353827 -0.0008757459
000030 d0 27 8b 38 f9 05 a9 3a af f2 f8 ba ea 98 d3 38
       6.635452e-05 0.0012895457 -0.0018993224 0.000100897465
000040 95 38 c4 b8 b4 ab 19 39 9b 5c 1d b9 8f 30 96 37
       -9.3565475e-05 0.00014655181 -0.00015007185 1.7904005e-05
000050 fc f7 35 3a c5 9f 32 3a fa 2c 24 b9 60 62 d8 b9
       0.00069415546 0.00068139686 -0.00015657014 -0.00041272026
000060 e9 15 a2 b9 34 1b d8 b9 ba 79 a6 39 32 83 f2 b9
       -0.00030915372 -0.00041218998 0.0003175268 -0.00046255585
000070 7a f2 c4 3a 67 21 37 ba df 01 a1 39 b1 12 33 3a
       0.0015025877 -0.00069858733 0.00030709707 0.00068310933

exp_avg_sq f4 [32]
000000 98 dc 8b 36 fe 99 be 36 16 df 59 36 8b e5 5e 36
       4.1682033e-06 5.6803683e-06 3.2465373e-06 3.321419e-06
000010 f4 8b dd 36 84 28 43 36 aa 69 89 36 41 91 62 36
       6.602606e-06 2.9080848e-06 4.095219e-06 3.3761173e-06
000020 79 e4 39 36 d3 95 16 36 da 6b 3f 36 4c 84 b0 36
       2.7700137e-06 2.243895e-06 2.8523996e-06 5.26061e-06
000030 3a ac 4e 36 f9 3d a3 36 28 2a 6c 37 b4 af a4 36
       3.079664e-06 4.864993e-06 1.4076511e-05 4.9080354e-06
000040 a1 5a 69 36 85 6d 78 36 86 0e 46 36 05 31 99 36
       3.4772459e-06 3.7018629e-06 2.9512753e-06 4.565462e-06
000050 bb 8b c7 36 c6 ba 8f 36 74 41 2d 36 b4 de c9 36
       5.946929e-06 4.2834754e-06 2.5817108e-06 6.016193e-06
000060 97 d0 63 36 d5 f7 66 36 a4 75 9d 36 cc ec 4a 36
       3.3947051e-06 3.4416928e-06 4.69266e-06 3.023818e-06
000070 35 22 96 36 ac 45 f0 36 56 54 28 36 86 62 94 36
       4.4743306e-06 7.1606682e-06 2.508304e-06 4.4222134e-06

exp_avg f4 [32]
000000 99 e0 6b 39 94 bc 8e b8 07 84 3d b8 a1 b3 ba b9
       0.00022495016 -6.806213e-05 -4.518407e-05 -0.00035610519
000010 a1 f1 a4 b7 ea 24 4a b9 2b 88 45 b9 c1 e4 0a b9
       -1.966284e-05 -0.00019277973 -0.0001883811 -0.00013245923
000020 1f b6 4f 39 ee 49 ff 38 ab cd a0 b8 04 a4 e3 b8
       0.00019808904 0.00012173118 -7.667703e-05 -0.00010854754
000030 31 b2 62 38 bf 1b 1c b9 06 01 69 b9 b9 fc 32 b9
       5.4048553e-05 -0.00014887656 -0.00022220993 -0.0001706955
000040 3c 8d 9b b7 f0 20 9e 37 67 68 77 b9 31 f3 87 b8
       -1.8543207e-05 1.8850405e-05 -0.00023594649 -6.4825996e-05
000050 00 5b dc 38 0d 32 fc b7 d3 0b 35 b9 50 f8 7b b9
       0.000105073676 -3.0064048e-05 -0.0001726591 -0.00024029729
000060 fb 1f 08 b8 04 71 42 b9 89 8f 10 39 69 64 47 38
       -3.245471e-05 -0.00018543383 0.00013786381 4.753881e-05
000070 02 9b 8e 39 61 f2 14 b9 48 08 6c 38 9e a6 b1 38
       0.0002719984 -0.00014204673 5.6274497e-05 8.4710526e-05

exp_avg_sq f4 [32]
000000 35 77 bd 34 a8 92 b3 34 dd c1 da 34 5d 9d bf 34
       3.5290728e-07 3.3448055e-07 4.0746718e-07 3.569102e-07
000010 02 93 d3 34 b0 17 8c 34 13 df fe 34 5d 60 cb 34
       3.9408775e-07 2.6094267e-07 4.7473495e-07 3.788181e-07
000020 66 c5 e7 34 f9 f3 a1 34 f6 d6 cd 34 bd f2 63 34
       4.317073e-07 3.01661e-07 3.834063e-07 2.122933e-07
000030 9e 56 b5 34 8a 29 9a 34 d9 0d ce 34 d2 a8 ee 34
       3.37769e-07 2.871496e-07 3.8380566e-07 4.4453787e-07
000040 cf e3 91 34 49 db 07 35 da 2d 8c 34 3d 8f b1 34
       2.7174107e-07 5.061052e-07 2.6110393e-07 3.307304e-07
000050 f8 65 e3 34 6b 2a be 34 1c 4d d8 34 ec 7b ca 34
       4.2356237e-07 3.542112e-07 4.028924e-07 3.7715597e-07
000060 95 d6 bb 34 dc c1 85 34 86 ef 92 34 cc 52 82 34
       3.4987593e-07 2.4914232e-07 2.7368895e-07 2.427463e-07
000070 b6 b6 82 34 bc 97 c4 34 67 9a a0 34 b0 61 ac 34
       2.4347327e-07 3.6618246e-07 2.9914665e-07 3.2108574e-07

exp_avg f4 [64, 32, 3]
000000 6a 2b 02 bb 4a 85 ee ba c1 d9 07 bb 48 d3 0d 3b
       -0.0019862303 -0.0018197682 -0.0020729157 0.0021640826
000010 7b df e4 3a 33 a5 34 39 50 d6 3f ba ab ec a0 b9
       0.0017461622 0.00017227679 -0.0007318007 -0.0003069391
000020 ae 2c 57 ba 28 21 87 3a 8d 65 17 3a cf f5 a0 3a
       -0.0008208257 0.0010309564 0.0005775325 0.0012280288
000030 9e 2a d0 39 8b 3c 99 39 96 d1 76 38 82 5a 7f 39
       0.00039704604 0.00029227542 5.8846163e-05 0.00024352412
000040 d4 2b 2a 3a c4 08 3c ba f2 e7 d0 b9 d0 38 cb ba
       0.0006491516 -0.0007172937 -0.00039845664 -0.0015504602
000050 d9 6c af 39 56 13 1f 3a 63 db 8f ba 9e 64 19 3a
       0.000334597 0.000606825 -0.0010975417 0.000585148
000060 89 cb 58 ba ac 80 87 3a 63 b8 81 3a 5b ef bc ba
       -0.0008270075 0.001033803 0.000989687 -0.0014414595
000070 a3 a3 9f ba 76 6d fc ba d3 1c 96 3a 93 e3 4a 3a
       -0.0012179505 -0.0019258696 0.0011452682 0.00077395997
000080 d0 0e 10 ba 80 a8 84 ba 11 a8 86 3a 54 85 89 3a
       -0.00054953713 -0.0010121018 0.0010273476 0.0010492005
000090 54 40 10 3a 8d 60 cd 3a cd 83 a3 3a f5 3a 2e 3b
       0.00055027497 0.0015669033 0.0012475193 0.0026585434
0000a0 92 47 a8 3a 20 4b ae 3a 5f 35 41 3b 17 51 3c 3b
       0.0012838712 0.0013297535 0.0029481275 0.0028734857
0000b0 8d 8f d7 3a 94 b5 39 ba 25 f8 58 ba 19 41 9f 39
       0.001644598 -0.0007084247 -0.00082767225 0.00030375345
0000c0 d6 33 eb 39 13 4d c3 ba ae 4a 79 b9 f1 11 85 ba
       0.00044861314 -0.0014900289 -0.00023774311 -0.0010152442
0000d0 aa c8 88 ba 10 38 4b b8 e7 a5 d9 3a c1 a6 fb 3a
       -0.0010435779 -4.8451184e-05 0.0016605229 0.0019199477
0000e0 c6 a0 31 3a a3 fd 48 ba 57 f1 6b b9 96 c9 34 3a
       0.0006775971 -0.00076671893 -0.00022501253 0.0006896494
0000f0 85 2a df 3a 11 cd 2f 3b c0 8b 75 3a ae 89 a2 ba
       0.0017026222 0.002682511 0.00093668327 -0.0012400651
000100 cb c1 d0 ba ce af 92 b9 3a d1 ea ba 2f a7 04 ba
       -0.0015926895 -0.00027978275 -0.0017915138 -0.00050603127
000110 b3 a5 4d ba 15 b1 70 ba bc 7e 2c 3a 82 ac 5a ba
       -0.00078448205 -0.0009181661 0.0006580164 -0.00083417457
000120 80 6e 87 ba 25 c5 f2 ba e5 dc 9e ba fd f3 11 3b
       -0.0010332614 -0.0018521888 -0.0012120275 0.0022270672
000130 65 6e 67 3a 34 4b 9e 3a 13 44 11 b9 39 52 0d bb
       0.0008828401 0.0012076856 -0.00013853637 -0.00215639
000140 98 0b ad 39 a2 1f 1a bb c4 5a 88 ba 41 72 b9 ba
       0.0003300577 -0.002351739 -0.0010403027 -0.001414843
000150 d7 f7 84 ba fb b0 c3 b9 c3 d6 bf ba 77 3e 95 3a
       -0.0010144663 -0.0003732516 -0.0014636148 0.0011386414
000160 fe 49 07 b9 e2 3c 63 3a f0 4c de ba 80 b2 16 bb
       -0.00012902168 0.0008668435 -0.0016960185 -0.0022994578
000170 e7 1c 09 ba 1f 60 a8 b9 d2 af d5 3a d1 96 43 ba
       -0.0005230442 -0.00032115073 0.0016303009 -0.0007461133
000180 7b 72 6c 39 7c b6 8e 3a 9c 2d e6 3a 2c b2 36 ba
       0.00022549361 0.0010888125 0.00175612 -0.00069692987
000190 6b be 01 bb ca 31 bf b9 e3 0d 9d 3a c4 ba cf 39
       -0.0019797336 -0.00036467455 0.0011982288 0.00039621268
0001a0 59 84 83 39 13 36 cd b8 0b 80 ba 38 be a9 c1 b9
       0.00025084874 -9.785234e-05 8.893021e-05 -0.00036938296
0001b0 80 65 e7 b9 d1 31 e1 38 be 83 1c 3a fe 9e 93 3a
       -0.00044135377 0.00010738115 0.0005970559 0.0011262593
0001c0 a1 e1 0b ba 44 10 80 ba 5b fc 00 3a 0f 02 05 3a
       -0.00053360505 -0.0009770473 0.00049204164 0.0005073854
0001d0 5e cc b6 3a 65 80 98 38 f9 5e 46 39 af 4a 81 b9
       0.0013946404 7.27184e-05 0.00018918132 -0.0002466044
0001e0 5e 60 1d 39 3b 65 81 ba ba ac 27 3a 7c 16 82 3a
       0.00015008586 -0.0009872088 0.00063962827 0.0009924914
0001f0 26 b0 b0 3a 1e b2 d3 b8 b9 b0 4d 39 f7 b5 a6 ba
       0.0013480231 -0.00010094441 0.00019616158 -0.0012719025
000200 24 bf 6c 39 4f 70 03 ba 32 af e9 b8 5e a6 3e b9
       0.0002257792 -0.00050139887 -0.000111429385 -0.00018181789
000210 09 7b 81 ba bd 95 16 ba 8f 84 23 b9 7b e5 b2 ba
       -0.0009878586 -0.00057443586 -0.00015594273 -0.0013648713
000220 85 44 9c ba c1 0b 81 ba d1 56 c7 ba b8 ab af ba
       -0.0011922276 -0.0009845422 -0.0015208368 -0.0013402617
000230 f4 aa b1 ba ac 0d 9a 3a 05 fc c2 39 e9 2f 31 ba
       -0.0013554976 0.0011753342 0.00037190333 -0.00067591533
000240 30 46 cf 3a 06 b2 1f 37 04 7c e6 b9 b8 53 d9 38
       0.0015813764 9.518588e-06 -0.00043961417 0.0001036296
000250 66 4e 88 3a 17 a2 6f 3a a5 40 43 ba 37 9c 84 ba
       0.0010399341 0.000914128 -0.00074482925 -0.0010117356
000260 a4 aa 36 39 dc 52 8a 3a 51 a3 c8 b9 ce 16 60 ba
       0.00017420441 0.0010553258 -0.00038268653 -0.000854832
000270 46 68 b4 ba da 29 84 ba 8d 28 e9 b9 ad e3 d4 39
       -0.0013763986 -0.0010083274 -0.00044471436 0.00040605423
000280 af 59 78 39 67 e2 b7 3a a9 87 97 3a 8e b2 74 39
       0.00023684533 0.0014029265 0.0011560816 0.0002333617
000290 3d 7a a8 3a 38 1b c5 3a 91 c5 c8 b9 08 73 7e 38
       0.0012853813 0.0015038019 -0.0003829417 6.066545e-05
0002a0 94 5b b2 3a d8 97 01 3a b9 14 47 3a a0 8c c1 b9
       0.0013607615 0.0004943586 0.00075943355 -0.00036916602
0002b0 08 48 91 ba e0 47 66 ba fe 63 5a 3a fc f8 40 3a
       -0.0011084089 -0.0008784514 0.000833094 0.00073613203
0002c0 4e a6 05 ba 8b 86 f4 3a 02 73 61 3a a3 7d fc b8
       -0.00050983287 0.001865582 0.00086002063 -0.00012039698
0002d0 bb 89 01 3b 5d cb 57 39 2d cd a3 ba cb 76 1f ba
       0.0019765932 0.00020579757 -0.001249706 -0.000608307
0002e0 9f 18 7b ba f1 ba b5 39 a8 64 ea 3a d3 65 ce 3a
       -0.0009578559 0.00034662292 0.0017882781 0.0015746899
0002f0 0b 26 19 3a e8 91 a8 b9 5d f5 18 ba a4 5d 26 3a
       0.00058421557 -0.00032152166 -0.0005834902 0.0006346351
000300 cc 22 58 b9 f2 3f 6b b9 78 8e 13 39 47 0a 60 b9
       -0.00020612328 -0.00022435168 0.00014072086 -0.00021366133
000310 4f 66 91 ba 56 e9 f4 b9 8a c0 e5 39 a5 bc a3 b9
       -0.0011093112 -0.00046713155 0.00043821736 -0.00031230334
000320 af 99 fd b7 c3 f3 26 38 f3 98 72 39 9e d1 97 b8
       -3.0231515e-05 3.9804505e-05 0.00023135896 -7.239285e-05
000330 3d 13 11 ba 78 38 46 ba 70 ee 08 39 0f bc 7a 39
       -0.0005534178 -0.0007561515 0.00013058796 0.00023911915
000340 2f c3 d5 37 53 d7 80 b8 27 51 aa b9 86 80 88 ba
       2.5482468e-05 -6.143623e-05 -0.0003248539 -0.001041428
000350 19 38 aa 3a 39 e8 26 ba 44 73 15 3a 77 c2 85 ba
       0.0012986689 -0.00063670013 0.0005701075 -0.001020505
000360 09 c6 9f b9 20 ef a2 39 4c 1b 53 ba 78 75 f2 b8
       -0.0003047439 0.0003107721 -0.0008053079 -0.000115613395
000370 81 e0 7a b9 ab 06 19 ba 0c 0a 14 38 37 11 44 ba
       -0.00023925492 -0.00058374804 3.5295307e-05 -0.0007479372
000380 7f a6 a8 38 f2 b5 79 38 b8 49 a9 38 27 35 8a b9
       8.0418766e-05 5.9535676e-05 8.072279e-05 -0.00026361013
000390 d4 9f 31 39 3d f6 66 39 25 4b 59 36 5a 40 97 38
       0.00016939576 0.0002202624 3.237926e-06 7.2122275e-05
0003a0 c3 03 72 3a 05 3e d4 39 2f d8 96 b9 b7 95 b0 37
       0.0009232128 0.00040482 -0.000287713 2.1050551e-05
0003b0 44 fe a7 b9 f5 9c 99 b9 d7 03 35 39 68 9b 62 ba
       -0.00032042165 -0.00029299376 0.00017262936 -0.0008644373
0003c0 5f 88 18 ba 56 44 02 3a 53 43 48 39 ac 28 ac 39
       -0.0005818661 0.00049692893 0.00019098567 0.000328367
0003d0 69 94 1b b9 bd fc 75 3a 9e 8e d9 b8 15 52 24 ba
       -0.00014837239 0.0009383669 -0.00010373931 -0.00062683347
0003e0 58 99 53 39 d5 32 a0 b9 c9 45 15 3a 1f 3f 27 ba
       0.00020179653 -0.0003055545 0.0005694298 -0.000637995
0003f0 64 03 a2 39 53 5c 5b 3a fd 29 23 3a 88 b5 94 b9
       0.00030901574 0.00083679444 0.0006224213 -0.0002836401
