test/2-classes/version_125/checkpoints/epoch=43.ckpt (torch_old, 13040 bytes, 21 tensors)

exp_avg f4 [24, 3, 3]
000000 34 d8 1b ba 71 df cd 39 e1 71 57 b7 50 25 00 38
       -0.00059449975 0.00039267124 -1.2841513e-05 3.0552328e-05
000010 70 a1 1a 39 c4 16 4b 39 0b c4 c3 b9 07 3e 2d ba
       0.00014746725 0.0001936807 -0.00037339362 -0.0006608669
000020 b8 c8 f0 b9 06 fe 29 3a 01 c5 6c 38 3a 86 f1 39
       -0.00045925914 0.0006484691 5.645026e-05 0.0004606711
000030 4d da 44 ba 95 07 0d b8 f3 83 04 38 91 c4 8b 39
       -0.0007509336 -3.362408e-05 3.159414e-05 0.000266586
000040 b1 26 b5 38 3c 43 4e 39 c9 70 5f ba 9c 2a 70 37
       8.6379594e-05 0.00019670738 -0.0008523581 1.43150355e-05
000050 8e f6 fb 39 f3 5b 92 b8 e5 60 96 b9 f2 0d 66 39
       0.00048058148 -6.9789494e-05 -0.00028682422 0.00021939704
000060 5d b2 2f ba 69 b1 68 ba c8 0b 27 39 b1 d2 1a ba
       -0.00067022984 -0.0008876534 0.0001593075 -0.0005906029
000070 46 d0 0c ba e3 08 a9 b8 13 9b dd 39 bd e5 a9 38
       -0.00053716113 -8.060203e-05 0.00042267944 8.10134e-05
000080 59 62 82 b9 07 54 34 ba c9 18 38 ba 78 38 23 ba
       -0.00024868807 -0.0006878976 -0.0007022736 -0.0006226371
000090 f9 0d 1e b9 a5 b7 b1 38 a9 77 1f 37 0d fc 2c b9
       -0.0001507326 8.474224e-05 9.504999e-06 -0.00016497094
0000a0 da 28 e4 38 5b 21 70 b9 c3 d2 f9 b8 aa ad c5 39
       0.000108794964 -0.0002290061 -0.00011912503 0.00037704158
0000b0 89 10 a1 39 d7 33 6c b9 2b 32 57 b8 e2 7a 3d b8
       0.00030720633 -0.00022526026 -5.1306717e-05 -4.5175555e-05
0000c0 51 9a 38 39 7e 47 bd 38 65 c6 1f b9 b9 0d c3 b8
       0.00017605095 9.025539e-05 -0.0001523733 -9.3008806e-05
0000d0 9a 14 81 b9 54 4b 93 b9 be 05 c5 39 f7 67 04 39
       -0.00024620147 -0.0002809415 0.00037579046 0.00012627231
0000e0 5b 67 bd 39 1c f2 49 39 62 6b 8f b9 05 d8 79 b9
       0.00036125895 0.00019259047 -0.00027355092 -0.00023826964
0000f0 b5 65 09 3a de e3 fe 39 da 4d 9f 39 fa 33 e9 37
       0.0005241291 0.0004861643 0.00030384847 2.7799968e-05
000100 80 f2 7c 39 9d 42 ba 39 f4 ab d1 b9 64 99 cc 39
       0.00024122931 0.00035526315 -0.00039991701 0.00039024197
000110 54 bd 53 39 2a c3 a0 3a f8 33 a6 b8 06 6c 85 38
       0.00020193058 0.0012265195 -7.925177e-05 6.362055e-05
000120 21 e2 50 38 2d 4a 84 b8 97 cf 6f b9 91 75 07 39
       4.9801663e-05 -6.308067e-05 -0.0002287015 0.000129184
000130 0b c3 07 39 ec 3b 12 3a ae 19 92 38 4c 42 cd b9
       0.00012947262 0.0005578387 6.966606e-05 -0.00039150042
000140 6a 86 db b9 49 c9 e4 39 a3 0b 6c b7 e4 e6 31 ba
       -0.0004187108 0.00043637518 -1.4069406e-05 -0.00067864195
000150 59 86 44 39 b7 b2 b3 b9 38 ca 58 ba 88 2a 98 38
       0.00018742065 -0.00034274693 -0.0008269879 7.255847e-05
000160 14 bf 77 ba 10 f4 fb b9 d1 57 88 39 1d d5 2a 38
       -0.0009450775 -0.0004805629 0.0002600537 4.0729636e-05
000170 0d b9 ca b8 c5 00 b9 38 cd 7d 5e b7 29 eb e2 38
       -9.666579e-05 8.821631e-05 -1.3261521e-05 0.00010820322
000180 85 cb 71 39 b4 eb 43 b9 2b 74 74 b9 60 e2 ee b9
       0.00023059368 -0.00018684455 -0.00023312929 -0.0004556356
000190 1e 9f c2 39 88 01 5a b9 d3 e7 db b8 ff 56 16 3a
       0.00037121115 -0.0002079067 -0.000104859144 0.00057350093
0001a0 ce be 93 b9 8f 7c a4 39 b8 37 86 39 45 13 17 ba
       -0.00028180185 0.0003137332 0.00025599985 -0.0005763064
0001b0 38 9a 4c b8 e0 a9 33 b7 31 b0 91 b6 47 af 64 b8
       -4.8781018e-05 -1.07087835e-05 -4.341848e-06 -5.4522676e-05
0001c0 c2 3d 44 38 2f cb 79 38 a7 d5 d0 b8 01 ea 1b 37
       4.6787558e-05 5.9555456e-05 -9.958009e-05 9.293203e-06
0001d0 82 c8 12 b8 15 8c ef 39 38 92 a7 39 67 61 17 39
       -3.499585e-05 0.00045690002 0.00031961664 0.00014436767
0001e0 62 8c 40 b8 84 b9 2d ba f9 40 5e 39 f4 d8 ec 39
       -4.590711e-05 -0.000662707 0.00021195774 0.0004517507
0001f0 2d 6f 3c 39 dd 37 28 3a 4f 1d 85 b9 18 a8 16 37
       0.00017970493 0.00064170157 -0.00025389573 8.979834e-06
000200 06 95 95 39 5e ec b0 b9 6f 9a 87 39 32 59 30 b9
       0.00028530526 -0.00033745443 0.00025864269 -0.00016817896
000210 b6 92 68 b9 cb 2b bf 38 9c 98 39 b9 59 0c 54 39
       -0.00022179898 9.115747e-05 -0.00017699826 0.00020222495
000220 0e a1 51 39 e0 34 70 39 07 05 96 36 41 47 f7 b8
       0.00019991791 0.00022907881 4.4709336e-06 -0.0001179115
000230 36 29 86 b9 22 83 ee 39 d9 22 63 39 f0 6c b6 38
       -0.00025589176 0.000454926 0.00021661389 8.6987275e-05
000240 1a 84 a0 b9 9e e6 28 b9 d8 da 6c 39 27 a7 29 39
       -0.00030616001 -0.0001610764 0.0002258824 0.00016179365
000250 23 76 b8 b8 1c 8f 69 38 39 58 c3 b9 56 09 95 b9
       -8.7958084e-05 5.568481e-05 -0.0003725903 -0.0002842645
000260 b9 f0 4a b8 cd 11 72 3a 10 ac 28 ba 80 ac ee b8
       -4.8384743e-05 0.000923422 -0.0006434331 -0.00011380855
000270 cd 16 21 3a 21 31 41 b8 c4 d6 97 b9 be e0 b9 b9
       0.000614506 -4.606054e-05 -0.00028960977 -0.00035453396
000280 4b b3 ec b9 ae 7f 08 b9 6e 8d 46 39 30 a2 a5 b9
       -0.0004514701 -0.00013017535 0.00018935438 -0.00031592092
000290 9c e2 ca b9 3e 88 d8 39 7a 1a b7 b5 83 0c 10 3a
       -0.0003869728 0.0004130024 -1.3642268e-06 0.00054950285
0002a0 f3 97 83 b9 84 59 0b ba 37 8a 97 b9 f0 28 02 3a
       -0.00025099478 -0.0005315768 -0.00028903942 0.00049652066
0002b0 88 91 56 b8 a8 b9 28 37 7c 36 4b 39 1b 0b c0 b9
       -5.1157112e-05 1.0056807e-05 0.00019379886 -0.00036629368
0002c0 2d 69 09 39 d9 de e7 38 75 ea af b7 23 9a d3 b3
       0.00013104519 0.00011056447 -2.0970803e-05 -9.8534905e-08
0002d0 dd e4 ca 39 fd 99 89 ba 78 f7 a8 b9 18 bf 1d 3a
       0.0003869896 -0.0010498163 -0.00032227836 0.000601755
0002e0 90 14 7e 39 7e e2 92 b9 84 61 8f b9 ba 56 e2 b9
       0.00024230988 -0.0002801604 -0.0002734774 -0.00043170695
0002f0 ad a9 8f ba 78 30 30 39 ec e0 9d 39 ac 81 cf 39
       -0.0010960602 0.00016802724 0.00030112953 0.0003957873
000300 79 a7 6c b8 c3 75 49 b9 51 88 44 ba 80 56 f2 39
       -5.6422756e-05 -0.00019212723 -0.00074971194 0.00046222284
000310 51 d1 95 39 3a 33 81 39 58 71 03 ba 67 e2 88 b7
       0.00028575448 0.00024642964 -0.0005014143 -1.631789e-05
000320 27 95 ea 39 2b f0 36 39 39 38 4f 39 45 b1 cf b8
       0.00044743085 0.00017446342 0.00019762003 -9.903548e-05
000330 0c 78 b8 b9 dc a0 72 39 21 9e 77 b9 94 0f 9a 38
       -0.00035184657 0.00023138843 -0.00023614663 7.346194e-05
000340 69 dd 19 3a ca 9e 9e 39 43 4a c0 39 73 7d a7 38
       0.00058694795 0.00030254415 0.00036676423 7.986547e-05
000350 9c 28 36 ba f4 8a 86 3a e7 ac c8 b8 b9 49 25 3a
       -0.00069488003 0.00102648 -9.568949e-05 0.0006305236

exp_avg_sq f4 [24, 3, 3]
000000 73 90 84 35 28 2b 86 35 88 72 b5 35 da 58 4b 35
       9.876807e-07 9.996338e-07 1.3518884e-06 7.575269e-07
000010 80 ed 88 35 ed 8a 9d 35 42 0f 4a 35 72 53 74 35
       1.0201911e-06 1.1737844e-06 7.5273067e-07 9.101851e-07
000020 f2 2e ad 35 97 2d 46 35 37 ef 51 35 fa ed 99 35
       1.2903167e-06 7.382709e-07 7.820667e-07 1.1468649e-06
000030 20 c2 1a 35 22 77 2b 35 fb f5 6e 35 f8 75 34 35
       5.765196e-07 6.3875825e-07 8.901986e-07 6.722689e-07
000040 3c b0 3f 35 20 08 80 35 bb 97 f8 34 c5 b6 49 35
       7.14095e-07 9.539108e-07 4.6303998e-07 7.51443e-07
000050 66 5f 1b 35 85 e7 08 35 b3 bf 33 35 e7 0c 03 35
       5.788082e-07 5.1000853e-07 6.6961655e-07 4.882008e-07
000060 90 31 0c 35 e5 e9 2d 35 1d a3 08 35 0e 48 84 35
       5.2226187e-07 6.4787884e-07 5.090131e-07 9.855737e-07
000070 ab d1 fd 34 e9 c1 2c 35 ad 92 3f 35 0e d9 4f 35
       4.7277476e-07 6.435717e-07 7.1366486e-07 7.7429365e-07
000080 0b b6 47 35 52 5a 52 35 7a 06 12 35 29 52 27 35
       7.4398184e-07 7.836253e-07 5.4398663e-07 6.2331907e-07
000090 e3 3e 1b 34 db 3c e1 33 da bf c9 33 65 f2 1c 34
       1.4458378e-07 1.04884485e-07 9.3946895e-08 1.4616815e-07
0000a0 17 b3 be 33 53 a1 c9 33 c4 9a 09 34 dd cd eb 33
       8.880141e-08 9.3891366e-08 1.2815423e-07 1.09804866e-07
0000b0 6f 54 d6 33 54 2e f8 34 83 0b ad 34 f0 e9 9c 34
       9.98051e-08 4.6227308e-07 3.2232137e-07 2.9227476e-07
0000c0 24 99 d5 34 aa d4 85 34 63 c5 88 34 5f db b5 34
       3.9785766e-07 2.4927914e-07 2.5475592e-07 3.387349e-07
0000d0 60 99 92 34 72 7e a7 34 ec 33 7f 35 82 b2 b3 35
       2.7306214e-07 3.1198175e-07 9.507046e-07 1.3388492e-06
0000e0 98 60 84 35 77 aa 83 35 9c 52 87 35 90 e4 14 35
       9.862879e-07 9.809872e-07 1.0082326e-06 5.54669e-07
0000f0 de 9c 88 35 3c bd 86 35 15 2f 35 35 6f 4e 5d 35
       1.0178444e-06 1.0038852e-06 6.749627e-07 8.244305e-07
000100 d7 c2 a5 35 9d 05 5b 35 bd a5 8b 35 89 98 8c 35
       1.2350164e-06 8.1592026e-07 1.0404543e-06 1.0475206e-06
000110 f1 de 31 35 05 fa 86 35 2a 22 99 35 c6 0d 42 35
       6.626206e-07 1.0056543e-06 1.1409331e-06 7.2290675e-07
000120 ca 5f 6a 35 22 cf 4e 35 7c e6 80 35 39 c3 62 35
       8.7311184e-07 7.70424e-07 9.603823e-07 8.4475647e-07
000130 d9 c7 4e 35 3a c6 52 35 6d 18 77 35 6e a1 30 35
       7.7031797e-07 7.8519554e-07 9.2050215e-07 6.580002e-07
000140 eb 73 51 35 c9 b7 a6 35 b9 0e 96 35 bf f0 d9 35
       7.802725e-07 1.2421452e-06 1.1180156e-06 1.6237826e-06
000150 0a e9 b6 35 31 0f 95 35 8a 31 c0 35 7f e7 aa 35
       1.362788e-06 1.1105786e-06 1.4319533e-06 1.2733361e-06
000160 8f b5 94 35 f6 62 b8 35 1b 75 a2 34 98 df 71 34
       1.10797e-06 1.373787e-06 3.0260057e-07 2.2526217e-07
000170 14 c0 97 34 09 47 9a 34 76 a8 2c 34 26 9d 8d 34
       2.8265697e-07 2.873642e-07 1.6080034e-07 2.6377637e-07
000180 b7 13 a8 34 8a f8 75 34 a2 f8 62 34 30 38 5c 35
       3.1306783e-07 2.2907821e-07 2.1138342e-07 8.203815e-07
000190 9b 06 36 35 ef 83 c3 34 e6 44 1b 35 94 f0 47 35
       6.7809896e-07 3.6417575e-07 5.784226e-07 7.4483364e-07
0001a0 80 48 da 34 45 42 47 35 90 38 38 35 2a 89 be 34
       4.0658415e-07 7.422971e-07 6.862765e-07 3.5490058e-07
0001b0 33 bb a2 32 00 9c 97 32 3a 87 02 33 75 5c 89 32
       1.894441e-08 1.7649654e-08 3.039097e-08 1.5990944e-08
0001c0 50 49 09 33 94 5c be 32 2a bc a6 32 50 74 d2 32
       3.1964476e-08 2.216101e-08 1.941051e-08 2.450011e-08
0001d0 8d 97 ea 32 0e 78 b7 34 ef 73 03 35 d7 90 bb 34
       2.7310103e-08 3.4173758e-07 4.897001e-07 3.493685e-07
0001e0 90 d4 bd 34 93 93 e8 34 cf 10 ca 34 16 e9 ca 34
       3.5358653e-07 4.3320742e-07 3.7637662e-07 3.7795024e-07
0001f0 da d8 f6 34 17 7f de 34 5a ff f4 34 8b 82 14 35
       4.597885e-07 4.1443192e-07 4.5634334e-07 5.532426e-07
000200 9e 1d d6 34 1e 67 d0 34 d1 56 02 35 82 56 b8 34
       3.9882156e-07 3.8818047e-07 4.855511e-07 3.4335613e-07
000210 e9 3a eb 34 ef 85 fa 34 c5 75 cd 34 82 5a 48 34
       4.3815024e-07 4.6663578e-07 3.8269914e-07 1.8659378e-07
000220 fd 76 b5 34 4c 71 74 34 cd bf 4b 34 97 09 ae 34
       3.3800453e-07 2.2765488e-07 1.8975625e-07 3.2417003e-07
000230 d1 f5 6a 34 10 b3 7c 34 86 75 99 34 81 c3 48 34
       2.1882376e-07 2.3534471e-07 2.858398e-07 1.8697575e-07
000240 84 9c 48 34 77 80 2d 34 45 a1 79 34 05 18 59 34
       1.8683392e-07 1.6158616e-07 2.3248602e-07 2.0218438e-07
000250 8a 4c 1d 34 68 1a 61 34 74 6e 61 34 85 fc 1c 34
       1.4649609e-07 2.0964364e-07 2.099494e-07 1.4620498e-07
000260 95 3f 74 34 ba 72 7b 35 75 a3 73 35 9f bd 94 35
       2.2747402e-07 9.3671736e-07 9.0762416e-07 1.1082046e-06
000270 d6 41 64 35 43 34 55 35 5c 50 91 35 69 4a 68 35
       8.503242e-07 7.9424734e-07 1.082673e-06 8.6535016e-07
000280 db cf 79 35 43 3d 96 35 d2 c6 0d 35 a6 c8 52 35
       9.30622e-07 1.11937e-06 5.2815915e-07 7.852308e-07
000290 d2 30 3c 35 3d 3c 17 35 56 3b 2e 35 de 08 34 35
       7.01065e-07 5.633954e-07 6.4906396e-07 6.706813e-07
0002a0 b7 15 2d 35 29 49 29 35 d1 be 33 35 94 de ec 34
       6.447912e-07 6.306387e-07 6.696037e-07 4.4120372e-07
0002b0 0b 18 e9 34 2f 83 17 35 29 4d d5 34 dc 42 ac 34
       4.3417126e-07 5.644278e-07 3.9730483e-07 3.2086143e-07
0002c0 b1 3a 07 35 39 b9 d5 34 af a8 df 34 59 50 05 35
       5.0376826e-07 3.980911e-07 4.165972e-07 4.966328e-07
0002d0 f3 75 41 35 dd 5b 88 35 af e3 78 35 a8 27 55 35
       7.206974e-07 1.0159525e-06 9.271852e-07 7.940639e-07
0002e0 7c 9a 70 35 f5 66 8e 35 b5 46 25 35 63 37 51 35
       8.963177e-07 1.0609789e-06 6.157018e-07 7.7939166e-07
0002f0 49 ce ac 35 e6 4b 22 35 35 e9 39 35 73 01 0a 35
       1.2875036e-06 6.046015e-07 6.925723e-07 5.1411115e-07
000300 f5 7d 18 35 48 b3 4f 35 d1 89 1b 35 f2 fc 2c 35
       5.6807704e-07 7.73744e-07 5.794255e-07 6.4443077e-07
000310 57 c4 51 35 c2 d5 f9 34 03 82 a5 34 81 51 f3 34
       7.814428e-07 4.6535393e-07 3.082824e-07 4.532158e-07
000320 f7 66 dc 34 e1 92 a2 34 72 8b ba 34 cd 81 d7 34
       4.105311e-07 3.028172e-07 3.474666e-07 4.0141313e-07
000330 1d 5c 8c 34 f4 83 d5 34 06 10 cd 34 61 16 45 35
       2.6144053e-07 3.977035e-07 3.8195884e-07 7.3420784e-07
000340 13 c6 89 35 f9 4e 29 35 48 c9 60 35 d9 4c 6e 35
       1.0264943e-06 6.3072326e-07 8.3739405e-07 8.877374e-07
000350 ec 3a 14 35 9b ab 6b 35 1a 4b 70 35 a3 c9 30 35
       5.522004e-07 8.779404e-07 8.9516254e-07 6.585853e-07

exp_avg f4 [24]
000000 b7 51 90 b9 8f c6 1f 39 f4 3c 20 b9 29 09 1f b9
       -0.00027526703 0.0001523739 -0.00015281496 -0.00015166834
000010 1d c9 1b b8 aa 1d 6b b8 6d 8e 2b 39 79 20 2c 39
       -3.714218e-05 -5.6055993e-05 0.00016360889 0.00016415295
000020 aa 24 b1 b7 05 2d 7b b9 6e 93 27 37 28 d6 e4 38
       -2.1117117e-05 -0.00023953996 9.988302e-06 0.00010911777
000030 c0 2c 73 b7 72 80 f5 38 c5 b9 88 38 ed 21 6f 38
       -1.4494348e-05 0.00011706435 6.5195876e-05 5.7013636e-05
000040 d6 c6 fa b8 f5 38 4f b9 d1 53 04 b9 86 a8 84 b8
       -0.00011957965 -0.00019762276 -0.00012619725 -6.3256404e-05
000050 94 e2 66 b9 d9 c4 95 38 28 a4 64 b6 37 aa 21 39
       -0.00022018916 7.1415394e-05 -3.40702e-06 0.00015417566

exp_avg_sq f4 [24]
000000 14 9c 60 33 83 1c 9e 32 a4 3c 43 32 95 9f 9e 32
       5.2296016e-08 1.8406586e-08 1.1364282e-08 1.846619e-08
000010 81 2f cc 30 5b 0f 95 31 9d 15 01 33 2e ac f4 32
       1.4856455e-09 4.3382165e-09 3.005481e-08 2.8483637e-08
000020 ff d3 3b 32 ba 5a 5a 33 d3 32 83 31 f5 95 03 32
       1.0933035e-08 5.0839596e-08 3.81838e-09 7.6593e-09
000030 b3 17 7b 2f 27 c8 b8 31 65 5b c5 31 89 46 06 31
       2.2836737e-10 5.3778595e-09 5.743845e-09 1.953966e-09
000040 32 b4 a2 31 c4 b8 1d 33 06 ac 22 32 fa 44 4b 32
       4.7353064e-09 3.6722454e-08 9.468755e-09 1.1831839e-08
000050 77 22 3e 33 10 58 f6 31 4f b4 f6 30 27 24 a1 32
       4.4269168e-08 7.169554e-09 1.7950103e-09 1.8759307e-08

exp_avg f4 [1, 24, 3]
000000 e8 76 10 39 bd bb 08 3b 99 92 66 3a 8e 8c 86 ba
       0.00013777206 0.0020863854 0.00087956485 -0.0010265277
000010 66 54 44 bb 64 59 26 ba fd ac dd 39 7b f5 94 3a
       -0.0029957532 -0.00063457177 0.0004228129 0.0011364663
000020 dc 36 59 3b 07 dc b7 ba e2 76 b0 b9 0b f3 85 ba
       0.003314427 -0.0014027365 -0.0003365791 -0.0010219527
000030 69 12 6e ba 66 92 58 3a 2b 7e 53 39 7d 40 8e ba
       -0.0009081723 0.0008261561 0.0002016953 -0.0010852959
000040 47 b9 e2 b9 0c 15 0f bb e0 51 8a ba 4e fc a0 ba
       -0.00043244121 -0.0021832613 -0.0010552965 -0.0012282224
000050 fd e7 23 ba 16 af 98 b9 35 e6 01 3b 70 67 c6 b8
       -0.00062525255 -0.00029122148 0.0019821052 -9.4606425e-05
000060 5a 26 c6 3a 27 73 b5 39 2f 0b 4b 3a 68 7a ea 3a
       0.0015117631 0.00034608805 0.0007745502 0.0017889263
000070 be 9f f0 3a 81 b6 08 bb 0f 49 26 ba 5e 8f ed 3a
       0.0018358154 -0.0020860734 -0.0006343284 0.0018124392
000080 b3 50 1f 3b 23 50 52 3a 68 70 1c 3b 39 a0 e2 b9
       0.0024309575 0.00080228056 0.002387071 -0.00043225454
000090 76 2c 05 3a 3d ca 14 39 e4 e2 ec 38 1e 38 1b 39
       0.00050801726 0.0001418972 0.000112956186 0.00014802857
0000a0 a3 ba 16 3a be 71 f7 b9 11 07 00 3a 19 11 65 ba
       0.0005749857 -0.00047196256 0.00048838655 -0.00087382045
0000b0 e0 f8 be 39 28 c5 b5 3a e7 8c 23 3a f0 e8 92 3a
       0.0003642505 0.0013867961 0.00062389526 0.0011208337
0000c0 79 bb 1f ba d8 ef 99 ba bd 72 6c 39 d9 d4 37 3b
       -0.0006093304 -0.0011744453 0.00022549457 0.002805045
0000d0 16 1b 29 3b 71 45 8c b9 b4 14 af b7 33 08 d3 38
       0.0025803498 -0.0002675462 -2.0871266e-05 0.00010062791
0000e0 7a ae 55 3b 79 33 91 ba 08 c1 6e ba b1 4c 29 bb
       0.0032605217 -0.0011077962 -0.00091077434 -0.0025833065
0000f0 de 86 0e 3a 9e 8e 31 bb 2a 35 da 3a ab d3 d5 3a
       0.0005436967 -0.0027093063 0.0016647924 0.0016313692
000100 20 61 5b 3b dd 80 8d 3a c3 1a b9 b8 5f 70 07 b8
       0.003347464 0.001079585 -8.826472e-05 -3.2291162e-05
000110 e7 f4 9e 39 3b 05 4d b7 a9 77 20 3a d9 4b e0 38
       0.00030318575 -1.222017e-05 0.00061213464 0.0001069528

exp_avg_sq f4 [1, 24, 3]
000000 3c 7f 91 37 6e e2 b6 37 04 02 b7 37 a1 0e fe 36
       1.7344595e-05 2.180153e-05 2.1816239e-05 7.571493e-06
000010 64 ce 1c 37 9a 06 d1 36 19 60 01 38 08 12 9f 37
       9.346379e-06 6.229454e-06 3.0845495e-05 1.8962673e-05
000020 ee 08 8b 37 32 86 05 37 69 84 14 37 63 ee fa 36
       1.657425e-05 7.9586625e-06 8.852317e-06 7.4783325e-06
000030 d6 0a 38 37 14 c3 0e 37 78 df 1c 37 4e 4f 57 37
       1.0969778e-05 8.50928e-06 9.350355e-06 1.2833463e-05
000040 b0 fc 53 37 ab 61 94 37 0e 1f c9 36 cc cc 67 37
       1.2635413e-05 1.7688455e-05 5.993882e-06 1.3816356e-05
000050 4e 9a 48 37 19 12 d4 36 65 a4 2e 37 b4 33 61 37
       1.1956856e-05 6.320199e-06 1.0409484e-05 1.3423083e-05
000060 fc ba b1 36 e4 29 15 37 03 83 0d 37 af 16 3e 37
       5.296779e-06 8.8908455e-06 8.4347585e-06 1.1330164e-05
000070 97 8d 80 37 c9 f7 a4 37 6a 00 ff 36 bb ff 57 37
       1.5324722e-05 1.9665707e-05 7.5996404e-06 1.28745405e-05
000080 ea a9 4a 37 81 df 4a 37 ac f0 1a 37 58 fb 8f 37
       1.2079699e-05 1.2092177e-05 9.235151e-06 1.716397e-05
000090 5b 7a db 36 14 eb ca 36 a5 6d dd 36 cf e9 96 36
       6.5409527e-06 6.047436e-06 6.5990776e-06 4.4975673e-06
0000a0 83 81 63 36 dd 2f 90 36 4e 3e 10 37 2f ec dd 36
       3.3901022e-06 4.2971064e-06 8.597575e-06 6.6138086e-06
0000b0 37 4e 1d 37 a8 0c 16 37 29 f7 5f 37 ff 4c 1e 37
       9.37614e-06 8.9436435e-06 1.3349382e-05 9.435461e-06
0000c0 aa 4f 69 36 02 9d 77 36 66 83 7d 36 e5 4f 93 37
       3.4766076e-06 3.6897259e-06 3.7776422e-06 1.756097e-05
0000d0 3f 0d 83 37 14 8c 42 37 4f ab 6f 37 76 67 0b 37
       1.5622585e-05 1.1595916e-05 1.4285396e-05 8.3091345e-06
0000e0 24 bd af 37 fb 6a 87 37 44 75 3f 37 4c b3 e8 36
       2.0949701e-05 1.614307e-05 1.141179e-05 6.9350117e-06
0000f0 79 c4 8c 37 9d c4 17 37 2a aa a4 37 f5 1b d0 36
       1.678079e-05 9.046079e-06 1.9629562e-05 6.2021377e-06
000100 e7 1d d8 36 cd 46 d2 36 ab 66 59 36 ab 27 29 36
       6.4407827e-06 6.26673e-06 3.239528e-06 2.5206052e-06
000110 c5 ae 73 36 41 41 19 37 9c d9 9d 37 78 af 84 37
       3.631155e-06 9.134704e-06 1.881719e-05 1.5817335e-05

exp_avg f4 [1, 24, 3]
000000 13 37 84 ba 87 cd d0 b9 d9 f6 65 ba b0 75 be b8
       -0.0010087214 -0.0003982598 -0.000877244 -9.081827e-05
000010 bc 49 9b b9 e9 27 19 39 03 ca 8b 3a 8d bf 05 ba
       -0.0002961884 0.00014606085 0.0010665063 -0.00051020907
000020 f5 5b 0d 39 83 28 07 ba ed 80 2d 39 1e 4a 91 ba
       0.00013481065 -0.0005155878 0.00016546594 -0.0011084711
000030 33 e3 11 ba 66 c2 69 39 6d c9 63 ba dd 11 02 3a
       -0.00055651664 0.0002229303 -0.00086893776 0.0004961768
000040 e2 ab f2 b8 3a 0c 18 3a 3a 14 c4 39 29 0f d5 39
       -0.00011571475 0.0005800162 0.00037399103 0.0004063782
000050 f2 9e 81 b8 d0 b7 c5 b9 3c 0d d3 39 19 1c 09 ba
       -6.180805e-05 -0.0003771172 0.00040254917 -0.0005230322
000060 44 71 e0 38 8a c0 13 ba ff b0 f5 b9 7a 78 01 3a
       0.0001070225 -0.00056362955 -0.00046861914 0.0004938912
000070 61 fe 00 3a 03 b9 3a 39 d3 c8 57 38 bf dd 6c b8
       0.0004920718 0.00017807265 5.1447027e-05 -5.64733e-05
000080 73 fe ce b9 48 e2 05 b9 27 24 37 ba a6 be c7 b9
       -0.0003948096 -0.00012768165 -0.0006986283 -0.00038098282
000090 2c 6f 58 ba c9 78 61 3a e9 93 b0 38 80 e4 69 3a
       -0.0008256312 0.0008601067 8.4198844e-05 0.0008922294
0000a0 57 8b 20 ba 5b 39 9f b9 6e 65 bd 39 54 df 21 38
       -0.0006124279 -0.00030369576 0.0003612446 3.859338e-05
0000b0 bf 98 33 ba a7 75 ef 39 82 c3 1d ba df 73 18 39
       -0.0006851069 0.0004567329 -0.00060182076 0.00014539015
0000c0 dd e7 39 3a 82 41 bb b8 a5 aa e9 39 cb 18 ff b9
       0.000709174 -8.929057e-05 0.00044568363 -0.00048655862
0000d0 ef 33 91 39 d7 fd 31 39 2e 04 fe b7 b7 5e 87 ba
       0.0002769525 0.00016974598 -3.0281106e-05 -0.001032791
0000e0 af 10 31 3a 7c 54 7b 3a b8 f0 20 ba 7f 55 51 3a
       0.00067545 0.0009587479 -0.00061393855 0.0007985457
0000f0 1b 99 14 b8 44 83 89 38 82 0a a3 39 0d a6 95 3a
       -3.542854e-05 6.557119e-05 0.00031097612 0.0011417285
000100 6f 7b f6 b9 98 e0 3a 3a 28 59 31 ba f3 70 01 3a
       -0.00047012742 0.0007128804 -0.00067652995 0.000493779
000110 ee 46 c2 ba 4e fc d7 b9 01 07 30 b9 36 a8 ed b9
       -0.0014822164 -0.00041195977 -0.00016787277 -0.0004532949

exp_avg_sq f4 [1, 24, 3]
000000 05 5c b9 36 1b 4b 9f 36 c6 0e b2 36 e7 59 99 36
       5.524142e-06 4.7473127e-06 5.3065332e-06 4.5702213e-06
000010 0c e8 99 35 b6 ec 13 36 c5 bb 4e 37 df 35 cb 36
       1.1466923e-06 2.204249e-06 1.2322275e-05 6.056143e-06
000020 6a a5 ab 36 e4 ca 6a 36 db 96 aa 36 c4 e8 a3 36
       5.115454e-06 3.4986815e-06 5.0839567e-06 4.884876e-06
000030 d7 4a 1a 37 d2 dd 49 37 de 0d 2b 37 c9 06 05 37
       9.19654e-06 1.203218e-05 1.0195623e-05 7.928998e-06
000040 ec c1 82 36 20 6c e3 36 d9 2f 45 36 ab c4 39 36
       3.8968774e-06 6.7777146e-06 2.9383139e-06 2.7681624e-06
000050 9a 55 12 36 b7 3d c1 36 ec 62 ff 36 81 5a 11 37
       2.1805522e-06 5.759033e-06 7.6111082e-06 8.663746e-06
000060 ba 66 73 35 8d eb a7 35 78 85 d6 35 b5 13 f6 36
       9.067404e-07 1.2511024e-06 1.5983087e-06 7.3336655e-06
000070 d1 21 36 36 b8 54 a6 36 d5 a7 d9 35 9a 44 96 35
       2.7139797e-06 4.957048e-06 1.6216605e-06 1.1195837e-06
000080 c2 a6 e0 35 ad 2c 3b 36 ef 99 e6 35 08 fa 55 36
       1.6737833e-06 2.7891176e-06 1.7181136e-06 3.188501e-06
000090 bf f4 88 36 5b cb cb 36 63 ac 88 36 2a ec f3 36
       4.081608e-06 6.073545e-06 4.0731843e-06 7.2694575e-06
0000a0 0d 5e 8c 36 73 93 8b 36 13 ac 83 37 04 8d 5a 36
       4.183274e-06 4.159688e-06 1.5696545e-05 3.2566613e-06
0000b0 5f 79 db 36 5d 81 1b 37 ed dd e5 36 ee f0 d2 36
       6.540838e-06 9.26884e-06 6.8505674e-06 6.2865356e-06
0000c0 27 f1 04 37 08 3f 2d 37 0d 0a 07 37 88 ef 21 36
       7.923961e-06 1.0326279e-05 8.048967e-06 2.4130295e-06
0000d0 8b ee d6 35 83 70 02 36 83 ce 87 37 1c d3 67 37
       1.6013668e-06 1.9437e-06 1.6189419e-05 1.3817826e-05
0000e0 6a aa c5 37 c5 b3 b6 36 21 91 f7 36 52 78 f6 36
       2.3563585e-05 5.4449506e-06 7.378069e-06 7.3453784e-06
0000f0 4a 1a 0e 37 63 39 fc 35 aa a6 53 36 d3 66 17 37
       8.4699805e-06 1.8792165e-06 3.1538461e-06 9.024242e-06
000100 93 98 59 37 85 4a dd 36 9a ae 28 37 8f c8 53 37
       1.2969732e-05 6.5949885e-06 1.0054233e-05 1.2623276e-05
000110 5f d2 86 37 cc d5 1c 36 fa 2f 2a 36 12 46 43 36
       1.6072006e-05 2.3370258e-06 2.53599e-06 2.909805e-06

exp_avg f4 [24]
000000 ce 65 a0 36 be 11 bc b9 23 ac f7 b8 02 92 7c b9
       4.780223e-06 -0.00035871373 -0.00011809941 -0.00024086985
000010 14 6f df b9 16 cb 9f 39 69 ac 03 ba 12 d0 6e b9
       -0.00042616634 0.00030478154 -0.00050229445 -0.00022774961
000020 80 24 87 b8 eb 6f b8 b9 73 32 c8 b7 34 e4 6e b9
       -6.4441e-05 -0.000351786 -2.386535e-05 -0.00022782461
000030 ea 4c b0 39 d1 b3 f9 36 ff 34 81 ba 9c 24 8d 38
       0.0003362664 7.4417117e-06 -0.0009857713 6.730223e-05
000040 f9 2b d2 b8 25 13 7b b8 67 d1 a6 39 79 95 86 38
       -0.00010021771 -5.9860893e-05 0.00031818004 6.4174594e-05
000050 48 a2 92 39 20 34 02 b7 4e e2 03 ba fc d4 15 b8
       0.000279682 -7.76074e-06 -0.00050309754 -3.5722725e-05

exp_avg_sq f4 [24]
000000 28 08 e0 36 f2 4b 6f 37 1e 5d 87 36 37 6a 12 36
       6.6766697e-06 1.42631925e-05 4.034154e-06 2.181752e-06
000010 7a 40 e0 36 de 90 d0 35 42 4f ac 36 06 92 ac 35
       6.6832263e-06 1.553937e-06 5.1352263e-06 1.2857497e-06
000020 71 dd 16 36 ff d8 73 36 07 c0 63 36 35 48 f1 36
       2.2480638e-06 3.633613e-06 3.393741e-06 7.1907657e-06
000030 c8 64 8f 36 9a 58 27 37 49 55 be 37 ee 71 15 36
       4.2734646e-06 9.974605e-06 2.2689479e-05 2.2269046e-06
000040 2d 42 a1 36 e2 8c f9 36 61 ec 96 36 c7 cf b7 36
       4.805878e-06 7.437179e-06 4.4978665e-06 5.4780135e-06
000050 26 ed 5d 36 54 6c ab 36 f5 79 a5 36 d3 48 b4 35
       3.3069605e-06 5.108808e-06 4.931581e-06 1.343224e-06

exp_avg f4 [24, 3, 3]
000000 b1 16 b2 39 cd 92 3b 38 6b 30 26 b9 f1 1a 7b 39
       0.00033967712 4.4720993e-05 -0.00015849031 0.00023947262
000010 aa 81 24 39 44 34 5a b9 15 2d 06 38 3e d1 1b b8
       0.00015688562 -0.0002080957 3.1990076e-05 -3.714975e-05
000020 1e eb 34 b9 55 a2 95 b8 e9 30 2d 36 6a 2d 4c 38
       -0.00017253726 -7.13511e-05 2.5807478e-06 4.8679685e-05
000030 01 b2 e9 37 6b ff 8a b5 0b 20 97 38 a6 33 a1 37
       2.7858654e-05 -1.0356138e-06 7.2062096e-05 1.9216746e-05
000040 3e 45 9a 38 ad ed cc 38 02 23 5e b9 78 e1 ba b6
       7.3561896e-05 9.7717486e-05 -0.00021184611 -5.56948e-06
000050 32 d8 65 39 0f 50 88 b9 bf 45 14 b9 90 8a 83 39
       0.00021919681 -0.0002599959 -0.00014140362 0.00025089504
000060 29 21 ee b8 98 09 43 38 7f 4e d6 38 ae b3 1f 39
       -0.00011354901 4.6500558e-05 0.00010218936 0.00015230358
000070 89 ac db b7 31 8f 82 b9 43 a2 89 38 28 35 a1 b7
       -2.6187177e-05 -0.00024902218 6.562893e-05 -1.9217448e-05
000080 35 fe 1d b9 5f 2b 38 38 33 d4 7a b9 51 6e 79 b9
       -0.00015067386 4.390941e-05 -0.00023920908 -0.00023787587
000090 61 11 23 37 39 c9 6b b8 06 10 24 b9 9a a5 1f b9
       9.719603e-06 -5.621577e-05 -0.00015646228 -0.00015225113
0000a0 17 cf ad b8 12 78 2a b9 a1 e9 0a b7 bf 0f 83 b9
       -8.287856e-05 -0.00016257193 -8.279837e-06 -0.00024998
0000b0 cc 88 5a b9 e7 99 71 b9 34 4e 81 36 c9 0f 4f 39
       -0.00020841061 -0.00023040884 3.8536036e-06 0.00019746939
0000c0 97 f9 9b 35 a5 22 0f 38 27 54 f1 38 3f 39 19 38
       1.162104e-06 3.4126122e-05 0.0001150745 3.6531357e-05
0000d0 80 c0 86 39 d2 34 a3 39 93 0d e8 38 6d 03 5d 38
       0.00025701895 0.00031129137 0.000110651505 5.2693696e-05
0000e0 04 e0 b7 b7 a0 d4 86 39 49 96 0f 38 03 b3 4b 39
       -2.1919615e-05 0.0002571689 3.423382e-05 0.00019426276
0000f0 4e 0a 0c 38 1d 38 a0 38 37 a6 2f 38 00 61 6f 38
       3.3388198e-05 7.6398464e-05 4.187805e-05 5.707238e-05
000100 04 b7 fa b7 9e 28 e3 b8 5a f7 b2 b8 b8 61 15 b7
       -2.9887546e-05 -0.00010831769 -8.533774e-05 -8.903844e-06
000110 c2 95 41 b9 81 dc 81 b6 8e 8f 1e b9 12 9b 1f b9
       -0.00018461703 -3.8701696e-06 -0.00015121532 -0.0001522119
000120 d4 f8 4d b9 d7 03 cd b7 ec 1c 63 b7 3a 9f 0d 38
       -0.00019643019 -2.4439692e-05 -1.3536988e-05 3.376531e-05
000130 a1 e9 fd b8 6b 84 82 39 75 fe 64 38 be 2e 0f b7
       -0.00012107497 0.0002489419 5.4596418e-05 -8.534347e-06
000140 c0 59 ea 38 41 41 82 38 c2 9c d1 b6 de 58 25 38
       0.00011174707 6.2110375e-05 -6.2469344e-06 3.942183e-05
000150 9c a6 6c b9 e9 88 06 b8 29 83 e9 b8 52 2b e9 b8
       -0.0002256878 -3.2075597e-05 -0.00011134736 -0.00011118375
000160 6d c9 da b8 12 7c 20 b9 db 92 64 36 e6 23 b7 b6
       -0.000104325685 -0.00015305009 3.4060129e-06 -5.458004e-06
000170 ad 4e dc b8 61 a6 2b 39 b8 0b 26 37 3c 50 fc 37
       -0.00010505072 0.00016369812 9.8970995e-06 3.0078103e-05
000180 da 05 b6 38 c8 4d 61 b7 14 4e ca 37 7e 95 78 b7
       8.679526e-05 -1.3429155e-05 2.4116634e-05 -1.4816758e-05
000190 70 eb 30 b7 0f d0 ab b7 95 b7 e7 b7 9d 56 c7 b7
       -1.05452345e-05 -2.0481673e-05 -2.7622833e-05 -2.3762981e-05
0001a0 18 7c 4d b6 6d bd e3 35 7e 09 27 b8 0a b5 b7 b7
       -3.0619613e-06 1.6967948e-06 -3.9824743e-05 -2.1899603e-05
0001b0 80 c0 a1 39 1a f4 1e b7 fc ca c9 b9 e6 08 be 39
       0.00030851737 -9.474368e-06 -0.00038488943 0.00036246254
0001c0 4d f5 50 39 47 81 e6 b9 e2 2c 41 39 87 62 0b b9
       0.00019927807 -0.00043965338 0.00018422634 -0.00013292777
0001d0 47 0f 51 b9 1e 94 11 ba f5 64 b7 b8 9b 30 36 39
       -0.00019937484 -0.0005553382 -8.744925e-05 0.0001737498
0001e0 71 f1 b5 b9 c0 3c 98 b9 e4 40 be 39 af 9e 91 b7
       -0.00034702898 -0.00029036961 0.0003628797 -1.735924e-05
0001f0 55 2c 69 b7 30 f7 7d 39 39 57 1a b8 94 cd ca 36
       -1.3898204e-05 0.00024220045 -3.6797694e-05 6.0440016e-06
000200 d0 38 a7 36 33 e7 09 b8 d9 5f 25 b9 2a 1a a1 39
       4.9836017e-06 -3.2878666e-05 -0.00015771332 0.00030727807
000210 84 e9 62 b8 1d a3 cc b8 dd a6 5b b8 e3 1e c9 b9
       -5.4100077e-05 -9.75786e-05 -5.2369072e-05 -0.0003836072
000220 02 8e 09 b8 42 21 1e 39 c8 35 06 b9 1f 08 5f b9
       -3.27956e-05 0.00015080444 -0.00012799271 -0.00021269963
000230 df 4c e1 39 c5 24 b5 b6 a4 95 75 38 b1 f1 73 39
       0.00042972618 -5.398501e-06 5.8551916e-05 0.00023264323
000240 99 ec 97 36 09 ae 99 36 01 26 07 39 6d 5e f5 b8
       4.5276943e-06 4.5800157e-06 0.00012888761 -0.000117000985
000250 9a c2 09 39 cd 3c 87 b9 e4 33 fa b7 22 ba 0f 39
       0.00013137833 -0.00025794507 -2.9826486e-05 0.00013706883
000260 ca b9 92 38 b0 bd e6 38 a7 12 06 38 0b 89 5b b7
       6.9964284e-05 0.00011002587 3.196546e-05 -1.3085325e-05
000270 41 8d 19 39 f5 83 bb 38 be f3 12 b8 62 b5 d0 37
       0.00014643838 8.941434e-05 -3.5036115e-05 2.4879995e-05
000280 e1 53 9a 38 52 b0 80 37 c5 c2 2b 38 db 36 6d 37
       7.358916e-05 1.5340895e-05 4.095097e-05 1.4139073e-05
000290 1b e2 ee 38 d5 6c b2 b8 c0 c0 fb 38 cb 7e 5c b9
       0.0001139084 -8.507973e-05 0.00012004515 -0.00021028069
0002a0 b6 f2 1f b8 60 e4 fa 38 d4 fe 33 38 9d a9 10 ba
       -3.8134596e-05 0.00011963467 4.2914253e-05 -0.00055184384
0002b0 8f dd ff b7 98 79 90 39 f6 13 8d b8 11 d1 24 b9
       -3.050154e-05 0.00027556415 -6.727122e-05 -0.00015718142
0002c0 58 11 00 3a 72 26 6a 38 28 d8 8f 39 fe 1f 01 3a
       0.0004885397 5.5825752e-05 0.00027436134 0.00049257267
0002d0 86 3d f9 b8 f1 ba c1 b6 61 e6 07 38 d8 eb ed 38
       -0.00011884705 -5.773611e-06 3.2401065e-05 0.0001134497
0002e0 14 41 64 38 57 11 72 37 70 ad b9 38 ac 9f 1a 39
       5.4420045e-05 1.4428361e-05 8.853793e-05 0.00014746067
0002f0 9e 27 4a 39 de 29 c7 b9 c7 76 14 b7 6b 75 b4 39
       0.0001927898 -0.0003798743 -8.849142e-06 0.0003441976
000300 16 b4 af b9 fc d0 72 b9 c2 55 fa 39 00 de 14 b9
       -0.00033512776 -0.00023156771 0.0004774761 -0.00014197081
000310 94 65 ed 38 1b f8 72 39 5b 0f 6c 38 d3 ae 2d b8
       0.00011319961 0.00023171345 5.6281086e-05 -4.1409232e-05
000320 e2 ee 7f b9 24 8d 1a 38 08 00 c1 b8 82 94 19 b8
       -0.00024407686 3.684791e-05 -9.202963e-05 -3.661635e-05
000330 5e 5c 51 38 a0 21 89 b9 06 04 57 b9 74 5d 94 39
       4.9915507e-05 -0.0002615573 -0.00020505497 0.00028298388
000340 be 85 12 38 3b 92 24 b9 1d 69 84 39 6d af 1d 39
       3.493367e-05 -0.00015694734 0.00025255317 0.00015038038
000350 9c c4 47 b9 fa b7 71 38 c1 1d 83 b7 5a 85 fe b8
       -0.00019051362 5.763022e-05 -1.5630272e-05 -0.000121365025

exp_avg_sq f4 [24, 3, 3]
000000 bd 82 2d 35 b8 32 06 35 c7 52 2b 35 ba 1a 18 35
       6.463777e-07 4.9992695e-07 6.382292e-07 5.6663305e-07
000010 8b d7 02 35 5c 6c 0f 35 32 72 05 35 86 45 d9 34
       4.874243e-07 5.3429335e-07 4.9712537e-07 4.0469985e-07
000020 71 47 d5 34 f3 24 f9 33 30 3e c1 33 26 98 9c 34
       3.9726322e-07 1.1601687e-07 8.998575e-08 2.9167967e-07
000030 39 0d ac 33 e4 af 9b 34 1c fc 13 34 2f 1d a0 33
       8.011779e-08 2.8998977e-07 1.3782159e-07 7.455889e-08
000040 85 d8 73 33 15 85 ee 33 c4 f8 ea 34 d8 be 74 35
       5.677477e-08 1.1106946e-07 4.3766897e-07 9.11748e-07
000050 87 24 1e 35 52 5e b0 34 fd e0 44 35 28 cc 16 35
       5.891274e-07 3.2851182e-07 7.334309e-07 5.617644e-07
000060 66 92 6b 34 a8 88 47 35 53 da 02 35 c8 8a ac 34
       2.193934e-07 7.433214e-07 4.874648e-07 3.2138473e-07
000070 c6 8b a7 34 d5 29 79 34 11 a8 d6 34 d6 2e f9 34
       3.1207873e-07 2.320515e-07 3.998289e-07 4.6413942e-07
000080 40 bb a6 34 a8 80 9c 34 b0 a7 07 35 5f 81 9c 34
       3.1056152e-07 2.9150874e-07 5.0535436e-07 2.9151394e-07
000090 8e 88 54 34 c4 dd 9f 34 c7 25 0d 34 e3 d3 8a 34
       1.9793717e-07 2.9777414e-07 1.3145392e-07 2.585867e-07
0000a0 97 22 c4 34 85 fa 87 34 6d d8 4c 34 2d a1 0b 35
       3.6533012e-07 2.5327986e-07 1.9077716e-07 5.2016077e-07
0000b0 aa c9 2d 34 02 d1 66 35 fb bd 59 35 d1 4e 53 35
       1.6185245e-07 8.5985823e-07 8.111526e-07 7.871832e-07
0000c0 74 bf 83 35 61 09 2b 35 bb db 3d 35 48 0f 6f 35
       9.815981e-07 6.371611e-07 7.0727737e-07 8.9056675e-07
0000d0 28 9b 65 35 95 b0 36 35 54 21 9b 34 bd 03 7f 34
       8.553493e-07 6.8057244e-07 2.889525e-07 2.3750086e-07
0000e0 72 a6 a0 34 9f 58 ae 34 a5 05 74 34 c6 f3 b6 34
       2.9923427e-07 3.2474506e-07 2.2726324e-07 3.407751e-07
0000f0 ce cb 93 34 c3 22 2b 34 9c ab 50 34 a2 d9 89 33
       2.752917e-07 1.5938262e-07 1.943394e-07 6.419147e-08
000100 c4 81 4f 34 8e 26 93 33 6e f3 cd 33 4d c5 6c 34
       1.9325586e-07 6.852234e-08 9.590336e-08 2.205099e-07
000110 ed d7 fe 33 4e 69 b5 33 d6 f2 4a 34 ee 0e 9d 33
       1.18670734e-07 8.447624e-08 1.8901059e-07 7.313598e-08
000120 96 b2 60 34 8f 17 ad 34 0e c4 52 34 81 8e 54 34
       2.0926595e-07 3.2240902e-07 1.9629098e-07 1.9795881e-07
000130 3c 66 22 35 66 09 26 34 46 59 e3 33 41 43 1d 34
       6.0498473e-07 1.5463374e-07 1.058675e-07 1.4646231e-07
000140 e8 87 a9 33 e9 b6 2e 34 ad ab a5 34 b2 99 bd 34
       7.894397e-08 1.6271555e-07 3.0858556e-07 3.531582e-07
000150 61 76 5f 34 e4 4e 23 35 9a 15 91 34 ac a6 18 34
       2.081156e-07 6.083703e-07 2.7024072e-07 1.4216738e-07
000160 63 63 61 34 43 dd 7a 34 43 d2 2e 34 f2 4d 3e 34
       2.0990915e-07 2.3363559e-07 1.6281506e-07 1.7723485e-07
000170 34 78 0d 34 41 77 ff 33 8b 6c 45 34 d9 fb 6c 34
       1.3175378e-07 1.1896055e-07 1.8386542e-07 2.2070834e-07
000180 bc 32 88 33 2e 0d ff 33 45 5d 2b 34 31 c9 5c 34
       6.342222e-08 1.187676e-07 1.5959547e-07 2.056229e-07
000190 3a 38 97 33 2c b3 54 33 b1 06 bf 33 ef 83 11 33
       7.041713e-08 4.9523052e-08 8.895348e-08 3.3880436e-08
0001a0 66 4d 95 33 4a ef 66 33 35 0b ef 32 77 ac 6d 33
       6.952432e-08 5.376868e-08 2.7828358e-08 5.533772e-08
0001b0 fd 84 9d 35 c7 99 f9 35 52 66 c4 35 0f 1e 5b 35
       1.1736116e-06 1.8596701e-06 1.4632917e-06 8.16276e-07
0001c0 ea 64 ca 35 08 63 d1 35 52 64 14 35 50 78 a7 35
       1.5079543e-06 1.5600535e-06 5.528028e-07 1.2477485e-06
0001d0 63 47 cf 35 77 88 c4 35 f6 a9 8c 35 77 eb e2 35
       1.5443478e-06 1.4642854e-06 1.0480278e-06 1.6906841e-06
0001e0 4d d3 9b 35 ff b1 20 36 2e fa ad 35 24 e5 8f 35
       1.1609897e-06 2.3945465e-06 1.2962316e-06 1.0721019e-06
0001f0 bb 46 b3 35 85 ef 78 35 09 49 2e 35 d1 a7 8a 35
       1.3357125e-06 9.2735746e-07 6.492633e-07 1.0330642e-06
000200 6b a9 38 35 eb 86 67 35 f5 12 44 35 04 8e 47 35
       6.8791877e-07 8.625054e-07 7.3043276e-07 7.4339937e-07
000210 91 91 3d 35 5d 87 6b 35 bb f9 1e 35 78 32 20 35
       7.0619814e-07 8.77413e-07 5.922299e-07 5.9678086e-07
000220 a9 ac 3a 35 4d 7b 4d 35 b3 28 ec 34 aa 1c da 35
       6.9541653e-07 7.654788e-07 4.3988038e-07 1.6250608e-06
000230 50 61 03 35 29 49 b4 34 da d2 48 35 7e 78 bf 34
       4.894291e-07 3.3580844e-07 7.4812635e-07 3.5664192e-07
000240 ab c7 2d 35 30 12 71 35 2b ce 00 35 10 be 82 35
       6.473808e-07 8.980596e-07 4.798373e-07 9.74107e-07
000250 79 25 c3 35 06 59 24 35 39 8d 40 35 71 df cb 35
       1.4539538e-06 6.1224307e-07 7.173108e-07 1.5189709e-06
000260 f2 4f e2 34 15 85 15 34 8b 6c 11 34 5b 20 b1 33
       4.2153948e-07 1.3925121e-07 1.3543665e-07 8.24809e-08
000270 08 8a 38 34 1b d7 34 34 f5 7d 8f 33 f4 ed ef 33
       1.7186551e-07 1.6842061e-07 6.681868e-08 1.1172588e-07
000280 17 88 7d 34 7f 4e 35 33 70 7f c5 34 88 32 e1 34
       2.361197e-07 4.221374e-08 3.6786832e-07 4.1946282e-07
000290 87 cb 83 34 f6 0a ef 34 cb 68 e5 34 ff 14 a2 34
       2.4548737e-07 4.4525194e-07 4.273082e-07 3.0190128e-07
0002a0 b3 0c b1 34 2c 02 0e 35 f7 3e 5d 34 e7 7e ae 35
       3.297806e-07 5.290228e-07 2.0605135e-07 1.3000944e-06
0002b0 f7 e0 54 35 ab 02 a3 35 1c 68 92 35 29 5d 94 35
       7.930352e-07 1.2145223e-06 1.0908147e-06 1.1053972e-06
0002c0 52 6f 91 35 2a f4 95 35 9e 1a e6 34 46 59 8b 35
       1.083574e-06 1.1172426e-06 4.2860205e-07 1.0382289e-06
0002d0 24 0e 03 35 b4 01 24 35 2f f0 1a 35 38 d3 29 35
       4.882188e-07 6.109724e-07 5.7718984e-07 6.326477e-07
0002e0 a9 67 da 34 7c 0c 04 35 80 2f 18 35 03 be 22 35
       4.0681087e-07 4.9192e-07 5.6693534e-07 6.0626206e-07
0002f0 e3 1b f6 34 7d f6 7d 35 75 16 eb 35 ab 3c c1 35
       4.584136e-07 9.460853e-07 1.75154e-06 1.4397277e-06
000300 63 0f 43 35 11 b7 e4 35 91 56 dc 35 ad 03 09 35
       7.266555e-07 1.7040603e-06 1.6416471e-06 5.1041826e-07
000310 38 3e e2 35 15 19 ba 35 8f 88 f4 34 c8 c2 e5 34
       1.685642e-06 1.386538e-06 4.55479e-07 4.2796296e-07
000320 c5 f4 9a 34 78 2d 0f 35 3d ba 05 35 79 9f cf 34
       2.8862829e-07 5.3337817e-07 4.9817373e-07 3.8672786e-07
000330 55 b5 d7 34 f7 43 32 35 41 24 b8 34 97 eb e6 34
       4.0178807e-07 6.640907e-07 3.429905e-07 4.3012253e-07
000340 cd d4 e4 34 76 4f 3a 35 cf 0f cc 34 21 46 54 35
       4.2623142e-07 6.940603e-07 3.8009463e-07 7.9078205e-07
000350 e5 64 2b 35 70 20 a1 34 7a 11 34 35 78 3d d0 34
       6.3849285e-07 3.0012188e-07 6.7080657e-07 3.8787744e-07

exp_avg f4 [3]
000000 dd 12 7d ba a1 fe 25 ba eb 6e 77 b8
       -0.0009653995 -0.0006332193 -5.899269e-05

exp_avg_sq f4 [3]
000000 6b 3c d6 38 8a a5 64 38 9a e7 25 38
       0.00010215569 5.4513606e-05 3.955476e-05

model.conv1.weight f4 [24, 3, 3]
000000 e6 cc db 3d cc 40 09 be 0f 45 00 3e 68 01 d6 bc
       0.10732441 -0.13403624 0.12526344 -0.026123717
000010 fb 63 b1 be bb 2d 6f 3e 3c 7d 8b 3e 09 f8 82 be
       -0.34646592 0.23357289 0.27243984 -0.2557986
000020 c6 31 7f 3e 9c 4c f3 3b d1 40 5b 3e fc 90 03 3e
       0.24921331 0.007424904 0.21411444 0.12848276
000030 c2 c7 b7 bd 82 b4 4d 3e d4 16 10 3d 2d 7f 91 be
       -0.08973648 0.2008839 0.03517802 -0.2841734
000040 65 c5 ed bd c3 20 7d be 92 6f 95 3e 70 e5 12 3e
       -0.11609916 -0.24719529 0.29186684 0.14345336
000050 2f ec 8e bd 84 82 81 3e 32 0d 84 bd 42 00 50 be
       -0.06978642 0.25294888 -0.06447829 -0.20312598
000060 52 d7 af 3e 88 08 8d be 85 ba 2e be 12 8f e4 bd
       0.34343964 -0.2754557 -0.17063339 -0.11160101
000070 58 9c 86 be 0d b4 95 3d 08 3b bc 3d fc d2 29 bd
       -0.26291156 0.073097326 0.09190947 -0.041460976
000080 77 12 f0 3d 49 44 91 3e b3 08 72 be 7a 1e bf bd
       0.11722272 0.2837241 -0.23636131 -0.09331985
000090 c3 07 ce bd 52 6b 0e be ae 85 91 be ac aa 89 be
       -0.10060074 -0.13908127 -0.28422302 -0.26888025
0000a0 d3 bd 07 be 9e b8 81 be b7 12 6c 3e b4 49 50 39
       -0.13256006 -0.25336164 0.23054014 0.00019863882
0000b0 7d 0a 2b be 91 8e 30 be 8d 5c bf be 69 77 57 bd
       -0.1670322 -0.17241885 -0.37375298 -0.052604113
0000c0 e8 d0 e9 3d a7 13 72 be a5 6d a8 3e 66 ee 13 be
       0.11416799 -0.2364031 0.32896152 -0.1444641
0000d0 84 fe 54 be 72 cd 26 3d f1 2c ba 3d 8d 2e 87 bd
       -0.20800215 0.04072327 0.09090603 -0.06600676
0000e0 ba bd 8c 3d 55 39 17 3e 00 fa 96 3e c5 0b 7f be
       0.06872125 0.14767964 0.2948761 -0.24906833
0000f0 ea b2 92 be 87 59 6b 3e 52 75 b1 be 92 87 67 3c
       -0.28652126 0.2298337 -0.3465982 0.014131444
000100 ea 28 77 3d d1 37 76 be 09 60 e4 bc e3 79 61 3d
       0.060341753 -0.2404473 -0.027877824 0.05504788
000110 b3 09 72 be 98 19 4c 3e c8 27 f3 3d 22 2e 77 be
       -0.23636512 0.19931638 0.11872822 -0.24138692
000120 a7 19 8d bd b6 cd 6a 3d 1e e9 1f bd e7 76 2b be
       -0.068896584 0.057325087 -0.039040677 -0.16744576
000130 c0 73 36 3d 89 72 6f bd a7 29 39 3d cd 17 a4 3e
       0.04454398 -0.05845884 0.04520574 0.3204941
000140 b8 26 97 3c bd 22 2a 3e 55 00 b5 be 80 16 69 be
       0.01845108 0.16614814 -0.35351816 -0.2276249
000150 54 ac 1f be 8b 22 ad be a7 ec 06 be 7f ca 01 3d
       -0.15593082 -0.33815417 -0.13176213 0.031687256
000160 7d 35 8b be d4 fa 75 3e 36 8b 64 3b 66 bd 9b 3e
       -0.27189246 0.24021465 0.0034873015 0.30417937
000170 ae a1 aa 3d b6 d7 85 be 57 e6 3e 3e 9b 93 23 bd
       0.08331619 -0.26141137 0.18642555 -0.03993569
000180 ab 8c 6d 3e b5 8f 54 bc 84 ce 78 be 5f bf 29 be
       0.23198192 -0.012973716 -0.2429753 -0.16576909
000190 4f 30 a5 be a9 0a 78 3e e0 f0 1c be 6a 89 d1 bd
       -0.3226342 0.24222817 -0.15326262 -0.10231288
0001a0 b6 85 86 3d 7b de fa 3d 47 1b 36 bb 9a 83 87 3e
       0.06568472 0.12249466 -0.0027787255 0.26467592
0001b0 10 58 07 be b8 bc 10 be 4e 4b ae 3d a2 07 2f 3e
       -0.13217187 -0.1413449 0.08510457 0.17092755
0001c0 e4 83 3d be e7 34 7b be 34 86 a1 be 77 ee ac 3d
       -0.18507344 -0.245319 -0.315477 0.08443921
0001d0 4d 97 bb 3d 53 6a fd bb 6a 7d 52 be cd fd 32 be
       0.09159718 -0.007733622 -0.20555654 -0.1747963
0001e0 e6 a9 02 be 9d ef cb bd 09 99 a4 3d a1 b3 0c be
       -0.12760124 -0.09957812 0.08037002 -0.13740398
0001f0 d8 ff 8c 3e 9c 4c b6 3d 8b 99 38 be 5f e5 ae 3d
       0.27538943 0.08901331 -0.18027322 0.08539843
000200 8e cc 2c 3e 20 db b5 bd cc e0 a3 be 28 8a df 3d
       0.16874906 -0.088796854 -0.32007444 0.10915023
000210 86 de 64 be e9 94 e2 3c 69 d3 82 bc 4e c1 9a 3d
       -0.22350511 0.027658897 -0.015969949 0.07556401
000220 4d 06 aa 3e 66 35 47 3e 72 f0 55 39 d6 7f 16 be
       0.33207932 0.19453964 0.00020402836 -0.14697203
000230 30 2e 3b bd b5 3c 35 be 49 ba 91 3e 01 5f 50 be
       -0.045698345 -0.17698939 0.28462437 -0.20348741
000240 d1 e1 38 3e 41 59 47 be cd f3 86 3d 71 54 93 3d
       0.18054892 -0.19467641 0.0658947 0.0719384
000250 a0 d4 4d 3e 21 cf 44 3d 57 80 42 be 52 c0 1d 3e
       0.20100641 0.048049096 -0.1899427 0.15405396
000260 8e 51 42 be 36 c3 56 3e 69 7f 0a be 3b c5 87 3e
       -0.18976423 0.20972905 -0.13525166 0.26517662
000270 4e be 4d 3e 85 d0 be be a7 12 5d bd e7 6f a7 3d
       0.20092127 -0.37268463 -0.053972866 0.081756406
000280 b9 50 cf 3d 44 9e 04 bd 2a 97 24 be 8f ca 8a 3e
       0.101228185 -0.032377496 -0.1607329 0.27107665
000290 43 00 0f 3e 3b 8b b2 be f1 8f 03 3e 40 cf 1d 3e
       0.13964944 -0.3487185 0.12847878 0.15411091
0002a0 a2 71 9c bd 9f 06 9d bd 74 d8 39 3e 94 2c 4b bc
       -0.07638861 -0.076672785 0.18148977 -0.012400765
0002b0 a0 2a ea bd 28 96 4f 3d 47 77 76 3e f4 bd a8 3d
       -0.11433911 0.05068031 0.24068938 0.08239356
0002c0 cd 5f f4 3d f0 59 28 3e c8 a5 c1 be bb 13 3f be
       0.11932335 0.16440558 -0.37821794 -0.1865987
0002d0 98 39 17 be 1f 57 7f bd fc b2 95 3e c8 36 ae ba
       -0.14768064 -0.062338945 0.29238117 -0.0013291473
0002e0 14 a2 5f 3e e7 93 1f 3e 9e 99 ab be 76 83 0a 3e
       0.21839172 0.15583764 -0.33515638 0.13526711
0002f0 f9 ed 1b 3e 50 11 a1 bc 6e 03 a8 3e 78 e8 fe bc
       0.15227498 -0.019661576 0.32815117 -0.03111671
000300 92 73 72 be ef 22 e4 bd 37 99 28 be ac 7a 41 3e
       -0.23676899 -0.111394756 -0.16464697 0.18894452
000310 11 d6 2b bd 4d 5a c3 3d d1 1d 35 3d 70 7f 21 be
       -0.041952197 0.09538708 0.04421789 -0.1577127
000320 99 cf 44 bd 87 71 73 be a8 ab 19 3d 01 bf 35 3d
       -0.048049543 -0.23773776 0.03751722 0.04437161
000330 3e 71 f9 bd 0b 39 46 3e 92 ff 39 3d 70 36 f1 bd
       -0.12179802 0.19357698 0.045409746 -0.11777961
000340 86 0f 12 3e 75 e8 aa be ac 9c ce bd 7d 12 8d 3e
       0.14263734 -0.33380476 -0.100884765 0.27553168
000350 92 5c 46 be c8 af fe bd 5a f5 17 3e 7a a3 8a 3e
       -0.1937125 -0.12435871 0.14839688 0.27077848

model.conv1.bias f4 [24]
000000 02 d9 81 3e 66 a1 20 bf fb 91 12 3f 62 fa 9b 3e
       0.25360876 -0.62746274 0.57254 0.30464464
000010 8e 04 6b 3e 77 66 9d 3d ff 2b 18 be 4c 20 a6 bd
       0.22950956 0.07685559 -0.14860533 -0.08111629
000020 b0 b0 08 bd 67 47 cb 3e 61 41 ea bd b7 f0 d0 bd
       -0.033371627 0.39702913 -0.11438251 -0.10202163
000030 53 7f b3 be 1d b9 83 be fa b4 72 be c1 6c 23 bf
       -0.35058078 -0.25727168 -0.2370185 -0.6383782
000040 fe 84 fe 3e 55 5f 37 3f bb ea cd 3e 2c 4f 8b 3d
       0.4971084 0.7162984 0.40218148 0.0680221
000050 ec fe ec 3e cf 93 90 be 08 fc 9a 3e 28 1f da be
       0.4628824 -0.2823777 0.3027041 -0.42601895

model.conv2.weight f4 [1, 24, 3]
000000 97 48 3e 3b 2e 15 20 bd b7 8f 34 be 2f 0b be bd
       0.0029034966 -0.0390827 -0.17632948 -0.09279477
000010 69 45 16 3d e1 25 f6 3d d0 3c 81 3d 36 e0 7b bd
       0.03668729 0.120189436 0.06310427 -0.06149312
000020 de 03 ee bd ce 76 70 bd c6 39 ad bd ca 8c a9 bd
       -0.11621831 -0.05870705 -0.08458285 -0.082788065
000030 66 fe e2 3c 42 01 eb 3c 57 ea 03 bd c6 43 9d 3d
       0.027709197 0.028687123 -0.032205906 0.076789424
000040 0a dd 57 bd 51 b2 58 bd 5e 01 07 bd 2f ae 70 3d
       -0.052701034 -0.05290443 -0.03296029 0.058759864
000050 e4 f6 e3 3d f6 a4 97 bd 7b 65 65 3d 24 99 f8 3d
       0.11131075 -0.07404511 0.056004982 0.12138584
000060 11 ee fc bd c9 16 e3 bb 9c 2a 89 3c 54 48 5f 3d
       -0.12350095 -0.0069302064 0.01674395 0.054512337
000070 d2 d6 a8 3c d8 10 29 be 43 f8 58 bd 39 fd 16 3b
       0.020610247 -0.16510332 -0.052971136 0.0023039116
000080 ea 52 96 3c 6b 76 66 3c 9d 51 e3 bd 1e e6 8c 3d
       0.018350083 0.014066319 -0.11099551 0.06879829
000090 fb 2f 5b 3c 26 16 41 bc b0 8d 69 bc de 35 54 3b
       0.013378139 -0.011785066 -0.014254972 0.003238074
0000a0 da b7 a6 3d 64 8b 9b 3d b9 ca 35 bd 72 34 96 bd
       0.08140536 0.07594946 -0.044382785 -0.07334222
0000b0 d0 59 57 3d 78 19 97 bb 93 d9 84 3d 53 dc 1d 3d
       0.052575886 -0.0046111904 0.064868115 0.038540196
0000c0 96 e9 0d 3d a2 fa a3 bb 29 b0 b1 bd df a4 d7 3c
       0.034646593 -0.005004243 -0.08676178 0.026323734
0000d0 c0 75 0d 3d 25 e1 04 be 74 0d b3 bb ac fe c7 bd
       0.034536123 -0.12976511 -0.00546425 -0.09765372
0000e0 27 c4 a2 bd 55 44 dc 3c 03 55 26 3d f5 d1 34 bd
       -0.07947569 0.026888052 0.040608417 -0.044145543
0000f0 82 6f 15 bd 9e 6b c3 3c 3c d7 05 be 89 10 2c 3d
       -0.036483295 0.023855027 -0.13070387 0.042007957
000100 95 12 81 3d e5 3a 12 3d d0 4c 20 3d ee af b6 bd
       0.06302372 0.035700697 0.039135754 -0.08920275
000110 d4 45 2b bc 74 ee 72 bc 64 31 b8 3d 73 a9 ce 3d
       -0.01045366 -0.0148273595 0.089937955 0.100909136

model.t_conv1.weight f4 [1, 24, 3]
000000 83 c9 29 3e 3d c7 1e be b5 b5 a2 3d fe fd 5d bb
       0.16580777 -0.15505691 0.07944814 -0.0033873315
000010 7b 89 86 3c 42 51 88 bd eb 92 4d be 8b 7c 15 3e
       0.016422978 -0.06656124 -0.20075576 0.1459829
000020 b1 1f d9 bc d2 23 75 3c f9 c1 0b be 8e 9d 3c 3e
       -0.02650437 0.0149621535 -0.13648213 0.18419477
000030 f1 0d 24 bd d8 3d 73 bb 88 59 27 3e 18 fe 20 3d
       -0.040052358 -0.003711572 0.16342747 0.039304823
000040 7c a1 01 3e 00 54 75 be 95 6c 8d bc 9c 15 1c be
       0.12659258 -0.23957825 -0.01726369 -0.15242618
000050 71 f5 b4 bb 6a 01 e0 3c d9 8a d1 3a 82 46 cb 3d
       -0.005522423 0.027344424 0.0015986814 0.09925558
000060 7e 62 07 be 06 09 15 bd a2 d7 87 bc f4 f3 34 bd
       -0.13221166 -0.03638556 -0.016582314 -0.044177964
000070 1f 93 aa 3d 80 dd cb 3d 47 e3 de 3c 65 4c c8 bd
       0.08328842 0.09954357 0.027207984 -0.09780196
000080 df 96 3a bb 70 51 9d bc 5b 0f c3 3a f7 02 d5 3c
       -0.0028471274 -0.019203871 0.0014881896 0.02600239
000090 ce c8 9c 3e 8a 66 62 be 56 27 91 3d 0a 64 97 be
       0.30621952 -0.22109428 0.07087581 -0.2956851
0000a0 03 c4 47 3e 51 0d 9b bd 69 d0 69 be 0e 9a 96 bd
       0.19508366 -0.07570899 -0.22833408 -0.07353602
0000b0 27 94 f9 3d 72 28 82 be 61 b2 97 3d 24 8e 9d bd
       0.12186461 -0.25421482 0.0740707 -0.07693127
0000c0 a4 86 2d 3e cf c2 2b 3e e3 20 07 be 44 82 b1 3d
       0.16945893 0.16773532 -0.13196139 0.08667424
0000d0 b4 6b 63 bd a5 80 14 bd 09 57 12 3e f6 62 05 3e
       -0.055522636 -0.036255497 0.14291014 0.13026032
0000e0 e8 30 ce bd e5 06 3a be 7d 33 1b 3e 2e bf 91 be
       -0.10067922 -0.18166693 0.1515636 -0.2846617
0000f0 94 22 b2 3d b6 51 9f 3c e8 80 21 be be 29 a6 be
       0.086980015 0.019448142 -0.1577183 -0.32453722
000100 a0 58 4d 3e 7f 6e a4 bd 33 1c 87 bd b2 e6 0c be
       0.20053339 -0.08028888 -0.065971754 -0.13759878
000110 81 8d 43 3e de 27 2e 3e 93 2a 17 be 2d c6 37 3d
       0.19096948 0.17007396 -0.14762335 0.04486673

model.t_conv1.bias f4 [24]
000000 82 6c ad bd 62 3d d6 3c 04 b4 7d bd b2 59 bb 3c
       -0.08467962 0.026152316 -0.061939254 0.022869918
000010 f0 04 67 3d e4 3c be 3d 04 82 b6 bd 46 8b 09 3d
       0.056401193 0.09288958 -0.08911517 0.033580087
000020 51 95 9b 3d bb c7 ab bd 6a 73 82 3d 46 ca 5e 3c
       0.07596839 -0.08387705 0.0636967 0.01359803
000030 6a d8 06 3e 26 cc 2b 3e bb db d5 bd 9c 2b 84 3d
       0.13168493 0.16777095 -0.10442301 0.0645363
000040 cb 21 09 3d a3 a7 01 bd 73 bc 81 bb 72 85 2a 3e
       0.033479493 -0.03165401 -0.0039592325 0.16652468
000050 06 20 f1 3d da e4 8d bd 29 4e 3e 3d 08 2f 27 bd
       0.11773686 -0.069284156 0.046461258 -0.040816337
