exp/auto-lstm/2-classes/version_63/checkpoints/epoch=98.ckpt (torch_old, 10837 bytes, 24 tensors)

exp_avg f4 [40, 1]
000000 0f 78 9f b8 25 96 fe 39 14 2f 16 3b 26 a7 85 ba
       -7.6040735e-05 0.00048558522 0.0022916244 -0.0010196909
000010 91 39 3e b9 88 da 3f 3a 34 2e 68 3b 95 46 cc 3a
       -0.00018141257 0.00073186355 0.003542793 0.0015585
000020 b7 c9 ae 3a 10 2a 39 b9 64 1e 46 38 03 37 40 b8
       0.0013335262 -0.00017658644 4.7235182e-05 -4.58276e-05
000030 a9 99 07 3b db b0 c4 ba 21 36 07 3a b5 8f b4 3a
       0.0020690954 -0.001500632 0.0005157907 0.0013775738
000040 cf c7 dd 3a 20 e3 e6 3a 6d 1a 21 b9 9f f9 94 b9
       0.001692051 0.0017615296 -0.00015364001 -0.00028414742
000050 44 99 6d b9 4e 41 20 3c 08 2a 08 3b 19 c7 b7 bb
       -0.00022659177 0.009781195 0.0020777006 -0.005608451
000060 4e a5 52 bc 87 0f 8a 3b fa 65 27 bc 9a 59 73 3a
       -0.0128567945 0.004213277 -0.010217184 0.0009283066
000070 f1 6f 42 bc a0 86 3c 3b 11 54 12 3a e9 c8 01 3a
       -0.011867509 0.0028766766 0.0005581985 0.00049508974
000080 f9 44 b7 3b 4c 01 57 ba 3b 56 d2 38 af 66 37 3b
       0.005592939 -0.00082017924 0.00010029642 0.0027984788
000090 eb 9b 85 3b 82 8d c4 3b e2 49 e6 3a cb 8f b0 b9
       0.0040774248 0.0059983144 0.0017569626 -0.0003367647

exp_avg_sq f4 [40, 1]
000000 18 2f 39 36 1e 34 d1 37 52 7c f4 38 ea eb 86 36
       2.759456e-06 2.493901e-05 0.00011657983 4.020975e-06
000010 e5 5b ee 36 90 f9 a3 37 84 df 2b 39 a3 3a 57 38
       7.1036507e-06 1.9547326e-05 0.00016391097 5.1314604e-05
000020 f6 b9 d6 37 e2 86 36 35 6f 94 1e 36 b4 99 ca 36
       2.5597383e-05 6.7996564e-07 2.3630234e-06 6.0379625e-06
000030 e3 ee 8f 38 92 37 78 37 dc 5d f5 36 0b 06 d5 37
       6.8632675e-05 1.479489e-05 7.3124957e-06 2.5394393e-05
000040 02 09 5e 38 63 9f 30 38 e6 62 a4 36 36 03 6e 35
       5.2937314e-05 4.211011e-05 4.899094e-06 8.866658e-07
000050 df 52 52 38 81 7c 5c 3b f5 45 b9 39 4a d1 14 3b
       5.014508e-05 0.0033643546 0.00035338072 0.0022707754
000060 7e c0 02 3b 4c a5 53 39 df 74 2e 3b f4 7d 7d 38
       0.001995116 0.00020184106 0.0026619954 6.0437204e-05
000070 4b 67 cb 3b bb 05 bb 38 9a 3d 58 38 15 f6 88 37
       0.006207382 8.917922e-05 5.1555784e-05 1.6327054e-05
000080 48 03 9a 39 98 56 a1 36 8c 02 c3 37 91 ea a7 38
       0.00029375614 4.8082547e-06 2.3246997e-05 8.006872e-05
000090 4f 28 24 39 82 ca b6 39 b4 d6 5a 38 85 06 08 36
       0.00015655275 0.00034864625 5.2175208e-05 2.0269374e-06

exp_avg f4 [40, 10]
000000 ff 03 03 38 6f 30 be b5 cd 4e c1 37 29 7f da 37
       3.1236556e-05 -1.4170199e-06 2.3044087e-05 2.6046839e-05
000010 2b e7 8d b7 1c 91 f0 37 18 f8 d2 34 48 f5 0e 38
       -1.6916156e-05 2.8677801e-05 3.929606e-07 3.4083874e-05
000020 c2 37 f7 36 9c 9e 5d b6 51 a2 0f 3a de 67 fa b8
       7.3676647e-06 -3.302389e-06 0.0005479204 -0.00011940276
000030 39 8d b9 39 91 8f a6 39 09 ab 90 b8 17 83 d0 39
       0.0003539117 0.00031768953 -6.898313e-05 0.0003977052
000040 03 d6 ad b8 57 02 c1 39 7b 47 f3 38 0d 4e f3 b8
       -8.2891456e-05 0.00036813572 0.00011600457 -0.00011601681
000050 e9 57 8d 3a ff 9c 3c b8 c0 60 3c 3a 25 7d ef 39
       0.0010783646 -4.4968907e-05 0.0007186048 0.00045678872
000060 c6 c3 00 b9 74 d6 38 3a 58 e0 6c b9 cd 1e 42 3a
       -0.00012279963 0.0007050999 -0.00022590288 0.00074051024
000070 7c 6b b0 38 b1 e5 92 b9 24 1f 06 ba 91 d1 8b b9
       8.4123545e-05 -0.00028018423 -0.00051163347 -0.00026668285
000080 20 b7 cd b9 29 b1 a5 38 8a e1 ea 38 e5 c7 a7 b9
       -0.00039237086 7.900812e-05 0.000111999994 -0.00032001655
000090 f5 11 7d 39 b3 22 d7 b9 0c fe 4b 39 58 56 64 38
       0.0002413465 -0.00041033849 0.00019454228 5.443985e-05
0000a0 81 e9 98 b9 02 57 de b8 a1 65 61 b9 53 78 62 38
       -0.00029165673 -0.000106019914 -0.00021495532 5.399466e-05
0000b0 d5 ee 36 38 ea fd 53 b9 ed a5 22 39 cb f9 4e b9
       4.361461e-05 -0.00020217118 0.00015511336 -0.00019738746
0000c0 59 00 ca 38 0d ca 71 b6 38 a2 51 b8 90 cd db 37
       9.632175e-05 -3.6029408e-06 -4.998056e-05 2.6202557e-05
0000d0 a0 32 21 b8 b4 e6 98 b8 ce 30 11 38 65 7c 79 b8
       -3.843254e-05 -7.2908966e-05 3.4616147e-05 -5.9482078e-05
0000e0 f0 cf 71 b7 58 7b 91 b8 15 f4 1d b8 87 ec 08 b5
       -1.4413134e-05 -6.937113e-05 -3.7659036e-05 -5.100814e-07
0000f0 a7 fc eb 3a b5 73 e3 b8 c5 19 9c 3a 06 14 41 3a
       0.0018004373 -0.000108457556 0.0011909535 0.00073653494
000100 bc 78 33 b9 05 13 9b 3a 78 73 d2 b9 f3 65 9c 3a
       -0.00017115747 0.001183123 -0.00040140352 0.0011932239
000110 9e 2d 16 39 a6 62 ea b9 4e 33 34 3a de f1 13 b7
       0.00014322108 -0.00044705457 0.00068741 -8.818197e-06
000120 97 27 f1 39 0f 9c 87 39 a0 17 9d b8 59 c0 ea 39
       0.000459966 0.0002586548 -7.490744e-05 0.00044775268
000130 ba f9 28 b9 19 27 f4 39 7e 87 03 38 ee 22 32 b9
       -0.00016114759 0.00046568437 3.135902e-05 -0.00016988415
000140 3d f0 73 3a 93 6b 49 b8 c7 07 22 3a b8 58 af 39
       0.00093055126 -4.802232e-05 0.00061809685 0.00033444702
000150 ed 9f c3 b8 1d 3d 26 3a 78 6a 79 b9 44 db 1e 3a
       -9.328113e-05 0.0006341504 -0.00023786153 0.0006059895
000160 a6 2e 59 38 92 29 3e b9 6d 17 18 b9 16 a7 e1 b8
       5.1780276e-05 -0.00018135298 -0.00014504576 -0.00010759958
000170 44 72 f6 b8 85 fd c4 38 16 bd 22 38 5c 3f e5 b8
       -0.00011751478 9.39323e-05 3.879991e-05 -0.000109313725
000180 7f ec e9 38 ac e7 dc b8 73 b8 ce 38 b7 90 25 b8
       0.000111543566 -0.0001053357 9.857202e-05 -3.947384e-05
000190 90 6c f1 36 5e ca 57 36 5b 9d dc 36 aa 5d fa 36
       7.194998e-06 3.215529e-06 6.5748295e-06 7.4614845e-06
0001a0 b5 00 27 b7 f0 b3 19 37 c9 bc c9 35 38 4d 58 37
       -9.95414e-06 9.161406e-06 1.5030611e-06 1.2892582e-05
0001b0 e2 22 26 35 89 84 0e 36 20 cb b8 b7 1f 72 be b8
       6.189058e-07 2.1236795e-06 -2.2029097e-05 -9.081163e-05
0001c0 a7 c2 da b7 85 24 e1 38 a7 d8 7b b6 b2 e4 b4 36
       -2.6078267e-05 0.00010735638 -3.7528023e-06 5.3910417e-06
0001d0 30 2e 75 38 83 ba 3c b7 3f 9c aa 38 be c1 18 b7
       5.8455567e-05 -1.1249099e-05 8.135335e-05 -9.105015e-06
0001e0 bf e6 54 3a e5 19 99 b8 99 9c 0a 3a ed 55 bf 39
       0.0008121542 -7.300432e-05 0.0005287617 0.0003649438
0001f0 10 85 60 b8 e2 e8 05 3a 09 5d 2a b9 e9 55 09 3a
       -5.3529686e-05 0.00051082496 -0.00016247122 0.0005238937
000200 ef 5c b6 38 49 c9 80 b9 34 df 86 ba 8d 27 4a b9
       8.6957465e-05 -0.00024564032 -0.0010289908 -0.00019278955
000210 4c 4a 3f ba 59 f0 29 b9 cc b8 37 39 85 41 33 ba
       -0.0007297143 -0.00016206632 0.00017521082 -0.0006838071
000220 1f 3d b3 39 ff 5a 45 ba ea 7c fc 38 29 5d 1b 39
       0.0003418708 -0.0007528513 0.000120395634 0.00014816657
000230 15 22 e8 38 9c c7 62 b8 e8 69 81 38 b6 1f ea 38
       0.0001106897 -5.40685e-05 6.170926e-05 0.00011163896
000240 84 bc 18 37 72 6b 61 38 8e 0b 51 37 2e 30 86 38
       9.103798e-06 5.3744247e-05 1.2460061e-05 6.398592e-05
000250 00 52 67 38 ac d8 a1 b8 9f 6f 87 39 85 b4 7a 38
       5.515106e-05 -7.7174365e-05 0.0002583237 5.9772767e-05
000260 cd c5 35 39 62 62 81 b7 1a 76 ea 36 c4 ef 11 39
       0.00017335192 -1.5423811e-05 6.9874923e-06 0.00013917597
000270 a4 b7 f9 b8 e0 1f 0b 39 2a b3 84 b8 08 6f 81 b8
       -0.00011907451 0.00013267947 -6.3276224e-05 -6.1718805e-05
000280 28 20 21 3a 39 b2 0e b9 4d 55 ca 39 a1 9d bd 39
       0.0006146454 -0.00013608568 0.00038591996 0.00036166332
000290 dc 68 ba b7 5f c0 cb 39 13 79 b2 b8 07 ee c6 39
       -2.2221757e-05 0.00038862505 -8.510253e-05 0.00037942847
0002a0 07 19 0a 39 dc 6b 60 b9 f6 c1 2c 3a 04 9a 83 b7
       0.00013170029 -0.00021402485 0.0006590182 -1.5688136e-05
0002b0 5d 46 e4 39 2f 18 7a 39 42 fe 42 b8 4a bf d8 39
       0.00043539974 0.00023850867 -4.649e-05 0.00041341252
0002c0 99 31 28 b9 76 4f de 39 4f 12 f1 37 f9 3b 3d b9
       -0.00016040205 0.00042402343 2.8737964e-05 -0.00018046786
0002d0 0a 66 bb b8 6e e4 9d b8 11 e5 95 b8 af e0 3c 38
       -8.935861e-05 -7.528892e-05 -7.1475406e-05 4.5031946e-05
0002e0 68 f5 8c 37 55 40 37 b8 ca 8b 5f 38 f6 52 97 b8
       1.6803577e-05 -4.3690514e-05 5.3297532e-05 -7.215694e-05
0002f0 f0 9e 6d 38 d3 47 51 37 3d 1a 12 b9 fc c1 bf b8
       5.6653225e-05 1.2474094e-05 -0.0001393342 -9.143722e-05
000300 2d 53 e6 b8 d6 d3 a0 38 7d fe f7 37 b6 56 d1 b8
       -0.00010982747 7.668852e-05 2.95632e-05 -9.982048e-05
000310 28 45 d3 38 53 10 c8 b8 65 84 b2 38 ff 84 d6 b7
       0.000100741454 -9.539784e-05 8.512362e-05 -2.557272e-05
000320 6c a1 b8 38 28 bd a9 b6 a0 d2 87 38 6c 42 a2 38
       8.803871e-05 -5.058613e-06 6.4765336e-05 7.737134e-05
000330 a3 c3 3f b8 b3 fc a3 38 a1 9d 5f 36 ec 82 ca 38
       -4.572015e-05 7.8195146e-05 3.3321342e-06 9.656497e-05
000340 c3 36 c0 37 9e 7e 7c b7 b3 b4 c8 3b 3f 7d d4 b8
       2.2913684e-05 -1.5049851e-05 0.0061250567 -0.00010132277
000350 23 c1 88 3b ce 93 37 3b 0d 30 9b ba 05 0b 8b 3b
       0.0041734143 0.0028011682 -0.0011839882 0.004243257
000360 ba 74 91 ba 4e d3 97 3b 3b f3 06 3a a4 23 ab ba
       -0.0011097409 0.004633344 0.00051479385 -0.0013056886
000370 71 54 9e 3a 6e 28 a7 b8 26 aa 54 3a 7f 3f 23 3a
       0.0012079609 -7.970711e-05 0.00081125123 0.0006227418
000380 b0 6f 4d b9 74 b6 56 3a 8b 95 48 b9 f9 76 6a 3a
       -0.0001959193 0.000819064 -0.00019129195 0.000894412
000390 6c f5 1e 39 91 3b a8 b9 91 11 e8 bb 1c d7 94 3a
       0.00015159481 -0.00032087837 -0.007082172 0.0011355611
0003a0 3f 5f 9a bb a3 04 94 bb 7b 3d b6 3a 2d 05 a7 bb
       -0.0047110613 -0.0045171543 0.0013903821 -0.0050970525
0003b0 cd e4 33 3a 99 5c b2 bb 3f 5d ca ba a6 b2 e1 3a
       0.0006862402 -0.0054431674 -0.0015439166 0.0017219379
0003c0 d8 6f 9b bb 27 96 3c 39 9c c6 4c bb 24 25 eb ba
       -0.0047435574 0.00017985013 -0.003124631 -0.0017940146
0003d0 d2 13 af 39 ab 37 44 bb ba d4 93 3a 6f 62 47 bb
       0.00033393368 -0.0029940407 0.0011278607 -0.0030423661
0003e0 68 ec 87 b9 d1 9d ab 3a dd 7c 94 3a c4 34 34 39
       -0.00025925343 0.0013093298 0.0011328716 0.00017185794
0003f0 8d dc 47 3a 1b f9 33 38 64 3d 44 b7 ab 8c 2f 3a
       0.0007624112 4.2908923e-05 -1.1696804e-05 0.00066966814

exp_avg_sq f4 [40, 10]
000000 b9 9a 5a 35 12 a4 64 33 f6 9d 28 35 64 65 ee 33
       8.143648e-07 5.3234608e-08 6.281474e-07 1.11011815e-07
000010 24 85 68 33 74 a8 a1 34 c7 d1 6a 34 21 e3 37 35
       5.41378e-08 3.0111153e-07 2.1869265e-07 6.850333e-07
000020 e7 cb df 32 47 84 fa 33 68 11 13 37 30 7f 7b 35
       2.605334e-08 1.1665593e-07 8.7659355e-06 9.368987e-07
000030 7a 54 d6 36 55 8f fe 34 4a fc f1 34 b6 45 54 36
       6.3875314e-06 4.7415475e-07 4.5073313e-07 3.1631039e-06
000040 9c 4d 46 36 bf c3 c3 36 1f 20 23 35 f5 ba 81 35
       2.9549474e-06 5.8342407e-06 6.0768974e-07 9.665661e-07
000050 c8 a8 67 38 23 fd c5 35 cf 57 0e 38 93 10 af 36
       5.523188e-05 1.4751316e-06 3.3937216e-05 5.217336e-06
000060 ae 94 ff 35 d5 1d b6 37 16 30 16 37 21 f6 15 38
       1.9042252e-06 2.1709982e-05 8.951893e-06 3.5753594e-05
000070 3c bf 1d 35 99 81 99 36 2b 4a 48 36 b3 44 81 33
       5.876534e-07 4.5748425e-06 2.9845494e-06 6.019527e-08
000080 98 ee d7 35 64 ce 65 35 b2 94 59 34 2e ed b5 35
       1.6088188e-06 8.5609486e-07 2.0263795e-07 1.3554579e-06
000090 e7 83 fe 33 d5 13 20 36 4b 8c a6 33 1d 8d 4c 34
       1.18517896e-07 2.3853402e-06 7.7554965e-08 1.9050317e-07
0000a0 70 7d 37 36 36 a3 c1 34 15 eb 19 36 5e 8d 27 34
       2.734214e-06 3.6067803e-07 2.2935612e-06 1.5604516e-07
0000b0 52 d8 5e 34 28 6a 83 35 44 84 a0 35 22 28 0c 36
       2.0754058e-07 9.791156e-07 1.1959423e-06 2.0884986e-06
0000c0 8b b2 78 34 95 20 ec 34 f2 58 2e 37 38 e9 00 35
       2.3161753e-07 4.3982132e-07 1.0391917e-05 4.8023094e-07
0000d0 6e bc d1 36 c8 bc b1 34 e0 22 98 34 33 75 84 36
       6.2506215e-06 3.3106176e-07 2.833758e-07 3.9475503e-06
0000e0 60 2e 23 36 0d 6c b7 36 a6 92 a2 34 7c 9c 40 35
       2.4315887e-06 5.4664038e-06 3.0281552e-07 7.175329e-07
0000f0 e7 5a ad 38 98 dc 09 36 fc 56 4b 38 0f ab ca 36
       8.266215e-05 2.0542993e-06 4.8479982e-05 6.039983e-06
000100 4a 5e 1d 36 9b 02 08 38 a1 e1 59 37 87 08 4e 38
       2.3449707e-06 3.2427353e-05 1.2986741e-05 4.912217e-05
000110 7e 1f 65 35 29 d3 c2 36 b5 4f c7 37 78 ed 59 35
       8.5354975e-07 5.806233e-06 2.3759765e-05 8.118436e-07
000120 39 47 79 37 c0 43 fc 35 31 b3 5a 35 f4 64 1b 37
       1.4858139e-05 1.8795181e-06 8.1472086e-07 9.262225e-06
000130 42 c7 96 36 8d 4f 7c 37 c9 83 ca 34 a1 9a 09 36
       4.493545e-06 1.5038892e-05 3.7721318e-07 2.0504597e-06
000140 fc a9 3d 37 5c a8 21 35 de d5 eb 36 10 8a f1 34
       1.1304855e-05 6.022217e-07 7.028443e-06 4.4990202e-07
000150 2b 93 bd 34 eb cd 8e 36 c0 f2 34 36 2f c8 d4 36
       3.5311072e-07 4.255902e-06 2.696339e-06 6.341397e-06
000160 1a 54 c3 34 e2 41 69 35 b5 e1 12 34 b1 11 8e 33
       3.6382772e-07 8.6895136e-07 1.3679421e-07 6.615608e-08
000170 b8 42 57 34 e6 a5 6a 32 7a 8a cd 32 f4 6c 42 33
       2.0047707e-07 1.3658314e-08 2.3928113e-08 4.5268237e-08
000180 51 08 34 34 f5 dd 20 34 a7 64 68 33 01 3f 41 33
       1.6766832e-07 1.4981909e-07 5.4108252e-08 4.4993616e-08
000190 dd 84 50 35 1c a5 90 33 8d c0 31 35 0f 99 a6 33
       7.767938e-07 6.735556e-08 6.6217837e-07 7.7578186e-08
0001a0 dc cf 61 33 b1 43 91 34 a8 11 9c 34 24 cd 2e 35
       5.2575942e-08 2.7057607e-07 2.907011e-07 6.511857e-07
0001b0 38 1d 17 33 86 72 13 34 d6 16 f1 35 86 ce 17 35
       3.5184e-08 1.3732105e-07 1.7962545e-06 5.6552415e-07
0001c0 8e 6f f7 35 65 cf b8 33 0c b8 2f 34 f3 10 19 35
       1.8435401e-06 8.6058925e-08 1.6365101e-07 5.7021606e-07
0001d0 bb cc b4 35 c3 3d c3 35 60 9c e1 34 e4 c7 bb 34
       1.347063e-06 1.4546607e-06 4.2023294e-07 3.4976904e-07
0001e0 18 17 04 38 fa eb 91 35 c1 16 a9 37 07 45 1a 36
       3.149276e-05 1.087202e-06 2.0156966e-05 2.2987967e-06
0001f0 b2 5c 85 35 9c 21 4b 37 86 02 da 36 42 d7 a5 37
       9.93625e-07 1.2107568e-05 6.4972e-06 1.976977e-05
000200 61 22 04 35 e6 08 41 36 12 87 2b 37 19 09 9f 33
       4.922386e-07 2.876442e-06 1.0223843e-05 7.405669e-08
000210 37 c4 b5 36 2a 35 c5 35 7c 03 c8 34 59 21 8c 36
       5.4170628e-06 1.4693117e-06 3.7255438e-07 4.1762073e-06
000220 39 bb 23 35 95 e7 de 36 8b d3 29 33 93 23 11 35
       6.0994677e-07 6.6430753e-06 3.9540776e-08 5.4068477e-07
000230 e0 80 6e 36 ac f4 7f 34 2c 64 24 36 d4 6b 6b 34
       3.5539779e-06 2.3837737e-07 2.4496212e-06 2.1925308e-07
000240 44 92 50 34 b9 94 b6 35 b7 b8 84 35 b5 d4 1c 36
       1.942472e-07 1.3603341e-06 9.888525e-07 2.3369623e-06
000250 d8 93 1a 34 fc 5d d4 34 ec 56 72 37 2e a2 cc 34
       1.4396153e-07 3.955646e-07 1.4444562e-05 3.8115962e-07
000260 ac bb 04 37 de ac 0e 35 e8 fc 92 34 da ee bf 36
       7.911509e-06 5.3150677e-07 2.7378633e-07 5.7200496e-06
000270 32 aa 27 36 e9 5b f1 36 89 ce 6e 34 d8 35 41 35
       2.4984006e-06 7.1930594e-06 2.2240614e-07 7.1976456e-07
000280 a2 c0 b9 37 32 9e a8 35 35 78 7d 37 91 77 a2 35
       2.214342e-05 1.2563016e-06 1.5107963e-05 1.2104739e-06
000290 12 60 46 35 a0 69 0b 37 aa 45 cc 36 b0 bd 67 37
       7.390055e-07 8.309638e-06 6.0877837e-06 1.3812838e-05
0002a0 87 7d 3e 35 0c 69 1b 36 06 46 af 37 24 0b 44 35
       7.096318e-07 2.3157945e-06 2.0894233e-05 7.30319e-07
0002b0 c7 b8 58 37 f4 a7 b1 35 3a 2b 2e 35 c7 21 08 37
       1.2917625e-05 1.3236408e-06 6.4882954e-07 8.114096e-06
0002c0 88 9c 8c 36 33 4d 52 37 68 5c c4 34 36 ea e7 35
       4.1905478e-06 1.253495e-05 3.657508e-07 1.7279006e-06
0002d0 83 e1 89 35 d8 3e 16 35 84 66 ce 35 13 11 7d 33
       1.0272928e-06 5.5970804e-07 1.5378032e-06 5.892168e-08
0002e0 5d c8 2a 34 f7 7a 86 34 33 77 bd 35 cf eb 8e 35
       1.5905376e-07 2.5048914e-07 1.4116289e-06 1.0648454e-06
0002f0 54 a9 e7 34 c6 21 d1 34 2c c5 50 34 33 e0 a2 33
       4.3150305e-07 3.8953857e-07 1.944324e-07 7.5844945e-08
000300 a5 6f 91 34 18 87 00 32 9f c0 05 33 09 54 7f 33
       2.7089587e-07 7.481297e-09 3.1141663e-08 5.9448244e-08
000310 3f b1 78 34 fb 76 47 34 d0 a4 89 33 87 b3 8b 33
       2.3161282e-07 1.8576604e-07 6.409539e-08 6.505348e-08
000320 cc e2 0e 37 4b 8f 88 35 80 31 17 37 43 4e 99 35
       8.516665e-06 1.0174493e-06 9.0118265e-06 1.1422165e-06
000330 03 37 46 35 4a f2 38 36 49 19 8f 36 3d a6 16 37
       7.38408e-07 2.7559167e-06 4.2646757e-06 8.979402e-06
000340 65 e4 fb 34 b3 01 10 36 c4 4a 0f 3b 1e 78 9f 37
       4.6918572e-07 2.1458661e-06 0.0021864632 1.9010211e-05
000350 2a 9c 97 3a c0 e5 7a 39 21 28 89 38 39 2a 69 3a
       0.0011566926 0.00023927446 6.540144e-05 0.00088945363
000360 92 e4 37 39 0c 46 ad 3a c6 75 c1 36 d3 5c ef 38
       0.00017537389 0.0013219728 5.765559e-06 0.00011413698
000370 5b 3b f6 38 61 1a 94 36 0e d8 aa 38 57 d2 73 37
       0.0001174125 4.4138146e-06 8.146475e-05 1.4532902e-05
000380 5f ba ab 36 e2 98 3e 38 b5 80 c1 37 37 e6 b8 38
       5.1178936e-06 4.5441913e-05 2.3067327e-05 8.8166846e-05
000390 4a ac d9 35 77 48 52 37 28 d2 c2 3a 58 a2 45 37
       1.6217903e-06 1.2533847e-05 0.0014863657 1.1779914e-05
0003a0 b3 a5 51 3a ff 12 59 39 b1 f6 5f 38 6c ee 1d 3a
       0.00079974084 0.00020701809 5.3397092e-05 0.00060246023
0003b0 92 ce cf 38 43 1e 7e 3a 95 64 a7 36 da e2 a9 38
       9.909006e-05 0.00096938404 4.988697e-06 8.1008024e-05
0003c0 46 f4 88 3a 14 4a b7 37 17 ac 19 3a 46 dd 95 38
       0.0010448776 2.1849795e-05 0.000586213 7.146089e-05
0003d0 6f fb d6 37 25 30 dc 39 d5 81 1d 39 e8 c5 1a 3a
       2.562787e-05 0.0004199754 0.00015021053 0.0005904124
0003e0 90 ff 18 37 99 9a 87 38 53 c3 be 38 9c 87 a7 36
       9.119409e-06 6.466098e-05 9.096288e-05 4.992775e-06
0003f0 67 4d 76 38 a3 29 3f 36 a3 3d 3b 36 b8 c9 0e 38
       5.8723057e-05 2.8485454e-06 2.7901049e-06 3.4043303e-05

exp_avg f4 [40]
000000 97 98 9b 39 11 95 12 3a b0 d0 39 3b 51 66 4d bb
       0.00029677592 0.00055916706 0.0028353147 -0.0031341503
000010 90 26 9d b9 0b 7c 54 ba 8a 47 57 3b 4f 81 d8 3a
       -0.00029974105 -0.0008105642 0.0032849037 0.0016518029
000020 aa 7a 45 3a 74 05 2c b9 dc 59 a8 38 ce 85 90 b8
       0.0007533232 -0.0001640523 8.027602e-05 -6.891378e-05
000030 71 ff cd 3a d1 64 20 bb f9 f1 98 39 09 c1 6f 39
       0.0015716386 -0.0024474154 0.00029171983 0.00022864727
000040 ae bc 88 3a f2 11 a2 3a ef e9 c6 b9 6f ad 2a b9
       0.0010432207 0.0012364967 -0.00037939797 -0.00016277072
000050 47 97 97 3a 55 78 a6 3c 74 5d a8 3b b7 6d c2 bc
       0.001156547 0.02032105 0.0051380936 -0.023733957
000060 9a a7 1a bc 93 72 f8 b8 6f 79 93 bc f2 c2 f4 3a
       -0.009439373 -0.000118469026 -0.01800224 0.0018673821
000070 cf 5a c9 bc 8f 3f c4 ba 18 a6 15 3a f1 cc a9 39
       -0.024579434 -0.0014972555 0.0005708649 0.00032386885
000080 9c e0 70 3b e9 95 d4 ba 7f 91 0f ba 78 3c 06 ba
       0.0036754971 -0.0016218993 -0.00054766977 -0.0005120705
000090 48 d6 31 3b 9a 0f 4e 3b aa 6d 49 3a 9d 30 8f b9
       0.0027135778 0.0031442405 0.0007683883 -0.00027311305

exp_avg_sq f4 [40]
000000 2c 0e bf 37 b5 76 6f 38 4b 50 16 3a 79 75 37 39
       2.2775574e-05 5.7092595e-05 0.00057340105 0.00017496002
000010 90 54 ce 37 ca 78 4d 37 24 36 03 3a e8 2e 5e 39
       2.4596491e-05 1.2247076e-05 0.0005005321 0.00021189044
000020 2e 7d e9 37 d5 fa 05 36 78 5c 04 37 e4 18 44 37
       2.7834056e-05 1.9964548e-06 7.889343e-06 1.1688306e-05
000030 57 d3 43 39 7a 57 ba 38 87 40 a4 37 d5 b7 27 38
       0.0001867538 8.885465e-05 1.9580371e-05 3.998711e-05
000040 21 39 ef 38 4b c5 e1 38 4b 7c 18 37 10 64 c8 35
       0.00011407049 0.00010765585 9.088845e-06 1.4930283e-06
000050 a2 54 af 39 ae a5 c4 3c 00 53 27 3b 3f 6c bc 3c
       0.00033441657 0.024004783 0.002553165 0.023000835
000060 97 4a e0 3b 1f ba 1a 39 9c 86 a9 3c cd b3 b8 39
       0.0068448293 0.0001475592 0.02069407 0.00035229177
000070 40 cb 37 3d 1f 72 5a 39 7c 3b 37 39 55 b4 01 38
       0.04487157 0.00020832614 0.000174744 3.0923944e-05
000080 fd 7b 45 3a f7 0a 7c 38 18 12 50 38 0b 96 2d 38
       0.00075334293 6.0091694e-05 4.9607916e-05 4.1386153e-05
000090 33 f0 a4 39 e9 36 43 3a 62 97 86 38 c5 dd 8b 36
       0.0003145948 0.0007446842 6.417815e-05 4.16834e-06

exp_avg f4 [40]
000000 97 98 9b 39 11 95 12 3a b0 d0 39 3b 51 66 4d bb
       0.00029677592 0.00055916706 0.0028353147 -0.0031341503
000010 90 26 9d b9 0b 7c 54 ba 8a 47 57 3b 4f 81 d8 3a
       -0.00029974105 -0.0008105642 0.0032849037 0.0016518029
000020 aa 7a 45 3a 74 05 2c b9 dc 59 a8 38 ce 85 90 b8
       0.0007533232 -0.0001640523 8.027602e-05 -6.891378e-05
000030 71 ff cd 3a d1 64 20 bb f9 f1 98 39 09 c1 6f 39
       0.0015716386 -0.0024474154 0.00029171983 0.00022864727
000040 ae bc 88 3a f2 11 a2 3a ef e9 c6 b9 6f ad 2a b9
       0.0010432207 0.0012364967 -0.00037939797 -0.00016277072
000050 47 97 97 3a 55 78 a6 3c 74 5d a8 3b b7 6d c2 bc
       0.001156547 0.02032105 0.0051380936 -0.023733957
000060 9a a7 1a bc 93 72 f8 b8 6f 79 93 bc f2 c2 f4 3a
       -0.009439373 -0.000118469026 -0.01800224 0.0018673821
000070 cf 5a c9 bc 8f 3f c4 ba 18 a6 15 3a f1 cc a9 39
       -0.024579434 -0.0014972555 0.0005708649 0.00032386885
000080 9c e0 70 3b e9 95 d4 ba 7f 91 0f ba 78 3c 06 ba
       0.0036754971 -0.0016218993 -0.00054766977 -0.0005120705
000090 48 d6 31 3b 9a 0f 4e 3b aa 6d 49 3a 9d 30 8f b9
       0.0027135778 0.0031442405 0.0007683883 -0.00027311305

exp_avg_sq f4 [40]
000000 2c 0e bf 37 b5 76 6f 38 4b 50 16 3a 79 75 37 39
       2.2775574e-05 5.7092595e-05 0.00057340105 0.00017496002
000010 90 54 ce 37 ca 78 4d 37 24 36 03 3a e8 2e 5e 39
       2.4596491e-05 1.2247076e-05 0.0005005321 0.00021189044
000020 2e 7d e9 37 d5 fa 05 36 78 5c 04 37 e4 18 44 37
       2.7834056e-05 1.9964548e-06 7.889343e-06 1.1688306e-05
000030 57 d3 43 39 7a 57 ba 38 87 40 a4 37 d5 b7 27 38
       0.0001867538 8.885465e-05 1.9580371e-05 3.998711e-05
000040 21 39 ef 38 4b c5 e1 38 4b 7c 18 37 10 64 c8 35
       0.00011407049 0.00010765585 9.088845e-06 1.4930283e-06
000050 a2 54 af 39 ae a5 c4 3c 00 53 27 3b 3f 6c bc 3c
       0.00033441657 0.024004783 0.002553165 0.023000835
000060 97 4a e0 3b 1f ba 1a 39 9c 86 a9 3c cd b3 b8 39
       0.0068448293 0.0001475592 0.02069407 0.00035229177
000070 40 cb 37 3d 1f 72 5a 39 7c 3b 37 39 55 b4 01 38
       0.04487157 0.00020832614 0.000174744 3.0923944e-05
000080 fd 7b 45 3a f7 0a 7c 38 18 12 50 38 0b 96 2d 38
       0.00075334293 6.0091694e-05 4.9607916e-05 4.1386153e-05
000090 33 f0 a4 39 e9 36 43 3a 62 97 86 38 c5 dd 8b 36
       0.0003145948 0.0007446842 6.417815e-05 4.16834e-06

exp_avg f4 [4, 10]
000000 21 f9 99 39 e3 6b 99 ba ca a6 31 b9 8a a5 b0 3a
       0.0002936805 -0.0011705126 -0.00016942169 0.0013477069
000010 ec 68 b0 3a a2 97 dd b9 c5 6a 1f 3a e5 0e db b9
       0.0013459004 -0.0004226538 0.00060812786 -0.00041782032
000020 4c e4 7c 3a e2 1f f3 ba bb bc f1 ba 6f 51 91 b9
       0.0009647056 -0.001854893 -0.0018443087 -0.00027717228
000030 4c 64 ad ba b9 2b 15 b9 33 d3 1c 39 cf 8a ac ba
       -0.0013228743 -0.00014226035 0.00014955997 -0.0013163927
000040 a3 90 58 3a cc c4 9d ba 35 1d 9a 39 c2 b9 3a 39
       0.00082612986 -0.00120368 0.0002939493 0.00017807542
000050 2d 7f 4a 3c 6b 35 98 3b 9e 36 0e 3c 4c 4e 5a bb
       0.012359423 0.00464504 0.008680014 -0.0033310829
000060 52 2f e0 3a 66 b4 dc 3b ec ec d9 bb 61 49 d1 3b
       0.0017103946 0.0067353724 -0.0066505577 0.0063869213
000070 e1 b5 9f bb 8e 3a 7d bb 6c de 0b bb 07 f9 64 3a
       -0.0048739766 -0.0038639638 -0.002134229 0.0008734618
000080 5b cc a9 ba 05 a0 d5 ba eb 94 d4 b9 2e fb b2 ba
       -0.001295458 -0.00162983 -0.00040546744 -0.001365518
000090 8f 17 a0 39 2d e0 9c ba 7a 54 3f ba 73 99 90 3a
       0.0003053513 -0.0011968665 -0.000729866 0.001103206

exp_avg_sq f4 [4, 10]
000000 be 65 f0 38 bc 61 eb 37 c8 af c8 38 a3 96 75 36
       0.00011463043 2.8059694e-05 9.569485e-05 3.6595527e-06
000010 08 6e 2d 37 2b ce 5b 38 78 48 90 38 7b 15 95 38
       1.0337222e-05 5.2405678e-05 6.8799534e-05 7.108875e-05
000020 39 75 cf 37 b7 c7 50 37 38 1a cb 37 8c ad 11 37
       2.4730909e-05 1.2444266e-05 2.4211695e-05 8.6830805e-06
000030 d2 32 0a 38 a8 a6 bb 34 b9 5b 8d 36 1a 07 0b 37
       3.2949094e-05 3.4952723e-07 4.2128054e-06 8.286699e-06
000040 da 93 ea 37 7a e4 b7 37 e6 84 f8 36 9d 76 f5 36
       2.7963823e-05 2.1921693e-05 7.4064474e-06 7.3153774e-06
000050 4f 12 9c 3b b2 9f dc 39 27 66 56 3b b3 51 af 37
       0.0047629247 0.00042080652 0.0032714696 2.089967e-05
000060 81 e0 06 39 36 10 0b 3b c4 94 f5 3a d4 54 25 3b
       0.0001286287 0.002121938 0.0018736352 0.0025227563
000070 91 cb bc 39 98 98 ad 39 e7 12 83 38 9f be 83 37
       0.00036009823 0.00033110823 6.2500876e-05 1.5705182e-05
000080 0b 3b 84 38 ee 2e 1b 36 14 55 bc 36 37 d6 e0 37
       6.305248e-05 2.3124117e-06 5.612741e-06 2.6802632e-05
000090 e6 9b 40 38 ea ab 3b 38 1b 36 5f 37 60 c3 1a 37
       4.592156e-05 4.474438e-05 1.3304433e-05 9.224605e-06

exp_avg f4 [4, 1]
000000 a3 52 98 bb fe 90 9f ba b5 2e 13 bd ba ec 38 b9
       -0.004648523 -0.0012173948 -0.035933215 -0.00017635795

exp_avg_sq f4 [4, 1]
000000 8c 1d 01 38 55 9a fb 37 e0 11 ab 3a 51 71 85 38
       3.0783514e-05 2.9993398e-05 0.0013051592 6.363041e-05

exp_avg f4 [4]
000000 44 54 84 39 70 58 22 bb 95 e6 6d 3c d4 56 47 bb
       0.00025239785 -0.002477195 0.014520307 -0.0030416744

exp_avg_sq f4 [4]
000000 e8 6d c1 39 11 0f 17 39 2f f3 48 3c 50 54 a6 39
       0.00036893715 0.00014406095 0.012265011 0.00031724805

exp_avg f4 [4]
000000 44 54 84 39 70 58 22 bb 95 e6 6d 3c d4 56 47 bb
       0.00025239785 -0.002477195 0.014520307 -0.0030416744

exp_avg_sq f4 [4]
000000 e8 6d c1 39 11 0f 17 39 2f f3 48 3c 50 54 a6 39
       0.00036893715 0.00014406095 0.012265011 0.00031724805

model.encoder.NN.weight_ih_l0 f4 [40, 1]
000000 c7 37 5f 3e 64 ca 53 3e 97 eb 92 3e c8 7e 41 3d
       0.21798621 0.20682675 0.28695366 0.04724005
000010 a5 6f a2 bd dc ae bb 3e 9c e4 6d 3e df 6e bc bb
       -0.07931451 0.36656845 0.23231739 -0.0057505216
000020 86 8d b6 3e e2 4a bd 3e ca 63 bd 3e 4f 6f e8 3e
       0.3565485 0.36971194 0.36990196 0.45397422
000030 c3 04 ec bd 59 1d b0 3e fb 96 a8 3c e2 9e 3a be
       -0.11524346 0.3439739 0.020579806 -0.18224671
000040 19 f9 9e bd 7c 45 07 be 18 70 e6 3e e9 94 d1 3e
       -0.07762355 -0.132101 0.45007396 0.40933922
000050 26 38 58 3e da 2e 91 3e e0 65 12 3e 9f a8 c3 be
       0.21115169 0.28356057 0.14296675 -0.38214585
000060 ef 67 63 3e 4b 22 77 be 61 b1 97 be e0 5f 45 bb
       0.22207616 -0.24134175 -0.29627517 -0.003011696
000070 95 50 b9 be b7 86 14 be 8c 94 ac 3e b6 9a f6 3d
       -0.36194292 -0.14504515 0.33707082 0.120412275
000080 08 29 f9 3d ec 42 dc 3e 36 1d 5a be 5f 06 d6 bd
       0.12166029 0.43019807 -0.21300206 -0.10450434
000090 cd dc 19 be a5 b7 e8 bd d1 29 e7 bd e8 a2 36 bd
       -0.15025635 -0.113631524 -0.11287273 -0.044588953

model.encoder.NN.weight_hh_l0 f4 [40, 10]
000000 7f fc e0 3d 12 18 ae bd e9 9e e3 3e fe 47 de 3d
       0.1098566 -0.08500685 0.44457176 0.10853575
000010 86 c4 80 be 23 fb cb 3d c0 ba fd be 52 62 a2 3d
       -0.25149935 0.0996001 -0.4955654 0.07928909
000020 b2 34 81 bd f8 72 dd be 5f 73 b9 3e bc 8b 2b 3e
       -0.06308879 -0.43251777 0.36220834 0.16752523
000030 91 1a 02 be 1b 48 27 bf 9c c8 11 3e ea d7 fe bd
       -0.12705447 -0.653444 0.14236683 -0.12443526
000040 b0 1c 72 3d a1 ec 62 3e 9f e0 10 be cf 56 32 be
       0.05910939 0.2216058 -0.14148186 -0.17415927
000050 cd 4d 23 be 2d ca ac 3e 72 7d 15 be 87 31 84 3b
       -0.15947647 0.33747998 -0.14598635 0.0040342244
000060 20 cb cc 3b 24 07 e3 bc 62 fd 98 be f2 f5 3c 3e
       0.0062498003 -0.027713366 -0.29880816 0.18453196
000070 b4 e8 a0 be ff 13 58 3e 19 3a 30 3e 90 84 06 3f
       -0.31427538 0.21101378 0.17209662 0.52546024
000080 28 06 5d 3c c1 10 d3 bd e0 11 a2 be ff ea 07 3d
       0.013490237 -0.1030593 -0.31654263 0.033183094
000090 6e 03 a1 be 3b 56 db 3c 05 14 fc be 13 ed a7 3e
       -0.3144793 0.026774516 -0.49234024 0.3279806
0000a0 55 4f 68 3d b8 d7 d9 3e b7 8c d2 bd 53 d3 1e bf
       0.056716282 0.42547393 -0.102807455 -0.62041205
0000b0 60 f5 c2 be af e7 5f bd d2 40 b2 be 90 92 dd 3d
       -0.3807783 -0.05466431 -0.3481508 0.1081897
0000c0 53 89 f7 be db 75 33 3e c6 2e 9c 3e ac e5 00 3f
       -0.48346958 0.17525427 0.30504435 0.5035045
0000d0 cc ca a2 3e 06 86 ce be 22 81 de bc e6 1a 7d 3e
       0.31795347 -0.40336627 -0.027161185 0.24717292
0000e0 6d 78 af 3d f7 5d 29 3e 0b f5 ee be 05 7f a1 be
       0.08567891 0.16539751 -0.46671328 -0.3154222
0000f0 02 4d 6e be 80 c3 ca 3e 60 dc 34 be 06 78 61 be
       -0.23271564 0.3960228 -0.17662191 -0.22018442
000100 2b c3 47 3d c8 7f c6 3d 69 e7 e6 bc 30 16 2e 3e
       0.04877011 0.09692341 -0.028186517 0.17000651
000110 39 64 d2 be 19 5f 35 be ec 9c 83 3e 9d 79 d5 3e
       -0.4109209 -0.17712058 0.2570566 0.41694346
000120 ca f9 9b bd 01 e4 bd be 2c 01 b3 be a6 96 09 3e
       -0.07616003 -0.37088016 -0.34961832 0.13436374
000130 1f 84 ce bb 7e f5 31 3e 86 d5 b0 be b7 80 84 be
       -0.006302371 0.17378804 -0.34537905 -0.25879452
000140 a1 77 2b be d9 70 1e 3e d1 8d dd 3d 15 f3 4e bf
       -0.16744854 0.15472735 0.10818065 -0.80839664
000150 ac cc 76 3e 00 cb 47 3d ad ac 6f be af fe 87 3d
       0.24101514 0.04877758 -0.23405714 0.06640374
000160 7b 06 bc bc 4c 88 b4 bd c8 2f c9 bd 44 a6 4b 3e
       -0.022952309 -0.08815059 -0.09823567 0.19887644
000170 8c f6 81 bd 76 9e 34 be 0a e1 14 be f5 6d f3 3e
       -0.06345853 -0.17638573 -0.1453897 0.47544828
000180 ea b6 25 3e da 5e e2 3e 27 6e 14 be 94 d3 23 bd
       0.16183057 0.4421299 -0.14495145 -0.0399967
000190 f0 c9 8d 3e b7 5b 86 bb 2e e1 00 3f 7e 80 04 3e
       0.2769313 -0.0041002887 0.50343597 0.12939641
0001a0 42 78 88 bd d4 da 45 3e b5 f3 22 be f1 a8 c1 3e
       -0.06663562 0.19321758 -0.1591328 0.37824205
0001b0 86 ad 8e 3d 5b 47 5d be 09 8e 13 3e 1d a4 06 3f
       0.06966691 -0.21609251 0.14409651 0.52594167
0001c0 03 36 56 3b 6c ca cb be cf 94 65 be 89 9d 11 3f
       0.0032686002 -0.39802873 -0.22420047 0.56881005
0001d0 93 86 e6 3b 41 ed 2f bd e6 82 08 bf 56 1e 12 3c
       0.0070350855 -0.042950872 -0.53324735 0.008918365
0001e0 ea e1 83 3e e1 f5 5f 3e e6 0c b4 bc b7 87 35 3e
       0.25758296 0.21871139 -0.021978807 0.17727552
0001f0 ee 20 99 3c 94 b2 40 be 17 2e 34 3d da e4 9f 3e
       0.01869246 -0.18818122 0.043989267 0.31229287
000200 16 2e 69 be 31 e4 63 be 42 65 c0 3e db 4d dc 3e
       -0.22771487 -0.22255017 0.37577254 0.4302815
000210 ab 3a 03 3e b4 a4 f3 3d fc 2e d8 3d a6 a0 be 3e
       0.12815349 0.11896649 0.105558366 0.3723194
000220 63 c9 ba bd 21 0c b7 3e 12 9a 70 bf 69 f7 80 be
       -0.09120443 0.3575144 -0.9398509 -0.2518876
000230 8e 02 80 bd 48 58 2e bd a6 98 8c 3e d9 ea d1 be
       -0.06250487 -0.04256466 0.27460212 -0.40999487
000240 39 12 7b 3e 3f a4 18 3e 38 dd c9 be ae 5d dc 3d
       0.2451867 0.14906405 -0.3942659 0.107600555
000250 d6 88 ea bd ce 36 ea 3c ca 30 00 3f a8 41 a7 3e
       -0.11451881 0.028590586 0.50074446 0.3266728
000260 2f da 37 bc c3 86 c3 be 00 f5 d0 be 8f 2b db 3e
       -0.011221453 -0.38188753 -0.4081192 0.4280667
000270 e1 be 92 be f7 6a c0 3e 6f 5a 8a be 22 e4 9d be
       -0.28661254 0.37581608 -0.2702212 -0.30838114
000280 23 a8 6f 3d 4c a5 0b 3e 74 45 32 3e 75 b9 b9 be
       0.058509957 0.13637275 0.17409307 -0.36274305
000290 f8 21 48 be 9c f0 ba 3e a3 56 15 be 66 18 31 3e
       -0.19544208 0.36511695 -0.1458383 0.17294464
0002a0 02 25 5d be fe 5a a4 be 92 d9 4d 3e ba bc ed 3e
       -0.21596149 -0.32100672 0.20102528 0.4643305
0002b0 6d 95 d0 bd 8b 68 0b be 5f 55 a6 3a 3d 62 e7 3e
       -0.10184751 -0.13614099 0.0012690237 0.45192137
0002c0 35 51 8d be 16 0d 22 be e6 ed 58 bc d4 d2 7e bd
       -0.2760102 -0.15825304 -0.013240313 -0.06221278
0002d0 a9 67 03 3f a4 94 74 3e 2d 46 f9 3e 41 48 a6 be
       0.5133005 0.23884827 0.48686352 -0.32477
0002e0 d3 cf 9b be ad 87 a5 3e ba d6 83 be b3 aa 0e 3f
       -0.30431995 0.32330075 -0.2574976 0.55729216
0002f0 54 6e 15 bf d2 15 e9 bd 12 6f 06 3e b4 46 a2 be
       -0.5837147 -0.11381115 0.13128307 -0.31694567
000300 02 c2 fb 3d 17 01 9b 3e 07 21 b2 bc 93 f5 57 be
       0.122928634 0.3027427 -0.021744264 -0.21089773
000310 4d ab d7 3d 44 b2 ba bc bd cf 22 3e 28 f6 30 3c
       0.1053072 -0.022790082 0.15899558 0.010800876
000320 d5 37 da 3d aa e1 a8 3e a6 8c 89 3d 19 bd 2d be
       0.1065518 0.32984668 0.0671628 -0.16966666
000330 8e 98 41 be fd fc 0f 3f 79 f7 c5 3d 43 40 4f 3d
       -0.18905851 0.56245404 0.09666342 0.050598394
000340 7c 07 2d be 3d bf d4 be 1e 75 6a be d0 35 1b 3e
       -0.16897386 -0.41552153 -0.22896239 0.15157247
000350 c6 e3 9b 3d 85 73 17 bf 4d 89 d0 3d 8b 1b 68 3d
       0.07611804 -0.59160644 0.10182438 0.056666892
000360 14 4b 4e be bf 58 1c 3e 4e 3b 09 bf 78 be fb 3d
       -0.20145828 0.15268229 -0.53606117 0.122921884
000370 a5 13 bc 3e 33 d5 24 be f5 90 86 3e 02 ed 27 3e
       0.36733738 -0.16096954 0.26282468 0.16399005
000380 1c dd 7e be 1d 4e 03 be 77 58 b7 be 09 bb 70 3e
       -0.24889034 -0.12822767 -0.3580968 0.23508848
000390 2f 12 49 be cc 2e 77 be 0f 4b 96 be 2f 66 c5 be
       -0.19635843 -0.24138945 -0.2935414 -0.38554522
0003a0 b8 3b 42 3d 96 fd 14 3e 44 2e 61 be 05 38 63 3e
       0.047420233 0.1454986 -0.21990305 0.22189339
0003b0 e8 ad 73 3d 0a 59 d4 3c af 2d 3f 3f 12 4f 55 3d
       0.05949202 0.025921363 0.7467908 0.05207736
0003c0 bb 95 d4 3d e8 bf b4 be bd b0 74 be 6d 3c ff 3d
       0.10380121 -0.35302663 -0.23895545 0.12462697
0003d0 c7 e4 8c 3e 88 5a c9 3d 69 c6 85 3e e4 7b b8 3c
       0.27518293 0.098317206 0.26127937 0.022520013
0003e0 6e 0f a1 3e 77 01 bb 3c cb 17 dc 3d 03 7b b7 3e
       0.31457084 0.022827847 0.10746726 0.35836038
0003f0 15 9a c0 3e cd 77 3f be cb c0 09 be 65 8b 26 be
       0.37617555 -0.18698044 -0.13452451 -0.16264112

model.encoder.NN.bias_ih_l0 f4 [40]
000000 0e 01 ae 3e bd be 5b 3d 14 53 79 bd 1d 8c 8d 3d
       0.3398518 0.0536487 -0.060870245 0.0691149
000010 ab 5b 69 3e 95 40 32 bd 26 fc 2b bd 84 d3 72 3e
       0.22788875 -0.04351862 -0.041988514 0.237135
000020 15 f3 83 3d 41 8c de 3e 0b 26 03 3f 8c 0e e8 bd
       0.064428486 0.4346638 0.51229924 -0.113308996
000030 63 f3 9d 3e 33 4e 14 be 52 c2 34 3d 90 c5 6d 3d
       0.30849752 -0.14482956 0.04413063 0.05804974
000040 67 8b 92 3e 13 a1 dd 3d cc 23 04 3e 12 6f df bc
       0.2862198 0.10821738 0.1290428 -0.027274642
000050 78 22 e4 3e 1e 05 3c bd 93 39 32 3e ee 31 28 3e
       0.44557548 -0.045903318 0.17404775 0.16425297
000060 8c df 6d bc c6 a9 d4 3e bd 9e 59 3d 06 13 c3 3e
       -0.01451863 0.41535777 0.0531299 0.3810045
000070 bf 01 76 be f9 9c 90 be a1 9d 1b 3d bc fa b9 3e
       -0.24024104 -0.2824476 0.037992124 0.36324108
000080 db 32 9f 3d a9 b2 e6 3e 78 9a e5 3d 11 d3 37 bd
       0.07773372 0.45058182 0.11211103 -0.044879023
000090 a1 99 9f 3e 23 cf 40 3e 61 ad 11 be e2 dd fe 3d
       0.31171897 0.18829016 -0.14226295 0.124446645

model.encoder.NN.bias_hh_l0 f4 [40]
000000 48 9b cf 3e b6 e2 46 bd 3d 04 17 3e 93 46 71 3d
       0.40548158 -0.048556052 0.1474771 0.058905195
000010 3f e5 a3 3e 3b d6 23 3e 7b b2 d7 3d 6e 4b 20 bd
       0.32010838 0.15999691 0.10532089 -0.039134435
000020 53 83 63 3e 60 0c 60 3e 72 cb 9b 3e cb 5a b1 3e
       0.22218065 0.2187972 0.30428654 0.34639582
000030 d6 e4 60 3e fd 1e 27 3c 53 91 a0 3d b6 0d 0d be
       0.21962294 0.010200259 0.078402184 -0.13774762
000040 fc f4 cc 3c 41 ff 2a 3e 5b 77 61 3d 99 3b d7 3d
       0.025019161 0.16698934 0.055045467 0.10509414
000050 86 08 2f 3e 03 11 98 3d 74 c0 9a 3e 2d c8 16 3e
       0.17093095 0.0742512 0.30224955 0.14724799
000060 6c fb 22 be 55 31 44 3e 41 6d e5 bd c3 eb a5 3e
       -0.15916222 0.19159444 -0.11202479 0.32406434
000070 17 dd 9f 3e 84 dc 2b 3e f3 ce c9 3b cd 2d a4 3e
       0.31223366 0.16783339 0.0061587035 0.32066193
000080 12 b1 82 3e fc d1 d1 3e ce 06 ad 3d f8 78 9d 3c
       0.2552572 0.40980518 0.084485635 0.019222721
000090 bd 29 6f 3e 71 7c 24 bd 75 09 dc 3d d2 4b 85 3e
       0.23355766 -0.04015774 0.10743991 0.2603441

model.decoder.NN.weight_ih_l0 f4 [4, 10]
000000 8e b4 48 bf cc b7 e4 3e 1f e7 96 3c 84 d7 df be
       -0.78400505 0.44671476 0.018420754 -0.43719113
000010 c5 fa 1d bf 96 95 0b be f6 b4 12 bf b0 40 d9 3e
       -0.6171077 -0.13631281 -0.57307374 0.42432165
000020 75 d5 b8 be c8 31 8a 3f 6c d0 bc 3f 7b ec 48 3d
       -0.36100355 1.0796442 1.4751105 0.04905365
000030 4d 9d 3e 3f bc 68 65 be c5 02 00 3f 33 d7 b7 3f
       0.7445877 -0.22403234 0.50004226 1.4362549
000040 6d 77 6d 3e 39 47 94 3f bf e3 d8 be 2b bf 39 3f
       0.23190089 1.1584235 -0.42361256 0.72557324
000050 e6 22 81 3e 48 bc a1 3e 4c d3 47 3f 9a 20 85 bc
       0.25221938 0.3158896 0.7805679 -0.016250897
000060 61 d8 4b bf 55 28 27 3f dc ca 4f bf b1 21 43 3f
       -0.79627043 0.65295917 -0.81168914 0.76223284
000070 7a c6 32 bf 25 56 a4 3d bd 16 81 3e 75 fc 5e 3f
       -0.698341 0.08024243 0.2521266 0.8710397
000080 57 35 68 bf 7e 53 8b 3f 1b e2 14 bf c9 0e 57 3f
       -0.9070639 1.0884855 -0.5815751 0.84006935
000090 ac c0 e1 3e 66 0e c2 be 5f b7 84 bf 59 32 23 3e
       0.4409231 -0.3790161 -1.036846 0.15937175

model.decoder.NN.weight_hh_l0 f4 [4, 1]
000000 b4 90 8f 3f 3b 9f 96 3e 8a 06 b1 3e e7 2c 73 3f
       1.1216035 0.29418358 0.345753 0.9499039

model.decoder.NN.bias_ih_l0 f4 [4]
000000 6e da 54 3f e8 29 23 be a0 f5 2b bf e2 d4 c6 3e
       0.831458 -0.15933955 -0.6717167 0.38834292

model.decoder.NN.bias_hh_l0 f4 [4]
000000 8a 4b 18 be f6 91 41 3f 68 f4 4f bf f3 fc 5c 3f
       -0.14872566 0.75613344 -0.8123231 0.8632347
