exp/auto-conv/4-classes/version_15/checkpoints/epoch=65.ckpt (torch_old, 355086 bytes, 53 tensors)

exp_avg f4 [127, 3, 3]
-4.846431e-05 -1.8836861e-05 -6.0884417e-05 1.6740278e-05 -7.5852695e-05 -2.9843663e-05 3.2586267e-05 2.1027068e-05
-4.054694e-05 -4.741276e-05 9.657523e-07 -3.233387e-05 -8.298689e-06 -7.0596434e-05 -6.0657253e-06 7.8136756e-05
-2.4141993e-05 -5.3021715e-05 9.4971634e-05 1.0614954e-05 4.8738544e-05 1.7350623e-05 0.00015487066 -1.7663051e-05
-6.6092757e-06 5.2761214e-05 7.895896e-05 5.946954e-05 9.27537e-06 7.434483e-05 -5.5286596e-06 1.0398595e-05
-2.5551513e-05 -5.99961e-05 -2.5270178e-05 3.2136075e-05 7.056448e-05 3.0034013e-05 3.8947994e-05 3.413196e-05
9.745213e-06 -2.0560086e-05 -1.943898e-06 -1.3492146e-05 3.2369062e-05 4.1994726e-06 3.4330584e-05 5.6592744e-05
-3.2981956e-05 -3.8865794e-05 1.8224186e-05 -5.4345524e-05 -2.6537875e-05 -2.6366257e-05 1.9907022e-05 -3.0256906e-06
-1.00565e-05 6.2038725e-06 1.1929409e-05 1.8531879e-05 1.4052246e-05 -4.7114648e-07 2.0796148e-05 5.490356e-05
2.2753322e-05 1.1488355e-05 3.2906384e-05 0.00010694795 -7.1453326e-07 3.4448625e-05 7.632589e-06 6.768137e-05
8.0897684e-07 4.050827e-06 -8.176363e-06 -1.9304289e-05 -1.1495666e-05 4.769623e-05 1.0336824e-05 1.1935322e-05
2.9203284e-06 5.644247e-05 4.1054187e-05 0.000120113415 4.3465893e-06 4.313261e-05 2.4441848e-05 -9.4767056e-05
-5.2572577e-05 3.379739e-05 2.2257478e-05 -2.0425643e-05 -3.3781336e-05 2.554536e-05 3.7970796e-05 -3.6598015e-06
2.6867261e-05 1.7341195e-05 -4.6424716e-06 -2.8667078e-05 4.4165536e-05 6.239074e-05 -1.2202334e-05 -1.6414553e-05
8.009669e-05 -8.912788e-05 -5.0403258e-05 -1.0154868e-05 -1.9560193e-05 1.3318162e-05 3.085997e-05 -2.3148326e-05
-4.652195e-05 5.6825822e-05 -7.9741236e-05 1.4102678e-05 -6.538085e-06 -1.901047e-05 1.0932127e-05 -3.800664e-05
1.45783815e-05 -0.00012109748 3.0107858e-05 5.416871e-06 -2.3083101e-05 -6.7912056e-06 -2.7721953e-05 3.448464e-05
2.0568863e-05 -5.257851e-06 -0.00010963921 4.60656e-05 -7.234145e-05 -3.0251085e-05 -1.4652237e-05 -1.286767e-05
-2.579141e-05 -5.5730572e-05 -1.3566379e-05 6.9629386e-06 -1.209255e-05 6.169651e-05 3.4897195e-05 -2.7255177e-05
1.1381615e-05 -1.1429319e-05 -4.7696776e-05 9.894723e-06 5.29061e-05 -3.8008337e-05 6.30101e-05 5.597137e-06
-1.217547e-05 1.8582721e-05 -2.5800637e-05 -1.7912775e-05 3.7068825e-05 0.00010626951 -7.491073e-05 2.2866085e-05
2.779001e-05 5.2378673e-06 -7.024052e-05 1.7049668e-05 -3.637807e-06 -5.7066427e-06 -8.9484216e-05 7.6872966e-05
-5.767247e-05 -2.9378269e-05 -3.3771365e-05 1.1948925e-06 -4.29793e-05 -1.9457908e-05 3.8908274e-05 5.0386967e-05
-8.119456e-05 6.610246e-05 5.9778217e-06 -1.2711509e-05 -9.273897e-05 -4.118244e-05 -8.7028224e-05 -9.881485e-07
-0.0001206076 2.990096e-05 3.0000298e-05 1.1742585e-05 -6.276075e-05 2.2009806e-05 4.9337127e-06 -3.4552304e-05
2.097697e-05 -4.4414824e-06 -5.4404933e-05 3.1986514e-05 2.708049e-05 2.0881402e-05 -3.7880563e-05 1.364951e-05
-1.9423656e-05 1.4005951e-06 -0.00010108424 5.0915758e-05 -7.6488695e-06 -2.924748e-05 -1.2065906e-05 -1.586041e-05
-3.1462903e-05 -1.7966433e-05 -2.0411493e-05 1.1841034e-05 2.2701479e-05 5.1869018e-05 2.6784302e-05 1.6566337e-05
2.8085926e-06 -2.2242319e-05 -5.127679e-05 3.7003625e-05 1.32527975e-05 -5.0420043e-05 4.6247344e-05 2.1557922e-05
-6.15406e-06 -7.79858e-05 -1.4849373e-05 -7.6558616e-05 -1.31936395e-05 -0.00010616715 -1.4961076e-06 3.3635584e-05
-1.886477e-05 -6.249612e-05 -4.1988882e-05 -2.3880673e-05 -1.4225083e-05 -6.3366956e-06 -8.131817e-05 1.3770249e-05
6.1385053e-06 -5.4367036e-05 -3.158497e-05 -1.2476877e-05 7.968185e-06 4.286752e-05 -2.5406955e-05 -4.0402567e-05
1.0105305e-05 -5.375819e-05 -2.4206758e-05 -2.1324207e-05 -1.601019e-05 -1.1313482e-05 -2.4145129e-05 -8.11265e-06
00000000: 2846 4bb8 da03 9eb7 255e 7fb8 796d 8c37
00000010: 1b13 9fb8 c758 fab7 3dad 0838 4963 b037
00000020: f210 2ab8 10dd 46b8 ff9e 8135 3b9e 07b8
00000030: 993a 0bb7 2c0d 94b8 2f88 cbb6 5add a338
00000040: 8984 cab7 a263 5eb8 822b c738 e116 3237
00000050: 9d6c 4c38 2e8c 9137 c764 2239 1d2b 94b7
00000060: 3fc5 ddb6 ec4b 5d38 c596 a538 ef6e 7938
00000070: 699d 1b37 94e9 9b38 d382 b9b6 a075 2e37
00000080: 7557 d6b7 52a4 7bb8 4bfb d3b7 d9c9 0638
00000090: 04fc 9338 8df1 fb37 175c 2338 ea28 0f38
000000a0: 5f7f 2337 7378 acb7 ea73 02b6 535c 62b7
000000b0: 04c4 0738 32e9 8c36 2ffe 0f38 ff5d 6d38
000000c0: 1b56 0ab8 d403 23b8 24e0 9837 10f1 63b8
000000d0: a79d deb7 1b2d ddb7 01fe a637 f80c 4bb6
000000e0: 57b8 28b7 dc2a d036 6c24 4837 e874 9b37
000000f0: f0c1 6b37 e1f1 fcb4 6373 ae37 4048 6638
00000100: 63de be37 1cbe 4037 f604 0a38 3e49 e038
00000110: 5ace 3fb5 ee7c 1038 b80d 0037 29f0 8d38
00000120: 7728 5935 57ec 8736 362d 09b7 a5ef a1b7
00000130: 82dd 40b7 700d 4838 526c 2d37 d13d 4837
00000140: dcfa 4336 a4bc 6c38 9931 2c38 66e5 fb38
00000150: ebd8 9136 4ae9 3438 7808 cd37 adbd c6b8
00000160: 6081 5cb8 acc1 0d38 92b5 ba37 bc57 abb7
00000170: 6fb0 0db8 3e4a d637 d542 1f38 e99a 75b6
00000180: 0161 e137 ef77 9137 87c6 9bb6 157a f0b7
00000190: 623e 3938 c6d7 8238 a0b8 4cb7 fcb1 89b7
000001a0: 95f9 a738 2bea bab8 1668 53b8 d35e 2ab7
000001b0: 3215 a4b7 1271 5f37 a46f 0138 a72e c2b7
000001c0: 9020 43b8 4358 6e38 c03a a7b8 8a9a 6c37
000001d0: b961 dbb6 ac78 9fb7 2169 3737 5269 1fb8
000001e0: ac95 7437 b7f5 fdb8 2290 fc37 91c2 b536
000001f0: 95a2 c1b7 03e0 e3b6 718c e8b7 9aa3 1038
00000200: 4c8b ac37 996c b0b6 1aee e5b8 9036 4138
00000210: 05b6 97b8 b6c3 fdb7 e1d2 75b7 39e2 57b7
00000220: a25a d8b7 3fc0 69b8 279b 63b7 30a3 e936
00000230: 1be1 4ab7 1063 8138 945e 1238 0ca2 e4b7
00000240: aaf3 3e37 8dc0 3fb7 060e 48b8 8301 2637
00000250: 7ee7 5d38 246b 1fb8 4a24 8438 0acf bb36
00000260: 3f45 4cb7 17e2 9b37 726e d8b7 6443 96b7
00000270: 597a 1b38 02dd de38 6419 9db8 8bd0 bf37
00000280: 981e e937 f0c0 af36 184e 93b8 e205 8f37
00000290: 0c21 74b6 b07b bfb6 79a9 bbb8 dc36 a138
000002a0: 58e5 71b8 5a71 f6b7 baa5 0db8 3260 a035
000002b0: ac44 34b8 8a39 a3b7 7131 2338 9856 5338
000002c0: ff46 aab8 7da0 8a38 1995 c836 8443 55b7
000002d0: db7c c2b8 4fbb 2cb8 ec82 b6b8 86a0 84b5
000002e0: b6ee fcb8 d3d3 fa37 26a9 fb37 0502 4537
000002f0: 6c9e 83b8 b3a1 b837 458c a536 41ec 10b8
00000300: b3f7 af37 0b08 95b6 da30 64b8 4229 0638
00000310: e92a e337 782a af37 f2e1 1eb8 3300 6537
00000320: fcef a2b7 15fc bb35 30fd d3b8 618e 5538
00000330: a553 00b7 7c58 f5b7 ac6e 4ab7 f90b 85b7
00000340: 09f7 03b8 9fb6 96b7 5939 abb7 dba8 4637
00000350: 0e6f be37 ef8d 5938 daae e037 f0f7 8a37
00000360: 417b 3c36 0495 bab7 0912 57b8 5734 1b38
00000370: 5558 5e37 1c7a 53b8 b5f9 4138 49d7 b437
00000380: f97e ceb6 4f8c a3b8 9221 79b7 188e a0b8
00000390: 405a 5db7 0ea6 deb8 decd c8b5 ef13 0d38
000003a0: c93f 9eb7 5910 83b8 381d 30b8 5b53 c8b7
000003b0: 44a8 6eb7 cd9f d4b6 5c89 aab8 c506 6737
000003c0: 5cf9 cd36 2908 64b8 1a7a 04b8 c753 51b7
000003d0: 18af 0537 a6cc 3338 0521 d5b7 ed75 29b8
000003e0: f489 2937 6b7a 61b8 9e0f cbb7 63e1 b2b7
000003f0: 9f4d 86b7 09cf 3db7 458b cab7 911b 08b7

exp_avg_sq f4 [127, 3, 3]
4.8324427e-08 4.962188e-08 2.7187294e-08 4.7308998e-08 5.994784e-08 2.5807076e-08 4.8602388e-08 5.892047e-08
3.0165022e-08 3.0923925e-08 3.5889975e-08 4.6726676e-08 3.427237e-08 3.4733432e-08 4.8583136e-08 3.4329133e-08
3.545896e-08 3.858926e-08 6.605977e-08 8.005656e-08 5.494601e-08 6.515637e-08 7.560175e-08 6.339673e-08
7.195991e-08 8.027847e-08 5.677873e-08 4.858752e-08 2.991925e-08 6.611308e-08 5.998629e-08 3.320624e-08
6.7403505e-08 5.576505e-08 3.257483e-08 7.272137e-08 1.9144299e-08 1.9665283e-08 1.6471937e-08 2.3580697e-08
2.4663896e-08 1.722753e-08 2.296828e-08 2.5913499e-08 1.6701268e-08 3.5173418e-08 3.346241e-08 3.3591306e-08
3.9413276e-08 3.4358585e-08 3.7643513e-08 3.676267e-08 3.732316e-08 4.0192358e-08 8.2595015e-09 9.130294e-09
9.867723e-09 8.769076e-09 9.7183275e-09 1.06032285e-08 8.599211e-09 8.8167385e-09 1.2499922e-08 5.8087515e-08
4.70636e-08 2.927402e-08 5.320433e-08 4.769462e-08 3.590673e-08 5.4486165e-08 5.5141342e-08 3.629216e-08
1.7164226e-08 2.1976374e-08 2.8569287e-08 2.1211362e-08 2.1416405e-08 3.4765613e-08 2.0545736e-08 2.1592086e-08
3.5206906e-08 7.250576e-08 6.218306e-08 8.595068e-08 8.2820996e-08 6.861331e-08 8.9507814e-08 8.115604e-08
7.287583e-08 9.40375e-08 8.048157e-09 9.771933e-09 1.2252646e-08 8.597879e-09 9.634905e-09 1.3329406e-08
7.47735e-09 9.542903e-09 1.3371601e-08 2.1583707e-08 3.1593334e-08 2.3651397e-08 2.3579583e-08 3.1909966e-08
2.6452737e-08 2.5559364e-08 3.256693e-08 2.725945e-08 1.3071239e-08 2.0486047e-08 1.5202334e-08 1.3572407e-08
2.0214811e-08 1.6676385e-08 1.2048553e-08 2.3046093e-08 1.8148585e-08 2.5565765e-08 4.654121e-08 4.444136e-08
2.1387951e-08 4.8360892e-08 5.3049668e-08 2.6449133e-08 4.5076543e-08 4.4151093e-08 2.9562148e-08 5.3512117e-08
3.1802998e-08 3.1931368e-08 5.1645767e-08 4.3868447e-08 2.9404696e-08 5.6885213e-08 3.7391544e-08 2.1263334e-08
1.5442806e-08 2.543037e-08 2.5265665e-08 1.6465004e-08 2.689656e-08 2.4829683e-08 1.8998223e-08 2.8123104e-08
1.7008636e-08 2.5656325e-08 1.5770024e-08 1.9590933e-08 2.528445e-08 2.0067235e-08 1.7811153e-08 2.8119867e-08
2.172044e-08 2.7210737e-08 7.152985e-08 5.5374855e-08 2.700796e-08 7.10351e-08 6.93092e-08 2.8319779e-08
7.335732e-08 5.8769157e-08 2.6001599e-08 5.2585555e-08 3.4943962e-08 2.4130388e-08 5.5029737e-08 4.482311e-08
2.8425958e-08 5.3124374e-08 3.8185597e-08 1.7601824e-08 2.928897e-08 2.7093748e-08 1.759747e-08 2.780717e-08
3.7991267e-08 1.7466053e-08 3.2416366e-08 3.644865e-08 7.431662e-08 7.716973e-08 6.529913e-08 7.630523e-08
8.800928e-08 6.861623e-08 7.863042e-08 8.1479904e-08 7.1533634e-08 7.700463e-09 8.656592e-09 8.901486e-09
8.814142e-09 7.164421e-09 9.533766e-09 9.583309e-09 7.232724e-09 7.765656e-09 2.9256222e-08 4.911151e-08
4.5920952e-08 3.1116507e-08 4.989349e-08 5.3158534e-08 3.3250576e-08 4.6488587e-08 4.3977614e-08 2.0339325e-08
6.944168e-09 2.0956257e-08 2.6405885e-08 8.498108e-09 2.227358e-08 2.1795564e-08 8.568092e-09 2.3471978e-08
1.759975e-08 2.5691397e-08 1.47340575e-08 1.6973523e-08 2.3245589e-08 1.985902e-08 1.6314187e-08 2.7445356e-08
2.2341812e-08 5.2960115e-08 4.5722498e-08 4.3413728e-08 5.4548508e-08 5.074926e-08 4.6848523e-08 5.999399e-08
5.3381633e-08 4.4114135e-08 1.6138435e-08 2.7253153e-08 2.1157415e-08 1.5372041e-08 2.7108529e-08 2.4412186e-08
1.7229603e-08 3.19194e-08 1.9490054e-08 2.5773677e-08 2.2332573e-08 2.5414904e-08 2.8688039e-08 2.241144e-08
2.739376e-08 2.419322e-08 2.3164414e-08 3.2079036e-08 1.6759019e-08 1.14714815e-08 1.5601012e-08 1.7237044e-08
00000000: 458d 4f33 d61f 5533 7e89 e932 cb30 4b33
00000010: acbc 8033 5cae dd32 e4be 5033 be0f 7d33
00000020: cb8e 0133 37d1 0433 7225 1a33 86b0 4833
00000030: df32 1333 d02d 1533 b9a9 5033 4871 1333
00000040: 8a4b 1833 57bd 2533 bedc 8d33 8feb ab33
00000050: c7fd 6b33 18ec 8b33 805a a233 b924 8833
00000060: 6188 9a33 8e65 ac33 e0dc 7333 8bae 5033
00000070: 9080 0033 0dfa 8d33 d0d1 8033 a69e 0e33
00000080: 78bf 9033 5282 6f33 68e8 0b33 ff2a 9c33
00000090: c272 a432 6aec a832 2c7e 8d32 808e ca32
000000a0: 7bdc d332 bdfb 9332 c84b c532 6398 de32
000000b0: 7a76 8f32 9511 1733 4fb8 0f33 0846 1033
000000c0: 5b47 2933 aa91 1333 7bad 2133 fce4 1d33
000000d0: 404d 2033 f79f 2c33 ace5 0d32 75db 1c32
000000e0: b486 2932 cea6 1632 a8f5 2632 7e29 3632
000000f0: bbbb 1332 6d78 1732 3dbf 5632 e67b 7933
00000100: fa22 4a33 4076 fb32 c882 6433 cad8 4c33
00000110: de37 1a33 2c04 6a33 8cd4 6c33 a7df 1b33
00000120: 8870 9332 8fc6 bc32 8768 f532 4734 b632
00000130: 2cf7 b732 3251 1533 8d7c b032 8079 b932
00000140: 6736 1733 77b4 9b33 8089 8533 e393 b833
00000150: 53db b133 9158 9333 7137 c033 0148 ae33
00000160: e97f 9c33 aaf1 c933 2b44 0a32 6ae1 2732
00000170: b57f 5232 dfb5 1332 c386 2532 59ff 6432
00000180: bc75 0032 22f2 2332 ecb8 6532 1367 b932
00000190: 3db1 0733 f929 cb32 0d8c ca32 610d 0933
000001a0: 2f3a e332 a38d db32 b8df 0b33 2a28 ea32
000001b0: eb8f 6032 4bf9 af32 4996 8232 142c 6932
000001c0: d7a4 ad32 c23f 8f32 19fe 4e32 e5f6 c532
000001d0: 29e5 9b32 b69b db32 9ae4 4733 cbdf 3e33
000001e0: 9ab8 b732 5db5 4f33 bad8 6333 4232 e332
000001f0: 2f9a 4133 a4a0 3d33 daef fd32 32d5 6533
00000200: c497 0833 e924 0933 1fd1 5d33 de69 3c33
00000210: 9c95 fc32 f451 7433 7098 2033 91a6 b632
00000220: 17a7 8432 fa71 da32 c907 d932 ed6e 8d32
00000230: 290a e732 0d49 d532 8931 a332 5c93 f132
00000240: 631a 9232 db62 dc32 a676 8732 eb48 a832
00000250: 1831 d932 5160 ac32 24ff 9832 3e8c f132
00000260: c193 ba32 0bbd e932 f39b 9933 4cd5 6d33
00000270: 22ff e732 f68b 9833 23d7 9433 da43 f332
00000280: 9d88 9d33 5f69 7c33 1f5a df32 6eda 6133
00000290: 4b15 1633 4947 cf32 d659 6c33 8883 4033
000002a0: 582d f432 de2a 6433 8201 2433 d232 9732
000002b0: 2097 fb32 c8bb e832 3f29 9732 9ddc ee32
000002c0: d72b 2333 4208 9632 2c3a 0b33 b78b 1c33
000002d0: fe97 9f33 82b8 a533 943a 8c33 3edd a333
000002e0: 9dff bc33 2c5a 9333 88db a833 0dfa ae33
000002f0: 089e 9933 ff4a 0432 18b8 1432 26ed 1832
00000300: 026d 1732 ea2a f631 f2c9 2332 d7a3 2432
00000310: b783 f831 b769 0532 1d4f fb32 adee 5233
00000320: 9f3a 4533 f6a4 0533 794a 5633 6d50 6433
00000330: 65cf 0e33 beaa 4733 e6e1 3c33 a6b6 ae32
00000340: 8c99 ee31 4c03 b432 28d3 e232 13ff 1132
00000350: 1f54 bf32 f438 bb32 de32 1332 6d9f c932
00000360: 422e 9732 fbaf dc32 1221 7d32 2ccd 9132
00000370: 97ad c732 7296 aa32 4723 8c32 fac0 eb32
00000380: 2aea bf32 4376 6333 6b60 4433 e675 3a33
00000390: b848 6a33 67f7 5933 7f36 4933 0bd6 8033
000003a0: ba45 6533 0178 3d33 cba0 8a32 511a ea32
000003b0: a6bd b532 7a0b 8432 49dc e832 f7b2 d132
000003c0: 4c00 9432 c017 0933 156b a732 ea64 dd32
000003d0: d9d5 bf32 f74f da32 aa6d f632 4783 c032
000003e0: 844f eb32 74d1 cf32 16fb c632 46c7 0933
000003f0: 79f5 8f32 1c14 4532 fd02 8632 a910 9432

exp_avg f4 [127]
9.622658e-06 1.0000231e-05 -6.9144726e-06 -6.7294077e-06 -3.9438546e-06 -3.101509e-06 -1.6223399e-06 -3.2360456e-06
-3.930842e-07 -1.1059933e-05 -3.1708674e-07 -6.3986067e-06 -2.8934053e-06 5.8612577e-06 -2.286455e-06 5.378386e-06
4.5887928e-06 -8.2162273e-07 -6.2961453e-07 6.7467167e-06 1.1682188e-05 2.9238156e-06 4.027425e-06 3.1630589e-06
5.25578e-06 1.0133888e-05 5.981378e-06 -1.9844827e-06 5.7942243e-06 2.6848106e-06 5.0747117e-06 4.5045795e-06
5.368759e-06 1.7796333e-06 -9.0731155e-06 4.9063324e-06 4.47012e-06 4.369593e-06 -7.535912e-06 -3.826812e-06
3.154112e-07 -9.028144e-06 -1.1883543e-05 -3.9379174e-06 4.9706205e-06 8.276352e-06 4.8387133e-06 7.3773854e-06
7.1658983e-06 -5.6662657e-06 -1.0685094e-05 1.385196e-05 4.353472e-06 -2.975596e-06 8.846805e-06 7.023682e-06
9.063211e-06 -8.065931e-06 7.2165103e-06 7.2890916e-06 5.9808312e-06 -1.3578226e-07 -5.47147e-06 9.088782e-06
-1.4177457e-05 -1.097154e-05 -2.5387567e-06 9.526472e-06 -2.3481489e-06 9.291403e-06 1.8206663e-06 -2.0017371e-06
-3.6259664e-06 1.6037201e-06 -3.4966797e-06 9.490633e-06 7.452892e-06 -2.4051249e-06 -9.310096e-06 2.971969e-06
-6.92462e-06 -8.052813e-06 -6.628526e-06 -3.7752197e-06 7.295579e-06 -3.4613026e-06 1.0252647e-06 -8.556363e-06
7.5794987e-06 -4.0049927e-06 8.477922e-06 1.2846064e-05 8.795166e-06 -6.7154997e-06 -9.32201e-06 9.410253e-06
1.3249959e-05 -5.0389126e-06 6.630684e-06 2.7624055e-06 -7.954608e-06 3.1484446e-06 -9.686974e-06 4.2246006e-06
-5.005663e-06 1.2359509e-06 -7.030912e-06 5.939115e-06 -9.959552e-06 -5.0060407e-06 3.2161156e-06 4.8463485e-06
9.828905e-06 -6.154396e-06 -9.041608e-07 -9.322131e-06 -7.2443927e-06 7.3615715e-06 -2.1418837e-06 1.1518728e-06
-3.104889e-06 -4.7230333e-06 -4.7798626e-06 2.355007e-06 -2.4409053e-06 1.5476276e-06 -6.2650333e-06
00000000: 0071 2137 aac6 2737 de02 e8b6 2ccd e1b6
00000010: 7455 84b6 8523 50b6 2dbf d9b5 d72a 59b6
00000020: 1509 d3b4 0d8e 39b7 123c aab4 9db3 d6b6
00000030: 532c 42b6 d2ab c436 ff70 19b6 fc77 b436
00000040: 6ef9 9936 7c8d 5cb5 c802 29b5 db61 e236
00000050: 9efe 4337 c536 4436 5123 8736 f044 5436
00000060: ce5a b036 b804 2a37 a5b3 c836 272d 05b6
00000070: 026c c236 b22c 3436 7147 aa36 0b26 9736
00000080: 4a25 b436 bcdb ee35 bc38 18b7 13a1 a436
00000090: 0afe 9536 859e 9236 fedc fcb6 1168 80b6
000000a0: c955 a934 9577 17b7 6e5f 47b7 7422 84b6
000000b0: 4ec9 a636 a9da 0a37 3b5c a236 428b f736
000000c0: 9972 f036 da20 beb6 2144 33b7 b765 6837
000000d0: 0a14 9236 5ab0 47b6 bd6c 1437 f8ac eb36
000000e0: 320e 1837 e952 07b7 5a25 f236 d294 f436
000000f0: f3ae c836 8bcb 11b4 9297 b7b6 057c 1837
00000100: b7db 6db7 6812 38b7 825f 2ab6 e3d3 1f37
00000110: e494 1db6 46e2 1b37 9e5d f435 9555 06b6
00000120: a155 73b6 673f d735 80a8 6ab6 f539 1f37
00000130: db13 fa36 bb67 21b6 8f32 1cb7 0a72 4736
00000140: 085a e8b6 921a 07b7 9b6a deb6 c859 7db6
00000150: 8ccc f436 ba48 68b6 d49b 8935 4d8d 0fb7
00000160: 6653 fe36 a062 86b6 663c 0e37 6d85 5737
00000170: f38e 1337 b455 e1b6 ba65 1cb7 bbe0 1d37
00000180: 244c 5e37 ee13 a9b6 247d de36 c461 3936
00000190: c874 05b7 de49 5336 3d85 22b7 0bc1 8d36
000001a0: 51f6 a7b6 f3e2 a535 13eb ebb6 9c48 c736
000001b0: f317 27b7 90f9 a7b6 72d4 5736 d19d a236
000001c0: d3e6 2437 dc81 ceb6 75b5 72b5 3f66 1cb7
000001d0: dc14 f3b6 6b03 f736 48bd 0fb6 0c9a 9a35
000001e0: 965d 50b6 8c7a 9eb6 b562 a0b6 b60a 1e36
000001f0: 6fce 23b6 14b8 cf35 3a38 d2b6

exp_avg_sq f4 [127]
5.55289e-10 6.615824e-10 8.8059493e-10 2.0342467e-10 6.404394e-11 1.7739395e-10 9.6439176e-11 3.8345435e-10
1.2553256e-10 5.5919974e-10 8.690635e-11 2.1064486e-10 5.9304464e-11 3.3696507e-10 1.8495469e-10 1.3432588e-10
1.3756725e-10 1.9149182e-10 2.768711e-10 1.9009128e-10 7.381971e-10 5.319707e-11 2.3661384e-10 1.0609368e-10
2.657297e-10 6.0159117e-10 2.0404714e-10 2.5849323e-10 2.7111866e-10 7.6792184e-11 5.430348e-10 2.176448e-10
1.0298745e-10 8.256482e-11 5.8139804e-10 2.659181e-10 1.0943607e-10 1.02879996e-10 4.2268278e-10 6.0093236e-11
5.1849663e-11 5.4650534e-10 7.164673e-10 1.7547885e-10 1.3559714e-10 3.2442118e-10 2.11126e-10 3.945196e-10
2.9736832e-10 2.432678e-10 5.9533006e-10 5.6686644e-10 2.262182e-10 9.4680014e-11 3.2972855e-10 2.639812e-10
3.956234e-10 4.7236554e-10 4.5007287e-10 1.6334928e-10 4.033218e-10 5.821344e-11 2.3559146e-10 4.6215515e-10
8.333907e-10 5.3329247e-10 1.1774799e-10 3.569321e-10 4.32987e-11 3.3180633e-10 3.3924674e-10 1.8415679e-10
3.3447325e-10 1.1249693e-10 9.3746816e-11 5.115915e-10 4.0317452e-10 1.2173307e-10 5.467346e-10 4.0049578e-11
3.4869335e-10 4.1209494e-10 2.3207322e-10 1.4282736e-10 3.295859e-10 5.995597e-11 1.14313066e-10 2.5845456e-10
3.921535e-10 1.1539165e-10 6.4862715e-10 9.475953e-10 6.6065114e-10 1.9431157e-10 4.8251225e-10 5.799455e-10
1.0572726e-09 3.3271969e-10 8.164247e-10 2.1530334e-10 3.2634412e-10 1.3149583e-10 3.7739728e-10 2.2371056e-10
2.7257122e-10 7.515929e-11 4.2845152e-10 3.5753683e-10 3.770484e-10 6.265472e-11 5.858057e-11 4.1957343e-10
4.4054466e-10 1.6190005e-10 2.0325465e-10 4.761262e-10 1.5952396e-10 4.2961562e-10 7.297208e-11 3.15176e-11
1.1609347e-10 2.0936795e-10 2.4477856e-10 1.1988999e-10 1.217882e-10 3.2736938e-10 6.290765e-10
00000000: fda2 1830 b9da 3530 5c0e 7230 f4aa 5f2f
00000010: 88d5 8c2e f50b 432f 6e12 d42e 67ce d22f
00000020: 4606 0a2f 2fb6 1930 ed1b bf2e 429b 672f
00000030: 7269 822e 9e3f b92f 1e5c 4b2f 60b1 132f
00000040: bd41 172f 288c 522f 2536 982f f001 512f
00000050: 01ea 4a30 93f6 692e 7014 822f 6f4d e92e
00000060: 2116 922f 375d 2530 2a5a 602f b01b 8e2f
00000070: 8f0c 952f 28de a82e ad44 1530 914d 6f2f
00000080: c878 e22e dd8f b52e 40d0 1f30 a530 922f
00000090: 08a7 f02e 4a3c e22e 505f e82f 7c25 842e
000000a0: 8809 642e e538 1630 e7f0 4430 e8f0 402f
000000b0: 3417 152f 395a b22f b022 682f b3e3 d82f
000000c0: df7a a32f e6bc 852f a1a4 2330 aed1 1b30
000000d0: c3ba 782f 1c34 d02e 2b45 b52f 0d20 912f
000000e0: 0b7f d92f c5d7 0130 206e f72f bc9a 332f
000000f0: 7fba dd2f 4103 802e 8d84 812f 8e12 fe2f
00000100: a814 6530 1f97 1230 1d77 012f ba39 c42f
00000110: 016e 3e2e 9769 b62f bc80 ba2f 877b 4a2f
00000120: ede0 b72f 2462 f72e c426 ce2e 0da0 0c30
00000130: c5a5 dd2f d0d8 052f 0749 1630 d123 302e
00000140: 3ab2 bf2f 358d e22f ce2a 7f2f 540a 1d2f
00000150: 1731 b52f 36d8 832e 8960 fb2e 3f16 8e2f
00000160: b396 d72f b9bf fd2e 144b 3230 8c3c 8230
00000170: 3199 3530 d8a5 552f c8a1 0430 096a 1f30
00000180: 794f 9130 22ea b62f c86a 6030 81ba 6c2f
00000190: da68 b32f c994 102f f279 cf2f edf8 752f
000001a0: fdd8 952f eb46 a52e 318b eb2f d68e c42f
000001b0: d848 cf2f 79c7 892e eed1 802e b6a9 e62f
000001c0: 2631 f22f d002 322f 197b 5f2f 67e0 0230
000001d0: 0166 2f2f 062f ec2f a177 a02e aa9d 0a2e
000001e0: d04a ff2e d733 662f 8591 862f 08d2 032f
000001f0: 55e8 052f 25f9 b32f 53eb 2c30

exp_avg f4 [42, 127, 3]
-7.62659e-06 1.4722576e-05 -2.7973747e-05 -2.7739887e-05 -4.3069267e-05 -2.1620266e-05 1.3452491e-05 -1.6918377e-05
2.6029873e-05 -3.9918923e-06 -1.5348882e-05 7.829077e-06 -3.6833848e-05 -1.9088056e-05 2.8483417e-05 -2.718824e-05
2.7541632e-06 -3.073723e-05 2.2655075e-05 -1.6548738e-05 9.500304e-07 -1.0689749e-05 -1.2116424e-05 4.881343e-05
-2.665557e-05 1.5850455e-05 3.0899686e-05 8.1881735e-06 -2.2694698e-05 4.011816e-06 -2.8981496e-05 -2.1692045e-05
2.3728044e-05 3.269795e-06 2.8529748e-06 -4.051738e-06 2.0091113e-05 1.5819796e-05 -3.2522457e-05 -1.5720521e-05
4.9538885e-06 2.3916666e-06 -4.1597286e-05 2.5925856e-06 -3.3496435e-05 -5.231631e-06 2.3129955e-07 -6.5114746e-06
1.896196e-05 -1.4674554e-05 1.4666742e-05 5.526977e-05 2.3839431e-05 2.785586e-07 -3.1880005e-05 -5.993732e-06
-2.8135613e-05 1.5565796e-05 -1.1118154e-05 -3.3828949e-06 2.3970104e-05 -3.175705e-06 -3.15948e-05 -6.081333e-07
2.5167126e-06 3.815138e-06 -1.0474097e-05 -2.7065903e-07 5.989951e-06 3.349638e-05 1.31569495e-05 1.5166189e-05
2.7452887e-05 5.1360225e-06 2.766042e-05 7.4736945e-06 1.4964262e-07 -4.059352e-05 -5.106067e-06 -1.1679814e-05
-1.8793694e-06 -6.1675896e-06 5.8148376e-06 -5.882936e-05 2.711002e-05 1.6814854e-05 -2.606258e-05 -5.7637644e-05
-4.55264e-06 -2.48989e-06 -2.4592777e-05 2.26542e-05 -3.438992e-05 -3.2017688e-05 1.5128689e-05 9.805226e-06
2.0701082e-05 -2.0079435e-05 -4.486039e-06 1.1356241e-05 2.218106e-05 3.6049798e-05 2.1476852e-05 -2.4546225e-05
4.308289e-05 2.8832392e-05 -2.2089604e-05 2.047835e-06 -1.4463958e-05 -1.28821275e-05 -1.80582e-05 -1.3441412e-05
2.5826852e-05 -2.3332661e-05 1.2395187e-05 -6.688242e-06 6.1458544e-05 -3.1273507e-06 -3.5152854e-05 -1.6155731e-05
-4.0348692e-05 2.1856415e-05 -4.5177218e-05 -1.2692849e-05 -2.7998656e-05 -4.8877468e-05 4.594407e-05 -2.6352256e-05
-1.5274094e-05 3.4086318e-06 3.74788e-05 -1.8618213e-05 3.1453248e-05 1.2709124e-05 -2.129964e-06 5.2864375e-06
-2.209568e-06 2.2487933e-05 -2.5731138e-06 -1.7033162e-05 5.1492054e-05 2.7104608e-05 7.0923386e-07 -2.7301512e-06
-4.8634065e-06 2.9779652e-05 1.240951e-05 3.509494e-05 3.406607e-05 1.8371976e-07 2.5198371e-05 -4.130559e-05
2.7051643e-05 2.6298423e-05 3.9785395e-05 1.0108166e-05 1.5952226e-05 1.9398894e-05 -2.3400487e-05 2.6065176e-05
1.8259867e-05 9.459757e-06 3.0312296e-05 -3.5964754e-06 -1.0211041e-05 -1.5838961e-05 2.1582762e-05 6.1835894e-06
2.6087055e-05 3.1401334e-05 -1.3072207e-05 2.8696026e-05 -2.4271997e-06 9.37265e-06 6.9184507e-06 3.5222733e-05
-2.537741e-06 4.6128946e-05 3.8814782e-05 8.8200075e-08 -4.00946e-05 -6.917162e-06 -1.3744131e-05 1.758828e-06
-2.2656488e-05 2.9911316e-05 -4.4536908e-05 4.385451e-06 -5.4258835e-06 -8.681522e-06 -2.4303486e-05 1.553449e-05
1.6091442e-05 -5.773034e-06 2.6838883e-05 -1.4950349e-05 -2.6448979e-05 1.4445775e-05 2.4358446e-06 -5.745044e-06
-2.434312e-05 -8.904455e-06 3.458256e-05 9.032606e-06 2.7139418e-05 -1.1063591e-05 -1.9729978e-05 5.2630563e-05
1.3736021e-05 5.5708597e-06 3.616116e-05 2.2591528e-05 -3.2447675e-05 -2.7690764e-06 -9.946488e-06 3.923818e-05
-1.7751609e-05 -1.9235446e-05 5.7525824e-05 -2.0394033e-05 -2.4603747e-05 2.3541769e-07 4.2546053e-05 -1.919919e-05
8.307412e-06 4.181552e-06 4.0493753e-05 4.601107e-06 6.417078e-05 1.2154415e-05 -2.2775123e-06 3.0023331e-05
3.1014642e-05 6.7794294e-06 -1.7285221e-05 8.5253544e-07 2.878343e-05 3.8915616e-05 3.8745047e-06 3.0003785e-05
-3.8374703e-05 -2.1724654e-05 3.8596296e-05 8.101495e-07 -3.0243498e-05 -1.4478638e-05 7.603078e-06 4.9144517e-05
2.7179437e-06 8.385856e-06 1.2777312e-05 -1.5354828e-05 1.1110909e-05 -1.5321299e-05 1.9185847e-05 -1.1178199e-05
00000000: e9e7 ffb6 fc00 7737 2aa9 eab7 f4b2 e8b7
00000010: 46a5 34b8 2b5d b5b7 02b2 6137 f0eb 8db7
00000020: ba5a da37 18f2 85b6 79c1 80b7 a159 0337
00000030: 0b7e 1ab8 4a1f a0b7 acef ee37 4d12 e4b7
00000040: 2ad4 3836 d9eb 00b8 670b be37 25d2 8ab7
00000050: 9805 7f35 1f58 33b7 a547 4bb7 05bd 4c38
00000060: 679a dfb7 98f6 8437 499a 0138 f05f 0937
00000070: 7e60 beb7 3d9d 8636 4a1d f3b7 50f7 b5b7
00000080: 960b c737 a66e 5b36 bc75 3f36 2af4 87b6
00000090: 5689 a837 c1b4 8437 b968 08b8 90df 83b7
000000a0: 9439 a636 8580 2036 bf78 2eb8 48fc 2d36
000000b0: 867e 0cb8 5e8b afb6 235b 7834 247d dab6
000000c0: 8010 9f37 bb32 76b7 2d11 7637 77d1 6738
000000d0: cafa c737 cd8c 9534 e5b6 05b8 c41d c9b6
000000e0: c504 ecb7 4b93 8237 1c88 3ab7 b105 63b6
000000f0: 6813 c937 321e 55b6 a884 04b8 9a3e 23b5
00000100: cbe4 2836 c903 8036 e7b9 2fb7 184f 91b4
00000110: 4afd c836 777e 0c38 abbc 5c37 4972 7e37
00000120: a04a e637 1956 ac36 4d08 e837 8cc6 fa36
00000130: 73ad 2034 f642 2ab8 c854 abb6 6bf4 43b7
00000140: a43e fcb5 31f3 ceb6 131d c336 8bbf 76b8
00000150: 536a e337 a00d 8d37 f7a0 dab7 f3bf 71b8
00000160: e1c2 98b6 fc17 27b6 964c ceb7 8609 be37
00000170: e53d 10b8 bb4a 06b8 39d1 7d37 2081 2437
00000180: 3ca7 ad37 4270 a8b7 c886 96b6 af86 3e37
00000190: 7711 ba37 2d34 1738 3029 b437 9ee8 cdb7
000001a0: e7b3 3438 17dd f137 104d b9b7 8a6d 0936
000001b0: 3aaa 72b7 5120 58b7 b07b 97b7 6d82 61b7
000001c0: bea6 d837 82ba c3b7 ecf4 4f37 906b e0b6
000001d0: 4ee3 8038 7adf 51b6 1771 13b8 2b86 87b7
000001e0: 143c 29b8 4b58 b737 ab7c 3db8 5ff3 54b7
000001f0: a8de eab7 c801 4db8 12b4 4038 0a0f ddb7
00000200: de20 80b7 d9bf 6436 8e32 1d38 4f2e 9cb7
00000210: abec 0338 4639 5537 81f0 0eb6 2762 b136
00000220: 1748 14b6 78a4 bc37 c2ad 2cb6 70e2 8eb7
00000230: 2cf9 5738 b45e e337 2e62 3e35 a437 37b6
00000240: 5830 a3b6 51cf f937 7132 5037 e832 1338
00000250: 2ae2 0e38 8144 4534 1761 d337 8a3f 2db8
00000260: f6ec e237 6f9b dc37 3edf 2638 3e96 2937
00000270: 25d1 8537 cfba a237 2a4c c4b7 8aa6 da37
00000280: c42c 9937 59b5 1e37 2947 fe37 fa5a 71b6
00000290: 1650 2bb7 e9dd 84b7 a10c b537 a17c cf36
000002a0: 86d5 da37 edb4 0338 b450 5bb7 3fb8 f037
000002b0: f9e2 22b6 3a3f 1d37 0a25 e836 1fbc 1338
000002c0: 0f4e 2ab6 947a 4138 0ecd 2238 8168 bd33
000002d0: 402b 28b8 f819 e8b6 9896 66b7 df10 ec35
000002e0: 700e beb7 10ea fa37 24cd 3ab8 bd26 9336
000002f0: fc0f b6b6 daa6 11b7 57df cbb7 1050 8237
00000300: 1cfc 8637 fcb5 c1b6 1024 e137 43d3 7ab7
00000310: c0de ddb7 225c 7237 7e77 2336 8dc5 c0b6
00000320: 7434 ccb7 5864 15b7 be0c 1138 bf8a 1737
00000330: 75a9 e337 c39d 39b7 ce81 a5b7 a3bf 5c38
00000340: c373 6637 52ed ba36 c0ab 1738 f082 bd37
00000350: 6d18 08b8 5fd4 39b6 d7df 26b7 ad93 2438
00000360: 4ae9 94b7 ce5b a1b7 e247 7138 da13 abb7
00000370: 2564 ceb7 1fc7 7c34 7a73 3238 f20d a1b7
00000380: 1060 0b37 424f 8c36 d6d7 2938 3563 9a36
00000390: 6d93 8638 d1ea 4b37 5dd7 18b6 9dda fb37
000003a0: b815 0238 db7a e336 bbff 90b7 cad9 6435
000003b0: f273 f137 5339 2338 be01 8236 a3b0 fb37
000003c0: 86f4 20b8 573d b6b7 75e2 2138 0d79 5935
000003d0: 6bb3 fdb7 47e9 72b7 f11d ff36 8620 4e38
000003e0: eb65 3636 fab0 0c37 235e 5637 3ece 80b7
000003f0: fe68 3a37 3d86 80b7 4bf1 a037 008a 3bb7

exp_avg_sq f4 [42, 127, 3]
2.7081247e-08 2.6567745e-08 1.517348e-08 8.673518e-09 8.135593e-09 1.2061594e-08 3.6807684e-08 1.9375832e-08
3.3058594e-08 8.397658e-09 1.1916885e-08 1.4530472e-08 1.0967932e-08 8.605443e-09 1.0945901e-08 1.4341621e-08
1.9465173e-08 1.4301576e-08 1.0793145e-08 1.3954815e-08 9.786524e-09 1.4564588e-08 1.0952663e-08 9.733531e-09
6.8899775e-09 1.1538575e-08 7.768799e-09 1.1035768e-08 1.3366268e-08 1.4449951e-08 9.707289e-09 1.0386088e-08
1.040363e-08 1.2110476e-08 8.194593e-09 9.318297e-09 9.708388e-09 8.84958e-09 8.316584e-09 7.609955e-09
6.141188e-09 9.803358e-09 1.4407467e-08 1.1268852e-08 1.1903686e-08 7.3216415e-09 1.001089e-08 1.1667354e-08
6.4618058e-09 7.7148945e-09 5.401907e-09 1.4656572e-08 1.4680981e-08 2.0664139e-08 2.4039512e-08 1.4841082e-08
2.364681e-08 9.45091e-09 1.0689956e-08 1.46310235e-08 2.2736236e-08 1.2889853e-08 2.4220325e-08 6.603302e-09
7.77549e-09 7.297827e-09 6.135402e-09 6.183929e-09 9.84413e-09 1.2307703e-08 1.4333996e-08 1.0039035e-08
1.07620455e-08 9.716221e-09 8.534153e-09 2.6905099e-08 1.5009418e-08 2.4879443e-08 5.664315e-09 5.073579e-09
6.2062266e-09 1.835284e-08 1.6550247e-08 1.3871477e-08 1.1173777e-08 1.1023487e-08 8.3790965e-09 1.05314335e-08
1.0142109e-08 1.1812778e-08 2.1596088e-08 1.2719921e-08 1.4992764e-08 6.9410615e-09 6.1010303e-09 6.3168315e-09
5.6539777e-09 5.4442686e-09 6.5399606e-09 1.3978683e-08 1.6007215e-08 1.42284975e-08 1.4423147e-08 1.1763847e-08
1.688771e-08 8.326069e-09 1.5075583e-08 1.7013337e-08 6.332872e-09 6.368714e-09 7.145698e-09 1.5194905e-08
1.7363849e-08 2.628776e-08 3.3620253e-08 3.0141347e-08 1.8648633e-08 1.1265825e-08 1.5469682e-08 1.231017e-08
2.242682e-08 1.3452882e-08 2.489977e-08 3.0932632e-08 3.070724e-08 1.7986928e-08 1.0723369e-08 1.0158708e-08
9.21578e-09 1.1139326e-08 1.5659609e-08 1.6311004e-08 1.704314e-08 1.5258117e-08 2.0561117e-08 7.21898e-09
6.8869044e-09 8.50587e-09 1.7646801e-08 1.2225427e-08 1.2426477e-08 1.2404163e-08 8.779496e-09 9.933444e-09
3.168841e-09 2.93399e-09 3.2357985e-09 1.0030334e-08 1.513427e-08 1.8428324e-08 1.1248823e-08 1.12823155e-08
1.5359628e-08 1.1150267e-08 1.1082252e-08 1.1287142e-08 1.7342565e-08 2.5166278e-08 1.9885398e-08 6.783404e-09
8.10731e-09 8.642409e-09 6.3368764e-09 1.0489485e-08 7.496319e-09 1.1315618e-08 8.037632e-09 1.4610948e-08
1.4222895e-08 1.44928975e-08 1.980413e-08 1.8559936e-08 1.5160424e-08 2.896143e-08 9.258054e-09 7.2501565e-09
8.423165e-09 1.1557626e-08 1.02937046e-08 1.1582236e-08 1.1277796e-08 1.0113165e-08 1.3419696e-08 1.0819723e-08
1.5281714e-08 1.3645498e-08 1.4148554e-08 1.2367914e-08 1.1408857e-08 1.2263539e-08 2.0497058e-08 2.4950012e-08
1.9493628e-08 2.0352147e-08 1.35202525e-08 8.319775e-09 5.575371e-09 7.3047404e-09 8.006594e-09 6.0868475e-09
9.276537e-09 6.74633e-09 7.060409e-09 7.3338673e-09 7.0483543e-09 6.306588e-09 7.840771e-09 7.127232e-09
6.4342207e-09 7.1312334e-09 2.7291126e-08 1.5474626e-08 2.237474e-08 1.8199028e-08 3.012827e-08 1.8757348e-08
2.006321e-08 2.3421881e-08 1.6086524e-08 4.7169597e-09 5.2843525e-09 5.3369584e-09 1.4990707e-08 1.4164173e-08
1.7510368e-08 1.1507501e-08 1.0720127e-08 1.267039e-08 1.6434162e-08 1.4613723e-08 1.4169059e-08 7.3019897e-09
5.1673013e-09 7.4513e-09 8.0725515e-09 7.674339e-09 1.0618244e-08 5.665623e-09 4.940537e-09 6.2635386e-09
1.46933e-08 1.9050217e-08 1.3049485e-08 1.41628735e-08 1.9506455e-08 1.4257459e-08 1.1368939e-08 2.0191862e-08
1.5190794e-08 6.5860872e-09 5.6967155e-09 7.0176123e-09 1.2081e-08 1.7135296e-08 1.1932878e-08 8.89102e-09
00000000: 4ba0 e832 1737 e432 d656 8232 8902 1532
00000010: b7c4 0b32 7437 4f32 7a16 1e33 e86f a632
00000020: 4ffc 0d33 4a45 1032 04bb 4c32 b1a1 7932
00000030: 7a6d 3c32 23d7 1332 950c 3c32 1e63 7632
00000040: 5e34 a732 ffb2 7532 c16c 3932 edbd 6f32
00000050: 9621 2832 bc37 7a32 522a 3c32 8638 2732
00000060: e2bc ec31 313b 4632 8a77 0532 d297 3d32
00000070: 78a1 6532 8e3f 7832 1cc5 2632 806e 3232
00000080: a6bb 3232 700e 5032 33c8 0c32 4e16 2032
00000090: f1c9 2632 dd08 1832 b9e0 0e32 f0bc 0232
000000a0: 7602 d331 a06b 2832 b684 7732 ef98 4132
000000b0: f780 4c32 d791 fb31 5cfc 2b32 9171 4832
000000c0: a506 de31 778a 0432 ad9b b931 49cc 7b32
000000d0: a337 7c32 ec80 b132 727f ce32 c5f7 7e32
000000e0: e31f cb32 8b5d 2232 eca6 3732 ec5b 7b32
000000f0: 834d c332 2c72 5d32 0f0d d032 42e3 e231
00000100: f794 0532 5dc0 fa31 91cf d231 6a7a d431
00000110: f11e 2932 da71 5332 9541 7632 2578 2c32
00000120: fae3 3832 64ec 2632 9a9d 1232 f01c e732
00000130: 0fee 8032 79b6 d532 d79f c231 ac53 ae31
00000140: 8c3e d531 52a6 9d32 612a 8e32 674f 6e32
00000150: caf6 3f32 cf61 3d32 a8f3 0f32 bced 3432
00000160: 783d 2e32 26f1 4a32 4d82 b932 ce86 5a32
00000170: 70c9 8032 397e ee31 3ba1 d131 700b d931
00000180: ea44 c231 4b10 bb31 1ab6 e031 e626 7032
00000190: 3d80 8932 9871 7432 acc9 7732 f219 4a32
000001a0: 7810 9132 700a 0f32 8f7f 8132 b924 9232
000001b0: 8898 d931 cdd3 da31 3986 f531 f385 8232
000001c0: 8227 9532 65cf e132 dc65 1033 c374 0133
000001d0: c730 a032 9f8b 4132 31e2 8432 b37c 5332
000001e0: 19a5 c032 671e 6732 2ce3 d532 cada 0433
000001f0: f8e2 0333 ac81 9a32 e039 3832 7886 2e32
00000200: 6e53 1e32 465f 3f32 d883 8632 471c 8c32
00000210: 4366 9232 f410 8332 609e b032 d20a f831
00000220: daa1 ec31 3621 1232 ba95 9732 ff07 5232
00000230: 397c 5532 161a 5532 a2d4 1632 c0a7 2a32
00000240: d7c2 5931 4c9f 4931 c55c 5e31 e051 2c32
00000250: 9d00 8232 504c 9e32 d940 4132 26d4 4132
00000260: 2ef0 8332 658f 3f32 4264 3e32 60e9 4132
00000270: b4f8 9432 3b2d d832 74d0 aa32 7413 e931
00000280: 5448 0b32 b779 1432 c1bb d931 3e35 3432
00000290: 29c9 0032 9d66 4232 e115 0a32 a103 7b32
000002a0: f458 7432 70fc 7832 be1d aa32 bb6d 9f32
000002b0: 203a 8232 dcc6 f832 5a0d 1f32 0d1d f931
000002c0: 79b5 1032 fa8e 4632 31d8 3032 36fb 4632
000002d0: 45c0 4132 2cbe 2d32 728c 6632 a5e1 3932
000002e0: d844 8332 896d 6a32 0012 7332 a97a 5432
000002f0: af00 4432 9daf 5232 8211 b032 a851 d632
00000300: f172 a732 d8d2 ae32 b346 6832 c2ee 0e32
00000310: 7b91 bf31 2dfd fa31 5f8d 0932 7a24 d131
00000320: a45e 1f32 59cd e731 0498 f231 61fd fb31
00000330: fb2d f231 56b1 d831 13b4 0632 cce3 f431
00000340: 0114 dd31 fe06 f531 d26d ea32 10ed 8432
00000350: 9332 c032 1654 9c32 6266 0133 d81f a132
00000360: 7757 ac32 4331 c932 a42e 8a32 d112 a231
00000370: a891 b531 6260 b731 eac4 8032 b156 7332
00000380: b569 9632 86b2 4532 9e2b 3832 f7ac 5932
00000390: 1b2b 8d32 d50f 7b32 2e6c 7332 fbe4 fa31
000003a0: 108c b131 2a03 0032 75af 0a32 1ad8 0332
000003b0: 886b 3632 59ab c231 6cc1 a931 ab36 d731
000003c0: d16d 7c32 dfa3 a332 3e30 6032 fa50 7332
000003d0: 268f a732 f8f0 7432 1f51 4332 6072 ad32
000003e0: e97c 8232 d64b e231 d7bc c331 921f f131
000003f0: cd8c 4f32 ea30 9332 5a01 4d32 1fbf 1832

exp_avg f4 [42]
2.8366933e-06 -5.1560517e-07 2.0498208e-06 -2.3233722e-06 -1.2747563e-06 1.006658e-06 -2.1223104e-07 4.0328973e-06
9.782515e-07 -1.0244435e-06 -2.174143e-06 2.0981226e-06 3.7986274e-06 -1.6287216e-06 -8.686425e-07 1.9953676e-07
1.6294871e-06 -3.5181267e-06 2.7095045e-06 2.4087265e-06 3.5498178e-07 1.9554574e-07 -1.0637085e-06 6.5078945e-07
-7.681436e-07 2.1340041e-07 -1.3149488e-06 1.0119118e-06 6.2607404e-07 -2.0727159e-08 2.6791665e-06 2.2568142e-06
-1.3906155e-06 -2.772981e-06 -6.0780926e-06 -5.7219887e-07 2.2918684e-06 1.1570871e-06 -7.307191e-07 -6.156932e-08
2.2426143e-06 7.6914097e-07
00000000: 055e 3e36 1e68 0ab5 a78f 0936 3beb 1bb6
00000010: 4b18 abb5 811c 8735 a0e1 63b4 5352 8736
00000020: 774c 8335 9c7f 89b5 7ee7 11b6 79cd 0c36
00000030: eceb 7e36 739a dab5 a82c 69b5 3f40 5634
00000040: c0b4 da35 f518 6cb6 efd4 3536 9ba5 2136
00000050: 5394 be34 34f7 5134 bfc4 8eb5 e9b1 2e35
00000060: 6d32 4eb5 0f23 6534 4c7d b0b5 06d1 8735
00000070: 7b0f 2835 810b b2b2 bbcb 3336 c673 1736
00000080: 2fa5 bab5 7317 3ab6 6bf2 cbb6 3599 19b5
00000090: 00ce 1936 364d 9b35 a226 44b5 1738 84b3
000000a0: d27f 1636 f776 4e35

exp_avg_sq f4 [42]
2.1550392e-10 4.1222847e-10 1.496336e-10 2.3314126e-10 8.049811e-11 1.304167e-10 4.5926804e-11 1.6275427e-10
1.8015735e-10 8.861004e-11 1.00738556e-10 1.6152964e-10 2.9414868e-10 8.1358816e-11 2.27886e-10 7.807231e-11
3.1675612e-10 6.0572915e-11 2.8067648e-10 4.789145e-11 3.0602337e-10 1.7849644e-10 2.790806e-10 9.869838e-11
2.899706e-10 1.4724613e-10 8.5157936e-11 7.1191185e-11 1.2696119e-10 7.889003e-11 9.9128136e-11 9.9419625e-11
1.00303356e-10 2.0892668e-10 3.98318e-10 5.88286e-11 1.9562743e-10 4.5835568e-11 1.5136623e-10 4.676335e-11
1.9793295e-10 1.4176091e-10
00000000: f6f2 6c2f 00a0 e22f 1d86 242f b72b 802f
00000010: 6804 b12e 0a65 0f2f fcfc 492e 41f3 322f
00000020: c915 462f 05db c22e c486 dd2e 8d9a 312f
00000030: bfb5 a12f f1e8 b22e 3590 7a2f ceae ab2e
00000040: 7623 ae2f 8533 852e b44d 9a2f fba0 522e
00000050: f63c a82f 4842 442f 1a6d 992f 400a d92e
00000060: bc69 9f2f 1ae6 212f a843 bb2e 138d 9c2e
00000070: 6698 0b2f 247b ad2e 2efc d92e 46a0 da2e
00000080: c591 dc2e a2b7 652f 46fa da2f 8f5d 812e
00000090: 3a18 572f 4396 492e ce6d 262f daaa 4d2e
000000a0: 2ca1 592f 26de 1b2f

exp_avg f4 [21, 42, 3]
6.7940586e-05 8.658829e-05 -7.994047e-05 0.00012409234 0.0001099438 9.245895e-06 0.0003362975 7.068585e-05
-0.0001491407 -4.2287804e-05 -4.9664683e-05 7.035701e-05 1.9282275e-05 0.0001961951 3.3521093e-05 -0.0001401613
7.9771264e-05 2.6828144e-05 0.00026546474 7.687933e-06 -0.0001003321 8.9177265e-06 8.121383e-05 -3.4083372e-05
0.0002531126 1.6411685e-05 4.117353e-05 -3.300533e-05 -0.00017336855 5.8749334e-05 0.00011126152 -0.0003359168
8.062288e-05 0.00012882665 0.00013264576 -2.3563225e-05 0.00012662921 -0.00032134628 8.140422e-05 5.1471972e-05
-3.344311e-05 -2.8548422e-05 -0.0002248678 0.00012907363 2.186461e-05 0.000247483 -0.0001410219 0.00021536158
0.00032335272 3.6565438e-05 -0.000107058004 -9.7076256e-05 3.1757616e-05 -0.00011495269 -0.00011685163 -0.0001903868
9.8148026e-05 0.0001436395 -7.215341e-05 8.613332e-05 0.00040668974 4.119588e-05 -8.1745064e-05 -0.00010817758
3.5657195e-05 0.00012508438 0.0002557112 7.839888e-05 -3.6205263e-05 4.351156e-05 -0.00024446042 0.00016972332
0.00019687972 -0.00010947174 3.085765e-07 -2.802256e-05 7.1923525e-05 6.584812e-06 0.00011607527 3.707156e-05
-0.00016214164 0.00013313035 0.00013381072 4.3673313e-06 0.0001922976 -5.9115493e-05 -8.895753e-06 0.000243288
1.749123e-05 -0.00013534672 3.6887173e-05 -0.00028745047 -3.846512e-05 0.00031826462 -0.00018842483 8.526971e-05
-3.5559064e-05 7.254103e-05 -2.5086103e-05 -2.4025956e-05 -0.00010914249 4.9743747e-05 3.3586897e-05 0.00015953761
-0.00014043043 -0.00010799935 0.00012340603 8.787828e-05 5.706627e-05 3.4242003e-06 -2.2111879e-05 -0.00013492956
0.00024651896 -0.00015580474 -0.00012358584 -0.00010359444 0.00014265803 4.499535e-05 -7.87875e-05 9.0043446e-05
4.4936132e-05 9.8879864e-05 -6.42367e-05 -7.0903436e-05 -9.477273e-05 5.904313e-05 -0.00026460295 -0.00017929032
-7.421734e-05 -0.00017827563 2.6503183e-06 1.451584e-05 -0.00016762009 0.00032534148 -7.071291e-05 0.000109939465
-0.00011431163 4.39304e-05 -0.00025546708 -0.0003079576 -0.00023093668 -7.5848584e-05 -0.0002518743 -1.7680157e-05
-0.00013770512 0.00021395572 -0.00012397797 -5.1932257e-05 5.8446436e-05 0.00022023886 -0.0001368797 1.8638302e-05
-0.0001401692 0.00023910894 0.00011748178 2.1231594e-05 0.0003627219 0.00011342419 -9.403535e-05 -0.00028978864
-0.00013208241 -0.000107351065 0.00041808284 0.00031141663 8.967806e-06 0.00018476037 0.00020792063 0.00020819997
1.5822097e-05 -0.00024209845 0.00016924932 9.417498e-05 0.00011825079 -0.00012030169 -0.00018271683 7.1604656e-05
-0.00013547852 -0.00023221759 -0.00011919463 -0.00012502632 0.00041301028 0.00021904874 0.00014107056 1.4115459e-05
-5.566029e-10 -0.00018803994 -0.00029854788 0.00019778039 -0.00010654295 2.3576935e-05 1.1731197e-05 8.059251e-05
-0.00023735502 -3.492214e-05 -0.0002428009 0.00028545936 0.0002878248 -0.00011979936 3.4738303e-05 0.00017044958
-0.00027656916 3.674877e-05 0.00013751644 0.0002659903 3.85462e-05 6.0623788e-05 5.5207372e-05 -0.0001253551
4.4613727e-05 2.5232426e-05 -4.023985e-05 7.85553e-05 2.1579202e-05 1.2349984e-05 6.3088286e-05 -3.892408e-05
0.00016308138 0.00016042385 6.0324284e-05 0.000149974 0.00012308874 -0.00013989328 -0.00015030682 -0.0001311489
9.8867684e-05 0.00010820192 4.47446e-05 -6.398202e-05 -0.0001594057 -4.9853952e-05 -9.5031915e-05 9.488472e-05
8.318182e-06 -8.511744e-06 1.572354e-05 3.026013e-06 3.5080993e-05 -0.00012070993 -8.651281e-06 0.000117887845
0.00035846065 3.363498e-05 3.320957e-06 0.00014154032 -2.6365713e-05 -9.2523485e-05 -0.00010040113 0.00012422127
2.485331e-06 0.0001266839 6.196952e-05 0.000105626954 -0.00013706798 -5.9569647e-05 -7.715846e-05 -0.00017007462
00000000: 537b 8e38 bc96 b538 b7a5 a7b8 c91e 0239
00000010: a191 e638 d11e 1b37 1651 b039 2d3d 9438
00000020: a762 1cb9 2f5e 31b8 0c4f 50b8 a28c 9338
00000030: 5fc0 a137 b9b9 4d39 0099 0c38 43f8 12b9
00000040: df4a a738 000d e137 132e 8b39 6cfb 0037
00000050: 6369 d2b8 589d 1537 5851 aa38 bef4 0eb8
00000060: 33b4 8439 d3ab 8937 beb1 2c38 346f 0ab8
00000070: 44ca 35b9 9e69 7638 1355 e938 fd1d b0b9
00000080: 1414 a938 a415 0739 d316 0b39 a4a9 c5b7
00000090: c5c7 0439 5e7a a8b9 8fb7 aa38 9ce3 5738
000000a0: 4445 0cb8 457b efb7 7eca 6bb9 f057 0739
000000b0: e469 b737 9bc0 8139 47df 13b9 afd2 6139
000000c0: ab87 a939 d75d 1938 5484 e0b8 6b95 cbb8
000000d0: 7b33 0538 c112 f1b8 3e0e f5b8 91a2 47b9
000000e0: d2d4 cd38 ef9d 1639 1151 97b8 79a2 b438
000000f0: f938 d539 bdc9 2c38 8c6e abb8 65dd e2b8
00000100: 9f8e 1538 1529 0339 fa10 8639 146a a438
00000110: 1bdb 17b8 2f80 3638 ec2a 80b9 c2f7 3139
00000120: 7f71 4e39 3194 e5b8 6eaa a534 fd11 ebb7
00000130: a6d5 9638 1bf3 dc36 706d f338 497d 1b38
00000140: 9104 2ab9 e898 0b39 8b4f 0c39 178b 9236
00000150: 7ea3 4939 c7f2 77b8 f83e 15b7 201b 7f39
00000160: 21ba 9237 dceb 0db9 4db7 1a38 f3b4 96b9
00000170: 9c55 21b8 c1dc a639 e893 45b9 d4d2 b238
00000180: 4125 15b8 2b21 9838 ff6f d2b7 598b c9b7
00000190: 6ee3 e4b8 f1a3 5038 a8df 0c38 8d49 2739
000001a0: 8240 13b9 b67d e2b8 8e66 0139 4b4b b838
000001b0: 715a 6f38 50cb 6536 e67c b9b7 e17b 0db9
000001c0: 373f 8139 845f 23b9 d296 01b9 d740 d9b8
000001d0: 7996 1539 64b9 3c38 b83a a5b8 b5d5 bc38
000001e0: ce79 3c38 b95d cf38 d1b6 86b8 feb1 94b8
000001f0: b9c0 c6b8 14a5 7738 68ba 8ab9 e1ff 3bb9
00000200: 22a5 9bb8 80ef 3ab9 1fdc 3136 0f89 7337
00000210: 2dc3 2fb9 9892 aa39 b44b 94b8 4d8f e638
00000220: 97ba efb8 e841 3838 36f0 85b9 5f75 a1b9
00000230: 9827 72b9 e610 9fb8 ff0d 84b9 d94f 94b7
00000240: f064 10b9 4d59 6039 1500 02b9 d6d1 59b8
00000250: 6224 7538 ebef 6639 5d87 0fb9 7359 9c37
00000260: 62fa 12b9 51b9 7a39 8d60 f638 801a b237
00000270: b62b be39 26de ed38 d834 c5b8 c6ee 97b9
00000280: 9a7f 0ab9 aa21 e1b8 2132 db39 a245 a339
00000290: 6f74 1637 3cbc 4139 4505 5a39 4150 5a39
000002a0: b2b9 8437 cfdb 7db9 8578 3139 cf7f c538
000002b0: 69fd f738 7a4a fcb8 ad97 3fb9 752a 9638
000002c0: 3d0f 0eb9 6f7f 73b9 21f8 f9b8 7f19 03b9
000002d0: 4d89 d839 73b0 6539 57ec 1339 6fd1 6c37
000002e0: 72ff 18b0 962c 45b9 6b86 9cb9 4563 4f39
000002f0: d06f dfb8 15c7 c537 1cd1 4437 c603 a938
00000300: 81e2 78b9 5d79 12b8 5f98 7eb9 b5a9 9539
00000310: 31e7 9639 cb3c fbb8 f8b3 1138 b6ba 3239
00000320: 7c00 91b9 b122 1a38 4a32 1039 9d74 8b39
00000330: abac 2138 4c46 7e38 778e 6738 c171 03b9
00000340: a01f 3b38 39aa d337 36c7 28b8 0ebe a438
00000350: fc04 b537 c732 4f37 444e 8438 6a42 23b8
00000360: d300 2b39 7337 2839 b504 7d38 5742 1d39
00000370: 6211 0139 51b0 12b9 ae9b 1db9 0485 09b9
00000380: 2f57 cf38 77ea e238 26ac 3b38 162e 86b8
00000390: 2426 27b9 461a 51b8 df4b c7b8 d9fc c638
000003a0: 528e 0b37 aacd 0eb7 0ce6 8337 8212 4b36
000003b0: ee23 1338 a625 fdb8 f824 11b7 8e3a f738
000003c0: c6ef bb39 4913 0d38 9bdd 5e36 716a 1439
000003d0: f02b ddb7 2b09 c2b8 728e d2b8 6541 0239
000003e0: a9c9 2636 73d6 0439 a2f5 8138 0a84 dd38
000003f0: e8b9 0fb9 6cda 79b8 22d0 a1b8 0f56 32b9

exp_avg_sq f4 [21, 42, 3]
7.512469e-08 1.02863105e-07 1.1812044e-07 2.4381077e-07 4.9838643e-08 2.0511148e-07 5.5940757e-07 7.758679e-08
5.789342e-07 9.911082e-08 4.3513361e-07 3.8820403e-07 1.9231211e-07 1.7865781e-07 1.9478016e-07 5.2991503e-08
5.294757e-08 5.1748312e-08 8.741963e-08 1.7734492e-07 2.3524926e-07 5.9530507e-08 6.950205e-08 4.3301945e-08
3.4786262e-07 8.7143405e-08 2.1912481e-07 1.1772475e-07 6.993324e-08 6.862736e-08 3.1170927e-07 4.4724032e-07
9.911933e-08 4.953337e-08 5.730719e-08 7.682175e-08 4.3977377e-07 3.7036966e-07 1.6368405e-07 7.8069824e-08
1.2565216e-07 1.7319982e-07 5.6098156e-07 6.539178e-08 6.468447e-07 7.7111724e-07 6.4343334e-07 2.3092348e-07
1.3699197e-07 9.317734e-08 1.9567092e-07 1.201519e-07 3.1936145e-07 1.6102928e-07 1.9725307e-07 1.7976303e-07
1.5663917e-07 3.0454413e-07 2.0170127e-07 1.2297346e-07 4.7337568e-07 5.1232767e-08 4.2218977e-07 1.121951e-07
1.0889531e-07 1.0751577e-07 1.2922038e-07 1.0867587e-07 3.8478248e-07 1.0681391e-06 3.2089156e-07 5.406351e-07
2.447243e-07 1.035011e-07 4.423133e-07 6.5983855e-08 1.4824094e-07 2.6768262e-07 7.500886e-08 6.232075e-08
5.98201e-08 5.3767426e-08 4.8512952e-08 4.6026535e-08 5.9138216e-08 1.10909326e-07 6.2713625e-08 9.344725e-08
1.1090426e-07 1.6176651e-07 2.630766e-07 1.2306512e-07 1.9167763e-07 6.125235e-07 6.230553e-07 1.2657644e-07
1.1213942e-07 4.9499718e-08 6.972465e-08 3.58902e-08 4.0097564e-08 4.5813202e-08 2.2095035e-07 2.8629339e-07
1.4473686e-07 1.2164007e-07 1.2975867e-07 1.114514e-07 4.51575e-08 9.2809145e-08 9.421426e-08 3.12654e-07
3.2731117e-07 1.067867e-07 9.806725e-08 1.7733953e-07 2.4416684e-07 1.1791405e-07 1.5018892e-07 5.9371814e-08
5.239509e-08 1.7186501e-07 1.6436124e-07 7.639993e-08 3.3644774e-08 6.024131e-08 3.4804347e-07 2.816558e-07
1.8343155e-07 1.9319016e-07 4.246915e-07 4.0914838e-07 2.5793557e-07 9.5279546e-07 1.0630073e-06 7.568799e-07
8.702468e-07 4.5399833e-07 8.203434e-07 9.0966694e-07 8.619258e-07 1.1354098e-07 1.369099e-07 1.2784683e-07
2.7744235e-07 4.3689707e-07 1.7833521e-07 2.061343e-07 1.6582175e-07 1.7240109e-07 2.879054e-07 3.3640325e-07
6.042405e-07 2.60636e-07 1.9737318e-07 2.800866e-07 8.090089e-07 2.3082856e-07 6.2812813e-07 1.6961582e-07
1.9735732e-07 1.17262765e-07 8.598218e-07 5.46313e-07 1.020936e-06 3.268904e-07 3.4543635e-07 2.5724452e-07
1.8514494e-07 8.4602885e-07 9.4447677e-07 1.0794539e-06 4.7731396e-07 1.4695439e-06 2.3338825e-07 3.698522e-07
3.625746e-07 7.08342e-07 3.080913e-07 3.1892702e-07 5.6088714e-07 4.955298e-07 4.4911846e-07 4.2510456e-07
2.1598379e-07 5.731007e-07 2.2024678e-07 7.4023137e-07 9.827363e-07 2.6508573e-07 2.5332028e-07 1.8663091e-07
3.4597215e-07 7.558343e-07 2.750357e-07 7.799378e-07 8.0058584e-07 1.6606239e-06 2.5089287e-07 7.4973207e-07
4.7004073e-07 4.0201704e-07 6.5270143e-07 3.291075e-07 1.690595e-07 1.405446e-07 1.5829728e-07 1.7957795e-07
1.4141509e-07 1.2216634e-07 1.9769666e-07 1.14977404e-07 1.3320846e-07 2.4520241e-07 3.227931e-07 2.4323782e-07
7.6532865e-07 8.370808e-07 1.059261e-06 1.1318633e-06 2.8864062e-07 1.3207009e-06 1.3712466e-07 1.380271e-07
2.0099449e-07 1.7177287e-07 2.0352431e-07 1.6844855e-07 6.4258757e-07 4.7521024e-07 5.593299e-07 2.957535e-07
2.270221e-07 2.1699421e-07 1.8500543e-07 1.698001e-07 1.5269012e-07 5.9082697e-07 1.8065312e-07 5.8259496e-07
4.3099502e-07 5.061494e-07 2.5643507e-07 3.2755747e-07 1.4662257e-07 2.0257689e-07 3.3302808e-07 2.904652e-07
1.5471628e-07 1.2891738e-07 1.05919895e-07 1.6088812e-07 1.9424463e-07 2.162559e-07 4.0553658e-07 4.0759505e-07
00000000: 3c54 a133 97e5 dc33 66a9 fd33 19e5 8234
00000010: 2b0e 5633 9d3c 5c34 322a 1635 ca9d a633
00000020: 0e68 1b35 c0d6 d433 4f9c e934 5b6a d034
00000030: 5a7e 4e34 16d5 3f34 c324 5134 c698 6333
00000040: 7868 6333 df41 5e33 73bb bb33 336c 3e34
00000050: d398 7c34 7cae 7f33 2841 9533 fefa 3933
00000060: e0c1 ba34 9823 bb33 9248 6b34 decf fc33
00000070: 352e 9633 4a60 9333 ff58 a734 3e1c f034
00000080: 6edb d433 84be 5433 ec21 7633 34f9 a433
00000090: 0c1a ec34 38d7 c634 21c1 2f34 57a7 a733
000000a0: 01eb 0634 cef8 3934 5c96 1635 836d 8c33
000000b0: d4a2 2d35 c6fe 4e35 67b8 2c35 c3f3 7734
000000c0: 1118 1334 c918 c833 9d19 5234 1a03 0134
000000d0: b474 ab34 64e7 2c34 83cc 5334 e304 4134
000000e0: a630 2834 3a80 a334 3993 5834 b00a 0434
000000f0: 4224 fe34 060b 5c33 52a9 e234 e9ef f033
00000100: d4d9 e933 6be3 e633 d4bf 0a34 3161 e933
00000110: 1a94 ce34 fb5c 8f35 0047 ac34 2920 1135
00000120: a762 8334 5544 de33 1477 ed34 02b3 8d33
00000130: 292c 1f34 05b6 8f34 8f14 a133 32d5 8533
00000140: 7376 8033 e9ed 6633 8e5c 5033 b6ae 4533
00000150: 28ff 7d33 0c2d ee33 2ead 8633 2bad c833
00000160: 432a ee33 0ab2 2d34 f93c 8d34 e223 0434
00000170: f2cf 4d34 4b6c 2435 0940 2735 11e9 0734
00000180: 4cd1 f033 8499 5433 88bb 9533 b125 1a33
00000190: bd37 2c33 26c4 4433 5f3e 6d34 ddb3 9934
000001a0: f768 1b34 2b9c 0234 cb53 0b34 0e57 ef33
000001b0: 32f3 4133 5e4e c733 d652 ca33 d7da a734
000001c0: 4eb9 af34 9c52 e533 0a99 d233 b86a 3e34
000001d0: 0916 8334 ef37 fd33 9e43 2134 0000 7f33
000001e0: 0309 6133 e589 3834 467b 3034 4e11 a433
000001f0: d280 1033 035e 8133 bbda ba34 7a36 9734
00000200: 48f5 4434 b56f 4f34 2801 e434 eda8 db34
00000210: 657a 8a34 9bc3 7f35 a7ac 8e35 642c 4b35
00000220: e89a 6935 0ebd f334 9235 5c35 d62f 7435
00000230: 175f 6735 d0d3 f333 8201 1334 4546 0934
00000240: 63f3 9434 ad8e ea34 697c 3f34 c455 5d34
00000250: bc0c 3234 401d 3934 6b91 9a34 e99a b434
00000260: 1733 2235 8aed 8b34 87ed 5334 cf5e 9634
00000270: ab2a 5935 acd9 7734 a39c 2835 a41f 3634
00000280: 2be9 5334 e3d1 fb33 81ce 6635 58a6 1235
00000290: 1807 8935 797f af34 6974 b934 6b1b 8a34
000002a0: 41cc 4634 a91a 6335 f387 7d35 c1e1 9035
000002b0: c420 0035 253d c535 4699 7a34 1990 c634
000002c0: e0a7 c234 e424 3e35 bf67 a534 ff38 ab34
000002d0: df8f 1635 8c04 0535 5f1e f134 ed39 e434
000002e0: 2ce9 6734 2ed7 1935 f97c 6c34 50b4 4635
000002f0: 90e6 8335 1b51 8e34 1300 8834 b764 4834
00000300: 0dbe b934 8ae4 4a35 9ea8 9334 eb5c 5135
00000310: d7e7 5635 9ae2 de35 74b2 8634 3241 4935
00000320: e859 fc34 cdd4 d734 4d35 2f35 31b0 b034
00000330: b986 3534 9be8 1634 6df8 2934 03d2 4034
00000340: e2d7 1734 d42c 0334 7246 5434 7fe9 f633
00000350: 1008 0f34 5da4 8334 594c ad34 5a96 8234
00000360: fc70 4d35 c1b3 6035 ee2b 8e35 87ea 9735
00000370: 77f6 9a34 f042 b135 8a3c 1334 9a34 1434
00000380: f2d0 5734 9170 3834 5688 5a34 c9de 3434
00000390: 487e 2c35 6620 ff34 dc24 1635 0dc8 9e34
000003a0: 5cc3 7334 eafe 6834 e8a5 4634 4c52 3634
000003b0: 24f3 2334 5299 1e35 8df9 4134 9f63 1c35
000003c0: 8163 e734 52de 0735 2bac 8934 28db af34
000003d0: 4e6f 1d34 e983 5934 08cb b234 3cf1 9b34
000003e0: 1620 2634 8a6c 0a34 1476 e333 97c0 2c34
000003f0: 8f91 5034 f833 6834 86b8 d934 70d3 da34
