exp/auto-conv/2-classes/version_29/checkpoints/epoch=39.ckpt (torch_old, 35722 bytes, 53 tensors)

exp_avg f4 [32, 3, 3]
0.00011371536 0.0001321137 2.1752334e-05 0.00023263892 2.3036784e-05 3.714938e-05 0.00012741622 -5.809759e-05
-6.489422e-05 1.505789e-05 -2.020324e-05 -3.20857e-05 3.8978815e-05 -5.3698048e-05 6.346475e-06 -2.2164548e-05
-1.5000438e-05 -1.793887e-05 -7.534137e-05 3.0724143e-05 0.00011872514 -0.00022904233 0.0001829535 7.670439e-05
-9.059368e-05 8.323424e-05 5.928501e-05 0.00010697473 -6.341386e-05 -6.283335e-05 0.00012730865 -6.0901315e-05
-0.0001917781 0.0001739477 -0.00011892266 -6.127069e-05 -6.103473e-05 6.260524e-05 -5.607224e-05 -5.826412e-05
9.8640565e-05 -7.2552655e-05 -4.5256115e-06 7.506955e-05 -6.964648e-05 3.353189e-05 -5.5787375e-05 -6.3441315e-05
0.00016772006 -0.00012881587 -3.8900384e-05 9.431261e-05 -0.00013776505 -2.7916358e-05 1.855002e-05 4.2045922e-05
0.00011995513 5.7823618e-05 0.0001403029 6.379268e-05 -3.576093e-05 2.2440242e-06 2.1813987e-05 -0.00015712673
6.9163805e-05 -3.0999756e-05 -9.251768e-05 -2.216019e-05 0.00015587959 -0.00011596066 0.00013331955 -3.9111528e-05
-0.00015583071 6.263989e-05 -6.8922004e-06 -0.00018627764 8.6031585e-05 0.00014864653 -0.00019694911 9.849059e-05
-2.571065e-05 0.00010176696 -1.821669e-05 0.000113306094 0.00024205823 -0.00010156938 7.1866954e-05 8.1038874e-05
-8.7562425e-05 1.3589136e-05 -1.8029198e-06 -6.4919e-06 3.2376595e-06 -9.9916564e-05 -6.512828e-05 0.00016814754
-9.432327e-05 -1.035448e-05 5.3540163e-05 0.00017448133 -0.00013740522 0.00015220064 0.00014932794 -5.2741347e-05
4.3109932e-05 0.00014896673 -0.00020314407 0.000101061676 -2.4486066e-05 -3.7531303e-05 -0.00010641786 -6.1196784e-05
-1.6823293e-05 -7.844781e-05 -6.556152e-05 2.2826895e-05 -2.7393871e-05 -2.4897792e-05 -5.2002968e-05 7.530824e-05
-4.249216e-05 4.871069e-05 0.00017740358 -5.3731976e-05 -9.276208e-06 0.000109264205 -4.9277463e-05 -9.787923e-05
7.6226905e-05 7.94251e-05 -0.00024591543 3.4771696e-05 7.715551e-05 -9.68852e-05 0.00016282132 7.329065e-05
-2.7238062e-05 -3.036967e-05 -2.06461e-05 -1.3956226e-05 -8.848681e-06 1.852924e-05 -7.035997e-06 -6.833003e-05
-7.479778e-05 5.490516e-05 3.0551037e-06 -5.391427e-05 7.436488e-05 5.8968464e-05 -8.315128e-05 9.1727205e-05
3.471169e-05 8.208896e-06 -4.0734583e-05 -6.8809113e-06 6.6282523e-06 0.00010272928 -0.00015860706 1.4632979e-05
-4.770424e-05 -5.829829e-05 0.000113701244 -2.4383708e-05 0.00029018943 0.0002202207 -1.1116571e-05 0.00022195795
0.00010770976 -8.446583e-05 0.0001632093 0.00011563239 -2.9132123e-05 -4.9117305e-05 0.000119591605 2.8802831e-05
-9.47845e-05 0.00010228514 -6.744413e-05 -0.00013005553 0.00016683633 -8.956713e-05 -6.5130174e-05 0.00013612662
-0.00012701559 0.00013989964 4.9421684e-05 -0.00013517786 1.0051228e-05 -4.662987e-05 2.965351e-05 -2.7239239e-05
8.174745e-05 -8.295171e-05 2.6372014e-05 -2.1043052e-05 -1.0179733e-06 2.1414668e-05 -5.6139008e-05 -3.3262037e-05
8.039416e-05 -8.830124e-05 6.160917e-06 5.0223596e-05 -1.9000524e-06 2.3047516e-05 9.32066e-05 6.49336e-05
6.75121e-05 -3.300858e-05 8.381642e-05 -2.7749706e-05 0.00012196012 -5.4232947e-05 8.682867e-05 4.0734576e-05
-6.547704e-05 6.7241126e-05 2.710209e-05 2.6107282e-06 6.924033e-05 5.740481e-05 -9.2281014e-05 8.311389e-05
-2.7970507e-05 0.00011891582 5.6323017e-05 7.409302e-05 0.00020733938 -0.00012284925 0.00017495277 7.539539e-05
-8.691786e-05 3.4512616e-06 6.664283e-05 4.7469635e-05 2.76673e-05 0.00013974364 -4.486754e-06 8.909024e-05
4.1054955e-06 3.7486643e-05 -7.9951256e-05 8.878036e-05 -3.560229e-05 3.2553064e-06 0.00018461907 -0.00012938134
-6.5226964e-06 7.499763e-05 -0.00010724729 -3.052011e-05 -5.4798562e-05 7.535085e-06 3.3193435e-05 -1.0035074e-06
00000000: 787a ee38 0088 0a39 c878 b637 89f0 7339
00000010: 1e3f c137 d8d0 1b38 089b 0539 d0ad 73b8
00000020: d217 88b8 25a1 7c37 217a a9b7 c293 06b8
00000030: 2f7d 2338 d739 61b8 cef3 d436 01ee b9b7
00000040: 64aa 7bb7 6e7b 96b7 9700 9eb8 ccdd 0038
00000050: 13fc f838 152b 70b9 35d7 3f39 5bdc a038
00000060: 1dfd bdb8 0b8e ae38 cba8 7838 9f57 e038
00000070: 0ffd 84b8 66c5 83b8 287e 0539 4a70 7fb8
00000080: 0b18 49b9 bb65 3639 1e66 f9b8 747e 80b8
00000090: 8bff 7fb8 ef4a 8338 1c2f 6bb8 9f60 74b8
000000a0: 40dd ce38 6927 98b8 b5da 97b6 a86e 9d38
000000b0: 2b0f 92b8 98a4 0c38 3dfd 69b8 cc0b 85b8
000000c0: 03de 2f39 bf12 07b9 f828 23b8 b2c9 c538
000000d0: 0675 10b9 ec2d eab7 dd9b 9b37 775a 3038
000000e0: 6c90 fb38 a387 7238 461e 1339 6fc8 8538
000000f0: 02fe 15b8 0b98 1636 2efd b637 63c2 24b9
00000100: 090c 9138 bc05 02b8 0d06 c2b8 a5e4 b9b7
00000110: 9c73 2339 e82f f3b8 b2cb 0b39 af0b 24b8
00000120: 7d66 23b9 895d 8338 8d43 e7b6 8653 43b9
00000130: db6b b438 00de 1b39 2084 4eb9 bc8c ce38
00000140: 33ad d7b7 b86b d538 0bd0 98b7 bf9e ed38
00000150: 03d1 7d39 a501 d5b8 47b7 9638 6af3 a938
00000160: b8a1 b7b8 e5fc 6337 dafb f1b5 ffd4 d9b6
00000170: 9146 5936 4c8a d1b8 7b95 88b8 c350 3039
00000180: 6ccf c5b8 27b8 2db7 5090 6038 faf4 3639
00000190: 6f14 10b9 0c98 1f39 ea94 1c39 9736 5db8
000001a0: f0d0 3438 f433 1c39 1203 55b9 13f1 d338
000001b0: 6d67 cdb7 ee6a 1db8 a72c dfb8 c656 80b8
000001c0: bf1f 8db7 5984 a4b8 137e 89b8 627c bf37
000001d0: e4cb e5b7 9adb d0b7 c31d 5ab8 ceee 9d38
000001e0: 9c39 32b8 b54e 4c38 6905 3a39 455e 61b8
000001f0: 03a1 1bb7 c624 e538 46af 4eb8 8344 cdb8
00000200: 02dc 9f38 0791 a638 36ee 80b9 d3d7 1138
00000210: 8dce a138 d82e cbb8 04bb 2a39 9eb3 9938
00000220: 4b7d e4b7 5fc2 feb7 2a31 adb7 8925 6ab7
00000230: cc74 14b7 3d6f 9b37 c116 ecb6 684c 8fb8
00000240: c1dc 9cb8 f749 6638 4806 4d36 0222 62b8
00000250: 57f4 9b38 e854 7738 8161 aeb8 ab5d c038
00000260: 6597 1138 f1b8 0937 6dda 2ab8 94e2 e6b6
00000270: 4168 de36 5d70 d738 c24f 26b9 2b80 7537
00000280: 0a16 48b8 5085 74b8 e472 ee38 9d8b ccb7
00000290: 9124 9839 0beb 6639 4f81 3ab7 62bd 6839
000002a0: 3de2 e138 3f23 b1b8 2a23 2b39 ab7f f238
000002b0: c260 f4b7 4e03 4eb8 41cd fa38 9c9d f137
000002c0: 0ac7 c6b8 eb81 d638 cb70 8db8 845f 08b9
000002d0: c9f0 2e39 fdd5 bbb8 7f96 88b8 36bd 0e39
000002e0: 7d2f 05b9 06b2 1239 214a 4f38 88be 0db9
000002f0: b2a1 2837 7194 43b8 6ec0 f837 d27f e4b7
00000300: d46f ab38 5cf6 adb8 7839 dd37 9c85 b0b7
00000310: 4ca1 88b5 a6a3 b337 cd76 6bb8 d782 0bb8
00000320: 4999 a838 5e2e b9b8 e0b9 ce36 2da7 5238
00000330: 4e05 ffb5 2a56 c137 ea77 c338 f62c 8838
00000340: 4895 8d38 b172 0ab8 99c6 af38 0ac8 e8b7
00000350: d7c4 ff38 2f78 63b8 ca17 b638 6bda 2a38
00000360: b850 89b8 ce03 8d38 4c59 e337 f833 2f36
00000370: 1e35 9138 f2c5 7038 fe86 c1b8 6e4d ae38
00000380: 35a2 eab7 7262 f938 613c 6c38 6362 9b38
00000390: 3e69 5939 18d1 00b9 8773 3739 971d 9e38
000003a0: ac47 b6b8 399c 6736 99c2 8b38 221a 4738
000003b0: 1317 e837 2688 1239 ec8c 96b6 f5d5 ba38
000003c0: f0c1 8936 fa3a 1d38 81ab a7b8 982f ba38
000003d0: ab53 15b8 bd75 5a36 4e96 4139 8aaa 07b9
000003e0: 89dd dab6 0c48 9d38 f3e9 e0b8 b802 00b8
000003f0: 82d7 65b8 e3d5 fc36 2e39 0b38 40b0 86b5

exp_avg_sq f4 [32, 3, 3]
1.6183562e-07 2.3671825e-07 2.1876953e-07 1.8106283e-07 2.845136e-07 2.1870336e-07 1.8170685e-07 2.1367212e-07
1.7760392e-07 3.8213734e-08 2.5168363e-08 4.219929e-08 4.2954973e-08 3.0277892e-08 3.4249904e-08 4.2719694e-08
2.7036393e-08 3.5696445e-08 7.001807e-08 3.3883637e-08 3.7444885e-08 8.671794e-08 3.9896243e-08 2.9446225e-08
8.077854e-08 4.4094183e-08 3.338631e-08 7.73958e-08 4.452675e-08 5.8317e-08 9.922858e-08 4.6226454e-08
5.7011775e-08 1.00093715e-07 5.2259114e-08 6.30101e-08 8.984938e-08 9.587704e-08 9.340496e-08 1.0195946e-07
1.0391395e-07 9.3121486e-08 9.0579945e-08 8.749378e-08 7.1948236e-08 1.0312759e-07 7.6303245e-08 5.56929e-08
1.102119e-07 9.3715656e-08 6.278648e-08 1.0072563e-07 8.595175e-08 6.8927164e-08 4.7483592e-08 4.721547e-08
3.4289908e-08 5.3483564e-08 4.526364e-08 3.7008217e-08 4.3708404e-08 4.5183874e-08 3.449601e-08 9.068591e-08
5.5728318e-08 5.6621555e-08 9.660123e-08 5.8411576e-08 6.80405e-08 9.945319e-08 5.8815484e-08 6.7549365e-08
7.889386e-08 6.149152e-08 5.121155e-08 1.047845e-07 6.1810496e-08 5.7986448e-08 8.6677545e-08 6.3113845e-08
5.6777694e-08 3.7575397e-08 7.26215e-08 7.2996386e-08 3.694465e-08 8.711465e-08 7.876173e-08 4.534343e-08
7.279178e-08 5.458989e-08 9.284254e-08 7.556314e-08 1.0078208e-07 1.2449817e-07 8.635964e-08 1.1143031e-07
1.0467378e-07 6.926789e-08 9.921197e-08 1.5508564e-07 1.8588938e-07 6.701949e-08 1.9583983e-07 2.2865075e-07
7.0298164e-08 1.5951754e-07 1.9596969e-07 7.200839e-08 3.381043e-08 3.5755527e-08 3.700927e-08 2.8031724e-08
4.1172218e-08 4.2998906e-08 2.9722068e-08 4.204374e-08 3.3788996e-08 6.452505e-08 5.0029556e-08 7.1170575e-08
7.44865e-08 5.728104e-08 6.332613e-08 6.337174e-08 5.7576056e-08 9.340592e-08 9.8467304e-08 1.8111153e-07
2.0279134e-07 1.2961861e-07 2.1555414e-07 2.566951e-07 1.067361e-07 1.9589157e-07 2.2898816e-07 3.4107124e-08
4.1523393e-08 4.1121268e-08 3.7754806e-08 3.95586e-08 4.250788e-08 2.8835903e-08 3.3893237e-08 4.4745658e-08
6.877068e-08 3.655967e-08 5.543449e-08 8.3157325e-08 4.1766807e-08 5.250173e-08 7.374366e-08 4.6917112e-08
5.675499e-08 5.4693363e-08 4.6069026e-08 6.645579e-08 5.122045e-08 4.54151e-08 7.9561644e-08 5.7046325e-08
4.292397e-08 6.7778075e-08 1.0976927e-07 2.1112211e-07 1.1251446e-07 1.3877461e-07 2.507662e-07 1.2859155e-07
1.01818074e-07 2.0207531e-07 1.2611808e-07 6.7420345e-08 3.1860864e-08 6.022123e-08 7.2141944e-08 3.1224808e-08
6.787452e-08 7.3350904e-08 2.9464292e-08 7.224277e-08 1.3599173e-07 1.2777326e-07 1.06921846e-07 1.6898736e-07
1.4382594e-07 9.698471e-08 1.17725484e-07 1.2327415e-07 1.1659436e-07 2.4329363e-08 1.8186347e-08 2.7213293e-08
3.448462e-08 3.0374455e-08 3.5505458e-08 2.235761e-08 2.5180576e-08 2.5067111e-08 3.6286345e-08 5.4984206e-08
5.717807e-08 3.3789956e-08 5.9388444e-08 5.955958e-08 3.4106115e-08 5.2632725e-08 6.34354e-08 5.0930137e-08
3.3818864e-08 4.4033328e-08 5.5604936e-08 3.6720024e-08 3.882802e-08 5.048522e-08 3.5523858e-08 4.4839418e-08
6.9500906e-08 5.4558477e-08 6.578946e-08 8.10704e-08 5.904503e-08 6.288111e-08 7.368847e-08 6.375324e-08
6.287393e-08 9.2241415e-08 9.130216e-08 1.205873e-07 9.160404e-08 1.2064035e-07 1.2334883e-07 1.0889834e-07
8.733829e-08 7.7052974e-08 4.0608228e-08 3.5594006e-08 3.580772e-08 4.1990273e-08 4.1452946e-08 3.6497276e-08
3.920343e-08 3.4040145e-08 3.31101e-08 7.4362696e-08 5.122623e-08 5.3611245e-08 8.5324864e-08 6.587319e-08
4.8179462e-08 8.244837e-08 5.320728e-08 4.2118515e-08 6.431782e-08 4.684607e-08 6.255227e-08 5.8034484e-08
00000000: 09c5 2d34 9e2c 7e34 e9e6 6a34 2c6a 4234
00000010: 40bf 9834 b9d4 6a34 331b 4334 bf6d 6534
00000020: 65b3 3e34 7220 2433 d131 d832 9c3e 3533
00000030: 7e7d 3833 e50a 0233 2b1a 1333 cd7a 3733
00000040: a83d e832 a850 1933 d75c 9633 7487 1133
00000050: 16d3 2033 b139 ba33 625a 2b33 eff0 fc32
00000060: 7978 ad33 1162 3d33 a364 0f33 cb34 a633
00000070: ae3d 3f33 3878 7a33 7d17 d533 868a 4633
00000080: 1cdd 7433 1af3 d633 8173 6033 2b50 8733
00000090: 38f3 c033 f6e4 cd33 eb95 c833 cef4 da33
000000a0: 4c27 df33 14fa c733 da84 c233 37e4 bb33
000000b0: f681 9a33 fe76 dd33 27dc a333 fe32 6f33
000000c0: a2ad ec33 ba40 c933 3bd5 8633 804e d833
000000d0: 7994 b833 1c05 9433 c3f0 4b33 f5c9 4a33
000000e0: 2746 1333 cdb5 6533 e667 4233 f7f2 1e33
000000f0: e6b9 3b33 3210 4233 c428 1433 1bbf c233
00000100: ef59 6f33 0f30 7333 1673 cf33 35e0 7a33
00000110: a91d 9233 f892 d533 4f9c 7c33 a80f 9133
00000120: 5c6c a933 520d 8433 b2f3 5b33 e305 e133
00000130: aebc 8433 c60c 7933 7c23 ba33 3489 8733
00000140: bcdb 7333 9662 2133 18f4 9b33 30c2 9c33
00000150: 12ad 1e33 c913 bb33 b823 a933 a1bf 4233
00000160: b451 9c33 3876 6a33 ba60 c733 4745 a233
00000170: 896d d833 ccad 0534 b774 b933 764b ef33
00000180: 05c9 e033 6dc0 9433 5b0e d533 9e85 2634
00000190: e298 4734 5bec 8f33 0b48 5234 0a83 7534
000001a0: d3f6 9633 d947 2b34 bd6b 5234 08a3 9a33
000001b0: f636 1133 9e91 1933 1ff4 1e33 6aca f032
000001c0: 55d5 3033 ccad 3833 854f ff32 9593 3433
000001d0: 651f 1133 0591 8a33 14e0 5633 70d6 9833
000001e0: 63f5 9f33 2b05 7633 e8fd 8733 fc16 8833
000001f0: 8b49 7733 7396 c833 f974 d333 8f77 4234
00000200: dcbe 5934 4b2d 0b34 1273 6734 e8cf 8934
00000210: cb36 e533 4456 5234 c9df 7534 2e7d 1233
00000220: 7457 3233 509d 3033 d927 2233 24e7 2933
00000230: e991 3633 d2b2 f732 0292 1133 5f2e 4033
00000240: 15af 9333 c805 1d33 de16 6e33 3994 b233
00000250: 1763 3333 437e 6133 015d 9e33 e981 4933
00000260: c5c2 7333 fde7 6a33 6edd 4533 75b6 8e33
00000270: 7bfd 5b33 6e0e 4333 7adb aa33 1903 7533
00000280: 675b 3833 648d 9133 4bba eb33 ceb0 6234
00000290: 7b9f f133 1302 1534 0ba1 8634 fa12 0a34
000002a0: 14a7 da33 0afa 5834 136b 0734 bac8 9033
000002b0: 64d7 0833 f952 8133 74ec 9a33 0a1c 0633
000002c0: 69c2 9133 1685 9d33 aa18 fd32 e223 9b33
000002d0: 1f05 1234 0c32 0934 e89c e533 e472 3534
000002e0: 936e 1a34 e845 d033 45d0 fc33 575d 0434
000002f0: 6d62 fa33 d6fc d032 3338 9c32 aac2 e932
00000300: 3e1c 1433 1175 0233 aa7e 1833 e80c c032
00000310: ac4c d832 2953 d732 42d9 1b33 c627 6c33
00000320: f493 7533 7320 1133 4912 7f33 73ce 7f33
00000330: 127c 1233 4b0e 6233 fb39 8833 47be 5a33
00000340: 3c40 1133 281f 3d33 46d2 6e33 18b6 1d33
00000350: dcc3 2633 16d5 5833 e592 1833 7695 4033
00000360: 8740 9533 ae53 6a33 2348 8d33 ec18 ae33
00000370: b298 7d33 4109 8733 aa3e 9e33 b7e8 8833
00000380: 4f05 8733 4116 c633 e511 c433 c97a 0134
00000390: dbb7 c433 5e89 0134 de71 0434 7fdb e933
000003a0: bc8e bb33 5278 a533 3869 2e33 06e0 1833
000003b0: 01cb 1933 cb58 3433 ff09 3233 2ec1 1c33
000003c0: a160 2833 8933 1233 f134 0e33 53b1 9f33
000003d0: d603 5c33 3042 6633 d73b b733 2b76 8d33
000003e0: e1ed 4e33 790e b133 0686 6433 cce5 3433
000003f0: 181f 8a33 cc33 4933 7954 8633 9741 7933

exp_avg f4 [32]
2.667834e-05 5.1987263e-05 -2.7702159e-05 -3.839864e-05 -4.8163696e-05 6.6147095e-06 -1.3585648e-05 3.56285e-05
5.5040877e-05 2.0491882e-05 4.214686e-05 -1.8942228e-05 8.699708e-06 3.085877e-05 4.546219e-06 1.3738379e-05
-5.179977e-05 -6.73956e-05 -4.515399e-05 2.2050763e-05 8.283524e-05 5.0069148e-06 -3.6381243e-05 1.7874863e-05
1.3082943e-05 7.934734e-05 0.00011645527 6.96168e-05 1.9923704e-05 9.5146515e-06 5.252293e-05 6.1791393e-06
00000000: 4dcb df37 e60c 5a38 ef61 e8b7 3a0e 21b8
00000010: 6003 4ab8 ecf3 dd36 eaed 63b7 d06f 1538
00000020: b1db 6638 fbe5 ab37 d9c6 3038 20e6 9eb7
00000030: f6f4 1137 5a6e 0138 b98b 9836 e37d 6637
00000040: 9443 59b8 bd56 8db8 ba63 3db8 a7f9 b837
00000050: d5b7 ad38 1201 a836 1098 18b8 faf1 9537
00000060: d07e 5b37 4767 a638 7239 f438 3cff 9138
00000070: d421 a737 1ea1 1f37 114c 5c38 6756 cf36

exp_avg_sq f4 [32]
3.6757633e-10 3.5634873e-10 1.4706414e-10 3.6625303e-10 7.0283845e-10 1.477977e-10 1.4032307e-10 3.1330266e-10
1.0916908e-09 4.007325e-10 1.5217587e-09 7.484586e-10 2.849106e-10 1.645263e-09 3.109919e-10 1.3052098e-10
7.8298684e-10 5.870933e-10 1.1238239e-09 1.3002159e-10 8.4888446e-10 2.372351e-10 1.9145169e-10 6.7110106e-10
3.5624792e-10 6.38741e-10 2.875644e-09 1.2142439e-09 3.7767503e-10 1.0864538e-10 3.5407546e-10 4.772851e-10
00000000: c513 ca2f a0e7 c32f e0b2 212f 8859 c92f
00000010: dc31 4130 5b81 222f 6f49 1a2f 6e3d ac2f
00000020: 750a 9630 164e dc2f 2026 d130 17bc 4d30
00000030: 9aa1 9c2f 8c1f e230 38f8 aa2f 6482 0f2f
00000040: cd39 5730 0561 2130 0a75 9a30 d3f5 0e2f
00000050: ef56 6930 df6b 822f dc80 522f 8a78 3830
00000060: 70d9 c32f 6793 2f30 dd9c 4531 69e2 a630
00000070: 09a1 cf2f e9e9 ee2e b1a7 c22f f431 0330

exp_avg f4 [10, 32, 3]
0.00018067182 -0.000119478245 -4.2320313e-05 -0.00010700073 5.758583e-05 -9.665171e-05 5.5497126e-06 0.000118377764
0.00013652787 3.936416e-05 -9.11898e-05 0.00015310687 -7.218311e-05 2.28006e-05 0.00014403816 -1.4069213e-05
-0.00022269922 -9.648886e-06 -0.00011776342 9.72524e-05 -1.9752453e-05 -1.37667585e-05 0.00011355736 -6.603387e-05
4.8210695e-05 8.48061e-05 -8.498598e-05 -0.000105960564 -5.8500373e-05 6.986753e-05 7.849593e-05 0.00013609954
-5.206604e-06 8.823768e-05 -7.58519e-05 -8.9673675e-05 -3.890601e-05 -8.9910274e-05 -5.214914e-05 -6.978208e-05
-2.0252312e-05 -0.00013197724 2.871494e-05 -7.2584895e-05 -0.00013155668 3.441888e-05 8.957933e-05 -7.963518e-05
-8.610185e-05 9.38791e-05 7.0251735e-05 7.825529e-05 4.122675e-05 0.00021041308 0.00010802158 -3.3204866e-05
-8.157562e-05 4.166667e-05 -6.71157e-05 -1.6870857e-06 -3.280942e-05 -8.8962006e-05 -0.00028106518 0.00011115368
3.2592987e-05 4.862642e-05 -6.109565e-05 2.230056e-05 -2.4068868e-05 1.0287073e-05 7.428524e-05 6.283192e-05
5.8107376e-05 8.429339e-05 9.849279e-07 3.1655472e-05 -6.9163776e-05 -0.00024480268 -6.575563e-05 -1.2618455e-05
-0.00020453012 5.549551e-05 -0.00016275118 -3.907339e-05 -1.621957e-06 -0.0001139913 -7.570701e-05 0.00010798043
-2.348301e-06 -5.131846e-05 0.00010557417 -0.00014503892 -9.396309e-05 5.496696e-05 2.754176e-06 -3.8505983e-05
-0.00027358087 0.00035374798 4.0194802e-05 2.118307e-05 4.7962717e-06 0.0001637451 7.9792815e-05 -0.00034899087
-0.00017753789 -1.6004507e-05 0.00016485216 -0.00025512086 0.00020448555 -0.00017985239 -0.00024761507 7.731297e-05
0.0003530455 -0.00015724408 8.553532e-05 -0.00012750317 6.15955e-05 -9.932046e-06 -0.00026298917 8.04052e-05
-4.42494e-05 -0.00018374842 0.00016303932 0.00010743136 9.5179596e-05 -0.00022981588 -0.00012876563 -0.00016115606
0.00021346674 -0.00015534794 0.00024501744 0.00012848341 8.197949e-05 0.0001142877 -0.00013217451 1.6826481e-05
7.152634e-05 0.00011415179 -1.4582852e-05 0.00019929852 0.00013065242 -0.00011754283 -9.5468344e-08 0.00021215866
8.598247e-05 -0.00014535291 2.4805206e-05 -8.8369954e-05 5.119795e-06 -0.00031879914 -0.00014396885 0.00015698173
0.00034452218 -5.371539e-05 8.245658e-05 -0.00012718288 -8.736088e-05 0.00027774877 0.0003517739 -0.000106140666
-4.1256797e-05 -1.6062746e-05 5.787954e-05 -1.0861104e-05 8.431671e-05 1.5841553e-05 -0.00020074043 5.4591204e-05
-7.489718e-05 -0.00011674642 6.861443e-05 -0.00018141324 0.00032027822 0.00033588137 -3.674362e-06 6.44014e-05
0.00018354828 1.31105135e-05 0.00028901405 -5.845247e-05 -8.3395644e-05 0.00029120783 -4.819503e-05 -1.612784e-05
-2.9722567e-05 0.00012446547 -0.00012299388 0.0003399677 0.000107038235 -9.958811e-05 4.9560345e-05 0.00010019057
4.9897495e-05 -0.00016309031 9.738026e-06 0.00016646225 9.9004574e-05 -6.171249e-05 -4.4952198e-05 0.0002859998
0.0001603634 -3.9839913e-05 -4.3730775e-05 8.953994e-05 -0.0002541701 -0.00017565486 -0.00017508352 -9.214902e-05
-0.00021989319 6.0959865e-05 9.6218064e-05 0.00022282708 4.0858788e-05 -1.090899e-05 5.0832303e-05 -0.00021140085
-7.43677e-06 -3.1640888e-05 -0.00015740795 -0.00019297692 -0.00022267309 -7.9909965e-05 0.00019819563 9.942839e-05
-6.515694e-05 3.0105675e-05 -0.00016720867 -0.00022669972 -0.00018263722 -2.1928143e-05 -1.8345198e-05 -3.432599e-05
-0.00019184797 -0.00015639409 -7.390718e-06 -0.00014362927 -0.0001199302 0.00014048979 7.946038e-05 3.697947e-05
0.00011413734 0.00016208147 0.00010221972 -9.225421e-05 0.000116812545 0.000320095 0.00022314084 -9.103837e-05
-8.9330606e-05 4.116985e-05 0.00018304595 0.00010958603 0.00016543893 -2.187367e-05 -0.00025990556 -5.6017518e-05
00000000: b972 3d39 6590 fab8 1781 31b8 9465 e0b8
00000010: 5088 7138 7eb1 cab8 ab37 ba36 9441 f838
00000020: ec28 0f39 f21a 2538 273d bfb8 508b 2039
00000030: 0361 97b8 ea43 bf37 f308 1739 cf0a 6cb7
00000040: 5e84 69b9 a6e1 21b7 c1f7 f6b8 fcf3 cb38
00000050: 12b2 a5b7 c7f7 66b7 a525 ee38 aa7b 8ab8
00000060: d735 4a38 eed9 b138 803a b2b8 2537 deb8
00000070: 4c5e 75b8 d885 9238 2e9e a438 f1b5 0e39
00000080: 63b4 aeb6 3e0c b938 ae12 9fb8 300f bcb8
00000090: 032f 23b8 368e bcb8 b6ba 5ab8 f857 92b8
000000a0: 82e3 a9b7 5f63 0ab9 dde0 f037 b838 98b8
000000b0: 7af2 09b9 fe5c 1038 89dc bb38 d001 a7b8
000000c0: 9491 b4b8 f5e0 c438 1d54 9338 fd1c a438
000000d0: e3ea 2c38 55a2 5c39 a589 e238 7445 0bb8
000000e0: 9413 abb8 3fc3 2e38 78c0 8cb8 d36f e2b5
000000f0: d99c 09b8 1d91 bab8 ee5b 93b9 2d1b e938
00000100: 74b4 0838 39f4 4b38 7a20 80b8 1712 bb37
00000110: 80e7 c9b7 a496 2c37 96c9 9b38 a1c4 8338
00000120: 52b8 7338 abc6 b038 dd31 8435 cec5 0438
00000130: 050c 91b8 dc58 80b9 49e6 89b8 dab3 53b7
00000140: 2377 56b9 dac3 6838 30a8 2ab9 bce2 23b8
00000150: 05b2 d9b5 9d0e efb8 e4c4 9eb8 8d73 e238
00000160: 8197 1db6 c73e 57b8 b367 dd38 9715 18b9
00000170: 0d0e c5b8 538c 6638 62d4 3836 7c81 21b8
00000180: 676f 8fb9 4077 b939 d796 2838 4cb2 b137
00000190: a9ef a036 feb2 2b39 7156 a738 c3f8 b6b9
000001a0: 7729 3ab9 6b41 86b7 2adc 2c39 bec1 85b9
000001b0: 2c6b 5639 c296 3cb9 55d2 81b9 1623 a238
000001c0: f718 b939 e3e1 24b9 6d61 b338 5fb2 05b9
000001d0: d52c 8138 d0a1 26b7 cfe1 89b9 379f a838
000001e0: 6e98 39b8 97ac 40b9 89f5 2a39 c64c e138
000001f0: 289b c738 bbfa 70b9 4305 07b9 00fc 28b9
00000200: 0bd6 5f39 e5e4 22b9 af75 8039 81b9 0639
00000210: 67ec ab38 bead ef38 5398 0ab9 9826 8d37
00000220: 6900 9638 c764 ef38 dfa8 74b7 cafa 5039
00000230: beff 0839 5481 f6b8 4704 cdb3 e876 5e39
00000240: 7d51 b438 e069 18b9 c614 d037 4253 b9b8
00000250: b4ca ab36 7f24 a7b9 58f6 16b9 769b 2439
00000260: fca0 b439 764c 61b8 8aec ac38 655c 05b9
00000270: 8435 b7b8 cf9e 9139 4b6e b839 d697 deb8
00000280: 260b 2db8 7cbe 86b7 afc3 7238 1638 36b7
00000290: 30d3 b038 7ae3 8437 d97d 52b9 dcf8 6438
000002a0: 1e12 9db8 c2d5 f4b8 17e5 8f38 bf39 3eb9
000002b0: 04eb a739 3c19 b039 0f95 76b6 3d0f 8738
000002c0: de76 4039 3af5 5b37 cf86 9739 dd2a 75b8
000002d0: b2e4 aeb8 41ad 9839 0525 4ab8 464a 87b7
000002e0: ba54 f9b7 f282 0239 ebf7 00b9 b13d b239
000002f0: b779 e038 f6d9 d0b8 04df 4f38 671d d238
00000300: 0749 5138 3903 2bb9 8160 2337 5f8c 2e39
00000310: ada0 cf38 a46b 81b8 0e8b 3cb8 3ef2 9539
00000320: 3927 2839 c819 27b8 906b 37b8 64c7 bb38
00000330: 2242 85b9 fe2f 38b9 a096 37b9 2140 c1b8
00000340: 2193 66b9 28af 7f38 aec8 c938 b0a6 6939
00000350: ca5f 2b38 c105 37b7 c534 5538 7cab 5db9
00000360: 5e89 f9b6 25b6 04b8 e00d 25b9 d959 4ab9
00000370: 5a7d 69b9 5695 a7b8 bcd2 4f39 3684 d038
00000380: dea4 88b8 728b fc37 bc54 2fb9 3eb6 6db9
00000390: 4e82 3fb9 54f2 b7b7 03e4 99b7 40f9 0fb8
000003a0: cc2a 49b9 b8fd 23b9 c9fd f7b6 309b 16b9
000003b0: 0983 fbb8 7150 1339 f7a3 a638 671a 1b38
000003c0: 055d ef38 6af4 2939 cb5e d638 9a78 c1b8
000003d0: 42f9 f438 6cd2 a739 eafa 6939 daeb beb8
000003e0: 0157 bbb8 caad 2c38 06f0 3f39 8dd1 e538
000003f0: ad79 2d39 597d b7b7 ef43 88b9 5af4 6ab8

exp_avg_sq f4 [10, 32, 3]
3.049511e-07 2.5845895e-07 1.7434513e-07 1.12095215e-07 1.0505381e-07 1.4723769e-07 4.403252e-07 2.671978e-07
2.7496e-07 1.1740166e-07 2.0529171e-07 2.1571259e-07 2.92769e-07 1.9066799e-07 2.433059e-07 1.7941315e-07
3.872328e-07 1.4593768e-07 1.3497367e-07 2.0050544e-07 1.2831478e-07 1.6377348e-07 1.8840241e-07 9.093939e-08
1.0347187e-07 1.9300457e-07 8.2944965e-08 1.8302708e-07 2.4324183e-07 1.6203067e-07 1.6774509e-07 2.5409332e-07
1.4459532e-07 2.4666733e-07 1.5423576e-07 1.6337333e-07 1.6136788e-07 1.7758417e-07 1.3121495e-07 1.1113895e-07
8.519288e-08 1.3672256e-07 2.0067381e-07 1.8497134e-07 1.6316596e-07 1.6263898e-07 1.610741e-07 1.6791168e-07
9.0341466e-08 1.3899745e-07 7.370332e-08 1.4276145e-07 1.4805784e-07 2.558635e-07 3.492589e-07 1.322532e-07
2.4832354e-07 1.7495405e-07 1.6366093e-07 3.05378e-07 3.7870117e-07 2.0388816e-07 3.2149998e-07 1.1907696e-07
1.2542658e-07 1.318305e-07 7.0809755e-08 8.4221064e-08 1.3772781e-07 1.5056311e-07 1.6230506e-07 1.208815e-07
1.6612294e-07 2.5807745e-07 1.2837295e-07 5.0388104e-07 1.6832789e-07 3.5088237e-07 6.0036776e-08 8.135402e-08
8.657102e-08 2.3983483e-07 2.7687528e-07 1.5527488e-07 1.6996954e-07 1.8092405e-07 1.0863839e-07 1.9698192e-07
1.6980711e-07 2.1400682e-07 2.6395278e-07 1.8320456e-07 1.2692024e-07 1.07506786e-07 7.086629e-08 6.252769e-08
2.982153e-07 4.1311299e-07 2.0933804e-07 1.1011098e-07 9.2622344e-08 1.3277051e-07 4.6609094e-07 3.2135077e-07
2.5082974e-07 9.780377e-08 2.2311345e-07 2.7476278e-07 2.3549808e-07 1.4125297e-07 1.9752744e-07 1.9326923e-07
4.2449196e-07 2.1365305e-07 1.2933434e-07 2.1459884e-07 1.2925447e-07 1.6123862e-07 2.1929915e-07 1.0898714e-07
7.9260346e-08 2.0130432e-07 1.311991e-07 1.5766749e-07 1.8350764e-07 1.4192963e-07 1.4863363e-07 1.9612148e-07
1.7852228e-07 2.4407277e-07 2.0562373e-07 1.457888e-07 1.3386968e-07 1.3650975e-07 1.2889937e-07 1.0030743e-07
6.7917384e-08 1.1542734e-07 2.0821994e-07 1.7794505e-07 1.3856295e-07 1.5337393e-07 1.3363795e-07 2.0731646e-07
8.2212466e-08 1.6175014e-07 7.443526e-08 1.5115845e-07 1.6000108e-07 3.028121e-07 3.9637723e-07 1.2518056e-07
3.403169e-07 1.4416639e-07 1.5203419e-07 2.9404816e-07 3.9701223e-07 1.9946914e-07 3.3853576e-07 9.890664e-08
1.2710535e-07 1.2379708e-07 6.609086e-08 7.811294e-08 1.2430009e-07 1.3366764e-07 2.1325653e-07 1.6122581e-07
1.2954179e-07 2.2253619e-07 1.0814855e-07 5.200803e-07 2.1660904e-07 3.966955e-07 5.7952906e-08 8.05035e-08
7.9124305e-08 2.1075175e-07 3.0820212e-07 1.7914614e-07 1.5142655e-07 2.1278741e-07 1.3963242e-07 1.405855e-07
1.2837295e-07 2.0267159e-07 2.9180794e-07 2.7286342e-07 1.213016e-07 7.9082895e-08 6.321336e-08 6.7920325e-08
2.503669e-07 2.7898366e-07 2.2870054e-07 3.2292837e-07 2.597857e-07 2.3033627e-07 3.2353358e-07 2.9001097e-07
2.2709625e-07 1.4902362e-07 1.6064395e-07 1.9333027e-07 4.910363e-07 5.8447523e-07 5.828643e-07 2.8265984e-07
3.8759708e-07 4.1903797e-07 1.6110046e-07 1.4709002e-07 1.6490543e-07 1.0022538e-07 1.3144889e-07 1.09723615e-07
1.1798836e-07 1.3792337e-07 1.270103e-07 2.4782022e-07 2.7699545e-07 3.3226462e-07 2.0494839e-07 2.391864e-07
2.8013434e-07 2.3614145e-07 1.9497479e-07 1.5527431e-07 1.2924626e-07 1.4964795e-07 1.8452445e-07 1.3889462e-07
9.246206e-08 1.059923e-07 2.343903e-07 1.924576e-07 2.153332e-07 3.4631515e-07 3.8813525e-07 3.791377e-07
1.2609433e-07 1.1285983e-07 1.2703234e-07 3.032418e-07 2.1035825e-07 2.8791533e-07 2.2655048e-07 2.0623462e-07
1.4156008e-07 3.2348777e-07 2.2476989e-07 2.3506107e-07 2.5863775e-07 2.7414296e-07 2.1576186e-07 3.3385137e-07
00000000: 29b8 a334 54c2 8a34 a033 3b34 ffb8 f033
00000010: f199 e133 6318 1e34 d665 ec34 6373 8f34
00000020: 379e 9334 3f1e fc33 286e 5c34 a09e 6734
00000030: dd2d 9d34 6bba 4c34 b59f 8234 b6a4 4034
00000040: dfe4 cf34 0bb3 1c34 48ed 1034 844a 5734
00000050: e6c6 0934 b6d9 2f34 a94b 4a34 754a c333
00000060: 4334 de33 b13c 4f34 7a1f b233 1a86 4434
00000070: e796 8234 a7fa 2d34 6b1d 3434 526a 8834
00000080: 0f42 1b34 b36d 8434 019c 2534 b86b 2f34
00000090: 7744 2d34 f7ad 3e34 17e4 0c34 49ab ee33
000000a0: 48f3 b633 03ce 1234 cc78 5734 899c 4634
000000b0: b832 2f34 dda1 2e34 b6f3 2c34 364b 3434
000000c0: bf01 c233 543f 1534 d446 9e33 f849 1934
000000d0: d4f9 1e34 9d5d 8934 c781 bb34 7c01 0e34
000000e0: 5451 8534 01db 3b34 c6ba 2f34 d5f2 a334
000000f0: 4b50 cb34 5aec 5a34 9f9a ac34 40b7 ff33
00000100: ffac 0634 4b8d 0d34 1310 9833 05dd b433
00000110: 55e2 1334 79aa 2134 1346 2e34 a7cb 0134
00000120: 875f 3234 e58d 8a34 e3d6 0934 7142 0735
00000130: 9ebd 3434 e860 bc34 91ed 8033 d8b4 ae33
00000140: ece8 b933 a6c2 8034 73a5 9434 a2b9 2634
00000150: df80 3634 0644 4234 964c e933 fa81 5334
00000160: 3954 3634 bfc9 6534 65b5 8d34 e3b6 4434
00000170: 9247 0834 7bde e633 282f 9833 f646 8633
00000180: 661a a034 d1c9 dd34 67c6 6034 2776 ec33
00000190: ace7 c633 ae8f 0e34 0d3b fa34 1d86 ac34
000001a0: c7a9 8634 3108 d233 f590 6f34 1c83 9334
000001b0: 38dd 7c34 52ab 1734 ee17 5434 7185 4f34
000001c0: bbe5 e334 8168 6534 27df 0a34 7b6c 6634
000001d0: 33c9 0a34 ef20 2d34 7e78 6b34 500c ea33
000001e0: d635 aa33 1c26 5834 bcdf 0c34 4f4b 2934
000001f0: 320a 4534 5265 1834 1a98 1f34 7695 5234
00000200: d5af 3f34 1b09 8334 6cc9 5c34 1f8a 1c34
00000210: d1bd 0f34 8493 1234 9767 0a34 9868 d733
00000220: fad9 9133 dae0 f733 1093 5f34 2a11 3f34
00000230: e5c7 1434 1baf 2434 1f7e 0f34 b79a 5e34
00000240: c88c b033 8aad 2d34 38d9 9f33 1e4e 2234
00000250: c3cc 2b34 2e92 a234 accd d434 5f69 0634
00000260: ccb4 b634 28cc 1a34 d73e 2334 acdd 9d34
00000270: f224 d534 a92d 5634 00c0 b534 8066 d433
00000280: 747a 0834 15ed 0434 d6ed 8d33 0bbf a733
00000290: 5977 0534 4886 0f34 82fb 6434 6a1d 2d34
000002a0: 2d18 0b34 48f2 6e34 4b3f e833 a59b 0b35
000002b0: 0a95 6834 6af9 d434 e5e7 7833 44e1 ac33
000002c0: 0ceb a933 004b 6234 fa76 a534 515b 4034
000002d0: d097 2234 8f7a 6434 deed 1534 d9f3 1634
000002e0: e3d6 0934 f19d 5934 c7a9 9c34 107e 9234
000002f0: 213f 0234 48d4 a933 eabf 8733 98db 9133
00000300: 2a6a 8634 39c7 9534 ba90 7534 f05e ad34
00000310: ad78 8b34 5a52 7734 1eb2 ad34 ceb2 9b34
00000320: bed7 7334 4d03 2034 797d 2c34 3896 4f34
00000330: c2cf 0335 d5e4 1c35 2176 1c35 79c0 9734
00000340: f016 d034 24f8 e034 f5fa 2c34 ccef 1d34
00000350: dc10 3134 7c3b d733 6524 0d34 32a1 eb33
00000360: c960 fd33 1618 1434 5360 0834 270c 8534
00000370: f7b5 9434 1a62 b234 c90f 5c34 8769 8034
00000380: 5f65 9634 118e 7d34 435a 5134 7ab9 2634
00000390: f1c6 0a34 eaae 2034 b221 4634 1023 1534
000003a0: 8e8f c633 e29d e333 b7ac 7b34 58a6 4e34
000003b0: 5736 6734 31ed b934 e760 d034 4a8c cb34
000003c0: 8c64 0734 595d f233 6266 0834 3ccd a234
000003d0: d6de 6134 c892 9a34 b941 7334 5771 5d34
000003e0: bdff 1734 d2ab ad34 4758 7134 1865 7c34
000003f0: e7da 8a34 ec2d 9334 2bac 6734 2f3c b334

exp_avg f4 [10]
3.5337984e-05 -3.9894476e-05 1.0370988e-05 6.830859e-06 5.7283064e-06 -3.856131e-06 -1.2172953e-05 -5.6925448e-05
2.6853104e-05 2.7169413e-05
00000000: df37 1438 5e54 27b8 0eff 2d37 a234 e536
00000010: c735 c036 ea63 81b6 6f3a 4cb7 3cc3 6eb8
00000020: 9a42 e137 dfe9 e337

exp_avg_sq f4 [10]
3.8109684e-09 3.8211585e-09 2.5296416e-09 1.2105147e-09 1.9257826e-09 3.6047014e-09 1.0215453e-09 3.163368e-09
1.4614172e-09 6.560286e-09
00000000: a2f1 8231 444b 8331 edd5 2d31 335f a630
00000010: ba56 0431 94b6 7731 6e66 8c30 8f62 5931
00000020: 0cdb c830 e368 e131

exp_avg f4 [5, 10, 3]
-0.00017858001 -8.276085e-05 -0.00059375266 0.00014857882 0.00013882133 0.00026704895 0.000335216 0.00010327985
0.00021785211 0.0004893955 -0.00015179769 0.0003916076 -0.00056911015 -0.00020558074 -0.00033201033 0.00013175234
0.00052804773 0.0005210639 -0.0004913449 -0.00026564844 -0.00020610046 -0.0001294407 -3.5582856e-05 0.00021196008
-5.6180263e-05 0.00037833373 0.00011106943 0.00021896267 0.00015009625 -0.0002862647 0.00028767184 -8.1225444e-05
-5.32925e-05 8.32796e-05 -0.00013626416 7.141341e-05 2.3998622e-05 9.948561e-05 7.96043e-05 -0.0001507622
0.00024249499 -9.8383525e-06 0.0002375973 -0.00026118933 -0.00014569265 9.459161e-05 1.3855103e-05 -5.3387474e-05
3.9406885e-05 6.414746e-05 0.00012158972 -0.000116701645 2.6484862e-05 9.426833e-05 8.291172e-05 -2.0073176e-06
0.00022621508 9.206708e-05 6.2613753e-06 6.851423e-05 -0.00032667126 -0.00034388996 0.00047208645 -0.0005156024
0.0009427665 0.00033959016 0.00035111635 -0.00064999354 -0.00051411026 0.0009876122 -0.00056540273 -0.0010131084
-0.0007250624 2.8572857e-05 0.0012519417 0.00034384086 -0.0010115636 0.000600001 -0.000509631 -0.00031086
0.0005289571 -0.0001222806 0.00053556333 -0.00017455989 -0.0003426033 -0.00018291059 0.0007038185 2.2670763e-05
5.602481e-05 -0.0003367772 -9.2741364e-05 0.00043809428 -0.00042431863 0.00064192654 -0.00046560128 9.221831e-05
-0.0006183578 0.00017079599 -0.00034154157 -0.00046325554 -0.0002508116 0.0002641002 0.0001506643 0.00055561395
-5.3242366e-05 -0.0010607466 0.00061155774 -0.00053974724 0.00029349126 0.00013234366 0.00018381949 0.0004031599
-0.00036094626 0.0002604041 9.437986e-05 0.00022879116 -0.00040005572 0.00010965102 -7.82181e-06 -0.0002866427
0.00020225669 -1.8394825e-06 5.3680702e-05 -0.00050321524 -0.00031379136 -0.00021678602 -0.00012579185 -4.8611537e-06
-2.1758495e-05 -0.00034570374 0.00010132691 3.8272337e-06 0.0005522754 8.440187e-05 -0.00018766343 -7.398104e-05
1.632545e-05 -0.00023457845 0.0001240494 4.5429846e-05 -0.00019503133 -0.0002830095 -0.00010957325 0.00015747732
-0.00014738667 -0.00011578792 -0.00032336783 -0.00021317112 -8.583775e-05 0.00025573984
00000000: 3541 3bb9 e58f adb8 11a6 1bba d3cb 1b39
00000010: 9190 1139 b402 8c39 eebf af39 f297 d838
00000020: 3b6f 6439 c74a 003a e22b 1fb9 af50 cd39
00000030: 5630 15ba 2991 57b9 ac11 aeb9 0027 0a39
00000040: af6c 0a3a 0298 083a 99cd 00ba bb46 8bb9
00000050: ac1c 58b9 79ba 07b9 cd3e 15b8 9a41 5e39
00000060: 19a3 6bb8 185b c639 f2ed e838 5899 6539
00000070: 2863 1d39 cc15 96b9 a9d2 9639 9457 aab8
00000080: 6386 5fb8 65a6 ae38 22e2 0eb9 c8c3 9538
00000090: a650 c937 eea2 d038 3cf1 a638 eb15 1eb9
000000a0: 4146 7e39 670f 25b7 8a23 7939 3df0 88b9
000000b0: 13c5 18b9 7c5f c638 3773 6837 5dec 5fb8
000000c0: d248 2538 e886 8638 fcfd fe38 b8bd f4b8
000000d0: cf2b de37 edb1 c538 e4e0 ad38 74b5 06b6
000000e0: 2634 6d39 2314 c138 ce18 d236 4caf 8f38
000000f0: 1345 abb9 214c b4b9 5f82 f739 7e29 07ba
00000100: fd23 773a 050b b239 0a16 b839 5464 2aba
00000110: 5bc5 06ba c472 813a 8937 14ba 47ca 84ba
00000120: 1d12 3eba beaf ef37 3118 a43a 8a45 b439
00000130: 7196 84ba 6349 1d3a c298 05ba ecfa a2b9
00000140: b6a9 0a3a 7338 00b9 0c65 0c3a 100a 37b9
00000150: 709f b3b9 b0cb 3fb9 7680 383a 182d be37
00000160: 2ffc 6a38 7891 b0b9 247e c2b8 05b0 e539
00000170: 1577 deb9 f646 283a f21b f4b9 5465 c138
00000180: 4a19 22ba b317 3339 ef10 b3b9 1be1 f2b9
00000190: 5d7f 83b9 ee76 8a39 a4fb 1d39 9fa6 113a
000001a0: 8e50 5fb8 c008 8bba f250 203a d37d 0dba
000001b0: bbdf 9939 bbc5 0a39 abbf 4039 355f d339
000001c0: 633d bdb9 d986 8839 cded c538 a9e7 6f39
000001d0: 92be d1b9 71f4 e538 6b3a 03b7 8848 96b9
000001e0: de14 5439 23e4 f6b5 3727 6138 34ea 03ba
000001f0: 5d84 a4b9 0e51 63b9 fee6 03b9 fe1c a3b6
00000200: 0386 b6b7 923f b5b9 787f d438 b06b 8036
00000210: 93c6 103a e900 b138 85c7 44b9 4526 9bb8
00000220: a3f2 8837 2cf9 75b9 4213 0239 ed8b 3e38
00000230: 5381 4cb9 e460 94b9 b1ca e5b8 7f20 2539
00000240: cf8b 1ab9 2bd3 f2b8 b289 a9b9 b086 5fb9
00000250: cb03 b4b8 d214 8639

exp_avg_sq f4 [5, 10, 3]
2.1941887e-06 4.3323655e-07 1.6939726e-06 3.983835e-07 3.1751824e-06 3.7259574e-06 2.9285027e-07 2.7693438e-06
1.8958575e-06 4.8998563e-06 5.7695497e-06 6.848482e-07 3.5315952e-06 2.3951918e-06 7.7824546e-07 1.7988112e-06
2.5329505e-06 7.063603e-06 4.3673288e-07 5.723436e-07 5.985041e-07 1.7085626e-06 2.9978725e-07 2.5455834e-06
1.5649237e-06 5.0693006e-07 1.0932221e-06 2.2335175e-07 2.5875113e-07 2.0029569e-07 3.876255e-07 7.7363865e-08
2.9249705e-07 8.6184954e-08 6.0658283e-07 5.756042e-07 4.7750706e-08 4.9842606e-07 2.6408148e-07 8.3153776e-07
9.518091e-07 5.586691e-08 5.8677955e-07 3.737528e-07 1.452841e-07 2.7324327e-07 4.4521036e-07 1.1412122e-06
9.4940894e-08 7.652886e-08 6.6570365e-08 2.9628725e-07 8.350442e-08 4.2022356e-07 2.928515e-07 5.522324e-08
2.1514273e-07 3.7868624e-08 4.3744908e-08 3.763515e-08 7.077371e-07 3.0222077e-06 2.61594e-06 4.8776355e-06
3.5985952e-06 8.244901e-07 4.3375944e-06 2.0104906e-06 1.3175137e-06 6.3689067e-06 1.1773027e-06 8.833375e-06
1.9387746e-06 1.4530465e-06 4.7507747e-06 4.870439e-06 7.967988e-06 1.2184099e-06 6.6317324e-07 6.03051e-07
7.3568725e-07 8.9736307e-07 3.6270915e-06 2.1851836e-06 6.502408e-07 2.3338846e-06 2.1294775e-06 5.16095e-07
2.8069277e-07 3.4102638e-07 1.7935125e-07 6.444179e-07 6.7069186e-07 1.0670815e-06 8.1885315e-07 1.7759982e-07
8.589648e-07 5.28373e-07 2.492733e-07 1.5260749e-06 1.5723711e-07 1.7824639e-06 5.0826884e-07 3.132728e-07
1.3375006e-06 8.870346e-07 2.1340643e-06 2.7468533e-07 1.5300517e-07 1.9051703e-07 2.791838e-07 2.3988696e-07
8.5919436e-07 4.2342512e-07 1.1494611e-07 4.3349792e-07 5.6349353e-07 7.388395e-08 7.37801e-08 7.841814e-08
1.0294292e-06 1.0780005e-06 9.362578e-07 4.5151623e-07 1.2969562e-06 1.3549343e-06 8.4658495e-07 1.0987362e-06
7.981961e-07 2.1662947e-06 2.462191e-06 7.0111616e-07 1.9637905e-06 1.9525767e-06 3.8978033e-07 2.5304803e-06
6.937056e-07 2.7840001e-06 8.014336e-07 7.8823564e-07 5.5920736e-07 1.0622747e-06 3.4804683e-07 1.0339041e-06
8.3928137e-07 4.646477e-07 6.083358e-07 2.6608075e-07 2.577e-07 2.204902e-07
00000000: e03f 1336 9497 e834 755c e335 69e1 d534
00000010: 3815 5536 760b 7a36 0939 9d34 f7d8 3936
00000020: 2b75 fe35 7269 a436 0e98 c136 69d6 3735
00000030: 5800 6d36 15bd 2036 9fe8 5035 af6e f135
00000040: c2fb 2936 e303 ed36 1c78 ea34 27a3 1935
00000050: e3a8 2035 c451 e535 72f2 a034 cad4 2a36
00000060: 5e0a d235 f813 0835 d3ba 9235 76d2 6f34
00000070: 7cea 8a34 dc10 5734 d81a d034 3c23 a633
00000080: 7d08 9d34 ae14 b933 0ed4 2235 3883 1a35
00000090: 7516 4d33 94cb 0535 15c7 8d34 d736 5f35
000000a0: d37f 7f35 51f2 6f33 2f83 1d35 32a8 c834
000000b0: 64ff 1b34 45b2 9234 3f05 ef34 c12b 9935
000000c0: 4fe2 cb33 3058 a433 72f5 8e33 6911 9f34
000000d0: 0a53 b333 169b e134 3439 9d34 982e 6d33
000000e0: fc01 6734 fea4 2233 09e2 3b33 49a4 2133
000000f0: 53fb 3d35 22d1 4a36 828d 2f36 92aa a336
00000100: 657f 7136 8752 5d35 a78b 9136 f7eb 0636
00000110: 6dd5 b035 7eb4 d536 d003 9e35 0f33 1437
00000120: e51b 0236 4c06 c335 d868 9f36 c16c a336
00000130: 3fae 0537 3f88 a335 eb04 3235 59e1 2135
00000140: 0b7c 4535 52e2 7035 f568 7336 2ba5 1236
00000150: 358c 2e35 d59f 1c36 25e8 0e36 c789 0a35
00000160: 1fb2 9634 4f16 b734 b293 4034 10fc 2c35
00000170: 9809 3435 a438 8f35 29cf 5b35 44b2 3e34
00000180: 9d93 6635 84d5 0d35 ddd3 8534 89d3 cc35
00000190: 02d5 2834 fe3c ef35 f86f 0835 e32f a834
000001a0: 2c84 b335 8e1c 6e35 f236 0f36 7778 9334
000001b0: be49 2434 ec90 4c34 bbe2 9534 d0c9 8034
000001c0: 63a3 6635 1b53 e334 4bd8 f633 80bb e834
000001d0: fb42 1735 22aa 9e33 0a71 9e33 d466 a833
000001e0: eb2a 8a35 d1af 9035 2553 7b35 eb67 f234
000001f0: 1313 ae35 30db b535 e040 6335 4a78 9335
00000200: 9e43 5635 a960 1136 1f3c 2536 5634 3c35
00000210: aac9 0336 0309 0336 0043 d134 52d1 2936
00000220: 1637 3a35 c2d4 3a36 1922 5735 2497 5335
00000230: 701c 1635 7b93 8e35 31db ba34 adc4 8a35
00000240: fa4a 6135 b274 f934 854c 2335 dcd9 8e34
00000250: 055a 8a34 e2bf 6c34

exp_avg f4 [5]
-8.2562006e-11 8.542658e-12 4.8176946e-10 -4.666306e-11 1.2400256e-10
00000000: 478e b5ae b648 162d 836d 0430 ef39 4dae
00000010: 9e57 082f

exp_avg_sq f4 [5]
4.292662e-19 5.887982e-20 6.8727475e-19 1.2431622e-19 7.5748987e-19
00000000: e064 fd20 ab06 8b1f 03d9 4a21 46c4 1220
00000010: 5192 5f21

exp_avg f4 [5]
-0.00017428736 -0.00030457383 0.00036618023 -0.00012571276 0.0007465452
00000000: e8c0 36b9 35af 9fb9 e1fb bf39 c3d1 03b9
00000010: cdb3 433a

exp_avg_sq f4 [5]
1.6292976e-06 3.049616e-07 1.2653326e-06 4.990221e-07 3.0655408e-06
00000000: 3dae da35 9ab9 a334 7fd4 a935 8af4 0535
00000010: 97b9 4d36

exp_avg f4 [5]
0.00027053227 0.00028832103 0.0002961419 -0.00097099214 -0.00080103596
00000000: 3ad6 8d39 cb29 9739 7e43 9b39 2e8a 7eba
00000010: 9dfc 51ba

exp_avg_sq f4 [5]
1.409635e-08 1.3013143e-08 2.447596e-08 9.10129e-08 6.351358e-08
00000000: 672c 7232 6890 5f32 353f d232 df72 c333
00000010: f664 8833

exp_avg f4 [1, 5, 3]
-0.0027149657 -0.0018598407 -0.0018767655 -0.0014531863 -0.0008711735 -0.0030831727 -0.0026365242 -0.00081025355
0.00057207764 -0.0016120734 -0.003923447 0.0010033257 -0.0024648013 -0.0026241336 0.002208803
00000000: 91ed 31bb e6c5 f3ba cdfd f5ba d778 beba
00000010: 775f 64ba 0e0f 4abb 89c9 2cbb 3267 54ba
00000020: 7bf7 153a 354c d3ba 4290 80bb 0682 833a
00000030: 8188 21bb a8f9 2bbb 91c1 103b

exp_avg_sq f4 [1, 5, 3]
1.1643458e-05 1.7274984e-05 2.7265507e-05 1.2417237e-05 2.168996e-05 3.057058e-05 1.9484503e-05 3.0139165e-05
3.0405565e-05 1.8865161e-05 2.7339847e-05 9.108239e-06 2.3196031e-05 8.543564e-06 3.1856103e-05
00000000: 4558 4337 bfe9 9037 3bb8 e437 a053 5037
00000010: d6f2 b537 e938 0038 a772 a337 5dd3 fc37
00000020: 740f ff37 a040 9e37 e057 e537 97cf 1837
00000030: 1995 c237 5456 0f37 3b9d 0538

exp_avg f4 [1, 5, 3]
0.0014938586 -0.0026176055 0.0036429456 0.0012380931 0.0004638697 0.00063233054 -0.0013338272 0.0010703566
-0.0024994644 -0.000114556795 -0.0025205724 0.0020991429 -0.00043838436 0.0011165895 -0.0018035733
00000000: 94cd c33a 228c 2bbb 7cbe 6e3b 8347 a23a
00000010: 8a33 f339 fcc2 253a d0d3 aeba 354b 8c3a
00000020: 0ece 23bb 363e f0b8 3030 25bb c691 093b
00000030: f4d6 e5b9 875a 923a e165 ecba

exp_avg_sq f4 [1, 5, 3]
2.8512082e-05 2.6675594e-05 2.0964435e-05 5.1607505e-05 2.0989391e-05 4.669561e-05 5.4607594e-06 8.2292945e-06
7.505999e-06 3.184798e-05 1.701286e-05 3.8442875e-05 1.9083063e-05 2.0396808e-05 2.060862e-05
00000000: 3b2d ef37 67c5 df37 c8dc af37 2375 5838
00000010: 6012 b037 08db 4338 913b b736 8d10 0a37
00000020: 0adc fb36 8294 0538 d7b6 8e37 b93d 2138
00000030: 9114 a037 d019 ab37 ade0 ac37

exp_avg f4 [5]
0.0018793471 0.00061331247 0.00040006684 0.0010178128 0.0012232198
00000000: 6d54 f63a b4c6 203a 10c0 d139 2168 853a
00000010: 7254 a03a

exp_avg_sq f4 [5]
1.502947e-05 1.5568019e-05 1.5597199e-06 3.2005377e-05 1.2532928e-05
00000000: 1527 7c37 1198 8237 9157 d135 833d 0638
00000010: 8444 5237

exp_avg f4 [5, 10, 3]
0.0004889877 0.00026402486 -0.00079757033 0.0001708025 0.00014632048 -0.00038624697 -0.00089327816 -0.00048785016
0.0014581501 0.00047036284 0.00026918322 -0.00077199895 -0.00046996522 -0.00030748453 0.0008533359 -0.0009253844
-0.00039122868 0.0012956469 -0.0005934362 -0.0002864635 0.0009009041 -0.00017712971 -3.804653e-05 0.00018047914
0.00057053426 0.00023410686 -0.0007775752 0.00083105505 0.00033800036 -0.0011546436 0.000102802835 0.00011822915
0.00016711981 2.9107478e-05 1.3901931e-05 9.7149285e-05 -0.00018810252 -0.00022900144 -0.00026482358 8.175809e-05
0.00010562975 0.00020160236 -8.9948546e-05 -9.3634844e-05 -0.00017239361 -0.00022090618 -0.0002957083 -0.0001793013
-0.00013520423 -0.00016138644 -0.00017183051 -3.9223276e-05 -6.909773e-05 -5.6693752e-05 0.00013630542 0.0001903436
9.421293e-05 0.000206934 0.00027028995 0.00015564688 -0.0005403179 -0.00028773004 0.00021810152 -0.00021794283
-0.00012952194 0.00010092443 0.0009677558 0.0005177895 -0.00039773498 -0.0005330934 -0.00028891794 0.0002110257
0.0005303087 0.00029589745 -0.00023017637 0.0009372889 0.0004723408 -0.00035962233 0.000633786 0.0003280715
-0.0002466758 0.00018249924 8.357508e-05 -5.0562307e-05 -0.0005670191 -0.00028402265 0.00021668045 -0.00084140623
-0.00042001667 0.00031872702 0.0007499298 0.00045663342 -0.00027306387 0.0003019027 0.00023861343 -0.00014091267
-0.0013338473 -0.0008217763 0.0004851153 0.0007550087 0.0004550994 -0.00027549878 -0.00073217874 -0.000498762
0.00029403935 -0.001283069 -0.0006869169 0.00040340604 -0.0008757061 -0.0005035421 0.00029810218 -0.00026383935
-9.322748e-05 5.7951398e-05 0.00077453256 0.00040540236 -0.0002367312 0.0011483853 0.00060823717 -0.00035526606
-4.675592e-05 0.00029174838 0.00042976066 -4.769973e-05 0.00019124153 0.00018044369 0.000110524845 -0.00056349154
-0.00075738935 -2.582788e-05 0.00025267276 0.00044656906 8.3109175e-05 -0.00037029467 -0.0004240631 6.1288345e-05
-0.00042581235 -0.00070507696 4.103205e-05 -0.00031406616 -0.00049347646 -3.526612e-05 1.3454228e-05 -0.00015096283
-3.721976e-05 0.0002511495 0.00042287822 -5.2320407e-05 0.00038058235 0.0006263609
00000000: 692f 003a d16c 8a39 0a14 51ba 7219 3339
00000010: 9b6d 1939 3181 cab9 e22a 6aba 24c6 ffb9
00000020: 661f bf3a 089b f639 2921 8d39 f95f 4aba
00000030: aa65 f6b9 e035 a1b9 67b2 5f3a 7f95 72ba
00000040: d31d cdb9 b2d2 a93a d490 1bba 7b30 96b9
00000050: a72a 6c3a e5bb 39b9 2794 1fb8 003f 3d39
00000060: e88f 153a 957a 7539 30d6 4bba 29db 593a
00000070: a435 b139 6957 97ba da97 d738 cbf1 f738
00000080: e23c 2f39 d52b f437 573c 6937 a0bc cb38
00000090: 633d 45b9 1b20 70b9 05d8 8ab9 8a75 ab38
000000a0: 8a85 dd38 3965 5339 c2a2 bcb8 d35d c4b8
000000b0: 8fc4 34b9 0da3 67b9 4c09 9bb9 d402 3cb9
000000c0: 9cc5 0db9 d839 29b9 672d 34b9 ac83 24b8
000000d0: 90e8 90b8 74ca 6db8 35ed 0e39 f996 4739
000000e0: 2f94 c538 6cfc 5839 b4b5 8d39 2435 2339
000000f0: 1fa4 0dba 79da 96b9 2eb2 6439 9587 64b9
00000100: 48d0 07b9 64a7 d338 feb0 7d3a 44bc 073a
00000110: 1687 d0b9 4bbf 0bba e979 97b9 c846 5d39
00000120: 6a04 0b3a af22 9b39 805b 71b9 65b4 753a
00000130: 82a4 f739 b18b bcb9 a924 263a 0301 ac39
00000140: 4454 81b9 445d 3f39 0845 af38 dd12 54b8
00000150: 02a4 14ba e0e8 94b9 b734 6339 d191 5cba
00000160: af35 dcb9 d11a a739 f096 443a 4d68 ef39
00000170: 032a 8fb9 b248 9e39 4e34 7a39 f5c1 13b9
00000180: 7dd4 aeba 796c 57ba 1357 fe39 c7eb 453a
00000190: 689a ee39 d270 90b9 afef 3fba 5abf 02ba
000001a0: 4b29 9a39 a72c a8ba 3612 34ba 3e80 d339
000001b0: a48f 65ba 2300 04ba 994a 9c39 eb53 8ab9
000001c0: 1f83 c3b8 d710 7338 000a 4b3a 2f8c d439
000001d0: 0c3b 78b9 6b85 963a 1b72 1f3a 0143 bab9
000001e0: c91b 44b8 cef5 9839 8051 e139 3211 48b8
000001f0: 0288 4839 7c35 3d39 93c9 e738 47b7 13ba
00000200: 8a8b 46ba f3a8 d8b7 2a79 8439 7c21 ea39
00000210: e64a ae38 1c24 c2b9 c954 deb9 ee87 8038
00000220: 913f dfb9 ead4 38ba d419 2c38 3fa9 a4b9
00000230: a55c 01ba b5ea 13b8 78b9 6137 c74b 1eb9
00000240: 6a1c 1cb8 b7ac 8339 c1b5 dd39 9c72 5bb8
00000250: e688 c739 5e32 243a

exp_avg_sq f4 [5, 10, 3]
6.7339386e-07 1.6969368e-06 2.0086736e-06 2.4513264e-07 5.978023e-07 6.7691514e-07 2.0936905e-06 5.338716e-06
6.33675e-06 6.619952e-07 1.6464134e-06 2.0248215e-06 9.84376e-07 2.585723e-06 3.0992642e-06 1.5284727e-06
3.89217e-06 4.39353e-06 1.1312239e-06 3.2492544e-06 3.960513e-06 9.8724605e-08 2.4044522e-07 3.0738232e-07
5.560334e-07 1.4782903e-06 1.6840211e-06 1.4293128e-06 3.8954495e-06 4.427502e-06 1.7089233e-06 3.152795e-06
1.5536812e-06 7.324203e-07 1.8408772e-06 5.5770016e-07 6.1349883e-06 1.4151115e-05 5.170587e-06 1.7334407e-06
4.0395557e-06 1.5379213e-06 3.308857e-06 8.9249315e-06 2.5505387e-06 4.422557e-06 9.239366e-06 3.5173505e-06
3.870747e-06 1.0944729e-05 3.1937184e-06 2.5313074e-07 7.27333e-07 2.3792006e-07 1.737487e-06 4.8436627e-06
1.5057769e-06 4.437018e-06 1.0679312e-05 3.5977864e-06 4.082235e-07 4.0667098e-07 4.0709483e-07 1.2295096e-07
1.6527768e-07 1.3535046e-07 1.2100718e-06 1.3800817e-06 1.355007e-06 4.033081e-07 4.3677676e-07 4.0989661e-07
5.198336e-07 7.210796e-07 6.6087665e-07 9.003516e-07 9.883754e-07 9.1017785e-07 6.530655e-07 8.7846274e-07
8.8800675e-07 4.623006e-08 6.1595586e-08 7.790946e-08 3.055029e-07 3.8809267e-07 4.015477e-07 8.026394e-07
9.780554e-07 1.0049614e-06 5.295119e-07 4.086128e-07 4.434033e-07 2.4910145e-07 2.396809e-07 1.989873e-07
1.9589363e-06 2.2637762e-06 1.7453056e-06 5.698108e-07 4.5524118e-07 4.954202e-07 1.0991129e-06 1.5237391e-06
1.0211306e-06 1.3205669e-06 1.0674222e-06 1.0625479e-06 1.3161753e-06 2.0652947e-06 1.3415435e-06 1.147819e-07
2.056379e-07 1.3379132e-07 5.882231e-07 9.922172e-07 6.007006e-07 1.4677287e-06 2.0802213e-06 1.4107485e-06
7.305854e-07 3.9560197e-07 6.1609217e-07 2.7087685e-07 2.0644983e-07 3.2991028e-07 2.659149e-06 1.6339058e-06
2.488897e-06 7.9904754e-07 4.709143e-07 6.5189636e-07 1.4185272e-06 9.99654e-07 1.4931459e-06 1.6733968e-06
1.0280323e-06 1.7357767e-06 1.9048209e-06 1.1821e-06 1.7279924e-06 1.7864201e-07 8.278806e-08 1.1027165e-07
8.2573007e-07 5.29011e-07 7.6514e-07 2.0115276e-06 1.22602e-06 1.8899678e-06
00000000: 46c3 3435 4ec2 e335 c0cc 0636 c69a 8334
00000010: a978 2035 41b5 3535 5481 0c36 3923 b336
00000020: 45a0 d436 f7b3 3135 55fa dc35 2be2 0736
00000030: e71e 8435 6286 2d36 f4fc 4f36 ec25 cd35
00000040: 7c99 8236 236c 9336 8fd4 9735 c40d 5a36
00000050: 8ce4 8436 6d02 d433 8a16 8134 4e06 a534
00000060: 5342 1535 ab69 c635 8606 e235 d0d6 bf35
00000070: a8b5 8236 f48f 9436 285e e535 9b94 5336
00000080: 1488 d035 8a9b 4435 0f14 f735 ddb4 1535
00000090: 26db cd36 936a 6d37 017f ad36 92a8 e835
000000a0: 858b 8736 936a ce35 bb0d 5e36 4abc 1537
000000b0: ec29 2b36 7a65 9436 c602 1b37 9f0b 6c36
000000c0: 77e1 8136 419f 3737 aa53 5636 06e6 8734
000000d0: f13d 4335 f876 7f34 9933 e935 bf86 a236
000000e0: 1a1a ca35 b2e1 9436 4c2b 3337 8071 7136
000000f0: d029 db34 6f54 da34 b08e da34 8104 0434
00000100: 2f77 3134 da54 1134 c069 a235 3f3b b935
00000110: b0dd b535 3e86 d834 247e ea34 c30f dc34
00000120: b18a 0b35 3690 4135 1967 3135 b1af 7135
00000130: 52a8 8435 f252 7435 524e 2f35 80cf 6b35
00000140: 5c5f 6e35 7d8e 4633 8846 8433 2e4f a733
00000150: 0004 a434 0d5b d034 4c94 d734 f674 5735
00000160: ba45 8335 36e2 8635 c823 0e35 515f db34
00000170: e30c ee34 3ebc 8534 7ead 8034 36a9 5534
00000180: 4576 0336 61eb 1736 3e40 ea35 1af5 1835
00000190: df67 f434 04fd 0435 3b85 9335 4783 cc35
000001a0: c80d 8935 553e b135 5944 8f35 de9c 8e35
000001b0: 70a7 b035 7e99 0a36 150f b435 047e f633
000001c0: 51cd 5c34 47a8 0f34 62e6 1d35 532c 8535
000001d0: d53f 2135 c6fe c435 ee99 0b36 f358 bd35
000001e0: 721d 4435 1f63 d434 8861 2535 086d 9134
000001f0: 7fac 5d34 861e b134 d573 3236 934c db35
00000200: ed06 2736 217e 5635 f8d1 fc34 fafd 2e35
00000210: 3964 be35 da2b 8635 1a68 c835 7a99 e035
00000220: ecfa 8935 d5f8 e835 26a9 ff35 a6a8 9e35
00000230: 5eed e735 bed0 3f34 38c9 b133 7bce ec33
00000240: bda7 5d35 5c01 0e35 0564 4d35 c8fd 0636
00000250: ba8d a435 cdaa fd35

exp_avg f4 [10]
0.0020364018 0.00087763846 -0.0036161472 0.0020073028 -0.0020003384 -0.0033962629 -0.0023505157 -0.0006790007
0.0020285547 0.0030702434
00000000: 2775 053b 5211 663a e2fc 6cbb f48c 033b
00000010: 1c18 03bb d693 5ebb 1c0b 1abb f7fe 31ba
00000020: 80f1 043b 2336 493b

exp_avg_sq f4 [10]
3.252023e-05 1.0690388e-05 9.758425e-05 3.3099157e-05 4.4964294e-05 7.303913e-05 5.5637865e-05 4.5344073e-06
2.5604364e-05 6.714907e-05
00000000: 5566 0838 de5a 3337 25a6 cc38 f3d3 0a38
00000010: 0b98 3c38 962c 9938 b45c 6938 4326 9836
00000020: f4c8 d637 62d2 8c38
