true/triplet-conv/4-classes/before/version_60/checkpoints/epoch=41.ckpt (torch_old, 45495 bytes, 33 tensors)

exp_avg f4 [8, 3, 3]
000000 c7 ff 06 bc 82 0e 70 3b 92 5c 30 3b 06 79 1c 3b
       -0.008239693 0.003662974 0.0026910645 0.0023875847
000010 0c 3d 33 3b 88 25 80 b8 63 fc 48 3b e8 5d 6b 3b
       0.002734962 -6.1105064e-05 0.0030668012 0.0035914127
000020 ef 4f 7d 3b 32 07 0c ba d0 d9 6e 3b 6c 93 27 ba
       0.003865238 -0.00053416484 0.0036445744 -0.0006392512
000030 fb 88 7f ba a8 c1 35 b9 88 58 04 bb b6 9d 35 bb
       -0.00097478897 -0.00017333648 -0.002019437 -0.0027712411
000040 ab 53 c3 ba fd 9a 2a bb 0c 50 7c b9 fd 17 c5 bb
       -0.0014902254 -0.0026032322 -0.00024062413 -0.0060148225
000050 5d f7 8a 3b 0f 81 fa ba 05 14 4b bb 9a c7 6b ba
       0.004240914 -0.0019111949 -0.0030987274 -0.00089942815
000060 ed db a1 bb 04 02 70 bb 79 b1 3e 3a 3c 60 64 3a
       -0.0049395473 -0.0036622295 0.00072743703 0.000871185
000070 04 28 c8 3a 98 39 01 39 07 cd 86 39 a1 42 59 3a
       0.0015270715 0.00012323854 0.0002571123 0.00082878215
000080 3d 2e 24 bb 77 f3 44 bb b6 50 29 ba 1a 47 2d bb
       -0.0025051974 -0.0030052343 -0.0006458865 -0.0026440085
000090 44 1d a9 3b c2 c5 83 3a b2 de a8 b9 3f 97 60 bb
       0.0051609594 0.0010053443 -0.00032209378 -0.0034269837
0000a0 cc ed 40 bb 35 69 83 ba 65 3c 14 bb 3f 82 95 bb
       -0.0029438613 -0.0010025861 -0.0022619006 -0.0045626457
0000b0 c1 d0 54 bb c5 7b 8a 3a 4a 5d b7 3a 33 df bc b9
       -0.003247306 0.0010565451 0.0013989594 -0.0003602445
0000c0 3a ed 0b bb a3 11 26 ba 3a 31 0e bb d0 67 3f bb
       -0.0021351115 -0.00063350255 -0.0021696822 -0.0029206164
0000d0 23 80 85 bb 8e 5f 65 38 21 f4 ec ba 66 7b 02 ba
       -0.004074113 5.4686847e-05 -0.0018078127 -0.0004977494
0000e0 c4 3a 33 39 81 20 47 3a 89 2b 1a 3b ee 9a 96 3b
       0.00017092662 0.0007596091 0.0023524484 0.004596106
0000f0 f5 e5 a3 3b 84 93 3e 3b c3 fd 1a 3b dd 39 9c 3b
       0.0050017782 0.0029079625 0.002364979 0.00476764
000100 b2 02 05 bb e1 7d 44 ba 43 a7 90 3a e5 cb eb ba
       -0.0020295796 -0.0007495564 0.0011036176 -0.0017989842
000110 86 f2 fd ba f9 96 07 bb 83 3f 4f ba 7c 45 85 3a
       -0.0019374646 -0.0020689352 -0.00079058873 0.0010167803

exp_avg_sq f4 [8, 3, 3]
000000 50 4b 10 3a 6f c5 0c 3a d8 f1 0b 39 9d 19 47 3a
       0.00055043865 0.0005369996 0.00013346167 0.0007595064
000010 00 57 3a 3a bc 6f 2f 39 6a 31 1f 3a 91 21 21 3a
       0.0007108301 0.00016730925 0.0006072732 0.00061466644
000020 f4 8b 18 39 f9 fe a7 38 25 7a 5c 39 18 29 e5 38
       0.00014547986 8.010673e-05 0.00021026337 0.00010927225
000030 81 bb a0 38 76 3d 5e 39 5f ba 26 39 64 71 a4 38
       7.66432e-05 0.00021194466 0.00015900422 7.84125e-05
000040 e0 00 51 39 83 1e fb 38 1a 56 01 39 23 fc 13 3a
       0.00019932119 0.00011974296 0.00012334474 0.0005645176
000050 40 a1 9b 39 16 aa 06 39 04 d1 64 3a fa df d6 39
       0.00029684044 0.00012842598 0.00087286555 0.00040984136
000060 08 ee e7 38 77 72 16 3a 85 41 bc 39 df 2a bf 38
       0.00011059275 0.00057391025 0.0003590697 9.115575e-05
000070 29 ce 51 38 48 ef 44 38 ef e1 c9 38 e2 58 8c 38
       5.0021485e-05 4.695289e-05 9.62651e-05 6.692276e-05
000080 36 8e 72 38 0a d4 a5 38 03 60 72 38 de fd 3b 38
       5.782974e-05 7.9073085e-05 5.7786714e-05 4.4820707e-05
000090 2b 98 06 39 26 30 10 39 fe 94 36 39 85 da 17 39
       0.00012835923 0.00013750847 0.00017412376 0.00014481887
0000a0 f9 41 21 39 46 f0 3c 39 61 b0 26 39 86 05 1a 39
       0.00015378733 0.00018018586 0.000158967 0.00014688642
0000b0 9d 2f 4b 39 cf a4 31 38 c2 69 1f 38 4d cf d8 38
       0.00019377326 4.235358e-05 3.800705e-05 0.000103382954
0000c0 fd bc 69 38 a0 3b 66 38 a1 94 04 39 e9 45 5c 38
       5.5727538e-05 5.4891803e-05 0.0001264387 5.2517196e-05
0000d0 55 16 44 38 49 2c cd 38 04 d3 64 38 0f 13 7e 38
       4.675084e-05 9.7834105e-05 5.455596e-05 6.057607e-05
0000e0 23 86 5a 38 ac 54 80 38 17 8c 97 38 3b c7 c0 38
       5.2100175e-05 6.119287e-05 7.226335e-05 9.192383e-05
0000f0 01 8a 81 38 1c bb 8e 38 5a ba 7c 38 94 8f 83 39
       6.1769046e-05 6.8059395e-05 6.0255035e-05 0.0002509324
000100 4f 8a 62 39 6e c8 5b 38 39 07 ae 39 96 4f c7 39
       0.00021604564 5.2400334e-05 0.00033193248 0.00038015534
000110 d3 ae 61 38 8f 96 86 39 e2 02 82 39 ef 4a 53 38
       5.3806998e-05 0.00025670647 0.0002479768 5.0376108e-05

exp_avg f4 [8]
000000 76 83 45 ba c5 d2 c5 b9 41 2c 43 3b 2f e6 9c 3a
       -0.0007534543 -0.00037731804 0.0029781016 0.0011970456
000010 ab a5 bb 3a bb 44 23 3a b8 17 ae ba 18 07 5e 38
       0.0014316341 0.0006228198 -0.0013282215 5.293553e-05

exp_avg_sq f4 [8]
000000 c4 97 7a 38 4a ff b3 37 af 8d 80 38 0d 1f c2 37
       5.9745988e-05 2.1457341e-05 6.129906e-05 2.3141061e-05
000010 36 e4 cb 38 55 62 f6 37 fb 99 3a 38 6c 5c df 37
       9.722302e-05 2.9371275e-05 4.448926e-05 2.6626709e-05

exp_avg f4 [16, 8, 3]
000000 f2 78 5b ba 71 f6 dd ba 8c 48 7a ba cd 92 ce 3a
       -0.0008372209 -0.0016934407 -0.00095475535 0.0015760303
000010 10 6a db 3a 23 7b 38 3a b9 a3 1e 3a 60 48 10 39
       0.0016739983 0.0007037392 0.0006051618 0.00013759872
000020 ef 20 4a 3a 4e c7 97 39 d0 ce ce ba bb 68 6c ba
       0.0007710596 0.00028949458 -0.0015778188 -0.00090182916
000030 22 e6 77 3a 9b c5 c6 3a 34 f4 3f 3a 24 75 0a ba
       0.00094565947 0.0015165092 0.0007322461 -0.00052817375
000040 9e 0c 89 ba 48 4b 10 ba ae fe b9 3a 75 c6 51 3a
       -0.0010456031 -0.0005504382 0.001419028 0.00080022897
000050 ab 52 82 3a 37 b8 39 38 79 77 0b 3b f4 30 5c 3a
       0.000994285 4.4279e-05 0.0021280928 0.00083996286
000060 c7 28 a5 3a 00 8a f6 3a 88 32 aa 3a ab c1 a2 ba
       0.0012600654 0.0018809438 0.001298503 -0.0012417337
000070 f2 01 da ba 76 39 c4 ba ee 92 4f 3a 7c cc 16 bb
       -0.001663266 -0.0014970738 0.00079183176 -0.0023010066
000080 d0 2e 40 ba fd 10 0e 3a b1 ca e5 39 8b 43 82 39
       -0.00073311944 0.00054194016 0.000438293 0.00024845856
000090 86 d7 d6 ba 46 34 fe ba 40 42 9c ba 62 a5 86 b9
       -0.0016391135 -0.0019394241 -0.00119216 -0.00025681691
0000a0 7c f0 b7 3a 2c 30 16 b9 66 1d 8e ba a2 cb 2b b8
       0.0014033462 -0.0001432306 -0.0010842502 -4.0959225e-05
0000b0 32 4c b8 ba a1 4a ec 38 02 1e 4e bb 51 fd cf b9
       -0.0014060794 0.00011267258 -0.0031450992 -0.00039670852
0000c0 09 32 3a b8 ac 13 19 ba 90 10 b3 3a 48 bb 21 3a
       -4.4392455e-05 -0.0005839418 0.0013661552 0.00061695697
0000d0 63 4b d6 ba ee 15 c5 39 10 d3 5c ba 61 e8 d0 3a
       -0.0016349371 0.00037591107 -0.0008423785 0.0015938395
0000e0 92 34 86 ba ab 3e 8d ba 1d a5 58 39 e5 ca 3e 3a
       -0.0010239056 -0.0010776123 0.00020660875 0.00072781584
0000f0 b6 7f d0 b9 7c 3a ad b9 48 55 a5 ba 73 44 19 ba
       -0.00039768004 -0.00033040706 -0.0012613917 -0.00058466865
000100 19 7e d2 ba e8 af bd 3a 5f 4d 97 37 60 8f 0b ba
       -0.0016059309 0.001447198 1.8036631e-05 -0.0005323794
000110 dd 12 9f 3a db 93 65 3a c6 57 33 3b 64 cf 36 bb
       0.0012136359 0.0008757689 0.002736555 -0.002789461
000120 e9 8c 21 b8 44 76 66 ba 87 8e 88 ba 27 40 cf 3a
       -3.8516624e-05 -0.00087914267 -0.0010418453 0.0015811966
000130 dd f8 bf 3a fd ac 8a 39 58 8d ed 39 de b0 27 3a
       0.0014646311 0.00026450297 0.00045309472 0.00063968997
000140 97 0c 88 3a b6 3f 5a 3a 40 bc aa ba cc 5d 10 ba
       0.0010379729 0.00083255337 -0.0013026074 -0.0005507141
000150 18 a4 5d 39 7b a2 70 3a 17 eb 3c 39 80 a3 fe b9
       0.00021137332 0.0009179485 0.00018016655 -0.00048568472
000160 8a d3 19 ba e8 41 82 ba 77 c9 5d 3a b3 d4 63 3a
       -0.00058680086 -0.0009937854 0.00084605016 0.00086910574
000170 c1 15 93 3a 6b 5b cd b9 47 9f 2e 3a c9 61 76 3a
       0.0011221693 -0.0003916876 0.00066613074 0.00093987264
000180 de 36 8a 39 69 80 3e ba 7c a2 2a ba de 66 bd 39
       0.0002636229 -0.00072670594 -0.00065091974 0.0003612553
000190 27 4e 0d 35 ad 4a f1 b9 36 49 0a bb 86 c6 a2 3a
       5.264032e-07 -0.0004602274 -0.0021100766 0.0012418784
0001a0 85 90 cf 3a 37 8f 36 ba 0a ac 00 b9 d0 2a 33 3a
       0.0015835917 -0.00069640897 -0.00012271121 0.00068346877
0001b0 a4 58 5e 3a af 25 18 3a b0 74 8d 3a a1 ca cb 39
       0.00084818364 0.0005803955 0.0010792222 0.00038870148
0001c0 6d 22 b0 ba 6b 88 f8 b9 67 92 9c 3a c7 90 bf ba
       -0.0013437994 -0.00047403885 0.0011945487 -0.001461529
0001d0 26 37 30 39 e5 9a cd ba 7a 81 5c 3b d2 ea b4 3a
       0.00016805212 -0.0015686421 0.003364651 0.0013802892
0001e0 5f b0 f3 ba 36 0e 4d bb 0e 13 04 bb 5f d5 ea 3a
       -0.0018591991 -0.0031288988 -0.002015296 0.0017916373
0001f0 fc 19 ed 3a 58 0f 61 3a 53 ef 89 ba 49 6e 06 3a
       0.0018089409 0.0008585355 -0.0010523595 0.0005128128
000200 9a b6 25 3a e6 fb 8c b9 ea 77 8c ba d4 73 2e ba
       0.000632146 -0.0002689056 -0.001071689 -0.0006654833
000210 55 e2 15 3b fb 2f 4b 3b f6 ef 0d 3b a6 bc 0d b9
       0.00228705 0.003100394 0.002165792 -0.00013517085
000220 59 fb 2e ba 59 66 52 ba 34 9d 45 3a ff 8f db 3a
       -0.0006675027 -0.0008026115 0.00075383787 0.0016751288
000230 79 d2 bb 3a ac 74 78 3a 3e 68 3f 3b 3f 5b 12 3b
       0.0014329694 0.00094778347 0.002920642 0.002233222
000240 c0 ee 4b bb 0a 1f 55 bb 26 04 16 bb 43 2f 2e 3b
       -0.0031117648 -0.0032519721 -0.0022890656 0.0026578463
000250 ec 6b a0 3a 46 55 16 3b 4b d0 f2 39 42 b2 74 3a
       0.0012239194 0.002293901 0.00046313027 0.0009334424
000260 bd e4 9c ba a8 1e 0b bb 87 3a 9e ba 22 63 3e ba
       -0.0011970025 -0.002122799 -0.0012071886 -0.0007262697
000270 74 33 2f 3b ee 37 44 3b aa 97 3d 3b b5 02 ca ba
       0.002673355 0.0029940563 0.002892951 -0.0015412184
000280 92 0a 93 ba 5b 23 3d 39 18 1b d1 3a 0f e4 19 3b
       -0.001121836 0.00018037616 0.0015953509 0.002348188
000290 76 9f fb 3a 0a 15 42 3b 0f ae 21 3b 37 38 4a 3a
       0.0019197303 0.002961459 0.0024670397 0.0007714065
0002a0 bf a5 9c ba da cd 60 ba b9 c8 fc ba dc f4 e0 3a
       -0.0011951252 -0.0008575596 -0.0019285894 0.0017162818
0002b0 45 8f 97 3a 0a b7 37 3a f6 79 96 3a 11 51 c4 ba
       0.0011563083 0.0007008171 0.0011480439 -0.0014977773
0002c0 9a b7 23 ba 88 ac ae ba 86 9d 8b ba d2 28 d8 b9
       -0.00062453153 -0.0013326565 -0.0010651804 -0.00041229144
0002d0 56 74 52 3a 67 dc d1 38 48 03 a8 3a 39 96 41 ba
       0.00080281997 0.0001000695 0.0012818361 -0.00073847506
0002e0 c2 42 20 39 38 29 6d 39 ac 3c ef 3a 23 84 ac 3a
       0.00015283658 0.00022617436 0.0018252335 0.0013161938
0002f0 e0 93 2c ba a1 ff 30 3a 87 d7 93 ba 4d 96 bd 3a
       -0.00065833144 0.0006751959 -0.0011279442 0.0014464349
000300 9e 60 29 bb 7f f4 c4 ba 72 84 4d bb 2c b2 ad 3a
       -0.0025844942 -0.0015026479 -0.003135946 0.0013251952
000310 54 cc 1a 3b be 3e 2b 3b 49 c2 0c 3b d0 4e a1 ba
       0.0023620324 0.0026129927 0.0021478108 -0.0012306813
000320 22 64 bf b9 15 39 7e ba cc 39 4e ba fc 64 8e ba
       -0.00036504964 -0.0009697837 -0.0007866889 -0.0010863836
000330 b4 e0 f6 3a c0 c3 10 3b 7f ec 3a 3b 43 7e c0 ba
       0.0018835277 0.0022089332 0.002852231 -0.0014686066
000340 09 e5 44 3a c2 84 84 b9 18 56 d3 3a d3 94 ce 3a
       0.00075109355 -0.00025275914 0.001612368 0.0015760906
000350 52 c3 3f 3a 5a da 3c 3b be 8b d1 b9 99 3c 10 3b
       0.0007315177 0.002881667 -0.00039967702 0.0022008775
000360 27 bb 47 ba b8 7b 04 ba 59 48 cd b9 d7 38 86 3a
       -0.00076191354 -0.0005053836 -0.0003915455 0.0010240328
000370 eb c0 b6 37 c1 e7 d8 39 35 97 91 39 83 39 8d b9
       2.1785925e-05 0.000413714 0.00027769213 -0.00026936465
000380 de 70 ab ba ac c8 9b ba 80 6f 84 b9 b5 cc 72 ba
       -0.0013079902 -0.0011885366 -0.00025260076 -0.0009262071
000390 5d 05 f4 39 11 85 3b 3a ee 37 43 3a bd ec 1a ba
       0.00046543303 0.00071533123 0.0007446994 -0.00059099105
0003a0 5b 34 a3 b8 5a 12 38 3a c2 04 ce 3a 7c 73 64 38
       -7.782198e-05 0.00070217776 0.0015717971 5.446699e-05
0003b0 1b b9 bd 38 b9 68 88 3a 48 8c 9d 39 b1 d1 7f ba
       9.046701e-05 0.0010407186 0.0003004989 -0.00097587245
0003c0 86 66 6f 3a 44 a7 97 39 03 be ae b7 a4 d9 98 ba
       0.00091324036 0.00028925587 -2.0830897e-05 -0.0011661542
0003d0 2a c4 f2 b7 c8 54 59 ba de 90 16 ba 62 30 25 ba
       -2.8939994e-05 -0.00082905265 -0.0005743633 -0.000630146
0003e0 2a 12 79 3a 91 04 f3 39 15 44 81 b9 04 11 3c 3a
       0.0009501303 0.00046351974 -0.00024655522 0.00071741664
0003f0 ab dc 53 ba 7f f0 06 ba a1 73 04 b9 e7 95 0a 38
       -0.00080818933 -0.0005147531 -0.00012631576 3.304137e-05

exp_avg_sq f4 [16, 8, 3]
000000 fc 60 15 39 a6 87 d9 38 3d cb 81 38 88 a4 1a 38
       0.00014245877 0.00010372633 6.1890554e-05 3.6869693e-05
000010 a0 3e 15 38 a3 a3 8b 38 f2 68 98 38 65 52 98 38
       3.5582692e-05 6.658516e-05 7.2674724e-05 7.263272e-05
000020 9c f9 24 39 92 1f a8 37 41 a2 81 38 62 27 78 38
       0.00015733246 2.0041862e-05 6.1814215e-05 5.9164486e-05
000030 98 b1 11 38 31 4b 94 38 d0 5d 3c 38 3b 4d a6 38
       3.473609e-05 7.0711954e-05 4.4910063e-05 7.929882e-05
000040 c7 bc 21 38 28 96 c5 37 c1 b0 3b 38 69 e9 44 38
       3.8561204e-05 2.3554152e-05 4.474889e-05 4.694742e-05
000050 c3 f0 c4 37 d6 6b ee 38 a6 d1 5b 38 6b 6b 8e 38
       2.3477134e-05 0.000113688104 5.240892e-05 6.791096e-05
000060 0a 37 1a 38 c8 a6 0f 39 b8 3e b0 37 37 bd 5f 38
       3.676772e-05 0.00013699674 2.101004e-05 5.3343563e-05
000070 3d cd 9b 37 d5 01 c4 37 59 8a d9 38 59 b6 d6 37
       1.8573011e-05 2.3365874e-05 0.000103731356 2.55957e-05
000080 08 ec 61 38 da 48 d9 37 50 a9 7d 37 68 2c 2e 38
       5.3864e-05 2.590234e-05 1.5119396e-05 4.152619e-05
000090 99 a3 0a 38 fe ce 80 38 03 fe d0 37 6b ee bf 37
       3.3054126e-05 6.142071e-05 2.4913816e-05 2.2879996e-05
0000a0 0d 30 2b 38 63 ea 08 38 f2 b3 9d 37 c4 e2 00 38
       4.0814328e-05 3.2643216e-05 1.8799652e-05 3.072877e-05
0000b0 34 2d c5 37 33 42 36 38 7a 82 bf 38 66 cb 79 37
       2.350528e-05 4.3453834e-05 9.131893e-05 1.4888914e-05
0000c0 0d ea d3 37 f7 ba 08 39 07 f0 62 39 f7 e4 63 38
       2.5262148e-05 0.0001303962 0.00021642457 5.4334258e-05
0000d0 c4 53 a0 38 a2 25 a0 37 fd 63 17 39 b1 e8 3a 39
       7.644997e-05 1.909101e-05 0.0001443773 0.00017825027
0000e0 43 83 fc 37 71 37 c5 38 02 2a 0f 38 66 1e 23 38
       3.0101864e-05 9.404019e-05 3.413298e-05 3.889054e-05
0000f0 6e 78 7b 37 a8 14 a6 37 a5 a0 3d 38 50 5e 01 38
       1.4988806e-05 1.979836e-05 4.5210723e-05 3.0843832e-05
000100 6a cf 22 38 42 b7 93 38 a3 ac 28 38 a6 49 00 38
       3.881698e-05 7.043641e-05 4.02151e-05 3.058617e-05
000110 8d 9d 6c 38 bd ab b8 37 79 9c 0a 39 b4 fd 05 39
       5.6413515e-05 2.2014481e-05 0.00013218996 0.0001277838
000120 1f 9d 6c 38 dd 9f 80 38 c9 18 3c 37 c2 a9 b7 37
       5.6413115e-05 6.1332925e-05 1.1211444e-05 2.189435e-05
000130 c0 bb 49 37 a1 c2 cc 37 07 97 31 38 c6 f7 76 37
       1.2024248e-05 2.4409326e-05 4.2340744e-05 1.4720432e-05
000140 42 7e 86 38 59 1a 17 37 bd e1 a7 37 17 9a e8 37
       6.413135e-05 9.006436e-06 2.0013069e-05 2.7728309e-05
000150 27 27 7d 37 1a 4c fd 37 1a 7d 62 37 66 14 cc 37
       1.5089091e-05 3.0195388e-05 1.3499777e-05 2.4328194e-05
000160 9f dd c9 37 01 a8 4b 37 15 a8 8d 37 8f 06 ce 37
       2.4064268e-05 1.2138859e-05 1.688678e-05 2.4560168e-05
000170 2d f0 41 37 4b ca 4f 38 a0 43 03 38 f8 b5 78 37
       1.1559617e-05 4.9541046e-05 3.1295815e-05 1.482432e-05
000180 6a 58 32 39 9c fc 8a 39 23 1b c2 37 01 9e c5 38
       0.0001700834 0.0002650962 2.3139239e-05 9.4231225e-05
000190 a4 85 bf 37 b0 86 9c 38 ea 79 5e 39 4f 37 05 38
       2.2831206e-05 7.463747e-05 0.00021216986 3.176118e-05
0001a0 f7 c3 47 39 19 59 26 38 d7 ce 55 38 2a 79 e5 38
       0.00019051121 3.9660463e-05 5.0975792e-05 0.000109421395
0001b0 12 e7 11 38 c8 8a 8f 38 25 a5 ac 37 63 be 6d 38
       3.4785895e-05 6.8446214e-05 2.05809e-05 5.6682515e-05
0001c0 04 71 c2 38 7d 98 0c 38 d8 51 22 38 75 fc 97 38
       9.271692e-05 3.3520617e-05 3.8700033e-05 7.247265e-05
0001d0 a2 a2 40 38 db 4b 33 39 9e 98 21 39 41 67 b6 37
       4.592783e-05 0.00017099029 0.00015411011 2.1744172e-05
0001e0 06 3f a9 37 99 29 24 38 a5 f0 a9 37 37 aa d6 37
       2.0175718e-05 3.9139388e-05 2.0258429e-05 2.559005e-05
0001f0 23 0c b0 37 f6 38 a9 37 8a 1e 0c 38 e8 aa cd 37
       2.0986487e-05 2.0172894e-05 3.3407043e-05 2.4517489e-05
000200 83 e8 bf 37 49 7e 46 37 68 e6 3d 37 f6 b1 53 37
       2.2877246e-05 1.1831123e-05 1.13189235e-05 1.2618015e-05
000210 b6 09 37 38 0e ec 64 38 43 14 34 38 f5 d9 cb 37
       4.3639644e-05 5.457928e-05 4.2934214e-05 2.430098e-05
000220 6c f6 c3 37 ef b7 ca 37 d7 30 71 37 0e 3e 85 37
       2.336056e-05 2.4165927e-05 1.4376091e-05 1.5883732e-05
000230 5b f4 56 37 59 61 9f 37 89 e4 e9 37 1e ff 9d 37
       1.2812287e-05 1.8999608e-05 2.7882184e-05 1.8834657e-05
000240 22 e9 03 39 ae 21 f2 37 8c ff 51 38 bb 2f 31 38
       0.00012579982 2.8864331e-05 5.006748e-05 4.224454e-05
000250 86 06 46 38 18 fd 85 38 d2 05 25 38 bf c6 99 38
       4.7212954e-05 6.3890766e-05 3.9344486e-05 7.332628e-05
000260 a8 85 be 38 f4 03 e0 37 6d 94 24 38 11 72 b7 37
       9.0848014e-05 2.6704722e-05 3.923888e-05 2.1868416e-05
000270 a1 1e 0b 39 ab e2 b3 38 07 08 b9 38 ed df 5f 38
       0.00013267483 8.577605e-05 8.8229826e-05 5.337589e-05
000280 65 f8 4e 38 20 ba 67 38 7c e2 19 38 24 61 d4 37
       4.9345563e-05 5.5248034e-05 3.6688973e-05 2.5317604e-05
000290 ab 42 f5 37 d9 08 9c 38 0e f6 f3 37 ab c9 5b 38
       2.923732e-05 7.440308e-05 2.9082436e-05 5.2401487e-05
0002a0 e5 58 b3 37 a9 dc 9c 38 e9 44 a0 38 64 c9 22 38
       2.1379858e-05 7.479761e-05 7.64223e-05 3.881137e-05
0002b0 80 6a 29 38 a0 91 d2 37 fa 49 b1 38 46 66 8c 38
       4.0391926e-05 2.5101763e-05 8.453797e-05 6.69477e-05
0002c0 f5 97 07 38 00 19 16 38 6a 65 7e 37 27 7c f7 37
       3.232803e-05 3.578607e-05 1.5163192e-05 2.9502507e-05
0002d0 f1 95 0e 38 b2 fe 00 38 d6 c4 5b 38 02 61 d0 37
       3.3995082e-05 3.075478e-05 5.2396987e-05 2.4840705e-05
0002e0 de 99 29 38 b4 1a 10 38 9d 1f 95 37 32 c2 d3 37
       4.043604e-05 3.4357145e-05 1.7776905e-05 2.524359e-05
0002f0 b4 ee e4 37 b7 9a d6 37 8e 62 8e 38 c3 c7 37 38
       2.7290873e-05 2.5582833e-05 6.789445e-05 4.3816643e-05
000300 e8 5c dd 38 25 7c 0a 39 0e 6e d5 38 37 b8 9a 38
       0.00010555406 0.00013206953 0.00010177131 7.377605e-05
000310 4f d6 60 38 a0 77 88 38 5d 92 10 39 60 5d 97 38
       5.3605352e-05 6.507267e-05 0.00013787435 7.2176335e-05
000320 b0 93 d3 38 e4 55 47 38 8a 52 d2 37 0c bf 8b 38
       0.00010088773 4.752529e-05 2.5072386e-05 6.663622e-05
000330 77 91 d5 38 90 92 93 38 80 13 ff 38 31 1b 40 38
       0.000101837264 7.0368056e-05 0.0001216298 4.580169e-05
000340 de 54 ce 38 af d1 5b 38 d4 1d d8 37 cc 71 5e 38
       9.838653e-05 5.2408952e-05 2.5763096e-05 5.3034906e-05
000350 00 b7 57 38 6c 25 c9 38 d5 04 db 38 92 7a 60 38
       5.1430427e-05 9.591397e-05 0.00010443634 5.3519914e-05
000360 48 8a 5f 37 9f 6f ec 37 3b 88 40 37 12 0c 97 37
       1.3324032e-05 2.818537e-05 1.147581e-05 1.8006223e-05
000370 54 22 51 37 88 6c 73 37 ae 8b e8 37 c3 58 aa 37
       1.2465363e-05 1.4509198e-05 2.7721599e-05 2.0306912e-05
000380 90 a4 ac 37 e2 91 20 37 7e 4f 1c 37 1f be 6c 37
       2.0580628e-05 9.570709e-06 9.316833e-06 1.4110962e-05
000390 cf a7 ca 37 e9 26 c6 37 fb 2c 9f 37 86 9e 96 37
       2.4158418e-05 2.3621558e-05 1.8975223e-05 1.7955212e-05
0003a0 61 b5 5b 37 c8 21 94 37 98 67 3c 37 76 b9 3d 37
       1.3095648e-05 1.7658705e-05 1.1229793e-05 1.1308459e-05
0003b0 dc 9d 37 37 77 24 5c 37 80 ec c8 37 c2 4f 44 37
       1.09444045e-05 1.3121512e-05 2.3951987e-05 1.170108e-05
0003c0 a0 10 05 38 eb f3 2f 37 69 32 11 38 e8 50 f0 36
       3.1725154e-05 1.0487604e-05 3.4617642e-05 7.161976e-06
0003d0 6b fa 73 37 5a cf 62 37 3d ba 2d 37 c9 92 17 38
       1.4542234e-05 1.35189275e-05 1.03549655e-05 3.613791e-05
0003e0 32 5e cb 37 98 91 57 37 f3 55 82 37 e4 a4 ec 36
       2.4243349e-05 1.2848897e-05 1.553723e-05 7.052544e-06
0003f0 79 d0 3d 37 29 78 ce 36 8a 49 f7 36 88 41 72 37
       1.1313817e-05 6.153267e-06 7.3697347e-06 1.4439582e-05

exp_avg f4 [16]
000000 d5 11 f8 3a 9a 29 1a ba 9a 57 15 3a b2 af 99 39
       0.0018926213 -0.0005880833 0.00056969526 0.00029313337
000010 e7 b0 06 3a 62 16 2a 3b 07 e4 18 3b c8 e0 a4 3a
       0.0005138055 0.0025953283 0.0023329274 0.0012579197
000020 59 f8 ec 3a 67 0e 71 3a a4 9b b1 b9 16 df 29 bb
       0.0018079384 0.00091955665 -0.00033876032 -0.0025920323
000030 06 9c 56 ba 80 62 0c ba c7 41 82 3a 89 78 0a ba
       -0.00081867015 -0.0005355254 0.0009937816 -0.00052822434

exp_avg_sq f4 [16]
000000 25 f7 1b 38 7b da f6 37 c4 ca 86 37 7d 68 80 37
       3.718505e-05 2.9427223e-05 1.6068465e-05 1.5307445e-05
000010 18 dc d9 37 8f b7 2e 38 76 94 c2 38 1e 23 e4 37
       2.5970905e-05 4.1655785e-05 9.278294e-05 2.719607e-05
000020 00 20 ae 38 c3 a9 81 37 0c b4 f9 36 6c 2d cd 38
       8.302927e-05 1.545705e-05 7.4417385e-06 9.783622e-05
000030 68 83 2e 37 67 a5 94 37 ec 92 b5 37 1c 6b e1 37
       1.0401804e-05 1.7719996e-05 2.1645297e-05 2.6871967e-05

exp_avg f4 [32, 16, 3]
000000 76 8e 51 3a 9c 6f 6e 3a a0 ad 90 3a 8f 8f 0c 39
       0.00079939456 0.00090956106 0.0011038072 0.0001340492
000010 17 c5 95 b9 a6 75 05 ba 59 3b 52 36 cc 77 b0 b9
       -0.00028566338 -0.00050910783 3.1326983e-06 -0.00033658592
000020 7c ea 8c b9 41 7f 0d b7 42 37 43 ba f0 95 0d b8
       -0.00026877585 -8.4338835e-06 -0.0007446894 -3.375666e-05
000030 e2 81 41 ba 5a 45 23 ba 6f 15 b6 37 88 cc d8 39
       -0.000738172 -0.0006228291 2.1706071e-05 0.00041351118
000040 3c 28 71 b9 2d 58 00 39 aa fc 85 b9 10 74 35 b9
       -0.0002299854 0.0001223988 -0.00025555986 -0.00017304742
000050 d3 20 b4 b9 79 81 83 39 a7 91 16 38 2d 67 9b 38
       -0.0003435673 0.00025082732 3.5898436e-05 7.410194e-05
000060 ae f0 39 ba 3f 13 6f ba f0 f3 8c ba 63 9e 73 37
       -0.0007093054 -0.00091199944 -0.0010753851 1.4520806e-05
000070 4b b9 b0 39 d3 57 55 3a 1e 95 8c 36 6a 04 81 b9
       0.0003370739 0.0008138392 4.1896847e-06 -0.00024608086
000080 2f 53 e6 b9 f3 23 6c b6 4b 81 96 3a 25 ab 17 3a
       -0.00043930995 -3.5187666e-06 0.0011482624 0.00057856954
000090 f3 93 38 b8 a4 b5 f5 39 6c bc 02 3a 11 01 c4 ba
       -4.4006807e-05 0.00046865374 0.00049871835 -0.0014953931
0000a0 92 db 95 ba e2 89 44 ba 2f 08 53 39 3f 60 a7 b9
       -0.0011433235 -0.0007497353 0.00020125577 -0.0003192443
0000b0 56 d8 2c ba b8 57 52 38 44 07 99 39 4d f9 21 3a
       -0.0006593516 5.0149596e-05 0.00029187847 0.00061788113
0000c0 62 c2 66 39 d5 f9 6d 3a 03 5a 28 3a 5a 1e 4b 39
       0.00022006923 0.00090780604 0.0006422104 0.00019370895
0000d0 5a 69 7c 38 7d 44 ec b9 d8 82 a7 b8 21 48 16 ba
       6.01796e-05 -0.00045064455 -7.987552e-05 -0.0005732794
0000e0 20 01 b7 b9 0d e2 df b9 52 c6 84 ba 27 7f 84 b8
       -0.00034905318 -0.00042702295 -0.0010129905 -6.3179345e-05
0000f0 d5 d0 60 ba a5 a9 80 ba e1 04 50 3a c7 9d 7c 3a
       -0.000857604 -0.0009816183 0.00079352973 0.0009636548
000100 00 d5 3a ba 78 d1 b1 38 7a 27 4b b9 8f 92 15 ba
       -0.00071270764 8.479034e-05 -0.00019374295 -0.0005705738
000110 4e 7b 29 ba d4 73 1a 39 46 53 b7 b7 16 f0 2f b9
       -0.0006465212 0.00014729734 -2.1854077e-05 -0.0001677874
000120 a8 fa 3f ba e1 6a 68 ba 79 6d 9c ba d7 0a 1b 38
       -0.00073234225 -0.0008866024 -0.0011934481 3.6964975e-05
000130 c9 b7 20 3a b8 c4 0c 3a d8 46 11 b9 95 27 a5 b9
       0.0006130902 0.00053698895 -0.00013854669 -0.00031500743
000140 da d2 78 b8 40 c0 eb b9 0b 48 d9 3a b8 32 2b 3a
       -5.932418e-05 -0.0004496593 0.0016577257 0.000653069
000150 ac 27 14 ba 4f 87 2f 3a 51 01 25 3a 14 a7 0c bb
       -0.00056516635 0.0006695883 0.00062944466 -0.002146189
000160 38 ed 9d ba cf 7a 1b 39 08 60 27 3a 69 dd 11 38
       -0.0012048846 0.00014827702 0.0006384854 3.47769e-05
000170 b0 a9 96 ba 45 5c 86 b9 89 51 8c 39 4e a1 5e 3a
       -0.0011494663 -0.00025627218 0.0002676363 0.0008492664
000180 b1 e5 54 ba 3b 98 26 ba e9 a2 60 39 52 88 a8 b6
       -0.0008121385 -0.00063550816 0.00021422993 -5.02266e-06
000190 1c 3c 6a 3a 70 be 38 b8 d3 e0 4e 38 c8 ee 4c ba
       0.00089353486 -4.4046377e-05 4.932361e-05 -0.00078175636
0001a0 16 ff 13 ba 6b 8e 0b ba 57 c9 95 ba 25 80 be b9
       -0.0005645616 -0.0005323651 -0.0011427802 -0.000363351
0001b0 51 fa c5 ba a8 ed cd ba 18 b8 b5 b9 3a 33 be b9
       -0.0015104507 -0.0015711086 -0.0003466017 -0.0003627779
0001c0 2d 96 87 ba 17 d6 ad b9 1b 2f a6 b8 1f 8a 1f b9
       -0.0010344438 -0.0003315664 -7.924271e-05 -0.00015214876
0001d0 86 ba 57 ba b7 87 99 39 84 15 d3 b9 26 3f 40 b9
       -0.0008229393 0.0002928355 -0.00040261087 -0.00018334072
0001e0 4b 13 6e b8 66 c7 9a 39 27 85 a7 ba 80 2b a8 39
       -5.676159e-05 0.00029521732 -0.0012780771 0.00032075867
0001f0 ac 46 cb b9 23 46 a0 38 bd c1 81 b9 48 3b 4d b9
       -0.00038771832 7.6424585e-05 -0.00024749144 -0.00019572407
000200 45 b9 d2 b9 59 32 fb 39 17 65 fe 3a ce a4 ae 3a
       -0.00040192358 0.00047911963 0.0019408789 0.0013324262
000210 14 9d 00 ba e4 40 0c 3a c7 3d cc 38 64 8c 9a ba
       -0.0004906219 0.00053502456 9.738985e-05 -0.0011791107
000220 cf 92 d3 ba bd 52 c4 38 6a 95 85 3a a6 d3 8c b8
       -0.0016141775 9.3614195e-05 0.0010191624 -6.715143e-05
000230 45 d9 0e ba f3 4a e4 b9 b8 50 20 ba 5f b1 30 39
       -0.0005449246 -0.0004354339 -0.00061155437 0.00016850744
000240 89 78 47 b8 f6 f4 02 bb 0e ff 93 ba 57 ea a4 b9
       -4.7557554e-05 -0.0019982434 -0.0011291222 -0.00031455114
000250 b7 3e 3e 38 48 86 9f 3a 1c 44 d5 39 ed 70 96 3a
       4.5357938e-05 0.0012170756 0.0004067727 0.0011477746
000260 0d 30 53 3a 0a 29 bc 3a 31 cd ed 3a 53 5e b2 39
       0.00080561714 0.0014355492 0.0018142817 0.00034021083
000270 b9 cb 1d 3b 3e bc f7 3a db c4 05 39 3e a0 af b9
       0.0024077727 0.0018900705 0.00012757203 -0.0003349799
000280 b0 90 f9 3a 4e e8 08 ba 15 ad f4 b7 83 bb 38 3a
       0.0019040313 -0.00052226044 -2.9167664e-05 0.00070469844
000290 fb 91 99 3a f7 06 8e 38 6b 3a 10 38 9e 70 1a 3a
       0.0011716479 6.772385e-05 3.438668e-05 0.0005891415
0002a0 88 2d a9 3a 06 20 94 3a 87 54 1c 3b 5a e3 0c 39
       0.0012907246 0.0011301048 0.0023854093 0.00013436135
0002b0 23 5a 5c ba 20 d3 49 ba 77 9f e3 39 c2 57 28 3a
       -0.00084057654 -0.00076990016 0.00043415625 0.00064217683
0002c0 45 9d 47 3a 8e 19 85 b9 c3 8a 53 bb 2b 73 bb ba
       0.00076146825 -0.00025386777 -0.0032278753 -0.001430129
0002d0 dd 98 fd 39 a9 99 8f ba 31 63 de b9 cc 28 7c 3b
       0.00048369812 -0.0010955828 -0.00042417043 0.0038476465
0002e0 25 ab 35 3b 64 90 f1 39 5f 74 95 ba ba 30 43 39
       0.0027720418 0.0004607468 -0.0011402479 0.00018614801
0002f0 5d 9a db 3a 0e ab a5 39 e5 40 0a ba 79 2e 97 ba
       0.0016754378 0.00031598698 -0.0005273952 -0.0011534236
000300 b6 25 38 ba 7a c7 8f ba ab 25 69 b8 d9 f8 0d 39
       -0.00070246623 -0.0010969483 -5.558661e-05 0.00013539511
000310 90 b6 85 3a 8a f7 0d 3a 02 55 9d 39 3e 34 3d b9
       0.0010201503 0.00054156093 0.0003000871 -0.00018043906
000320 de 88 9b b9 33 5b 7d b8 81 61 0f ba 49 2d ae b9
       -0.00029665878 -6.0404836e-05 -0.00054695463 -0.00033221606
000330 c0 19 1d ba e5 29 26 ba 9b a4 0b 39 4c 50 f1 b9
       -0.0005992912 -0.000633864 0.00013317393 -0.00046026928
000340 5c 65 8b ba 5d dc d8 b9 f3 7f 84 38 5d 92 39 b9
       -0.0010635066 -0.00041362914 6.318083e-05 -0.000176975
000350 46 60 21 ba b2 d5 67 39 e8 c1 a8 b8 71 f4 44 b9
       -0.00061560085 0.00022109484 -8.046982e-05 -0.00018783078
000360 49 80 36 33 0b 00 d5 39 7e 95 2f ba e9 a2 c4 39
       4.2491852e-08 0.00040626558 -0.0006697996 0.0003750541
000370 78 88 9a b9 05 e0 81 b9 6d 83 15 b8 30 7b 32 39
       -0.00029474846 -0.00024771705 -3.5646768e-05 0.00017021294
000380 dc 66 8e b9 65 9d 29 39 82 b8 92 3a c9 a4 27 3a
       -0.00027160987 0.0001617573 0.0011193904 0.00063950993
000390 2b c5 b0 b9 78 0b 54 39 03 b6 0d 3a 1e 17 40 39
       -0.00033716238 0.00020222168 0.0005405845 0.00018319159
0003a0 20 57 6b ba 25 91 c0 39 ca 53 e1 39 f0 3f 4e 38
       -0.0008977521 0.00036729235 0.00042977772 4.9173774e-05
0003b0 cd 69 22 ba 8c 42 de 38 81 fc 3b b9 50 37 f3 b8
       -0.0006195575 0.0001059818 -0.00017927775 -0.00011597446
0003c0 07 cf 1b ba 02 3b 6a b7 f9 41 f1 b9 3c 3b 75 b8
       -0.000594363 -1.3961226e-05 -0.00046016256 -5.846772e-05
0003d0 c0 ee 0d 39 e1 46 46 b8 1d f8 7b 38 bf 29 3e b9
       0.00013535749 -4.727289e-05 6.0074137e-05 -0.00018135364
0003e0 f0 14 c4 38 24 43 ad b9 b4 a1 b5 b6 14 a6 4e 38
       9.349908e-05 -0.00033047155 -5.413045e-06 4.92689e-05
0003f0 83 4e a4 b8 d1 36 7e b8 9f cb 7e b8 07 89 36 b9
       -7.834753e-05 -6.060937e-05 -6.0747956e-05 -0.00017407919

exp_avg_sq f4 [32, 16, 3]
000000 2b 44 dd 37 b0 f0 34 37 f1 de 18 37 1a 6a 89 36
       2.6376996e-05 1.07848755e-05 9.111814e-06 4.09527e-06
000010 43 b9 00 37 56 e3 d3 36 13 e0 53 36 85 c9 cd 36
       7.672529e-06 6.3147554e-06 3.1571878e-06 6.132936e-06
000020 77 95 54 36 80 11 29 37 d5 4e e1 36 dd c1 05 37
       3.1677462e-06 1.00772595e-05 6.7147e-06 7.972555e-06
000030 33 b6 b9 37 f7 34 77 37 4a 06 11 38 5b 42 7e 37
       2.2138562e-05 1.4734679e-05 3.457655e-05 1.5155029e-05
000040 b1 d7 5e 37 e0 1b a9 36 af 84 8e 36 d6 f6 ed 36
       1.3282451e-05 5.0398376e-06 4.247376e-06 7.091886e-06
000050 81 6a a0 36 10 c3 0f 36 dc 5e 28 36 9b 59 74 36
       4.7807703e-06 2.1422202e-06 2.5089166e-06 3.641099e-06
000060 72 3f 63 36 16 a4 77 36 a8 5b f9 36 64 87 4f 36
       3.3862566e-06 3.6901379e-06 7.4314485e-06 3.0924211e-06
000070 a1 c6 a1 36 d0 17 0d 36 24 bd 04 37 6f 19 bd 35
       4.8212974e-06 2.1024498e-06 7.911851e-06 1.4089e-06
000080 e4 c2 df 36 5c 38 72 37 83 7a fa 37 a8 eb ab 36
       6.668606e-06 1.4437446e-05 2.9859371e-05 5.123631e-06
000090 0f 3f 86 37 e9 a9 06 37 c0 53 b1 36 e7 b0 04 38
       1.6003409e-05 8.026583e-06 5.284761e-06 3.1636006e-05
0000a0 df 33 a0 37 88 e4 42 38 ab 9e 6d 37 d0 f6 84 36
       1.909764e-05 4.646604e-05 1.4163244e-05 3.9626393e-06
0000b0 91 44 dc 37 b1 5d 3e 37 2e 57 6e 36 c3 9a 3d 37
       2.6257972e-05 1.1346697e-05 3.551551e-06 1.1301311e-05
0000c0 f1 4f 0c 38 86 6d 6a 37 6b 4a 3f 37 3f c8 ac 36
       3.3453052e-05 1.3972987e-05 1.1401814e-05 5.149311e-06
0000d0 d8 6a 27 37 3b f4 09 37 f5 f1 82 36 10 fb fc 36
       9.978852e-06 8.222701e-06 3.9024694e-06 7.5394128e-06
0000e0 c7 0f 85 36 e9 18 50 37 86 93 0d 37 7c 03 2c 37
       3.9655456e-06 1.2403566e-05 8.438603e-06 1.025281e-05
0000f0 01 de eb 37 47 4d 9b 37 29 c1 3b 38 49 4f a9 37
       2.8117562e-05 1.8513425e-05 4.476417e-05 2.018329e-05
000100 d5 a0 8f 37 06 99 ca 36 ff 6c ac 36 2c 17 13 37
       1.7121822e-05 6.0378834e-06 5.1386883e-06 8.767278e-06
000110 39 80 c8 36 e9 33 37 36 82 39 49 36 3b 31 92 36
       5.9753916e-06 2.729934e-06 2.9984808e-06 4.3568702e-06
000120 85 c4 92 36 74 2a a0 36 e4 92 1d 37 b5 66 81 36
       4.374017e-06 4.773314e-06 9.39213e-06 3.8564563e-06
000130 3b 57 cb 36 81 b6 34 36 6e b1 33 37 ad a5 e5 35
       6.0600264e-06 2.6928321e-06 1.07105425e-05 1.7110048e-06
000140 08 54 16 37 0f a4 9e 37 7f b1 22 38 aa 4b d0 36
       8.960262e-06 1.8911463e-05 3.8789116e-05 6.2076915e-06
000150 8e 8f af 37 84 01 33 37 9c e7 db 36 5e b9 29 38
       2.0928474e-05 1.0669584e-05 6.5536715e-06 4.0465377e-05
000160 13 ce c4 37 64 af 78 38 01 68 98 37 9a 77 9d 36
       2.3460982e-05 5.9291153e-05 1.8168243e-05 4.692888e-06
000170 42 b8 0a 38 db 46 7d 37 a5 8e 97 36 53 6f 73 37
       3.3073367e-05 1.5096472e-05 4.5167567e-06 1.4509848e-05
000180 26 52 63 37 08 c3 1f 37 a7 56 21 37 00 38 ad 36
       1.3549381e-05 9.522548e-06 9.616523e-06 5.162321e-06
000190 0a 24 09 37 28 5e be 36 95 b3 cd 36 24 5f e6 36
       8.174227e-06 5.6734025e-06 6.130382e-06 6.86561e-06
0001a0 2c f4 a8 36 32 19 e6 36 fb a8 9c 36 4e 14 bc 36
       5.0352155e-06 6.8574673e-06 4.668834e-06 5.6052004e-06
0001b0 0a 67 4c 37 28 dd 31 37 b3 30 5e 37 97 92 2e 37
       1.2183338e-05 1.0601514e-05 1.324357e-05 1.0405339e-05
0001c0 2d b1 3b 37 e0 13 fa 36 3b f5 92 36 16 7c a8 36
       1.11873205e-05 7.4528944e-06 4.3796877e-06 5.0212357e-06
0001d0 93 09 91 36 60 f4 49 36 a7 a4 5e 36 1c e6 83 36
       4.3224513e-06 3.009358e-06 3.3176418e-06 3.9308925e-06
0001e0 1a 3b 74 36 76 b7 76 36 97 4b a0 36 de bd 95 36
       3.6393235e-06 3.6763645e-06 4.7771714e-06 4.4626495e-06
0001f0 f1 9f b0 36 a2 99 74 36 20 1b 99 36 5a 1f ef 35
       5.2638284e-06 3.644826e-06 4.562913e-06 1.7816012e-06
000200 0c 51 51 36 3f 68 0d 37 be 8b 79 37 ee 99 c2 36
       3.1190602e-06 8.428527e-06 1.4874093e-05 5.7995703e-06
000210 8d bd 18 37 a6 88 d7 36 d7 f2 c4 36 d5 8f 8f 37
       9.104039e-06 6.4234073e-06 5.8695255e-06 1.7113905e-05
000220 e4 08 39 37 62 e2 94 37 ab bf 0a 37 20 e8 84 36
       1.1028929e-05 1.7748393e-05 8.270067e-06 3.9609295e-06
000230 52 65 1a 37 fa b2 f5 36 86 8c 80 36 de 73 bb 36
       9.202706e-06 7.3224046e-06 3.8310563e-06 5.586523e-06
000240 b3 f9 01 39 5a fd 42 38 8d c8 26 38 2c 2d 86 37
       0.00012395419 4.6489156e-05 3.976426e-05 1.599508e-05
000250 b8 07 0b 38 93 55 f2 37 78 bb 2f 37 15 d6 db 37
       3.314737e-05 2.8888497e-05 1.0474461e-05 2.6206524e-05
000260 34 c6 55 37 87 ba 40 38 46 c2 00 38 7e 45 25 38
       1.2741937e-05 4.5950084e-05 3.069851e-05 3.9403785e-05
000270 9c 87 d6 38 e3 f7 89 38 03 94 36 39 66 81 9a 38
       0.000102295744 6.5788416e-05 0.00017412011 7.3673946e-05
000280 52 9a 78 38 35 c9 8d 37 5c a7 99 37 e9 54 07 38
       5.927153e-05 1.6902204e-05 1.8316954e-05 3.2265587e-05
000290 e1 9b a9 37 8e 08 0a 37 1b 73 32 37 11 95 7c 37
       2.0218957e-05 8.227433e-06 1.0636427e-05 1.5055078e-05
0002a0 0c 5a 80 37 72 a6 91 37 4b 50 10 38 68 62 4f 37
       1.530072e-05 1.7362854e-05 3.4407054e-05 1.23610735e-05
0002b0 cb c0 9a 37 52 ee f6 36 3d e8 27 38 f3 59 b0 36
       1.8448007e-05 7.3591154e-06 4.003219e-05 5.25568e-06
0002c0 c8 f3 12 38 c0 9e 97 38 04 b4 17 39 c8 e6 a2 37
       3.503615e-05 7.2298106e-05 0.00014467543 1.941937e-05
0002d0 10 5b a6 38 65 07 26 38 5d 0d ba 37 c2 29 20 39
       7.9324585e-05 3.958437e-05 2.217915e-05 0.00015274345
0002e0 1a da ab 38 09 34 6f 39 40 47 93 38 f7 ab 84 37
       8.19454e-05 0.00022812201 7.0227776e-05 1.5815704e-05
0002f0 a6 84 02 39 25 4d 6a 38 48 70 7f 37 4e 6a 66 38
       0.00012447182 5.5861794e-05 1.5225327e-05 5.4935277e-05
000300 2a c8 06 37 da 5c e2 36 26 0e ed 36 e3 60 86 36
       8.033627e-06 6.746134e-06 7.0647975e-06 4.0047903e-06
000310 f6 36 b8 36 cd 6f 89 36 ed bf a6 36 9d 30 a5 36
       5.4900256e-06 4.0959335e-06 4.9695286e-06 4.9230425e-06
000320 6b 53 83 36 fd 37 96 36 ad 97 5a 36 c8 cc 77 36
       3.9138154e-06 4.4768663e-06 3.2572818e-06 3.6925067e-06
000330 d7 31 02 37 8c bf ec 36 8e 9d d4 36 d6 bd f3 36
       7.760208e-06 7.055647e-06 6.336434e-06 7.264064e-06
000340 25 83 00 37 13 2b c5 36 51 d5 5f 36 d5 f7 57 36
       7.659929e-06 5.876072e-06 3.3353756e-06 3.2181754e-06
000350 14 8b 50 36 20 c6 26 36 9a 9b 29 36 1a 58 42 36
       3.107537e-06 2.4851252e-06 2.5273534e-06 2.8959535e-06
000360 65 8e 36 36 db 9f 34 36 30 96 53 36 73 01 70 36
       2.7202998e-06 2.6915138e-06 3.152887e-06 3.576363e-06
000370 8a 47 8c 36 8c 9f 49 36 91 33 3a 36 2c 60 c2 35
       4.1806534e-06 3.0044203e-06 2.7746175e-06 1.4482116e-06
000380 37 f9 e3 35 2c d1 a7 36 c0 33 0d 37 f4 21 9b 36
       1.6985349e-06 5.0013386e-06 8.416304e-06 4.6233126e-06
000390 5e c6 b5 36 2c 92 8d 36 69 5c 93 36 2e 4d 32 37
       5.4173133e-06 4.219144e-06 4.3916993e-06 1.0627597e-05
0003a0 03 64 f7 36 f9 d5 1a 37 88 c1 a4 36 e7 6f 49 36
       7.3728165e-06 9.228935e-06 4.910111e-06 3.001647e-06
0003b0 b6 d1 91 36 5f 6a 98 36 e8 0f 41 36 77 91 60 36
       4.3457503e-06 4.5423362e-06 2.87685e-06 3.3463273e-06
0003c0 30 30 0b 36 0c 3c a5 35 f3 ed a2 35 20 ed 2c 35
       2.0740663e-06 1.2310934e-06 1.2139193e-06 6.4420055e-07
0003d0 55 23 83 35 ca 93 49 35 10 6e 28 35 38 e9 6e 35
       9.770544e-07 7.5093396e-07 6.274504e-07 8.9001287e-07
0003e0 95 97 44 35 68 d3 53 35 79 fc 25 35 8f d6 4d 35
       7.323627e-07 7.891126e-07 6.1834686e-07 7.6680675e-07
0003f0 9a 4c d6 35 80 17 ca 35 00 a1 1c 36 3a 12 c7 35
       1.5966536e-06 1.5057012e-06 2.3339526e-06 1.483196e-06

exp_avg f4 [32]
000000 59 f6 6d ba 78 e2 31 ba 5e f4 70 ba 68 d7 f9 3a
       -0.0009077541 -0.00067857606 -0.0009191687 0.0019061388
000010 65 0f d1 38 26 69 23 38 f1 10 56 ba e0 7c 9e b9
       9.968764e-05 3.8960156e-05 -0.00081659766 -0.00030229148
000020 bb a4 30 ba 1d 83 d0 3a bf 49 b9 39 de 9e 73 b8
       -0.0006738414 0.0015908215 0.00035340895 -5.808367e-05
000030 55 b7 49 3a 2b 24 24 bb a8 e2 9f 39 cd 87 31 3a
       0.000769486 -0.0025045972 0.00030495715 0.000677225
000040 7d 44 d0 3a 31 e5 30 b9 53 f9 cc b8 32 02 81 39
       0.0015889552 -0.00016870048 -9.773918e-05 0.00024606433
000050 28 ff 8a ba 2e 16 cc ba 47 2f 1b ba 40 4d 1e 37
       -0.0010604607 -0.0015570575 -0.00059198256 9.43552e-06
000060 16 f5 35 3a 7b 83 b4 b8 db f8 20 b9 17 43 a2 3a
       0.00069411227 -8.607559e-05 -0.00015351495 0.0012379613
000070 a9 3b 84 b9 1e fc 52 3a 6f 24 89 b9 9f cf 39 3a
       -0.00025221452 0.00080484326 -0.0002615782 0.0007088128

exp_avg_sq f4 [32]
000000 d0 00 84 37 4b 82 a8 37 bd 60 39 37 be bf a2 38
       1.5736005e-05 2.0087833e-05 1.1049383e-05 7.760477e-05
000010 c4 0f fa 36 6d 7d ee 35 0e a2 91 37 a6 33 a7 36
       7.452416e-06 1.7768886e-06 1.736081e-05 4.9830005e-06
000020 7d 3f 77 36 d3 a5 0f 38 21 9d f5 35 b0 cb 75 37
       3.6842823e-06 3.4248293e-05 1.8299653e-06 1.4650563e-05
000030 34 61 97 37 0f 25 a5 38 aa dc 9c 36 fc 67 54 37
       1.8045866e-05 7.874716e-05 4.674851e-06 1.2660395e-05
000040 a5 9e ae 38 c1 9b 3f 36 52 b8 28 37 ab b6 df 36
       8.3265164e-05 2.8551879e-06 1.0056496e-05 6.6671832e-06
000050 ce c0 13 37 b6 99 61 38 ed 82 c8 36 99 fc d6 36
       8.806774e-06 5.3787335e-05 5.9757062e-06 6.4071032e-06
000060 66 d5 2e 37 46 45 57 36 e9 53 f3 36 72 d9 48 37
       1.0420894e-05 3.207782e-06 7.2517328e-06 1.1971557e-05
000070 01 15 bc 36 b3 e0 c7 37 be 2b 06 37 8e 63 9d 37
       5.605282e-06 2.3827282e-05 7.997207e-06 1.8762217e-05

exp_avg f4 [1, 32, 3]
000000 11 53 3b 3b 85 ba a4 b9 91 d6 8f bb d8 2d 8f 3b
       0.0028583447 -0.00031419485 -0.004389592 0.0043694787
000010 3c 1c 8b 3a c6 91 74 3b ba 83 19 bc 4c 8f 5d bb
       0.0010613273 0.0037318333 -0.009369785 -0.0033807335
000020 c3 e1 e3 bb c8 77 f9 bb a8 e6 21 3b 6d c7 cf 3b
       -0.006954403 -0.007613156 0.0024704132 0.006340912
000030 c6 3c 99 ba fe 76 3d bb 97 ed 17 bb ee be a8 3b
       -0.0011691086 -0.0028910036 -0.0023182386 0.0051497137
000040 e4 bc c4 3b d4 06 e7 3b bd 35 a5 bb 7b 82 b6 bb
       0.006003963 0.0070503745 -0.0050418065 -0.0055697537
000050 65 ed 68 bc b2 9c be 3b 52 18 11 3c c2 ed d6 3b
       -0.0142167555 0.0058170194 0.008855896 0.0065591047
000060 a9 42 ca 3b ed 48 05 3c ea f5 16 3c 81 b0 78 ba
       0.0061724973 0.008135063 0.009213904 -0.00094867504
000070 c9 ca 1c bb 24 92 b1 3b ee f7 87 bb fc 39 af bb
       -0.002392458 0.0054190326 -0.0041494286 -0.0053474884
000080 ba 10 e1 ba 68 b0 1f bb 26 76 4e 3a 64 a7 5b ba
       -0.0017171123 -0.002436662 0.0007875882 -0.000837913
000090 19 26 09 bb 36 12 26 bb e4 5f 9b 3b 45 ef 63 3a
       -0.002092725 -0.0025340444 0.0047416557 0.0008695017
0000a0 1b 1b 06 bb 3c 97 62 bb 96 be be bb 24 d7 27 bb
       -0.0020462933 -0.0034575006 -0.0058210595 -0.0025610412
0000b0 48 91 35 bb 04 36 8b 3a bc 78 2b 3c df 12 8d 3c
       -0.0027705003 0.0010620956 0.010465797 0.017220913
0000c0 2c db 7c 39 29 30 55 3a df 57 1a 3c ca b4 88 bb
       0.0002411424 0.00081324816 0.009420364 -0.0041719424
0000d0 4e 78 ae bb 5a 87 d3 ba 81 30 df 38 45 77 9b 3a
       -0.0053244 -0.001613836 0.00010642503 0.0011861107
0000e0 6a c0 de 3a ec 9b 2a 3b 5e 13 92 3b de 81 c7 3b
       0.00169946 0.0026032878 0.004457875 0.0060884794
0000f0 20 53 41 3a 1c 74 5d bb b9 99 12 3a e1 02 c7 ba
       0.00073747523 -0.003379113 0.00055923645 -0.0015183353
000100 2c 2b c0 bb ea e8 6e bc 57 c7 3e 3b 38 e4 8e 3b
       -0.0058645215 -0.014581898 0.0029110515 0.004360702
000110 fa 8d 58 3b 21 5c e3 ba f8 cb 62 39 59 0c 6d bb
       0.003304361 -0.0017346182 0.00021629024 -0.003617069
000120 37 3f a3 3b b5 a8 4a 3b c1 bd b1 3a bd 85 0a 3c
       0.004981901 0.003092331 0.0013560579 0.008454737
000130 fe e8 68 3b ee 0e a4 3b ed a8 41 3b 2c f1 6f 3a
       0.0035539265 0.0050066626 0.002955015 0.0009153064
000140 08 8d d3 3b 5f 5c b9 3b d6 e8 7e 3b 66 bf 8c 3b
       0.006456021 0.0056567634 0.0038896105 0.0042952774
000150 7c e9 fe 3a fc aa c5 3a 68 07 92 3b 87 82 17 3c
       0.0019448246 0.0015080865 0.0044564493 0.009247429
000160 6a ca 2d 3c 8c 9e 7a 3c 53 45 87 bb c5 4e 4a 3a
       0.010607341 0.01529659 -0.004128137 0.0007717426
000170 30 47 b0 3a 1a 34 bb 3b 80 4c 37 3c a5 16 a0 3c
       0.001344895 0.005712998 0.011187673 0.019542048

exp_avg_sq f4 [1, 32, 3]
000000 a6 bf bd 39 0a 5c de 39 a3 27 c8 39 3b 4c e0 39
       0.00036191678 0.00042411714 0.00038176504 0.00042781406
000010 7f 57 d3 39 ce ff d0 39 fc 93 be 39 f9 19 ad 39
       0.00040310246 0.0003986344 0.0003634988 0.00033016482
000020 98 63 b7 39 f0 08 cf 39 70 72 d0 39 4e b4 e2 39
       0.00034978683 0.00039488776 0.00039758114 0.00043240417
000030 cf 8a 84 3a f4 47 88 3a da 1d 76 3a 38 89 64 39
       0.0010112169 0.001039742 0.00093886035 0.00021794892
000040 e9 e8 7a 39 26 a9 74 39 bb 0e 0d 3a f3 b4 18 3a
       0.00023928624 0.00023332666 0.0005380918 0.00058253034
000050 5f 5a 09 3a 34 15 ad 39 0a a9 a0 39 da b1 a9 39
       0.00052396016 0.0003301293 0.00030643522 0.00032366702
000060 3d cf 70 3a 1b 97 66 3a 2e 90 73 3a 17 c7 9c 39
       0.00091861543 0.000879632 0.0009291199 0.00029902972
000070 c2 95 ae 39 8d 3b a4 39 2b ef 06 3a cf 53 07 3a
       0.00033299444 0.00031324886 0.0005147333 0.000516233
000080 98 1f 06 3a 20 38 ff 39 c5 fb d5 39 72 2e ca 39
       0.0005116402 0.00048679207 0.0004081411 0.00038563047
000090 f7 65 04 3a 40 e7 0f 3a 17 de 15 3a e6 86 87 39
       0.00050505943 0.0005489476 0.0005716993 0.00025849714
0000a0 18 d0 8f 39 2a bb 99 39 c1 9c aa 39 75 5b af 39
       0.00027430127 0.00029321882 0.00032541718 0.00033446742
0000b0 71 54 b3 39 18 cd 6a 3a 2c 65 66 3a 9f 99 72 3a
       0.00034204454 0.0008956953 0.00087888795 0.0009254459
0000c0 7e 35 99 3a 47 62 8b 3a a0 d8 94 3a d9 9b 7a 39
       0.0011688916 0.0010634147 0.0011356063 0.00023899916
0000d0 f6 35 79 39 a0 3e 77 39 68 a9 50 39 14 52 7e 39
       0.00023766592 0.00023579085 0.00019899535 0.00024253904
0000e0 b7 7a 7e 39 e1 c2 f7 39 4f b3 13 3a 32 2b fa 39
       0.00024269042 0.00047256707 0.0005634324 0.000477159
0000f0 17 d8 8b 39 95 f5 7d 39 ad 48 8d 39 6a 88 ae 39
       0.00026673145 0.00024219447 0.00026947763 0.00033289503
000100 99 40 ad 39 67 ce 9e 39 7f 0f 9b 39 b2 43 9c 39
       0.0003304526 0.0003028989 0.0002957545 0.00029805076
000110 36 20 a0 39 56 79 bf 39 a1 b9 d1 39 d9 12 ca 39
       0.00030541577 0.0003652076 0.0004000189 0.00038542485
000120 23 6a ed 39 ad 0c df 39 b5 a1 e9 39 e1 6d 16 3a
       0.0004528324 0.0004254332 0.00044561704 0.0005738419
000130 f4 cf 0f 3a fb 97 0f 3a 5b 9f 6f 3a 00 4e 6e 3a
       0.00054860045 0.0005477664 0.0009140872 0.00090906024
000140 da 4a 65 3a 1b 5e 9f 39 7d 1a 97 39 f5 5b 8e 39
       0.00087468105 0.00030396957 0.000288207 0.00027152864
000150 ba a7 39 39 cd 09 33 39 2d 0e 33 39 f1 4f 36 3a
       0.00017705458 0.00017074421 0.00017076051 0.0006954661
000160 95 9d 38 3a a2 1c 35 3a 08 4b ad 39 1c 68 c4 39
       0.00070425245 0.00069088687 0.00033053034 0.000374616
000170 91 46 b4 39 04 85 e7 3a 47 db e1 3a 56 52 fa 3a
       0.00034384851 0.0017663543 0.0017231487 0.0019098024
