exp/triplet-conv/6-classes/version_7/checkpoints/epoch=47.ckpt (torch_old, 24504 bytes, 29 tensors)

exp_avg f4 [32, 3, 3]
00000000: 5bb4 5239 7294 5f39 1141 38b9 f409 3b3a
00000010: a23e 8e39 348b dd39 cfa3 4239 8ca4 30b8
00000020: 3279 b4b9 4ff5 3b39 9e13 50b7 ea86 3fb9
00000030: 5868 67b9 c926 21b9 f585 d038 8528 0eb7
00000040: 5711 c3b8 3bf6 df37 e4c9 91b9 fd86 df37
00000050: 2fd4 7339 2379 34b9 d5cd 0f39 5c3f 31b8
00000060: 1d58 51b8 d5ae b038 8849 8535 b610 1e39
00000070: cd64 f638 777f aeb8 9388 d038 b206 4eb9
00000080: 9b49 94b8 9eec 2f39 58be 53b8 6735 59b6
00000090: 2dd1 12b8 57ca a3b9 09e9 4d38 dc51 42ba
000000a0: b590 ebb9 bf66 88b9 7095 89b7 2862 96b8
000000b0: f7bd e139 87ed 73b7 c2d7 8838 1a70 eeb6
000000c0: 48cd 9d39 3b8b a5b8 a17c b1b9 3eac 3338
000000d0: 5c3c 9438 7ff1 aab8 6534 a238 6fb4 7c38
000000e0: 042d 4038 1dbb f538 c7c2 2439 14f4 3b39
000000f0: 7af9 1f38 5bb3 5a38 3f5d b337 2745 8139
00000100: 9fe8 39b9 a704 a5b9 509b 09b9 697e ba39
00000110: ddbc 6339 52f3 9937 7298 29b9 0df6 e2b7
00000120: b859 0939 8b38 12b9 16b7 1e36 954e 81b9
00000130: 1498 c739 c76d df39 f42c a3b8 d1ec 99b8
00000140: e861 85b7 b9e4 0039 7c39 5639 23cc acb8
00000150: 6cea d439 e9e8 2eba f8c1 84b9 5fea 6d39
00000160: 903f 0938 aed0 18b9 02e1 6e39 a059 acb8
00000170: d303 d638 bb54 3eb8 d86b 4639 72f5 c239
00000180: ddcf b4b8 edbd a337 23a2 9038 442c a838
00000190: 0ee4 8b39 1269 20b9 485d 283a a2bc 1db9
000001a0: 68d0 1139 3f5e 3a36 e8c8 fcb7 550b 83b9
000001b0: 0a9b 02b9 3d07 61b9 8e30 3638 8e40 8db9
000001c0: 4242 dbb8 82c3 62b9 d296 9ab8 e3d8 c0b8
000001d0: 307f 9836 84a7 7b38 dc77 f3b9 e512 f6b7
000001e0: cf5b 5bb8 71d5 3d38 9db6 ea38 7bc3 66b9
000001f0: 7574 02b9 953f 2538 e572 7e39 a217 82b9
00000200: 5378 23b9 34e7 3bb8 d90d 1aba 0fbf bcb8
00000210: 6599 9bb7 1793 b8b8 253d 6538 9dfa 26b9
00000220: c88a bbb8 0dbd c3b8 0ab1 8039 9667 8839
00000230: 4893 85b8 ec6f 14b9 a4ef bab8 e2e2 49b9
00000240: f049 8a39 2253 d837 0fe2 f838 903b 74b8
00000250: 8e10 a438 1e5a c4b8 9500 8338 6674 1439
00000260: ffe5 ca38 0f61 1cba f942 633a c964 7b39
00000270: 0f44 163a 164f ff39 1812 02ba bc79 6739
00000280: e0c5 ba39 ef31 bfb9 1829 4c39 daf7 2639
00000290: 4d9e 8cb9 6d8c f039 7bdd 8eb7 78fd 0d39
000002a0: 83b8 feb6 858d 7138 d8c2 edb8 1a40 a6b9
000002b0: 897c de39 6809 82b8 d6f7 d039 10e8 8f39
000002c0: 7baf 2ab9 97d1 0739 e5df 3c38 f0dc 7eb9
000002d0: d9df 4039 364c 49b9 1048 08b9 d053 7839
000002e0: d264 9737 e028 d638 77f9 c9b8 692f e8b8
000002f0: 694b 07b9 4fc3 2739 ae4e 3239 47d5 72b9
00000300: 9efd 2739 6f09 fd38 ada1 84b8 91c2 e838
00000310: cee6 4cb8 9e6c 7eb9 f8af a038 9e09 e0b9
00000320: 73dd 19b9 4339 9fb9 2eac 46b9 88a6 1238
00000330: 28ff 77b9 c296 cfb8 9ec1 7739 e1ff 1139
00000340: d20f 4f38 85bb 2eb8 d4a4 fc37 c752 7539
00000350: 9799 04b9 23ff d6b7 02b9 7c36 9f09 c6b8
00000360: ce42 ca37 1825 9b39 4e58 3d37 07bf ba39
00000370: 6b15 6339 dbb1 e537 494c 0239 ed9f be38
00000380: a020 90b9 3b74 7539 8691 bf38 34ee 80b9
00000390: 11c6 ff39 5738 95b9 fe62 d739 2104 8438
000003a0: d931 a2b8 7808 46b9 03f8 9a36 e1b0 46b9
000003b0: 4e2f 6ab9 1bb0 6135 334a 0537 7cbe 1f39
000003c0: d882 7ab8 3d3e 09b9 4078 62b8 4d50 bdb6
000003d0: 24bc 6eb8 77fd 8bb9 a86c 8a38 4e24 84b9
000003e0: ccd8 b737 8c28 6cb6 60ef 1ab9 c3a6 23b9
000003f0: d29b a738 2076 b039 ea4f c037 205d 043a
0.00020094348 0.00021322237 -0.00017571847 0.0007134967 0.00027131016 0.0004225612 0.00018562305 -4.2114916e-05
-0.00034422573 0.00017925094 -1.2402334e-05 -0.00018265439 -0.00022068748 -0.00015368605 9.943164e-05 -8.473294e-06
-9.3015544e-05 2.6698332e-05 -0.00027806975 2.664653e-05 0.0002325333 -0.00017211265 0.00013714221 -4.2259097e-05
-4.9911545e-05 8.424899e-05 9.930673e-07 0.0001507428 0.0001174897 -8.320709e-05 9.943652e-05 -0.00019648185
-7.0709e-05 0.00016777447 -5.048359e-05 -3.2366604e-06 -3.5003923e-05 -0.00031240538 4.909284e-05 -0.00074127107
-0.00044930508 -0.00026016493 -1.640126e-05 -7.1708404e-05 0.0004305688 -1.4539232e-05 6.5251734e-05 -7.106003e-06
0.0003009832 -7.893747e-05 -0.00033852927 4.283734e-05 7.068433e-05 -8.151214e-05 7.734521e-05 6.0249524e-05
4.581829e-05 0.00011717363 0.00015712819 0.00017924636 3.8140897e-05 5.2142288e-05 2.1381884e-05 0.0002465632
-0.00017729633 -0.0003147472 -0.00013123197 0.00035570867 0.00021718764 1.8352326e-05 -0.00016173886 -2.7055876e-05
0.00013098761 -0.00013944709 2.3650405e-06 -0.00024663346 0.00038069545 0.00042615665 -7.780819e-05 -7.339719e-05
-1.5900427e-05 0.00012292237 0.00020430045 -8.2396225e-05 0.0004061045 -0.00066722796 -0.0002532152 0.00022689391
3.2722543e-05 -0.00014573589 0.0002278127 -8.218293e-05 0.000102050275 -4.537844e-05 0.00018922926 0.00037185434
-8.6217864e-05 1.9519555e-05 6.8966554e-05 8.0191094e-05 0.0002668206 -0.00015297931 0.00064225914 -0.00015042958
0.00013905915 2.7771018e-06 -3.0134295e-05 -0.0002499471 -0.00012455523 -0.00021460369 4.34374e-05 -0.00026941713
-0.00010455075 -0.00021625872 -7.371385e-05 -9.195672e-05 4.5447596e-06 5.9999074e-05 -0.00046437874 -2.9334284e-05
-5.2299172e-05 4.5259894e-05 0.00011192004 -0.00022007331 -0.0001244115 3.939828e-05 0.00024266129 -0.0002481314
-0.00015589716 -4.47996e-05 -0.0005876697 -9.000126e-05 -1.854887e-05 -8.801201e-05 5.46548e-05 -0.00015924354
-8.942705e-05 -9.333538e-05 0.00024545967 0.0002601712 -6.3693675e-05 -0.00014156074 -8.913808e-05 -0.00019253374
0.000263765 2.5787918e-05 0.00011867668 -5.8229605e-05 7.823213e-05 -9.362794e-05 6.246675e-05 0.00014157742
9.674951e-05 -0.00059653906 0.00086693425 0.00023974771 0.00057321874 0.00048696314 -0.00049618026 0.00022075226
0.00035624113 -0.00036467562 0.00019470265 0.00015923326 -0.00026820824 0.00045880993 -1.7030854e-05 0.00013541232
-7.59127e-06 5.7590678e-05 -0.00011337333 -0.00031709747 0.00042435926 -6.200635e-05 0.00039857504 0.00027447985
-0.00016277835 0.00012952682 4.503121e-05 -0.00024305633 0.00018393937 -0.00019197245 -0.00012996816 0.00023682346
1.804755e-05 0.00010211929 -9.630893e-05 -0.00011071453 -0.00012902696 0.00015999119 0.00017004713 -0.0002315837
0.00016020841 0.00012065737 -6.324365e-05 0.00011098863 -4.8852344e-05 -0.0002426379 7.662171e-05 -0.00042731775
-0.00014673713 -0.00030369507 -0.00018946893 3.4964207e-05 -0.00023650809 -9.89861e-05 0.00023627884 0.000139236
4.936738e-05 -4.1659474e-05 3.0117495e-05 0.00023395858 -0.00012645718 -2.5629595e-05 3.7658615e-06 -9.443168e-05
2.4111385e-05 0.0002959154 1.1285838e-05 0.0003561901 0.00021656386 2.7381748e-05 0.00012426185 9.0896945e-05
-0.00027490128 0.0002340832 9.1346956e-05 -0.00024591538 0.0004878496 -0.0002846147 0.0004108175 6.2950196e-05
-7.734047e-05 -0.00018885906 4.61843e-06 -0.00018948644 -0.00022333601 8.40753e-07 7.944694e-06 0.00015234383
-5.9726503e-05 -0.00013088524 -5.399459e-05 -5.641987e-06 -5.691884e-05 -0.00026700992 6.6005916e-05 -0.0002520405
2.1916254e-05 -3.5190342e-06 -0.00014775759 -0.00015607015 7.992204e-05 0.00033657346 2.2925396e-05 0.0005049277

exp_avg_sq f4 [32, 3, 3]
00000000: 4bb2 4636 3608 2236 79c1 2936 16e7 4036
00000010: 3a6f 0f36 fd71 2e36 f08f 4536 13a3 1b36
00000020: 8efe 1f36 eb56 1235 f206 6835 1a85 4835
00000030: 85f4 1135 4eb0 8135 5387 5835 b82a 1535
00000040: 5cf2 6935 3183 5635 57ef 6935 1804 8f35
00000050: c297 1a35 abc2 8035 70a0 8635 d4cf 1235
00000060: 53f8 7335 b04f 8535 1eed 2035 6962 9d35
00000070: cf91 e934 8249 1c35 02d2 a635 62c4 d834
00000080: 042c 2335 c67e 9735 e3e6 f934 a935 1635
00000090: 35ca 0d36 1923 1b36 cf8f d335 8133 0836
000000a0: e9d6 1136 6190 bd35 6d44 1436 a9df 1336
000000b0: 67b0 d035 cdd8 ff35 d277 7d35 157b ba35
000000c0: 5065 0736 d142 6d35 7b11 c435 0ce8 0536
000000d0: 5e9c 7f35 40cf bc35 097f e634 3969 1535
000000e0: e038 fd34 882d d034 c09b 1f35 5175 e834
000000f0: 788e e934 03a5 1335 79c3 1135 f997 2336
00000100: e9a5 a135 c226 a635 7016 2336 cb83 a135
00000110: 8c8a a035 b0be 1836 f35e ab35 d41c 9735
00000120: f5f1 5836 aa17 bd35 ca52 0c36 ae35 5f36
00000130: d7c6 ba35 cb5e 0b36 44ba 5036 5776 d435
00000140: e93b 0336 aeaa 9d36 d6d8 1f36 484a 0b36
00000150: 52ae a036 2fd3 2336 0e50 1536 9854 8f36
00000160: e05b 3136 49f5 0936 3e8e e235 0070 5f35
00000170: e514 2336 c0b7 ea35 9d19 8235 0866 3a36
00000180: 8519 ea35 3e8e 6635 7584 2736 0b90 b236
00000190: 7505 bf36 98d8 b535 ea9d b236 d572 c636
000001a0: 5d2f b935 0da3 a336 d456 bf36 b9ce c835
000001b0: 90e6 3435 cd63 9435 5813 1e35 0f09 2b35
000001c0: 5f2b 9435 a3c2 0a35 3fd7 2e35 4b9d 8f35
000001d0: 928f 1c35 f65e 9e35 4aee ab35 3a68 2b36
000001e0: 1202 a235 8b66 9f35 30bc 3136 3033 9c35
000001f0: c6d2 9f35 56ca 2236 2788 ef35 de9d 8236
00000200: b2f0 9b36 b9a0 0336 afb6 7036 e30c 9a36
00000210: 7aec 0036 d5a3 6c36 5fd1 9536 b26d 4835
00000220: 2781 6f35 8ec2 a135 0eb4 4f35 4864 5435
00000230: 20cb a235 bb4c 5735 a19c 5535 8cee a135
00000240: 7334 a535 2c0c 3635 24d4 7a35 c8f8 af35
00000250: 334b 3435 66b2 8635 2361 aa35 ff0d 3b35
00000260: ccf2 8235 5beb c936 2e7a b236 b472 6837
00000270: dbe8 c836 5547 a336 0ed6 7937 29c4 c836
00000280: 8f09 9c36 02e1 6137 578a bf35 d587 6e36
00000290: 0c98 eb35 5bc2 ba35 21ca 7736 0da4 f635
000002a0: 1580 b035 f4d3 5d36 b2cc e435 a44a 8036
000002b0: 4f42 0036 9e00 af36 ddeb 7f36 c085 e535
000002c0: 527c bf36 f78c 7536 5599 ed35 bca6 b236
000002d0: a07c ab35 93f1 f035 ff83 8535 29fe af35
000002e0: 6d1a f835 975f 8d35 4c05 ad35 b31e ee35
000002f0: 2389 8c35 4ca7 2735 ee95 df34 6b7f e534
00000300: f7e4 4235 c8f1 0035 3e8e 0835 2400 2a35
00000310: 66ab db34 9186 e334 8b17 1f36 576c b535
00000320: 4593 6a36 b503 1b36 10f8 a435 e9a9 7836
00000330: 0f1d 1536 324a b235 69e2 5c36 7524 4135
00000340: 8422 0435 8291 0d35 d3c8 4c35 45e3 1235
00000350: 825e 0d35 316e 4935 b865 1835 db99 0535
00000360: 3b5c 3b35 02a7 5b35 85bd a035 4f18 3335
00000370: a713 3835 bb87 9b35 47cf 3c35 dc69 3e35
00000380: 1019 9c35 ca42 1836 a554 8836 03fa 9935
00000390: 029d 0e36 e30c 8c36 e516 9335 2399 0336
000003a0: 0410 8436 d75a a235 6f47 2b35 3e7d 0635
000003b0: 9f7c 2735 40fc 2135 0dd7 0935 2611 2935
000003c0: 2924 2135 e6a6 0535 fd65 0d35 6ee1 8d35
000003d0: 4c62 b435 dec6 0035 0777 9535 0d7e ae35
000003e0: cb14 e234 fc5d 8c35 972e a835 cd9f ee34
000003f0: 1e54 a635 4ec1 4035 8fa9 9a35 9269 a635
2.960808e-06 2.414466e-06 2.5295578e-06 2.874474e-06 2.1373403e-06 2.599437e-06 2.943907e-06 2.3191722e-06
2.3841017e-06 5.451572e-07 8.643684e-07 7.4699494e-07 5.437253e-07 9.66256e-07 8.0663193e-07 5.556899e-07
8.7151943e-07 7.991212e-07 8.714755e-07 1.0655522e-06 5.759031e-07 9.593399e-07 1.0030471e-06 5.469167e-07
9.0885914e-07 9.932464e-07 5.9949696e-07 1.1726053e-06 4.3505722e-07 5.8221497e-07 1.2429084e-06 4.0376023e-07
6.0786283e-07 1.1287273e-06 4.6547856e-07 5.595744e-07 2.1128337e-06 2.311723e-06 1.5762579e-06 2.0295558e-06
2.1731778e-06 1.4123617e-06 2.2093548e-06 2.2034894e-06 1.5548547e-06 1.9062078e-06 9.4424206e-07 1.3893901e-06
2.017554e-06 8.838661e-07 1.4608225e-06 1.9953613e-06 9.5222447e-07 1.4067409e-06 4.293327e-07 5.5659945e-07
4.7166304e-07 3.8776147e-07 5.945876e-07 4.3298726e-07 4.3503292e-07 5.500189e-07 5.430116e-07 2.4377352e-06
1.2043721e-06 1.2379244e-06 2.4301953e-06 1.2033792e-06 1.1961251e-06 2.276076e-06 1.2768127e-06 1.1258767e-06
3.2327346e-06 1.4088484e-06 2.0909815e-06 3.3260835e-06 1.391595e-06 2.076779e-06 3.1102836e-06 1.5829672e-06
1.9555393e-06 4.6988343e-06 2.3819061e-06 2.0755851e-06 4.788665e-06 2.4411818e-06 2.2249328e-06 4.27158e-06
2.6428534e-06 2.0557366e-06 1.687971e-06 8.3236955e-07 2.4301055e-06 1.7487837e-06 9.693209e-07 2.777555e-06
1.7441786e-06 8.5888666e-07 2.496204e-06 5.321582e-06 5.692879e-06 1.3548588e-06 5.323197e-06 5.914228e-06
1.3797359e-06 4.87676e-06 5.7023517e-06 1.4961325e-06 6.739074e-07 1.1055905e-06 5.8887736e-07 6.3715646e-07
1.1039482e-06 5.169224e-07 6.5133275e-07 1.0700109e-06 5.832345e-07 1.1799555e-06 1.2809844e-06 2.5541653e-06
1.2070543e-06 1.1876267e-06 2.6484595e-06 1.1637803e-06 1.1907766e-06 2.4257656e-06 1.7846513e-06 3.89268e-06
4.6473806e-06 1.9614074e-06 3.5869123e-06 4.591058e-06 1.9211134e-06 3.5262103e-06 4.46492e-06 7.4665434e-07
8.922238e-07 1.2052058e-06 7.7375523e-07 7.912208e-07 1.2129058e-06 8.02054e-07 7.957661e-07 1.2064861e-06
1.2308723e-06 6.7817996e-07 9.344096e-07 1.3110921e-06 6.7164655e-07 1.0035699e-06 1.2694258e-06 6.9683296e-07
9.756418e-07 6.017666e-06 5.319037e-06 1.3854984e-05 5.9875724e-06 4.8660827e-06 1.4891395e-05 5.9833005e-06
4.650275e-06 1.3463434e-05 1.4270871e-06 3.5543828e-06 1.7553116e-06 1.3914645e-06 3.6923523e-06 1.8376173e-06
1.3150299e-06 3.305494e-06 1.7046898e-06 3.8233866e-06 1.9112083e-06 5.2154783e-06 3.8135252e-06 1.7100756e-06
5.7067164e-06 3.6589897e-06 1.7702502e-06 5.324224e-06 1.2776763e-06 1.7951701e-06 9.947688e-07 1.3112486e-06
1.8485131e-06 1.0533139e-06 1.2891046e-06 1.7741316e-06 1.0470725e-06 6.2455797e-07 4.1646075e-07 4.2747283e-07
7.260382e-07 4.8035554e-07 5.087094e-07 6.333014e-07 4.0916638e-07 4.2379955e-07 2.370655e-06 1.3517082e-06
3.495444e-06 2.3098958e-06 1.2291148e-06 3.705378e-06 2.2219645e-06 1.3283627e-06 3.2914343e-06 7.1951155e-07
4.922406e-07 5.2738335e-07 7.628816e-07 5.471996e-07 5.266412e-07 7.5038685e-07 5.677243e-07 4.977025e-07
6.979714e-07 8.1826886e-07 1.1976086e-06 6.671807e-07 6.857394e-07 1.1587903e-06 7.0337086e-07 7.093456e-07
1.16302e-06 2.2688641e-06 4.0629698e-06 1.1472151e-06 2.125104e-06 4.1738253e-06 1.0959017e-06 1.9609658e-06
3.935771e-06 1.2096378e-06 6.3806414e-07 5.010114e-07 6.2393696e-07 6.0344246e-07 5.134942e-07 6.298236e-07
6.0029794e-07 4.978923e-07 5.2675006e-07 1.0570927e-06 1.3439653e-06 4.7973106e-07 1.1136007e-06 1.3000696e-06
4.211091e-07 1.0458166e-06 1.2530535e-06 4.4447225e-07 1.2392445e-06 7.180687e-07 1.1523242e-06 1.2398689e-06

exp_avg f4 [32]
00000000: 167c 1eb8 5db6 8c37 bb25 95b6 caa8 a6b6
00000010: 80c4 4c38 1de8 48b7 4ee5 91b6 b473 7837
00000020: b279 19b7 b0ad a5b7 631d c037 a0e8 1eb8
00000030: 8d4e b9b5 eba8 f636 0380 d636 5dff 0db8
00000040: f169 1638 2512 a6b8 120d 2037 a0c0 42b8
00000050: 8f5e 90b7 4bcb 88b7 4f3d 3938 4e1c 1e37
00000060: ba6a 11b8 d3ce 52b7 b8fe 3636 9fdf 76b7
00000070: d028 11b8 4052 1838 1803 1837 1cff d5b7
-3.77857e-05 1.677422e-05 -4.4449384e-06 -4.966835e-06 4.8820395e-05 -1.1974972e-05 -4.3480313e-06 1.4808891e-05
-9.147845e-06 -1.9750412e-05 2.2901868e-05 -3.7886784e-05 -1.3806435e-06 7.351036e-06 6.3925995e-06 -3.3854845e-05
3.5861452e-05 -7.9188765e-05 9.539786e-06 -4.64326e-05 -1.721017e-05 -1.6307129e-05 4.4164535e-05 9.424124e-06
-3.467009e-05 -1.256513e-05 2.726838e-06 -1.47148085e-05 -3.4608704e-05 3.6316225e-05 9.060626e-06 -2.5510373e-05

exp_avg_sq f4 [32]
00000000: 3221 6d31 94ca 0c31 b140 0531 29e4 7031
00000010: ac34 e031 d21e e530 e710 1b31 6eb9 e930
00000020: 23e5 bf30 303e fa30 0a34 a031 3b7f 1d32
00000030: 7584 e931 744f 6a32 94ce d931 ac38 8e31
00000040: 493c 0232 8ecb 7132 fb6d 7331 5133 3432
00000050: 16d5 9c31 7580 1e31 aaa6 9531 e4b4 6a31
00000060: 85db 5931 97cc 5831 4444 8631 a3ae 9f31
00000070: 3278 af31 5a74 5031 04ea 1132 2b50 f431
3.4506908e-09 2.0487834e-09 1.939082e-09 3.505429e-09 6.525246e-09 1.6670703e-09 2.2565076e-09 1.7005684e-09
1.3962204e-09 1.8207569e-09 4.662529e-09 9.167532e-09 6.796251e-09 1.3638658e-08 6.3390164e-09 4.1391868e-09
7.580703e-09 1.4074329e-08 3.542367e-09 1.0489047e-08 4.5644226e-09 2.3065045e-09 4.3554182e-09 3.4154306e-09
3.1702438e-09 3.1548433e-09 3.907674e-09 4.647363e-09 5.106835e-09 3.0334122e-09 8.49332e-09 7.1104487e-09

exp_avg f4 [10, 32, 3]
00000000: ccab 04ba 8ce3 37b8 e43c 4f38 8a71 43b7
00000010: ebce b0b8 01ca 8638 6be3 a438 4e07 bdb7
00000020: a5e7 68b9 a9b4 03b8 bdfb 0739 2f95 1538
00000030: 9e0b 6d39 3e25 6039 ae3a 3839 59be 8937
00000040: 3a3e 8339 0016 0e39 0a15 3739 20b2 e1b8
00000050: f96d 6cb9 983e e2b7 6066 f9b7 ff45 d238
00000060: 3efb 2ab8 fbcf 54b8 6b87 bfb7 9233 15b9
00000070: c0ea 2d37 2d3f f738 e190 87b9 935f 1bb9
00000080: 2af3 b638 94a3 71b9 89d4 36b8 2655 1238
00000090: 4b69 a539 4c82 4539 5936 0db9 3c74 b2b8
000000a0: 7b2f 4ab7 0782 2839 7825 90b5 fdbf 7239
000000b0: f1dc cd38 9cdc 1ab9 130f 03b9 a818 5ab9
000000c0: 407c 5639 f39b b6b8 5487 c2b8 2301 2eb9
000000d0: c7c7 56b7 f1aa 04ba 6e22 9db9 4694 34b9
000000e0: b4f0 9239 91c5 afb8 e05f 1038 b499 67b9
000000f0: eb18 01b7 5697 21b9 a6ad 8937 71e1 81b9
00000100: 0471 58b8 f74b 14b7 df1b 4d39 3e4c a536
00000110: f805 2039 84b6 d438 a493 58b9 8a26 a9b7
00000120: 55fe fbb6 1d89 e6b8 cb22 8db9 d02f 67b9
00000130: b19d 3ab9 9a7d a937 37a2 1f39 bca1 8937
00000140: e91a 1f38 f6f7 5c39 b4d4 7439 17e4 beb8
00000150: 21de 01b9 811f 8fb7 7db0 05b9 7efd 8338
00000160: 5f1a 4439 6467 fa38 9217 21b9 4dfd d938
00000170: 494b 0e39 b33b 94b9 c713 dfb7 742e 8838
00000180: fd56 30b9 0f6d c938 3a72 f939 16c3 b138
00000190: 716a 8db8 438f f537 41f1 b139 4dbe 4839
000001a0: d995 dfb9 b250 6ab9 706b 8a38 a1e4 1139
000001b0: 13af 2bb9 0d86 bcb9 0b39 eab9 082d d1b9
000001c0: 15f5 8639 93ad 8039 bcd1 a738 cf30 ce37
000001d0: 9100 b036 d196 3139 c1bf f3b8 bda4 8fb9
000001e0: aae4 5e39 b45f b9b8 1c28 66b9 dd47 1aba
000001f0: edcf 8038 ba49 7539 038e 9339 384c bbb8
00000200: 8f7c 31b7 24df 4eb9 1dca 9db9 b423 ef39
00000210: c77a 9bb8 4c3c 02b9 e133 9cb9 0d9b 62b9
00000220: 142d ec37 44c1 ed38 6439 a037 598c 98b9
00000230: 4bbf 14b9 d70f 5639 f9ba f138 c04f f2b8
00000240: 9070 0b37 daec 8338 86a0 aa37 681d 64b9
00000250: 9956 013a 1a13 15b9 4484 7339 12a2 93b9
00000260: 7076 073a 25dc f437 5ad0 c739 3c9e b638
00000270: 7bc8 3ab8 1330 91b9 1b77 0c3a b14a b338
00000280: 75e7 1db9 035f d1b8 af53 d6b7 3584 98b9
00000290: c7a0 08b7 8259 8539 81af 0eb9 7344 6ab8
000002a0: 16d6 62b8 c973 46b9 d926 1139 9c3c 0eb8
000002b0: ecac 86b9 2df2 053a 5ea1 d6b6 ad4a 80b9
000002c0: d025 3f38 2791 ed38 6c1a 4ab9 3c29 42b8
000002d0: dd2e 8db9 f6c3 a239 4c57 8039 7e72 5f39
000002e0: beca e4b9 cf60 bfb9 1573 05b9 d464 2cb9
000002f0: 42e5 a839 fe76 c0b8 6a2d 8639 dcc9 6838
00000300: d28c 3a3a 33ba ff38 6c33 3ab9 f9ed 4137
00000310: dde3 d838 3f08 5838 de2a fbb8 4aae 283a
00000320: a82b 0d3a 8108 0ab9 b367 06b9 1445 4739
00000330: 5ba7 91ba 6bd2 4dba 6b0b fdb9 7d41 77b9
00000340: 98ce 18ba f796 8b38 a3b6 c739 2947 9239
00000350: 8682 7b39 473b 2fb9 3042 e539 f060 8e39
00000360: 7bdc 2b39 811b ba39 95f1 03b9 6e8f 1aba
00000370: 070b 5aba 5307 a9b9 e292 a839 bd2f 313a
00000380: 3de6 3d38 d0cf 063a ab33 97b9 9478 14ba
00000390: fd04 b0b9 f29d 25ba 2f5b 7db9 e686 77b8
000003a0: ce40 90b9 e5f2 54b9 fc1b b438 5d62 16ba
000003b0: bf0c 4fba 48ec 283a 7619 043a 4dad 28b8
000003c0: 3654 09b7 5dfd 3b39 01a0 ac39 f271 103a
000003d0: dd54 c439 5f89 dc39 d1cc 033a 2830 0d39
000003e0: 3c78 01ba de2a de39 5231 253a de33 573a
000003f0: b053 143a 7ae1 36b9 bfd9 99b9 2c5a d738
-0.0005061 -4.384252e-05 4.9409355e-05 -1.1649341e-05 -8.4308755e-05 6.427244e-05 7.862489e-05 -2.2533957e-05
-0.00022211538 -3.1401087e-05 0.00012968383 3.5663306e-05 0.00022606409 0.00021376178 0.00017569467 1.642031e-05
0.0002503263 0.00013550371 0.00017460078 -0.000107620144 -0.00022547682 -2.6970447e-05 -2.9730785e-05 0.00010026618
-4.0765146e-05 -5.0738436e-05 -2.2832033e-05 -0.00014228959 1.03662605e-05 0.00011789645 -0.0002585715 -0.00014817556
8.723729e-05 -0.00023044489 -4.359012e-05 3.4888413e-05 0.00031549702 0.00018835923 -0.00013467054 -8.509352e-05
-1.2051193e-05 0.00016070167 -1.0739741e-06 0.0002315044 9.816315e-05 -0.00014768768 -0.00012498749 -0.00020799285
0.00020454917 -8.707484e-05 -9.275848e-05 -0.00016594357 -1.2801908e-05 -0.00050608726 -0.00029971026 -0.00017221374
0.00028026628 -8.38145e-05 3.4421566e-05 -0.00022087136 -7.694801e-06 -0.00015410534 1.6412534e-05 -0.00024772764
-5.1603667e-05 -8.839174e-06 0.00019560706 4.926259e-06 0.00015261013 0.00010142944 -0.00020654366 -2.0164316e-05
-7.509991e-06 -0.00010992794 -0.00026919539 -0.00022047688 -0.00017797087 2.0204858e-05 0.00015223851 1.6406986e-05
3.7933616e-05 0.00021073208 0.00023348891 -9.102391e-05 -0.00012385148 -1.7061599e-05 -0.00012749615 6.2937834e-05
0.0001870184 0.00011940187 -0.00015362937 0.00010394547 0.00013570221 -0.0002827324 -2.6592881e-05 6.493638e-05
-0.00016817074 9.6047406e-05 0.00047578086 8.476355e-05 -6.74323e-05 2.9272987e-05 0.0003393982 0.00019144379
-0.0004264552 -0.0002234604 6.6003646e-05 0.00013913448 -0.00016373051 -0.0003595803 -0.00044674458 -0.00039897137
0.00025741072 0.00024543385 8.0022466e-05 2.4579842e-05 5.2452747e-06 0.00016936219 -0.0001162286 -0.00027397825
0.00021256754 -8.8393135e-05 -0.00021949451 -0.0005885342 6.142245e-05 0.00023392486 0.00028143832 -8.931052e-05
-1.0579023e-05 -0.00019728817 -0.0003009596 0.00045612233 -7.413845e-05 -0.00012420228 -0.00029793291 -0.000216108
2.8154383e-05 0.00011337039 1.9100211e-05 -0.00029096266 -0.00014185642 0.00020414531 0.00011526602 -0.00011554314
8.311254e-06 6.290684e-05 2.0340329e-05 -0.00021754729 0.00049338635 -0.00014216863 0.00023223559 -0.00028158777
0.000516749 2.918958e-05 0.00038111472 8.70791e-05 -4.4532568e-05 -0.00027692373 0.0005358324 8.5492975e-05
-0.00015058911 -9.983594e-05 -2.5549756e-05 -0.000290902 -8.143666e-06 0.00025434425 -0.00013607556 -5.5853696e-05
-5.4081982e-05 -0.00018925885 0.0001384275 -3.3911885e-05 -0.00025687309 0.00051096344 -6.3964826e-06 -0.000244697
4.5573164e-05 0.000113280774 -0.00019274064 -4.6291607e-05 -0.00026928532 0.0003104505 0.00024479104 0.00021309589
-0.00043638604 -0.00036502487 -0.0001272674 -0.0001644076 0.00032214267 -9.1774375e-05 0.00025592308 5.5501107e-05
0.0007116321 0.0001219403 -0.00017757498 1.1559104e-05 0.000103421255 5.1506093e-05 -0.00011976597 0.00064346625
0.00053852284 -0.00013163874 -0.00012817867 0.00019003853 -0.0011112498 -0.0007851484 -0.00048264427 -0.00023580152
-0.0005829125 6.656156e-05 0.00038092313 0.00027900308 0.00023985849 -0.00016711383 0.00043727597 0.00027156575
0.00016389966 0.00035497177 -0.0001258313 -0.00058960065 -0.0008317683 -0.0003223965 0.00032152893 0.0006759128
4.5275538e-05 0.0005142661 -0.0002883946 -0.00056637195 -0.00033573052 -0.0006317786 -0.00024161929 -5.9015023e-05
-0.00027514104 -0.00020308381 8.588281e-05 -0.0005736703 -0.00078983227 0.00064439 0.00050391944 -4.021572e-05
-8.185443e-06 0.00017928095 0.0003292561 0.0005510143 0.0003744726 0.0004206402 0.00050277734 0.00013464747
-0.0004938876 0.00042375078 0.00063016 0.0008209328 0.00056582224 -0.00017440869 -0.00029344668 0.00010268795

exp_avg_sq f4 [10, 32, 3]
00000000: c104 fc35 84b4 6b36 15ac f235 e438 8b35
00000010: a9ab 8c35 55d9 8d35 52c9 1b36 e62c 1c36
00000020: 7b98 0b36 0286 9d35 cb66 9535 5fdf d835
00000030: 4480 2d36 ccc7 5236 e3ea 3236 f2aa ae35
00000040: e191 1436 5a06 0e36 a998 c235 8ede 0236
00000050: 5bdb eb35 c44d 9335 db46 d035 b696 9d35
00000060: 940d 5135 08e7 8e35 8433 a235 fd51 fc35
00000070: 6b8e 1036 3d33 2436 7f7d e235 1faa db35
00000080: dd94 2236 0df5 d635 314b 1736 7a43 a535
00000090: d71f dd35 c3f8 cb35 81e4 0836 d771 9b35
000000a0: 5dae 7935 ecf0 a935 1b6a 0e36 7124 0d36
000000b0: de81 f135 eedc ad35 a0de db35 08ee ea35
000000c0: c64e 6335 81f6 ac35 6215 8b35 915e 3936
000000d0: a41f 3136 c017 6836 4cee 4036 1844 0e36
000000e0: 71c8 3036 e17e 2236 e469 0536 3382 4436
000000f0: c369 1b36 f759 0f36 abb0 fa35 3ef5 a035
00000100: b769 b335 3513 b735 f2b5 8535 5c69 8135
00000110: c6d4 bd35 c5c6 a535 9b83 f235 910b bd35
00000120: 8fa0 0136 c30d 0536 a1f6 cb35 791b 3f36
00000130: 2baa 3f36 3362 0036 76ef 3335 8955 3935
00000140: 5f90 3a35 5742 0f36 665f 1236 43bf 1436
00000150: 0c67 aa35 5a1c f835 5afe df35 5949 f335
00000160: 6cbb ea35 d2a4 1736 e6aa e735 ddb8 1636
00000170: 2b0a a135 d24f 8835 9b62 7835 93ff 6035
00000180: 7713 4837 5f2b 2c37 77df 2a36 bd2d d535
00000190: 9a28 1b36 0de6 4f36 b6fa 4437 785f 6236
000001a0: 834e 1237 0681 0236 8574 9b36 4a03 a336
000001b0: abb7 a536 df10 1f36 80b3 6a36 3b61 b136
000001c0: 4034 2b37 0bb9 4236 faec 3e36 3ae5 9636
000001d0: 649e 3f36 8e39 c836 01c2 b936 e0d7 f135
000001e0: ab13 2936 ca1c c736 7624 e735 2e3d 4d36
000001f0: 931f 0137 97d4 8136 eed6 5936 dfe0 ce36
00000200: a252 9136 45ec 1b37 7d04 9836 6af2 5836
00000210: 9a3c 3736 a6fd 7536 61a3 6e36 43d3 2d36
00000220: b2fa d535 298b 8036 9acd 0737 ae53 3c36
00000230: 09d7 e236 3d8b f935 afc8 6436 e01e 6b36
00000240: 8aeb 5136 1a45 7736 7e42 c235 094c 5936
00000250: 9b06 1e37 3d48 7937 b6e5 3437 9bee 5a36
00000260: d6c6 8437 deef 5a36 d234 d536 4e02 3637
00000270: 18f5 1f37 14c1 5036 4da6 0037 9841 0536
00000280: 53fa 0a36 eca3 0936 8765 9c35 3d48 7f36
00000290: 7f49 a636 dc29 8f36 1afa bf36 fd3e fd35
000002a0: e42d 5a36 b60c 7536 240b 2136 9029 8837
000002b0: 9cf3 4036 3ab0 4637 1ad8 9835 df07 d935
000002c0: 2ae2 0c36 fefc 0137 4df7 df36 a854 7536
000002d0: 9398 8c36 ee64 c836 7ca9 1a36 72f5 2b36
000002e0: 3801 2636 4bd8 7536 02d1 5737 0ccb 9336
000002f0: c038 b836 a59a ed35 71f2 da35 b08f a535
00000300: f775 8836 98f4 c236 80a4 9936 461d 3f36
00000310: 41d0 2836 c1b8 3136 b257 e136 f8e4 bd36
00000320: 2edf 8d36 2130 4a36 0f01 1b36 bdf2 5336
00000330: 6cde cf36 65e6 d436 96c2 a536 4d00 3536
00000340: 37b2 a636 b931 a636 89a6 1836 e56e 2f36
00000350: 5712 3736 6c0b 1936 6dd4 5d36 bb33 2a36
00000360: a7fd be35 b434 2636 64fb 3336 9a91 7c36
00000370: a230 8e36 a933 9636 d25e 8136 63ad 8336
00000380: adeb 8d36 9aca 8436 c265 9f36 7d99 5d36
00000390: 6f1e 6336 cd03 5e36 c837 5c36 240a 4236
000003a0: bd3a 0536 31db 1036 7d38 b136 62f7 a736
000003b0: 5141 8236 bf19 6a36 d2ad 6e36 e9db 6d36
000003c0: d7ce df35 3dec 0c36 25ca 0236 d212 db36
000003d0: 5bc3 7736 414a f536 29ec 0f37 9a4f 9636
000003e0: 60e7 8b36 b6d2 d736 60d4 7e36 6062 c736
000003f0: 3557 b736 60ff 9736 03cf 5936 dbff 4336
1.8776847e-06 3.5122803e-06 1.8080488e-06 1.0372864e-06 1.0480773e-06 1.0568571e-06 2.3213984e-06 2.3271946e-06
2.080137e-06 1.1736413e-06 1.1131282e-06 1.6158264e-06 2.585367e-06 3.1408736e-06 2.666079e-06 1.3013762e-06
2.2138631e-06 2.1163346e-06 1.4498556e-06 1.9501053e-06 1.7572705e-06 1.0974986e-06 1.5517829e-06 1.1741274e-06
7.7878326e-07 1.0647063e-06 1.2084934e-06 1.8799325e-06 2.154057e-06 2.446773e-06 1.6874836e-06 1.6366283e-06
2.422653e-06 1.6015562e-06 2.254452e-06 1.2313096e-06 1.647505e-06 1.5197078e-06 2.0398586e-06 1.1581532e-06
9.301346e-07 1.2661599e-06 2.122141e-06 2.103185e-06 1.7993696e-06 1.2953803e-06 1.6381564e-06 1.7503635e-06
8.467872e-07 1.2886741e-06 1.036253e-06 2.7622193e-06 2.6393473e-06 3.4584518e-06 2.8748937e-06 2.1199285e-06
2.6342716e-06 2.4213734e-06 1.988018e-06 2.9282062e-06 2.3158361e-06 2.1361027e-06 1.8677869e-06 1.1992304e-06
1.3367306e-06 1.3640152e-06 9.962225e-07 9.641913e-07 1.4143523e-06 1.2351308e-06 1.8068707e-06 1.4084964e-06
1.9315955e-06 1.9826555e-06 1.5196457e-06 2.847721e-06 2.8560269e-06 1.9130646e-06 6.703116e-07 6.904234e-07
6.9500487e-07 2.1347275e-06 2.1811225e-06 2.2165048e-06 1.2695978e-06 1.8485691e-06 1.6688821e-06 1.8126258e-06
1.7488906e-06 2.2596691e-06 1.7260579e-06 2.2459346e-06 1.1998394e-06 1.015602e-06 9.253069e-07 8.381841e-07
1.1925461e-05 1.0262097e-05 2.5462048e-06 1.5883048e-06 2.3120433e-06 3.097931e-06 1.1740884e-05 3.3732194e-06
8.720558e-06 1.944661e-06 4.6329246e-06 4.8581614e-06 4.938765e-06 2.3702667e-06 3.49732e-06 5.28633e-06
1.020456e-05 2.9015962e-06 2.8450145e-06 4.497034e-06 2.8553413e-06 5.9671647e-06 5.5360147e-06 1.8018727e-06
2.519441e-06 5.9340136e-06 1.7221453e-06 3.0582992e-06 7.696351e-06 3.8692483e-06 3.2460625e-06 6.165457e-06
4.3309565e-06 9.293731e-06 4.5304755e-06 3.2327612e-06 2.73044e-06 3.6655488e-06 3.5559863e-06 2.590198e-06
1.5942699e-06 3.8308976e-06 8.094497e-06 2.806289e-06 6.7603582e-06 1.8592469e-06 3.409146e-06 3.50357e-06
3.1280529e-06 3.684609e-06 1.4473478e-06 3.2379778e-06 9.419072e-06 1.4858376e-05 1.078232e-05 3.2623418e-06
1.5828216e-05 3.2624152e-06 6.3540438e-06 1.0848582e-05 9.534204e-06 3.1106802e-06 7.668114e-06 1.9856725e-06
2.070931e-06 2.0510006e-06 1.1652454e-06 3.804001e-06 4.9557416e-06 4.266605e-06 5.7213592e-06 1.8868301e-06
3.2511243e-06 3.6515244e-06 2.3997354e-06 1.6231817e-05 2.8752029e-06 1.1842751e-05 1.1387776e-06 1.6170051e-06
2.099327e-06 7.7479035e-06 6.6747075e-06 3.6557121e-06 4.190087e-06 5.9722142e-06 2.304644e-06 2.5623854e-06
2.4736637e-06 3.6633744e-06 1.2863662e-05 4.404579e-06 5.490234e-06 1.7702883e-06 1.6312825e-06 1.2335277e-06
4.0668488e-06 5.810125e-06 4.5789056e-06 2.8478257e-06 2.515517e-06 2.6482596e-06 6.7157316e-06 5.6592944e-06
4.228109e-06 3.012836e-06 2.3097416e-06 3.1582742e-06 6.194974e-06 6.344914e-06 4.940036e-06 2.6971277e-06
4.9679325e-06 4.952974e-06 2.2746701e-06 2.6141581e-06 2.72798e-06 2.2805425e-06 3.3055214e-06 2.5362085e-06
1.4229926e-06 2.4766605e-06 2.6819407e-06 3.7635677e-06 4.2375914e-06 4.4763624e-06 3.855538e-06 3.924289e-06
4.2295637e-06 3.9574925e-06 4.7504154e-06 3.3020908e-06 3.384335e-06 3.308279e-06 3.2815024e-06 2.8914155e-06
1.9852735e-06 2.1585258e-06 5.281587e-06 5.005787e-06 3.8819057e-06 3.4883703e-06 3.556594e-06 3.5443757e-06
1.6674993e-06 2.0999134e-06 1.9489173e-06 6.5288996e-06 3.691958e-06 7.3102133e-06 8.5784495e-06 4.479615e-06
4.1694584e-06 6.4320293e-06 3.7972568e-06 5.9421145e-06 5.4639772e-06 4.5298802e-06 3.2456016e-06 2.9206192e-06

exp_avg f4 [10]
00000000: 82a7 05b8 fb64 2138 8b46 45b8 bc99 5fb7
00000010: 2887 a8b7 3d53 14b8 dd2d bcb7 ff37 2238
00000020: 4383 1ab8 481d fab7
-3.1865675e-05 3.8479437e-05 -4.703416e-05 -1.332763e-05 -2.0090098e-05 -3.536347e-05 -2.2432703e-05 3.867596e-05
-3.683871e-05 -2.9815958e-05

exp_avg_sq f4 [10]
00000000: 01ed 7932 664c 0d33 ff3d e332 3d2c 3132
00000010: 147e b832 bfb6 2433 1147 a232 5a1d b832
00000020: 8320 8c32 4a34 2333
1.4547596e-08 3.2898605e-08 2.645447e-08 1.0312815e-08 2.1477753e-08 3.8350432e-08 1.88916e-08 2.1433767e-08
1.631293e-08 3.799895e-08

exp_avg f4 [5, 10, 3]
00000000: bc75 63ba 3000 5fba 20fe 183a 26dd f73a
00000010: 5ac5 e6ba e1b3 b9ba 5ca6 00ba 0373 7f39
00000020: 6e5b 863a ea26 0437 165a 07ba 7637 9b3a
00000030: 045f 5aba 6c35 9f3a 73fe 98b9 0e59 9aba
00000040: fd9a f13a c79d 313a f250 a2b9 4eb8 8a3a
00000050: bf0c c339 3a33 1b3b 2db8 21ba 7d48 c4ba
00000060: 46c2 abba c7f9 3e3a 734a 87b9 2d8d a8ba
00000070: 950d bf3a b046 ab3a 52a3 f1b8 6fe6 8fb9
00000080: 21f0 163a f366 07ba ef0f b23a 1275 453a
00000090: 4e5f bd3a d93a e13a 47e1 c83a 1cf7 b33a
000000a0: a1d1 573a 994c 0e3a 4a2e 2eba 7800 f7b9
000000b0: bae6 a4b9 3071 2f3a 3c1b 2db9 dffb 0f38
000000c0: ce9e a438 bd06 abb9 a4b8 a8b9 fcb9 8cba
000000d0: 4b83 41ba ce58 bcba 18ce 43b9 a1d5 053a
000000e0: 0a1a 883a 9c4c 7c3a 408f 8eb9 3bdf 04b8
000000f0: 9ec8 6fba 25f6 233a 6f75 84b9 de0a 7a3a
00000100: 6e97 22bb 8c35 813a 19e1 06ba b25b 3639
00000110: b6b2 7539 831c 95ba 5d26 5d39 f442 9b39
00000120: 7f8c e739 fa87 ab39 df97 01ba 4714 a2b9
00000130: 02b8 a73a 291f 2dba 4029 46b8 ee7d 053a
00000140: 6baa 96ba f930 b23a 1729 9cba ca97 273a
00000150: f1de 9538 61d9 7e39 6d86 a4ba a013 29ba
00000160: b61a e23a a124 1fba 3334 86b9 fa89 27b7
00000170: 793a 1a3a eb0b e73a 2c3f e0b9 e278 0bbb
00000180: 6f27 59ba bf4e 72ba 817b a9b9 71c7 c2b8
00000190: 7cc2 42ba a7a6 1f3a 55eb 02ba bc68 293a
000001a0: 0017 39b8 12b6 c0ba db10 f539 fc4b 553a
000001b0: 0f0d ccb9 ada1 3a3a 9783 333a eec6 ce3a
000001c0: 1d4e fc39 a6d5 6cba 8807 9eba c935 853a
000001d0: 937f 8039 aaf8 cfba 22a1 3338 2868 a93a
000001e0: 8cbf c739 5b31 d839 c955 8cb9 1442 68b8
000001f0: cc6d 06ba 8c33 e139 a217 b7b9 b2d1 22ba
00000200: 8a10 2cba 4d99 34ba 53f5 8039 feb5 5339
00000210: 3db2 323a 2093 c6b9 a3be e1b9 89dc 2038
00000220: 1619 a4b9 ca9c 0fba fcb1 b439 cd00 b339
00000230: f44c 4f39 a037 9fb9 4b9c 8db8 f2ce b33a
00000240: 6b12 973a 5cef c6b7 b79e 29ba 4633 55b9
00000250: d9d1 3d39 6e44 cbb9
-0.00086769066 -0.0008506803 0.00058362074 0.0018910512 -0.0017606423 -0.0014167988 -0.0004907602 0.0002436154
0.0010250637 7.8768735e-06 -0.0005163265 0.001184209 -0.00083301985 0.0012146658 -0.0002918128 -0.0011775808
0.0018433031 0.0006775525 -0.00030959357 0.0010583492 0.00037202795 0.0023681656 -0.0006169107 -0.0014975216
-0.0013104163 0.00072851445 -0.00025804676 -0.0012859456 0.0014576191 0.0013067331 -0.00011522196 -0.00027446772
0.0005757828 -0.0005165182 0.0013585071 0.00075323984 0.0014447959 0.0017183676 0.0015325927 0.001373026
0.0008232836 0.0005428284 -0.0006644471 -0.0004711186 -0.00031452422 0.00066925865 -0.00016508711 3.432843e-05
7.849709e-05 -0.00032620682 -0.00032181025 -0.001073658 -0.000738193 -0.0014369728 -0.00018673425 0.00051053806
0.0010383737 0.0009624453 -0.0002719108 -3.1679152e-05 -0.0009147021 0.0006254635 -0.00025264497 0.00095383625
-0.0024809497 0.0009857877 -0.00051452365 0.00017391032 0.00023431596 -0.0011376295 0.00021090494 0.00029613788
0.0004416443 0.00032716972 -0.000494359 -0.00030914156 0.0012795927 -0.00066040695 -4.7245296e-05 0.00050923123
-0.001149488 0.0013594917 -0.0011914101 0.0006393163 7.1464e-05 0.00024304308 -0.0012552269 -0.0006449763
0.0017250392 -0.0006070827 -0.00025597363 -9.986101e-06 0.0005883347 0.0017627453 -0.00042771676 -0.0021281769
-0.0008283769 -0.00092433015 -0.0003232621 -9.28779e-05 -0.0007429493 0.0006090202 -0.00049941737 0.0006462445
-4.4128858e-05 -0.0014702699 0.000467426 0.0008136628 -0.00038919642 0.00071194285 0.00068479165 0.0015775838
0.00048123384 -0.00090345216 -0.0012056688 0.0010163124 0.00024509113 -0.0015866954 4.2826992e-05 0.0012924718
0.0003809895 0.00041235503 -0.00026766796 -5.537465e-05 -0.00051280553 0.0004295375 -0.00034922088 -0.00062110566
-0.0006563744 -0.00068892987 0.00024596843 0.00020190325 0.00068167207 -0.0003787512 -0.0004305738 3.8352362e-05
-0.00031299208 -0.00054783805 0.00034464884 0.00034142137 0.00019769726 -0.00030368287 -6.752516e-05 0.0013718291
0.0011525875 -2.37149e-05 -0.0006470489 -0.00020332364 0.00018102619 -0.0003877016

exp_avg_sq f4 [5, 10, 3]
00000000: 910c 3237 aeb7 f136 f917 5c37 97ae 8938
00000010: e27f cc37 d592 b937 3e67 ee36 cc50 f936
00000020: a5cb 2737 5a89 0937 89d7 4637 ecf1 bc37
00000030: 7fc7 ea36 289a 7f37 cf69 6737 f7c0 a937
00000040: 6512 7c37 b09f a436 78c0 6f37 c125 2937
00000050: afc4 c836 b74c 1038 9b07 9337 1c5d b937
00000060: 645f ac37 332b 0038 ceb7 3737 37e9 1138
00000070: fbc6 6f37 cbba 4737 e982 0637 afe8 6437
00000080: 2f3f f536 0a43 2937 3a82 b738 15e7 1138
00000090: 965f 2a38 25a0 0038 73e2 0438 c871 0738
000000a0: 9c19 5a37 6e6a fb36 495c a637 1c95 6237
000000b0: a1fa 3d37 73ec 9c36 ec98 9237 47f8 b337
000000c0: 0bae ff36 c992 9d37 108e 4f37 044d 0438
000000d0: a8ec 0738 caa8 0938 90b7 6737 d92e 6237
000000e0: 5f5d 0838 b954 7937 a6ec ff37 befa b737
000000f0: 6619 ef36 1516 1037 94df e836 d30f 5737
00000100: 8821 1f38 dc68 2e38 268b 6f37 091e 7c37
00000110: 25dd ee36 1321 4a37 e472 6037 2f3b c436
00000120: 114a 0937 19b3 2037 54e0 2337 d3fc 0337
00000130: adff 4337 141c 7d37 2ffd c536 7c8f 0f37
00000140: 730d 3d37 9976 ae37 e836 e137 2cbe 5f37
00000150: 80f2 7a37 4068 2837 c06c 9637 7912 3e37
00000160: 3af4 af37 b9b4 8f37 960a e336 163d 0337
00000170: b217 1e37 7788 d437 0132 ac37 d04e 4038
00000180: 5c45 ef36 43f5 0537 073b 7436 72a6 e836
00000190: 4505 5637 bf8b 0c37 9aaa a936 ff38 2b37
000001a0: 8822 0337 c0d0 5d37 58b8 ff36 ddf5 3d37
000001b0: dda6 f936 bd9c f536 4884 2637 1b27 ae37
000001c0: 9301 9037 8a52 7437 d1f2 9037 515b 2e37
000001d0: d851 2b37 22c5 9637 342d 6137 c40f a437
000001e0: f807 c136 b510 3e37 27ef 5737 debb 2c38
000001f0: 6aff f736 2b6c 9e38 8227 1137 c554 1737
00000200: 582f 3437 53df f236 390f 8d37 4167 2437
00000210: e2f0 6137 a60d 6e37 6fa5 a136 7993 bc37
00000220: 0ca0 f435 89a0 b837 a0c7 6437 37cb ef36
00000230: 4472 6637 163f c337 6720 4d37 9309 4238
00000240: b11a 0638 7960 5f37 7c45 4637 4870 bb37
00000250: a1aa 8336 38dc 3138
1.0612553e-05 7.203743e-06 1.3118603e-05 6.565189e-05 2.4378245e-05 2.2122093e-05 7.1049717e-06 7.4301843e-06
1.000139e-05 8.197816e-06 1.1851903e-05 2.2524e-05 6.996968e-06 1.5235077e-05 1.3793308e-05 2.0236226e-05
1.5024653e-05 4.906171e-06 1.4290323e-05 1.0081975e-05 5.9833615e-06 3.440372e-05 1.7527307e-05 2.2097076e-05
2.0548418e-05 3.055781e-05 1.0950445e-05 3.4787892e-05 1.4291839e-05 1.1904815e-05 8.017502e-06 1.3644035e-05
7.3089245e-06 1.0088794e-05 8.7503766e-05 3.4785906e-05 4.062018e-05 3.0666724e-05 3.168215e-05 3.2292475e-05
1.2999775e-05 7.492773e-06 1.9831716e-05 1.3505367e-05 1.1323632e-05 4.6766886e-06 1.7475766e-05 2.1454076e-05
7.6198535e-06 1.878421e-05 1.2371238e-05 3.154298e-05 3.240691e-05 3.2820542e-05 1.3811412e-05 1.3481557e-05
3.2511885e-05 1.4861283e-05 3.0508567e-05 2.1932061e-05 7.125712e-06 8.58821e-06 6.9401667e-06 1.2818683e-05
3.7939782e-05 4.158249e-05 1.4277908e-05 1.5027364e-05 7.1186973e-06 1.2047839e-05 1.33781905e-05 5.848145e-06
8.183081e-06 9.578443e-06 9.767788e-06 7.867074e-06 1.1682435e-05 1.5086513e-05 5.900532e-06 8.556872e-06
1.1268409e-05 2.0797643e-05 2.6847658e-05 1.3336114e-05 1.4957623e-05 1.0037853e-05 1.7932034e-05 1.13291835e-05
2.0975353e-05 1.7131084e-05 6.7663595e-06 7.822431e-06 9.423051e-06 2.5335916e-05 2.0527283e-05 4.5849767e-05
7.1308295e-06 7.984522e-06 3.6393192e-06 6.9335156e-06 1.2756621e-05 8.377187e-06 5.056453e-06 1.0205665e-05
7.816248e-06 1.322123e-05 7.6210526e-06 1.1322522e-05 7.4402037e-06 7.3198157e-06 9.92517e-06 2.0760626e-05
1.716687e-05 1.4562751e-05 1.7279208e-05 1.0392469e-05 1.021145e-05 1.797319e-05 1.342157e-05 1.9557665e-05
5.752776e-06 1.1328772e-05 1.2870681e-05 4.118296e-05 7.3909077e-06 7.554175e-05 8.651872e-06 9.020038e-06
1.0739859e-05 7.2381604e-06 1.6815598e-05 9.799202e-06 1.346713e-05 1.4189083e-05 4.817433e-06 2.2480019e-05
1.8225996e-06 2.2009264e-05 1.3636338e-05 7.1464124e-06 1.3735673e-05 2.3275188e-05 1.2226496e-05 4.626212e-05
3.1972948e-05 1.3314298e-05 1.1817898e-05 2.2344422e-05 3.923968e-06 4.2405183e-05

exp_avg f4 [5]
00000000: 4d5c fe2f 0f27 e7af dece f6af c697 a92e
00000010: 3c1c cd2e
4.6267914e-10 -4.2046408e-10 -4.4894127e-10 7.7121906e-11 9.327336e-11

exp_avg_sq f4 [5]
00000000: 6106 8423 2d9f 3723 971e 4223 877f 3123
00000010: b314 4623
1.431417e-17 9.954157e-18 1.0523239e-17 9.622194e-18 1.0737985e-17

exp_avg f4 [5]
00000000: bb02 a639 c832 8cba 9f7f 3339 487b 3fba
00000010: 2794 bf3a
0.00031664022 -0.0010696286 0.00017118313 -0.0007304442 0.0014616296

exp_avg_sq f4 [5]
00000000: 0763 6437 a8ab 5f37 cef7 f736 63ea 9838
00000010: e614 9f37
1.3612916e-05 1.3331803e-05 7.390022e-06 7.291583e-05 1.8964009e-05

exp_avg f4 [5]
00000000: 5411 a6b7 a03f 02b8 aa88 a0b7 cf9c b6b7
00000010: 41ba 6338
-1.9796811e-05 -3.105367e-05 -1.9137125e-05 -2.176911e-05 5.429448e-05

exp_avg_sq f4 [5]
00000000: ed3f 5133 ce77 8233 083d 8333 e9db c633
00000010: fb1c 9834
4.8719745e-08 6.075389e-08 6.1112644e-08 9.260095e-08 2.8333292e-07

exp_avg f4 [1, 5, 3]
00000000: 2ca8 763b fc31 983b 69b2 a63b 967f 3e3b
00000010: 0b75 873b 7bdc 443b c506 ceba e9eb e7ba
00000020: a2f4 113b b501 583b c130 103b 61f8 8bba
00000030: 6fdf c73b 49a2 413b 17a3 f0b9
0.003763686 0.0046446305 0.005087186 0.0029067746 0.0041338257 0.0030038643 -0.001571857 -0.0017694208
0.0022271057 0.0032960002 0.0022001716 -0.0010678881 0.0060996334 0.0029546192 -0.0004589788

exp_avg_sq f4 [1, 5, 3]
00000000: 6f0c 5c39 878a 163a 96ad 6439 c03d 8c39
00000010: 680a 9039 f916 ae39 ae65 ab39 fcfe af39
00000020: 8b9d 4d39 d13e 0f3a b285 1e3a 630f 143a
00000030: fbef e039 18ed 4b39 c382 4f39
0.00020985467 0.0005742688 0.0002180844 0.00026748888 0.00027473574 0.00033204982 0.0003269142 0.0003356858
0.00019609013 0.00054643775 0.0006047144 0.0005648045 0.0004290341 0.00019447913 0.00019789771

model.conv1.weight f4 [32, 3, 3]
00000000: fd3a 903c 0db9 583d 43c0 883e 4600 e1bd
00000010: b13b c8bd bbc2 c13e c2fe 843e 3ebc a9bd
00000020: bb26 b23e 0627 053e 0a10 e73d c0fd 253e
00000030: 4acb 22be 32ed 103e db00 5bbd 01e0 71be
00000040: 16af fabd f5e9 4dbe b781 063e ab9d 933e
00000050: 28c4 083a b07e 743e 1218 cb3c a3f6 7ebe
00000060: f0d3 813e 26e1 5ebe 417f 1ebe 1ac1 bebd
00000070: df0c 81be 0e4c 973c 3db3 e13c f0ba 013b
00000080: c8ab 053e 0ba2 8d3e e1e9 5dbe 6015 03be
00000090: 3b74 39be a483 41be ea41 81be 93a4 9fbe
000000a0: bd47 5bbe 5fb2 eabe c792 093e 0349 d9bd
000000b0: 145e 30be a33c 03be 6d9e 84be 36a6 ebbd
000000c0: 87ca e73d 57b6 71be 85ec af3e fadf eabd
000000d0: 9884 3ebe 015c 883c 5d60 1b3e 70db c7bd
000000e0: 0aaf 6d3e abe4 353e e163 643e d0a4 fbbc
000000f0: 1faa 5dbe 7a51 553e 28f1 67be 12db 243b
00000100: c9a3 a63d 7fbc 21be 3fb5 22be 27e4 fa3d
00000110: 8122 fbbd a52e 883e cbf0 9d3d 09b3 49be
00000120: 0fd9 9abd 72c7 223e 9779 c6bd c372 79bd
00000130: 08b0 e33a 08d9 5fbd 9540 143e ff01 a13e
00000140: 0021 8ebd d7aa 473e 0add 82be 12b9 9ebd
00000150: 2157 94be 88c7 5abe a75e f3bd b671 753c
00000160: 6168 37be fb4d 8d3e 2d74 063c 0976 9d3e
00000170: 651b c93d c38c 87be ddba 3d3e 23c3 2d3d
00000180: e514 553e d7db 69bb ea96 7dbe d40a 19be
00000190: 3699 81be 22a7 943e 4486 3ebe 847b 863d
000001a0: 8d26 283e 6747 423e a619 af3d 3204 6b3e
000001b0: cda1 f4bc 08c0 32be 1439 9c3d c33b 493e
000001c0: fdea 70be fcc5 84be a689 79be 0a63 973b
000001d0: 9958 db3d 38ce 2d3d 1464 5abd f613 1cbe
000001e0: b644 3fbe 1372 cbbd b451 f53d 9234 4abe
000001f0: 0bcb 743e 8f2f bf3d 0ab8 80be 1628 573d
00000200: b99f 893e c0ed 2bbe 76b6 a2be 7150 fb3c
00000210: 72d4 94be 3eee 583d 8691 d7bd 9ba6 4c3e
00000220: 868a 953e b942 943e 5aae 273d f622 2dbd
00000230: 0a86 a63c b440 09be 73cc 8a3e 3f59 84bd
00000240: 5be3 c83d 8d40 04be 4a1f c6bc f814 db3d
00000250: 1690 733e 6220 f9bc 9855 19be 4aa5 ec3d
00000260: 3335 83be 495b db3e 5139 36bd bdab b83e
00000270: 04dc bd3e 7d6a 7ebe e94c c5bc 6215 893e
00000280: 288e 1e3e c3d2 013e 4727 7bbe 0bd8 7e3e
00000290: 5aea 923d 0ade 97be 0728 603e 8b5e 933e
000002a0: 2737 59bd 1c95 e1bd eec2 523e d3c7 033e
000002b0: c646 c0bc 353a 6c3e ced7 bd3e 54cd ca3d
000002c0: 84dd 613e e227 9d3e d925 93be b8c6 0ebe
000002d0: 062a 4fbd 3275 60be cc4f 963e ca45 48bd
000002e0: cacf 9c3e 5d92 2d3e 84d3 80be 9b44 ad3d
000002f0: 6934 113e bafe 573d 8802 4e3e d708 273e
00000300: b620 4bbe ab49 fabd 6fff 2abe 36bf 6f3e
00000310: ccee a5bd 97ac 5a3e 4813 26be 766f 0bbe
00000320: 55d9 39be 1512 27be 39a1 6a3d 2f29 bdbd
00000330: c4ac 7bbe 4a43 5c3e 0474 ffbc eb3e bd3c
00000340: 19f4 0b3e d93e 65be 9b7e 7f3c 743e 593e
00000350: 80a6 6dbe 7d4e 063d 143e 933d 4316 6d3e
00000360: 5dfe 9439 5335 8fbe e2cf 9b3e b6ec 843d
00000370: 11f6 3b3e 346e 85bd 84d6 903e 4e8e 8e3e
00000380: 6eff e7ba e42e 913b 4309 593c 5b55 bf3e
00000390: 3d06 37be 4774 b13d 9bdb 143e 392d 8dbe
000003a0: bfd0 e13d da20 b53e 4451 f0bd d5a6 35be
000003b0: 7cd2 583d 5295 48bd d1e1 e33d 9f36 f5bc
000003c0: 64c9 13be b8a9 f53d 3838 c5bd 2f6e 8dbe
000003d0: 3915 5ebd bb35 a83e 7946 683e 33a7 26be
000003e0: e25c 2f3c fae5 7dbe f768 5bbe 3fe2 51bc
000003f0: 845d 423e c012 f6bd 77e7 a33d 8c5e 483e
0.017606253 0.052910853 0.26709184 -0.1098638 -0.0977701 0.3784388 0.25975615 -0.082878575
0.34795174 0.13003168 0.11282356 0.16210079 -0.15897861 0.14152983 -0.053467613 -0.23620607
-0.12240426 -0.20108779 0.1313542 0.2883123 0.0005217218 0.23876452 0.024791751 -0.24898772
0.25357008 -0.21765575 -0.15478231 -0.09314175 -0.25205132 0.018468883 0.027551288 0.0019795261
0.1305381 0.2766269 -0.21671249 -0.12801123 -0.18110745 -0.18897873 -0.252456 -0.31180248
-0.21414085 -0.4583921 0.13434897 -0.10609629 -0.17223388 -0.128161 -0.2590212 -0.115063116
0.11317926 -0.23604713 0.34360138 -0.114685014 -0.18605268 0.016645433 0.15173478 -0.09758651
0.23211303 0.17763011 0.22303726 -0.030718237 -0.21646927 0.20831862 -0.22650588 0.002515499
0.08136708 -0.15794562 -0.15889452 0.12250548 -0.122624405 0.26598087 0.07711943 -0.19697203
-0.07560932 0.15896395 -0.0969116 -0.06090046 0.0017371187 -0.054650337 0.14477761 0.31446835
-0.06939888 0.19498764 -0.25559264 -0.07750143 -0.28972724 -0.21365178 -0.11883288 0.014980724
-0.17910911 0.27598557 0.008206409 0.30754116 0.09819678 -0.2647458 0.18528314 0.042422425
0.20808752 -0.0035684013 -0.247646 -0.14945537 -0.25312203 0.29033762 -0.18605906 0.065665275
0.16420956 0.1897255 0.08549814 0.22950819 -0.029862309 -0.17456067 0.07628074 0.19651704
-0.23527141 -0.259323 -0.24368915 0.0046199607 0.10710258 0.042432994 -0.0533181 -0.1524199
-0.18678555 -0.09933867 0.11978474 -0.19746616 0.2390558 0.09335243 -0.2514041 0.052528463
0.2687967 -0.16789913 -0.31779832 0.030678006 -0.29068333 0.05296158 -0.10525803 0.1998543
0.29207247 0.28957155 0.04093776 -0.04226967 0.020327587 -0.13403589 0.27109107 -0.06462335
0.098089896 -0.12915249 -0.024184842 0.10697359 0.23785433 -0.03041095 -0.14974058 0.11554964
-0.25626525 0.42843083 -0.044488255 0.36068526 0.3708192 -0.2484531 -0.024084525 0.26774126
0.15483916 0.12678055 -0.24526702 0.24887101 0.07173605 -0.2966159 0.21890269 0.28783068
-0.053031113 -0.110147685 0.20582172 0.12869196 -0.023471247 0.23069079 0.37078708 0.099024445
0.22057158 0.3069449 -0.28739813 -0.13942993 -0.050577186 -0.21919706 0.29357755 -0.04889468
0.3062728 0.16950364 -0.25161374 0.08460351 0.14180149 0.05273316 0.20118153 0.16311966
-0.19836697 -0.12221082 -0.16699003 0.23412785 -0.081021875 0.213549 -0.16218293 -0.13616738
-0.18149312 -0.16315491 0.05728266 -0.09236371 -0.24577624 0.21510044 -0.03118325 0.02310129
0.13667335 -0.22387256 0.01559415 0.2121523 -0.23208046 0.032789696 0.07189575 0.23153023
0.00028418275 -0.2797037 0.3043204 0.064904615 0.18355586 -0.0651516 0.28288662 0.27842945
-0.0017700025 0.0044306386 0.013246837 0.3736981 -0.17873473 0.08664756 0.14536898 -0.27573565
0.11026143 0.35376626 -0.1173425 -0.17739423 0.05293511 -0.048970528 0.111270554 -0.029933272
-0.14432293 0.11995262 -0.096298635 -0.27623126 -0.05421946 0.32853493 0.22683133 -0.16274719
0.010703297 -0.2479476 -0.2142676 -0.012810289 0.18980986 -0.12015295 0.08003133 0.19567317

model.conv1.bias f4 [32]
00000000: ab3c 69be c49f c7bd 415e 633e cf4d 4c3e
00000010: 792c d83e 23ed 823e ab64 723c b7e3 afbf
00000020: e478 e7bd 760c a03f c4d3 eb3b 523a c43d
00000030: 4ca0 e2be 0ea6 91be 3037 d8bd 9544 893e
00000040: 2dee a13e e1ae f93e 748f 263e acf7 b6be
00000050: 3ab2 7ebe d7cf e3bd 2bbb 27bd 6e91 4cbd
00000060: be6e 0c3f 1047 8a3e db45 9dbe ecae 2a3e
00000070: 2411 86be c7ac 2d3d c316 f93d 5673 c0bd
-0.22777049 -0.0974727 0.22203924 0.19951557 0.4222143 0.25571546 0.014794509 -1.3741368
-0.11302355 1.2503803 0.0071968753 0.09581436 -0.44262922 -0.28447002 -0.10557401 0.26810136
0.31627026 0.48766235 0.1626566 -0.35735834 -0.24872676 -0.11123627 -0.04094998 -0.04994338
0.5485648 0.2700734 -0.30717358 0.1666829 -0.26184952 0.0424011 0.121625446 -0.093969986
