exp/triplet-lstm/4-classes/version_3/checkpoints/epoch=25.ckpt (torch_old, 12218 bytes, 12 tensors)

exp_avg f4 [48, 3]
000000 2d c4 b6 3b d8 61 91 ba 0d 20 a9 3a f3 87 12 3b
       0.005577585 -0.0011091782 0.0012903229 0.0022358864
000010 62 ac 24 3a c5 f8 7f 38 02 b0 2f 3a 40 25 32 b9
       0.00062817906 6.1028422e-05 0.00067019474 -0.0001698928
000020 6f 41 17 39 19 bc f2 b9 25 ac ea 39 99 45 c6 b8
       0.00014424858 -0.0004629798 0.00044760216 -9.454339e-05
000030 3b d4 40 3b f5 cb 9b 38 2d b6 07 ba 29 80 9d 3a
       0.0029423374 7.428966e-05 -0.00051769876 0.0012016344
000040 d6 74 fa 38 ba 72 a9 ba a1 a5 0a 39 40 f4 89 39
       0.00011942691 -0.0012927868 0.00013222407 0.00026312657
000050 ef bd a5 38 3d f2 be b9 d9 5d 40 3a 71 8f 8e 39
       7.903191e-05 -0.00036420106 0.0007338203 0.00027191223
000060 6c 46 fb 38 17 dc ab 3a 27 04 65 3a 99 76 fa 3a
       0.0001198173 0.0013111857 0.00087362755 0.0019108831
000070 7d 19 0d ba 6d 3a 34 3a 3b 71 d1 3a 15 ae 21 3a
       -0.0005382521 0.0006875161 0.001597918 0.0006167603
000080 c0 ce 59 b9 11 da c1 3a b7 78 39 ba be 64 0c bb
       -0.00020771753 0.001478972 -0.0007075178 -0.0021422352
000090 eb a7 87 3b eb bd ab ba d1 2b 20 3a e3 8f 02 3b
       0.0041398904 -0.0013102865 0.0006110045 0.001992219
0000a0 45 9a 11 38 06 19 2d ba 1a 5a ab 3a 19 1d 36 ba
       3.471437e-05 -0.0006603155 0.0013073117 -0.0006947085
0000b0 39 1b 0c 3a 02 4a 85 ba 7e f3 18 3a 37 f2 64 39
       0.00053446327 -0.0010169151 0.0005834623 0.00021834006
0000c0 4a 8e 47 3b a8 a9 98 b9 0d 63 89 ba 29 bf a3 3a
       0.00304498 -0.00029118103 -0.001048179 0.0012492883
0000d0 63 ef a3 39 17 42 83 ba bb 39 66 38 1a 85 ea 39
       0.0003126814 -0.0010014203 5.489004e-05 0.00044731126
0000e0 89 fa 03 39 c6 27 1a ba bd 00 66 3a 19 a1 f1 39
       0.00012586465 -0.00058805605 0.0008773914 0.0004608713
0000f0 22 24 dd 3a 17 4a d6 3a 02 6d 88 b7 af f1 29 3b
       0.001687173 0.0016348985 -1.6263224e-05 0.0025931408
000100 b8 ec 58 b9 4c 00 29 3a 5f d8 c9 3a 73 6a 24 3a
       -0.0002068755 0.00064468826 0.0015399567 0.00062719657
000110 ad 96 e4 b9 1c aa ea b9 93 d1 82 3a e5 4c 18 ba
       -0.0004359981 -0.000447587 0.0009980671 -0.0005809798
000120 2d 5c ee 3c 4d fd ed bb 0c 6f b3 bc 87 43 2c bc
       0.029096687 -0.007262862 -0.021903537 -0.010514147
000130 c5 bf 2e 3b 1c 67 33 bb 5d c1 9a 39 69 ee c9 ba
       0.0026664597 -0.002737469 0.00029517236 -0.0015406135
000140 3e 3a 83 b9 1e b8 0a 3d f8 6b a6 bb 07 84 6d 3b
       -0.0002502966 0.033866994 -0.005078789 0.0036242025
000150 0a 0f 24 bb bc 82 41 3b a3 c9 f6 3a 10 82 9a 3c
       -0.0025033378 0.0029527387 0.0018828403 0.018860847
000160 eb 4c 9b ba 12 98 28 bb 78 0b 7e bb a5 f6 00 3b
       -0.0011848485 -0.0025725407 -0.003876416 0.0019678262
000170 fa 92 df 3a 1b c0 1d 3c 19 d1 99 bb e9 1f 92 bb
       0.0017057352 0.009628321 -0.004694116 -0.0044593704
000180 74 09 e3 3b 8f 6f c1 3a 1d 72 05 bb da c4 11 3c
       0.006928617 0.0014757978 -0.0020362206 0.008897031
000190 76 11 45 bb fd 12 c3 3b 41 69 68 bb a4 69 59 3b
       -0.0030070222 0.0059531913 -0.0035463127 0.003317454
0001a0 f1 73 2c 3a 27 4a 08 3d d1 09 3c bc f6 bc 2e bc
       0.0006578556 0.033273842 -0.01147695 -0.010665169
0001b0 cf 6c 19 3b f5 5a 1e ba de 90 5b b9 54 ca f3 3a
       0.0023410802 -0.00060407753 -0.00020939435 0.0018599727
0001c0 97 42 2b 39 ca 89 bb b9 2b c4 ce 3a 75 58 17 ba
       0.00016332637 -0.0003577008 0.0015775015 -0.0005773374
0001d0 6f 25 a6 39 e3 25 06 ba c7 fb 79 b7 45 7e 67 38
       0.00031689878 -0.000511734 -1.4900178e-05 5.519229e-05
0001e0 d0 bd 19 3b 7c bc 9b b9 63 8c 38 ba af 15 e3 39
       0.0023459084 -0.00029704336 -0.0007039962 0.0004331297
0001f0 ba ac 22 39 8d f3 c0 b9 e8 a3 fc b9 b3 f2 d5 39
       0.0001551387 -0.00036802553 -0.00048187305 0.0004080735
000200 30 22 86 39 2d 70 70 ba 70 f3 14 3a 99 95 c2 39
       0.00025583943 -0.0009171989 0.0005682027 0.00037114022
000210 e2 c8 db b9 30 60 9e 3a 4f bc aa 39 92 34 5d 3a
       -0.00041920604 0.001208311 0.00032565228 0.00084383145
000220 29 86 24 b8 00 f2 10 3a 72 82 7c 3a 53 84 19 3a
       -3.9225593e-05 0.0005529225 0.0009632475 0.00058562047
000230 0f 2e 69 b9 36 00 05 3a e4 e9 6a 39 e1 db bc ba
       -0.0002223777 0.0005073579 0.0002240311 -0.0014408791

exp_avg_sq f4 [48, 3]
000000 59 a9 73 39 7e b7 70 39 3f 99 44 39 d4 c7 01 39
       0.00023237373 0.0002295654 0.00018749105 0.0001237684
000010 e2 76 f1 38 f2 9a d3 38 c7 07 c2 38 43 d2 a9 38
       0.00011513919 0.00010090125 9.2520895e-05 8.097712e-05
000020 39 7c f9 38 29 86 3e 38 74 8a 08 38 df 36 13 38
       0.000118963835 4.5424476e-05 3.255387e-05 3.5098634e-05
000030 19 b8 25 38 56 d5 17 38 51 8e 07 38 79 52 8a 37
       3.951052e-05 3.619989e-05 3.231905e-05 1.6489286e-05
000040 14 98 c0 37 42 0d c3 37 e0 24 8f 37 4f fa 49 37
       2.2959e-05 2.3251985e-05 1.70641e-05 1.2038813e-05
000050 2d 15 40 37 77 6a 0c 38 3b f0 d0 37 83 12 ca 37
       1.1449022e-05 3.3477754e-05 2.4907398e-05 2.4088897e-05
000060 ff 74 79 39 c8 c6 79 39 a1 fe 51 39 22 45 c9 38
       0.00023790075 0.00023820542 0.0002002665 9.597304e-05
000070 50 f7 6b 38 66 0e 04 39 d2 ae db 38 b9 64 d5 38
       5.6258694e-05 0.00012593865 0.000104752966 0.000101753925
000080 88 bf bc 38 c7 91 fb 38 ab b1 bb 38 9a 4e 30 39
       9.000214e-05 0.00011995766 8.949948e-05 0.0001681395
000090 f0 85 a1 39 d5 96 7c 39 2f fa cd 39 ba dc cd 38
       0.00030808104 0.00024088782 0.00039287048 9.816275e-05
0000a0 c5 e3 ba 38 40 f4 a4 38 ca ec 60 39 bc e4 17 39
       8.9115965e-05 7.8656245e-05 0.00021450515 0.00014485692
0000b0 9f 91 80 39 37 6b 81 38 eb 01 39 38 03 74 47 38
       0.0002452256 6.17117e-05 4.4109223e-05 4.755334e-05
0000c0 dd 02 53 38 69 20 42 38 e4 bd 2e 38 b3 4a b6 37
       5.0308987e-05 4.628339e-05 4.1661682e-05 2.1730875e-05
0000d0 0d 17 ea 37 f6 d5 c6 37 5f b1 ee 37 00 f7 a0 37
       2.7905708e-05 2.3703073e-05 2.8454406e-05 1.9188505e-05
0000e0 90 a4 91 37 5a 33 63 38 8e a0 2a 38 8b d4 1f 38
       1.7361977e-05 5.4168842e-05 4.0680687e-05 3.81065e-05
0000f0 a6 be be 39 c3 4e aa 39 d4 73 98 39 42 39 16 39
       0.00036381668 0.0003248361 0.00029077998 0.00014326445
000100 7f c8 e3 38 86 49 5b 39 27 cb 04 39 fd ad 05 39
       0.00010861549 0.00020912857 0.00012664181 0.00012748684
000110 86 a3 df 38 61 c2 13 39 9d 7b f8 38 eb c9 04 39
       0.00010663927 0.00014091424 0.00011848586 0.00012663721
000120 a9 51 4a 3d c3 70 3c 3d 47 4f 52 3d d1 e9 b5 3b
       0.049394283 0.046005975 0.051345136 0.0055515547
000130 d1 2b 68 3b 89 0d b1 3b 1b b5 9e 3a 16 c0 4a 3a
       0.0035426507 0.005403225 0.0012108417 0.00077343115
000140 c0 ae 87 3a 20 2a 8d 3c 95 14 18 3c 7c 37 89 3c
       0.0010351762 0.017232 0.009282251 0.01675009
000150 df 0f 8e 3b b2 6f 69 3b 55 f6 53 3b a8 99 b8 3a
       0.004335388 0.0035619554 0.003234287 0.0014083879
000160 36 39 83 3a da 1e 86 3a 11 09 9e 39 e9 40 14 39
       0.0010011557 0.0010232583 0.00030142863 0.00014138561
000170 68 af 21 39 f7 9e c7 3a 93 36 2d 3a 8e 24 4b 3a
       0.000154195 0.001522987 0.00066075585 0.00077492825
000180 ba 82 46 3b 70 63 04 3b ed b7 16 3b 4f ec 18 3c
       0.0030290321 0.002020087 0.0022997812 0.009333684
000190 fa 97 c8 3b f7 0a 30 3c cf d2 28 3b 9c 1d 0b 3b
       0.0061216326 0.010744802 0.0025760417 0.0021227365
0001a0 e5 e8 0b 3b 39 49 53 3c 01 b4 80 3b 30 f9 9c 3b
       0.0021348533 0.012895876 0.003927708 0.0047904477
0001b0 8a bc 81 38 ea d0 3e 38 71 59 a5 38 2f 12 94 38
       6.1863175e-05 4.5494096e-05 7.884473e-05 7.060577e-05
0001c0 7b c9 6f 38 cb 80 4e 38 cf 1c 1e 39 60 90 09 39
       5.7169684e-05 4.9234175e-05 0.00015078786 0.00013119122
0001d0 d2 08 53 39 d3 d4 65 37 aa 67 3d 37 6e 90 3d 37
       0.00020125814 1.3699016e-05 1.1289414e-05 1.12989055e-05
0001e0 b6 4e d3 37 ed d9 b2 37 01 c5 97 37 f7 72 91 36
       2.5189813e-05 2.1320733e-05 1.809234e-05 4.3347204e-06
0001f0 65 85 a3 36 5d 32 b9 36 04 56 11 38 eb 41 ec 37
       4.8733077e-06 5.5192927e-06 3.4650802e-05 2.8164088e-05
000200 a1 e4 ca 37 74 2f e1 37 cf 1e a3 37 17 5c 95 37
       2.418674e-05 2.6844187e-05 1.944546e-05 1.7805067e-05
000210 ed c1 4a 39 d7 0a 3b 39 7e 1f 26 39 77 7e 3a 38
       0.00019336464 0.00017837748 0.00015842725 4.4463635e-05
000220 c7 82 e7 37 88 4e 74 38 b4 c8 3a 38 73 7c 36 38
       2.7598244e-05 5.824727e-05 4.4532775e-05 4.3508084e-05
000230 75 5e 19 38 d4 c4 19 39 35 0c 08 39 ad 68 36 39
       3.6566013e-05 0.00014664541 0.00012974518 0.00017395867

exp_avg f4 [48, 12]
000000 10 70 02 bb 1d 47 e5 b8 01 77 6f 3b dc ae df b9
       -0.001990322 -0.00010932817 0.0036539438 -0.00042664155
000010 42 61 40 ba b0 a9 ef b9 d4 4e 5f 3a 32 69 59 ba
       -0.00073387113 -0.0004571206 0.0008518521 -0.00082935684
000020 d6 01 c2 3a fe c2 9a 3a d1 a5 c3 39 85 4f 3c ba
       0.0014801573 0.001180738 0.0003731684 -0.000718348
000030 0b 26 89 b9 dd d0 aa b9 e3 cc 58 b7 b2 ac 8d 39
       -0.0002615902 -0.00032580542 -1.2922307e-05 0.00027022284
000040 eb 35 8f b9 9d 7e 3a b9 2a bd e8 b9 ad cd c1 39
       -0.00027315257 -0.0001778551 -0.00044391426 0.0003696507
000050 0f a7 db b9 c2 dc 01 39 ec 8f 8b b9 ae b8 d7 39
       -0.00041895403 0.00012384637 -0.00026619376 0.00041145593
000060 e7 41 0e ba ad b7 c2 38 3b 44 ad 3a 17 85 87 b9
       -0.00054266903 9.284853e-05 0.0013219187 -0.00025848366
000070 2b 91 24 b9 96 2d 5b b8 2e 44 ef 39 70 be cc b9
       -0.00015694338 -5.2256124e-05 0.0004563643 -0.000390518
000080 bf 77 36 3a 89 32 e0 39 0e 1c 5f 39 95 de b5 b9
       0.00069605926 0.0004276226 0.00021277388 -0.00034688847
000090 1d e5 58 39 d6 d5 cb b7 bd f4 d2 b9 49 7c 55 b9
       0.00020684717 -2.429906e-05 -0.00040236666 -0.00020359563
0000a0 03 11 1b b8 a8 57 82 b8 4a 17 19 b9 4e 5a 15 39
       -3.6970723e-05 -6.21521e-05 -0.00014599893 0.00014243388
0000b0 00 12 43 b9 2a 0e 92 b9 c3 ed f4 b8 63 59 12 39
       -0.00018603355 -0.00027857843 -0.00011679113 0.00013956944
0000c0 56 e9 e3 b9 86 24 88 b9 99 67 de 39 2f 92 6a 39
       -0.00043470663 -0.00025967153 0.00042420326 0.00022370437
0000d0 84 c7 8f b9 16 4e 49 b9 69 65 42 b9 b6 57 14 39
       -0.00027423736 -0.00019197943 -0.0001853906 0.00014147055
0000e0 0c 73 ce b8 20 ff 8e 39 16 88 e2 b8 0d e3 6e 39
       -9.8442746e-05 0.00027274434 -0.00010801868 0.00022782032
0000f0 60 ca 51 39 58 19 aa 38 e0 98 ff b9 64 be fe b8
       0.00020007184 8.110952e-05 -0.0004875129 -0.00012147127
000100 08 99 51 39 6d 34 41 39 7c 9e 9b 37 0a 32 b5 b8
       0.00019988802 0.00018425444 1.855124e-05 -8.640073e-05
000110 22 d6 6d b8 74 e5 a8 b9 5f c6 29 39 f8 16 56 b7
       -5.670463e-05 -0.00032214413 0.00016190995 -1.2760742e-05
000120 48 dc ef 38 b8 1a e7 b8 4f 69 e1 b9 1a c1 c9 38
       0.00011437439 -0.00011019915 -0.00042993805 9.620395e-05
000130 1d 93 0d b8 5a 10 a8 b8 7c da 73 b9 10 6f 52 39
       -3.375403e-05 -8.01391e-05 -0.00023255678 0.00020068535
000140 d6 84 a1 b9 03 01 0a b9 0f c6 0f b9 90 da 51 39
       -0.00030807283 -0.00013161082 -0.00013711325 0.00020013214
000150 b2 1b 31 39 14 df fb b8 1f 88 16 ba b4 f4 90 38
       0.00016890353 -0.00012010164 -0.00057423295 6.9120346e-05
000160 38 5a e7 b7 53 8f e3 b8 09 95 90 b9 cd d3 78 39
       -2.7579357e-05 -0.000108509 -0.0002757686 0.00023730025
000170 01 ce bd b9 fc d3 36 b9 89 af 2e b9 fd 3b 86 39
       -0.00036202374 -0.00017435843 -0.00016659325 0.00025603166
000180 72 ca 1b 3a fa a6 01 ba 12 2b ed ba a9 24 5c 3a
       0.00059429475 -0.0004945841 -0.0018094501 0.0008397797
000190 9e 59 d2 b8 80 4a 06 b9 b9 0f 92 ba f8 28 80 3a
       -0.00010030273 -0.00012806989 -0.0011143602 0.0009777835
0001a0 56 8d b9 ba 04 3c d2 b9 68 b0 1b ba 0f 8e 81 3a
       -0.0014156501 -0.00040099036 -0.00059390673 0.0009884256
0001b0 75 86 9a ba cf de df b8 86 f3 16 3b 5e 74 85 b9
       -0.0011789339 -0.0001067497 0.0023033335 -0.00025454437
0001c0 bb aa 0d ba da d6 91 b9 2e 13 dc 39 70 e1 ba b9
       -0.0005404164 -0.00027816632 0.0004197596 -0.0003564465
0001d0 7f ff 5f 3a 44 d3 52 3a 3e 52 ce 38 7c a1 b1 b9
       0.0008544847 0.0008042345 9.838164e-05 -0.00033880386
0001e0 90 b1 7b b7 10 6c a6 b9 15 52 15 ba a1 94 99 39
       -1.5002108e-05 -0.000317425 -0.000569613 0.0002929317
0001f0 a0 74 23 b9 a7 33 2d b9 7b ab 12 ba 57 00 f0 39
       -0.00015588338 -0.00016517808 -0.00055950106 0.0004577662
000200 20 cc 25 ba fa 2a 4e b8 3a 3c 9a b9 61 df 07 3a
       -0.00063246675 -4.9154252e-05 -0.0002941804 0.00051831274
000210 ce 4c 1c 3a 04 5a 30 b9 0c 33 c7 ba a8 a3 e4 39
       0.00059623725 -0.00016818201 -0.0015197708 0.00043609482
000220 a2 70 fa 38 57 4b 80 38 14 2c 1b ba a1 05 07 3a
       0.000119419085 6.117549e-05 -0.0005919349 0.000515068
000230 41 d4 62 ba 76 6b ed b9 7e e8 8b b9 cf 6a 09 3a
       -0.0008652844 -0.00045284227 -0.00026685366 0.0005242051
000240 e8 84 19 bb e6 ed f1 b9 fb 74 70 3b 8c 2d ea b8
       -0.0023425166 -0.0004614435 0.003669082 -0.00011166473
000250 c2 dc 85 ba 65 9e 5d ba 0c 04 a0 39 8d f8 aa b9
       -0.0010212886 -0.00084540836 0.00030520593 -0.00032610112
000260 50 2e 79 3a eb fe d4 3a 5a b4 08 b9 88 50 3e b9
       0.00095054973 0.0016250288 -0.00013037157 -0.00018149812
000270 af f0 5e b9 fd f5 bb b9 05 c6 31 b9 de 16 9e 39
       -0.00021261231 -0.00035850695 -0.00016953803 0.00030153146
000280 34 0b 94 b9 11 66 77 b9 56 f4 06 ba b2 6e e4 39
       -0.00028237107 -0.00023593778 -0.0005148103 0.00043570023
000290 0e 0a 08 ba ab f6 bc 38 d8 b0 a5 b9 7d 91 fc 39
       -0.00051894865 9.010484e-05 -0.0003160301 0.00048173583
0002a0 ce bc 86 ba 5b f6 77 38 d0 90 16 3b 01 81 d2 b9
       -0.0010279657 5.9118825e-05 0.0022974499 -0.00040150437
0002b0 54 65 c3 b9 d3 20 62 b9 92 69 26 3a 30 b1 11 ba
       -0.00037268794 -0.00021565268 0.00063481287 -0.0005557714
0002c0 e5 12 89 3a 34 66 4f 3a a1 37 72 39 9e 45 0a ba
       0.0010457902 0.0007911653 0.00023099642 -0.0005274656
0002d0 2f e1 db 39 40 b7 90 b8 dc 11 71 ba 31 01 3c b9
       0.0004193871 -6.900588e-05 -0.00091960817 -0.00017929521
0002e0 4b 96 09 b7 c1 8a b4 b8 de d8 ba b9 a1 d6 b8 39
       -8.200829e-06 -8.608914e-05 -0.00035638263 0.00035255126
0002f0 be 87 fb b9 76 10 f0 b9 f6 90 6b b9 2c 82 b5 39
       -0.00047975586 -0.00045788632 -0.00022465349 0.00034619996
000300 03 c8 06 ba a5 5d af b9 8e 8e ed 39 2f 18 90 39
       -0.00051414984 -0.00033448372 0.00045310374 0.00027483838
000310 e8 34 ba b9 e6 37 9a b9 2a ce 8b b9 39 2f 60 39
       -0.00035516103 -0.00029414817 -0.0002666575 0.00021379896
000320 8e 60 36 b9 b7 e2 ab 39 6b fe 3d b9 ab f6 9c 39
       -0.00017392842 0.00032784577 -0.00018119223 0.0002993842
000330 0a ff 0e 39 db 9a 9a 38 b9 9b c0 b9 ef 34 ee b8
       0.00013637185 7.372136e-05 -0.00036737116 -0.00011358584
000340 f1 f1 36 39 f4 23 2b 39 27 36 77 38 c9 80 09 b9
       0.00017447003 0.00016321224 5.8939822e-05 -0.00013113314
000350 40 81 62 36 28 af 97 b9 90 61 46 39 ad b6 80 b8
       3.3751858e-06 -0.00028931466 0.00018919096 -6.137542e-05
000360 5a 39 18 39 5e 33 1c b9 b6 ce 18 ba e8 90 09 39
       0.00014517215 -0.00014896455 -0.0005829142 0.0001311932
000370 a1 55 3d b8 be 01 fc b8 c3 14 a3 b9 48 22 8e 39
       -4.514086e-05 -0.00012016621 -0.0003110525 0.00027109892
000380 a1 37 d8 b9 bf 14 33 b9 a0 f8 43 b9 e2 0c 8d 39
       -0.00041240177 -0.00017078499 -0.00018689269 0.00026903214
000390 c1 43 2d 39 8d f7 47 b9 58 1d 2f ba c6 9b 0b 39
       0.00016523806 -0.00019070339 -0.0006680093 0.00013314103
0003a0 ce a9 9e b8 8f 67 4c b9 78 5e bf b9 08 15 aa 39
       -7.565656e-05 -0.00019493535 -0.00036500744 0.00032440596
0003b0 3f 3c f4 b9 af cb 28 b9 e9 56 77 b9 85 1b ad 39
       -0.00046584193 -0.00016097607 -0.00023588132 0.00033017635
0003c0 90 c4 b5 39 e8 4d 4d ba a3 ec e2 ba 7d 86 95 3a
       0.0003466946 -0.00078317383 -0.0017312955 0.0011407878
0003d0 90 50 c4 b9 28 3e ce b9 88 39 bd ba 66 88 a7 3a
       -0.00037444057 -0.00039337692 -0.0014436701 0.0012781739
0003e0 bd 89 e0 ba e9 8b 4e b9 ef 86 5b ba 62 e4 ac 3a
       -0.0017130893 -0.00019697812 -0.00083742937 0.0013190622
0003f0 fb aa b3 ba aa 13 d4 b8 2e eb 2b 3b 69 41 e5 b9
       -0.0013707572 -0.000101126105 0.0026232707 -0.00043727018

exp_avg_sq f4 [48, 12]
000000 a4 10 f8 37 d3 4f bd 37 bb b8 f2 38 cf 55 18 38
       2.9571653e-05 2.2567727e-05 0.00011573868 3.631954e-05
000010 85 54 97 37 bb f9 90 37 46 eb 7e 38 f6 6d 62 38
       1.803996e-05 1.7282428e-05 6.0777435e-05 5.3985008e-05
000020 c1 cd 9e 38 bd 63 f3 37 29 c1 fb 37 36 c3 78 38
       7.572352e-05 2.9014302e-05 3.0011479e-05 5.9309612e-05
000030 16 f4 a6 36 70 13 ed 37 69 3d 9c 37 26 9b 30 38
       4.975601e-06 2.8261653e-05 1.8625246e-05 4.2106163e-05
000040 6a 8b 56 37 76 24 96 37 27 b8 94 38 a5 47 7e 38
       1.2787854e-05 1.7898372e-05 7.091491e-05 6.0625043e-05
000050 64 69 a0 38 0d 2d 3c 37 cd da 15 38 cb cb 90 38
       7.649025e-05 1.1216162e-05 3.5728142e-05 6.9044145e-05
000060 75 b2 36 37 50 13 f5 35 ee 25 44 38 3c 21 89 36
       1.0889596e-05 1.8259543e-06 4.6765366e-05 4.086787e-06
000070 1e d0 77 36 56 1b c0 35 08 aa fe 36 c1 da c1 36
       3.6927008e-06 1.431307e-06 7.589584e-06 5.7773145e-06
000080 75 7b 4b 37 86 a2 1c 37 2a d5 28 36 45 1a f0 36
       1.21284875e-05 9.336165e-06 2.5158029e-06 7.1556155e-06
000090 a1 f3 7d 36 54 b6 1f 36 10 2f 70 37 ae c4 bc 36
       3.7841749e-06 2.3798975e-06 1.4316072e-05 5.625733e-06
0000a0 a5 79 0b 36 3c cb d3 35 72 26 d8 36 44 1d b4 36
       2.078342e-06 1.5779874e-06 6.4417773e-06 5.367825e-06
0000b0 80 ff 04 37 fc cd 8f 36 da 83 40 36 19 d7 ca 36
       7.927301e-06 4.285712e-06 2.8686977e-06 6.04511e-06
0000c0 f8 41 5c 36 8f d6 75 37 8d 3b 06 37 a6 d6 ae 37
       3.2820953e-06 1.4653094e-05 8.000888e-06 2.084237e-05
0000d0 07 05 00 37 f0 67 2c 37 40 88 13 38 f2 27 04 38
       7.630565e-06 1.0276199e-05 3.5174424e-05 3.1508454e-05
0000e0 30 59 1d 38 d1 38 e0 36 da 20 9e 37 e5 0d 12 38
       3.751478e-05 6.6823345e-06 1.8850365e-05 3.4822053e-05
0000f0 d7 a8 3f 36 3f 79 1c 37 3a 65 85 36 4c 08 66 37
       2.8559496e-06 9.326554e-06 3.975493e-06 1.3711e-05
000100 f6 3e bc 36 39 60 f9 36 80 6f b3 37 c9 77 a2 37
       5.610166e-06 7.43198e-06 2.1390384e-05 1.9367684e-05
000110 62 1d bd 37 ff 5f ba 36 27 6f 4c 37 55 ac b3 37
       2.2544238e-05 5.5544074e-06 1.2185227e-05 2.1418711e-05
000120 ee b9 07 35 c0 84 d2 35 1f 6a 25 36 70 83 0b 36
       5.056198e-07 1.5684855e-06 2.4648687e-06 2.078912e-06
000130 97 6a 4a 35 6c f2 77 35 d5 3f 83 36 7d dc 58 36
       7.540597e-07 9.236744e-07 3.9115353e-06 3.231485e-06
000140 3f 8d 93 36 b9 10 23 35 46 65 fa 35 68 2f 7b 36
       4.3973846e-06 6.0746567e-07 1.8655926e-06 3.7429509e-06
000150 e0 19 cc 35 cd a9 73 36 6f f1 a7 36 c8 cf 9d 36
       1.5206715e-06 3.6308659e-06 5.0050944e-06 4.7031535e-06
000160 04 f3 05 36 ce 11 24 36 ee 94 11 37 7e ee fd 36
       1.9959998e-06 2.4448268e-06 8.677349e-06 7.5677517e-06
000170 81 32 1e 37 1c ba 02 36 6a c7 97 36 8e 92 0c 37
       9.429293e-06 1.947984e-06 4.5233655e-06 8.378773e-06
000180 4d f9 2c 37 bd 7b 17 38 68 74 7a 38 25 05 67 38
       1.0310044e-05 3.6116446e-05 5.9713057e-05 5.5079483e-05
000190 14 d3 84 37 9e 70 af 37 45 eb c8 38 6e 76 a3 38
       1.5833917e-05 2.0914067e-05 9.5805655e-05 7.794505e-05
0001a0 4a 2f e3 38 c6 4c 83 37 3b 98 3a 38 d2 d5 c0 38
       0.00010833012 1.5652167e-05 4.448763e-05 9.1951006e-05
0001b0 97 be 82 37 4f 1e 68 36 ed ac 84 38 09 62 fd 36
       1.5585958e-05 3.4588336e-06 6.3264604e-05 7.5514004e-06
0001c0 4f 97 b1 36 d6 e1 3b 36 e8 cf 51 37 b4 75 33 37
       5.2926257e-06 2.7996625e-06 1.2505778e-05 1.0696636e-05
0001d0 70 95 9d 37 a1 03 63 37 2f c1 9f 36 6a 0d 4d 37
       1.8785446e-05 1.3531099e-05 4.761059e-06 1.2222075e-05
0001e0 bd 5a b3 36 0e bc f2 37 3b ab 6a 37 7c f7 2a 38
       5.345179e-06 2.8936218e-05 1.3987355e-05 4.0761646e-05
0001f0 cb eb 6c 37 e8 1c a1 37 29 f6 91 38 78 7b 7f 38
       1.4121596e-05 1.9206156e-05 6.95999e-05 6.0911727e-05
000200 0a 81 9b 38 d6 86 4a 37 dd 56 19 38 ea 77 8f 38
       7.415011e-05 1.2071532e-05 3.655894e-05 6.841107e-05
000210 b9 1a 0e 37 09 10 7a 36 07 e4 1f 38 a0 c1 c6 36
       8.470081e-06 3.7262237e-06 3.812092e-05 5.9234007e-06
000220 d7 0e 53 36 b5 ae 21 36 a0 f0 4d 37 d3 4a 1c 37
       3.1450088e-06 2.4092562e-06 1.2274977e-05 9.315746e-06
000230 ea 7a 89 37 2f 2f f3 36 2b 76 9b 36 94 24 45 37
       1.6388909e-05 7.2474572e-06 4.6331165e-06 1.17506315e-05
000240 40 64 54 38 b4 9c b8 37 29 f1 47 39 c4 7f 12 38
       5.0638104e-05 2.200748e-05 0.00019067958 3.4928104e-05
000250 b0 d8 b9 37 af 84 9d 37 d6 91 83 38 90 d9 68 38
       2.2154622e-05 1.8777644e-05 6.273731e-05 5.551573e-05
000260 ac f1 af 38 cb 85 3d 38 a1 92 f9 37 f4 f1 7e 38
       8.389665e-05 4.5185716e-05 2.9751393e-05 6.0783655e-05
000270 4c 3c 94 36 ca 31 cc 37 38 57 6d 37 0d e8 11 38
       4.417763e-06 2.434188e-05 1.4146608e-05 3.4786808e-05
000280 fc 3f 43 37 04 2b 82 37 79 8c 76 38 a8 96 55 38
       1.1637803e-05 1.5517238e-05 5.8781796e-05 5.0923467e-05
000290 db f2 83 38 24 08 1f 37 c0 f2 fb 37 b3 e2 71 38
       6.291802e-05 9.479034e-06 3.0034571e-05 5.7670008e-05
0002a0 bf 4f e6 37 90 b4 52 36 ba 93 f2 38 2b 21 0a 37
       2.7455271e-05 3.139754e-06 0.000115669754 8.2331635e-06
0002b0 75 67 11 37 77 b5 3f 36 76 91 79 37 51 46 3f 37
       8.6667615e-06 2.8566844e-06 1.4875424e-05 1.1400859e-05
0002c0 cb b4 da 37 10 a6 bf 37 29 e6 91 36 5b c8 6e 37
       2.6071813e-05 2.2846303e-05 4.348131e-06 1.4232554e-05
0002d0 2e d1 b3 36 09 6c 4c 36 17 93 a8 37 2e cc 05 37
       5.3589674e-06 3.0461254e-06 2.0095655e-05 7.974957e-06
0002e0 32 a1 44 36 de d6 07 36 a0 bf 08 37 4b 3b e6 36
       2.9300104e-06 2.0241637e-06 8.150848e-06 6.8614368e-06
0002f0 f2 88 2a 37 fd 7d cb 36 24 05 71 36 b9 ae 00 37
       1.0164675e-05 6.0645384e-06 3.591479e-06 7.670075e-06
000300 0f 08 ba 36 2a 9c c0 37 b2 27 21 37 8f 10 dd 37
       5.54417e-06 2.2960903e-05 9.60559e-06 2.6352964e-05
000310 88 1c 6c 37 02 cb 8d 37 75 51 49 38 78 d7 3e 38
       1.4073339e-05 1.6903043e-05 4.7997997e-05 4.55002e-05
000320 1c e2 56 38 a7 9b 1e 37 6e ac ef 37 73 8c 4b 38
       5.1232157e-05 9.4537745e-06 2.8571314e-05 4.8529775e-05
000330 80 5f 70 36 9a 95 66 37 4c cd 79 36 a4 8e a6 37
       3.5818375e-06 1.37439e-05 3.722339e-06 1.9855164e-05
000340 a9 a2 0c 37 8d f9 3b 37 50 7c 02 38 40 5f ed 37
       8.3825225e-06 1.1204172e-05 3.111019e-05 2.8296956e-05
000350 fc 82 07 38 2a de 01 37 63 f5 96 37 a4 1a 03 38
       3.2308497e-05 7.740726e-06 1.799566e-05 3.1257645e-05
000360 65 f4 76 35 5b f8 2b 36 1d e9 8d 36 e9 25 6c 36
       9.199778e-07 2.5625548e-06 4.2292654e-06 3.5188807e-06
000370 4e 05 a8 35 fc 65 c9 35 35 7e db 36 2e fe b5 36
       1.2518519e-06 1.5005348e-06 6.541401e-06 5.4238108e-06
000380 46 24 f6 36 0b 37 96 35 38 21 4e 36 98 b6 cf 36
       7.335594e-06 1.119189e-06 3.0715728e-06 6.1903374e-06
000390 8c 50 2a 36 f5 c6 d5 36 0d e7 fe 36 22 43 07 37
       2.5378858e-06 6.3710563e-06 7.5966877e-06 8.062258e-06
0003a0 ac 18 70 36 72 e8 93 36 27 e0 7b 37 19 80 63 37
       3.5777148e-06 4.4080016e-06 1.5012955e-05 1.3560079e-05
0003b0 5d a5 87 37 2d df 67 36 10 82 07 37 72 bc 72 37
       1.6170257e-05 3.4551588e-06 8.07691e-06 1.44682e-05
0003c0 58 22 68 37 08 23 88 38 ff e0 92 38 9f 05 cf 38
       1.3836274e-05 6.4915104e-05 7.003731e-05 9.871576e-05
0003d0 ab 5b f0 37 7b a4 1f 38 e2 33 2f 39 83 ad 12 39
       2.8652916e-05 3.806174e-05 0.00016708628 0.00013988283
0003e0 51 cd 42 39 88 1b e1 37 e7 34 a7 38 5b 9b 29 39
       0.00018577768 2.683491e-05 7.9730344e-05 0.0001617497
0003f0 64 b8 f1 37 d1 68 78 36 2e b1 eb 38 83 1b 25 37
       2.8815302e-05 3.701589e-06 0.000112386755 9.841172e-06

exp_avg f4 [48]
000000 e2 fe ba 3b df 0c 56 ba 62 cb 27 3b 64 dd 2b ba
       0.005706654 -0.000816537 0.0025603403 -0.0006556122
000010 b5 18 5f 39 37 7a 45 ba df 17 80 ba d9 d3 9b ba
       0.00021276141 -0.0007533165 -0.0009772739 -0.0011888697
000020 83 47 8e bb 18 6a 73 3b c3 54 e3 ba e1 b1 39 bb
       -0.004342021 0.0037142094 -0.0017343987 -0.0028334784
000030 6b f7 a9 3b 12 7b 86 ba e4 d0 82 3b ab 35 cd ba
       0.005186965 -0.0010260066 0.003992187 -0.0015656253
000040 7c 31 07 39 4f a1 1e ba 07 d6 a3 ba 54 b8 b9 ba
       0.00012893038 -0.00060512585 -0.0012499698 -0.0014169314
000050 4a 74 93 bb 10 70 8a 3b 98 8d eb ba 76 67 60 bb
       -0.0044999467 0.0042247847 -0.0017971275 -0.0034241355
000060 1e 9d 43 bd 6b 25 d6 bc 51 5e f7 3b f4 6c 6b 3d
       -0.04775726 -0.02614089 0.007549085 0.057476953
000070 ca 8d 5d bc 86 ea 32 3c ee e2 ba bb 11 9a 40 3c
       -0.013522575 0.010920173 -0.0057033217 0.011755482
000080 ab b1 30 bc 0d a3 06 3d b9 38 6d bc 77 a7 10 3d
       -0.010784547 0.03287034 -0.014478856 0.035315957
000090 21 56 2d 3b dd 34 82 ba ec 43 6c 3b be a7 fe b9
       0.0026449042 -0.0009933967 0.0036051227 -0.00048571633
0000a0 1e 17 1b 39 f3 ea 36 ba 59 0a bb ba 58 8c 92 ba
       0.00014790564 -0.0006977759 -0.0014270052 -0.0011180742
0000b0 06 8d 62 bb 20 18 cc 3a 30 6f 98 ba f5 ea 79 bb
       -0.003456892 0.0015571155 -0.0011629816 -0.003813443

exp_avg_sq f4 [48]
000000 0a 9a 13 3a 7b 8a ab 39 2d ed 56 39 51 9c 91 38
       0.00056305586 0.00032718838 0.00020496985 6.943255e-05
000010 81 ed 13 39 0f 61 8b 38 fa 2e e2 37 9a 9c 5b 38
       0.0001410749 6.646115e-05 2.6963175e-05 5.2359515e-05
000020 ec b4 1f 3a 87 90 82 39 0e 60 9a 39 7c d8 44 39
       0.0006092328 0.00024903213 0.00029444735 0.00018772663
000030 3d 48 51 3a 16 ed 87 39 e2 54 e9 39 29 e3 c0 38
       0.00079834816 0.0002592585 0.00044504466 9.197585e-05
000040 a4 f3 4b 39 45 6d bd 38 8c c2 2f 38 4c 2c ab 38
       0.00019450352 9.032575e-05 4.1904437e-05 8.162166e-05
000050 3c bc 62 3a 30 82 d8 39 8b 52 b9 39 5a 6b 90 39
       0.0008649265 0.00041295728 0.0003534745 0.00027545803
000060 14 a6 b9 3d 23 fd 22 3c b0 85 0d 3b a5 f0 11 3d
       0.0906488 0.009948048 0.0021594577 0.035629887
000070 46 4f 1c 3c 16 c9 96 3b 05 67 cc 39 40 75 fe 3a
       0.009540385 0.004601608 0.00038986668 0.0019413605
000080 b0 17 ac 3b 1d 78 94 3c 9d 6e a1 3b ae 35 69 3c
       0.005251847 0.01812368 0.004926516 0.01423399
000090 e7 ad 29 39 a5 63 17 39 5f e9 ab 39 5b 64 a7 37
       0.0001618188 0.00014437603 0.00032789537 1.9954683e-05
0000a0 cb da a6 38 d7 7b 22 37 85 0f 51 38 f6 ee 22 38
       7.95625e-05 9.684786e-06 4.9843937e-05 3.884636e-05
0000b0 72 24 ca 39 a2 30 d7 38 8c 3c d9 38 53 19 a7 39
       0.00038555596 0.000102610575 0.00010358644 0.0003187159

exp_avg f4 [48]
000000 e2 fe ba 3b df 0c 56 ba 62 cb 27 3b 64 dd 2b ba
       0.005706654 -0.000816537 0.0025603403 -0.0006556122
000010 b5 18 5f 39 37 7a 45 ba df 17 80 ba d9 d3 9b ba
       0.00021276141 -0.0007533165 -0.0009772739 -0.0011888697
000020 83 47 8e bb 18 6a 73 3b c3 54 e3 ba e1 b1 39 bb
       -0.004342021 0.0037142094 -0.0017343987 -0.0028334784
000030 6b f7 a9 3b 12 7b 86 ba e4 d0 82 3b ab 35 cd ba
       0.005186965 -0.0010260066 0.003992187 -0.0015656253
000040 7c 31 07 39 4f a1 1e ba 07 d6 a3 ba 54 b8 b9 ba
       0.00012893038 -0.00060512585 -0.0012499698 -0.0014169314
000050 4a 74 93 bb 10 70 8a 3b 98 8d eb ba 76 67 60 bb
       -0.0044999467 0.0042247847 -0.0017971275 -0.0034241355
000060 1e 9d 43 bd 6b 25 d6 bc 51 5e f7 3b f4 6c 6b 3d
       -0.04775726 -0.02614089 0.007549085 0.057476953
000070 ca 8d 5d bc 86 ea 32 3c ee e2 ba bb 11 9a 40 3c
       -0.013522575 0.010920173 -0.0057033217 0.011755482
000080 ab b1 30 bc 0d a3 06 3d b9 38 6d bc 77 a7 10 3d
       -0.010784547 0.03287034 -0.014478856 0.035315957
000090 21 56 2d 3b dd 34 82 ba ec 43 6c 3b be a7 fe b9
       0.0026449042 -0.0009933967 0.0036051227 -0.00048571633
0000a0 1e 17 1b 39 f3 ea 36 ba 59 0a bb ba 58 8c 92 ba
       0.00014790564 -0.0006977759 -0.0014270052 -0.0011180742
0000b0 06 8d 62 bb 20 18 cc 3a 30 6f 98 ba f5 ea 79 bb
       -0.003456892 0.0015571155 -0.0011629816 -0.003813443

exp_avg_sq f4 [48]
000000 0a 9a 13 3a 7b 8a ab 39 2d ed 56 39 51 9c 91 38
       0.00056305586 0.00032718838 0.00020496985 6.943255e-05
000010 81 ed 13 39 0f 61 8b 38 fa 2e e2 37 9a 9c 5b 38
       0.0001410749 6.646115e-05 2.6963175e-05 5.2359515e-05
000020 ec b4 1f 3a 87 90 82 39 0e 60 9a 39 7c d8 44 39
       0.0006092328 0.00024903213 0.00029444735 0.00018772663
000030 3d 48 51 3a 16 ed 87 39 e2 54 e9 39 29 e3 c0 38
       0.00079834816 0.0002592585 0.00044504466 9.197585e-05
000040 a4 f3 4b 39 45 6d bd 38 8c c2 2f 38 4c 2c ab 38
       0.00019450352 9.032575e-05 4.1904437e-05 8.162166e-05
000050 3c bc 62 3a 30 82 d8 39 8b 52 b9 39 5a 6b 90 39
       0.0008649265 0.00041295728 0.0003534745 0.00027545803
000060 14 a6 b9 3d 23 fd 22 3c b0 85 0d 3b a5 f0 11 3d
       0.0906488 0.009948048 0.0021594577 0.035629887
000070 46 4f 1c 3c 16 c9 96 3b 05 67 cc 39 40 75 fe 3a
       0.009540385 0.004601608 0.00038986668 0.0019413605
000080 b0 17 ac 3b 1d 78 94 3c 9d 6e a1 3b ae 35 69 3c
       0.005251847 0.01812368 0.004926516 0.01423399
000090 e7 ad 29 39 a5 63 17 39 5f e9 ab 39 5b 64 a7 37
       0.0001618188 0.00014437603 0.00032789537 1.9954683e-05
0000a0 cb da a6 38 d7 7b 22 37 85 0f 51 38 f6 ee 22 38
       7.95625e-05 9.684786e-06 4.9843937e-05 3.884636e-05
0000b0 72 24 ca 39 a2 30 d7 38 8c 3c d9 38 53 19 a7 39
       0.00038555596 0.000102610575 0.00010358644 0.0003187159

model.NN.weight_ih_l0 f4 [48, 3]
000000 f8 e2 a9 be f4 ea 93 3e 5c 0d 8c 3e 17 5e 3e bd
       -0.33180976 0.28890193 0.27353942 -0.04647645
000010 4b bb 19 be ed 05 9e 3e f3 cd f2 3d aa 66 07 be
       -0.15012853 0.30863896 0.11855688 -0.13222757
000020 34 6a 94 3e 25 2b 60 3d 24 50 2c bb ba 21 6b 3d
       0.28987277 0.054728646 -0.0026292885 0.05740521
000030 05 09 fc bd 3f 76 ec 3d db f1 ad bd f0 7e e9 3c
       -0.12306408 0.11545991 -0.08493396 0.028502911
000040 1a fb 88 3c b3 76 cc bd e4 ac ad 3d 52 d2 27 3e
       0.016721297 -0.099835776 0.08480242 0.16388825
000050 94 36 0b be 1d 1a 10 3e 1b 0f 38 bb 48 db 87 be
       -0.13595039 0.14072461 -0.0028085175 -0.26534486
000060 25 57 01 3e 5b 0f 71 be d5 ae 28 3e 0f ac 73 be
       0.12630899 -0.23541014 0.16472943 -0.23796104
000070 7d e0 88 be 37 17 80 3e 0a e7 dd 3d 41 0b 3a 3d
       -0.2673377 0.25017712 0.10835083 0.04542089
000080 81 69 0f 3d 09 80 85 3e bc 15 b4 bd c1 49 b4 be
       0.035012726 0.26074246 -0.08793208 -0.3521252
000090 9c 0a e8 3c 0a 8c 8c 3b 80 12 47 be 9c 1b 46 be
       0.028325371 0.004289155 -0.19440651 -0.1934647
0000a0 7f b0 0d be bb 81 76 be 1d b6 7c 3d b8 f0 31 be
       -0.13836859 -0.24072926 0.061697114 -0.17376983
0000b0 35 aa e2 b7 5e 26 86 be 9a b5 4c be ee 1e de ba
       -2.7020558e-05 -0.26201147 -0.1999115 -0.0016946474
0000c0 03 25 71 3e df fc 61 be 60 2d 18 3e 6a 9c d1 3b
       0.23549275 -0.22069119 0.14861059 0.00639682
0000d0 f1 5a cb bd 65 34 51 bd 1d ec 7c 3d b0 0b 0d be
       -0.09929455 -0.051075358 0.061748613 -0.1377399
0000e0 6a 3b 1b 3e b3 88 94 3d aa 8d a1 3e 92 83 6e bd
       0.15159383 0.07252636 0.31553394 -0.058230944
0000f0 79 0f 72 be 98 3d 68 3e 8f 73 07 3d 47 bd 02 3e
       -0.23638715 0.22679746 0.03306919 0.12767516
000100 93 e4 24 3c 1c b6 4d bb 09 ca 14 3d eb ef bd 3d
       0.010064262 -0.0031389063 0.03632549 0.09274276
000110 c3 81 1d be c5 8d 92 3e 55 5b 36 3d ae aa eb bd
       -0.15381531 0.28623787 0.044520695 -0.11507164
000120 29 24 8f bd ba c6 02 3e 6d 0b ed bd c7 f5 2e bd
       -0.06989319 0.1277112 -0.11574445 -0.04271486
000130 23 1d 78 bc 7d 4d 58 bd 63 ed bc 3d ba 9d 40 3e
       -0.0151436655 -0.052808274 0.092249654 0.18810168
000140 65 e6 06 3d d6 e7 d8 bc 84 18 54 3c 58 1c 1e bd
       0.032934565 -0.026477735 0.012945298 -0.03860125
000150 4f 20 ab bd 30 41 fd bc a5 68 9f bd 39 e3 f1 bb
       -0.08355772 -0.030914873 -0.07783631 -0.0073818234
000160 92 73 93 bc 25 41 4f bd a9 48 c1 bb c0 35 95 3b
       -0.017999444 -0.050599236 -0.0058985543 0.0045535266
000170 af 98 f5 3c 87 78 26 3c 63 96 b8 3d e8 97 a8 bd
       0.029980032 0.010160572 0.09013059 -0.08232099
000180 72 f5 ff 3d 21 28 46 3d 36 5c f2 bd 11 e1 5e bd
       0.12497987 0.048378114 -0.11833994 -0.05441386
000190 7d 40 a5 bd 19 d0 51 3d ac 0b 87 bc aa 06 2e bc
       -0.08068941 0.051223848 -0.016485058 -0.010621706
0001a0 82 b2 24 bc 5b 38 39 3e 2c db 8a 3d 0d 69 20 be
       -0.010052325 0.18087904 0.06780085 -0.15665074
0001b0 23 0a 2c 3d b8 b5 2a bd bb 3b 47 3d 51 28 47 3d
       0.042001855 -0.041677207 0.048640948 0.048622433
0001c0 a2 91 89 3d a1 7a 09 be 08 78 d9 bd 98 11 5c be
       0.067172304 -0.13425685 -0.10618597 -0.21491086
0001d0 7a 37 b5 bb a4 a8 b5 3d ed cd 7f 3d 42 8c ac bd
       -0.005530295 0.08870056 0.062452246 -0.084251896
0001e0 21 e4 c3 bd b8 62 70 bd f2 ac e4 bd 67 35 a3 3d
       -0.095649965 -0.058687896 -0.11165799 0.0796917
0001f0 31 b3 d4 3d cd ff a6 bd 34 51 f1 bc 90 91 e5 bc
       0.103857405 -0.08154259 -0.029457666 -0.028023511
000200 03 a7 f2 bc 85 4e f6 bd bf a6 1f be 1d fe 1e 3d
       -0.029620653 -0.12026695 -0.15590952 0.03881656
000210 64 35 0e be 32 a6 9d bd d1 5e 9a 3c 0c 0e 6b 3e
       -0.13887554 -0.07697715 0.01884404 0.22954577
000220 ec 7b 1b bd 64 f3 41 3e ef 7f 42 3c 5d 4b 49 3a
       -0.037959978 0.18940502 0.011871322 0.00076787715
000230 60 62 7f bd 8a f2 31 bd 16 62 d4 3d 02 fb 8b be
       -0.062349677 -0.043444194 0.10370271 -0.2733994

model.NN.weight_hh_l0 f4 [48, 12]
000000 0f e7 ae 3e 77 6a 50 be 44 4d f0 3d 5f 45 0e 3f
       0.3416066 -0.20353113 0.11733487 0.555746
000010 fa df 88 3e 39 f5 60 3e 9b 85 35 be b3 f2 3f 3e
       0.2673338 0.21968545 -0.17726748 0.18744926
000020 67 99 75 be db 36 aa 3e 3d 2e 9c bd 1e 26 cc 3e
       -0.239843 0.33244976 -0.07626007 0.3987283
000030 fb 36 b6 3e b0 57 4a be 08 be 85 3d ce 82 13 3f
       0.35588822 -0.19760013 0.06530386 0.5762147
000040 f1 63 43 3e 0a 53 2b 3e 5c 9c 25 be 37 02 67 3e
       0.19081093 0.16730896 -0.16172928 0.22559439
000050 4a 89 81 3d 28 b8 51 3d 1e b8 7e 3e b2 63 27 3e
       0.06325014 0.051201016 0.24874923 0.16346624
000060 d3 93 69 be cb f0 20 be 30 2e 6b 3e 2e ae b3 ba
       -0.22810297 -0.15716855 0.22966838 -0.0013708526
000070 20 63 0a 3d 11 35 61 3e d3 a8 dd 3e 4e fd fd 3d
       0.03378594 0.219929 0.43292865 0.1240183
000080 1b 13 84 3d ad 1c 88 3e 42 4c 73 be 38 67 ee bd
       0.064489566 0.26584378 -0.23759559 -0.11640781
000090 4e 5e b1 bd 42 cc 0e be a1 7f b3 3e de 4f b6 3e
       -0.08660565 -0.13945106 0.3505831 0.3560781
0000a0 9f 70 46 3f 00 85 00 3f 75 13 73 bd 6e 68 5e bc
       0.77515596 0.5020294 -0.059344728 -0.013574703
0000b0 65 d5 5f 3e eb 78 91 3e a0 96 08 3f 02 7f 89 3c
       0.21858747 0.28412566 0.53354836 0.016784195
0000c0 c3 12 90 bc 85 39 2e be 8c 72 20 be 8c 62 2d 3f
       -0.017587071 -0.1701413 -0.15668696 0.67728496
0000d0 d7 4e 68 bd ec b4 8e 3e 08 cc 27 be 2e a8 91 bd
       -0.056715813 0.27872407 -0.16386425 -0.07112156
0000e0 b3 8f 15 be 22 d3 4a 3d a1 75 e2 3c 5c cd af 3d
       -0.14605598 0.04951776 0.02764398 0.08584091
0000f0 b1 16 25 3e 6f 64 91 3e bc 9a ab 3e 5e 46 99 3e
       0.16121937 0.28396937 0.3351649 0.29936498
000100 2f 81 0d 3e ef a3 97 bd 59 7a 87 bc 21 b3 4f 3e
       0.13818811 -0.07404315 -0.016537832 0.20283176
000110 2b e3 07 be e6 5c ab 3d e5 cf 40 3e ed 8d 80 3e
       -0.13270251 0.08367328 0.18829305 0.2510828
000120 ae 16 cb 3d 6b 27 46 be 87 73 85 3e 4d 76 d7 3d
       0.09916435 -0.19350974 0.26064703 0.10520611
000130 60 4d 99 3e cd 62 d1 3c d7 90 7c 3e 18 89 12 3e
       0.29941845 0.025559807 0.24664627 0.1431011
000140 09 06 a7 3b a0 86 8a 3d e1 9b b1 3d 3a 5b 5d 3e
       0.005097155 0.06763959 0.0867231 0.21616831
000150 07 a6 a2 bb 16 76 b8 bc 19 0d 2d 3d 0d df 80 bd
       -0.0049636397 -0.022517245 0.04224882 -0.062925436
000160 f6 d4 b1 3d dc 4f 80 3e d5 0a 5d be e9 b7 33 be
       0.08683197 0.25060928 -0.21586163 -0.17550625
000170 2e 5b 14 3d 55 d2 d0 3d 4f c8 94 3d 9b 2d 27 3d
       0.03621977 0.10196368 0.07264768 0.040814977
000180 8f 4b e0 3d 87 f5 58 3e f5 01 9a be 1c b8 e5 be
       0.10951912 0.21187411 -0.30079618 -0.44867027
000190 d8 8e cc 3c 9a 24 95 3e c1 6c 47 3e f4 e1 1a be
       0.024970457 0.29129487 0.1947508 -0.15125257
0001a0 a8 73 8b bc 90 ba 9e be 71 0c 1b be 94 64 ca bd
       -0.017022923 -0.3100171 -0.15141465 -0.09882465
0001b0 e3 da fc 3d 76 aa 7b be 19 63 f0 3d 65 55 03 3f
       0.12346437 -0.24576744 0.117376514 0.51302177
0001c0 c3 0e d8 3d 0a 93 ff 3e b3 a9 43 be 5f 51 12 3e
       0.105496906 0.4991687 -0.19107704 0.14288853
0001d0 85 b0 23 3e 18 5a e5 bd 25 08 40 3e 82 d9 ad 3e
       0.15985306 -0.11198825 0.18753107 0.33955008
0001e0 cf ad a3 ba 42 b1 e0 bd e6 33 b3 bd 31 c3 99 3e
       -0.0012487712 -0.10971309 -0.08750133 0.30031732
0001f0 ba 3f 5a 3d 8b 4d ad bd 62 d1 96 be 3b 34 e6 bd
       0.05328343 -0.08462056 -0.2945662 -0.11240431
000200 cc 02 36 3e 62 b2 3a bd 8d 33 96 bd 39 43 26 3e
       0.17774504 -0.045580275 -0.07334051 0.16236581
000210 9c 31 94 3e 4f f9 88 3e 28 0b 7e 3d 36 1f 78 be
       0.289441 0.26752707 0.06202236 -0.24230656
000220 5a 34 b4 3e 3b 95 65 bd f2 e2 1e be 16 1a 79 be
       0.3519619 -0.05605052 -0.1551626 -0.24326357
000230 a3 e7 d5 3e ec 47 e6 bd c2 47 8a 3e 27 20 59 bd
       0.41778287 -0.11244187 0.27007872 -0.05300918
000240 81 2f 56 3e 2f a2 81 3e c8 05 07 3f dc 52 3a 3f
       0.20916559 0.2531905 0.52743196 0.72782683
000250 53 26 ed 3e 85 bb 08 3f 94 29 c7 3e 9b 03 21 bf
       0.46318302 0.5341113 0.3889891 -0.62896127
000260 f1 42 bd 3e 5f f9 a7 3e 4d 04 1c 3f 07 56 c2 be
       0.36965135 0.32807443 0.6094406 -0.3795626
000270 81 7b 43 3c a6 cc 9b 3d e4 d3 d3 3d 9f 26 2e 3f
       0.011931301 0.07607393 0.10343149 0.6802768
000280 df 8f f0 3e a4 48 06 3f e4 ff 7c 3e 77 74 cd be
       0.46984765 0.5245459 0.2470699 -0.40127918
000290 ed 4c 11 bb 61 f7 0c 3e 1d ec d8 3e df ef 41 bd
       -0.0022171095 0.13766243 0.4236764 -0.0473479
0002a0 79 4f 82 be 34 ef 51 bd f0 49 4a 3d 5b 0a dd 3e
       -0.25451258 -0.051253513 0.04938692 0.43171963
0002b0 36 6a 7b be f8 cb b7 3e f2 06 a5 3e 9a a4 36 be
       -0.24552235 0.35897803 0.3223186 -0.17836228
0002c0 ea 3d 52 3d af a0 c1 3e d5 75 9b bc dc 70 c8 bc
       0.051328577 0.37817904 -0.018977085 -0.024467878
0002d0 95 53 98 be a1 ce b1 3d 6e 3b 2e 3f 53 02 52 3f
       -0.29751268 0.086819895 0.6805943 0.82034796
0002e0 df 4e f2 3d db aa 06 3f c1 c8 90 3a eb 92 4a be
       0.1183145 0.52604455 0.0011046157 -0.19782607
0002f0 70 ec 96 bb d2 fd 11 3f 7f e6 26 3f 90 88 08 3e
       -0.0046058223 0.57027924 0.6519546 0.13333344
000300 2d 6f 21 3e 4a d4 1a 3d 4d 72 ae 3d ca 63 a1 3d
       0.15765066 0.03780011 0.08517895 0.078803614
000310 88 e2 d5 3e c7 97 b2 3e 4b 4d 72 3e 98 21 f7 bd
       0.41774392 0.34881422 0.23662297 -0.120669544
000320 1c 28 e3 bd 4d 49 02 bd 3e c7 b9 3e 5a f3 b5 be
       -0.11091635 -0.031808186 0.36284822 -0.35537225
000330 04 39 3d 3f 35 cb d0 3e ba bd 86 bd 4a fc 20 be
       0.73915124 0.40780035 -0.06579156 -0.1572124
000340 9a 13 52 bd b4 a5 1b 3f 80 ec 21 3d 05 b4 87 be
       -0.051288225 0.6079972 0.039532185 -0.26504532
000350 da df 21 3d 46 31 5b be 02 7b e9 3c df f5 95 be
       0.039520122 -0.21405515 0.028501038 -0.29289147
000360 99 c9 5f 3d 44 05 d7 3e a5 cc 99 3e bd 80 a3 3c
       0.054635618 0.41996205 0.30038944 0.019958848
000370 95 c5 b6 3d 0d bd f3 3e c5 05 eb bd fc cf 2d be
       0.089244045 0.47605172 -0.1147571 -0.16973871
000380 3e 72 6d 3e 8a b2 96 3d 3f 02 4d 3d 76 15 12 be
       0.23188111 0.073582724 0.05005097 -0.14265999
000390 10 ca a0 3d 5c f8 5a bd a3 86 88 3e 66 9a d8 bd
       0.0785104 -0.05345951 0.2666522 -0.10576324
0003a0 eb d2 1d be 1f 34 c8 3e 8b 25 94 3e c9 e0 f9 3b
       -0.1541249 0.39102265 0.28934893 0.0076256734
0003b0 36 aa dd 3c 2e 11 6e 3d 7d 65 b0 3e aa 16 aa be
       0.027058702 0.058121853 0.3445243 -0.33220416
0003c0 5c d9 2d 3e 97 b0 0e be 67 dc 52 3e 80 58 b8 be
       0.16977447 -0.13934551 0.2059189 -0.3600502
0003d0 77 79 b1 3d ac d6 39 3e b0 c5 b0 3e 03 32 87 be
       0.08665746 0.18148297 0.34525824 -0.26405343
0003e0 94 89 61 3e 95 f7 21 3e 93 52 ba 3b 14 d8 fd bc
       0.22025138 0.15817101 0.005686113 -0.030986823
0003f0 98 7f 35 be 8c b8 48 3e 07 ca 3b 3f 88 f9 0c 3f
       -0.17724454 0.19601649 0.73355144 0.55068254

model.NN.bias_ih_l0 f4 [48]
000000 75 c0 77 be f9 be 1f 3d 62 c0 34 be 5c 65 83 be
       -0.2419451 0.039000485 -0.17651513 -0.2566327
000010 0f 81 0d 3e 61 78 c2 bd 9d 7e 55 3e 8a 38 4d bd
       0.13818763 -0.09495617 0.2084908 -0.050102748
000020 cb 56 8c be 6f 62 02 3e 4b 86 5b bd c4 59 8f 3e
       -0.27409968 0.12732862 -0.05359487 0.27998173
000030 d5 d3 65 3e f5 31 ac bb ef 1c b4 3e c0 06 36 3e
       0.22444089 -0.005254979 0.35178325 0.17776012
000040 62 9f 9f bb e0 94 4e bd c0 0b 50 bd 65 e0 96 3e
       -0.004871295 -0.050434947 -0.050792456 0.29468074
000050 1b c6 65 3d be 2b 83 3e 39 2a 17 3e 8d b7 a9 bd
       0.05609713 0.2561931 0.147622 -0.08286963
000060 55 53 83 3c ef 23 6c 3e 40 f0 9e 3e 9b 90 09 3e
       0.016030947 0.23060583 0.3104267 0.13434069
000070 50 4f ef 3c 53 1a e4 3d 92 13 01 3e 26 b1 b3 bc
       0.029212624 0.111378334 0.12605122 -0.021935057
000080 b0 c7 7a 3e f7 19 e2 bd 67 06 67 3e a2 e8 18 bd
       0.24490237 -0.11040109 0.22561036 -0.03733123
000090 ab 27 c5 3e e8 9f 89 3e 0e d1 c0 3d 09 28 a3 3e
       0.38506827 0.2687981 0.09414874 0.31866482
0000a0 5a 6f 9d 3e 19 8b 53 3e 1e e1 95 bd bf de 3f 3e
       0.30749017 0.2065853 -0.07318328 0.18737315
0000b0 c6 84 24 3d 60 9e 89 3e 7e 16 6c 3e 42 02 aa bd
       0.040165685 0.26878643 0.23055455 -0.08301212

model.NN.bias_hh_l0 f4 [48]
000000 4b 9d 15 be b8 88 49 be 08 3c 73 3e 53 61 02 bd
       -0.14610784 -0.1968106 0.23753369 -0.031831097
000010 b0 0e 33 3e a0 7b 8b 3d 99 c1 88 bd f7 56 b0 bc
       0.17486072 0.06810689 -0.06677551 -0.021525843
000020 9b 09 21 bd 12 41 96 be e3 64 10 be 33 dd 31 3e
       -0.0393158 -0.2934652 -0.14100985 0.17369537
000030 41 f4 19 3f f2 53 aa bd 9d 57 ce 3d 59 9b 1d 3e
       0.60138327 -0.083167925 0.10075305 0.15391292
000040 fe e0 3b bd 4e e8 03 3e 38 12 06 3e d0 ab 2c be
       -0.045868866 0.12881586 0.13092887 -0.16862416
000050 94 0b b4 bb 87 43 99 3c 7a bb 26 3e 17 74 b6 3e
       -0.0054945443 0.018708957 0.16282454 0.35635445
000060 4d 49 35 be 5b 1c a0 bd 5a 1a 9f 3e ae 20 17 be
       -0.17703743 -0.078179084 0.31074792 -0.1475856
000070 67 ba bf bd cc ba d7 3d 9a c5 a2 3e 9f 55 46 be
       -0.09361725 0.105336756 0.31791383 -0.193686
000080 6a d6 21 3e fc c0 84 3e c8 91 27 3e d9 9b 30 be
       0.15804449 0.25928485 0.16364205 -0.17246951
000090 f4 69 9d 3e 9a 33 05 bd 35 5e bf 3e e8 eb 80 3e
       0.30744898 -0.032519914 0.37376562 0.25179982
0000a0 57 ec 9b bd da 70 19 3e da 54 59 bd 94 93 31 3e
       -0.076134376 0.14984456 -0.053059436 0.17341453
0000b0 62 bc 89 3e e9 5d bd 3d b1 a2 09 3e 32 53 63 3e
       0.26901537 0.092464276 0.13440968 0.22199705
