true/triplet-conv/2-classes/before/version_122/checkpoints/epoch=80.ckpt (torch_old, 13978 bytes, 21 tensors)

exp_avg f4 [8, 3, 3]
0	0x3c54c8bd	0.012987313
1	0xbb83389f	-0.0040045525
2	0xbbdd79ae	-0.00675889
3	0x3c366894	0.011133332
4	0x3af0f4dd	0.0018383522
5	0x3b983b11	0.004645713
6	0xbaf55783	-0.0018718097
7	0x3bfefd50	0.007781662
8	0x392c2333	0.00016416311
9	0xbba0606f	-0.0048943083
10	0xba03af62	-0.00050233875
11	0x3bbad7a7	0.0057019773
12	0x3b6eeb45	0.003645615
13	0xbb6f64ab	-0.0036528509
14	0x3baffa05	0.005370381
15	0x3bc4db9e	0.0060076257
16	0x3aef2093	0.0018243961
17	0xbc133f13	-0.008987206
18	0xbb9d080e	-0.00479222
19	0x3c0558b6	0.008138826
20	0x3b3e461a	0.0029033483
21	0x3c0d82be	0.008637128
22	0x3bb0021f	0.0053713466
23	0xbbc9d47d	-0.006159364
24	0xbc052c79	-0.008128279
25	0x373747bd	1.0924353e-05
26	0x3ae24119	0.0017261832
27	0xbab16ebc	-0.001353703
28	0x3b1b05eb	0.002365465
29	0x3aa482d6	0.0012551199
30	0x3bfbf0de	0.0076886257
31	0x3a321f52	0.0006794828
32	0xbbde8f35	-0.006791974
33	0x3b271c2d	0.0025498972
34	0xba8bbbec	-0.0010660863
35	0xbaa4ae34	-0.0012564124
36	0xbb5a5205	-0.0033313048
37	0xba158928	-0.0005704337
38	0x3be1f825	0.006896036
39	0x3952ea0f	0.00020114354
40	0xbbf57e53	-0.0074918657
41	0x398ef1ed	0.000272646
42	0xbb527fb2	-0.003211957
43	0x3c0033f5	0.0078248875
44	0xba0968cb	-0.00052417506
45	0xbb2244f4	-0.0024760338
46	0xbb45ff55	-0.0030212004
47	0x397dcaa8	0.00024203456
48	0x3b2e77f4	0.002662179
49	0xbb02d1cb	-0.0019961472
50	0x3b2a567a	0.0025991485
51	0xbb325f86	-0.002721758
52	0x3b89d049	0.0042057377
53	0xbab26165	-0.0013609348
54	0x3c07ae33	0.008281278
55	0x3b27edc3	0.0025623895
56	0x3b871d40	0.00412336
57	0x38d14fc0	9.980751e-05
58	0xbbd88a5a	-0.0066082897
59	0x3a5d0e5c	0.00084326207
60	0xbba50143	-0.005035551
61	0xbb32d7dc	-0.0027289307
62	0x3aa50a40	0.0012591556
63	0xbb55f851	-0.0032649229
64	0x3bdf8caa	0.0068221884
65	0xbb422363	-0.0029623143
66	0x3c01f209	0.007931241
67	0xb986e820	-0.00025731418
68	0x3a8585bf	0.0010186954
69	0x3b541d6b	0.0032366167
70	0xbbb7bee3	-0.0056074723
71	0x3b3a9462	0.002846979

exp_avg_sq f4 [8, 3, 3]
0	0x3a206dca	0.00061198755
1	0x3a5428bd	0.00080932287
2	0x3983642e	0.00025060907
3	0x3a297726	0.0006464593
4	0x3a3861c9	0.0007033614
5	0x3964afad	0.00021809219
6	0x3a1c7879	0.00059688796
7	0x3a2d9b4b	0.0006622567
8	0x399c862f	0.00029854613
9	0x3947c245	0.0001905049
10	0x39ab9035	0.00032723104
11	0x3985e53b	0.00025538527
12	0x3945a138	0.00018847443
13	0x39a2c115	0.00031042905
14	0x39922d12	0.0002788087
15	0x3931056c	0.00016882055
16	0x396ad026	0.0002239352
17	0x398e1d99	0.00027106403
18	0x3975e093	0.00023448681
19	0x3a06d732	0.0005143761
20	0x39f1d1ed	0.0004612351
21	0x39609bd1	0.00021420351
22	0x3a2300eb	0.00062180933
23	0x3a0a076f	0.000526539
24	0x3971849c	0.00023032952
25	0x3a2d3915	0.0006607932
26	0x3a0b88fd	0.0005322842
27	0x39bf1720	0.00036447588
28	0x399717f5	0.00028818814
29	0x39f00513	0.00045780148
30	0x39ae0b67	0.00033196362
31	0x39ae8cfc	0.00033292908
32	0x3a0118a4	0.0004924631
33	0x39c9b541	0.00038472752
34	0x39a1720b	0.00030793282
35	0x39f3879f	0.00046449617
36	0x39909d92	0.0002758322
37	0x398687d3	0.0002565967
38	0x39a6b885	0.00031799465
39	0x39744817	0.00023296509
40	0x3995c4c3	0.00028566094
41	0x3983119a	0.0002499938
42	0x39998814	0.0002928382
43	0x39caae83	0.00038658464
44	0x3987eb65	0.0002592459
45	0x39541150	0.00020224345
46	0x399a50f9	0.00029433498
47	0x3984bbf9	0.00025317052
48	0x397349c0	0.0002320176
49	0x3996d6bc	0.0002877022
50	0x393f747a	0.0001825857
51	0x396ab703	0.00022384156
52	0x396d6278	0.00022638764
53	0x3974180b	0.0002327861
54	0x39a7c93b	0.0003200265
55	0x3972c52f	0.00023152375
56	0x3957a762	0.00020566353
57	0x396dc374	0.00022674893
58	0x398c673f	0.00026779805
59	0x394066a1	0.00018348779
60	0x3998bd26	0.00029132626
61	0x39aa3acd	0.00032468737
62	0x395e08f2	0.00021174902
63	0x39504ab0	0.00019864249
64	0x399ac957	0.0002952318
65	0x38e55c88	0.00010936806
66	0x39804de6	0.000244721
67	0x39ac9b2e	0.00032922014
68	0x39031704	0.00012501708
69	0x39292fba	0.00016134875
70	0x39986511	0.00029067
71	0x3907f46c	0.00012965658

exp_avg f4 [8]
0	0xbb210ce0	-0.0024574324
1	0x3a7610d8	0.0009386665
2	0xb7801ea8	-1.5273064e-05
3	0x3ab0abce	0.0013478936
4	0x3a2dc983	0.0006629454
5	0xbaf9df3c	-0.0019063721
6	0x3b782152	0.0037861657
7	0x3a95ad6d	0.0011419483

exp_avg_sq f4 [8]
0	0x3949b449	0.00019236015
1	0x38372e62	4.3673797e-05
2	0x384b966f	4.8539074e-05
3	0x38f7b7aa	0.00011812088
4	0x399d74fe	0.0003003254
5	0x382d8f33	4.137978e-05
6	0x393a52ea	0.0001776923
7	0x3876d136	5.8845813e-05

exp_avg f4 [16, 8, 3]
0	0xbbc41fee	-0.0059852516
1	0xb7f48699	-2.9149744e-05
2	0x3a8eddf8	0.0010899892
3	0xbb3e67ab	-0.002905349
4	0xbb289237	-0.0025721916
5	0xbb0dc1e3	-0.0021630458
6	0x3afeaa06	0.0019429333
7	0x3ac0d92c	0.001471316
8	0xba1daa22	-0.00060144265
9	0xbb9dbb04	-0.0048135538
10	0xb9365d0d	-0.00017391537
11	0xb8bb0357	-8.917477e-05
12	0xbbc78aa6	-0.006089526
13	0x39adf6b9	0.00033180954
14	0x3b7890fa	0.003792821
15	0xbab0aa3d	-0.0013478469
16	0xba7a3621	-0.0009544809
17	0xba72ed82	-0.0009266959
18	0x3b93c289	0.0045092744
19	0x3985b825	0.00025504935
20	0xbaaee4ff	-0.0013343393
21	0xbb184545	-0.0023234647
22	0xb8a8d90b	-8.051292e-05
23	0x3b121221	0.0022288638
24	0x3bad579f	0.0052899863
25	0xb988b753	-0.0002607653
26	0x3a9e9b49	0.0012100722
27	0xbb8cecf6	-0.004300709
28	0x3aebd049	0.0017991151
29	0xba139673	-0.00056300237
30	0xb90836f9	-0.0001299045
31	0xbb69e117	-0.0035687143
32	0xba0a0c41	-0.0005266108
33	0x3b590e7d	0.0033120208
34	0x3b0f1091	0.0021829943
35	0x3ac087ed	0.0014688947
36	0x3b69654e	0.003561336
37	0x3b557ede	0.003257684
38	0xbaf12687	-0.0018398323
39	0x3bcaaca7	0.0061851325
40	0x39ea2cfa	0.00044665468
41	0xb9cadd74	-0.00038693438
42	0xbbc42a78	-0.005986508
43	0xb9f6a2e3	-0.00047042136
44	0x3b0905d8	0.0020908024
45	0x3b129865	0.0022368666
46	0x3a6013fc	0.00085479
47	0xbb0d1f27	-0.002153346
48	0xbb000303	-0.0019533045
49	0x3a7f29d7	0.00097337126
50	0x393a608a	0.00017774306
51	0xba8107d5	-0.0009844253
52	0xba5be303	-0.00083880144
53	0xbb01fb02	-0.001983345
54	0x39084934	0.00012997241
55	0xb91d77b6	-0.00015017283
56	0xba15e176	-0.0005717495
57	0xba8f673b	-0.0010940799
58	0x3a0d0533	0.0005379498
59	0xba069465	-0.0005133807
60	0xbb4f3cf3	-0.0031622022
61	0xb97a74de	-0.00023885394
62	0xbaa7f58f	-0.0012814271
63	0xbaf7e465	-0.0018912671
64	0x3acc822d	0.001560276
65	0xb9467872	-0.00018927621
66	0x3ae86b42	0.0017732161
67	0x3a9a452f	0.0011769886
68	0xbaa3d553	-0.0012499489
69	0xbaefb6d0	-0.0018288735
70	0xb9e402c5	-0.00043489612
71	0x3a7d2e08	0.0009658043
72	0xbb0c62a7	-0.0021421106
73	0x3b0ce4f5	0.0021498774
74	0x3a7c41db	0.00096228503
75	0xbba6c58e	-0.0050894683
76	0xbbc0e3e7	-0.005886543
77	0xbb37f1fa	-0.0028067813
78	0xbaf75815	-0.0018870855
79	0x3a2564b4	0.00063092564
80	0xbaa04bd3	-0.0012229629
81	0xbb70214a	-0.0036640936
82	0x3b29a78c	0.002588722
83	0x3b346017	0.0027523094
84	0xbb3f79cd	-0.0029216886
85	0x3a3c4875	0.0007182428
86	0xba4eb127	-0.0007884674
87	0xba382a43	-0.00070253405
88	0x3b34fc32	0.002761614
89	0x3b6cc01f	0.0036125255
90	0x3ad50294	0.0016251379
91	0xba721467	-0.00092346076
92	0xba0261bd	-0.00049736706
93	0xba3c0ef8	-0.00071738614
94	0x3aeb24a5	0.0017939998
95	0x39419a41	0.00018463378
96	0xbb08b630	-0.0020860545
97	0x3ae3bbb4	0.0017374665
98	0xbbc176ec	-0.005904069
99	0x3ae9b528	0.0017830478
100	0x3ba3b3b0	0.0049957857
101	0x3b1e875e	0.0024189572
102	0x3afe67ff	0.0019409655
103	0x3a0ca417	0.00053650275
104	0x3aeb6006	0.0017957694
105	0xbb3954b9	-0.0028279258
106	0xb9e0c78c	-0.00042873283
107	0xbb547c28	-0.0032422636
108	0xbb2b24a4	-0.0026114369
109	0x3a05bdb1	0.00051018136
110	0xb98bf882	-0.000266973
111	0xba4fa006	-0.00079202687
112	0xbab7e723	-0.0014030676
113	0xbb94bfab	-0.00453945
114	0x3afe3f7b	0.0019397581
115	0xba67bf08	-0.00088404166
116	0x3b0a64f2	0.0021117297
117	0xbb36ac83	-0.002787382
118	0x3ab1e449	0.0013572063
119	0x3aa8d83f	0.0012881829
120	0x3b97d826	0.004633921
121	0x3b0db25c	0.0021621203
122	0xbba882f0	-0.005142562
123	0x3a850a82	0.0010150226
124	0x3c0eebb3	0.008723187
125	0x3b2bd770	0.002622094
126	0xbba4feb9	-0.005035248
127	0xbad1bcd1	-0.0016001706
128	0x3b8dc428	0.004326362
129	0x3bba482b	0.0056848726
130	0x3b181b99	0.002320981
131	0xbb9013fd	-0.004396914
132	0x3b55e543	0.0032637871
133	0x3b2bc3a2	0.0026209136
134	0xbb8149c5	-0.0039455616
135	0x3bd88cd3	0.0066085844
136	0xbb1221dd	-0.0022298016
137	0xbb33d44c	-0.0027439771
138	0xbaae3226	-0.0013290092
139	0xbaa56f45	-0.0012621662
140	0x3afeb335	0.001943207
141	0xba3ce3e1	-0.00072055875
142	0x3b1889e5	0.002327555
143	0xbab34c2d	-0.0013679318
144	0x3c0878e4	0.008329604
145	0x3b68fb7f	0.0035550294
146	0xbb479322	-0.0030452688
147	0xbab0148b	-0.0013433857
148	0x3c0a17aa	0.0084284935
149	0x3b1aa588	0.00235972
150	0x3b403940	0.0029330999
151	0xbaf72fda	-0.0018858865
152	0xbb944d1e	-0.0045257946
153	0x3bfcbe07	0.0077130827
154	0x3a89f232	0.001052445
155	0xbb25c520	-0.0025294498
156	0x3c0c4af0	0.008562788
157	0xba5121a3	-0.00079777295
158	0xbbaa03e5	-0.0051884525
159	0x3c299f62	0.010352941
160	0xbad6c4ab	-0.0016385516
161	0xbb8fb23f	-0.0043852623
162	0xbc028908	-0.007967241
163	0xbbf3b9ad	-0.0074379058
164	0x3c0be1a4	0.008537684
165	0x3b3c80fe	0.0028763409
166	0x3b28fb2e	0.002578448
167	0xbbb9dbd2	-0.0056719566
168	0x3ba996c0	0.0051754415
169	0xbad0d307	-0.0015932032
170	0x3bad4ef4	0.005288953
171	0xbbef44f2	-0.00730192
172	0x3a5fe1ec	0.000854044
173	0xbbac10b6	-0.0052510155
174	0xbb362b57	-0.0027796829
175	0xb91fbb5d	-0.0001523322
176	0x39f8b36c	0.00047435926
177	0x3b254767	0.002521956
178	0x3a9a1932	0.0011756776
179	0x3b1a6026	0.0023555844
180	0xba0307c4	-0.00049984106
181	0x3b0261ac	0.0019894643
182	0xbba457fe	-0.0050153723
183	0x3c02a30a	0.007973442
184	0xbb03a708	-0.0020088572
185	0x3b8d66f1	0.00431525
186	0xbbd0ccb7	-0.00637206
187	0x3b144ecc	0.0022629974
188	0xbac0c286	-0.001470641
189	0xbae1fc19	-0.0017241269
190	0x3b71a775	0.0036873494
191	0xbb87e5c4	-0.0041472632
192	0xba8559dc	-0.0010173875
193	0xbbabf95d	-0.0052482323
194	0x3bac720b	0.0052626184
195	0xb97eaccf	-0.00024287704
196	0x37407590	1.1471464e-05
197	0x3a287c74	0.00064272364
198	0x3b910050	0.004425086
199	0x3b3d046b	0.0028841745
200	0xbb784ccf	-0.0037887578
201	0xba8903c0	-0.0010453388
202	0xb9b72d2c	-0.00034938136
203	0x3b3b100f	0.0028543507
204	0x3b744f1d	0.00372786
205	0x3b83349e	0.004004075
206	0x3b98e2d4	0.004665712
207	0x3a0259eb	0.0004972505
208	0xbb929b1a	-0.004474056
209	0x3b0a5ecb	0.002111363
210	0xbb775114	-0.0037737535
211	0x3b00f694	0.0019678222
212	0x3a6d63a1	0.00090556784
213	0x3b2b2024	0.0026111687
214	0x3af73706	0.0018861003
215	0xbb9efec1	-0.0048521464
216	0x3b7e7ce9	0.0038831776
217	0xbbbc463f	-0.0057456787
218	0x3c3b48d4	0.011430938
219	0xbbab1740	-0.0052212775
220	0xbc5300cf	-0.012878611
221	0xbc26c807	-0.010179526
222	0x3a661630	0.000877711
223	0xbbb2c986	-0.0054561524
224	0xbbdd6eb4	-0.0067575816
225	0x3c1214d1	0.008916096
226	0xbb23d3c1	-0.0024998041
227	0x3ba4d172	0.0050298506
228	0x3b7923f0	0.0038015805
229	0xbb4c95ab	-0.0031217139
230	0xba58452d	-0.0008250054
231	0x3b61e269	0.0034467226
232	0x3abf6501	0.0014602245
233	0x3c06c463	0.008225533
234	0xbb50172b	-0.003175209
235	0x3b8722ab	0.004124006
236	0xbb3986fc	-0.0028309217
237	0x3b885b46	0.0041612713
238	0xbb3d03d6	-0.0028841398
239	0xbba4a668	-0.00502472
240	0x3bac2d39	0.0052544144
241	0xbb8bd433	-0.0042672395
242	0xbb2d6c2a	-0.0026462176
243	0x3b785735	0.0037893776
244	0x3ba60f8a	0.0050677704
245	0x3a507a6f	0.00079528143
246	0x3b6cb630	0.0036119334
247	0x3b2260cb	0.0024776931
248	0xbb853656	-0.0040653152
249	0x3be91c7f	0.0071139927
250	0xba92d7c6	-0.0011203222
251	0xbaf31a6d	-0.0018547304
252	0x3bf609a8	0.0075084753
253	0x3a0c140c	0.00053435634
254	0xbb1750cd	-0.0023088933
255	0x3adf6f4b	0.0017046718

exp_avg_sq f4 [16, 8, 3]
0	0x3912ea13	0.00014010844
1	0x38b3ade4	8.567775e-05
2	0x38eb4442	0.00011218387
3	0x3886ec48	6.433629e-05
4	0x38cada21	9.67274e-05
5	0x38b0547e	8.408072e-05
6	0x3922a7a9	0.00015511982
7	0x38dd1344	0.0001054169
8	0x390c7833	0.00013396218
9	0x38b74981	8.739811e-05
10	0x38c08d4a	9.1815906e-05
11	0x389d88be	7.5118136e-05
12	0x386f309a	5.7027304e-05
13	0x38a60f48	7.918343e-05
14	0x38b332b6	8.544831e-05
15	0x38c5e670	9.436614e-05
16	0x38885786	6.501288e-05
17	0x38b3f3c8	8.580793e-05
18	0x38bce7a2	9.0076835e-05
19	0x388dc76e	6.7605506e-05
20	0x38b9e087	8.863309e-05
21	0x38776519	5.8983544e-05
22	0x387390b7	5.807049e-05
23	0x384a6224	4.8251954e-05
24	0x3946e46c	0.00018967845
25	0x39820a53	0.00024803224
26	0x38dfc27f	0.00010669696
27	0x38fcc5b4	0.000120531215
28	0x38c9dd6b	9.625669e-05
29	0x391a369b	0.00014706927
30	0x396dd0fc	0.00022679934
31	0x396645e4	0.00021960546
32	0x3930f30c	0.0001687521
33	0x38bf8172	9.131701e-05
34	0x3915a733	0.00014272034
35	0x3910d900	0.00013813749
36	0x38caf316	9.677389e-05
37	0x38e51d03	0.00010924975
38	0x38ffe656	0.00012202251
39	0x38ee691f	0.00011368305
40	0x39174b1a	0.0001442846
41	0x38ed34b5	0.00011310858
42	0x39231a06	0.00015554586
43	0x3923dc18	0.00015626883
44	0x38f60b09	0.000117322495
45	0x38ae8945	8.322535e-05
46	0x38c98985	9.610042e-05
47	0x3896a0e0	7.182523e-05
48	0x3849e0ee	4.8131616e-05
49	0x38bf6e3a	9.128121e-05
50	0x3897828c	7.224557e-05
51	0x38652eb4	5.464135e-05
52	0x381d2656	3.746742e-05
53	0x38666ee2	5.493954e-05
54	0x38a30ffc	7.775423e-05
55	0x38e785fc	0.00011039895
56	0x3867846b	5.5198016e-05
57	0x3841af50	4.617806e-05
58	0x3818ef00	3.646221e-05
59	0x387bbcf8	6.0019054e-05
60	0x38258653	3.9464165e-05
61	0x382ed12b	4.1679636e-05
62	0x382df7e7	4.147729e-05
63	0x383c086b	4.4830533e-05
64	0x3858b0e9	5.1663174e-05
65	0x38814e10	6.1657396e-05
66	0x3860fb20	5.363964e-05
67	0x388a87b5	6.60563e-05
68	0x387ef833	6.0789473e-05
69	0x380d4fdf	3.3691405e-05
70	0x3821fb22	3.8619277e-05
71	0x3800bc8a	3.069317e-05
72	0x38c1ba13	9.237616e-05
73	0x38a3b500	7.8061596e-05
74	0x38b58cd4	8.656984e-05
75	0x38cf5dc6	9.887996e-05
76	0x38d871e3	0.00010320896
77	0x39080cd7	0.00012974754
78	0x38b8ce86	8.812272e-05
79	0x38a4ef6a	7.864724e-05
80	0x38953c38	7.11609e-05
81	0x3856abd4	5.1181603e-05
82	0x38805629	6.119564e-05
83	0x38696bbd	5.5651868e-05
84	0x391d621d	0.00015009237
85	0x3905fa5f	0.00012777139
86	0x390fa857	0.00013700254
87	0x38bf5a95	9.124462e-05
88	0x38ca8b18	9.658019e-05
89	0x38d0815f	9.94231e-05
90	0x388a4328	6.5928616e-05
91	0x3881d8ad	6.191558e-05
92	0x388f686e	6.838223e-05
93	0x385f55d7	5.3247288e-05
94	0x38893a06	6.543477e-05
95	0x388f6257	6.8370886e-05
96	0x38e030d1	0.00010690245
97	0x392e9094	0.00016647793
98	0x3912d6e1	0.00014003694
99	0x392bfa99	0.00016401186
100	0x38eab5cb	0.00011191851
101	0x38ed5607	0.000113170645
102	0x38e2c0c9	0.00010812429
103	0x3922fdd7	0.00015544087
104	0x38ee8c02	0.00011374803
105	0x38b8a0ab	8.8037305e-05
106	0x38b39425	8.562979e-05
107	0x38e5fd2a	0.000109667264
108	0x39101dd1	0.00013744018
109	0x390df9eb	0.0001353991
110	0x390e9602	0.00013598058
111	0x3905c947	0.0001275885
112	0x38e7f646	0.0001106081
113	0x3906913d	0.00012833341
114	0x38bfcb61	9.145472e-05
115	0x38e535e6	0.0001092961
116	0x38eae492	0.00011200564
117	0x38919bbf	6.943149e-05
118	0x38a07cc4	7.652634e-05
119	0x38ba635d	8.887679e-05
120	0x39a87ccd	0.0003213644
121	0x39808e45	0.00024520062
122	0x395aa3d7	0.00020851135
123	0x3946c065	0.00018954424
124	0x39567dca	0.0002045549
125	0x398f3499	0.00027314274
126	0x39af276b	0.0003340797
127	0x394aecff	0.00019352509
128	0x39993aab	0.00029226145
129	0x3916863d	0.00014355122
130	0x39624c93	0.00021581566
131	0x391e499c	0.00015095476
132	0x39677c97	0.0002207629
133	0x3956c2d3	0.00020481208
134	0x39543028	0.00020235835
135	0x39238f5a	0.00015598294
136	0x397a5d1f	0.00023876548
137	0x3962c116	0.0002162497
138	0x393819c2	0.00017557203
139	0x39495ce0	0.00019203452
140	0x3963c350	0.00021721167
141	0x3900f865	0.00012299565
142	0x38fffc0b	0.00012206294
143	0x39019d08	0.00012360897
144	0x397a09b8	0.00023845478
145	0x39846a02	0.00025255984
146	0x39166d2c	0.00014345784
147	0x390153b0	0.00012333575
148	0x3913940e	0.00014074167
149	0x395a20b8	0.00020802289
150	0x39a8e54c	0.00032214297
151	0x394a1353	0.0001927142
152	0x3974b3e0	0.00023336662
153	0x38f07b95	0.00011467111
154	0x3920f6b5	0.00015350695
155	0x392c9e1b	0.00016462097
156	0x391d63e2	0.00015009896
157	0x38f0fc0c	0.00011491039
158	0x3913840c	0.00014068204
159	0x3904d203	0.00012666736
160	0x39372675	0.00017466566
161	0x39154d31	0.00014238503
162	0x39187dd3	0.00014542723
163	0x392d194b	0.00016507988
164	0x392c87f1	0.0001645384
165	0x39007ab7	0.00012252746
166	0x38cebf51	9.858481e-05
167	0x38a70101	7.9633675e-05
168	0x391fc7e2	0.00015237884
169	0x39477bcb	0.00019024235
170	0x39022aea	0.00012413753
171	0x394d9868	0.00019607099
172	0x3941a6b8	0.00018468022
173	0x3943becf	0.00018667731
174	0x3921a654	0.00015416119
175	0x391c0b7b	0.00014881596
176	0x3914df96	0.00014197672
177	0x38c43dc7	9.357515e-05
178	0x38e1f4fc	0.00010774468
179	0x38f1cd1b	0.000115299794
180	0x39676749	0.00022068353
181	0x39768a92	0.0002351201
182	0x397448cf	0.00023296777
183	0x3942b889	0.00018570026
184	0x392ea0d1	0.00016653842
185	0x3917cfe7	0.00014477932
186	0x3901af27	0.00012367648
187	0x3904526a	0.00012619203
188	0x38ee19db	0.0001135354
189	0x38e4fe50	0.000109192566
190	0x38ce1b5e	9.827943e-05
191	0x38e02e3b	0.000106897634
192	0x396441c3	0.00021768273
193	0x399cdca6	0.00029919035
194	0x39976b8b	0.0002888109
195	0x3959802c	0.0002074248
196	0x393b9142	0.00017887822
197	0x3925bb7e	0.00015805473
198	0x3990f348	0.0002764708
199	0x39d113f9	0.00039878467
200	0x39bc5a02	0.00035925215
201	0x394f7ae7	0.00019786843
202	0x394250c9	0.00018531377
203	0x3953fb57	0.0002021616
204	0x394e1312	0.00019652795
205	0x3948b7df	0.00019141984
206	0x393cf8e3	0.00018021795
207	0x394cb13d	0.00019520982
208	0x396a8c16	0.00022368165
209	0x3953a4e4	0.00020183955
210	0x3948d569	0.00019152988
211	0x3980adff	0.000245437
212	0x392e7397	0.00016636994
213	0x39016ae6	0.00012342221
214	0x39278202	0.00015974793
215	0x38f2e6be	0.00011582438
216	0x39988cfe	0.00029096747
217	0x39db66f7	0.0004184765
218	0x39c0b99a	0.00036759378
219	0x39fa4a7f	0.0004773922
220	0x39f69c61	0.00047037288
221	0x39c3d89f	0.00037354694
222	0x399e3871	0.0003017816
223	0x399caed2	0.0002988489
224	0x39bac941	0.0003562663
225	0x39818832	0.0002470627
226	0x3979afb9	0.00023811952
227	0x398a2b5a	0.0002635371
228	0x3a031543	0.00050004217
229	0x3a12af51	0.0005595582
230	0x3a112701	0.0005537123
231	0x39c84886	0.00038201007
232	0x39bcc15d	0.0003600222
233	0x39f31460	0.00046363752
234	0x398b87f9	0.00026613454
235	0x39a7b1a8	0.00031985086
236	0x397fe40f	0.00024403654
237	0x397a57b7	0.00023874534
238	0x3984606e	0.00025248848
239	0x3989fd2b	0.000263193
240	0x396386dc	0.00021698646
241	0x39934025	0.00028085816
242	0x390e1ddd	0.000135533
243	0x3914f4ec	0.0001420562
244	0x38e0b5e5	0.00010715033
245	0x394bf88a	0.00019452177
246	0x39aa01d8	0.000324263
247	0x397a9dd1	0.00023900649
248	0x395de25a	0.00021160525
249	0x3911dbf2	0.00013910214
250	0x393670aa	0.00017398843
251	0x393196de	0.00016936238
252	0x3914e447	0.0001419942
253	0x39143fe0	0.00014138175
254	0x3908fa13	0.0001306313
255	0x38ef0127	0.00011396623

exp_avg f4 [16]
0	0x39088b66	0.000130219
1	0xba83c53e	-0.001005329
2	0xba26b18f	-0.0006358856
3	0xba168ae0	-0.000574274
4	0x3b0ba73d	0.0021309399
5	0x3b486171	0.0030575658
6	0xb94b090e	-0.00019362962
7	0xba9f15e2	-0.0012137259
8	0xba76aa9c	-0.0009409578
9	0xbb98b059	-0.004659694
10	0xb91db2da	-0.00015039314
11	0xbb0e9300	-0.00217551
12	0xba865c3b	-0.0010250875
13	0x3ba5aa00	0.005055666
14	0x39ad1fbb	0.00033020772
15	0x3b5f7692	0.0034097773

exp_avg_sq f4 [16]
0	0x37aa8598	2.0327789e-05
1	0x388f2b14	6.826795e-05
2	0x3774d000	1.4591962e-05
3	0x39cea776	0.0003941615
4	0x398b85a4	0.00026611716
5	0x399eb7a8	0.00030272943
6	0x38fc7545	0.000120381395
7	0x3a197c3f	0.0005855001
8	0x3935d830	0.00017342041
9	0x3abd940d	0.0014463678
10	0x38865b69	6.4066444e-05
11	0x39a46e96	0.0003136291
12	0x38caec85	9.676166e-05
13	0x39525991	0.00020060527
14	0x37fafbc8	2.9919567e-05
15	0x3a83f75d	0.0010068227

exp_avg f4 [1, 16, 3]
0	0x3c32ce96	0.010913512
1	0x3c75d641	0.015004695
2	0x3cf34592	0.02969626
3	0x3cc2591a	0.023724128
4	0x3be18a07	0.006882909
5	0xbceccc49	-0.028906005
6	0x3bfe62e3	0.007763253
7	0x3bea58db	0.0071517057
8	0xbc236970	-0.009973869
9	0xbc6c7686	-0.014432555
10	0xbbba3194	-0.0056821797
11	0xbc775920	-0.015096933
12	0x3bf7beeb	0.007560601
13	0x3c17fc23	0.009276423
14	0x3b40066f	0.002930071
15	0x3b87224e	0.0041239625
16	0xbc911913	-0.017712152
17	0xbc85cb58	-0.016332313
18	0xbbfd383b	-0.0077276505
19	0x3b8c5474	0.0042825285
20	0xbb8587d3	-0.0040750294
21	0xbd20505d	-0.03913914
22	0x3b5df663	0.0033868782
23	0xbb81ea96	-0.0039647324
24	0xbd1c09c6	-0.03809526
25	0x3b13a456	0.0022528372
26	0xbc596b28	-0.013270177
27	0x3c5e3c33	0.013564157
28	0x3c24aae5	0.01005051
29	0x3bb73726	0.005591291
30	0xbbbbfd71	-0.0057369997
31	0x3b3e0563	0.002899491
32	0xbc372800	-0.01117897
33	0x3c2e8603	0.010652068
34	0xbba22885	-0.004948678
35	0x3ca3513c	0.019936197
36	0x3b12dd1d	0.0022409626
37	0xbba8fc8b	-0.0051570586
38	0x3b7c4c60	0.0038497671
39	0xbd4bd631	-0.049764816
40	0x3d1210fe	0.035660736
41	0x3c003d2b	0.007827084
42	0xbc8c5e82	-0.017134909
43	0xbba0feaf	-0.004913173
44	0xbc6bcbcd	-0.014391852
45	0xbce5147c	-0.02796387
46	0x3cc82281	0.024430515
47	0x3cd77841	0.026302459

exp_avg_sq f4 [1, 16, 3]
0	0x3b649c75	0.0034883295
1	0x3ba98571	0.005173378
2	0x3b85d79e	0.0040845415
3	0x3b9de459	0.004818481
4	0x3ba58ae2	0.0050519565
5	0x3baad089	0.0052128476
6	0x3bac46d3	0.0052574663
7	0x3b9674ad	0.0045915456
8	0x3ba40b9f	0.005006268
9	0x3b7a00e5	0.0038147506
10	0x3b88bf79	0.004173216
11	0x3b86e99b	0.0041172034
12	0x3b72394b	0.0036960419
13	0x3b3eb80e	0.0029101404
14	0x3b4f9770	0.0031675957
15	0x3b2cc4ad	0.0026362345
16	0x3b5f0997	0.0034032816
17	0x3b23731e	0.0024940441
18	0x3ab876b8	0.0014073467
19	0x3b03315a	0.002001843
20	0x3ae99c38	0.0017823046
21	0x3b57d123	0.0032931052
22	0x3b351990	0.0027633645
23	0x3b514a30	0.0031935088
24	0x3b70519a	0.0036669732
25	0x3b3770ef	0.0027990898
26	0x3b8c203d	0.004276304
27	0x3b4b33e3	0.0031006269
28	0x3b2ca41e	0.0026342939
29	0x3b56f4b9	0.0032799675
30	0x3b4c4baf	0.003117304
31	0x3b575770	0.0032858513
32	0x3b63c24c	0.003475326
33	0x3afc6081	0.0019254835
34	0x3b4339ee	0.0029789167
35	0x3b24734c	0.0025093136
36	0x3b98637b	0.004650531
37	0x3bb0099c	0.0053722393
38	0x3bb5bd67	0.00554626
39	0x3ba3b816	0.00499631
40	0x3ba2330c	0.004949933
41	0x3bbfb1f3	0.0058500706
42	0x3b13b243	0.0022536672
43	0x3b9e16de	0.0048245033
44	0x3b2cc421	0.002636202
45	0x3b173286	0.0023070886
46	0x3b3c966a	0.0028776177
47	0x3b38b4d1	0.0028183947

exp_avg f4 [10, 25]
0	0xba5562fa	-0.0008140054
1	0xb9a9549b	-0.00032297228
2	0xbada23fd	-0.0016642805
3	0x3ab6569f	0.0013911313
4	0xb9de1483	-0.00042358422
5	0xbb7b7d3f	-0.0038374213
6	0xb9617c05	-0.00021503873
7	0x39ecd39d	0.00045171092
8	0x3a0abbe8	0.00052922824
9	0x3af23508	0.0018478939
10	0xba4e4cd9	-0.00078697276
11	0xb952d4e2	-0.00020106466
12	0x3a208c81	0.00061244523
13	0x3a24a4b1	0.00062806444
14	0xba114b67	-0.0005542547
15	0xbb29cfa2	-0.0025911112
16	0xba1b328c	-0.0005920313
17	0x39c63e28	0.00037811813
18	0xba1f5771	-0.00060783984
19	0x3a270443	0.00063711795
20	0x39942843	0.00028258757
21	0x3a01ad19	0.0004946753
22	0x3aa0620e	0.0012236254
23	0xbb124c38	-0.0022323262
24	0x3a36887c	0.0006963087
25	0x39092f2d	0.00013082912
26	0xb9fdb0cb	-0.0004838764
27	0xb9b12138	-0.0003378482
28	0xb9d8846a	-0.00041297387
29	0x39515bb8	0.00019965961
30	0xba5a88ae	-0.0008336407
31	0x3a262fdb	0.00063395285
32	0xba2c2038	-0.000656608
33	0xb8a11250	-7.680489e-05
34	0x390ddcf4	0.0001352912
35	0x39906808	0.0002754333
36	0xb9257619	-0.00015779621
37	0xba52b4d3	-0.0008037809
38	0x39daa2a4	0.00041701377
39	0xba0be103	-0.00053359586
40	0xbabe75f5	-0.0014531004
41	0xba34c0a3	-0.000689516
42	0x3a4c9071	0.0007803506
43	0x3a08ce79	0.0005218755
44	0xba34fc95	-0.0006904093
45	0xba183612	-0.0005806397
46	0x39fb1214	0.0004788792
47	0xb8e246fb	-0.00010789741
48	0x39e4d70e	0.00043647777
49	0xba4e5271	-0.0007870561
50	0x3a2faa49	0.00067010947
51	0x3a5009a8	0.0007936009
52	0x3a419acc	0.0007385432
53	0xbaba8ed3	-0.0014233239
54	0x3a42d058	0.00074315583
55	0x3b230545	0.0024874967
56	0x390440ac	0.00012612593
57	0x37b2c594	2.1311258e-05
58	0x39bab5c5	0.00035612113
59	0xba97abcc	-0.0011571585
60	0x3994a108	0.00028348737
61	0xb9857e4d	-0.00025461838
62	0xb99658c5	-0.00028676368
63	0xba25224d	-0.00062993617
64	0xb993353e	-0.00028077693
65	0x3abdad01	0.0014471115
66	0x3a80a245	0.0009813985
67	0x39d85def	0.00041268716
68	0x38d96b62	0.00010367368
69	0x3a86da06	0.0010288365
70	0x38d7c9e2	0.000102896025
71	0xb919aff9	-0.00014656772
72	0x39a6a1ea	0.00031782623
73	0x379af4aa	1.8472161e-05
74	0xba7b8933	-0.00095953344
75	0xba34fce8	-0.0006904141
76	0xba442825	-0.00074827886
77	0xba94e74d	-0.0011360437
78	0x37e64f9d	2.745521e-05
79	0x39fe5f13	0.0004851749
80	0xbb412e1e	-0.002947695
81	0xba3e49c2	-0.00072589156
82	0x389de787	7.529469e-05
83	0x3819bdba	3.665474e-05
84	0x3a01f683	0.00049576926
85	0xb92e8880	-0.00016644783
86	0xba8b3f9f	-0.0010623819
87	0x39fa3e91	0.0004773033
88	0xba7ad8de	-0.0009569059
89	0xb990984f	-0.000275793
90	0xba90580c	-0.0011012568
91	0x36d5a922	6.3675843e-06
92	0xb8eb2eec	-0.00011214413
93	0xba27b394	-0.00063973037
94	0x3a84177a	0.0010077797
95	0x39ab4b4c	0.00032671762
96	0x39271171	0.00015932859
97	0x3a749e00	0.0009331405
98	0xbac8b6bd	-0.0015313249
99	0x39b2c723	0.00034099174
100	0xba3122d2	-0.0006757203
101	0xb91d954f	-0.00015028309
102	0xbab6553f	-0.0013910903
103	0x3aa452a5	0.0012536837
104	0x3a4600e7	0.0007553235
105	0xbb290868	-0.0025792364
106	0x3a0953a2	0.00052385975
107	0xbaabc10a	-0.0013103795
108	0x3a2732bf	0.0006378106
109	0x3a874b71	0.0010322166
110	0x39063b62	0.00012801358
111	0x392cb5e9	0.00016470965
112	0x39fe5465	0.00048509534
113	0x39f97a1a	0.00047583954
114	0x3915c081	0.0001428146
115	0xba78222f	-0.0009465543
116	0x38d89c4f	0.00010328797
117	0x3a6b2f11	0.0008971552
118	0xba77a3e1	-0.0009446722
119	0x3995978e	0.00028532412
120	0xb93a68b9	-0.00017777355
121	0xb917f61e	-0.00014492168
122	0xba0b0905	-0.0005303773
123	0xb9104dbb	-0.00013761867
124	0x3a1b5445	0.0005925338
125	0x3ab111eb	0.0013509368
126	0xb909b6fe	-0.00013133508
127	0x3b12cee9	0.002240116
128	0xba583c77	-0.0008248756
129	0x392d9bbf	0.00016556586
130	0x3b872fcc	0.004125571
131	0x3a813bef	0.000985978
132	0x38c60e31	9.444019e-05
133	0xb9ed02f6	-0.0004520637
134	0xbb0c4c32	-0.002140772
135	0x390ff102	0.00013727325
136	0xba6f82cc	-0.0009136617
137	0xba5b403e	-0.000836376
138	0xbaa36949	-0.001246729
139	0x3a642585	0.00087031006
140	0x3b173ee4	0.0023078257
141	0x3aaacad3	0.0013030417
142	0xba927097	-0.001117247
143	0x36db2e04	6.5320655e-06
144	0x39fca19b	0.0004818559
145	0xb9b85394	-0.00035157485
146	0x39962d63	0.00028644045
147	0xb57656ed	-9.1768635e-07
148	0x3a08acd7	0.00052137434
149	0x3a0a3fc2	0.0005273783
150	0xba82841d	-0.0009957586
151	0xba3b644e	-0.00071484304
152	0xbb00ad65	-0.0019634601
153	0x3ab18f3c	0.0013546715
154	0x3a982a60	0.0011609308
155	0xbba0c0f1	-0.004905813
156	0xb9bb94a1	-0.00035778157
157	0x3a373d50	0.0006990032
158	0x3a7552a5	0.00093583233
159	0x3aed92df	0.0018125436
160	0xba814ead	-0.0009865366
161	0xba1be8bf	-0.00059474626
162	0x3a62ed62	0.00086565886
163	0x3a1d9632	0.00060114556
164	0xba5a3b0e	-0.000832484
165	0xbb5194af	-0.0031979491
166	0xbaf68e14	-0.0018810653
167	0x3a2dec14	0.00066346047
168	0x39da0562	0.0004158421
169	0x3a80f9a2	0.0009840021
170	0x3a3deb8d	0.00072448776
171	0x3a8aa59f	0.0010577923
172	0x3aa63c87	0.0012682833
173	0xbaef3c0b	-0.0018252147
174	0xba884e8f	-0.0010399389
175	0x3a4913df	0.00076705025
176	0xb95ae11b	-0.00020873958
177	0x3a873766	0.0010316193
178	0x39888c01	0.00026044252
179	0x3a2bf5ee	0.00065597787
180	0x3af49485	0.0018659985
181	0x398c8474	0.00026801566
182	0xb8db90fe	-0.00010469741
183	0xb9a82598	-0.00032071467
184	0xba30bf12	-0.0006742339
185	0xb688957a	-4.070517e-06
186	0x39b1fb57	0.00033947334
187	0xb9a719b9	-0.00031871887
188	0x3a219094	0.00061632064
189	0x39de5fde	0.00042414566
190	0x39ca6cbb	0.00038609453
191	0xb9278e7b	-0.00015979439
192	0xb85e7f6b	-5.304759e-05
193	0x3844c7b3	4.6916026e-05
194	0xba42edf5	-0.0007435971
195	0xb91fdb8b	-0.00015245208
196	0x39b1f8f0	0.00033945544
197	0xb867709e	-5.5179575e-05
198	0x3a06fdb0	0.0005149497
199	0xb7df5073	-2.6621134e-05
200	0xba976ad7	-0.0011552226
201	0xbab5a655	-0.0013858775
202	0xbb034e55	-0.0020035703
203	0x391111bb	0.00013834883
204	0xb8c18bb6	-9.22898e-05
205	0xbb69d8b9	-0.0035682155
206	0xb913aaa0	-0.00014082575
207	0xba2f52b8	-0.0006688046
208	0xba0ce4a0	-0.0005374644
209	0x39aae862	0.00032598065
210	0x39a1fdf9	0.00030897537
211	0xba74ab5d	-0.00093333964
212	0xb945c17c	-0.00018859463
213	0xba08d27c	-0.0005219353
214	0xba782d75	-0.0009467223
215	0xbadfdd61	-0.0017079526
216	0xba6a6a7e	-0.000894226
217	0x39e49d1c	0.00043604604
218	0x3998a1e6	0.00029112323
219	0xb80a2067	-3.293194e-05
220	0x3a01a9b8	0.00049462495
221	0x39e89efd	0.00044368944
222	0x3860a919	5.3563246e-05
223	0xba0b5cff	-0.00053162867
224	0xba9dba5e	-0.0012033691
225	0xb88f015b	-6.819024e-05
226	0xb9187d6c	-0.00014542573
227	0xb8155ecb	-3.561265e-05
228	0x38fe446e	0.0001212441
229	0xb9f3e97d	-0.00046522534
230	0xb8d2eac4	-0.00010057309
231	0x3a35f447	0.0006941002
232	0x3957e26a	0.00020588344
233	0xb9154edf	-0.00014239129
234	0xb8b8334f	-8.783361e-05
235	0x3972a650	0.00023140875
236	0xb982fcd9	-0.00024983918
237	0x3967ce31	0.00022106689
238	0xb8490d39	-4.793445e-05
239	0xb961da8c	-0.00021539087
240	0x38cdebac	9.819059e-05
241	0x39af4271	0.00033428104
242	0x39ac9163	0.00032914718
243	0x39e575f2	0.0004376616
244	0xba5287ad	-0.00080310815
245	0x39bcac9e	0.00035986764
246	0x372a3c68	1.0146854e-05
247	0xb8d35e43	-0.00010078822
248	0x39c4d010	0.00037539052
249	0xba08066a	-0.0005188944

exp_avg_sq f4 [10, 25]
0	0x37bc4751	2.2444556e-05
1	0x382e5c21	4.1570634e-05
2	0x382a3d63	4.058833e-05
3	0x382f1b3b	4.174861e-05
4	0x38496133	4.801266e-05
5	0x384493ca	4.686768e-05
6	0x3844bac5	4.6903984e-05
7	0x386361b9	5.421203e-05
8	0x3847f244	4.7670925e-05
9	0x3833278e	4.2713764e-05
10	0x3838535e	4.394666e-05
11	0x38277b3b	3.993067e-05
12	0x3826f220	3.980298e-05
13	0x382b6346	4.0862033e-05
14	0x384372de	4.65986e-05
15	0x3850fae0	4.982471e-05
16	0x384e3765	4.9165817e-05
17	0x3830e293	4.2172684e-05
18	0x38535a52	5.0390438e-05
19	0x38616de6	5.374653e-05
20	0x3847afc9	4.760901e-05
21	0x382c32dd	4.1055366e-05
22	0x38422a44	4.6292567e-05
23	0x386bc7f2	5.621458e-05
24	0x38464925	4.7275e-05
25	0x370bf4dd	8.342057e-06
26	0x376c6fe0	1.4092744e-05
27	0x37436abf	1.16477595e-05
28	0x3763c02e	1.3575e-05
29	0x378a8d13	1.6516575e-05
30	0x3782773a	1.5552727e-05
31	0x37814bd4	1.5413309e-05
32	0x37777252	1.47489645e-05
33	0x37767b13	1.4691398e-05
34	0x3775b95e	1.4646297e-05
35	0x3788f683	1.6327254e-05
36	0x3778b155	1.482324e-05
37	0x37894595	1.6364074e-05
38	0x376f170e	1.4250878e-05
39	0x375fbb2a	1.3335413e-05
40	0x3773c94f	1.45307995e-05
41	0x379967d2	1.8287366e-05
42	0x3772bcbb	1.4468266e-05
43	0x376e5353	1.4205306e-05
44	0x377146c6	1.4381198e-05
45	0x3781cffe	1.5474852e-05
46	0x3759e84d	1.2988295e-05
47	0x3787f2be	1.620629e-05
48	0x3762412e	1.3485826e-05
49	0x376af510	1.4004545e-05
50	0x3702547b	7.7682735e-06
51	0x37685f73	1.3850501e-05
52	0x37835a45	1.5658452e-05
53	0x376fa11d	1.4283022e-05
54	0x37874845	1.6126907e-05
55	0x3772a110	1.4461824e-05
56	0x378651af	1.6012082e-05
57	0x37884853	1.6246142e-05
58	0x37717547	1.4392025e-05
59	0x3786fa37	1.609056e-05
60	0x376973ac	1.3914814e-05
61	0x3794e145	1.7747874e-05
62	0x377cefdc	1.5076217e-05
63	0x37746ba2	1.45685935e-05
64	0x3794191f	1.7654673e-05
65	0x37870cad	1.6099157e-05
66	0x37801b85	1.5271604e-05
67	0x37751aa4	1.4609341e-05
68	0x378aa08d	1.6525644e-05
69	0x377ebacc	1.5183072e-05
70	0x3781c7a2	1.547096e-05
71	0x3795a411	1.7838584e-05
72	0x3782b469	1.5581218e-05
73	0x3782912f	1.5564814e-05
74	0x37863a17	1.6001095e-05
75	0x372577dc	9.862673e-06
76	0x37900ed8	1.717305e-05
77	0x3799e16a	1.8343988e-05
78	0x378e8c1c	1.6992963e-05
79	0x37bb45fb	2.2324724e-05
80	0x37b964bc	2.2100627e-05
81	0x37ae3e0c	2.077131e-05
82	0x37be4aa5	2.2684524e-05
83	0x37aa4513	2.0297744e-05
84	0x37a4588d	1.9591558e-05
85	0x37a16dda	1.924385e-05
86	0x37963e7a	1.7910486e-05
87	0x37b86ccb	2.198517e-05
88	0x378bf4b2	1.6684036e-05
89	0x37ae6c2d	2.079279e-05
90	0x37ac409d	2.0534086e-05
91	0x37a55f34	1.9713865e-05
92	0x379a88df	1.8421966e-05
93	0x37b69e7a	2.1769887e-05
94	0x37c38509	2.330776e-05
95	0x37c54f73	2.3521226e-05
96	0x37a2d920	1.9413012e-05
97	0x37965d5f	1.7924873e-05
98	0x37a31ec1	1.9445435e-05
99	0x37ad2d76	2.0644376e-05
100	0x373ceab8	1.1260323e-05
101	0x37afc3c7	2.0952792e-05
102	0x37b1f64e	2.1214739e-05
103	0x37b40686	2.146071e-05
104	0x37cfb26b	2.4759405e-05
105	0x37d0a22c	2.487105e-05
106	0x37c5273b	2.3502498e-05
107	0x37e1b43c	2.6906018e-05
108	0x37d42b7e	2.5292622e-05
109	0x37d16d28	2.4965571e-05
110	0x37c0397c	2.2914952e-05
111	0x37db399e	2.6133665e-05
112	0x37b58812	2.1640244e-05
113	0x37a30273	1.9432255e-05
114	0x37d8c828	2.5842412e-05
115	0x37c81e68	2.3856017e-05
116	0x37da03cc	2.5989393e-05
117	0x37bb4fa5	2.2329225e-05
118	0x37e538c1	2.7325355e-05
119	0x37c846fc	2.3874913e-05
120	0x37d87957	2.580571e-05
121	0x37be49e4	2.2684173e-05
122	0x37d6d651	2.5610587e-05
123	0x37be74b7	2.2704115e-05
124	0x37bec603	2.2741971e-05
125	0x37a3f9b1	1.9547386e-05
126	0x381c14d0	3.721268e-05
127	0x381f0200	3.7910417e-05
128	0x3806063a	3.195389e-05
129	0x3837ab49	4.379012e-05
130	0x382abb88	4.070581e-05
131	0x38395a3b	4.419147e-05
132	0x38368c73	4.3522985e-05
133	0x38113ffd	3.4630288e-05
134	0x3819b75e	3.6648817e-05
135	0x38095e73	3.2751308e-05
136	0x381619bf	3.5786765e-05
137	0x3818ab2f	3.639905e-05
138	0x382062fe	3.8239166e-05
139	0x3838b5e1	4.4038406e-05
140	0x382e6161	4.1575524e-05
141	0x3834cff4	4.3109016e-05
142	0x3820690e	3.8244812e-05
143	0x383987b3	4.4233817e-05
144	0x385650d9	5.109687e-05
145	0x3822addc	3.878573e-05
146	0x382a68e9	4.0628864e-05
147	0x3824022a	3.9102662e-05
148	0x3826fd5b	3.981344e-05
149	0x3821e864	3.8601822e-05
150	0x37cdecab	2.4548111e-05
151	0x38527e58	5.018557e-05
152	0x38437f6d	4.6610297e-05
153	0x38416c5c	4.6115703e-05
154	0x3878a071	5.927723e-05
155	0x385343ac	5.0369345e-05
156	0x385a5fda	5.206452e-05
157	0x3886a0d0	6.4195716e-05
158	0x384d9790	4.9016962e-05
159	0x386565ea	5.469277e-05
160	0x3843d312	4.6688197e-05
161	0x38445758	4.6811387e-05
162	0x385554dc	5.086219e-05
163	0x384f8a53	4.948147e-05
164	0x38773980	5.894294e-05
165	0x386b187a	5.605116e-05
166	0x3872ce7d	5.7889603e-05
167	0x38429896	4.639531e-05
168	0x38749173	5.8309593e-05
169	0x38835ca6	6.263824e-05
170	0x3877aaab	5.9048336e-05
171	0x384a8a96	4.828962e-05
172	0x38551a98	5.0807925e-05
173	0x386bfbe0	5.6262943e-05
174	0x38545691	5.062536e-05
175	0x36c15a4f	5.7623615e-06
176	0x371fa5b7	9.515722e-06
177	0x37205e52	9.558704e-06
178	0x3720e302	9.5895975e-06
179	0x37393fb7	1.1041694e-05
180	0x372fa0b9	1.0468234e-05
181	0x3737e4e9	1.0960947e-05
182	0x37369453	1.088258e-05
183	0x3743f575	1.1680056e-05
184	0x37153c65	8.895154e-06
185	0x371779a4	9.028623e-06
186	0x3724212c	9.782885e-06
187	0x3729f0d7	1.012926e-05
188	0x37207cec	9.565829e-06
189	0x373ac3af	1.1132025e-05
190	0x372f755d	1.0458139e-05
191	0x374832dc	1.1932771e-05
192	0x37355b56	1.08097065e-05
193	0x37535c93	1.2598134e-05
194	0x375013ac	1.2402346e-05
195	0x373a333a	1.1098391e-05
196	0x37355163	1.080739e-05
197	0x372e7d69	1.04004075e-05
198	0x3726a05e	9.931709e-06
199	0x374ce388	1.2212324e-05
200	0x3746a285	1.1839559e-05
201	0x37c5f29a	2.35972e-05
202	0x37d4fc99	2.5389994e-05
203	0x37c95b41	2.400356e-05
204	0x37f16c04	2.8779737e-05
205	0x37de68d7	2.6513282e-05
206	0x37e73a12	2.7564387e-05
207	0x37e63c0c	2.7446098e-05
208	0x37cf33a0	2.4700363e-05
209	0x37d92166	2.5883968e-05
210	0x37ccfc20	2.44361e-05
211	0x37d10cb6	2.492066e-05
212	0x37cb71fb	2.4252562e-05
213	0x37bd9fc3	2.260495e-05
214	0x37efce55	2.8587101e-05
215	0x37e9a090	2.7850532e-05
216	0x37f2a32e	2.8924635e-05
217	0x37cdbf39	2.452695e-05
218	0x380283a7	3.1117026e-05
219	0x37fdc191	3.0250087e-05
220	0x3800d083	3.071177e-05
221	0x37bcc759	2.2504175e-05
222	0x37d22886	2.5052821e-05
223	0x37fdd77d	3.0260295e-05
224	0x37cf4166	2.4706776e-05
225	0x36c5ac57	5.8911205e-06
226	0x370e751d	8.491127e-06
227	0x370d5e22	8.426172e-06
228	0x3721e534	9.649713e-06
229	0x372f44b0	1.0446805e-05
230	0x372fd0ef	1.0479459e-05
231	0x373e874e	1.1356386e-05
232	0x37488ad5	1.1953253e-05
233	0x3734b492	1.0770878e-05
234	0x37141583	8.826496e-06
235	0x371b113b	9.242732e-06
236	0x371fd070	9.525669e-06
237	0x371fb6af	9.519673e-06
238	0x37473d24	1.187556e-05
239	0x371fffdc	9.53671e-06
240	0x3742990a	1.1598933e-05
241	0x372fe114	1.0483218e-05
242	0x371d50a3	9.376704e-06
243	0x374a91d4	1.20740915e-05
244	0x3733292c	1.06788175e-05
245	0x372f1ba1	1.0437246e-05
246	0x371df028	9.413845e-06
247	0x37259c56	9.871166e-06
248	0x3735bbd4	1.0832173e-05
249	0x374b7eb5	1.2129244e-05

exp_avg f4 [10]
0	0x30831b07	9.539186e-10
1	0xae96448d	-6.833387e-11
2	0xb0267186	-6.0551775e-10
3	0x2ffd5305	4.607942e-10
4	0xaedefffb	-1.01408625e-10
5	0xaddfc548	-2.5439775e-11
6	0xb05303df	-7.6766854e-10
7	0x2f888f5b	2.4840116e-10
8	0x305d7345	8.056314e-10
9	0x2ae2d480	4.0293116e-13

exp_avg_sq f4 [10]
0	0x234b998f	1.1037169e-17
1	0x22635ad8	3.0812329e-18
2	0x228642d2	3.639152e-18
3	0x22b5551d	4.9150265e-18
4	0x22c84aac	5.428917e-18
5	0x232a6bb4	9.2385255e-18
6	0x236f1460	1.29605305e-17
7	0x223b1cf1	2.5358547e-18
8	0x22f4914e	6.629018e-18
9	0x2224540e	2.2270643e-18

model.encoder.0.weight f4 [8, 3, 3]
0	0xbda2c689	-0.07948024
1	0xbcdc3192	-0.026879106
2	0x3e6ff976	0.23435006
3	0xbe334338	-0.1750611
4	0xbe29819b	-0.16553347
5	0x3eafde25	0.3434917
6	0x3e67177f	0.22567557
7	0xbda767a1	-0.081740625
8	0x3ea839ec	0.3285669
9	0x3d4d788f	0.0501638
10	0x3e19af8c	0.15008372
11	0x3e7491f6	0.23883805
12	0xbe877638	-0.2645738
13	0x3e633637	0.2218865
14	0xbd445a70	-0.04793781
15	0xbe8bdf20	-0.27318668
16	0xbe8f2b07	-0.27962515
17	0xbe4ed87b	-0.20199768
18	0x3e11d16d	0.14240046
19	0x3e5b0abd	0.21390815
20	0xbde86f70	-0.1134938
21	0x3e4e3e46	0.20140943
22	0xbde0e7de	-0.10981725
23	0xbe5cf107	-0.2157632
24	0x3ec526dc	0.3850621
25	0xbe849e49	-0.25902012
26	0xbe964730	-0.29351187
27	0xbe097826	-0.13424739
28	0xbeb78bd7	-0.35848877
29	0x3db76da6	0.08956461
30	0xbcefebbe	-0.029287215
31	0x3d7bc50e	0.061467223
32	0x3deffc77	0.11718076
33	0x3e3f273e	0.18667313
34	0xbe940939	-0.28913286
35	0xbd78fc19	-0.060787294
36	0xbe18f1e0	-0.14936018
37	0xbe4e7fdc	-0.20165962
38	0xbe0e0224	-0.13868004
39	0xbea46cff	-0.32114407
40	0xbe2d429c	-0.1691994
41	0xbe8f1c1f	-0.27951142
42	0x3e3f4903	0.18680196
43	0xbdb5987f	-0.08866977
44	0xbe5e25bd	-0.21694084
45	0xbe9e7555	-0.30948892
46	0xbe538b94	-0.20658714
47	0xbe5e6861	-0.21719505
48	0x3c9ad7a4	0.018901654
49	0xbe6a0855	-0.22854741
50	0x3ec4553c	0.3834628
51	0xbcb5c66d	-0.022189343
52	0xbdfcd888	-0.123459876
53	0xbda9927e	-0.08279894
54	0x3d8369b9	0.06416649
55	0xbe88371e	-0.2660455
56	0x3e3c4a07	0.18387614
57	0x3e616d46	0.22014341
58	0x3e5fdc90	0.21861482
59	0xbe754a93	-0.23954229
60	0xbe8201dc	-0.25392044
61	0x3e1ca101	0.15295793
62	0xbe7b8099	-0.24560775
63	0x3bd9e60f	0.0066497396
64	0x3d325a97	0.043543424
65	0xbe182e1d	-0.14861341
66	0xbe3c81b2	-0.1840885
67	0x3db54392	0.08850779
68	0xbe21d3e9	-0.15803494
69	0x3e9021a8	0.28150678
70	0xbba2e855	-0.004971544
71	0xbc5086e3	-0.012727472

model.encoder.0.bias f4 [8]
0	0xbddb5393	-0.107093
1	0x3defa804	0.11701968
2	0xbd4ae0f6	-0.049530946
3	0xbdd38d47	-0.10329681
4	0xbc0a6c6b	-0.0084487
5	0x3c49572a	0.012288848
6	0x3decf3dc	0.1156995
7	0x3e9b16d7	0.30290863

model.encoder.2.weight f4 [16, 8, 3]
0	0xbd535146	-0.05159118
1	0x3e314a41	0.17313482
2	0xbde28b86	-0.11061768
3	0xbdc69e0b	-0.09698113
4	0xbdd0e40a	-0.10199745
5	0xbda268ea	-0.07930167
6	0xbdcced82	-0.100062385
7	0xbd631731	-0.05544204
8	0xbdf0cc92	-0.11757769
9	0x3d80041a	0.06250782
10	0x3ddbf5ee	0.10740267
11	0x3e4bcd4d	0.19902535
12	0x3d8ceb87	0.06880861
13	0xbe074b65	-0.13212354
14	0xb984fcf4	-0.00025365467
15	0x3b39b3c0	0.00283359
16	0x3e5cc18a	0.21558204
17	0xbdc2f96b	-0.09520229
18	0xbe0256d5	-0.12728436
19	0xbe38bb05	-0.18040092
20	0xbe22f6fc	-0.1591453
21	0x3da092bf	0.078404896
22	0xbe0488f1	-0.12942864
23	0xbbe90d97	-0.0071122157
24	0xbc3f1f4c	-0.011665177
25	0xbd054004	-0.032531753
26	0x3dde243d	0.10846756
27	0x3d6967e2	0.056983836
28	0xbe0b1dfe	-0.1358566
29	0xbe0a5d93	-0.13512258
30	0x3d89da94	0.067311436
31	0x3e163e2b	0.14672153
32	0xbe09ed94	-0.13469535
33	0xbe5f9b2c	-0.21836537
34	0xbe494bcf	-0.19657825
35	0x3dd054dd	0.101724364
36	0x3de0144c	0.10941371
37	0x3dcfb0b2	0.10141124
38	0x3cc691a6	0.024239372
39	0xbd13b729	-0.036063347
40	0xbe26add3	-0.16277246
41	0x3daedf09	0.08538634
42	0xbd8f2c5b	-0.06990882
43	0xbc3e4261	-0.011612506
44	0x3df1d431	0.118080504
45	0x3d5f5eaa	0.054533638
46	0xbc95bfd3	-0.018279945
47	0x3c9c898d	0.019108558
48	0x3e5488c7	0.20755301
49	0xbe00b56f	-0.12569211
50	0xbdf35c44	-0.11882833
51	0x3dbaa709	0.09113891
52	0xbe23a8a2	-0.15982297
53	0x3c124f97	0.0089301085
54	0xbe1838aa	-0.14865366
55	0x3e298bd6	0.1655725
56	0x3e389b3f	0.18027972
57	0x3dd59210	0.1042825
58	0xbd319892	-0.043358393
59	0x3ba8c931	0.005150937
60	0xbdb2a7a1	-0.08723379
61	0xbddab2f3	-0.10678663
62	0x3e3c3c44	0.18382365
63	0x3d82663d	0.06367157
64	0xbd50749d	-0.05089246
65	0xbc257f02	-0.010101082
66	0x3d986aa0	0.07442212
67	0x3dc3bfdf	0.09558081
68	0x3de19e83	0.11016562
69	0xbe0e5879	-0.13900937
70	0xbce18925	-0.027531216
71	0x3d64be6a	0.055845656
72	0xbdac344f	-0.084084146
73	0x3e1ea462	0.15492395
74	0xbca112b5	-0.01966224
75	0x3e9c7198	0.30555415
76	0x3e342e11	0.17595698
77	0xbe0286d7	-0.1274675
78	0xbd931567	-0.071818165
79	0x3e1edc3c	0.155137
80	0x3d1d251a	0.03836546
81	0xbcb69c17	-0.022291226
82	0xbe250952	-0.16116837
83	0x3e359ae8	0.17734873
84	0x3daaf958	0.0834834
85	0xbe6f00c9	-0.23340143
86	0x3dcfd17e	0.10147379
87	0x3de6a0bb	0.11261126
88	0xbbee33a5	-0.00726934
89	0xbdaffd94	-0.08593288
90	0x3d75683b	0.059913855
91	0xbced0608	-0.02893354
92	0x3ce66b7c	0.028127424
93	0x3dbdbf9c	0.09265062
94	0x3e0e88d9	0.1391939
95	0x3dbe1d8a	0.09282978
96	0x3d24cece	0.040236287
97	0x3df0b0e5	0.1175249
98	0xbd9f49f0	-0.07777774
99	0xbe34c5f3	-0.17653637
100	0xbd7eae4f	-0.062177952
101	0xbe2daf0e	-0.1696131
102	0x3db80c6e	0.08986746
103	0xbca13faf	-0.019683687
104	0x3e822ee1	0.2542639
105	0xbba4b17e	-0.0050260415
106	0xbde9c07d	-0.11413667
107	0x3da174aa	0.0788358
108	0x3c62c0b1	0.0138398865
109	0x3db5090b	0.088396154
110	0x3e4e6c05	0.20158394
111	0x3e046f7e	0.12933156
112	0xbe4e2965	-0.20132978
113	0xbd4df4ad	-0.05028217
114	0xbdde42b9	-0.1085257
115	0x3e5ad948	0.21371949
116	0xbe127d78	-0.14305675
117	0x3d95ee8b	0.07320889
118	0x3c0e1474	0.008671869
119	0xbe0c6e78	-0.13714015
120	0xbe1bce58	-0.15215433
121	0xbe511323	-0.20417456
122	0x3d966bfd	0.07344816
123	0x3dc3c1ea	0.095584705
124	0xbdcba78f	-0.09944069
125	0x3e2f925d	0.17145677
126	0x3c8dd880	0.01731515
127	0x3e168bea	0.1470181
128	0xbd93da7c	-0.07219407
129	0xbda10d9b	-0.07863923
130	0x3e1152df	0.14191769
131	0x3d238385	0.03992035
132	0xbdb21649	-0.08695657
133	0x3b3981de	0.0028306167
134	0x39fc06a8	0.00048070145
135	0x3e415a3c	0.18882078
136	0xbcfb6a3f	-0.03069031
137	0xbe195cf8	-0.14976871
138	0x3e7d2454	0.2472089
139	0x3d394bc3	0.045238268
140	0x3e25603c	0.16149992
141	0x3cf3ff37	0.029784782
142	0x3e149c15	0.14512666
143	0x3bc93894	0.006140778
144	0xbd22b602	-0.039724357
145	0xbd09b84a	-0.033623017
146	0xbc75364d	-0.01496656
147	0x3e569508	0.20955288
148	0xbe120fb8	-0.14263809
149	0x3c12e7bb	0.008966382
150	0xbd69192b	-0.056908768
151	0xbe6f0280	-0.23340797
152	0x3e151261	0.14557792
153	0x3e8682e6	0.26271743
154	0xbdcceb9e	-0.10005878
155	0xbe4e123f	-0.20124148
156	0x3dab7f48	0.08373886
157	0xbd6be3a0	-0.057590127
158	0x3da30263	0.079594396
159	0xbd330a31	-0.04371089
160	0xbdd2a7bb	-0.10285898
161	0x3e18083b	0.1484689
162	0xbd86cee4	-0.0658243
163	0xbdd6b971	-0.10484589
164	0xbdf68ea9	-0.12038929
165	0x3e2f982d	0.17147894
166	0x3dea2c29	0.11434204
167	0x3c0c2c89	0.00855554
168	0x3ce6d3b4	0.02817712
169	0xbdacc02a	-0.0843509
170	0xbdc89ab0	-0.09795129
171	0x3da0e8f9	0.07856936
172	0x3d210289	0.03930906
173	0xbde50dd8	-0.11184281
174	0x3d77d00e	0.06050115
175	0x3d6dd212	0.058061667
176	0xbe3b3b28	-0.18284285
177	0x3e1f819c	0.15576786
178	0xbe13ee48	-0.14446366
179	0xbd280ab2	-0.041025825
180	0x3e4d4370	0.20045257
181	0xbe86a4d5	-0.26297632
182	0xbcb28cbe	-0.021795627
183	0x3d77c949	0.060494695
184	0xbe027d18	-0.12743032
185	0xbde0d0ff	-0.10977363
186	0xbddea267	-0.108708195
187	0x3cd1089f	0.025516806
188	0xbcde093a	-0.027104009
189	0xbd865074	-0.06558314
190	0xbe679900	-0.22616959
191	0xbdaeac98	-0.085290134
192	0x3d7411d5	0.05958732
193	0x391efd11	0.00015162329
194	0xbe858d35	-0.26084295
195	0x3e0ac5d8	0.13552034
196	0xbda8bef5	-0.08239547
197	0x3db8a9ca	0.0901676
198	0x3e1c8f10	0.15288949
199	0x3c41b06e	0.011821849
200	0x3dfd20b8	0.12359756
201	0xbcc7301e	-0.024314936
202	0xbdde4982	-0.10853864
203	0xbe147135	-0.1449631
204	0x3e6e977b	0.23299973
205	0x3d1f5f97	0.03890952
206	0x3dd67e2f	0.10473286
207	0xbd042005	-0.0322571
208	0x3d338137	0.0438244
209	0xbd11c652	-0.035589524
210	0xbcaf1136	-0.021370512
211	0x3de516bd	0.111859776
212	0x3e671f14	0.22570449
213	0x3d90910d	0.07058916
214	0xbd648274	-0.055788472
215	0xbe026466	-0.12733611
216	0xbc4c1cb0	-0.0124580115
217	0x3e427d6c	0.18993157
218	0x3e318305	0.17335136
219	0xbd04fbb7	-0.032466616
220	0xbe29d800	-0.16586304
221	0xbd0e60b7	-0.034760203
222	0xbe69499c	-0.22781986
223	0x3e1ea2e4	0.15491825
224	0x3e5bdad8	0.21470201
225	0x3de70b59	0.11281461
226	0x3dfdf5ba	0.12400384
227	0xbe3f55a1	-0.18685009
228	0xbddc7e3c	-0.10766265
229	0xbd538591	-0.05164105
230	0x3e06b8bf	0.13156413
231	0x3cee8869	0.02911778
232	0x3e2409a5	0.16019304
233	0x3d13531a	0.035967924
234	0xbe1103f5	-0.14161666
235	0x3dae00f8	0.084962785
236	0xbe1f68ba	-0.15567294
237	0x3db986f3	0.09058943
238	0x3d82c4e3	0.063852094
239	0x3b7ce021	0.003858574
240	0x3d84df1e	0.06487869
241	0x3d89ad6c	0.06722531
242	0xbd17a8f3	-0.037026357
243	0xbdc73ac2	-0.09728004
244	0x3d2a7c87	0.041622665
245	0x3e02489e	0.12723014
246	0x3d3d2d20	0.046185613
247	0x3d229d01	0.03970051
248	0xbc7a6a94	-0.015284199
249	0xbd1d8ca8	-0.03846422
250	0xbe3ce143	-0.18445306
251	0x3dd85d98	0.105647266
252	0xbe1c8029	-0.15283264
253	0xbd06f15f	-0.032945033
254	0x3e7293fd	0.23689266
255	0x3e16e6a6	0.14736423

model.encoder.2.bias f4 [16]
0	0xbd1e0019	-0.038574312
1	0x3e4d5b19	0.20054282
2	0x3d49ab34	0.049235538
3	0x3e2a7b25	0.16648538
4	0xbe3b5d38	-0.18297279
5	0xbe16581c	-0.14682049
6	0xbddf3a30	-0.1089977
7	0x3e0f3d81	0.13988306
8	0x3ca189bd	0.019718999
9	0x3e2df7df	0.16989087
10	0x3d4aa198	0.049470514
11	0xbe3bac06	-0.1832734
12	0x3e0c785c	0.13717788
13	0x3d8bddff	0.06829452
14	0xbe08b70a	-0.13351074
15	0x3c425793	0.0118617

model.encoder.5.weight f4 [1, 16, 3]
0	0x3d99d938	0.07512134
1	0xbd58f9f4	-0.05297275
2	0xbd0f0bf1	-0.034923498
3	0xbd867844	-0.065659076
4	0x3dfd2767	0.12361031
5	0xbd14847f	-0.03625917
6	0x3d35d418	0.04439172
7	0xbd8fabd2	-0.07015194
8	0x3d4b2431	0.04959506
9	0x3dad9610	0.08475888
10	0x3c856da5	0.016287634
11	0x3d8f35c4	0.06992677
12	0xbd0e47c9	-0.03473643
13	0xbdd87e4c	-0.10570964
14	0x3c47313d	0.012157735
15	0xbe268007	-0.16259776
16	0x3d173106	0.036911987
17	0x3c8ab961	0.016934099
18	0xbe02d8d9	-0.12778033
19	0x3dc1d763	0.0946491
20	0xbc32607a	-0.01088726
21	0x3c7057c9	0.014669367
22	0x3e07b23a	0.13251582
23	0x3d671541	0.056416754
24	0x3c8480b0	0.016174644
25	0x3d8acbca	0.06777151
26	0xbe1b3f57	-0.15160881
27	0x3d5c4c65	0.053783793
28	0x3e38a4f6	0.18031678
29	0x3ce8a228	0.028397635
30	0xbdf8b46c	-0.12143788
31	0x3dc0715a	0.0939662
32	0xbd38d938	-0.04512903
33	0x3de875aa	0.11350568
34	0x3d5ca3a6	0.053867005
35	0xbd6e6aac	-0.0582072
36	0x3de59043	0.11209156
37	0xbd87d701	-0.066328056
38	0xbdb6cf02	-0.08926202
39	0x3d4271f4	0.047471955
40	0xbe2c26bd	-0.16811652
41	0xbbfdf81c	-0.007750524
42	0xbdcca8cf	-0.09993135
43	0x3d81b1fe	0.063327774
44	0x3d48c9bf	0.049020525
45	0xbe03fa9e	-0.12888572
46	0xbde0de3d	-0.109798886
47	0xbc141c11	-0.009039895
