exp/auto-conv/2-classes/version_7/checkpoints/epoch=60.ckpt (torch_old, 158485 bytes, 91 tensors)

exp_avg f4 [4, 3, 3]
0	0x39fa8582	0.00047783187
1	0x39daf6e8	0.0004176416
2	0x390aee46	0.0001324947
3	0xbb013e23	-0.0019720874
4	0xba49a1fe	-0.000769168
5	0xbaa0a74d	-0.0012256891
6	0xb92f9cd1	-0.00016747719
7	0xb9a08412	-0.00030615978
8	0x3a1538b2	0.0005692347
9	0xb925fe93	-0.00015830463
10	0xba46bb6d	-0.0007581029
11	0x39b7ec0e	0.00035080354
12	0x3a5a99c7	0.00083389546
13	0x3a895808	0.0010478506
14	0x38967c38	7.175695e-05
15	0x37f5b0a6	2.9288534e-05
16	0xb6ed0cdb	-7.064647e-06
17	0x3930c801	0.00016859175
18	0xba06c419	-0.0005140915
19	0x398475f7	0.00025264893
20	0xb96cab96	-0.00022570635
21	0xba953930	-0.0011384841
22	0xbabb0e3d	-0.0014271211
23	0x39aa47ef	0.00032478521
24	0x3b004dae	0.001957755
25	0x398184ff	0.00024703887
26	0xba05afd5	-0.00050997484
27	0xba1de234	-0.00060227816
28	0x391b68c3	0.00014820979
29	0xb9b1b06e	-0.0003389152
30	0x38b1b793	8.474211e-05
31	0x39b092cc	0.00033678708
32	0x39657674	0.00021883269
33	0x39efaa26	0.00045712403
34	0xb81ada13	-3.691956e-05
35	0xb975e65d	-0.00023450838

exp_avg_sq f4 [4, 3, 3]
0	0x3798807a	1.8179639e-05
1	0x37870e5b	1.6099939e-05
2	0x372e1e76	1.03783e-05
3	0x37d1658d	2.496203e-05
4	0x37ec4159	2.8163822e-05
5	0x3714ff22	8.88089e-06
6	0x378c940f	1.6758246e-05
7	0x379c2510	1.8613908e-05
8	0x37549b8c	1.2672401e-05
9	0x36ed9907	7.080965e-06
10	0x369c9904	4.6669757e-06
11	0x36fef750	7.598581e-06
12	0x36f9bedf	7.4429986e-06
13	0x36b87de0	5.498281e-06
14	0x37028306	7.77911e-06
15	0x36bf99ef	5.710164e-06
16	0x3688007f	4.0531736e-06
17	0x36ce1990	6.1422543e-06
18	0x37727078	1.445051e-05
19	0x37c9bddb	2.4049476e-05
20	0x37850857	1.5858719e-05
21	0x375d26a0	1.318162e-05
22	0x3808a5d3	3.2579363e-05
23	0x37c29b64	2.3198962e-05
24	0x378076f8	1.5314188e-05
25	0x38026091	3.108435e-05
26	0x37a7021d	1.9908935e-05
27	0x3709af3c	8.206636e-06
28	0x368147bc	3.8528506e-06
29	0x36e5362d	6.8310387e-06
30	0x37352c93	1.0798819e-05
31	0x377dd649	1.5129867e-05
32	0x373ecbb1	1.1372308e-05
33	0x3702d757	7.7987415e-06
34	0x363b0289	2.7866647e-06
35	0x3738a167	1.1004834e-05

exp_avg f4 [4]
0	0x37711061	1.4368533e-05
1	0xb766f2ab	-1.3765569e-05
2	0x38fc07f1	0.000120177756
3	0xb9289138	-0.00016075827

exp_avg_sq f4 [4]
0	0x32b6e860	2.129326e-08
1	0x32b29a79	2.0792173e-08
2	0x33eeec46	1.11257165e-07
3	0x32e4cfcf	2.6637194e-08

exp_avg f4 [8, 4, 3]
0	0x383d0aa1	4.507101e-05
1	0xb98966c1	-0.00026207234
2	0xb9e0a99e	-0.00042850984
3	0x39695177	0.0002225096
4	0xb9b61a6b	-0.00034733428
5	0x39567e74	0.00020455738
6	0xb9552cec	-0.00020329998
7	0x39fab2a1	0.00047816805
8	0x3a158bdb	0.0005704739
9	0xb92a74ae	-0.0001625593
10	0xb8d96852	-0.000103667975
11	0x38b896c8	8.801889e-05
12	0x37d91012	2.58759e-05
13	0x392ef9e3	0.00016687023
14	0xb9f97894	-0.0004758282
15	0xb9f29d5d	-0.00046275082
16	0xb7c403cd	-2.336679e-05
17	0x38f88d67	0.000118519
18	0x3a01da43	0.0004953483
19	0x393ee243	0.00018204101
20	0x393d5d5c	0.00018059224
21	0x3a1857c6	0.0005811419
22	0x39d6f8fc	0.0004100277
23	0xb9940a43	-0.00028236405
24	0x39e084a5	0.00042823437
25	0xba3398bd	-0.0006851068
26	0x3a3cc679	0.00072012056
27	0x3a038bf8	0.00050181104
28	0xb9e7ffb0	-0.00044250255
29	0xba110d21	-0.00055332674
30	0xb9532e14	-0.00020139694
31	0x38a33599	7.782429e-05
32	0xba33a6bd	-0.0006853154
33	0xb92246d1	-0.00015475905
34	0xba2c0e8d	-0.00065634475
35	0x397d62d7	0.00024164781
36	0xb987622b	-0.00025822347
37	0x3932dc2a	0.0001705742
38	0xb9b8d46d	-0.00035253484
39	0x39bf0011	0.00036430408
40	0xb9214bb4	-0.00015382358
41	0x39517b22	0.00019977664
42	0x399131a3	0.00027693537
43	0x39032a54	0.00012508902
44	0x3884c1a6	6.33032e-05
45	0x3682737d	3.8877465e-06
46	0x393b64fc	0.0001787133
47	0xb80e81dd	-3.3976383e-05
48	0xb991aafc	-0.00027783948
49	0xb7845377	-1.5774493e-05
50	0x38987f5e	7.271649e-05
51	0xba34d3cd	-0.0006898016
52	0x39549f9f	0.00020277359
53	0x39a005d9	0.00030521935
54	0x39e84ae2	0.0004430628
55	0x39f88b90	0.00047406228
56	0xb98911ff	-0.00026144084
57	0x39557e4b	0.00020360311
58	0xb9256e36	-0.00015776683
59	0xba189c02	-0.0005821587
60	0x38b75be0	8.743233e-05
61	0x3966824d	0.0002198305
62	0xba3421c3	-0.0006871486
63	0xba540bd0	-0.00080889184
64	0x389c55ed	7.4546646e-05
65	0x389e32f0	7.543515e-05
66	0x399e3190	0.00030173035
67	0x397fbb88	0.00024388556
68	0x3a2139e1	0.0006150287
69	0x39f44e7d	0.00046597785
70	0x39f79615	0.0004722333
71	0xb9a5ed8f	-0.00031648247
72	0x38801cd7	6.1088875e-05
73	0xb9df617a	-0.000426065
74	0xb9dac339	-0.00041725652
75	0xb8ea7675	-0.00011180054
76	0xb82bcae5	-4.0958537e-05
77	0x39bfd92f	0.00036592173
78	0x3a04565c	0.0005048269
79	0x3a6432dc	0.00087050884
80	0x39885ea4	0.00026010454
81	0x3a0031c3	0.00048902276
82	0x3987273d	0.0002577844
83	0xb957fb65	-0.0002059765
84	0xb93b61a7	-0.00017870088
85	0xb927a0d0	-0.00015986268
86	0x3a10c49e	0.00055224623
87	0xb7a4fb39	-1.9667308e-05
88	0xb9a68b2b	-0.00031765676
89	0xb86be2af	-5.623948e-05
90	0xba0daa8f	-0.00054041384
91	0x390c5a6a	0.00013385122
92	0xb8dbdf3d	-0.00010484315
93	0xba0353f8	-0.0005009766
94	0x38029d10	3.114069e-05
95	0x3990b5a3	0.0002760115

exp_avg_sq f4 [8, 4, 3]
0	0x354f7b79	7.7293186e-07
1	0x359be1f7	1.1614164e-06
2	0x354865f7	7.4654184e-07
3	0x357e2b84	9.4685697e-07
4	0x357cee36	9.422396e-07
5	0x35841206	9.840012e-07
6	0x355a971c	8.143122e-07
7	0x36151627	2.2215625e-06
8	0x35e551c4	1.7085626e-06
9	0x353fdac9	7.147142e-07
10	0x34fca7f8	4.706087e-07
11	0x3500e51c	4.8017114e-07
12	0x369288e3	4.367075e-06
13	0x374d46d5	1.2235444e-05
14	0x376030ad	1.3362774e-05
15	0x363b3409	2.789546e-06
16	0x3652f4aa	3.1434852e-06
17	0x35f94422	1.8571775e-06
18	0x367d6ba4	3.7762593e-06
19	0x37d0df7e	2.4899604e-05
20	0x36d61f91	6.381372e-06
21	0x36b58bef	5.4105108e-06
22	0x36858480	3.979134e-06
23	0x366ff29d	3.5754995e-06
24	0x3814aad1	3.5445035e-05
25	0x3883293e	6.254249e-05
26	0x3723f07b	9.771548e-06
27	0x379036fd	1.7191744e-05
28	0x36519889	3.1232214e-06
29	0x3723fe98	9.774834e-06
30	0x38841929	6.298937e-05
31	0x3823d2fe	3.905873e-05
32	0x380d73e5	3.3724955e-05
33	0x36888823	4.0689642e-06
34	0x3751bdb8	1.2501543e-05
35	0x378d982a	1.6879367e-05
36	0x35b7515c	1.3658241e-06
37	0x36429a5d	2.8998104e-06
38	0x35d74d1f	1.6041193e-06
39	0x360b0a03	2.0718442e-06
40	0x364fbf10	3.0956617e-06
41	0x365cbcfd	3.289256e-06
42	0x3630391f	2.6259293e-06
43	0x3694af9e	4.4311882e-06
44	0x35f93960	1.8568644e-06
45	0x35ae871e	1.3003335e-06
46	0x35c0053f	1.4306642e-06
47	0x35b2c9c4	1.3320755e-06
48	0x36c32fd7	5.817022e-06
49	0x369a9413	4.6067958e-06
50	0x36b2bf1c	5.3270614e-06
51	0x367ba7e4	3.749964e-06
52	0x363dfeda	2.8311538e-06
53	0x3677c98f	3.692319e-06
54	0x37140eba	8.824916e-06
55	0x372ff55e	1.0487942e-05
56	0x373a99cf	1.1122275e-05
57	0x363a3450	2.774661e-06
58	0x3616f4f1	2.2494316e-06
59	0x35adc402	1.294655e-06
60	0x35a0a04f	1.1967585e-06
61	0x37a0eeff	1.9184778e-05
62	0x37852bed	1.587529e-05
63	0x3678c2d8	3.7068294e-06
64	0x369cbd88	4.6712266e-06
65	0x35ec5048	1.7606735e-06
66	0x37364f6b	1.0866536e-05
67	0x37f0a873	2.868867e-05
68	0x37061759	7.992458e-06
69	0x36dbabe7	6.5467207e-06
70	0x3610c6aa	2.157331e-06
71	0x36d60d97	6.379279e-06
72	0x37083f4c	8.120969e-06
73	0x36605dcb	3.3433196e-06
74	0x370804b5	8.107328e-06
75	0x36735b9b	3.6263143e-06
76	0x368273cd	3.887783e-06
77	0x367cc008	3.7662703e-06
78	0x36e06049	6.6869293e-06
79	0x37592c5a	1.2944534e-05
80	0x373dde36	1.1317015e-05
81	0x368b513f	4.151981e-06
82	0x368f30ce	4.2674137e-06
83	0x35db686b	1.6347161e-06
84	0x35bcf2fa	1.4077807e-06
85	0x370cc6e4	8.390958e-06
86	0x373be105	1.119846e-05
87	0x35abf91e	1.2812995e-06
88	0x35effc88	1.7880384e-06
89	0x351287e3	5.458698e-07
90	0x36b5251d	5.398541e-06
91	0x3763c4a9	1.3576043e-05
92	0x36d4c99a	6.341562e-06
93	0x36760174	3.6657702e-06
94	0x35d95f90	1.6195572e-06
95	0x36419498	2.8845734e-06

exp_avg f4 [8]
0	0xaf0ae7b9	-1.2633351e-10
1	0xaf84f2ef	-2.4183275e-10
2	0x2f38fd74	1.6824747e-10
3	0x2fdf7a81	4.0650508e-10
4	0x2e533353	4.802143e-11
5	0xaf8b8401	-2.5377747e-10
6	0x2f843897	2.405087e-10
7	0x2ea78e39	7.6195446e-11

exp_avg_sq f4 [8]
0	0x20279dab	1.4197618e-19
1	0x20d1bb19	3.5529788e-19
2	0x2182a393	8.85244e-19
3	0x20aaf027	2.895804e-19
4	0x21276654	5.671723e-19
5	0x21116ca1	4.927168e-19
6	0x210710f7	4.576223e-19
7	0x205820ec	1.8306805e-19

exp_avg f4 [8]
0	0x3730f7e7	1.0548137e-05
1	0xb6764a2d	-3.6700033e-06
2	0x3925d2cd	0.00015814156
3	0x3847f947	4.7677455e-05
4	0xb93d4941	-0.00018051734
5	0x39269057	0.00015884764
6	0xb8645a8a	-5.4443757e-05
7	0x37c18c5c	2.3072753e-05

exp_avg_sq f4 [8]
0	0x35327e46	6.649392e-07
1	0x35a41d6b	1.2227514e-06
2	0x35d9ce4b	1.6227799e-06
3	0x3591a0b8	1.0850117e-06
4	0x35907af0	1.0764616e-06
5	0x3591b13d	1.0854925e-06
6	0x349545d4	2.780422e-07
7	0x350b7d0e	5.1963514e-07

exp_avg f4 [8]
0	0xb76728d2	-1.3778177e-05
1	0xb86e6705	-5.6839566e-05
2	0x356fb984	8.93044e-07
3	0xb8137309	-3.5154666e-05
4	0xb89bb4f3	-7.4246804e-05
5	0xb883d74c	-6.286669e-05
6	0xb89545d7	-7.117882e-05
7	0x37dada09	2.6089156e-05

exp_avg_sq f4 [8]
0	0x310c08c2	2.037766e-09
1	0x31a76901	4.8722772e-09
2	0x31553d98	3.1030591e-09
3	0x3140e809	2.8071574e-09
4	0x31bf32b3	5.5645955e-09
5	0x31a82719	4.8938884e-09
6	0x31addac2	5.0598326e-09
7	0x30ea62fc	1.7053874e-09

exp_avg f4 [16, 8, 3]
0	0xb8c06536	-9.1741254e-05
1	0xb812ff62	-3.5046956e-05
2	0x389326f8	7.016765e-05
3	0xb68356af	-3.9141955e-06
4	0xb4bcba88	-3.5153448e-07
5	0x38aa7da1	8.129632e-05
6	0x361a0f89	2.295683e-06
7	0x386162f6	5.3736345e-05
8	0xb870c22c	-5.7401296e-05
9	0xb93a4efb	-0.00017767765
10	0x37a00553	1.9075966e-05
11	0x38d1fb7c	0.00010012739
12	0x3732ba48	1.0652999e-05
13	0xb803e298	-3.1443866e-05
14	0x385ab5dc	5.214462e-05
15	0x375759d8	1.2835917e-05
16	0xb8c8863e	-9.561748e-05
17	0x38773d48	5.894646e-05
18	0x3753a209	1.2614307e-05
19	0xb80562c1	-3.1801643e-05
20	0x37c08857	2.2951672e-05
21	0xb7aa4490	-2.0297506e-05
22	0x3891f652	6.9600195e-05
23	0xb8734201	-5.7997186e-05
24	0x3965cd80	0.00021915697
25	0xb8a68b80	-7.941481e-05
26	0xb9366ead	-0.00017398103
27	0xb92b2a06	-0.00016323486
28	0xb8c536f4	-9.403928e-05
29	0xb90332cd	-0.00012512058
30	0xb983382d	-0.0002502812
31	0xb950530d	-0.00019867365
32	0x392853f5	0.00016053005
33	0x395fdc37	0.00021348974
34	0xb9d827e8	-0.00041228463
35	0xb9467aff	-0.00018928571
36	0xb6e9c93e	-6.967369e-06
37	0x3913f497	0.00014110129
38	0xb8152a7c	-3.5563935e-05
39	0x3912ca54	0.00013999018
40	0x3772b4e1	1.4466438e-05
41	0xb9293f74	-0.00016140734
42	0xb967dc20	-0.0002211188
43	0xb8844847	-6.307713e-05
44	0xb8bdb335	-9.045602e-05
45	0xb8bcec60	-9.008567e-05
46	0xb931bfc5	-0.00016951475
47	0xb7dc7d9d	-2.6284537e-05
48	0xb91ddcb6	-0.00015054908
49	0xb8643c79	-5.4415756e-05
50	0x38993193	7.3048424e-05
51	0x385a0ba6	5.19861e-05
52	0x396165b8	0.00021495565
53	0x39405dca	0.00018345486
54	0x38bf00c1	9.10773e-05
55	0x38fe1c6e	0.00012116959
56	0x3777222f	1.4730306e-05
57	0xb9949a1c	-0.0002834358
58	0x38a4678e	7.839418e-05
59	0x399f3009	0.00030362632
60	0xb88f5535	-6.8346424e-05
61	0xb8069e36	-3.2095435e-05
62	0x3927174f	0.00015935044
63	0x389113ce	6.917828e-05
64	0xb8a07743	-7.651609e-05
65	0x3914fb04	0.0001420789
66	0x38c4f309	9.391277e-05
67	0x38d71634	0.000102561346
68	0x391b6838	0.00014820776
69	0xb933ba1b	-0.000171401
70	0x36e7d42e	6.9090374e-06
71	0x375c3a41	1.3126585e-05
72	0xb9a95156	-0.00032294792
73	0x39600175	0.00021362847
74	0x383dae73	4.522358e-05
75	0x38f52866	0.00011690035
76	0xb7abd8a1	-2.0485664e-05
77	0xb99dfeae	-0.00030135125
78	0x396c084b	0.00022509803
79	0xb925c71a	-0.00015809797
80	0x37a8a363	2.0103244e-05
81	0x38339bf8	4.2822183e-05
82	0x3965d3b1	0.00021918003
83	0xb915eac7	-0.00014297209
84	0x398ebdf1	0.00027225868
85	0x385f98fb	5.3309817e-05
86	0x38dc7636	0.00010512436
87	0xb86313a1	-5.41393e-05
88	0xb9050991	-0.00012687432
89	0x389c9eaa	7.468213e-05
90	0xb733b80f	-1.0712086e-05
91	0xb811d57c	-3.4769517e-05
92	0xb6d45eda	-6.3291345e-06
93	0x38b88b25	8.7997214e-05
94	0x390a304f	0.00013178702
95	0xb83243c9	-4.2501637e-05
96	0xb8fc7c9d	-0.000120395074
97	0x3993207e	0.00028062233
98	0xb7f9536a	-2.9721956e-05
99	0xb823b472	-3.903028e-05
100	0xb98ea1b3	-0.00027204826
101	0xb916dd9b	-0.00014387669
102	0x391ea5e7	0.00015129858
103	0xb9814e4f	-0.00024663142
104	0xb8a98cc1	-8.0847654e-05
105	0x392b5be5	0.00016342064
106	0x38bd963b	9.040205e-05
107	0xb99d2175	-0.000299703
108	0x3952ece7	0.00020115414
109	0xb8c4d22b	-9.385155e-05
110	0xb92d2949	-0.00016513946
111	0xb933cf53	-0.00017148005
112	0xb7fee117	-3.0383975e-05
113	0x38cebd55	9.858111e-05
114	0xb8491d49	-4.794941e-05
115	0xb9496065	-0.00019204764
116	0xb8a3226a	-7.778856e-05
117	0x398f5d64	0.00027344667
118	0x38db8080	0.00010466669
119	0xb926bc5a	-0.0001590116
120	0x395d7d05	0.00021122776
121	0xb956fb7f	-0.0002050232
122	0x38a17c98	7.700286e-05
123	0xb877e175	-5.9099362e-05
124	0xb8d49e20	-0.00010138401
125	0x38fbe23b	0.000120107514
126	0xb982d185	-0.00024951636
127	0x388ac7e6	6.617587e-05
128	0xb932c63f	-0.00017049255
129	0x378739c2	1.612015e-05
130	0xb993321b	-0.00028075356
131	0x38cdc19b	9.8112236e-05
132	0xb8e4d3bc	-0.00010911326
133	0xb7d1041c	-2.4916655e-05
134	0xb9130c6b	-0.00014023639
135	0x39792ef2	0.00023763979
136	0xb8fe82b4	-0.00012136009
137	0xb8a43c9a	-7.831417e-05
138	0x37360a4a	1.0850441e-05
139	0xb90e0794	-0.00013544998
140	0xb956aaa3	-0.00020472198
141	0xb8c01425	-9.159026e-05
142	0x38bfeb9a	9.151474e-05
143	0xb6fe72e8	-7.5831667e-06
144	0x37b51792	2.1587857e-05
145	0xb8ad4c38	-8.26348e-05
146	0xb796d8e9	-1.79824e-05
147	0x38459d9e	4.7115253e-05
148	0x38035613	3.1312997e-05
149	0xb8ff8b0e	-0.000121852485
150	0xb8f4742c	-0.00011656465
151	0x38de80ee	0.000106098
152	0x394478be	0.00018736997
153	0x36a5eb76	4.9447945e-06
154	0xb8b2db28	-8.5285224e-05
155	0xb893dea5	-7.050977e-05
156	0xb8235a1d	-3.8946153e-05
157	0x37119702	8.677833e-06
158	0x36fda21a	7.5588587e-06
159	0x394af75b	0.00019356368
160	0x37f71c22	2.9457795e-05
161	0xb8dbc8cb	-0.000104801344
162	0x37dbc324	2.6197704e-05
163	0x38cf7af2	9.8934295e-05
164	0x39291cc0	0.00016127806
165	0xb8fcb796	-0.00012050492
166	0xb8872083	-6.4433574e-05
167	0x388f58dd	6.8353234e-05
168	0x3894bf8d	7.092869e-05
169	0x389305e1	7.010601e-05
170	0xb85dfe80	-5.2927528e-05
171	0x37a44e03	1.958665e-05
172	0x3900df4c	0.00012290216
173	0x391521f4	0.00014222396
174	0x38853591	6.351912e-05
175	0xb88e0a77	-6.773037e-05
176	0xb8b390ba	-8.5623426e-05
177	0xb7818cfe	-1.5443653e-05
178	0x38f4fcfb	0.00011681948
179	0x38ec960d	0.00011281306
180	0xb90df963	-0.00013539712
181	0xb85e153f	-5.294871e-05
182	0x38d9edea	0.00010391681
183	0xb91ab9e1	-0.0001475583
184	0x388b76ab	6.65014e-05
185	0x3829dcd9	4.049842e-05
186	0x370d754c	8.431565e-06
187	0x37db56f7	2.614733e-05
188	0xb89d236a	-7.49294e-05
189	0xb7800011	-1.525882e-05
190	0xb8090c6f	-3.2674925e-05
191	0x3899927c	7.322893e-05
192	0x38918ffe	6.9409594e-05
193	0x38b44d74	8.5974956e-05
194	0xb81a4bba	-3.6786987e-05
195	0x3913b3af	0.0001408595
196	0x390bfcd3	0.00013350257
197	0xb914631f	-0.00014151305
198	0x38435728	4.6572794e-05
199	0xb8b31774	-8.5397536e-05
200	0xb81996b5	-3.66184e-05
201	0x3970291c	0.00022903498
202	0x3952cf16	0.00020104306
203	0xb88bee2a	-6.672398e-05
204	0xb86f2a5e	-5.7021498e-05
205	0x389ae491	7.385866e-05
206	0xb7917c71	-1.7343295e-05
207	0xb889f101	-6.5775595e-05
208	0x3931de32	0.0001696281
209	0xb8c98ad0	-9.610283e-05
210	0x382d537f	4.1324176e-05
211	0x3896cbd6	7.190525e-05
212	0xb925a564	-0.00015797239
213	0x38823074	6.207908e-05
214	0xb76847e7	-1.3845019e-05
215	0x3941fa2c	0.0001849911
216	0xb9b342e6	-0.00034191384
217	0x39a58715	0.00031571896
218	0x37df5010	2.6620954e-05
219	0x38db564f	0.0001045881
220	0xb97da42b	-0.00024189118
221	0xb9bb2a8a	-0.00035699114
222	0x399eff48	0.00030326308
223	0xb952098d	-0.00020030719
224	0xb7aaa707	-2.0343357e-05
225	0x39386c4f	0.00017587956
226	0x3973de09	0.00023257
227	0xb9991f17	-0.00029205598
228	0x39be39b0	0.00036282605
229	0x3787de7a	1.6196853e-05
230	0xb882685f	-6.218324e-05
231	0xb907d21d	-0.00012952877
232	0xb904cbaf	-0.00012664379
233	0x38d30f8d	0.000100641606
234	0x3739cee9	1.1075034e-05
235	0xb904b346	-0.00012655286
236	0xb84707f8	-4.745272e-05
237	0x39780d3e	0.00023656056
238	0x393d3327	0.000180435
239	0xb8f467ec	-0.000116541836
240	0x39d4a11a	0.0004055582
241	0x389ed30c	7.573338e-05
242	0xb98e101d	-0.00027096356
243	0xb9c36239	-0.0003726648
244	0xb9ab8e96	-0.00032721896
245	0xb83156b3	-4.2280833e-05
246	0xb98013be	-0.00024428772
247	0xb99fdc60	-0.00030491035
248	0x39183d14	0.00014518603
249	0x39afee1e	0.00033556012
250	0xba09b0c3	-0.0005252475
251	0xb9e716f0	-0.00044076843
252	0xb8c4530c	-9.361477e-05
253	0xb9100847	-0.00013735994
254	0xb98086a9	-0.00024514392
255	0xb8351760	-4.3175532e-05

exp_avg_sq f4 [16, 8, 3]
0	0x352efa3a	6.518418e-07
1	0x343ef6a1	1.7784852e-07
2	0x34d2b259	3.9245313e-07
3	0x347aaf69	2.3346878e-07
4	0x35388b22	6.8747806e-07
5	0x34662bd9	2.1436371e-07
6	0x351469b2	5.5288103e-07
7	0x33c7fe02	9.3128634e-08
8	0x3519d2b0	5.730353e-07
9	0x3496556a	2.8001824e-07
10	0x34c41a96	3.652719e-07
11	0x34c020ff	3.5786795e-07
12	0x34f29d05	4.519026e-07
13	0x341a7da2	1.4388073e-07
14	0x34a44769	3.0599338e-07
15	0x3400d23b	1.199741e-07
16	0x35684c89	8.653811e-07
17	0x3500baf8	4.795579e-07
18	0x34f54336	4.5683709e-07
19	0x34adee40	3.239711e-07
20	0x345e6454	2.071186e-07
21	0x340adee8	1.2933344e-07
22	0x355b7540	8.175448e-07
23	0x348d60d7	2.6333757e-07
24	0x35d593b4	1.5912724e-06
25	0x360188ad	1.9302054e-06
26	0x356d54fc	8.841305e-07
27	0x356877ce	8.6601074e-07
28	0x36076c78	2.0179705e-06
29	0x360d7689	2.1079634e-06
30	0x35fe133a	1.893007e-06
31	0x35c32be9	1.4541412e-06
32	0x358b64dd	1.0385662e-06
33	0x35bbe14c	1.3998156e-06
34	0x35dbba1f	1.637094e-06
35	0x355877f8	8.064085e-07
36	0x35a75b85	1.2469105e-06
37	0x359754af	1.1275023e-06
38	0x35503d55	7.757529e-07
39	0x35a952aa	1.261554e-06
40	0x35834e01	9.782963e-07
41	0x362a3e9d	2.536842e-06
42	0x357d534a	9.4371046e-07
43	0x35de9abb	1.6585321e-06
44	0x356aeb42	8.751414e-07
45	0x357a2e3c	9.319954e-07
46	0x35c1ded8	1.4444477e-06
47	0x36376d4b	2.7332742e-06
48	0x35a381a2	1.2182174e-06
49	0x35043833	4.925561e-07
50	0x35739ec8	9.075561e-07
51	0x351c1df8	5.815814e-07
52	0x35c0e04c	1.4370394e-06
53	0x34cae017	3.778848e-07
54	0x35698445	8.699174e-07
55	0x34d0b8e8	3.8877556e-07
56	0x358d4ba6	1.0527335e-06
57	0x35257c7a	6.164843e-07
58	0x35579e6c	8.0324276e-07
59	0x352a317b	6.340194e-07
60	0x35758b37	9.1472197e-07
61	0x34115957	1.3536679e-07
62	0x354a33f4	7.5326466e-07
63	0x3513f3b2	5.511639e-07
64	0x35e21f64	1.6847448e-06
65	0x3507bc4b	5.056542e-07
66	0x35429d7a	7.249979e-07
67	0x352c310c	6.4146366e-07
68	0x349c7faa	2.9150152e-07
69	0x34f44e2a	4.5505413e-07
70	0x35e16848	1.6794156e-06
71	0x34adef88	3.2398043e-07
72	0x35669b93	8.5908067e-07
73	0x362d0c12	2.5786035e-06
74	0x35e7336b	1.7225806e-06
75	0x35e8e7b8	1.7352786e-06
76	0x3615449e	2.224267e-06
77	0x361deedf	2.3533864e-06
78	0x35a200a8	1.2070132e-06
79	0x360b3ce4	2.0748057e-06
80	0x35b5f10b	1.3555704e-06
81	0x35825ed6	9.713356e-07
82	0x35d10df8	1.5575779e-06
83	0x351688dd	5.6078517e-07
84	0x356b7981	8.7721133e-07
85	0x35e1acd0	1.6814101e-06
86	0x35f24e5a	1.8053208e-06
87	0x361be013	2.3227228e-06
88	0x35e30388	1.6913846e-06
89	0x361195c6	2.1693863e-06
90	0x356d94d6	8.8505965e-07
91	0x35a3023d	1.2145098e-06
92	0x35fe8332	1.8962658e-06
93	0x3600a211	1.9167821e-06
94	0x35ed0d74	1.7661791e-06
95	0x361ea2f6	2.363869e-06
96	0x354d3b0d	7.645438e-07
97	0x350f382e	5.3353403e-07
98	0x358a9694	1.0325625e-06
99	0x357b4dfa	9.361826e-07
100	0x35df5c79	1.6641708e-06
101	0x349212e1	2.7208355e-07
102	0x35234697	6.0824954e-07
103	0x350f1b25	5.331115e-07
104	0x35aa1430	1.2671862e-06
105	0x34b09796	3.2892848e-07
106	0x354e52b2	7.686132e-07
107	0x35392add	6.8980245e-07
108	0x357c3a3a	9.3962046e-07
109	0x349b4e7e	2.892811e-07
110	0x358055e9	9.561746e-07
111	0x35574b0e	8.020296e-07
112	0x35d13c98	1.5589349e-06
113	0x347d625c	2.3598244e-07
114	0x3563af07	8.481879e-07
115	0x35085834	5.07923e-07
116	0x34c6d4c4	3.703518e-07
117	0x35854efa	9.932257e-07
118	0x35f8e65f	1.8544487e-06
119	0x34af0b30	3.260443e-07
120	0x35f254d9	1.8055099e-06
121	0x36087335	2.0332639e-06
122	0x36065021	2.0014197e-06
123	0x3624f581	2.4580806e-06
124	0x35715df7	8.9916233e-07
125	0x360131ae	1.9251415e-06
126	0x3582a435	9.733545e-07
127	0x361f893f	2.3772734e-06
128	0x358160e2	9.639446e-07
129	0x35a765bf	1.2472082e-06
130	0x35a8c661	1.2574711e-06
131	0x35b86168	1.3737417e-06
132	0x35280eaf	6.2606244e-07
133	0x35ba809c	1.389551e-06
134	0x35801906	9.544026e-07
135	0x364fd552	3.0969572e-06
136	0x35e98b7d	1.7400449e-06
137	0x35cff015	1.5492575e-06
138	0x35836d08	9.791993e-07
139	0x353ad0f3	6.959446e-07
140	0x35bf8a0a	1.4270784e-06
141	0x363e4825	2.83542e-06
142	0x35d09768	1.5541273e-06
143	0x35df6275	1.664345e-06
144	0x353ccf7c	7.0337387e-07
145	0x3538858f	6.8739695e-07
146	0x3589446b	1.0227208e-06
147	0x35895119	1.0230898e-06
148	0x353404ad	6.706203e-07
149	0x35806e0c	9.568771e-07
150	0x3558dd05	8.0787896e-07
151	0x359740f2	1.1269278e-06
152	0x35951f1a	1.1110417e-06
153	0x352ef474	6.517578e-07
154	0x354280ee	7.245825e-07
155	0x359511fe	1.1106602e-06
156	0x353fe1ed	7.148181e-07
157	0x35464fa8	7.3876663e-07
158	0x355581a1	7.953732e-07
159	0x357cbc5a	9.4151403e-07
160	0x358b9881	1.0400692e-06
161	0x3554653d	7.9123475e-07
162	0x35870c40	1.0061849e-06
163	0x357e835f	9.4813544e-07
164	0x358bacb5	1.0406571e-06
165	0x358d4a7a	1.0526994e-06
166	0x3595b1d6	1.1153122e-06
167	0x351c354f	5.8192103e-07
168	0x35157b8d	5.5686615e-07
169	0x34f548d0	4.5687784e-07
170	0x3516f57b	5.6236576e-07
171	0x351ce847	5.8452537e-07
172	0x3488a18a	2.544951e-07
173	0x34bb095d	3.4838277e-07
174	0x34fbc2cc	4.6894127e-07
175	0x3505a067	4.9779777e-07
176	0x35217c25	6.015783e-07
177	0x359092f2	1.0771603e-06
178	0x3532758e	6.648123e-07
179	0x3507a3fd	5.0530053e-07
180	0x35121669	5.442185e-07
181	0x34f2b26b	4.520583e-07
182	0x34e2f91e	4.2277037e-07
183	0x350817e3	5.069871e-07
184	0x34dd7078	4.124629e-07
185	0x35150f6d	5.5529273e-07
186	0x3510dc11	5.396442e-07
187	0x34ff72b6	4.7580914e-07
188	0x34b11ca3	3.2989655e-07
189	0x351caf58	5.836969e-07
190	0x34ddf956	4.1345874e-07
191	0x3538815c	6.8733584e-07
192	0x3560d04f	8.374963e-07
193	0x355446a8	7.907897e-07
194	0x359d2e96	1.171097e-06
195	0x359a3fba	1.1492441e-06
196	0x35857db1	9.945853e-07
197	0x353bb24e	6.9922396e-07
198	0x3541583f	7.202652e-07
199	0x354b172d	7.565712e-07
200	0x3575e549	9.1603266e-07
201	0x3516882f	5.607753e-07
202	0x351ef375	5.9213863e-07
203	0x355f3187	8.3146045e-07
204	0x34cf27ab	3.8585617e-07
205	0x352c73ba	6.42434e-07
206	0x353ee6f2	7.1116585e-07
207	0x357de1a4	9.4578195e-07
208	0x35cbafbd	1.5175825e-06
209	0x34f87f50	4.6286232e-07
210	0x358fc3cc	1.0711315e-06
211	0x34714b04	2.2472165e-07
212	0x3540c87b	7.181731e-07
213	0x35805958	9.562746e-07
214	0x35e0a92c	1.6738536e-06
215	0x34bad670	3.4801224e-07
216	0x358a9a37	1.0326684e-06
217	0x35cc1811	1.5206189e-06
218	0x3616d584	2.2476024e-06
219	0x36412cf9	2.8785419e-06
220	0x35b57825	1.3520518e-06
221	0x360ac611	2.0678892e-06
222	0x3569385c	8.688128e-07
223	0x3622376f	2.4172148e-06
224	0x35cd6087	1.5301783e-06
225	0x353e0858	7.079266e-07
226	0x35dfa61f	1.6663142e-06
227	0x35b8c0fd	1.3765235e-06
228	0x35bd9c28	1.4127045e-06
229	0x35c60366	1.4753139e-06
230	0x35f56d33	1.8285704e-06
231	0x3626c312	2.4849473e-06
232	0x35c7a05b	1.4873325e-06
233	0x35755ff7	9.140926e-07
234	0x35bc48fb	1.4028332e-06
235	0x353d01b8	7.041049e-07
236	0x35e539a8	1.707861e-06
237	0x361cb150	2.334902e-06
238	0x35fb8897	1.874071e-06
239	0x359cdb94	1.1686811e-06
240	0x365106c9	3.1147376e-06
241	0x364d8415	3.0624262e-06
242	0x35a1a73b	1.2044105e-06
243	0x35204afb	5.9713756e-07
244	0x367886d0	3.703335e-06
245	0x3611cb4d	2.172502e-06
246	0x36408159	2.868552e-06
247	0x35de2573	1.6551188e-06
248	0x36035d4a	1.9574823e-06
249	0x3606bc63	2.0077212e-06
250	0x35c0f19e	1.4375435e-06
251	0x35a9b33f	1.2643649e-06
252	0x362819a9	2.5048887e-06
253	0x361aadbe	2.304892e-06
254	0x35854168	9.928308e-07
255	0x35a66739	1.2398006e-06

exp_avg f4 [16]
0	0xae0bb2c5	-3.176372e-11
1	0xad7214c1	-1.3760716e-11
2	0x2dde469d	2.5269837e-11
3	0xaeead997	-1.067974e-10
4	0xae9dfb2c	-7.1841505e-11
5	0xad99e777	-1.7496877e-11
6	0x2d654d37	1.3034288e-11
7	0xae4f6fd1	-4.7165664e-11
8	0x2e90460d	6.5608054e-11
9	0x2edf75d8	1.0161799e-10
10	0xad48fbf3	-1.1424628e-11
11	0x2e133966	3.347491e-11
12	0xadc6cc23	-2.2600649e-11
13	0xad4bbe2c	-1.1581441e-11
14	0xadd33f2f	-2.4015982e-11
15	0x2da30319	1.853233e-11

exp_avg_sq f4 [16]
0	0x1d9c0e61	4.1307724e-21
1	0x1f3761ff	3.8832818e-20
2	0x1e4b8ed0	1.07762635e-20
3	0x1ed84b2a	2.2900977e-20
4	0x1e8ec63e	1.5116826e-20
5	0x1e9a5d29	1.6343914e-20
6	0x1f53be88	4.4838592e-20
7	0x1f209eec	3.4012775e-20
8	0x1e91e73e	1.5448112e-20
9	0x1f242bdb	3.4764627e-20
10	0x1f22cd8c	3.447486e-20
11	0x1e9f29ad	1.6852017e-20
12	0x1e2160cd	8.543287e-21
13	0x1f9a2792	6.5287e-20
14	0x1fef7cf4	1.01427155e-19
15	0x1f6e7845	5.0497945e-20

exp_avg f4 [16]
0	0x3885f8e6	6.388295e-05
1	0x38b7e2c7	8.7683606e-05
2	0x36bf791e	5.7063435e-06
3	0x3804327c	3.151827e-05
4	0xb93a0b6c	-0.00017742597
5	0x379565f0	1.7809652e-05
6	0xb950ee6b	-0.00019925243
7	0xb8d85791	-0.00010315993
8	0x37d55270	2.5429967e-05
9	0xb80b13ee	-3.3158743e-05
10	0x384d2b46	4.891611e-05
11	0x391416d3	0.00014122883
12	0xb6fb3c07	-7.487371e-06
13	0xb955417c	-0.00020337658
14	0xb8ed603b	-0.00011318965
15	0xb73c5909	-1.1226403e-05

exp_avg_sq f4 [16]
0	0x35014069	4.8149974e-07
1	0x353e0ab0	7.079607e-07
2	0x3587821c	1.0096151e-06
3	0x34d6bbf5	3.9997363e-07
4	0x3582ac52	9.735907e-07
5	0x3504205a	4.922091e-07
6	0x34d89485	4.0341197e-07
7	0x35035e2d	4.8938347e-07
8	0x35273b12	6.2298307e-07
9	0x35a8c554	1.2574405e-06
10	0x3619e316	2.2930958e-06
11	0x346d74b2	2.2114799e-07
12	0x35a4ca5b	1.2277845e-06
13	0x358626b7	9.995046e-07
14	0x35dfe2ce	1.6680804e-06
15	0x3445acc8	1.8409912e-07

exp_avg f4 [16]
0	0x3721bd4f	9.640425e-06
1	0xb906cf06	-0.00012856358
2	0x383c7821	4.493457e-05
3	0xb88ee757	-6.814178e-05
4	0xb7154f7a	-8.899597e-06
5	0x37c4fe23	2.3483362e-05
6	0xb90bb2fe	-0.00013322753
7	0x3921a8ab	0.0001541699
8	0x38b4457a	8.59601e-05
9	0xb895262c	-7.111984e-05
10	0xb8b78e10	-8.752581e-05
11	0x38f18084	0.000115157134
12	0x380ef1c5	3.4080604e-05
13	0xb96ebe36	-0.00022768308
14	0xb9157382	-0.00014252777
15	0xb82eb35c	-4.1651874e-05

exp_avg_sq f4 [16]
0	0x32756522	1.4283872e-08
1	0x35d7cea0	1.6078884e-06
2	0x34763a49	2.293174e-07
3	0x353759e3	6.8303615e-07
4	0x33aae402	7.957716e-08
5	0x3344213b	4.566503e-08
6	0x360474c4	1.97375e-06
7	0x363665bd	2.7179333e-06
8	0x3539e501	6.9251115e-07
9	0x352aa4b3	6.3569604e-07
10	0x351a95e4	5.758759e-07
11	0x353b17fa	6.969782e-07
12	0x3350724b	4.8532723e-08
13	0x36ae92a9	5.2026776e-06
14	0x36144d06	2.2098552e-06
15	0x343ca8eb	1.7570316e-07

exp_avg f4 [32, 16, 3]
0	0xb756f69c	-1.2812812e-05
1	0xb7f370ac	-2.9020324e-05
2	0xb7e5e40b	-2.7405118e-05
3	0xb74a8669	-1.2071433e-05
4	0xb78ed29c	-1.7025792e-05
5	0x359b1d79	1.1556978e-06
6	0x378ddc18	1.6910999e-05
7	0xb792edf1	-1.7515356e-05
8	0xb82a9c6d	-4.067684e-05
9	0xb85d5786	-5.277202e-05
10	0xb8494f15	-4.7995785e-05
11	0xb74e6a5c	-1.2303321e-05
12	0xb7ef8b68	-2.8555936e-05
13	0x36b8cbe6	5.507364e-06
14	0x3878aaaa	5.928675e-05
15	0x381387fe	3.5174184e-05
16	0x381c9fbc	3.7342063e-05
17	0x386837d6	5.536511e-05
18	0x36d4de15	6.343946e-06
19	0xb880101a	-6.106515e-05
20	0xb8b47aa6	-8.605914e-05
21	0x3829e2e8	4.0504063e-05
22	0x37a493e0	1.9619183e-05
23	0xb761ff4d	-1.3470487e-05
24	0x36fbf871	7.5093053e-06
25	0x3607dcf6	2.0245184e-06
26	0xb688a2ac	-4.0720533e-06
27	0xb826bae9	-3.9751558e-05
28	0xb6e33ed1	-6.77244e-06
29	0x3710a96b	8.6225145e-06
30	0xb68b2d12	-4.1477697e-06
31	0xb6277723	-2.4954286e-06
32	0x38227dac	3.874085e-05
33	0x3680a405	3.8337917e-06
34	0xb6f538d1	-7.3081833e-06
35	0x3758cfdd	1.2923e-05
36	0xb7857d0c	-1.5913065e-05
37	0x36d1fe80	6.258313e-06
38	0x37cc676a	2.4366851e-05
39	0xb8206b83	-3.82471e-05
40	0xb81d704c	-3.75363e-05
41	0xb7604443	-1.3367334e-05
42	0xb7ccbd01	-2.4406707e-05
43	0xb84490fa	-4.686506e-05
44	0xb8045975	-3.1554566e-05
45	0x36cbe07d	6.0760053e-06
46	0x34efa154	4.46346e-07
47	0x378a4a3f	1.6485455e-05
48	0xb59b4c6d	-1.1570643e-06
49	0xb8159f77	-3.567288e-05
50	0xb80c030f	-3.338145e-05
51	0xb8060e83	-3.1961605e-05
52	0xb739c7bd	-1.10733645e-05
53	0x37ba9c4e	2.2245713e-05
54	0x37811a76	1.539032e-05
55	0x3761b4b7	1.3453121e-05
56	0xb8908323	-6.890881e-05
57	0x37caff83	2.4199258e-05
58	0xb88f05af	-6.81983e-05
59	0xb8681b08	-5.5338285e-05
60	0xb768beb0	-1.38726755e-05
61	0xb88ceb3c	-6.719536e-05
62	0x38489d2d	4.7830097e-05
63	0xb7cf80ba	-2.4736266e-05
64	0xb81dd5dc	-3.763089e-05
65	0xb7737d01	-1.4513033e-05
66	0x37c5d379	2.3582705e-05
67	0x375b921c	1.3087436e-05
68	0xb83ded04	-4.528185e-05
69	0x37ab59ad	2.0426547e-05
70	0x37d438cd	2.529882e-05
71	0x37f83764	2.9589697e-05
72	0x381f4afe	3.7978396e-05
73	0x37706fab	1.43311145e-05
74	0x370994cb	8.20048e-06
75	0x37164514	8.95678e-06
76	0xb82ac53b	-4.0714844e-05
77	0x3838ab19	4.4028366e-05
78	0xb6f16618	-7.194245e-06
79	0xb80113eb	-3.0774547e-05
80	0xb60dd991	-2.1137278e-06
81	0x386e6c6b	5.6844594e-05
82	0xb87977a7	-5.947766e-05
83	0xb8127451	-3.491744e-05
84	0x3800b1a1	3.0683008e-05
85	0xb7abc97b	-2.047861e-05
86	0x381aa8e1	3.6873742e-05
87	0xb81e55ac	-3.7749924e-05
88	0xb85d98f0	-5.283294e-05
89	0x37d8fb1a	2.5866135e-05
90	0x34241919	1.528282e-07
91	0xb8257178	-3.944474e-05
92	0xb80c7b82	-3.3493627e-05
93	0x37403514	1.145645e-05
94	0xb85b4dcb	-5.228612e-05
95	0x368a7537	4.126366e-06
96	0x3822eea2	3.8846054e-05
97	0x389c582d	7.455084e-05
98	0xb83e0443	-4.53035e-05
99	0x385e7e2d	5.3046435e-05
100	0xb8c19a8e	-9.231745e-05
101	0xb85c6ade	-5.2551615e-05
102	0x38818e6d	6.177728e-05
103	0x38accf19	8.240174e-05
104	0x36e6fcb4	6.8839527e-06
105	0xb8557131	-5.0888575e-05
106	0x37e81935	2.7668293e-05
107	0x3589dd27	1.0271659e-06
108	0xb7a2f282	-1.9424831e-05
109	0xb7ffa27e	-3.0474035e-05
110	0xb7b36bc0	-2.1388638e-05
111	0x390788f6	0.00012925625
112	0x38c35887	9.314814e-05
113	0xb7456da3	-1.1767642e-05
114	0x389ea8d7	7.565476e-05
115	0xb80e9928	-3.3998076e-05
116	0xb7b66807	-2.1744532e-05
117	0x3813da79	3.5251e-05
118	0x37231efe	9.722773e-06
119	0x37a2e6b7	1.941934e-05
120	0xb884b2f9	-6.327587e-05
121	0xb7b5aa59	-2.1656206e-05
122	0x386ecc99	5.693417e-05
123	0xb8d2e51d	-0.00010056256
124	0xb7f74479	-2.947658e-05
125	0xb73d35eb	-1.1277832e-05
126	0x3818df83	3.6447786e-05
127	0xb86defa2	-5.672838e-05
128	0x370bc1e1	8.330187e-06
129	0xb69136fb	-4.3277373e-06
130	0x38f3ebfb	0.00011631098
131	0x381f86cc	3.8034093e-05
132	0xb8dad805	-0.00010435287
133	0xb6b261dd	-5.316206e-06
134	0x3801766f	3.0866297e-05
135	0x38186a20	3.633846e-05
136	0xb85b46f3	-5.2279745e-05
137	0xb8b9dadc	-8.862253e-05
138	0x383dffe3	4.5299425e-05
139	0xb84821e5	-4.7715283e-05
140	0xb82dcffa	-4.1440107e-05
141	0x382cbbe6	4.118299e-05
142	0x3895f97c	7.151344e-05
143	0xb7c39aa4	-2.3317822e-05
144	0xb8d51a2b	-0.000101615056
145	0xb7b0e5f8	-2.1087923e-05
146	0x380b0444	3.3144155e-05
147	0x386d8d7d	5.6636974e-05
148	0x3813b45c	3.5215504e-05
149	0x3809a7cc	3.281962e-05
150	0xb8bf43b4	-9.1202004e-05
151	0xb81db5dd	-3.760109e-05
152	0xb813dd54	-3.525366e-05
153	0xb881e0a7	-6.193044e-05
154	0xb8797796	-5.94776e-05
155	0x3894fada	7.103915e-05
156	0x37f8eac6	2.9673229e-05
157	0x37fad12c	2.9899726e-05
158	0x38f7e517	0.00011820549
159	0xb88b4337	-6.640556e-05
160	0x381f0b75	3.7919224e-05
161	0x38c8d8a2	9.577094e-05
162	0xb73d5742	-1.1285594e-05
163	0xb8694b77	-5.562181e-05
164	0xb89417b5	-7.061606e-05
165	0x37d0c32f	2.4886422e-05
166	0xb6583621	-3.2218015e-06
167	0xb85e102f	-5.2943997e-05
168	0x384af973	4.839287e-05
169	0xb822d6bd	-3.88238e-05
170	0xb8104b92	-3.4402656e-05
171	0x37f7b054	2.9526804e-05
172	0xb6fcf57d	-7.538764e-06
173	0x3859a699	5.1891988e-05
174	0x385774d9	5.1368817e-05
175	0x3703d276	7.85721e-06
176	0x38923935	6.972478e-05
177	0xb8b35ce5	-8.552688e-05
178	0xb893998a	-7.038105e-05
179	0x388761eb	6.45554e-05
180	0x380a0765	3.290865e-05
181	0xb7b02e65	-2.100244e-05
182	0x3799216d	1.8254586e-05
183	0xb6d58d73	-6.3643615e-06
184	0x37ffe4cf	3.0504916e-05
185	0x387d7823	6.0431787e-05
186	0x360ed624	2.1284295e-06
187	0xb7f7aa97	-2.9524132e-05
188	0x384537df	4.7020494e-05
189	0xb86a3634	-5.5840428e-05
190	0xb7a92a99	-2.0166206e-05
191	0x38ba8899	8.8946144e-05
192	0x37b4bc2f	2.1545302e-05
193	0xb848030d	-4.7686557e-05
194	0xb88f7208	-6.840011e-05
195	0xb7afa93a	-2.0940428e-05
196	0xb8a8db34	-8.051694e-05
197	0xb826003a	-3.9577695e-05
198	0x38703a78	5.7274912e-05
199	0x38286494	4.0147992e-05
200	0xb8be9304	-9.08729e-05
201	0xb899f0f9	-7.340493e-05
202	0xb8b8ba0a	-8.808456e-05
203	0xb8c767ed	-9.508417e-05
204	0xb8082595	-3.2459928e-05
205	0xb8924931	-6.9754555e-05
206	0x38ceb210	9.856012e-05
207	0x39084807	0.00012996803
208	0x38ce757f	9.844731e-05
209	0x3869dc5a	5.5756747e-05
210	0x384f3044	4.9397597e-05
211	0xb8e6316e	-0.000109764616
212	0xb92d3e10	-0.00016521686
213	0x38d8181c	0.00010304173
214	0x3811efec	3.479414e-05
215	0x381f548c	3.7987294e-05
216	0x370cb076	8.385736e-06
217	0x3689e65f	4.109737e-06
218	0x37db88f1	2.6170603e-05
219	0xb8b87c57	-8.796964e-05
220	0xb88bcc1d	-6.6660556e-05
221	0x36fa3ae7	7.4574377e-06
222	0x37762568	1.4671452e-05
223	0xb7ffe594	-3.0505274e-05
224	0x3799f229	1.8351786e-05
225	0x38beec66	9.103939e-05
226	0xb6c3153c	-5.813925e-06
227	0x3870004d	5.722074e-05
228	0xb80a723c	-3.3008153e-05
229	0xb7f5307e	-2.9228857e-05
230	0x38dbac26	0.00010474799
231	0xb84a8f0c	-4.8293776e-05
232	0xb91e7084	-0.0001510997
233	0xb874150a	-5.8193727e-05
234	0xb76a007b	-1.3947599e-05
235	0xb8e9475e	-0.00011123599
236	0xb90a81e6	-0.00013209097
237	0x38aae960	8.149701e-05
238	0xb7c22f04	-2.3148496e-05
239	0x3839262e	4.4142995e-05
240	0x367fd3cd	3.8121245e-06
241	0xb8b274c9	-8.509454e-05
242	0xb7a900f4	-2.0146814e-05
243	0xb8da963c	-0.000104230334
244	0x388175b4	6.173123e-05
245	0x3890aa10	6.898132e-05
246	0x37f60e9f	2.9332294e-05
247	0xb8ead8bd	-0.0001119836
248	0xb7fa71fd	-2.9855402e-05
249	0x37847640	1.579069e-05
250	0xb81d359e	-3.748165e-05
251	0xb7be586f	-2.2690945e-05
252	0xb88ac62b	-6.6172644e-05
253	0x3884b5e4	6.32813e-05
254	0x378a4ca5	1.6486572e-05
255	0xb899837e	-7.320101e-05

exp_avg_sq f4 [32, 16, 3]
0	0x331d17df	3.657612e-08
1	0x335a30e6	5.0801553e-08
2	0x3371b04e	5.6272533e-08
3	0x332f4baa	4.081418e-08
4	0x33524258	4.8954774e-08
5	0x33128d7e	3.412196e-08
6	0x335d9403	5.1590188e-08
7	0x32fa2c58	2.9123996e-08
8	0x331406dc	3.4465174e-08
9	0x330a80c5	3.2247744e-08
10	0x3304f2bd	3.0954414e-08
11	0x330c2b95	3.2635928e-08
12	0x337a5a14	5.8289586e-08
13	0x3328e40c	3.9322956e-08
14	0x3321d818	3.768227e-08
15	0x330b54b4	3.2440497e-08
16	0x330fdde4	3.349659e-08
17	0x330814ba	3.168382e-08
18	0x3303d58b	3.069503e-08
19	0x333ef9e1	4.4465086e-08
20	0x32f99ae3	2.905785e-08
21	0x335b8c31	5.1117414e-08
22	0x332fad31	4.090288e-08
23	0x32efcede	2.7917334e-08
24	0x33149b09	3.459994e-08
25	0x336fd87d	5.584342e-08
26	0x33263370	3.869667e-08
27	0x3374b0ee	5.6971594e-08
28	0x331d9193	3.668681e-08
29	0x332cf41f	4.0268898e-08
30	0x33404d24	4.4773643e-08
31	0x334556b6	4.59465e-08
32	0x33367b92	4.2487564e-08
33	0x32c2b737	2.2667889e-08
34	0x330fa734	3.3446852e-08
35	0x33143b2d	3.4512755e-08
36	0x336929e3	5.4287636e-08
37	0x3345e56d	4.60763e-08
38	0x3313bb53	3.4396475e-08
39	0x3355b35f	4.9756064e-08
40	0x333b7aca	4.3651006e-08
41	0x32e701be	2.6892732e-08
42	0x3366ab95	5.37071e-08
43	0x3388f518	6.377576e-08
44	0x33441345	4.565233e-08
45	0x32de88f0	2.5906473e-08
46	0x331a7265	3.595996e-08
47	0x330de419	3.3036574e-08
48	0x343256fa	1.6609184e-07
49	0x342c9e36	1.6076305e-07
50	0x3428dd4f	1.5726731e-07
51	0x33eea0e0	1.11120016e-07
52	0x33f0e710	1.1217901e-07
53	0x3429ac2b	1.5801986e-07
54	0x3446b4ba	1.8505935e-07
55	0x344af59b	1.8902067e-07
56	0x33f7444f	1.1514259e-07
57	0x339c5f3b	7.2816384e-08
58	0x33aa567c	7.931973e-08
59	0x33a6ef56	7.773512e-08
60	0x3457f665	2.0113073e-07
61	0x345d7b98	2.0627192e-07
62	0x33fc494e	1.17479985e-07
63	0x33ca3f19	9.4178354e-08
64	0x33e6890c	1.0735138e-07
65	0x33c70686	9.267846e-08
66	0x335d2d8b	5.1496993e-08
67	0x3382d36c	6.092054e-08
68	0x338d8951	6.590802e-08
69	0x33127456	3.409908e-08
70	0x33220a07	3.7727684e-08
71	0x331c143c	3.6339983e-08
72	0x33af9bff	8.177448e-08
73	0x33dc0bea	1.02467155e-07
74	0x33b6427c	8.487129e-08
75	0x343f817f	1.7835372e-07
76	0x3469501b	2.1728958e-07
77	0x341feac7	1.489344e-07
78	0x34349f6c	1.6821804e-07
79	0x341ec93a	1.4788102e-07
80	0x34443f0c	1.8276859e-07
81	0x33baafd0	8.69328e-08
82	0x33d9be96	1.0139517e-07
83	0x34133c00	1.371227e-07
84	0x34521aec	1.9567568e-07
85	0x3488c02e	2.5471803e-07
86	0x345f1f37	2.077985e-07
87	0x337a1959	5.8230714e-08
88	0x336f62e6	5.573647e-08
89	0x33890c7e	6.381832e-08
90	0x343d109c	1.7608039e-07
91	0x34191b12	1.4259084e-07
92	0x344a8a35	1.8862995e-07
93	0x337d43b7	5.896774e-08
94	0x33aeef95	8.146086e-08
95	0x33b45152	8.396695e-08
96	0x3462e2bf	2.113038e-07
97	0x34a6ffeb	3.1106114e-07
98	0x34a6d656	3.107586e-07
99	0x344d5d6a	1.9126097e-07
100	0x3454f99a	1.9834843e-07
101	0x34792f82	2.3207215e-07
102	0x349cbb7a	2.9193671e-07
103	0x348f3064	2.6671034e-07
104	0x3498e3e0	2.8478007e-07
105	0x33f0825b	1.11995824e-07
106	0x34149e35	1.384113e-07
107	0x34255ab1	1.5399816e-07
108	0x34b267db	3.3230648e-07
109	0x3498ed72	2.848497e-07
110	0x34935968	2.7445935e-07
111	0x34520aa2	1.9561642e-07
112	0x34715a1e	2.2477658e-07
113	0x3465cb05	2.1401145e-07
114	0x33d469ae	9.891242e-08
115	0x341ffab5	1.4899236e-07
116	0x33c74988	9.280035e-08
117	0x33ce9048	9.618867e-08
118	0x337929ce	5.801285e-08
119	0x3392ea75	6.841302e-08
120	0x3433c48a	1.6742175e-07
121	0x3487c1f8	2.528684e-07
122	0x340faa9b	1.3379979e-07
123	0x34a8e2aa	3.1457358e-07
124	0x34bec79c	3.5535493e-07
125	0x34b7eaf0	3.4257346e-07
126	0x348c8ef2	2.6181038e-07
127	0x34801006	2.3853516e-07
128	0x34b89788	3.4382924e-07
129	0x33d59d89	9.947241e-08
130	0x3434ffaf	1.6856823e-07
131	0x3454adca	1.9807263e-07
132	0x349d27dd	2.9272533e-07
133	0x34bfb312	3.5706813e-07
134	0x34b6e6ed	3.4068162e-07
135	0x3413e9e7	1.3775535e-07
136	0x33a0c82b	7.486991e-08
137	0x33d12740	9.7394604e-08
138	0x349f8f89	2.9720493e-07
139	0x34a3f00c	3.0535773e-07
140	0x34b96efd	3.453969e-07
141	0x34008724	1.1970093e-07
142	0x34267356	1.5501914e-07
143	0x3400d823	1.1999559e-07
144	0x343cd652	1.7586834e-07
145	0x347effdd	2.3748676e-07
146	0x34810725	2.403332e-07
147	0x340f9371	1.3371552e-07
148	0x343c7973	1.7553047e-07
149	0x341a7efa	1.4388561e-07
150	0x3456a18b	1.9989072e-07
151	0x348aff55	2.5890282e-07
152	0x34873ed9	2.5191437e-07
153	0x33c269dc	9.053085e-08
154	0x33c05d5c	8.957679e-08
155	0x33ca5342	9.4215025e-08
156	0x34525eda	1.9592281e-07
157	0x348da664	2.6384362e-07
158	0x3489ac7b	2.5643735e-07
159	0x34417291	1.8016205e-07
160	0x340d5d5e	1.3165615e-07
161	0x34210e1b	1.4999425e-07
162	0x33c75754	9.2825445e-08
163	0x33d5857c	9.942866e-08
164	0x33d932fb	1.0114123e-07
165	0x336211a5	5.2635773e-08
166	0x33853f98	6.204863e-08
167	0x33442ba7	4.5674508e-08
168	0x33fb3e53	1.1699435e-07
169	0x3408554f	1.2697022e-07
170	0x3435030b	1.6858046e-07
171	0x348edb1e	2.660899e-07
172	0x346faa3b	2.2320539e-07
173	0x348f6077	2.6706013e-07
174	0x34463071	1.845781e-07
175	0x348c22f3	2.610246e-07
176	0x345df5e6	2.0671686e-07
177	0x33c43439	9.1364605e-08
178	0x3415f17d	1.3964559e-07
179	0x3414a583	1.3843787e-07
180	0x347e32cd	2.3674075e-07
181	0x3476aab8	2.2972642e-07
182	0x34a1da78	3.0147544e-07
183	0x3390199e	6.710182e-08
184	0x33d307fe	9.826907e-08
185	0x3387e41a	6.327919e-08
186	0x347de58f	2.3645974e-07
187	0x3488c158	2.547265e-07
188	0x34356e80	1.6897138e-07
189	0x33e02d15	1.0439013e-07
190	0x33efe6dc	1.1171298e-07
191	0x342004c4	1.4902895e-07
192	0x33c1d599	9.026116e-08
193	0x33c3ace1	9.1118416e-08
194	0x33a07feb	7.473849e-08
195	0x33ead4a3	1.09351525e-07
196	0x33d0890e	9.710685e-08
197	0x33df9c08	1.04126286e-07
198	0x33605dc2	5.2239336e-08
199	0x33819a0c	6.0350516e-08
200	0x33753e36	5.7100088e-08
201	0x340ccf01	1.3113824e-07
202	0x3411c0fe	1.3574387e-07
203	0x34024763	1.2133164e-07
204	0x339d5a03	7.327255e-08
205	0x33c9aaac	9.390837e-08
206	0x33b97e91	8.637756e-08
207	0x33ab0b32	7.9648444e-08
208	0x33c6a13e	9.249423e-08
209	0x34031549	1.2208069e-07
210	0x342532a4	1.5385245e-07
211	0x3436e6c0	1.7034017e-07
212	0x343d37ca	1.7622293e-07
213	0x3496b9ce	2.8074868e-07
214	0x348965a1	2.5592183e-07
215	0x346f9dba	2.231599e-07
216	0x343715d7	1.7051148e-07
217	0x34388ad5	1.7186842e-07
218	0x341e9496	1.4768952e-07
219	0x3386fe24	6.286089e-08
220	0x338b7f1e	6.4958144e-08
221	0x33b45437	8.397222e-08
222	0x3399fa0f	7.170103e-08
223	0x338eef87	6.65596e-08
224	0x338f3508	6.668603e-08
225	0x33b23a0f	8.299332e-08
226	0x33a6bd97	7.7644636e-08
227	0x33b4271b	8.3890164e-08
228	0x334a5e95	4.7117812e-08
229	0x339108ad	6.753667e-08
230	0x334e2a85	4.8001784e-08
231	0x34867238	2.504255e-07
232	0x347dbe1d	2.3631624e-07
233	0x345ff052	2.0855921e-07
234	0x34058686	1.243553e-07
235	0x34119da8	1.3561532e-07
236	0x341b031e	1.4436634e-07
237	0x34135c0d	1.372393e-07
238	0x33f7f378	1.15461205e-07
239	0x33ffe720	1.1916404e-07
240	0x336d9bba	5.5322495e-08
241	0x33ba6bdd	8.68092e-08
242	0x33e40b00	1.0619078e-07
243	0x334c5a49	4.7579565e-08
244	0x33751839	5.7065538e-08
245	0x33904f1d	6.719913e-08
246	0x33b43910	8.392283e-08
247	0x33e4605f	1.0634607e-07
248	0x34135d7c	1.3724451e-07
249	0x33300cff	4.0990013e-08
250	0x330f6c27	3.3393146e-08
251	0x336a9f91	5.4627495e-08
252	0x33cba7ee	9.4834704e-08
253	0x33d3a15e	9.854806e-08
254	0x341167f7	1.3542e-07
255	0x339df378	7.355169e-08

exp_avg f4 [32]
0	0xb82be5b0	-4.098349e-05
1	0xb6d4f4b9	-6.346582e-06
2	0xb81d6638	-3.7526916e-05
3	0xb7561fc5	-1.2762791e-05
4	0xb8d3b6fa	-0.00010095346
5	0x3782de8b	1.5600837e-05
6	0xb887e307	-6.479589e-05
7	0x37b73e79	2.1844391e-05
8	0xb65f57bd	-3.328066e-06
9	0x37e1cc02	2.6917089e-05
10	0xb77504ae	-1.46042275e-05
11	0xb8661ddc	-5.4864082e-05
12	0xb713ad46	-8.802226e-06
13	0xb6dd5543	-6.596239e-06
14	0xb79590d8	-1.7829632e-05
15	0xb72efe79	-1.0430457e-05
16	0xb8b8c0ce	-8.8097164e-05
17	0xb807a64e	-3.234139e-05
18	0xb75c6b27	-1.313797e-05
19	0x3434be51	1.6833043e-07
20	0xb7ea93a4	-2.7963724e-05
21	0x327f0b9d	1.4845594e-08
22	0x35c9e99a	1.5043654e-06
23	0xb80cde87	-3.3585846e-05
24	0xb6a33020	-4.863381e-06
25	0xb7d75029	-2.5667325e-05
26	0x37f07bb5	2.8667835e-05
27	0xb6ee800f	-7.1078607e-06
28	0x374753d9	1.1880847e-05
29	0x37777545	1.4749651e-05
30	0x381c2afd	3.7233334e-05
31	0x36ecd794	7.0584447e-06

exp_avg_sq f4 [32]
0	0x34322973	1.6592621e-07
1	0x3264f8bc	1.3327902e-08
2	0x3439e75b	1.7313634e-07
3	0x322d226b	1.0077751e-08
4	0x359e0417	1.1773108e-06
5	0x32dd3dbb	2.5755858e-08
6	0x35227c98	6.053101e-07
7	0x33eac3ef	1.0932114e-07
8	0x2fe8f601	4.237535e-10
9	0x342a427b	1.5856669e-07
10	0x32c9aa20	2.3476844e-08
11	0x34b25196	3.3214445e-07
12	0x310ccb53	2.0488258e-09
13	0x32389c14	1.0745698e-08
14	0x32edc451	2.7679706e-08
15	0x3212443c	8.513833e-09
16	0x356ecad4	8.8957063e-07
17	0x33a9cf49	7.907381e-08
18	0x326e7a34	1.3881209e-08
19	0x312d231a	2.5194766e-09
20	0x33b2470c	8.301694e-08
21	0x30237dda	5.94779e-10
22	0x31c1cf19	5.6405836e-09
23	0x34567d1e	1.997582e-07
24	0x3137a7d8	2.6725413e-09
25	0x33065a6a	3.1281537e-08
26	0x34177455	1.4105292e-07
27	0x32697251	1.35883775e-08
28	0x3317558f	3.5235242e-08
29	0x33496d65	4.6898453e-08
30	0x3440298f	1.7896512e-07
31	0x308ebb82	1.0385153e-09

exp_avg f4 [16, 32, 3]
0	0xb8273ca7	-3.987239e-05
1	0xb7543e78	-1.2650729e-05
2	0xb84aa3b9	-4.831303e-05
3	0xb76561ec	-1.3672263e-05
4	0x38567bb1	5.1136773e-05
5	0x38091311	3.2681102e-05
6	0xb85a79db	-5.2088737e-05
7	0xb81f795e	-3.8021586e-05
8	0x37a33d91	1.9459783e-05
9	0xb8566694	-5.111711e-05
10	0xb505a6a9	-4.9788883e-07
11	0xb80c3610	-3.342895e-05
12	0xb8ce702f	-9.843741e-05
13	0xb8abf93c	-8.200339e-05
14	0x376ec5ac	1.42319295e-05
15	0x38b265d6	8.50667e-05
16	0x377907b3	1.4843349e-05
17	0xb7b24413	-2.1250953e-05
18	0xb801ca4d	-3.0944404e-05
19	0xb83e454c	-4.5364068e-05
20	0xb6dd2e2f	-6.5916897e-06
21	0x38382025	4.3898955e-05
22	0x37f91c63	2.9696332e-05
23	0xb8604db4	-5.347813e-05
24	0xb85776af	-5.1370527e-05
25	0x361aded8	2.30775e-06
26	0x36b69c68	5.4422308e-06
27	0x38a58f5b	7.894515e-05
28	0x37d15212	2.4952958e-05
29	0xb4d65df9	-3.992898e-07
30	0x38198833	3.6604888e-05
31	0xb7e782a9	-2.759819e-05
32	0xb7aa6e29	-2.0316877e-05
33	0xb88ab51a	-6.6140856e-05
34	0xb81419de	-3.531004e-05
35	0xb5c50533	-1.4679157e-06
36	0x3813e833	3.5263784e-05
37	0xb7be12dd	-2.2658549e-05
38	0x3880b2fd	6.136855e-05
39	0x382aad4d	4.0692557e-05
40	0x3757409a	1.283004e-05
41	0x3893642f	7.028167e-05
42	0x37cbca59	2.4293711e-05
43	0xb6918486	-4.3367645e-06
44	0xb806e00a	-3.2156742e-05
45	0xb80b5dc8	-3.3227523e-05
46	0xb83890c4	-4.4003842e-05
47	0xb806d764	-3.2148688e-05
48	0xb8b34017	-8.547323e-05
49	0xb82372d8	-3.8969185e-05
50	0x38707d8e	5.733739e-05
51	0xb7b6ae91	-2.177738e-05
52	0xb845d8bf	-4.717032e-05
53	0xb7c4f30f	-2.3478204e-05
54	0xb825528d	-3.9415947e-05
55	0xb815b0fe	-3.5689205e-05
56	0x369c4e20	4.6582572e-06
57	0xb78b293c	-1.6589292e-05
58	0x377e0c7a	1.5142485e-05
59	0x3799e13d	1.8343906e-05
60	0xb8463c53	-4.726306e-05
61	0xb7a693e3	-1.9857607e-05
62	0x382912bf	4.03102e-05
63	0xb830350b	-4.201107e-05
64	0xb7e16638	-2.686969e-05
65	0x37175177	9.019269e-06
66	0x37bb7ad8	2.234934e-05
67	0xb6b9be3c	-5.535576e-06
68	0x37e949d6	2.7810147e-05
69	0xb809cb27	-3.2852546e-05
70	0xb7ffea0e	-3.0507359e-05
71	0x374856a5	1.19411025e-05
72	0xb782ced6	-1.5593523e-05
73	0x36e2258a	6.739695e-06
74	0x3770a79b	1.4344138e-05
75	0xb855c612	-5.0967625e-05
76	0xb6ebaf5c	-7.0239603e-06
77	0xb8078e20	-3.2318872e-05
78	0x374bd18d	1.2148533e-05
79	0x38285b4b	4.0139344e-05
80	0xb6b99a8e	-5.531422e-06
81	0x380d515d	3.3692795e-05
82	0xb79a17a9	-1.8369248e-05
83	0xb56e383d	-8.8743747e-07
84	0x388d4234	6.735735e-05
85	0xb813e6aa	-3.5262354e-05
86	0x38290fe5	4.0307543e-05
87	0x37c8efef	2.3953586e-05
88	0x381a195a	3.674007e-05
89	0x3830fa9a	4.219506e-05
90	0x37c90713	2.3964361e-05
91	0x382f46df	4.1789255e-05
92	0x37d94862	2.5902122e-05
93	0x38526d24	5.0169547e-05
94	0xb7133523	-8.774255e-06
95	0xb77a6b35	-1.4926122e-05
96	0xb7d99992	-2.5939928e-05
97	0x38639e1e	5.4268276e-05
98	0x373de2f7	1.1318122e-05
99	0x37c6c636	2.3695738e-05
100	0x3607bf9e	2.0228103e-06
101	0xb7c269c3	-2.3175851e-05
102	0xb8418683	-4.614006e-05
103	0x37f581db	2.9266745e-05
104	0x381dd88e	3.76334e-05
105	0x3802bd34	3.1170624e-05
106	0x3872db1e	5.7901365e-05
107	0xb733f64a	-1.0726575e-05
108	0x385d0f6b	5.2704865e-05
109	0x388dcbae	6.761342e-05
110	0x3888f983	6.5314605e-05
111	0x3802c813	3.118075e-05
112	0xb877724e	-5.8995844e-05
113	0xb7a822c8	-2.0043357e-05
114	0x385a8b66	5.2105075e-05
115	0x37cdff04	2.4556655e-05
116	0x379ee966	1.8943752e-05
117	0xb8abce07	-8.192291e-05
118	0xb714ca94	-8.868654e-06
119	0xb7f3b018	-2.9049857e-05
120	0xb7dce47c	-2.633244e-05
121	0x3828bfc8	4.023293e-05
122	0x359af14d	1.1544122e-06
123	0xb7e1ee0d	-2.6932941e-05
124	0xb881ea4c	-6.1948405e-05
125	0xb6b67f29	-5.438826e-06
126	0x37ab789c	2.0440952e-05
127	0xb7bc7cd6	-2.2469478e-05
128	0x37c6de30	2.3706903e-05
129	0x380adc26	3.3106793e-05
130	0x385f8cd0	5.3298485e-05
131	0x381ca737	3.734903e-05
132	0xb7abdf07	-2.0488644e-05
133	0xb877af7d	-5.9052825e-05
134	0x3845637c	4.7061112e-05
135	0x3796f96b	1.7997538e-05
136	0xb88985ac	-6.5575674e-05
137	0x358d503b	1.0528669e-06
138	0x37b18e4e	2.116631e-05
139	0xb68c0d53	-4.1738763e-06
140	0x36ef29c1	7.127616e-06
141	0xb814abde	-3.5446013e-05
142	0x381acafd	3.690551e-05
143	0x37c9c06e	2.4050674e-05
144	0x382391fd	3.899819e-05
145	0x382b7e85	4.0887408e-05
146	0x38364eb3	4.3465476e-05
147	0xb8223f33	-3.868267e-05
148	0x37d425b7	2.5289932e-05
149	0x384fa754	4.9508482e-05
150	0xb76e6829	-1.4210157e-05
151	0x37e3ca0f	2.71546e-05
152	0x380ad91e	3.310397e-05
153	0x387d821c	6.0441074e-05
154	0x36e4ee8d	6.8227005e-06
155	0xb7dc841b	-2.628756e-05
156	0xb7d6fb95	-2.562794e-05
157	0x3786adbe	1.605495e-05
158	0x3747c35f	1.1906813e-05
159	0xb6e7f684	-6.9130347e-06
160	0x37d95e8b	2.591244e-05
161	0x36931eee	4.384542e-06
162	0x3704fc69	7.926582e-06
163	0xb803f2a7	-3.145882e-05
164	0x3729a388	1.011126e-05
165	0x385abf5e	5.2153475e-05
166	0x37a37c2d	1.9488938e-05
167	0x37e0ffc2	2.6821977e-05
168	0xb880c076	-6.139364e-05
169	0x37015490	7.708688e-06
170	0x37ac8579	2.056615e-05
171	0xb8aaa4f9	-8.13696e-05
172	0x38710109	5.745984e-05
173	0x380fba34	3.4267272e-05
174	0xb8594e98	-5.1810028e-05
175	0xb629cf16	-2.5303502e-06
176	0xb777ff9d	-1.4781862e-05
177	0x38ba2db3	8.877683e-05
178	0xb7eab321	-2.7978387e-05
179	0x35eceefc	1.7652924e-06
180	0x3769c057	1.3932665e-05
181	0xb8a24bce	-7.738882e-05
182	0x3838f201	4.4094402e-05
183	0xb7552810	-1.2705117e-05
184	0xb80fade7	-3.4255816e-05
185	0x36bc4da0	5.6118733e-06
186	0xb8538f4e	-5.0439783e-05
187	0xb7eb1543	-2.8024084e-05
188	0xb7bd34fe	-2.2555232e-05
189	0x386524e9	5.463223e-05
190	0xb812ea96	-3.5027588e-05
191	0xb6f89f7a	-7.4095415e-06
192	0x37647272	1.3616505e-05
193	0x37b89bc6	2.2007047e-05
194	0xb75b7a96	-1.3081959e-05
195	0xb8824039	-6.2108455e-05
196	0xb78a5ef5	-1.64951e-05
197	0x38495e2a	4.800983e-05
198	0x381e6b93	3.777032e-05
199	0xb82043dd	-3.8210175e-05
200	0xb6e3f3c1	-6.793504e-06
201	0xb7b70860	-2.18192e-05
202	0x36e33af8	6.771992e-06
203	0xb835d399	-4.335083e-05
204	0x37f81f52	2.9578488e-05
205	0xb88166f8	-6.170379e-05
206	0xb806a6e1	-3.2103508e-05
207	0xb5ceb6ec	-1.5401433e-06
208	0x383b09ee	4.4593522e-05
209	0xb700089b	-7.631398e-06
210	0x3774587e	1.4564137e-05
211	0xb7937945	-1.7580236e-05
212	0xb827c1c8	-3.9996376e-05
213	0x37910b86	1.7290713e-05
214	0x3885ec93	6.3859996e-05
215	0x378d31c2	1.683168e-05
216	0xb6c5d3c3	-5.89571e-06
217	0xb79bef30	-1.858882e-05
218	0x371ed651	9.467433e-06
219	0x36f7843c	7.3765677e-06
220	0x380b8b7a	3.327008e-05
221	0x3855acfa	5.0944254e-05
222	0x37f0acae	2.869064e-05
223	0x37ac6a51	2.0553505e-05
224	0x35d66d9f	1.5976146e-06
225	0x36696b48	3.4782151e-06
226	0xb7e9553d	-2.7815457e-05
227	0xb6e088f7	-6.691665e-06
228	0x380d20db	3.364762e-05
229	0xb81c8313	-3.731537e-05
230	0x387811d3	5.9144408e-05
231	0xb7505f9d	-1.2420028e-05
232	0xb81c712d	-3.72987e-05
233	0x381d3668	3.7482387e-05
234	0x36a5276d	4.921973e-06
235	0x38020c5d	3.100593e-05
236	0x35f32c27	1.8117761e-06
237	0x38473420	4.7493842e-05
238	0x3675cc14	3.6626634e-06
239	0xb8438e3b	-4.6624085e-05
240	0xb69292fb	-4.36825e-06
241	0xb8a65073	-7.930482e-05
242	0x36d55c93	6.3586717e-06
243	0x386229c8	5.392151e-05
244	0x363eb137	2.841536e-06
245	0xb5b9493e	-1.380489e-06
246	0x37ec3390	2.8157403e-05
247	0xb7c305cf	-2.3248516e-05
248	0xb6d88140	-6.4523483e-06
249	0xb82dd797	-4.1447198e-05
250	0xb79e64f7	-1.8882083e-05
251	0xb7af3677	-2.0886988e-05
252	0x375ecf24	1.328046e-05
253	0xb853fc88	-5.054151e-05
254	0xb7c7d5af	-2.3822153e-05
255	0x378c062f	1.669218e-05
