true/triplet-lstm/2-classes/version_23/checkpoints/epoch=0.ckpt (torch_old, 23597 bytes, 24 tensors)

exp_avg f4 [48, 3]
000000 72 9e 3c b9 e1 f8 0b b8 76 05 2d b8 3e 1d b2 38
       -0.00017988103 -3.337197e-05 -4.12515e-05 8.493148e-05
000010 e8 c4 d4 b6 ef 46 9c b8 03 a5 a7 b8 aa 6d 11 b8
       -6.3410153e-06 -7.451872e-05 -7.9939164e-05 -3.4672827e-05
000020 19 e4 45 b7 96 4a d6 38 55 d5 27 b9 ae 56 37 b8
       -1.1795223e-05 0.00010218208 -0.00016005833 -4.3711327e-05
000030 c0 98 bb b7 60 97 79 b8 63 5b 81 b7 59 d0 54 b8
       -2.2363267e-05 -5.9507205e-05 -1.5420554e-05 -5.0738778e-05
000040 08 b4 a8 38 55 58 be 38 a4 25 cd b8 ac 55 e0 38
       8.044398e-05 9.076359e-05 -9.782173e-05 0.0001069711
000050 d9 08 8f 38 55 fc 10 38 88 8f 47 b9 96 84 d0 b8
       6.8204194e-05 3.4567278e-05 -0.00019031588 -9.942909e-05
000060 5a bd 7f 38 0c f2 cd 38 02 09 bf 38 cf ce f9 36
       6.0973085e-05 9.8202465e-05 9.1092676e-05 7.444854e-06
000070 a5 31 83 38 7a 1f b4 38 6f fd 20 b8 60 12 22 b8
       6.255814e-05 8.588932e-05 -3.8383e-05 -3.8640923e-05
000080 e8 ff d8 38 93 9f a6 b8 af c6 6c b8 74 da 3b b8
       0.00010347349 -7.94522e-05 -5.6451823e-05 -4.4787725e-05
000090 fd 56 17 b9 d1 eb 15 b8 88 8b 00 b8 a9 ca 63 38
       -0.00014432888 -3.574399e-05 -3.0647527e-05 5.430976e-05
0000a0 04 c6 00 b6 67 6a 36 b8 29 a0 3d b9 e6 df f7 37
       -1.9188747e-06 -4.3491276e-05 -0.00018084109 2.9548955e-05
0000b0 9d b6 1b 38 f5 fb 2b 39 e0 76 09 b9 31 a0 30 b8
       3.712495e-05 0.00016401692 -0.00013109623 -4.211086e-05
0000c0 22 f8 18 b9 0e b3 67 38 2d 8f 75 38 64 77 11 b8
       -0.00014588286 5.524145e-05 5.8545895e-05 -3.4681885e-05
0000d0 12 33 3d 38 69 3b 3f 38 c4 1e 16 38 91 08 ae b7
       4.5108674e-05 4.559328e-05 3.579144e-05 -2.0746405e-05
0000e0 59 2b bf b7 c8 bc 81 39 c9 ff e0 b9 15 65 d2 b9
       -2.278916e-05 0.0002474545 -0.00042915184 -0.00040129633
0000f0 f4 75 f8 38 bc fd 28 b9 81 b5 da b8 bc b1 0b b7
       0.00011847532 -0.00016116252 -0.00010428858 -8.326428e-06
000100 07 82 c3 b7 9a f5 87 37 a2 88 83 38 53 fc 9b b8
       -2.330636e-05 1.6207621e-05 6.2720166e-05 -7.437975e-05
000110 b9 0e d3 38 e3 d5 aa 36 c9 ed bf b8 fa ac 06 b8
       0.00010064006 5.0912945e-06 -9.151881e-05 -3.2109187e-05
000120 a8 c5 c8 3a ea a9 5e 39 cb 2a e5 39 5a 18 10 3a
       0.0015317695 0.00021234868 0.00043710167 0.0005496793
000130 55 09 07 b8 d1 75 8e b9 d1 38 70 ba 22 b8 f6 39
       -3.21952e-05 -0.0002717213 -0.000916374 0.00047057966
000140 e3 fa dc 39 65 fa 4e 38 25 a0 d8 b9 3c 28 b9 b9
       0.00042148595 4.9347425e-05 -0.00041318047 -0.00035315927
000150 9a b4 05 3a 89 e3 cc ba 4a 26 a2 ba 01 29 e5 38
       0.0005100459 -0.0015631776 -0.001237103 0.000109272085
000160 04 45 af 39 5a f2 c0 39 08 84 a1 b8 77 98 7b 39
       0.00033430022 0.0003680166 -7.701671e-05 0.00023994023
000170 1a 17 4e 39 f0 13 1b ba bf b0 9d 3a 65 c8 a9 3a
       0.00019654297 -0.00059157517 0.0012030824 0.0012953399
000180 ac ec 17 3a 93 91 be b9 f5 66 80 b9 4d 66 18 ba
       0.000579546 -0.00036348085 -0.00024490771 -0.0005813584
000190 cb 4e 36 3a 8c 1a 50 39 d1 8a 27 38 92 ea 8a b9
       0.000695449 0.00019846315 3.9945186e-05 -0.0002649618
0001a0 08 42 02 3a 3d 90 38 39 d6 79 4c 39 39 f7 01 b9
       0.0004968946 0.0001760134 0.00019500343 -0.00012394496
0001b0 3c 8b 04 b9 e4 7a 5c 37 a8 c4 9e 36 14 6d 24 39
       -0.0001264037 1.3141635e-05 4.7316607e-06 0.00015680894
0001c0 06 c2 bd 37 7a 0b 05 b9 25 e5 4c b9 33 9c 20 b9
       2.2620905e-05 -0.00012688144 -0.00019540319 -0.00015316978
0001d0 3c af fb b8 02 db 35 39 ab c0 1b b9 aa 8d 28 b8
       -0.000120012526 0.00017343092 -0.00014853726 -4.0186256e-05
0001e0 80 1d ef b7 a8 2a 4d 37 63 43 13 b8 e6 c8 14 b7
       -2.8504757e-05 1.2228884e-05 -3.511029e-05 -8.868263e-06
0001f0 6a 61 08 38 92 c5 29 38 af 27 4a b9 0a 18 42 39
       3.251565e-05 4.047674e-05 -0.00019279004 0.00018510237
000200 65 98 97 38 31 b4 fe 39 36 a5 cd b9 92 b7 b4 b9
       7.228627e-05 0.00048580908 -0.0003922374 -0.00034469046
000210 9a 79 7d 39 3c ee ab b8 f5 02 51 b8 4a 42 86 38
       0.0002417326 -8.19829e-05 -4.9832237e-05 6.401965e-05
000220 46 c2 6d b8 03 71 97 b6 fc 3a 12 b9 3b 0b 45 b7
       -5.6686134e-05 -4.513307e-06 -0.00013945618 -1.174473e-05
000230 ff 33 5b 39 2b b3 01 b9 d1 5d 03 b9 a3 14 65 38
       0.00020904838 -0.00012369144 -0.00012528083 5.4617074e-05

exp_avg_sq f4 [48, 3]
000000 57 b8 14 31 a4 29 bb 30 29 03 61 30 12 40 d5 30
       2.164162e-09 1.3617876e-09 8.1859014e-10 1.5516e-09
000010 6b fa 9f 30 ec c6 0d 31 ef a8 49 31 43 0f 9e 30
       1.1639946e-09 2.0631274e-09 2.9345377e-09 1.1500351e-09
000020 70 13 18 31 3f 8e 3e 31 ca 0b 5d 31 4d bf 15 31
       2.212996e-09 2.7729496e-09 3.2166434e-09 2.1791096e-09
000030 f8 7d f7 30 a2 af d9 30 7d db f3 30 3c 10 a4 30
       1.8007418e-09 1.5838746e-09 1.7742959e-09 1.1937185e-09
000040 ba 55 18 31 dc 52 fb 30 1f 9e c3 30 2f 5c af 30
       2.216764e-09 1.8286204e-09 1.4233058e-09 1.2759126e-09
000050 22 d7 f5 30 38 78 37 31 2d 9f 85 31 7d 46 42 31
       1.7887241e-09 2.6698341e-09 3.8889056e-09 2.8270783e-09
000060 db 5c 70 31 02 3b 69 31 59 ac 20 31 54 b8 8e 30
       3.4977379e-09 3.3939505e-09 2.3381033e-09 1.0384249e-09
000070 7d d1 8b 30 3a fa 8e 30 b2 36 e0 30 27 52 2e 31
       1.0173121e-09 1.0402978e-09 1.631369e-09 2.536703e-09
000080 3a 98 50 31 3b a4 4a 31 67 30 7b 30 1e 17 47 30
       3.0354514e-09 2.9488223e-09 9.138205e-10 7.242863e-10
000090 c2 5b bb 30 5b 7e 74 30 51 b8 47 30 f9 96 5e 30
       1.363212e-09 8.8946245e-10 7.265771e-10 8.0977675e-10
0000a0 94 9e 12 30 ea 25 a1 30 39 50 a8 31 e0 1f 7d 30
       5.3339844e-10 1.1725068e-09 4.8985638e-09 9.208616e-10
0000b0 a0 80 02 31 01 53 ce 30 15 0a 90 30 14 a9 b4 30
       1.8990605e-09 1.5012064e-09 1.0480244e-09 1.3144779e-09
0000c0 8d ed 72 31 37 50 be 30 a1 3d d1 30 a4 91 3b 30
       3.5350667e-09 1.3847118e-09 1.5224267e-09 6.823717e-10
0000d0 0b 44 d1 30 bd 1d 5e 30 2c f9 18 30 d5 fa 4d 30
       1.522609e-09 8.080539e-10 5.565137e-10 7.493502e-10
0000e0 e0 a1 6c 30 8e 3c ea 31 09 bb 0f 32 30 02 07 32
       8.608634e-10 6.8171806e-09 8.366222e-09 7.858532e-09
0000f0 20 2a 55 31 26 89 65 31 d3 af 0e 31 01 e6 8d 30
       3.1019525e-09 3.3401846e-09 2.0763664e-09 1.0324471e-09
000100 34 17 84 30 3b 44 40 30 37 90 91 30 35 14 14 31
       9.610859e-10 6.9946154e-10 1.0591127e-09 2.154832e-09
000110 64 b7 f6 30 d4 e1 5b 31 85 7e cf 30 67 24 e9 30
       1.7950978e-09 3.1997063e-09 1.5097191e-09 1.6963327e-09
000120 68 d3 06 34 6f ee a0 33 d8 ec 94 33 36 c5 1d 33
       1.2556632e-07 7.4939514e-08 6.934869e-08 3.6733773e-08
000130 6f fc 6b 32 0b 5a f7 32 9d 38 05 34 de d0 18 33
       1.3736197e-08 2.8795531e-08 1.2407186e-07 3.558022e-08
000140 4e f1 92 33 02 49 25 33 c2 29 e5 32 f6 d0 c3 32
       6.842548e-08 3.8483456e-08 2.6678098e-08 2.2796012e-08
000150 80 09 76 34 08 d8 52 34 d7 b5 49 34 56 c6 1a 33
       2.2913991e-07 1.9636366e-07 1.8785737e-07 3.6036305e-08
000160 21 b7 88 33 dc 5d 0e 33 dc 81 8f 32 3d 01 1d 32
       6.3663045e-08 3.3147316e-08 1.6706444e-08 9.138884e-09
000170 fa 1e 5c 32 81 47 c2 33 5f 12 10 34 7f e5 0b 34
       1.2812729e-08 9.0468355e-08 1.3417728e-07 1.3028874e-07
000180 6c 5c 5e 33 6a 81 ae 33 30 e6 f7 32 58 63 e2 33
       5.177246e-08 8.126047e-08 2.8859262e-08 1.05420156e-07
000190 ff bb 5e 34 d9 85 da 33 8f be f6 32 e4 87 8e 33
       2.0743754e-07 1.0175763e-07 2.8724825e-08 6.6371086e-08
0001a0 05 90 34 33 7b e3 e2 33 cb ce e1 32 ef 57 0f 33
       4.20405e-08 1.05653235e-07 2.6287486e-08 3.3374757e-08
0001b0 12 09 02 31 44 47 3f 31 dc e3 9e 30 f6 9f 30 31
       1.8922646e-09 2.7834668e-09 1.1560775e-09 2.5702298e-09
0001c0 99 c0 18 31 25 31 40 31 b4 38 d4 31 48 2d 9e 31
       2.222839e-09 2.7967613e-09 6.1764585e-09 4.603553e-09
0001d0 95 0e c2 31 e0 1a 9c 31 79 2f 2d 31 78 19 f6 30
       5.647801e-09 4.543253e-09 2.5201798e-09 1.7906094e-09
0001e0 05 97 8e 31 1d e1 76 31 01 6a 8a 31 27 4a ef 30
       4.149913e-09 3.5925674e-09 4.02838e-09 1.7410614e-09
0001f0 e2 ac 92 31 53 f9 40 31 32 1d 10 31 98 e5 a4 31
       4.2688137e-09 2.8081402e-09 2.0971354e-09 4.79913e-09
000200 0b 05 cc 31 d3 44 aa 32 f3 b3 36 32 6f cc 2b 32
       5.9377547e-09 1.9821902e-08 1.063471e-08 9.999993e-09
000210 aa 33 30 32 8a a4 c2 31 15 a9 29 31 2b 19 2d 31
       1.0256295e-08 5.664849e-09 2.4688849e-09 2.518912e-09
000220 8a 0c f3 30 6f 3e cb 30 41 73 35 31 3d b8 a6 31
       1.7684141e-09 1.4787939e-09 2.640448e-09 4.8521813e-09
000230 78 70 93 31 18 df 50 32 a9 8b 09 32 f6 bf c0 31
       4.2910493e-09 1.2157919e-08 8.006205e-09 5.609759e-09

exp_avg f4 [48, 12]
000000 0a 72 06 36 07 b6 e1 36 bb ba 8b b7 84 4b 61 36
       2.0033935e-06 6.7267133e-06 -1.6657044e-05 3.3571569e-06
000010 04 2d 1d 38 fa 94 8d 34 f6 18 75 b7 83 f5 15 37
       3.747364e-05 2.637169e-07 -1.460895e-05 8.938255e-06
000020 40 76 95 b5 3a f3 04 37 67 a8 0d 37 6f 4c d0 b6
       -1.113578e-06 7.924444e-06 8.443464e-06 -6.207781e-06
000030 81 bc 2a 35 35 4f a9 36 74 78 09 b7 70 47 54 37
       6.3604244e-07 5.0458134e-06 -8.1938815e-06 1.26528175e-05
000040 33 61 12 37 30 4e b6 b5 3b fe 39 b7 83 43 6c b7
       8.724909e-06 -1.3582812e-06 -1.1086052e-05 -1.4082415e-05
000050 ce bf 3b 37 46 eb 4f b6 b4 e7 c6 b6 b5 06 c4 b6
       1.1190727e-05 -3.098235e-06 -5.9278336e-06 -5.842036e-06
000060 95 91 a1 35 fe 2e a9 b5 1e ab 37 37 f8 b9 1c b7
       1.2037805e-06 -1.2605158e-06 1.0947491e-05 -9.341624e-06
000070 ca cc 3c b7 30 34 e0 b5 2f 0c 3a 37 61 2c d9 36
       -1.1253354e-05 -1.6704489e-06 1.1089301e-05 6.4722703e-06
000080 1a 65 6f b6 4f af 77 b6 81 2d 93 36 00 aa 39 36
       -3.5672624e-06 -3.6907911e-06 4.3862387e-06 2.7666101e-06
000090 9a 94 b8 b7 37 bb d1 37 63 cc 30 37 76 60 f6 37
       -2.2003707e-05 2.500192e-05 1.0538005e-05 2.9370403e-05
0000a0 51 26 0f 37 1f 63 5f 37 c5 47 03 37 29 11 8a b8
       8.532385e-06 1.3314914e-05 7.824919e-06 -6.583549e-05
0000b0 69 3a 05 38 30 80 08 b7 df 3a 43 37 52 39 0a b8
       3.176407e-05 -8.136078e-06 1.1636613e-05 -3.2955148e-05
0000c0 89 f5 6a b7 30 f4 b4 37 ca 46 7a 37 89 4b 55 37
       -1.4004655e-05 2.157138e-05 1.4917643e-05 1.2713376e-05
0000d0 3c 8b 2a 37 fb 20 3f 37 91 2a d8 36 a0 61 3a b8
       1.0165208e-05 1.1392166e-05 6.442257e-06 -4.4436776e-05
0000e0 5a 1f e9 37 01 81 36 b6 de f1 63 37 08 dc fb b7
       2.7790364e-05 -2.7195204e-06 1.35865685e-05 -3.0023992e-05
0000f0 85 c2 17 b6 38 d0 f2 b5 11 2e 41 37 e8 2e 2b b7
       -2.2613979e-06 -1.8091005e-06 1.1514422e-05 -1.02033155e-05
000100 ca a4 ab b6 fa 5e 11 37 05 3f 37 37 85 13 a6 36
       -5.115381e-06 8.664787e-06 1.0922323e-05 4.949458e-06
000110 2d ea cd 35 f9 d2 30 37 35 a5 6c 36 15 a9 c8 b4
       1.5341844e-06 1.0539538e-05 3.5262904e-06 -3.7375926e-07
000120 b7 26 c8 b5 76 9d 48 36 2a e9 88 36 7a 72 44 36
       -1.4912429e-06 2.9893977e-06 4.0802597e-06 2.927291e-06
000130 08 e8 12 b6 f7 bf 39 b5 2a cd 4e b6 76 5d 0e b7
       -2.1890755e-06 -6.9197216e-07 -3.0815813e-06 -8.48562e-06
000140 e3 b8 e7 36 84 67 bb b5 d6 10 f1 b5 ae a5 a4 b6
       6.90586e-06 -1.3962713e-06 -1.7960799e-06 -4.9068685e-06
000150 03 91 4f b7 32 91 0f 38 44 88 2b b7 cb 52 13 38
       -1.2371925e-05 3.422908e-05 -1.0224121e-05 3.5124638e-05
000160 49 1a 61 38 e9 75 bb 36 8a 4b a9 b7 9c 27 86 b8
       5.366866e-05 5.586761e-06 -2.0181546e-05 -6.396996e-05
000170 a4 e1 2d 38 ca 58 81 b7 2c 69 8f 37 d9 62 39 b8
       4.145656e-05 -1.5419344e-05 1.7095903e-05 -4.4199496e-05
000180 c1 f9 27 b6 f7 47 75 37 ac 95 e4 35 0b 0b 2c 37
       -2.5030315e-06 1.4619894e-05 1.7030884e-06 1.025457e-05
000190 aa 34 d6 37 3e 76 ba 36 3c 9d 25 b6 a6 e4 a5 b7
       2.5535312e-05 5.556997e-06 -2.4678438e-06 -1.9776006e-05
0001a0 b7 35 60 37 6d 02 db b6 d7 a1 71 37 4d e5 b2 b7
       1.3363947e-05 -6.526991e-06 1.4402401e-05 -2.132603e-05
0001b0 3e 8a 7d b6 94 b9 f0 36 64 f6 b3 b6 0a bb 8e 36
       -3.7780405e-06 7.1741615e-06 -5.3632994e-06 4.253704e-06
0001c0 32 4e 82 37 a9 4f a2 36 fc 39 f7 b6 9d 66 e5 b6
       1.553362e-05 4.83725e-06 -7.367924e-06 -6.8366776e-06
0001d0 9f 15 e1 35 fb d2 b3 36 86 f3 78 36 b4 e4 1f b7
       1.6770099e-06 5.359177e-06 3.709663e-06 -9.530388e-06
0001e0 4e 71 b6 b6 90 c9 c7 b6 3c cb 05 b7 32 03 93 37
       -5.437213e-06 -5.954127e-06 -7.974737e-06 1.7525253e-05
0001f0 06 04 e8 b7 a2 40 bb b6 3e 38 c9 b6 0f 80 a2 b7
       -2.7658429e-05 -5.5805585e-06 -5.9968143e-06 -1.9371537e-05
000200 9f 82 35 36 5b 20 c1 b6 d6 e6 c1 b7 ba 72 49 37
       2.7047133e-06 -5.755615e-06 -2.3114884e-05 1.20072455e-05
000210 27 ab a6 35 3c 88 a9 36 21 37 06 b7 f4 be cc 36
       1.2417776e-06 5.0524523e-06 -7.999858e-06 6.1019036e-06
000220 dd 78 a9 37 d0 18 28 b5 8c d9 f4 b6 05 f3 19 b6
       2.0202651e-05 -6.2620984e-07 -7.2970925e-06 -2.2940233e-06
000230 34 bb b4 b5 97 2a c4 b6 fc a2 c4 36 4d 72 07 b7
       -1.3465528e-06 -5.8462133e-06 5.860229e-06 -8.07324e-06
000240 df c8 f5 35 1c 22 0b 37 92 4b 6d b7 58 df 4f 36
       1.8312384e-06 8.292987e-06 -1.4143896e-05 3.0975407e-06
000250 fd 90 22 38 3b 30 87 35 bb 52 68 b7 2e 69 cd 36
       3.875884e-05 1.0072321e-06 -1.384754e-05 6.1217206e-06
000260 aa bc 37 36 b6 6f f6 36 a2 14 2e 37 bc 05 1e b7
       2.7378942e-06 7.344376e-06 1.0376012e-05 -9.418869e-06
000270 b2 b5 a4 b5 be 27 9e 36 b8 d4 cf 34 65 08 70 36
       -1.2271832e-06 4.7133935e-06 3.8711528e-07 3.5767673e-06
000280 10 a4 ad 36 bd 66 5b 36 0b 8d cc b5 a1 8a 20 b7
       5.174901e-06 3.2693345e-06 -1.5240233e-06 -9.56902e-06
000290 11 46 fa 36 c0 51 8b 34 b5 0b b9 34 41 67 cb b6
       7.4587374e-06 2.5950249e-07 3.4467453e-07 -6.061892e-06
0002a0 e5 f1 c8 b6 2d d0 8e 36 49 b2 e9 37 3b 70 8c b7
       -5.9886247e-06 4.2561646e-06 2.7858785e-05 -1.6741562e-05
0002b0 b9 e0 67 b7 0a 11 12 37 92 44 dd 37 08 53 51 b6
       -1.3820995e-05 8.706245e-06 2.6377184e-05 -3.1191757e-06
0002c0 f7 5a 04 36 44 2f 15 b5 ab 33 8c 37 8d a5 02 b7
       1.9722481e-06 -5.5575606e-07 1.671336e-05 -7.787149e-06
0002d0 b3 0c 87 b7 a0 aa 7c 37 42 a7 ab 37 8c 85 58 37
       -1.6099168e-05 1.5060097e-05 2.0462674e-05 1.2905697e-05
0002e0 f8 fa 0a b7 9d 97 79 37 b8 9c b5 37 98 3e 2d b8
       -8.283874e-06 1.4876857e-05 2.164986e-05 -4.130471e-05
0002f0 49 12 bc 37 06 0e f9 35 88 02 23 37 61 ff 94 b7
       2.2419861e-05 1.8556027e-06 9.716146e-06 -1.7761895e-05
000300 6b 1f 2f b6 02 7b 50 36 38 36 cd 35 e3 2e 13 b7
       -2.609532e-06 3.1066015e-06 1.528947e-06 -8.772799e-06
000310 0b c4 c3 36 b3 b4 ec 36 1b 8e 1e 37 64 f6 0f 37
       5.8342753e-06 7.0543842e-06 9.45062e-06 8.5808315e-06
000320 ce 46 2b b7 41 45 04 37 4a 64 16 37 be f7 e6 35
       -1.020888e-05 7.8839375e-06 8.964047e-06 1.7208438e-06
000330 63 3a 2f b6 41 58 2e b6 e7 33 44 37 54 a1 20 b7
       -2.6111018e-06 -2.597939e-06 1.1694595e-05 -9.574305e-06
000340 78 18 d7 b6 db a2 15 37 0e 2b 50 37 4f 9d 91 36
       -6.410348e-06 8.91901e-06 1.2407791e-05 4.33965e-06
000350 1e a9 e2 35 45 91 26 37 6a fd 5e 36 2b 4c e0 34
       1.6887532e-06 9.928194e-06 3.3228084e-06 4.177867e-07
000360 3c c5 54 b6 73 b2 24 36 34 57 26 37 92 b3 1f 36
       -3.1705267e-06 2.4541775e-06 9.914675e-06 2.379737e-06
000370 55 65 63 b7 dc 07 69 b5 63 71 25 36 f1 1a 87 b7
       -1.3553848e-05 -8.68107e-07 2.4652916e-06 -1.61058e-05
000380 e0 ad 2a 37 b3 ec e0 b6 64 9e 9e b6 89 01 3d b6
       1.0173273e-05 -6.7032756e-06 -4.727206e-06 -2.8164088e-06
000390 19 76 28 b7 08 e8 0f 38 01 54 91 b7 a2 c3 24 38
       -1.0041077e-05 3.4309953e-05 -1.7324464e-05 3.9282844e-05
0003a0 7c 89 5c 38 22 a5 28 36 3d 99 bf b7 ab b0 84 b8
       5.258013e-05 2.513007e-06 -2.2840331e-05 -6.3271575e-05
0003b0 be 3c 39 38 e6 25 18 b7 74 4c 4b 37 fa 12 1b b8
       4.4164008e-05 -9.06873e-06 1.21175435e-05 -3.6972553e-05
0003c0 70 68 0b 36 d4 32 84 36 d8 04 49 b7 6b 56 29 37
       2.0773405e-06 3.9398237e-06 -1.1981661e-05 1.0093306e-05
0003d0 34 1c b4 36 fe 6e 9b b6 ba e7 0f b7 b0 86 da b6
       5.3677013e-06 -4.632281e-06 -8.577417e-06 -6.512586e-06
0003e0 80 b2 97 b5 60 e1 e2 b6 8a 19 38 b6 cc b8 c2 35
       -1.1302327e-06 -6.761562e-06 -2.7433002e-06 1.4507909e-06
0003f0 09 44 83 b6 63 5d 11 b6 3b 8a 21 37 f0 41 0d b7
       -3.9120246e-06 -2.1661042e-06 9.628532e-06 -8.419607e-06

exp_avg_sq f4 [48, 12]
000000 2d 1d 8c 2c 29 6a df 2c 20 89 8c 2d e3 58 f6 2d
       3.9822785e-12 6.3498273e-12 1.5977053e-11 2.8006436e-11
000010 03 b2 84 2e 43 6f c6 2c 1b 0b 64 2d f3 d2 aa 2e
       6.034286e-11 5.639851e-12 1.2962765e-11 7.768177e-11
000020 39 9d 2c 2e 09 b5 01 2e e3 22 f7 2c 97 b3 59 2d
       3.9247914e-11 2.9491996e-11 7.0240354e-12 1.2374899e-11
000030 b7 88 ac 2c 6f 88 52 2d 0d b3 b6 2d c8 97 fe 2d
       4.9037124e-12 1.1967412e-11 2.0770519e-11 2.8943861e-11
000040 a3 53 52 2e 87 d5 b6 2c 68 6e cd 2d 55 0b 98 2e
       4.7822756e-11 5.1964574e-12 2.3354832e-11 6.914173e-11
000050 aa a1 1d 2e 94 d0 a4 2d ae 8a 2e 2d a3 d7 b7 2d
       3.5841254e-11 1.8737269e-11 9.921548e-12 2.0900453e-11
000060 40 dd f6 2b 4e 58 9c 2c 52 6b a1 2d 48 2b 9f 2d
       1.754076e-12 4.4435905e-12 1.835124e-11 1.8095428e-11
000070 60 98 48 2e 1f 14 0c 2d de d3 86 2d a3 5c 15 2e
       4.561007e-11 7.962546e-12 1.5328124e-11 3.3960956e-11
000080 97 fe c4 2d f5 a0 11 2e 50 fc 4a 2d b2 09 7e 2d
       2.239568e-11 3.311214e-11 1.1538395e-11 1.4440381e-11
000090 51 ae ad 2d 01 45 1b 2e 68 a9 3a 2e b9 e4 60 2e
       1.9745235e-11 3.5304207e-11 4.2441967e-11 5.113485e-11
0000a0 bc f8 77 2d d7 e9 85 2d aa a4 06 2e 43 51 86 2f
       1.4095555e-11 1.5224195e-11 3.0614324e-11 2.4432198e-10
0000b0 bf bc de 2e af 1d bd 2d bd f8 07 2e dd 3f a4 2e
       1.0128919e-10 2.1499994e-11 3.091637e-11 7.469201e-11
0000c0 31 9e 08 2d 10 c9 a4 2d df a1 dc 2d 16 e3 bb 2d
       7.7658305e-12 1.8733931e-11 2.508299e-11 2.1360285e-11
0000d0 88 3a cc 2d d7 5b 06 2d 8d 50 be 2d 7c b4 e3 2e
       2.3218108e-11 7.637411e-12 2.1636271e-11 1.0354825e-10
0000e0 1b 0c 4c 2e b3 a9 5d 2d 47 cb 5a 2d 4d 52 28 2e
       4.639498e-11 1.2600076e-11 1.2437002e-11 3.8271875e-11
0000f0 42 35 7f 2c ea a6 1d 2c b7 24 93 2d 73 06 c8 2d
       3.6267244e-12 2.2403698e-12 1.672827e-11 2.2740232e-11
000100 14 30 a4 2d 5a d7 22 2d bb 86 a2 2d 8f 61 01 2e
       1.8665992e-11 9.2564515e-12 1.84771e-11 2.9417854e-11
000110 5d 5f 6f 2d 53 3b a8 2d 61 06 b8 2c 23 f1 b0 2c
       1.3606752e-11 1.9125734e-11 5.2303027e-12 5.0289924e-12
000120 04 a2 76 2c 6e 15 35 2d a0 75 e2 2d e9 a1 db 2d
       3.504864e-12 1.0293417e-11 2.5745461e-11 2.496932e-11
000130 8b 6b d2 2e 27 66 05 2d 42 56 b0 2d 7e e4 81 2e
       9.568798e-11 7.582857e-12 2.004719e-11 5.906829e-11
000140 d8 3f 2a 2e ce 9a d4 2d e1 32 8a 2d 28 f9 d2 2d
       3.871023e-11 2.4170357e-11 1.5711378e-11 2.3984884e-11
000150 73 4b 8a 2d be b3 40 2e dc cf fb 2d 79 ef aa 2e
       1.572229e-11 4.381539e-11 2.8627704e-11 7.773244e-11
000160 c9 7e 28 2f 4b 77 5d 2d 49 52 2e 2e 89 19 65 2f
       1.5324554e-10 1.2588884e-11 3.9636103e-11 2.08365e-10
000170 c0 ff c1 2e cc e1 ff 2d 27 a5 18 2e 6b 0c b3 2e
       8.822054e-11 2.9090418e-11 3.4707483e-11 8.1421835e-11
000180 ff 31 6a 2d b3 c8 d1 2d de a5 07 2e f6 0f 82 2e
       1.3312461e-11 2.3849677e-11 3.0842766e-11 5.914551e-11
000190 37 86 a6 2e 67 50 15 2d fe 3d 05 2e 00 5d 36 2f
       7.5726474e-11 8.487522e-12 3.029576e-11 1.6585844e-10
0001a0 2e c0 8d 2e dd 3d e5 2d f3 0b 98 2d 34 e7 41 2e
       6.4460756e-11 2.6061759e-11 1.7285706e-11 4.408847e-11
0001b0 17 b1 88 2c 55 97 f7 2c 4d a4 84 2d bf a5 1a 2d
       3.8850134e-12 7.0369635e-12 1.5079627e-11 8.7906895e-12
0001c0 43 b5 da 2d 39 60 03 2d 9d 01 93 2d db 7c b6 2d
       2.4864227e-11 7.467854e-12 1.6712682e-11 2.0746451e-11
0001d0 0a 34 72 2d a0 f4 c4 2c 08 5d 56 2d a2 aa 95 2d
       1.3767662e-11 5.597814e-12 1.2185149e-11 1.7015115e-11
0001e0 48 d1 68 2c b2 a0 45 2d e3 3f 24 2e 64 47 8e 2e
       3.3085357e-12 1.1233835e-11 3.7346026e-11 6.470094e-11
0001f0 4b eb 9c 2e b6 99 27 2d d1 61 25 2e e9 ec d8 2e
       7.135855e-11 9.526982e-12 3.7603535e-11 9.8646265e-11
000200 58 e7 46 2e eb b9 be 2d d0 91 fc 2d db 1f f0 2d
       4.5225462e-11 2.1683063e-11 2.8713837e-11 2.7298988e-11
000210 54 4b 72 2c 33 61 e5 2c f6 2e b3 2d 1a 5f b8 2d
       3.4432084e-12 6.5193627e-12 2.0370799e-11 2.0960612e-11
000220 3b 1d 8e 2e a1 17 1c 2d a7 d8 eb 2d 39 58 bf 2d
       6.462605e-11 8.87282e-12 2.681262e-11 2.1753365e-11
000230 e5 b0 87 2d c6 97 c1 2d 53 87 b4 2d 77 24 8d 2d
       1.542628e-11 2.200896e-11 2.0523727e-11 1.6046038e-11
000240 ee e8 73 2c 68 b6 d2 2c 32 54 32 2d f4 9c f1 2d
       3.4661679e-12 5.98881e-12 1.0136824e-11 2.7468229e-11
000250 92 45 6f 2e c1 4e d7 2c 60 8c 6b 2d 46 ce 72 2e
       5.44041e-11 6.119411e-12 1.3389373e-11 5.5207637e-11
000260 03 55 f3 2d 72 54 cf 2d c7 89 00 2d 82 68 11 2d
       2.7663654e-11 2.3570677e-11 7.30655e-12 8.265501e-12
000270 6a 8b 8b 2c 9d e2 26 2d 20 47 86 2c ee 02 84 2d
       3.9660957e-12 9.486326e-12 3.8164055e-12 1.5007964e-11
000280 89 e8 cd 2d a1 13 0e 2d 04 88 dc 2c 47 ad 43 2e
       2.3409068e-11 8.076124e-12 6.267877e-12 4.4491768e-11
000290 ea 22 c8 2d ae 3c 84 2d ff 5a 36 2d 82 21 a3 2d
       2.2752873e-11 1.503361e-11 1.0365707e-11 1.8545835e-11
0002a0 7b 1c b9 2c 10 bb 3f 2c e5 68 43 2e 13 a5 b9 2d
       5.261178e-12 2.7246573e-12 4.4431032e-11 2.1105373e-11
0002b0 01 61 4b 2e 4e 4f ba 2c 59 67 1a 2e f6 51 65 2e
       4.6243013e-11 5.2952425e-12 3.5107337e-11 5.2141368e-11
0002c0 bc fa a0 2d 03 46 bf 2d 64 fe 74 2d f8 09 41 2d
       1.8301242e-11 2.1745277e-11 1.392628e-11 1.0972993e-11
0002d0 85 0f 7f 2d 8b bf a7 2d 9a 46 9e 2e 85 d1 43 2e
       1.4498518e-11 1.9070764e-11 7.1975495e-11 4.4523957e-11
0002e0 99 7e d8 2d 63 04 fb 2d f2 20 c9 2e eb 2d 03 2f
       2.4612578e-11 2.8537344e-11 9.146274e-11 1.1930694e-10
0002f0 87 7a 41 2e ca 2a c7 2d ba 67 21 2e e6 4e 30 2e
       4.3991946e-11 2.2642683e-11 3.669929e-11 4.0087843e-11
000300 53 d1 21 2d 2f 44 98 2d 73 97 80 2e d9 38 d7 2d
       9.19827e-12 1.7310679e-11 5.847669e-11 2.4467916e-11
000310 dc c8 b2 2e 91 1f 7f 2d 74 0b 53 2e dc d3 d6 2e
       8.1301826e-11 1.4502081e-11 4.7986018e-11 9.769227e-11
000320 60 2f 43 2e 1e 29 fa 2d c6 7a 03 2e 8e 0f 2c 2e
       4.4379944e-11 2.8439969e-11 2.9894996e-11 3.9122088e-11
000330 47 5d 9b 2c b5 35 72 2c 0e d7 74 2d 03 60 99 2d
       4.415721e-12 3.4420082e-12 1.3917546e-11 1.7436724e-11
000340 9e ff 89 2d 66 a6 4d 2d d3 89 8c 2d d4 2d b9 2d
       1.5688614e-11 1.1689849e-11 1.5977364e-11 2.1052417e-11
000350 47 9e 2d 2d 2a 2f 87 2d 17 c7 06 2d 12 5a e6 2c
       9.869056e-12 1.5368668e-11 7.661225e-12 6.546993e-12
000360 de bd ba 2c 1f ba 86 2b 25 4f 46 2e dd 67 9b 2d
       5.3075174e-12 9.572932e-13 4.5090282e-11 1.7667584e-11
000370 73 b2 72 2e 4b 6c 00 2d cd 3b 3c 2e 52 5a 42 2e
       5.5182924e-11 7.3000035e-12 4.2799365e-11 4.4190714e-11
000380 d2 07 a8 2d 02 43 b5 2d 5d 7d df 2c 2a a0 ce 2c
       1.9102862e-11 2.0607075e-11 6.3519593e-12 5.872654e-12
000390 c5 fd 38 2e 77 59 b8 2e 82 bd 79 2e da b8 34 2f
       4.206215e-11 8.3832434e-11 5.6784362e-11 1.6436577e-10
0003a0 96 ec 1e 2f ae 08 95 2d c6 e6 35 2e 4f ec 1e 30
       1.4454068e-10 1.6943193e-11 4.1359603e-11 5.781588e-10
0003b0 8d 29 6b 2f 19 e7 5b 2e cc aa 40 2e 77 0b 35 2f
       2.1387887e-10 5.000009e-11 4.3807444e-11 1.6465927e-10
0003c0 3f c0 c6 2d 74 17 42 2e 7f d0 5e 2e 66 ce ad 2e
       2.2595368e-11 4.4131324e-11 5.0662138e-11 7.903793e-11
0003d0 78 bd 16 2e 9d d9 43 2d a0 9f c9 2d ac 3e c3 2f
       3.4274333e-11 1.11327865e-11 2.2921942e-11 3.5514824e-10
0003e0 ff 29 24 2f 20 87 16 2e b8 14 c9 2d 49 9f d1 2e
       1.4930633e-10 3.4226066e-11 2.2860255e-11 9.5325144e-11
0003f0 03 37 0b 2d 51 39 08 2d 32 28 15 2e 2e 4b 8c 2d
       7.91345e-12 7.743432e-12 3.3914378e-11 1.5949544e-11

exp_avg f4 [48]
000000 62 c2 e1 b7 d1 93 de b4 f9 b9 4d 37 9b 70 30 39
       -2.6912607e-05 -4.1458273e-07 1.2262252e-05 0.00016826617
000010 49 09 1f 39 52 18 05 38 90 75 ad 37 99 a6 0b 39
       0.0001516688 3.173232e-05 2.0677951e-05 0.00013318135
000020 96 bc 99 38 a2 4b f3 37 e3 77 ee b7 65 49 94 b5
       7.3307354e-05 2.9003077e-05 -2.8427638e-05 -1.104822e-06
000030 3b bd 37 b7 0b 98 cb 37 31 3b c8 38 dd e5 0e 39
       -1.0951709e-05 2.4270286e-05 9.5477684e-05 0.00013627806
000040 90 37 59 37 aa b1 02 38 a1 ad 14 38 c7 47 c6 38
       1.2947145e-05 3.1159878e-05 3.5447654e-05 9.454745e-05
000050 8f 2a df b7 f7 be 06 38 54 4b 14 b9 04 94 2f 38
       -2.660349e-05 3.212594e-05 -0.00014142442 4.18611e-05
000060 90 ad ae b9 41 ba f9 36 51 ef 50 38 0c db 06 38
       -0.0003331718 7.442461e-06 4.9813945e-05 3.2152093e-05
000070 aa de 8d b8 0a e5 00 b8 ff 69 4f b8 ba 35 eb 39
       -6.764878e-05 -3.0730887e-05 -4.9451362e-05 0.00044862722
000080 bb 99 82 b9 d1 70 89 b8 73 f1 4a 38 7c fe 36 38
       -0.0002491007 -6.553683e-05 4.838542e-05 4.362919e-05
000090 27 b9 0a b8 8a 10 d2 b7 a0 4a a0 b7 6b 1e 3a 39
       -3.30742e-05 -2.5041652e-05 -1.9108236e-05 0.00017749674
0000a0 ea 05 5b 39 fa 8a a2 37 4c d5 c5 36 ba e7 7f 39
       0.0002088767 1.9376621e-05 5.8958885e-06 0.0002440502
0000b0 90 98 da 38 7a 63 03 38 a3 c7 b3 b7 90 52 22 36
       0.00010423467 3.132548e-05 -2.1431426e-05 2.4187939e-06

exp_avg_sq f4 [48]
000000 f3 bf 8a 2f fc bd c6 2f f5 33 5c 2f 7a a8 0c 31
       2.5238442e-10 3.6150982e-10 2.0027342e-10 2.046845e-09
000010 be 0c 87 30 67 23 84 2f ee 5a cc 2f 06 b3 99 30
       9.826164e-10 2.4035815e-10 3.7171993e-10 1.1183097e-09
000020 c1 58 46 30 22 fd db 2f 9a 80 00 30 57 5a 6e 2f
       7.215811e-10 4.001573e-10 4.674888e-10 2.1678069e-10
000030 40 e5 f2 2e dd e5 9e 2f 55 c6 20 30 a0 7e f5 30
       1.1045609e-10 2.890336e-10 5.848951e-10 1.7862085e-09
000040 a2 43 b4 30 c6 c5 a5 2f 91 e6 1b 30 a3 5c 51 31
       1.3115946e-09 3.0153852e-10 5.6716326e-10 3.046616e-09
000050 54 9c 16 31 18 03 80 30 0e f6 62 30 c7 46 06 30
       2.1916735e-09 9.314105e-10 8.2567986e-10 4.8849497e-10
000060 d7 ef c5 31 e0 4f 25 31 6d 8d a7 31 57 af 67 31
       5.7607212e-09 2.4056064e-09 4.876418e-09 3.3714593e-09
000070 4e 6e 1f 32 89 c8 71 31 fa 22 d9 30 68 5c 96 32
       9.2800985e-09 3.5184107e-09 1.5798769e-09 1.750432e-08
000080 2b 8e 5c 32 3f 0d 16 32 1d 19 8e 30 ad f0 2a 31
       1.2838011e-08 8.734161e-09 1.0338997e-09 2.4875064e-09
000090 cd 18 23 2f 12 aa 37 2f 36 9d d7 2f d6 17 08 31
       1.4833575e-10 1.6704174e-10 3.9219977e-10 1.9804154e-09
0000a0 99 0d e8 30 5c 34 1f 2f 1d 68 3b 30 84 0b 48 31
       1.6884086e-09 1.4479568e-10 6.817816e-10 2.9110376e-09
0000b0 34 36 da 30 b4 cb 14 30 1d 2c dc 2f 9e 11 ce 2f
       1.5876993e-09 5.4131566e-10 4.004911e-10 3.74837e-10

exp_avg f4 [48]
000000 62 c2 e1 b7 d1 93 de b4 f9 b9 4d 37 9b 70 30 39
       -2.6912607e-05 -4.1458273e-07 1.2262252e-05 0.00016826617
000010 49 09 1f 39 52 18 05 38 90 75 ad 37 99 a6 0b 39
       0.0001516688 3.173232e-05 2.0677951e-05 0.00013318135
000020 96 bc 99 38 a2 4b f3 37 e3 77 ee b7 65 49 94 b5
       7.3307354e-05 2.9003077e-05 -2.8427638e-05 -1.104822e-06
000030 3b bd 37 b7 0b 98 cb 37 31 3b c8 38 dd e5 0e 39
       -1.0951709e-05 2.4270286e-05 9.5477684e-05 0.00013627806
000040 90 37 59 37 aa b1 02 38 a1 ad 14 38 c7 47 c6 38
       1.2947145e-05 3.1159878e-05 3.5447654e-05 9.454745e-05
000050 8f 2a df b7 f7 be 06 38 54 4b 14 b9 04 94 2f 38
       -2.660349e-05 3.212594e-05 -0.00014142442 4.18611e-05
000060 90 ad ae b9 41 ba f9 36 51 ef 50 38 0c db 06 38
       -0.0003331718 7.442461e-06 4.9813945e-05 3.2152093e-05
000070 aa de 8d b8 0a e5 00 b8 ff 69 4f b8 ba 35 eb 39
       -6.764878e-05 -3.0730887e-05 -4.9451362e-05 0.00044862722
000080 bb 99 82 b9 d1 70 89 b8 73 f1 4a 38 7c fe 36 38
       -0.0002491007 -6.553683e-05 4.838542e-05 4.362919e-05
000090 27 b9 0a b8 8a 10 d2 b7 a0 4a a0 b7 6b 1e 3a 39
       -3.30742e-05 -2.5041652e-05 -1.9108236e-05 0.00017749674
0000a0 ea 05 5b 39 fa 8a a2 37 4c d5 c5 36 ba e7 7f 39
       0.0002088767 1.9376621e-05 5.8958885e-06 0.0002440502
0000b0 90 98 da 38 7a 63 03 38 a3 c7 b3 b7 90 52 22 36
       0.00010423467 3.132548e-05 -2.1431426e-05 2.4187939e-06

exp_avg_sq f4 [48]
000000 f3 bf 8a 2f fc bd c6 2f f5 33 5c 2f 7a a8 0c 31
       2.5238442e-10 3.6150982e-10 2.0027342e-10 2.046845e-09
000010 be 0c 87 30 67 23 84 2f ee 5a cc 2f 06 b3 99 30
       9.826164e-10 2.4035815e-10 3.7171993e-10 1.1183097e-09
000020 c1 58 46 30 22 fd db 2f 9a 80 00 30 57 5a 6e 2f
       7.215811e-10 4.001573e-10 4.674888e-10 2.1678069e-10
000030 40 e5 f2 2e dd e5 9e 2f 55 c6 20 30 a0 7e f5 30
       1.1045609e-10 2.890336e-10 5.848951e-10 1.7862085e-09
000040 a2 43 b4 30 c6 c5 a5 2f 91 e6 1b 30 a3 5c 51 31
       1.3115946e-09 3.0153852e-10 5.6716326e-10 3.046616e-09
000050 54 9c 16 31 18 03 80 30 0e f6 62 30 c7 46 06 30
       2.1916735e-09 9.314105e-10 8.2567986e-10 4.8849497e-10
000060 d7 ef c5 31 e0 4f 25 31 6d 8d a7 31 57 af 67 31
       5.7607212e-09 2.4056064e-09 4.876418e-09 3.3714593e-09
000070 4e 6e 1f 32 89 c8 71 31 fa 22 d9 30 68 5c 96 32
       9.2800985e-09 3.5184107e-09 1.5798769e-09 1.750432e-08
000080 2b 8e 5c 32 3f 0d 16 32 1d 19 8e 30 ad f0 2a 31
       1.2838011e-08 8.734161e-09 1.0338997e-09 2.4875064e-09
000090 cd 18 23 2f 12 aa 37 2f 36 9d d7 2f d6 17 08 31
       1.4833575e-10 1.6704174e-10 3.9219977e-10 1.9804154e-09
0000a0 99 0d e8 30 5c 34 1f 2f 1d 68 3b 30 84 0b 48 31
       1.6884086e-09 1.4479568e-10 6.817816e-10 2.9110376e-09
0000b0 34 36 da 30 b4 cb 14 30 1d 2c dc 2f 9e 11 ce 2f
       1.5876993e-09 5.4131566e-10 4.004911e-10 3.74837e-10

exp_avg f4 [48, 3]
000000 05 02 97 b8 e8 19 63 38 7b 0c 1e 37 0d ec 05 b9
       -7.200617e-05 5.4145145e-05 9.42044e-06 -0.00012771804
000010 0d 08 bf b6 07 89 87 37 97 8f 7e b9 37 e2 9b 38
       -5.693181e-06 1.6157062e-05 -0.00024276819 7.433112e-05
000020 e4 a2 c4 38 e0 e2 23 b9 dc 55 9c 38 cf 1d 77 37
       9.376349e-05 -0.00015629409 7.454652e-05 1.4729288e-05
000030 fd db 9b b9 f7 71 cc 38 65 25 35 39 ab 77 1a 38
       -0.00029727808 9.7487056e-05 0.00017275436 3.682791e-05
000040 39 8a 55 b9 31 68 49 b9 31 9f ac b8 eb 3f a5 b8
       -0.00020364755 -0.00019207668 -8.231251e-05 -7.879719e-05
000050 41 ee 13 b9 b5 e3 7d 38 01 17 94 b8 ed e7 0c b9
       -0.00014107769 6.053197e-05 -7.061475e-05 -0.0001343784
000060 ae d5 28 b8 3e 78 92 b6 3f 02 96 38 be 64 ed b7
       -4.0253326e-05 -4.365137e-06 7.152976e-05 -2.8299513e-05
000070 bd 7b b0 b8 5c 2b e0 b7 5d 21 e4 38 04 0b 99 b9
       -8.415382e-05 -2.6723072e-05 0.000108781016 -0.0002919064
000080 11 fc 31 b9 a0 54 39 38 cc 7b 9a 38 22 20 40 39
       -0.00016973937 4.418625e-05 7.366351e-05 0.00018322517
000090 aa f7 86 b8 89 e6 10 39 85 01 11 39 31 0d 83 b8
       -6.435749e-05 0.00013818791 0.00013828844 -6.249024e-05
0000a0 a5 c5 b1 b8 98 c2 44 b9 69 26 d9 b9 fb 97 08 39
       -8.476832e-05 -0.00018764508 -0.00041418083 0.00013026588
0000b0 11 43 1b 39 34 ad ac b8 e0 86 89 37 8f 27 ef b7
       0.00014806936 -8.233861e-05 1.6394479e-05 -2.8509441e-05
0000c0 41 78 61 b9 32 45 73 b8 67 c1 db b8 15 ec a3 38
       -0.0002150247 -5.8000158e-05 -0.00010478758 7.8164194e-05
0000d0 54 4c 5d b9 b2 73 50 b9 f3 bb 94 37 d6 42 60 b8
       -0.00021104637 -0.00019879526 1.7730496e-05 -5.3468008e-05
0000e0 90 75 9e b8 6a 7f 5a 38 03 c5 63 b8 31 28 33 b9
       -7.555925e-05 5.2093914e-05 -5.43045e-05 -0.00017085743
0000f0 7c 1c 05 38 55 d8 60 38 98 98 b3 38 0b e9 f0 37
       3.17362e-05 5.3607237e-05 8.563808e-05 2.8718749e-05
000100 e5 c1 a4 b8 0e 5e 07 b8 e1 7f 90 38 59 75 98 b8
       -7.856245e-05 -3.2274103e-05 6.8902744e-05 -7.2697825e-05
000110 42 49 f3 37 9a cb 11 37 7e 19 81 b7 7c 74 09 38
       2.900197e-05 8.690078e-06 -1.5389869e-05 3.277183e-05
000120 18 72 45 b8 10 01 c4 39 1b 34 82 3a 4f 5a 3c 39
       -4.7074718e-05 0.00037384825 0.0009933742 0.0001796272
000130 5b d5 3b 3a ed 01 92 3a 9e 53 0e bb f4 88 0c 3a
       0.00071652763 0.001113949 -0.002171732 0.0005360984
000140 51 19 1e 3a 03 90 0c 3a 18 7b ad 3a 90 a3 fc 3a
       0.0006030994 0.00053620356 0.0013235537 0.001927482
000150 1e 67 9c 3a c3 13 4c b8 cd ca 8a 38 80 6f 48 3a
       0.0011932587 -4.8655795e-05 6.6181274e-05 0.00076460093
000160 19 5b e2 ba 8e 26 b4 ba 5c bd 1b b8 d3 fb 80 b8
       -0.0017269581 -0.00137444 -3.7131234e-05 -6.1504215e-05
000170 f8 16 36 ba 66 79 a9 b9 f9 88 d6 38 b9 96 af 3a
       -0.00069461716 -0.0003232464 0.00010229828 0.0013396359
000180 38 73 07 bb 35 8e 8d ba 37 16 1a bb b0 f9 d0 39
       -0.002066804 -0.0010799827 -0.0023511776 0.00039858883
000190 1a f3 ba ba 76 d5 e4 b9 3d 34 da b9 ed 2d 02 ba
       -0.0014263124 -0.0004364659 -0.0004161912 -0.000496595
0001a0 5c 1e 9e ba db 91 d3 38 69 c4 1f 3a cb ac ea 3a
       -0.0012063491 0.00010088432 0.0006094636 0.001790428
0001b0 28 15 2b b9 00 10 8d 39 85 43 b6 39 df 22 48 b9
       -0.00016315712 0.00026905537 0.0003476405 -0.00019086477
0001c0 4d d3 48 b9 17 34 a8 b9 02 1f a3 b9 59 a3 78 39
       -0.00019152202 -0.00032082267 -0.00031112885 0.00023711975
0001d0 5d 1c fe 39 18 ae 07 b9 4c e4 cc 37 91 6c 21 b8
       0.00048467788 -0.00012939458 2.4425004e-05 -3.84865e-05
0001e0 e6 7e 26 b7 4e d6 18 b9 7d 8f 6a b9 91 90 94 b8
       -9.923917e-06 -0.00014575684 -0.00022369433 -7.0841175e-05
0001f0 e1 dd 73 b9 a5 e6 82 b9 ea 43 d3 b7 f8 e1 b4 b8
       -0.00023256942 -0.00024967376 -2.5184785e-05 -8.625159e-05
000200 a5 a7 5d b9 e6 17 44 38 43 f7 a0 b8 41 8e 85 b9
       -0.00021138655 4.67523e-05 -7.6754506e-05 -0.00025473724
000210 a8 86 b2 36 55 0a ad b6 ce 1c a0 37 2e 96 61 b8
       5.3204894e-06 -5.1570046e-06 1.90869e-05 -5.3784046e-05
000220 d3 56 97 b8 c6 68 60 b8 00 a3 a8 b8 13 2f 7b 38
       -7.216413e-05 -5.350334e-05 -8.0412254e-05 5.9886905e-05
000230 b2 b5 38 39 ef eb c2 b8 68 1f d6 38 50 43 7a 39
       0.00017615294 -9.294587e-05 0.00010210165 0.00023866934

exp_avg_sq f4 [48, 3]
000000 e1 58 7d 30 67 fa ab 30 88 d3 c7 30 82 a7 08 31
       9.216717e-10 1.2513056e-09 1.4539276e-09 1.9885822e-09
000010 25 b9 21 31 72 21 04 31 33 b9 3d 31 e5 ff e0 2f
       2.3533826e-09 1.922754e-09 2.7608393e-09 4.0927187e-10
000020 db 27 14 30 7b 07 9e 30 08 d9 f0 30 39 ae 40 30
       5.3898724e-10 1.1498139e-09 1.7523982e-09 7.009678e-10
000030 fb 10 94 31 82 8c 22 31 35 b0 77 31 94 dc db 30
       4.3092974e-09 2.3653972e-09 3.6043393e-09 1.5997039e-09
000040 91 e3 7f 31 b7 2f 88 31 dd 21 07 31 be 56 00 31
       3.723674e-09 3.9635455e-09 1.9664335e-09 1.8675759e-09
000050 ee 74 d6 30 08 2d 1b 31 bd ab ae 30 89 01 92 30
       1.5603783e-09 2.2581066e-09 1.2708977e-09 1.0623334e-09
000060 ae 69 e3 2f 8b 69 04 30 e2 7d 19 30 37 13 21 30
       4.136615e-10 4.8171306e-10 5.5839966e-10 5.8598765e-10
000070 f4 88 77 30 a4 99 f4 2f 49 a1 11 31 49 c8 55 31
       9.00527e-10 4.449251e-10 2.1191957e-09 3.1109428e-09
000080 dd 6e 22 31 a5 1a 87 2f f8 59 3c 30 c1 ef c3 30
       2.3637121e-09 2.457529e-10 6.8521855e-10 1.425626e-09
000090 21 6e c5 30 4a 59 97 30 67 55 aa 30 07 01 14 31
       1.4364937e-09 1.1012073e-09 1.2393401e-09 2.1537419e-09
0000a0 75 32 30 31 13 81 72 31 9a 08 16 32 34 81 c6 30
       2.5640052e-09 3.5289005e-09 8.733105e-09 1.4443118e-09
0000b0 eb 25 a8 30 4b 08 10 30 41 80 4e 30 4e c0 ec 2f
       1.2234386e-09 5.239868e-10 7.5124623e-10 4.306479e-10
0000c0 d0 ca 9c 31 ab 5c ea 30 4f 17 13 31 14 06 99 30
       4.5632547e-09 1.7052079e-09 2.1404565e-09 1.1133943e-09
0000d0 0d f0 3a 31 97 8f 66 31 8f 6a 4d 30 d6 18 9c 2f
       2.7203015e-09 3.3551026e-09 7.4729994e-10 2.8393882e-10
0000e0 32 af 00 30 b9 91 1a 31 e5 3a 3f 30 c9 2b 92 30
       4.6815096e-10 2.2492783e-09 6.956909e-10 1.0635343e-09
0000f0 67 91 69 30 df bc a7 30 35 b5 82 30 f0 5b 03 30
       8.4971535e-10 1.220453e-09 9.510247e-10 4.7788173e-10
000100 0b 17 34 30 6b d2 e9 2f 49 22 3d 30 70 02 39 30
       6.5516365e-10 4.2531964e-10 6.880652e-10 6.730607e-10
000110 72 49 2e 30 74 01 bb 2f 19 26 d7 2f 6f e0 89 2f
       6.3405203e-10 3.4016134e-10 3.9135342e-10 2.5079624e-10
000120 df e2 4d 32 04 cc dd 32 8b af 29 33 1f a7 87 33
       1.1984155e-08 2.5820562e-08 3.9508034e-08 6.3168265e-08
000130 40 3e 33 34 09 69 01 34 0a 8e 67 34 52 a4 df 32
       1.669332e-07 1.2052273e-07 2.1565225e-07 2.6035341e-08
000140 71 3f a2 32 f2 a3 c7 33 75 05 27 34 08 4e 66 34
       1.8888132e-08 9.296481e-08 1.5555072e-07 2.1448807e-07
000150 64 1f a9 33 32 59 06 33 77 59 b0 32 cb 10 74 33
       7.875386e-08 3.128043e-08 2.052978e-08 5.682595e-08
000160 05 72 1b 34 29 ef 2a 34 6b b7 c8 32 9c 83 ed 32
       1.447698e-07 1.591949e-07 2.3366473e-08 2.765028e-08
000170 10 da 3c 33 3c c1 be 33 55 1c 22 33 40 8f b3 33
       4.3970488e-08 8.8827136e-08 3.7744332e-08 8.361394e-08
000180 b1 8d 4f 34 7f 02 4e 34 43 27 95 34 31 f7 eb 33
       1.9329924e-07 1.9186153e-07 2.778198e-07 1.0988004e-07
000190 ac 6b 1e 34 c2 d6 e8 33 54 11 09 33 66 37 07 33
       1.4754067e-07 1.0842406e-07 3.1913558e-08 3.148252e-08
0001a0 16 84 86 33 92 f0 60 33 6c 57 d1 33 70 d0 35 34
       6.2638875e-08 5.237286e-08 9.748223e-08 1.6932768e-07
0001b0 00 fe 5d 31 e6 58 3e 31 bc 5d b4 31 f1 78 74 31
       3.2304115e-09 2.7699172e-09 5.249346e-09 3.557542e-09
0001c0 74 56 ec 31 fc 50 0c 32 8f 4f 58 32 7e b8 a2 31
       6.8783326e-09 8.167486e-09 1.2590944e-08 4.735795e-09
0001d0 d0 e5 24 32 9e 85 7e 30 c9 23 8b 30 3d b3 94 30
       9.59831e-09 9.2594543e-10 1.0123752e-09 1.081936e-09
0001e0 70 31 ac 31 c0 45 5d 31 e1 d7 03 32 59 bc 9e 30
       5.0114792e-09 3.219938e-09 7.674289e-09 1.1549545e-09
0001f0 cb f1 a7 31 ee 7a d8 31 f4 68 ec 30 8d f7 a4 30
       4.8878284e-09 6.300403e-09 1.7201089e-09 1.2002929e-09
000200 8f 8d ec 30 fd 13 8b 31 bb 35 0d 31 e6 3d 24 31
       1.7211493e-09 4.047705e-09 2.0548743e-09 2.3900326e-09
000210 d6 d4 83 30 23 d0 98 30 65 4b 84 30 cc 41 7f 30
       9.591996e-10 1.1118612e-09 9.625692e-10 9.286196e-10
000220 f3 f6 8b 30 0c 99 5b 30 e6 80 de 30 95 d9 5c 30
       1.0183768e-09 7.988923e-10 1.6189261e-09 8.0344736e-10
000230 74 73 e0 30 d9 74 7e 30 2b 23 86 30 93 5a d7 30
       1.6330959e-09 9.257071e-10 9.759779e-10 1.5669052e-09

exp_avg f4 [48, 12]
000000 d7 d1 9f 37 04 50 b7 b6 c0 99 a7 37 b6 fc 94 b6
       1.9051991e-05 -5.46314e-06 1.9979547e-05 -4.440163e-06
000010 75 a7 15 b7 51 7a 53 37 65 ed 88 35 e4 d8 30 b6
       -8.920081e-06 1.2605059e-05 1.020188e-06 -2.635229e-06
000020 73 78 dc b6 77 aa a1 36 0b 8c 3a b7 6e c4 9d 37
       -6.570533e-06 4.8180186e-06 -1.111907e-05 1.8807328e-05
000030 0a 56 2c b7 5e 2a 93 37 4f 22 0a b8 ff 4b 86 b6
       -1.0272031e-05 1.7543494e-05 -3.2933716e-05 -4.0023583e-06
000040 61 93 d0 37 bb 5a 1c b7 ef 2c 98 b3 3a ed b7 35
       2.486416e-05 -9.319449e-06 -7.086225e-08 1.3703605e-06
000050 4f 89 86 b6 f9 ed 7c b5 f2 1b 87 b5 9c ab 45 36
       -4.009496e-06 -9.422361e-07 -1.0066417e-06 2.9455177e-06
000060 25 3b f7 37 2a 1c 09 38 81 2f 90 36 20 a2 1b 37
       2.9472236e-05 3.2689575e-05 4.2970646e-06 9.276468e-06
000070 ec 0c 8d 37 90 f9 40 b7 ad 2b 93 b7 ab 71 52 37
       1.6814527e-05 -1.1502198e-05 -1.7544104e-05 1.2543441e-05
000080 11 44 81 b7 30 40 cd b6 6c ca b8 b7 a3 aa bb 37
       -1.5409694e-05 -6.1169485e-06 -2.202877e-05 2.2371596e-05
000090 5d 85 c9 36 7e 63 51 37 2a 13 88 b6 f6 1d 09 36
       6.0057923e-06 1.2480536e-05 -4.055347e-06 2.043203e-06
0000a0 c9 ec 12 37 d2 fa be b6 8b d2 02 b7 ea 22 02 37
       8.757409e-06 -5.6916406e-06 -7.797625e-06 7.756733e-06
0000b0 0f 86 35 b6 d6 d1 70 b6 37 e8 51 b7 41 85 ef 36
       -2.7049134e-06 -3.5884927e-06 -1.25114375e-05 7.138268e-06
0000c0 97 37 0a 38 63 e4 3d 38 e5 74 2f b7 28 46 63 37
       3.2953536e-05 4.5273813e-05 -1.04580295e-05 1.3546589e-05
0000d0 f0 7d 05 38 d4 07 e7 b7 37 44 dd b7 6b 02 ba 37
       3.182696e-05 -2.7540991e-05 -2.6377018e-05 2.2174054e-05
0000e0 82 3e 6b b7 7e d2 53 b7 94 8b cc b7 e6 75 9a 37
       -1.4021645e-05 -1.2625589e-05 -2.4383691e-05 1.8413131e-05
0000f0 6c be ed b7 82 95 41 b7 b8 57 c9 b7 96 d0 e2 b6
       -2.8341274e-05 -1.1538506e-05 -2.4001914e-05 -6.7596075e-06
000100 83 57 3d 36 1a bc ab 36 15 56 96 37 01 42 60 b7
       2.8214133e-06 5.118095e-06 1.7921479e-05 -1.3366808e-05
000110 74 6f 86 36 af be bc 36 01 db 61 37 bf 70 5e b7
       4.006486e-06 5.625035e-06 1.3462036e-05 -1.3258482e-05
000120 2d 00 9b 35 69 35 01 37 32 24 4c b7 28 81 a1 35
       1.1548451e-06 7.701435e-06 -1.2167775e-05 1.2033024e-06
000130 73 6b 42 37 dc a6 95 b6 56 81 c0 36 8b c3 95 b6
       1.1588319e-05 -4.459971e-06 5.7371026e-06 -4.4633102e-06
000140 e4 1c a8 b6 f4 16 2d b3 56 88 2d 36 98 67 fc 35
       -5.0101535e-06 -4.0300577e-08 2.5858367e-06 1.8805613e-06
000150 62 1e 6c b7 ec d7 de b6 45 72 81 b7 f2 9d 50 b7
       -1.407377e-05 -6.641252e-06 -1.543121e-05 -1.2434541e-05
000160 f6 a2 f0 36 cc 40 11 37 5d 6c 4d 37 f3 c8 2b b7
       7.1715285e-06 8.65776e-06 1.22441825e-05 -1.0239181e-05
000170 52 cd 23 36 29 c7 a3 36 6c 08 ca 36 bd 66 f6 36
       2.4408405e-06 4.880964e-06 6.0210496e-06 7.3433316e-06
000180 c6 72 0d b7 43 e7 45 37 0b 91 a1 b7 50 4a b6 36
       -8.430978e-06 1.179596e-05 -1.9260237e-05 5.432674e-06
000190 ea c2 98 37 b1 84 8f b7 20 c8 21 b7 50 01 53 37
       1.8210576e-05 -1.7108718e-05 -9.642943e-06 1.2576886e-05
0001a0 e2 59 de 36 ea d8 1f b7 a0 76 e8 b4 23 da e6 b6
       6.6265793e-06 -9.527643e-06 -4.3299679e-07 -6.8799286e-06
0001b0 50 b9 36 b7 c7 f8 79 b5 44 e5 32 b7 cf db ff 35
       -1.0891192e-05 -9.3121747e-07 -1.0663007e-05 1.9062953e-06
0001c0 56 67 4d 36 53 15 53 b6 a4 5e 0a 37 ea 64 e2 b6
       3.060753e-06 -3.1453862e-06 8.247476e-06 -6.747073e-06
0001d0 4f a4 91 35 a9 e3 15 35 75 95 29 37 bc 1b 68 b7
       1.0851162e-06 5.5838115e-07 1.0107983e-05 -1.3834735e-05
0001e0 ab ff 88 b7 41 24 8b b7 d4 03 5e b7 da 5a c0 b6
       -1.6331518e-05 -1.6586973e-05 -1.3233122e-05 -5.7326224e-06
0001f0 76 af 2b 36 45 6d 9b 36 21 62 39 37 2d 99 00 b7
       2.5583117e-06 4.6320806e-06 1.1049707e-05 -7.665059e-06
000200 c7 3d fe 36 7b 19 63 36 41 ed 92 37 84 05 29 b7
       7.5769817e-06 3.3840467e-06 1.7515036e-05 -1.0074469e-05
000210 f0 e7 f2 b7 6f a2 99 36 16 ec fb b7 ba b8 d2 b4
       -2.8956652e-05 4.578665e-06 -3.0031468e-05 -3.9249954e-07
000220 a3 30 a6 37 70 5f 51 b7 d3 72 a7 b6 65 30 4c 37
       1.981139e-05 -1.24795915e-05 -4.990355e-06 1.2170615e-05
000230 b1 1b 47 37 e1 2e c6 b6 24 74 36 37 aa 1c 2f b7
       1.1867772e-05 -5.9063173e-06 1.0875086e-05 -1.0437487e-05
000240 0c bb 5d 37 c0 76 ec 35 59 4c e2 36 58 b1 01 b6
       1.3216177e-05 1.7617931e-06 6.744213e-06 -1.9325726e-06
000250 b7 55 62 36 f4 30 86 36 03 68 86 b6 90 56 6f 36
       3.3726517e-06 3.99921e-06 -4.0056198e-06 3.5664161e-06
000260 cb fa 57 b6 20 81 86 34 0b e1 1a b7 67 a3 b3 37
       -3.2183477e-06 2.5053396e-07 -9.231512e-06 2.1414553e-05
000270 3d df a6 37 a6 72 59 37 89 e9 53 36 be fa ad 34
       1.9892695e-05 1.2960902e-05 3.1577385e-06 3.24062e-07
000280 9d b0 53 36 64 0d ab b6 96 27 10 b7 f8 1a b8 36
       3.1544253e-06 -5.097756e-06 -8.592286e-06 5.486767e-06
000290 0e c6 ac b6 0b b3 b5 b5 81 a3 58 b7 cb 37 9f 36
       -5.149056e-06 -1.3537659e-06 -1.2912672e-05 4.7450644e-06
0002a0 af e1 52 38 0f 2f 45 38 76 92 3b 37 6a 9a 6e 37
       5.0278086e-05 4.7012287e-05 1.1180169e-05 1.4221858e-05
0002b0 ca 4a c9 37 a6 c5 9c b7 76 45 06 b8 33 ce bf 37
       2.3995894e-05 -1.8688686e-05 -3.201278e-05 2.2864993e-05
0002c0 e5 e0 b9 b7 a8 eb 1b b7 d2 56 20 b8 6b da 1b 38
       -2.2158443e-05 -9.293588e-06 -3.822783e-05 3.7158297e-05
0002d0 f0 35 60 37 14 08 d1 36 f2 a1 04 37 ec 0a 39 36
       1.3363999e-05 6.229626e-06 7.905519e-06 2.7573506e-06
0002e0 51 92 6c 35 24 dc ec b5 75 cd 2c b7 e4 09 12 37
       8.812977e-07 -1.764744e-06 -1.0299836e-05 8.704581e-06
0002f0 c6 53 89 b6 50 ae 9f b4 de d4 58 b7 cf c8 16 37
       -4.0926707e-06 -2.9742887e-07 -1.2924165e-05 8.987451e-06
000300 90 31 4c 38 d9 29 12 38 09 6e 73 37 ae 88 53 37
       4.868355e-05 3.4848086e-05 1.4509548e-05 1.2608403e-05
000310 a9 94 3a 37 41 a1 a0 b7 ef 79 e5 b7 c4 f8 a3 37
       1.1121077e-05 -1.9148576e-05 -2.7355707e-05 1.9546955e-05
000320 d2 3a 84 b7 f4 71 1a b7 19 11 10 b8 00 1c a0 37
       -1.5763017e-05 -9.205647e-06 -3.43482e-05 1.9086525e-05
000330 aa 2e 92 b7 13 2d 86 b7 24 b6 de b6 6b 72 d4 b6
       -1.7426286e-05 -1.5995034e-05 -6.6373195e-06 -6.3314124e-06
000340 9b ea 00 b7 fa 73 1f 37 c0 cc 70 37 53 eb 54 b7
       -7.684018e-06 9.504141e-06 1.4352787e-05 -1.2690975e-05
000350 b7 9a 8c 36 92 d7 e1 36 93 0c 26 37 81 a9 23 b7
       4.1903363e-06 6.730618e-06 9.897299e-06 -9.755023e-06
000360 ef 0b cd b6 17 44 fb 36 55 b6 8f b7 29 b9 03 36
       -6.1108653e-06 7.4883096e-06 -1.7131833e-05 1.9628299e-06
000370 cb d1 69 37 8c 03 04 b7 79 19 4c 36 23 c8 a9 b5
       1.39367285e-05 -7.868639e-06 3.0413196e-06 -1.2649729e-06
000380 8e 43 99 b2 22 57 2a b6 de 47 96 36 a0 66 86 b6
       -1.7842265e-08 -2.5382692e-06 4.478715e-06 -4.0054583e-06
000390 3c 10 33 b7 24 53 02 b7 d4 f3 46 b7 b1 59 12 b7
       -1.0673011e-05 -7.7679615e-06 -1.185849e-05 -8.723161e-06
0003a0 cf 70 b7 36 52 60 04 37 11 95 4b 37 6e db 4a b7
       5.4669576e-06 7.890239e-06 1.213445e-05 -1.2091228e-05
0003b0 9f d1 e3 35 ee 94 95 36 e2 2b 09 37 a2 9e 40 36
       1.6973826e-06 4.4578837e-06 8.176054e-06 2.8702566e-06
0003c0 a7 2c 2f b6 36 e2 0f 37 6f 81 32 b7 86 68 14 37
       -2.6103023e-06 8.576133e-06 -1.0639763e-05 8.845824e-06
0003d0 18 1c 4f 37 80 0c 96 b7 02 fd 6c b7 c2 06 89 37
       1.2344703e-05 -1.7887214e-05 -1.4125604e-05 1.633482e-05
0003e0 13 18 de 36 d9 96 1e b7 cc 1c ab 35 79 b8 36 b7
       6.618918e-06 -9.452656e-06 1.2748874e-06 -1.0890996e-05
0003f0 5a 81 58 b6 aa 9d b8 b5 65 69 9a b6 5c eb 0f 36
       -3.22618e-06 -1.3754955e-06 -4.601827e-06 2.1445658e-06
