exp/triplet-conv/6-classes/version_10/checkpoints/epoch=5.ckpt (torch_old, 147703 bytes, 55 tensors)

exp_avg f4 [4, 3, 3]
0.0010566282 0.00559169 0.0015097394 -0.0017977697 0.0015085381 0.00052935176 -0.0012283139 0.005264409
0.0020353117 -0.00045914715 -0.0005502091 -0.00084274216 -0.00057102577 0.0007562798 -0.0015488529 0.0006904672
-0.0013120867 -0.00104299 0.0025153388 -0.0016138845 0.0031874771 0.0010283437 -0.0015123164 -0.00034287365
0.0016144607 -0.0038118951 0.005325297 -0.0007870601 0.001993649 0.0026078257 -0.00038971356 -0.0009782371
0.0022507138 -0.0020889798 0.00092916196 0.002678144
00000000: 8f7e 8a3a 7f3a b73b 73e2 c53a 24a3 ebba
00000010: 24ba c53a 32c4 0a3a 60ff a0ba 1081 ac3b
00000020: dd62 053b b0b9 f0b9 e83b 10ba 78eb 5cba
00000030: e4b0 15ba 1441 463a e102 cbba 7800 353a
00000040: 53fa abba f0b4 88ba 62d8 243b fa88 d3ba
00000050: fee4 503b 7dc9 863a eb38 c6ba b9c3 b3b9
00000060: 509c d33a fdd0 79bb d47f ae3b b652 4eba
00000070: e1a7 023b 0ee8 2a3b 7852 ccb9 3138 80ba
00000080: b680 133b 44e7 08bb 0193 733a cd83 2f3b

exp_avg_sq f4 [4, 3, 3]
2.992273e-05 4.5995876e-05 1.8248487e-05 5.401731e-05 7.5289776e-05 5.01167e-05 2.145722e-05 5.052584e-05
3.2019114e-05 3.947427e-06 3.2549203e-06 3.8033952e-06 6.438017e-06 5.8446212e-06 6.6120456e-06 3.6501478e-06
2.1316168e-06 3.8734834e-06 2.9031478e-05 3.197323e-05 2.795887e-05 3.243096e-05 4.4265344e-05 4.6159275e-05
1.9945803e-05 2.231512e-05 4.6203837e-05 1.4423441e-05 1.5477663e-05 1.801837e-05 1.7630542e-05 1.8422958e-05
2.0718795e-05 1.1732569e-05 2.2284576e-05 2.0043602e-05
00000000: 9302 fb37 b2eb 4038 5414 9937 a590 6238
00000010: e4e4 9d38 6634 5238 07ff b337 b5eb 5338
00000020: 434c 0638 2474 8436 1b6f 5a36 d53d 7f36
00000030: 2506 d836 ea1c c436 0add dd36 10f5 7436
00000040: e60c 0f36 f8f8 8136 a088 f337 ff1a 0638
00000050: 3789 ea37 7a06 0838 8da9 3938 259b 4138
00000060: 4951 a737 5b31 bb37 feca 4138 35fc 7137
00000070: 07d6 8137 2826 9737 4de5 9337 008b 9a37
00000080: 46cd ad37 00d7 4437 c3ef ba37 4f23 a837

exp_avg f4 [4]
-2.6726166e-05 7.69741e-06 -6.6106577e-06 1.9998965e-06
00000000: 0132 e0b7 2024 0137 1ed1 ddb6 f635 0636

exp_avg_sq f4 [4]
8.778448e-09 2.1083226e-09 1.0348893e-08 3.1729948e-09
00000000: 06d0 1632 01e2 1031 eaca 3132 ea0b 5a31

exp_avg f4 [8, 4, 3]
-0.0011959083 -0.00033204744 0.00022875729 0.0002049903 -0.00034317668 -0.00024588648 0.00041236728 0.0010250219
-0.0025498779 0.00045189663 0.0010294273 1.0064125e-05 0.0010272649 0.0021269787 -0.0025123672 -0.00027597495
0.00071687764 0.00026345585 0.0019882726 -0.0017593816 0.0018712305 0.00080908684 -0.00068330753 -0.001566116
0.003608781 -0.007092203 -0.002277013 0.00032898554 0.0013473852 -0.0024195462 -0.007899928 -0.0016604493
0.007048038 0.0015057174 -0.002262716 0.005856858 -0.0030480714 0.0011246616 0.0006706498 -0.00063112
-0.0010641229 0.0003931353 0.0031463662 0.00013640322 -0.003524426 -0.0001424928 0.0019970126 -0.0007619002
0.0024920024 -0.0029501193 0.00050634635 0.00094894384 0.00065749144 -0.0010848824 -0.004103509 0.0018897422
0.0026089242 -0.00049136207 -0.0014965866 0.00186918 5.7984893e-05 0.000860781 -0.0025242008 -2.6203532e-05
0.0011439832 0.0006015558 0.00012535637 -0.002050309 0.0010363056 0.001581233 -0.00016908944 -0.00041803435
8.158749e-05 -0.0017810147 0.00045720124 -0.0011404351 -0.0006018911 -0.00022649318 -0.0018022839 -0.0021095295
0.0005573819 0.0015943957 0.00032249565 0.0025618002 -0.0004023215 -0.0006834793 0.0032133812 0.0013603221
-0.00036458985 0.0003975183 -0.00074442266 0.0029319108 -0.0022280219 -0.0017793422 0.0010684058 6.531428e-05
00000000: 06c0 9cba a716 aeb9 91de 6f39 aaf2 5639
00000010: 65ec b3b9 53ea 80b9 0033 d839 075a 863a
00000020: da1b 27bb 8aec ec39 d9ed 863a 16d9 2837
00000030: 4aa5 863a c864 0b3b 87a6 24bb bbb0 90b9
00000040: d8ec 3b3a 7220 8a39 ae4d 023b 0d9b e6ba
00000050: 1444 f53a e618 543a fe1f 33ba 2246 cdba
00000060: 4c81 6c3b b665 e8bb f039 15bb b17b ac39
00000070: bf9a b03a 4091 1ebb b36e 01bc 6fa3 d9ba
00000080: 3af3 e63b 7e5b c53a 134a 14bb e3ea bf3b
00000090: 27c2 47bb 6269 933a 8cce 2f3a bf71 25ba
000000a0: 0a7a 8bba ba1d ce39 4433 4e3b 7607 0f39
000000b0: 0efa 66bb 1f6a 15b9 50e0 023b 42ba 47ba
000000c0: dd50 233b ca56 41bb 54bc 043a 8bc2 783a
000000d0: 815b 2c3a 9d32 8eba ba76 86bb 3ab1 f73a
000000e0: 7cfa 2a3b c0ce 00ba 1d29 c4ba 46ff f43a
000000f0: ce34 7338 09a6 613a 106d 25bb a8cf dbb7
00000100: b5f1 953a bab1 1d3a 1872 0339 7a5e 06bb
00000110: a5d4 873a 6041 cf3a 9a4d 31b9 9f2b dbb9
00000120: f319 ab38 f070 e9ba 83b4 ef39 a77a 95ba
00000130: 3ac8 1dba cd7e 6db9 9d3a ecba 0840 0abb
00000140: 441d 123a 0bfb d03a a214 a939 e0e3 273b
00000150: adee d2b9 852b 33ba 9797 523b d64c b23a
00000160: 6c26 bfb9 016a d039 5c25 43ba 4d25 403b
00000170: 0104 12bb d138 e9ba c009 8c3a 56f9 8838

exp_avg_sq f4 [8, 4, 3]
5.1302363e-06 4.3147656e-06 3.3013673e-06 5.951668e-06 2.7447e-06 3.861029e-06 1.2002605e-06 8.696727e-06
5.722806e-06 3.4710024e-06 2.076115e-06 1.2769709e-06 3.4610134e-06 1.1290671e-05 8.31501e-06 2.3754365e-06
1.7725492e-06 8.8555475e-07 3.705458e-06 9.286688e-06 5.859027e-06 2.3445464e-06 1.8098734e-06 4.817909e-06
4.1150764e-05 8.9698246e-05 1.1868369e-05 2.102064e-05 1.3965176e-05 1.7631568e-05 8.121548e-05 1.8276787e-05
4.769865e-05 1.1875516e-05 2.0980124e-05 3.722273e-05 2.1004413e-05 6.1529013e-06 2.1589221e-06 4.5560632e-06
4.3208242e-06 8.030189e-06 1.5033515e-05 5.367343e-06 1.6456486e-05 1.8043713e-06 8.672327e-06 3.714404e-06
7.797675e-06 1.29733035e-05 2.5258662e-06 2.8196107e-06 7.8742164e-07 2.3512987e-06 1.8529603e-05 5.8758937e-06
7.921203e-06 1.9815577e-06 3.809034e-06 4.246069e-06 1.0286229e-06 6.2941326e-06 1.3157864e-05 2.6227617e-06
3.2537616e-06 1.1724978e-06 3.222373e-06 1.2085789e-05 6.8119152e-06 4.129278e-06 1.7366455e-06 2.7484411e-06
5.6142626e-06 2.0220083e-05 5.1101974e-06 1.484664e-05 1.6871621e-05 1.3847645e-05 1.8203813e-05 1.1769039e-05
2.4520406e-05 7.623733e-06 6.6679354e-06 1.2774299e-05 2.9958296e-06 6.331481e-06 1.4014622e-05 4.225242e-06
5.7170287e-06 2.694245e-06 3.838111e-06 1.4111536e-05 1.4208831e-05 6.2310887e-06 3.3600863e-06 3.7390462e-06
00000000: 6524 ac36 8ec7 9036 0f8d 5d36 70b4 c736
00000010: 9631 3836 fd8d 8136 a318 a135 28e8 1137
00000020: 8706 c036 5eef 6836 6253 0b36 6364 ab35
00000030: c243 6836 106d 3d37 b280 0b37 b069 1f36
00000040: 54e8 ed35 dcb6 6d35 49ab 7836 05ce 1b37
00000050: a998 c436 0057 1d36 c7ea f235 86a9 a136
00000060: 4c99 2c38 611c bc38 421e 4737 7b55 b037
00000070: f94b 6a37 81e7 9337 3b52 aa38 1a51 9937
00000080: 0910 4838 f43c 4737 79fe af37 9a1f 1c38
00000090: a232 b037 0575 ce36 00e2 1036 49e0 9836
000000a0: 99fb 9036 66b9 0637 7538 7c37 2019 b436
000000b0: 090c 8a37 ba2d f235 5c7f 1137 fa44 7936
000000c0: c2d2 0237 eaa7 5937 0d82 2936 8b38 3d36
000000d0: 345f 5335 01cb 1d36 0570 9b37 8b29 c536
000000e0: 4fe5 0437 e7fa 0436 b59e 7f36 7479 8e36
000000f0: 370f 8a35 3032 d336 98c0 5c37 b402 3036
00000100: 335b 5a36 b85e 9d35 f23f 5836 12c4 4a37
00000110: e891 e436 3a8e 8a36 af16 e935 dc71 3836
00000120: 2662 bc36 4c9e a937 4378 ab36 d515 7937
00000130: 8887 8d37 2f53 6837 64b4 9837 a373 4537
00000140: 2cb1 cd37 5ecf ff36 21bd df36 3251 5637
00000150: f60b 4936 0273 d436 5820 6b37 8dc6 8d36
00000160: e7d4 bf36 c7ce 3436 1fc9 8036 96c0 6c37
00000170: 7762 6e37 a514 d136 d87d 6136 53ec 7a36

exp_avg f4 [8]
-9.738085e-10 -3.9349637e-10 -8.277867e-10 9.30057e-10 -3.234431e-11 -6.035952e-10 -3.800768e-10 -1.2645869e-09
00000000: d7d6 85b0 b153 d8af 4f8a 63b0 f1a6 7f30
00000010: 7540 0eae 3cea 25b0 0ef3 d0af b2cd adb0

exp_avg_sq f4 [8]
2.1925235e-18 1.3010626e-18 1.0622978e-17 2.691242e-18 1.6565292e-18 2.3782501e-18 2.1940903e-17 2.7542517e-18
00000000: 99c7 2122 c100 c021 98f5 4323 2094 4622
00000010: e775 f421 e07b 2f22 7e5e ca23 583a 4b22

exp_avg f4 [8]
0.0007738308 0.0012751607 -0.00033704514 0.00025618236 6.681576e-05 -0.0008866541 0.00071131584 -0.0018250986
00000000: e8da 4a3a 4b23 a73a 6fb5 b0b9 3750 8639
00000010: 701f 8c38 596e 68ba 9977 3a3a 2638 efba

exp_avg_sq f4 [8]
1.2602908e-06 1.5298147e-06 7.8905003e-07 4.3385458e-07 7.8402576e-07 2.821861e-06 6.6978655e-06 4.465507e-06
00000000: 4327 a935 0854 cd35 1bcf 5335 85ec e834
00000010: d775 5235 345f 3d36 3abe e036 6ad6 9536

exp_avg f4 [8]
9.333054e-06 -3.409823e-05 -8.842371e-07 2.7671334e-05 -1.983064e-05 -2.7372367e-05 -6.597421e-07 3.1894826e-06
00000000: 2995 1c37 b204 0fb8 505c 6db5 bd1f e837
00000010: fa59 a6b7 b69d e5b7 2219 31b5 e50a 5636

exp_avg_sq f4 [8]
8.1774937e-10 9.072831e-10 8.0961576e-10 9.599914e-10 6.459332e-10 1.8442671e-09 5.73989e-10 6.4917566e-10
00000000: ffc7 6030 5f64 7930 a58b 5e30 b2f0 8330
00000010: 828d 3130 6179 fd30 e3c6 1d30 ad71 3230

exp_avg f4 [16, 8, 3]
-0.0008390193 0.00049470057 0.000445567 0.0004917386 -0.00047043667 0.000491051 0.0012326812 -0.00015670802
-0.0006223963 -0.0007776165 0.00046254884 0.0006631077 0.0004450739 -0.00030540183 -0.0004989762 -7.562795e-06
-0.0004739746 0.00073571433 0.00079567527 -8.3778825e-05 0.00023590606 -0.00022054414 0.00096776575 -0.00055761135
-0.000425176 0.00032592047 -3.7334816e-05 0.0007507061 -0.00035511082 0.00036329144 0.0006863599 -3.038345e-06
-0.00018542031 -0.00073568936 -0.00070544204 0.00068399054 -0.00045859444 -0.00013943788 -0.00041552586 0.0009664747
-0.000571598 0.00029568304 0.00067417935 7.4826305e-05 -4.996622e-05 -0.0010917431 0.0005042283 0.00013024958
-0.00083430525 0.00029121558 -0.0015220213 -0.00045052683 -0.0007457506 0.00063247315 0.00017190808 -0.0015235915
0.00046456134 -0.0008041819 0.00068054145 -0.00074291835 0.0018135089 0.00057166786 0.0013366997 -0.0011456653
0.0001636177 0.00034753638 -0.0013680902 -0.0016576735 -0.0006132076 -0.00017479388 -0.00017712642 -0.001354332
-0.0008112969 0.0007935441 -0.00029239003 0.00012852691 -0.0010049936 0.0002803843 0.0011328224 -0.0010606473
-0.00030174694 -0.00020953195 0.00028670122 0.00012212712 0.0012095667 0.00043619052 -5.420481e-05 -0.00056258286
-0.0002790344 0.0008677614 2.7363503e-05 -0.0006384171 7.667665e-05 -8.6535474e-05 0.00043603365 -0.00069212867
0.0012026064 0.00015124539 -0.0012965841 -0.0016307259 0.0008687251 0.0009080241 -0.00085603585 -0.000724745
0.0017945889 0.0003070941 0.0007868241 -0.0012010199 -0.00020493509 -0.0010675883 0.0006270667 -0.00093687145
0.0015988947 -0.00013463678 -0.00053839904 0.00011239095 0.00088903186 0.0016839078 -0.0011870154 -0.0004900909
9.607644e-05 -0.0012772301 0.0011024714 0.000915632 0.00047696478 -0.0011266356 -0.0009059018 0.002098655
-0.0012797973 0.00090136804 -0.0008009595 0.00039594935 -0.00070062425 0.0009981997 0.000113349844 0.0008571455
-1.6291582e-05 -0.0016525371 -0.00023170184 0.0010499342 -0.0016830633 -0.0008309032 -0.00039119687 0.0013018675
-0.0006525 7.0425885e-05 -0.000484048 0.0003123413 -0.0003766976 0.00013311606 0.00033125546 -0.0005432021
-2.3133e-05 -0.00065971114 0.00028954275 0.00015765971 0.00070584327 0.00032882715 0.0006288172 -6.305512e-05
-0.0007025679 0.00043981342 -0.00021791895 -0.0009469794 -2.7376447e-05 -0.0006205779 0.00053890166 -0.0003925363
-0.00071773626 4.734276e-05 0.00042103368 0.000104858795 -0.00039425393 0.00012515846 0.0005788519 9.012328e-05
-0.0006333889 -0.00023026721 6.159669e-05 0.00046734523 0.00073912955 0.00037367048 -9.410551e-05 9.695038e-05
-0.00036262264 0.00024230781 0.0002377104 -0.00023062013 -0.00037096246 -9.159063e-05 0.00021988705 -0.0005889614
0.00021102071 -0.0002718362 -0.0007533838 -0.00017648494 1.141258e-05 -0.00021540777 -0.00033869751 -0.00021887933
0.0005411579 0.00014192752 -0.0004065359 -0.0004854087 -2.0591346e-05 0.00030760647 0.0007811092 7.435299e-05
-5.8649025e-06 -7.834966e-05 -0.00052836403 -0.0004529143 -9.3069844e-05 -0.00021703498 -0.0002997811 8.705434e-05
0.0006206204 0.0007200509 -0.001162368 -0.00078615703 -9.050878e-05 0.00073257973 3.5621673e-05 -0.0010967919
0.0011296778 -0.00018176598 0.00025464589 -0.00075394654 -6.735374e-05 -0.00069821347 0.00015460869 -0.0007480756
0.0006723507 0.00044468677 -0.00023527694 -0.00023281875 0.00090061326 0.00059687183 -0.0003908608 -0.00032314743
0.0008681643 -0.0014859673 0.0016726071 0.0008370182 0.0013342554 -0.0011040523 -0.0008433375 0.0026850533
-0.00039284877 0.0010918261 -0.0012316097 0.0005365659 -0.001683292 3.2304226e-05 -0.0007554761 0.0017721129
00000000: a2f1 5bba cbae 013a fe9a e939 05e8 003a
00000010: f1a4 f6b9 e0b9 003a eb91 a13a fd51 24b9
00000020: 4f28 23ba f6d8 4bba 4182 f239 68d4 2d3a
00000030: cf58 e939 571e a0b9 bacd 02ba eac3 fdb6
00000040: cb7f f8b9 f4dc 403a dd94 503a 6ab2 afb8
00000050: 8d5d 7739 de41 67b9 a9b1 7d3a aa2c 12ba
00000060: 28ea deb9 4ee0 aa39 f497 1cb8 09cb 443a
00000070: 2b2e bab9 2778 be39 d5ec 333a 5fe6 4bb6
00000080: 636d 42b9 47db 40ba 6aed 38ba d44d 333a
00000090: 816f f0b9 1236 12b9 f0da d9b9 055b 7d3a
000000a0: 4bd7 15ba e805 9b39 69bb 303a 11ec 9c38
000000b0: d292 51b8 d218 8fba 302e 043a 9b93 0839
000000c0: 47b5 5aba 4bae 9839 8f7e c7ba b034 ecb9
000000d0: 7a7e 43ba 8ecc 253a 3942 3439 3fb3 c7ba
000000e0: 5e90 f339 bccf 52ba 5d66 323a 68c0 42ba
000000f0: 43b3 ed3a fbdb 153a 3334 af3a 262a 96ba
00000100: cb90 2b39 8b35 b639 7d51 b3ba 4b46 d9ba
00000110: aabf 20ba e048 37b9 03bb 39b9 d783 b1ba
00000120: 37ad 54ba d805 503a ed4b 99b9 2ec5 0639
00000130: fdb9 83ba 8b00 9339 367b 943a 6b05 8bba
00000140: ca33 9eb9 ceb5 5bb9 6350 9639 400f 0039
00000150: 538a 9e3a 80b0 e439 f959 63b8 4c7a 13ba
00000160: 5d4b 92b9 7b7a 633a ad8a e537 725b 27ba
00000170: 77cd a038 617a b5b8 729b e439 f86f 35ba
00000180: c6a0 9d3a a097 1e39 25f2 a9ba 15be d5ba
00000190: 28bb 633a 7708 6e3a 9867 60ba d0fc 3dba
000001a0: 6938 eb3a 7901 a139 df42 4e3a 8a6b 9dba
000001b0: d8e3 56b9 52ee 8bba bc61 243a 6198 75ba
000001c0: 0192 d13a 492d 0db9 5923 0dba 6fb3 eb38
000001d0: eb0d 693a 92b6 dc3a a195 9bba 7279 00ba
000001e0: a57c c938 bb68 a7ba cd80 903a 0607 703a
000001f0: 2111 fa39 9eab 93ba 0a7a 6dba 9789 093b
00000200: dfbe a7ba c949 6c3a 7bf7 51ba 6c97 cf39
00000210: 19aa 37ba 06d6 823a 3cb6 ed38 10b2 603a
00000220: e8a9 88b7 f299 d8ba fdf4 72b9 f29d 893a
00000230: 3c9a dcba f8d0 59ba 8e19 cdb9 6da3 aa3a
00000240: 890c 2bba 9cb1 9338 d3c7 fdb9 bdc1 a339
00000250: 7f7f c5b9 1295 0b39 5bac ad39 ad65 0eba
00000260: bd0d c2b7 77f0 2cba c5cd 9739 7551 2539
00000270: 5708 393a 6f66 ac39 35d7 243a 763c 84b8
00000280: 892c 38ba c296 e639 2c81 64b9 b63e 78ba
00000290: 79a6 e5b7 47ae 22ba 1445 0d3a 55cd cdb9
000002a0: 7726 3cba e791 4638 2fbe dc39 a3e7 db38
000002b0: deb3 ceb9 f83c 0339 18be 173a 9100 bd38
000002c0: 020a 26ba e273 71b9 792d 8138 0406 f539
000002d0: 25c2 413a 34e9 c339 835a c5b8 d751 cb38
000002e0: 631e beb9 0214 7e39 e641 7939 9fd2 71b9
000002f0: bd7d c2b9 5814 c0b8 7b91 6639 8864 1aba
00000300: 7145 5d39 3d85 8eb9 bb7e 45ba d10e 39b9
00000310: a878 3f37 15df 61b9 3693 b1b9 f982 65b9
00000320: 7edc 0d3a 61d2 1439 5324 d5b9 747e feb9
00000330: 94bb acb7 3e46 a139 5ac3 4c3a f5ed 9b38
00000340: 21cb c4b6 a74f a4b8 e981 0aba 2175 edb9
00000350: 7e2e c3b8 e293 63b9 f02b 9db9 f190 b638
00000360: 21b1 223a ccc1 3c3a 995a 98ba 1b16 4eba
00000370: 88cf bdb8 980a 403a 7b68 1538 3bc2 8fba
00000380: b211 943a 6f98 3eb9 fe81 8539 7fa4 45ba
00000390: 4440 8db8 5008 37ba 741e 2239 811a 44ba
000003a0: b140 303a d924 e939 acb4 76b9 cf20 74b9
000003b0: 2217 6c3a 6477 1c3a 73ec ccb9 1d6c a9b9
000003c0: 8595 633a cac4 c2ba 623b db3a 576b 5b3a
000003d0: 2fe2 ae3a d9b5 90ba 6c13 5dba b8f7 2f3b
000003e0: 45f7 cdb9 9b1b 8f3a f76d a1ba 54a8 0c3a
000003f0: e8a1 dcba 667e 0738 250b 46ba 3e46 e83a

exp_avg_sq f4 [16, 8, 3]
9.016624e-07 4.3715727e-07 4.567352e-07 4.315523e-07 5.1907807e-07 6.4886865e-07 1.351007e-06 2.1093149e-07
6.1876045e-07 9.461224e-07 5.7008924e-07 8.2957996e-07 4.973153e-07 4.1045098e-07 6.9298716e-07 1.5664125e-07
6.0630606e-07 9.556661e-07 9.68624e-07 2.7008335e-07 4.95865e-07 2.4735314e-07 1.1735724e-06 5.3739944e-07
1.0733272e-06 9.415413e-07 1.0079394e-06 9.87757e-07 9.574275e-07 9.800029e-07 1.5060467e-06 8.894186e-07
1.0690641e-06 1.0864331e-06 8.241896e-07 8.9600456e-07 7.831937e-07 1.0358099e-06 1.1612751e-06 7.445982e-07
8.198409e-07 1.453635e-06 1.6307893e-06 9.2462034e-07 1.282569e-06 9.3960693e-07 1.2298019e-06 9.3704386e-07
3.1353616e-06 2.3936386e-06 2.4770172e-06 1.1507597e-06 2.2124939e-06 1.404287e-06 2.5490249e-06 5.811789e-06
2.6256594e-06 2.1715969e-06 1.2942652e-06 1.3381148e-06 7.2860857e-06 3.4540326e-06 4.2359784e-06 3.5296284e-06
2.390233e-06 1.723331e-06 6.615762e-06 1.0756467e-05 6.1232213e-06 7.498699e-07 1.5755585e-06 3.410527e-06
1.1070755e-06 1.431882e-06 5.4266195e-07 6.344305e-07 1.1269991e-06 1.4047798e-06 1.4555428e-06 1.8694429e-06
3.239373e-07 1.8268561e-06 1.310222e-06 4.4504372e-07 1.508264e-06 7.043317e-07 7.52464e-07 1.2752549e-06
5.1440594e-07 2.2223694e-06 5.65396e-07 1.4681991e-06 6.400494e-07 7.5824323e-07 8.443355e-07 2.4430574e-06
1.7915942e-06 5.2752904e-07 2.780828e-06 2.9119813e-06 1.619508e-06 7.28094e-07 1.1258506e-06 1.137614e-06
4.0248506e-06 5.333794e-07 1.3864349e-06 2.8369418e-06 3.7427972e-07 1.4047268e-06 1.4476553e-06 1.799097e-06
3.2331657e-06 3.282859e-07 1.0775749e-06 5.553736e-07 1.7708578e-06 3.0953627e-06 2.8573759e-06 3.8200523e-07
9.0923425e-07 1.5806824e-06 2.0599023e-06 1.3304788e-06 5.3405324e-07 2.0524014e-06 1.0752626e-06 2.36506e-06
2.88469e-06 1.0021867e-06 1.6352433e-06 1.1850113e-06 1.1911665e-06 1.8481807e-06 4.782888e-07 1.7940254e-06
1.9097033e-06 1.606671e-06 9.90177e-07 2.0021755e-06 3.88144e-06 2.0784134e-06 5.199098e-07 1.5015869e-06
1.604198e-06 5.603334e-07 6.2602857e-07 4.5630176e-07 9.901015e-07 5.419174e-07 1.1501603e-06 1.968896e-06
1.1709953e-06 1.0725212e-06 5.2270104e-07 5.58687e-07 2.4994768e-06 1.0514384e-06 6.8978926e-07 1.1050878e-06
1.3126624e-06 9.935064e-07 2.0493483e-06 4.0431823e-06 2.5058328e-06 5.408172e-07 4.4299858e-07 1.1869257e-06
1.032413e-06 6.683651e-07 8.545305e-07 4.7624636e-07 5.388099e-07 4.5607055e-07 8.931054e-07 1.1013918e-06
1.1544156e-06 9.282937e-07 3.2339423e-07 8.724874e-07 1.6727909e-06 7.064337e-07 1.2394124e-06 7.605909e-07
9.94277e-07 6.4883926e-07 1.4447289e-06 1.7729892e-06 8.0753705e-07 3.1913646e-07 9.515497e-07 1.1062368e-06
1.115726e-06 9.790697e-07 8.920934e-07 6.775092e-07 8.137339e-07 6.632338e-07 1.8341074e-06 7.3228324e-07
8.317611e-07 8.858387e-07 6.53549e-07 9.961508e-07 7.02439e-07 1.1212794e-06 1.5306708e-06 6.5673646e-07
8.795844e-07 1.584637e-06 1.9046911e-06 3.91418e-07 1.254255e-06 8.4149497e-07 1.1633452e-06 6.517542e-07
1.4347077e-06 8.671872e-07 1.953455e-06 1.4593148e-06 8.3915353e-07 1.2718057e-06 8.338132e-07 1.4758427e-06
3.2543276e-06 7.311584e-07 1.4125269e-06 1.4999714e-06 2.0526224e-06 2.3730788e-06 1.5069343e-06 1.3714264e-06
2.193412e-06 1.1865361e-06 1.4127096e-06 2.5802542e-06 4.2777933e-06 1.8861433e-06 8.609138e-07 1.3608133e-06
2.5107768e-06 3.7979867e-06 4.600287e-06 4.9286164e-06 1.3059204e-06 2.9991334e-06 2.9484543e-06 9.886708e-06
1.20708e-06 1.8204488e-06 3.7143088e-06 2.5124136e-06 6.3471716e-06 5.225655e-06 5.316724e-06 8.717096e-06
00000000: c509 7235 70b2 ea34 3535 f534 19b0 e734
00000010: c656 0b35 ea2d 2e35 3f54 b535 687c 6234
00000020: e518 2635 09f9 7d35 3c08 1935 4db0 5e35
00000030: 3f7f 0535 f45b dc34 b705 3a35 3831 2834
00000040: 09c1 2235 7044 8035 ab01 8235 f9ff 9034
00000050: 951b 0535 f5cb 8434 a483 9d35 cf41 1035
00000060: 3e0f 9035 3abe 7c35 8948 8735 1293 8435
00000070: f580 8035 a588 8335 5f23 ca35 61c0 6e35
00000080: c37c 8f35 8fd1 9135 e13d 5d35 f784 7035
00000090: a93c 5235 2806 8b35 1cdd 9b35 66e0 4735
000000a0: 0a13 5c35 851a c335 7ee1 da35 6d33 7835
000000b0: bc24 ac35 4c39 7c35 ac0f a535 2a89 7b35
000000c0: 1a69 5236 66a2 2036 d53a 2636 cd73 9a35
000000d0: 5b7a 1436 ef7a bc35 ea0f 2b36 e302 c336
000000e0: 7c34 3036 c0bb 1136 9db6 ad35 4699 b335
000000f0: 007b f436 d4cb 6736 c722 8e36 8ede 6c36
00000100: e467 2036 344d e735 f6fc dd36 ad76 3437
00000110: 1276 cd36 ab4a 4935 c777 d335 68e0 6436
00000120: d396 9435 172f c035 72ab 1135 bb4d 2a35
00000130: 6543 9735 de8b bc35 125c c335 92e9 fa35
00000140: 9ae9 ad34 4c32 f535 e3da af35 58ee ee34
00000150: 8e6f ca35 4e11 3d35 effc 4935 6d29 ab35
00000160: b515 0a35 0424 1536 b8c5 1735 f00e c535
00000170: dccf 2b35 148a 4b35 4ba6 6235 68f3 2336
00000180: b576 f035 859b 0d35 439e 3a36 756b 4336
00000190: df5d d935 3d72 4335 ef1b 9735 1fb0 9835
000001a0: 340d 8736 8e2d 0f35 8a15 ba35 4a62 3e36
000001b0: 9df0 c834 0c8a bc35 0f4d c235 8178 f135
000001c0: 5df9 5836 453f b034 31a1 9035 fc14 1535
000001d0: 36ae ed35 edb9 4f36 58c1 3f36 6616 cd34
000001e0: 1a12 7435 d527 d435 da3c 0a36 e792 b235
000001f0: dc5b 0f35 fdbb 0936 be51 9035 6cb7 1e36
00000200: 9996 4136 df82 8635 887a db35 ae0c 9f35
00000210: 2be0 9f35 010f f835 c263 0035 3eca f035
00000220: 7428 0036 cca4 d735 39e6 8435 1d5d 0636
00000230: 513d 8236 df7a 0b36 ee8f 0b35 228a c935
00000240: d34f d735 d169 1635 5b0c 2835 a3f9 f434
00000250: a1e3 8435 4878 1135 355f 9a35 6021 0436
00000260: 182b 9d35 8cf3 8f35 be4f 0c35 aef8 1535
00000270: afbc 2736 261f 8d35 f529 3935 8752 9435
00000280: bd2e b035 9f58 8535 8987 0936 acaa 8736
00000290: e129 2836 ad2c 1135 43d5 ed34 754e 9f35
000002a0: 7191 8a35 b369 3335 e462 6535 cdae ff34
000002b0: bca2 1035 dcd9 f434 bcbd 6f35 89d3 9335
000002c0: 6bf1 9a35 db2f 7935 f79e ad34 e134 6a35
000002d0: a884 e035 c1a1 3d35 e359 a635 692b 4c35
000002e0: 1973 8535 e52b 2e35 82e8 c135 72f7 ed35
000002f0: 86c5 5835 c855 ab34 ff6d 7f35 027a 9435
00000300: 0ec0 9535 9468 8335 3178 6f35 14de 3535
00000310: 5e6f 5a35 1409 3235 732b f635 1f92 4435
00000320: 3046 5f35 5fca 6d35 8c6f 2f35 7bb3 8535
00000330: 3e8f 3c35 de7e 9635 7371 cd35 964a 3035
00000340: 941c 6c35 b6af d435 b0a4 ff35 1524 d234
00000350: e057 a835 18e3 6135 3d24 9c35 35f4 2e35
00000360: 2e90 c035 a7c8 6835 1a18 0336 addd c335
00000370: 3142 6135 e9b2 aa35 35d3 5f35 9215 c635
00000380: ec64 5a36 d344 4435 0e96 bd35 a052 c935
00000390: c9bf 0936 2f41 1f36 de41 ca35 da11 b835
000003a0: 8832 1336 1241 9f35 559c bd35 6e28 2d36
000003b0: f789 8f36 6427 fd35 8c19 6735 30a5 b635
000003c0: d17e 2836 eae0 7e36 2a5c 9a36 7e60 a536
000003d0: 1547 af35 b844 4936 0fde 4536 16df 2537
000003e0: f402 a235 2556 f435 5743 7936 f09a 2836
000003f0: caf9 d436 0958 af36 5066 b236 a43f 1237

exp_avg f4 [16]
-7.624155e-11 -2.2216123e-10 -1.568939e-10 2.2685133e-11 2.51892e-10 -2.5309524e-11 2.6893885e-11 -1.6101792e-10
-3.0865988e-10 -1.6588313e-10 -8.622061e-10 3.7284092e-11 2.001392e-11 -2.2709458e-10 5.542047e-11 2.4428704e-10
00000000: 2da8 a7ae d444 74af b581 2caf 618a c72d
00000010: a67a 8a2f fb9f dead a58f ec2d 840a 31af
00000020: 04b0 a9af f363 36af 5c00 6db0 28fa 232e
00000030: 570b b02d 71b1 79af e7bd 732e 584c 862f

exp_avg_sq f4 [16]
1.0479655e-19 3.3866093e-19 4.8672326e-19 1.7252153e-19 1.3558824e-19 2.1749566e-19 2.3351707e-19 1.5797428e-19
1.4241897e-19 2.9065793e-19 7.087523e-19 2.5990067e-19 9.681322e-20 2.4624316e-19 7.651587e-19 4.1580358e-19
00000000: a171 f71f fee8 c720 c5a7 0f21 6fad 4b20
00000010: 0813 2020 0463 8020 1ad8 8920 cc80 3a20
00000020: 7e23 2820 fc92 ab20 cf2f 5121 146b 9920
00000030: 0098 e41f 375b 9120 c2d5 6121 7672 f520

exp_avg f4 [16]
-0.00060886977 8.700883e-05 -0.00012620531 -0.00032022267 0.0002108631 0.00013362062 -0.00028744852 0.0005148047
9.569929e-05 0.00035470963 -0.00081621006 1.4382529e-05 -0.00035976048 -0.00042067526 0.0011953152 0.00036249397
00000000: 8f9c 1fba 8378 b638 fb55 04b9 8fe3 a7b9
00000010: 221b 5d39 831c 0c39 b0b4 96b9 f5f3 063a
00000020: 2ab2 c838 52f8 b939 eef6 55ba 7e4c 7137
00000030: 3c9e bcb9 148e dcb9 1fac 9c3a 1e0d be39

exp_avg_sq f4 [16]
8.593455e-07 1.7486488e-07 3.3936655e-07 2.0718626e-07 2.3375685e-07 2.1519003e-07 3.4759336e-07 5.8143473e-07
4.568555e-07 2.7360306e-07 2.073147e-06 3.246928e-07 4.0384205e-07 7.6548184e-07 1.8510184e-06 3.6979938e-07
00000000: c6ad 6635 7ec2 3b34 2f32 b634 ed76 5e34
00000010: 98fe 7a34 fc0e 6734 de9c ba34 e413 1c35
00000020: be45 f534 b8e3 9234 6520 0b36 7051 ae34
00000030: a1cf d834 837b 4d35 8270 f835 d788 c634

exp_avg f4 [16]
3.7645107e-06 -3.2135875e-05 1.7997798e-05 6.2757535e-05 -5.5773507e-06 -1.9696568e-05 2.5026264e-05 2.067613e-05
-3.5994413e-05 3.7358013e-06 -1.7242277e-06 2.4915098e-05 2.4155148e-07 4.1847794e-05 8.909379e-06 -4.7144895e-05
00000000: cda1 7c36 a2c9 06b8 faf9 9637 b29c 8338
00000010: 1425 bbb6 0f3a a5b7 7eef d137 a771 ad37
00000020: b5f8 16b8 94b4 7a36 036c e7b5 c400 d137
00000030: 95ae 8134 ba85 2f38 7e79 1537 72bd 45b8

exp_avg_sq f4 [16]
4.685663e-10 1.2795759e-09 4.466151e-09 3.6368142e-09 3.9279394e-10 1.5179978e-09 1.5784126e-09 5.364232e-10
1.3957286e-09 1.0143621e-09 4.354905e-09 2.0874937e-09 1.7401036e-09 1.6257296e-09 1.073801e-09 2.3729003e-09
00000000: 6ccc 0030 13dd af30 ae74 9931 83eb 7931
00000010: d5f0 d72f cda1 d030 75ef d830 6d73 1330
00000020: d6d3 bf30 b269 8b30 26a2 9531 9473 0f31
00000030: 7428 ef30 4670 df30 0495 9330 8110 2331

exp_avg f4 [32, 16, 3]
-0.00024723998 0.0005097609 -6.970837e-05 0.00015785561 9.6829004e-05 -0.00012854779 -6.802504e-05 0.00025924997
4.735423e-05 -0.00060369767 0.00030189476 0.00033985416 0.00024852224 -0.00038892738 0.00049008476 0.00029528327
0.00022184216 -0.000179814 -3.483347e-05 -0.00030789062 0.00027547768 -0.00010243811 6.698214e-05 9.3508024e-05
-0.00013179386 -0.0001644178 0.000104500556 -0.0002485922 -0.00029784537 0.0003641699 0.00036893543 -0.00013479676
1.3107205e-05 -0.00020421942 1.8127354e-05 0.00062844134 -0.00017096073 -0.00021006716 0.0004562478 0.0001907464
8.898009e-05 -0.00016402108 0.00041801395 -0.00017457668 -0.00022188676 0.00018343401 0.000335063 -0.0005255991
-0.00048344256 0.00067275524 0.00049664656 0.0004718678 0.00037855812 0.0001794427 -0.0007224857 0.00032600516
-1.1962481e-05 -0.000621756 -0.00018048187 0.0006634418 0.0006443157 9.817655e-05 0.0006296406 -4.6703968e-05
0.00026717858 -0.00036308984 0.00014154054 -3.6866197e-05 0.00061181077 -0.00083306263 -0.0002929957 -0.0003078558
-0.0001686502 -0.00076613174 -0.00035107724 0.00012325047 -0.0003493855 0.00054797786 0.0005482917 -0.00023273598
-0.00032644934 -0.00061374606 -3.111662e-05 0.00073435134 0.00014932855 -7.2390816e-05 0.00078514975 0.000567075
0.00069232 0.00036327128 0.0001853808 -0.0002921204 -0.00040978467 -0.00022526114 0.00068279007 -0.00026188526
0.00036315346 -0.00023390698 9.5761345e-05 7.988347e-06 -0.0002898094 2.7729911e-05 0.00044912187 -0.00018326829
0.00014081184 0.00028796645 7.9788995e-05 -9.5097894e-05 -6.107266e-05 0.00033630195 -0.00043761986 -8.195072e-05
-0.00020758853 0.00011168302 -8.636298e-05 0.00027193004 -0.000105327395 0.00020431691 -0.00012082978 -0.00014882373
-0.00022216002 0.00014586656 -8.675327e-05 7.034495e-05 0.00036040132 -0.00026529987 -0.00030979037 9.506509e-05
0.00012040811 0.00029949643 0.00028888742 -0.00028839408 7.930553e-05 0.00030463084 -0.00052197557 -0.00016748336
9.990433e-05 7.670674e-05 -0.0004114719 0.00013393334 0.00048998254 2.01696e-05 -0.00032292478 0.00030239698
-0.0005640126 0.00053857936 0.0004128641 -7.509861e-05 0.00050462317 0.00038310402 -0.0006668179 5.628956e-05
1.3998671e-05 -0.0005933299 -4.581369e-05 0.00056887063 0.00059279276 -0.00050939823 0.00012349474 -0.00017179597
0.0004627311 -0.00051318365 0.0004140082 -0.00015628783 0.0004390841 -0.00064802065 -0.0003432974 0.00013883592
-0.00010073718 -0.00064877875 -0.00035976936 0.00045596153 -0.0005422296 0.0006127984 0.00034561448 4.4192475e-05
-0.00039584984 -0.00037905166 -0.00048760255 0.0003161933 0.00015043195 -0.000535719 0.00063465635 0.00062706973
0.0005991462 -0.00015432382 0.00049766625 0.00044897682 -0.00074789237 -0.00032400957 0.0009052299 -0.00032357423
0.00015895639 -0.0002959194 0.0004436727 0.00016295108 -0.000252816 6.59936e-05 0.00025141027 -0.0002918134
-0.00010181617 0.00025242608 -0.00020868146 0.00017163025 0.0001296066 0.0003306086 -0.0003805291 4.2977365e-05
-4.937142e-05 -7.809438e-05 -4.464701e-05 -6.1728395e-05 -6.859664e-06 0.00040606305 -0.00020258455 -0.00038083832
-7.786489e-05 0.00015995534 -2.4680916e-05 7.5740514e-05 0.00018723992 -0.0003879374 -3.4760604e-05 0.0002380267
0.00018573798 0.0003609592 1.0011676e-05 -0.000101503945 0.00019152276 0.00014843281 -0.00031476442 -0.00024194326
-0.00011345461 0.00039290244 -0.0003478898 0.00017038101 0.0001450601 -0.0002623261 -0.00024423038 0.0001518147
0.00017577248 0.00026646667 -0.00023978061 0.00012603308 0.00018106718 -4.5586774e-05 -1.6458402e-05 9.146492e-05
-0.00042098097 8.821904e-05 0.00027290246 -0.0003029474 -0.00015223496 -0.0001853316 0.00041575546 0.00030659576
00000000: fd9f 81b9 7aa1 053a 6530 92b8 0b86 2539
00000010: ad10 cb38 c9ca 06b9 aaa8 8eb8 f1eb 8739
00000020: 389e 4638 7741 1eba a147 9e39 742e b239
00000030: 174c 8239 f3e8 cbb9 0879 003a 40d0 9a39
00000040: 4d9e 6839 748c 3cb9 271a 12b8 616c a1b9
00000050: fd6d 9039 0bd4 d6b8 c378 8c38 bd19 c438
00000060: 2532 0ab9 9167 2cb9 4f27 db38 7b55 82b9
00000070: 2128 9cb9 0eee be39 ad6d c139 3b58 0db9
00000080: 04e7 5b37 bc23 56b9 3210 9837 fcbd 243a
00000090: ec43 33b9 7945 5cb9 8b34 ef39 1903 4839
000000a0: d29a ba38 13fd 2bb9 e228 db39 920e 37b9
000000b0: 46aa 68b9 3158 4039 65ab af39 5cc8 09ba
000000c0: 9076 fdb9 d75b 303a 6331 023a 0665 f739
000000d0: 3679 c639 c828 3c39 3265 3dba aceb aa39
000000e0: 77b2 48b7 57fd 22ba bc3f 3db9 d3ea 2d3a
000000f0: 4be7 283a 22e4 cd38 770e 253a 01e4 43b8
00000100: 1a14 8c39 185d beb9 806a 1439 c7a0 1ab8
00000110: ed61 203a e361 5aba 389d 99b9 b567 a1b9
00000120: b1d7 30b9 3bd6 48ba ca10 b8b9 cc3c 0139
00000130: ba2d b7b9 2ca6 0f3a 3cbb 0f3a 970a 74b9
00000140: 4a27 abb9 cde3 20ba 3783 02b8 7c81 403a
00000150: 1495 1c39 86d0 97b8 82d2 4d3a c2a7 143a
00000160: cf7c 353a 7275 be39 c862 4239 bd27 99b9
00000170: 5ed8 d6b9 1434 6cb9 44fd 323a a54d 89b9
00000180: a265 be39 ed44 75b9 7bd3 c838 b005 0637
00000190: 8ff1 97b9 889d e837 1e78 eb39 b52b 40b9
000001a0: e4a6 1339 34fa 9639 6454 a738 4b6f c7b8
000001b0: 2214 80b8 af51 b039 5870 e5b9 f5dc abb8
000001c0: 1fac 59b9 5d37 ea38 c61d b5b8 d591 8e39
000001d0: 37e3 dcb8 e73d 5639 ff65 fdb8 910d 1cb9
000001e0: a0f3 68b9 c2f3 1839 4fef b5b8 2886 9338
000001f0: 3ff4 bc39 f217 8bb9 5c6b a2b9 ae5d c738
00000200: 9d83 fc38 bb05 9d39 d075 9739 9933 97b9
00000210: d550 a638 dcb6 9f39 30d5 08ba 799e 2fb9
00000220: bb83 d138 9edd a038 d3ba d7b9 7570 0c39
00000230: 2c72 003a e331 a937 3b4e a9b9 098b 9e39
00000240: 3fda 13ba 732f 0d3a ae75 d839 427e 9db8
00000250: b048 043a 5adb c839 64cd 2eba 7418 6c38
00000260: d6db 6a37 b289 1bba 1328 40b8 4320 153a
00000270: a665 1b3a 2389 05ba 5e7e 0139 2124 34b9
00000280: b89a f239 2c87 06ba 3d0f d939 32e1 23b9
00000290: df34 e639 eedf 29ba 99fc b3b9 7c94 1139
000002a0: dd42 d3b8 ce12 2aba 6d9f bcb9 1f0e ef39
000002b0: 6a24 0eba 34a4 203a 9733 b539 4f5b 3938
000002c0: 118a cfb9 74bb c6b9 e8a4 ffb9 bfc6 a539
000002d0: 45bd 1d39 7e6f 0cba 115f 263a f061 243a
000002e0: 0510 1d3a fcd1 21b9 d175 023a a664 eb39
000002f0: 350e 44ba d4df a9b9 f34c 6d3a 66a5 a9b9
00000300: 88ad 2639 a125 9bb9 be9c e839 d9dd 2a39
00000310: 648c 84b9 0b66 8a38 b7cf 8339 88fe 98b9
00000320: 2486 d5b8 0e58 8439 81d1 5ab9 a5f7 3339
00000330: 02e7 0739 8955 ad39 c081 c7b9 9842 3438
00000340: 2914 4fb8 9ac6 a3b8 5d43 3bb8 2e74 81b8
00000350: 112c e6b6 dce4 d439 e06c 54b9 41ab c7b9
00000360: 654b a3b8 afb9 2739 dd09 cfb7 e1d6 9e38
00000370: d555 4439 1464 cbb9 eacb 11b8 ce96 7939
00000380: a9c2 4239 203f bd39 d2f7 2737 84de d4b8
00000390: 80d3 4839 a1a4 1b39 f706 a5b9 26b2 7db9
000003a0: 7bee edb8 79fe cd39 fb64 b6b9 4ea8 3239
000003b0: 461b 1839 d088 89b9 0c0c 80b9 7330 1f39
000003c0: 914f 3839 8db4 8b39 9e6d 7bb9 bf27 0439
000003d0: dadc 3d39 6d34 3fb8 2610 8ab7 dbd0 bf38
000003e0: 1cb7 dcb9 3d02 b938 5914 8f39 e9d4 9eb9
000003f0: 43a1 1fb9 9355 42b9 c1f9 d939 96be a039

exp_avg_sq f4 [32, 16, 3]
3.496547e-07 5.36945e-07 1.7457089e-07 1.7407963e-07 2.5614625e-07 2.5347845e-07 3.0762538e-07 3.869329e-07
1.8443686e-07 4.0642868e-07 2.8231264e-07 3.0021607e-07 2.0145163e-07 2.8842942e-07 4.3238703e-07 2.7834915e-07
2.8641446e-07 3.3715926e-07 2.1450188e-07 2.3296718e-07 2.8605643e-07 3.193079e-07 2.419999e-07 1.799829e-07
1.9715392e-07 2.7575362e-07 1.7939608e-07 1.9416592e-07 3.5427078e-07 4.765875e-07 3.7044813e-07 1.6583068e-07
2.318767e-07 3.67536e-07 2.4714566e-07 4.2369012e-07 1.7082387e-07 2.5801242e-07 5.5649986e-07 2.1807628e-07
1.5119711e-07 2.1817502e-07 4.7400434e-07 2.2594824e-07 3.899813e-07 2.2759495e-07 3.075994e-07 4.5962705e-07
4.5294433e-07 6.9615567e-07 2.8990883e-07 5.007918e-07 7.746663e-07 4.5821716e-07 5.87361e-07 4.3197568e-07
2.9035726e-07 4.790125e-07 3.593157e-07 4.3777493e-07 3.9393072e-07 4.4318634e-07 4.784586e-07 3.8412452e-07
4.904684e-07 5.971736e-07 6.0513986e-07 5.2479317e-07 6.043724e-07 9.483793e-07 5.3113695e-07 4.2791865e-07
6.4961404e-07 1.1217033e-06 5.7181103e-07 3.0688489e-07 4.5718951e-07 8.461423e-07 9.779768e-07 6.578347e-07
5.9782565e-07 5.778806e-07 4.0818153e-07 6.817071e-07 2.9626437e-07 3.9117404e-07 8.835428e-07 8.319975e-07
8.121053e-07 5.052109e-07 6.125005e-07 2.192451e-07 5.9413713e-07 3.9152968e-07 7.2565314e-07 5.388017e-07
2.1413156e-07 2.648752e-07 1.2395436e-07 1.1130019e-07 1.2948837e-07 1.1314342e-07 2.0205992e-07 2.103655e-07
1.3245169e-07 2.5349573e-07 1.7282198e-07 1.8675874e-07 1.1723582e-07 2.4388342e-07 2.109892e-07 1.2689173e-07
1.7678445e-07 1.927687e-07 1.00744565e-07 1.4809378e-07 1.5233718e-07 1.61489e-07 1.4426537e-07 1.5074947e-07
1.0127221e-07 1.3085904e-07 1.1581231e-07 1.1538839e-07 2.2480341e-07 2.1637807e-07 1.4438707e-07 1.0820005e-07
1.2132416e-07 2.3608973e-07 1.2825198e-07 2.2478659e-07 1.2760457e-07 1.6020435e-07 2.4530897e-07 1.2088915e-07
1.02878154e-07 1.9630697e-07 2.7320715e-07 1.1360541e-07 2.3214751e-07 1.1668481e-07 2.2295251e-07 2.9598542e-07
6.904932e-07 1.1121225e-06 2.9630726e-07 6.336207e-07 1.0021081e-06 4.3109503e-07 7.743156e-07 5.1059004e-07
3.8725366e-07 6.5530713e-07 3.7079207e-07 6.1179236e-07 4.9817993e-07 5.8326964e-07 7.7542137e-07 3.0801556e-07
5.198446e-07 7.2158537e-07 3.7336727e-07 4.02471e-07 6.8863466e-07 1.027637e-06 3.477894e-07 5.2365226e-07
6.7673875e-07 1.2418711e-06 4.5565972e-07 3.2851327e-07 8.080264e-07 1.177333e-06 1.0705961e-06 4.9506593e-07
6.740161e-07 6.61598e-07 3.954907e-07 8.089354e-07 3.015374e-07 6.4286735e-07 1.4727136e-06 8.152282e-07
7.386163e-07 4.356559e-07 7.8880106e-07 3.335478e-07 9.1744204e-07 4.8917894e-07 1.0108702e-06 6.609717e-07
3.0050427e-07 3.0280788e-07 4.4054482e-07 2.0758554e-07 2.2243596e-07 3.3331438e-07 2.811875e-07 2.968553e-07
2.2618711e-07 2.8715573e-07 3.5091676e-07 3.040915e-07 4.3130615e-07 2.609345e-07 2.7792507e-07 2.9820086e-07
2.3801294e-07 2.6825361e-07 2.312135e-07 2.4763506e-07 1.9344205e-07 2.5829823e-07 3.772993e-07 2.3295324e-07
2.5926087e-07 2.150921e-07 3.38528e-07 3.8692943e-07 2.8727683e-07 3.1137594e-07 2.7732958e-07 3.8428837e-07
2.6173444e-07 3.3595254e-07 3.1188273e-07 2.840529e-07 4.7648018e-07 2.5604885e-07 2.80316e-07 2.344563e-07
2.461725e-07 2.892889e-07 4.3849192e-07 3.3968038e-07 2.9043954e-07 4.043114e-07 2.857074e-07 3.8357155e-07
4.947461e-07 1.6691389e-07 3.270707e-07 4.201034e-07 2.3192177e-07 2.8410412e-07 2.7180025e-07 2.7702933e-07
3.8456233e-07 2.1878128e-07 2.4048197e-07 3.7732747e-07 3.0811466e-07 3.7735524e-07 2.0896013e-07 2.8176612e-07
00000000: 2db8 bb34 9422 1035 ae71 3b34 a5ea 3a34
00000010: 7984 8934 d015 8834 b627 a534 a7bb cf34
00000020: 9e09 4634 2233 da34 c190 9734 622d a134
00000030: 9a4e 5834 70d9 9a34 d222 e834 0470 9534
00000040: 81c4 9934 d102 b534 d451 6634 8825 7a34
00000050: 4c93 9934 586d ab34 37ec 8134 5341 4134
00000060: 42b1 5334 4a0b 9434 05a0 4034 ec7b 5034
00000070: 9b32 be34 b0dd ff34 01e2 c634 310f 3234
00000080: c8f9 7834 c351 c534 71af 8434 8777 e334
00000090: b56b 3734 f584 8a34 6162 1535 5a28 6a34
000000a0: bf58 2234 7e43 6a34 a97a fe34 2e9c 7234
000000b0: 9f5e d134 d360 7434 2424 a534 a9c2 f634
000000c0: 322c f334 74df 3a35 c4a4 9b34 276e 0635
000000d0: aaf2 4f35 e300 f634 24ab 1d35 49ea e734
000000e0: 66e2 9b34 7d95 0035 f9e7 c034 5407 eb34
000000f0: 6d7d d334 11ef ed34 6d6f 0035 ac39 ce34
00000100: bba8 0335 754d 2035 e570 2235 83df 0c35
00000110: 283c 2235 2194 7e35 7493 0e35 b1bc e534
00000120: 2361 2e35 6f8d 9635 8e7e 1935 f0c1 a434
00000130: a673 f534 7522 6335 0743 8335 0e96 3035
00000140: 447a 2035 a71f 1b35 0b24 db34 8efe 3635
00000150: 440e 9f34 8d02 d234 992c 6d35 6f56 5f35
00000160: 74ff 5935 d49d 0735 b76a 2435 a269 6b34
00000170: cb7c 1f35 6e33 d234 81ca 4235 2ca2 1035
00000180: 09ec 6534 2c34 8e34 5118 0534 ed03 ef33
00000190: 7e09 0b34 41f9 f233 cff5 5834 d4e0 6134
000001a0: 0b38 0e34 3018 8834 f290 3934 da87 4834
000001b0: 13c3 fb33 15ef 8234 458c 6234 bc3f 0834
000001c0: 24d2 3d34 dbfb 4e34 e958 d833 b503 1f34
000001d0: 2092 2334 c265 2d34 5de7 1a34 b3dd 2134
000001e0: fc7a d933 4282 0c34 7eb4 f833 70cb f733
000001f0: 7e61 7134 8d55 6834 d108 1b34 9b5b e833
00000200: 5545 0234 da7f 7d34 a3b5 0934 de5c 7134
00000210: ad03 0934 a304 2c34 02b3 8334 c2cd 0134
00000220: dded dc33 73c8 5234 4ead 9234 3cf7 f333
00000230: 3944 7934 2794 fa33 b864 6f34 ede7 9e34
00000240: 555a 3935 3d44 9535 2914 9f34 1516 2a35
00000250: 2c80 8635 4071 e734 90da 4f35 7b0f 0935
00000260: bde7 cf34 5de8 2f35 4611 c734 0d3a 2435
00000270: aaba 0535 fc91 1c35 8d26 5035 565d a534
00000280: 738b 0b35 f8b2 4135 3573 c834 3113 d834
00000290: 9dda 3835 57ed 8935 d0b7 ba34 1c91 0c35
000002a0: 22a9 3535 5eae a635 65a1 f434 855e b034
000002b0: 27e7 5835 db04 9e35 67b1 8f35 ace4 0435
000002c0: 09ee 3435 ab98 3135 d453 d434 9e25 5935
000002d0: fce2 a134 8291 2c35 0eaa c535 0ed6 5a35
000002e0: 5345 4635 17e4 e934 ffbd 5335 7612 b334
000002f0: 2346 7635 1f50 0335 3cad 8735 a16d 3135
00000300: fe54 a134 9991 a234 0584 ec34 aee4 5e34
00000310: bbd6 6e34 61f2 b234 1ef6 9634 7b5f 9f34
00000320: d7dd 7234 622a 9a34 a265 bc34 0442 a334
00000330: 448e e734 9116 8c34 bb35 9534 6a18 a034
00000340: 8090 7f34 7f04 9034 7c43 7834 b4f2 8434
00000350: f2b4 4f34 3dac 8a34 9f8f ca34 b321 7a34
00000360: 8b30 8b34 11f4 6634 efbe b534 2dbb cf34
00000370: 073b 9a34 2f2b a734 e3e3 9434 3150 ce34
00000380: 8284 8c34 f75c b434 d670 a734 ef7f 9834
00000390: f0ce ff34 1677 8934 567e 9634 dbbe 7b34
000003a0: b129 8434 904f 9b34 df69 eb34 515d b634
000003b0: b5ed 9b34 2310 d934 5363 9934 aced cd34
000003c0: b1ce 0435 f138 3334 4198 af34 928a e134
000003d0: 2c06 7934 f986 9834 f1eb 9134 9fba 9434
000003e0: d875 ce34 24ea 6a34 971b 8134 7e93 ca34
000003f0: f56a a534 4f97 ca34 865e 6034 a445 9734

exp_avg f4 [32]
3.2349948e-05 -6.2569634e-05 1.2782643e-05 -2.1552248e-06 5.7485744e-05 1.1651391e-05 -2.6409241e-05 5.836054e-06
1.4508335e-05 -5.7922352e-05 5.268595e-06 -3.3289125e-06 2.8487895e-05 -2.5071044e-05 -3.2118096e-05 2.5428066e-05
-9.1432135e-05 -7.0818e-06 3.4109467e-05 6.429879e-06 -1.1956148e-05 -8.001001e-06 2.3537865e-05 -4.457646e-05
-2.3556417e-05 1.8325065e-05 -3.286826e-05 -3.933409e-05 5.9003727e-05 -5.9940267e-06 -3.2825274e-06 2.285029e-05
00000000: 7eaf 0738 d137 83b8 0975 5637 7ba2 10b6
00000010: d91c 7138 587a 4337 6a89 ddb7 52d3 c336
00000020: d368 7337 a7f1 72b8 e3c8 b036 4866 5fb6
00000030: 4af9 ee37 a84f d2b7 8bb6 06b8 5b4e d537
00000040: 41bf bfb8 33a0 edb6 c310 0f38 3dc0 d736
00000050: 4497 48b7 0a3c 06b7 2e73 c537 9cf7 3ab8
00000060: 059b c5b7 c7b8 9937 07dc 09b8 a8fa 24b8
00000070: c57a 7738 4c20 c9b6 6449 5cb6 a0ae bf37

exp_avg_sq f4 [32]
2.468129e-09 3.3894252e-09 5.3205734e-10 4.889392e-10 3.592414e-09 4.2293763e-10 2.9556038e-09 1.2060157e-09
1.1456902e-09 1.7984014e-09 3.6248335e-09 1.1808705e-09 9.1694674e-10 1.4067285e-09 7.399187e-10 3.0743166e-09
4.593939e-09 8.361539e-10 3.9942316e-09 7.2476236e-10 2.0610034e-09 2.1328235e-09 9.2046615e-10 2.3055464e-09
3.2026544e-09 8.9236457e-10 2.2313846e-09 2.586921e-09 3.6071044e-09 9.346375e-10 1.4238587e-09 2.3473332e-09
00000000: c99b 2931 66eb 6831 3540 1230 0a66 0630
00000010: 6ade 7631 2e83 e82f 881b 4b31 e8c0 a530
00000020: 6476 9d30 a02b f730 bf18 7931 304c a230
00000030: 640c 7c30 dc56 c130 2663 4b30 f343 5331
00000040: b7d8 9d31 1ad7 6530 a23d 8931 9e38 4730
00000050: 8ea1 0d31 0791 1231 0c04 7d30 9a6f 1e31
00000060: b115 5c31 934a 7530 ef56 1931 98c5 3131
00000070: dae0 7731 a274 8030 93b1 c330 b94e 2131

exp_avg f4 [64, 32, 3]
-0.00027032866 0.0001795662 -0.00012407328 -0.00033536964 0.00014521088 -6.687033e-05 8.415399e-06 -0.00012229223
-6.2065235e-05 -0.00046665073 1.2425941e-06 -0.00021844282 -0.00020179394 -2.192013e-05 -0.00041303964 -0.00022556068
-0.0003369991 7.33618e-05 -6.512835e-05 -0.00012958726 -0.00031348004 0.00077160343 9.748069e-07 0.0002683846
0.00010163098 -2.0150424e-05 0.00026480996 0.00016084986 -4.248286e-05 5.4395015e-05 0.00014757972 0.00017837514
-1.0635549e-05 -0.0002543928 -6.57948e-05 0.000112480215 0.0004928529 -0.00040926045 -3.976049e-05 -0.00017492568
5.1398838e-05 -0.00041747108 9.1169604e-05 0.00018385249 0.00016830211 7.286399e-05 -0.00013647877 -7.726638e-06
-0.00035319568 -0.00018587745 -4.5074554e-05 -2.658624e-05 -0.0004126335 0.00038985343 0.00013722657 -0.0002733831
0.00021459688 7.3883864e-05 0.00030118297 1.8846202e-05 -2.3905315e-05 0.00031190636 -0.00022973788 -0.0003506214
8.053697e-05 0.00023165467 0.00019352471 0.0001042381 -8.649446e-05 -8.3577084e-05 0.00010498115 2.0559663e-05
7.6256445e-05 -8.463761e-05 0.00040909517 -0.00011620427 -0.00017288211 0.00051577075 -0.00011835363 -0.00013658463
6.299007e-05 -0.00010415988 -4.5665296e-05 -0.0003392157 0.00039883063 2.9163695e-05 0.00018742199 -0.00010087168
-1.2339648e-06 0.0002730698 0.0003972722 0.00031666868 0.00012593502 0.00027695394 2.7384624e-05 -0.00015139082
-4.3247314e-06 9.0866306e-05 4.902506e-05 -0.0001281672 7.2436465e-05 6.073085e-06 -4.5355628e-05 2.3031537e-06
1.323129e-05 -6.391042e-05 -9.275705e-06 -2.209794e-05 3.472502e-06 -2.6836678e-05 -0.00017234976 6.556652e-05
-7.81022e-05 -0.000111472764 -4.4387358e-05 -7.0424335e-06 -0.00013827272 6.0844886e-06 0.00015715923 0.00016535232
-1.46638995e-05 5.6622044e-05 3.7174555e-05 1.0029405e-05 4.3869284e-05 -7.5002305e-07 1.2885332e-05 0.00020130374
8.3176616e-05 -1.4044061e-05 -0.0001425691 -3.005071e-05 0.00011979976 -7.241107e-05 -0.00013787099 -7.8076446e-05
-0.00013732302 -0.00011614671 -6.1175575e-05 0.00020208082 9.8265526e-05 -6.192763e-05 6.471355e-05 1.24423195e-05
-0.000104280036 -2.887748e-05 -0.00012770199 9.21778e-05 -0.00015242936 -2.4463889e-05 4.6786347e-05 -4.0101255e-05
-6.692482e-05 -1.3334415e-05 2.5380123e-05 7.483648e-05 -5.8649406e-05 8.9651214e-05 2.7873964e-05 -2.50511e-05
-3.535464e-05 -3.767185e-05 -0.00013167334 3.9172333e-05 7.631562e-05 8.3057654e-05 -5.8436424e-05 -9.806698e-05
-7.518133e-05 -1.0250973e-05 0.00016600743 3.5478137e-05 -1.6455771e-05 0.0002007379 -3.8440303e-05 -5.845996e-05
-5.9562793e-05 -5.0424384e-05 4.4879336e-05 -0.00019943535 0.00015451772 -2.1419106e-05 6.269971e-05 -1.1178609e-05
-4.8798127e-05 2.288027e-05 6.5200365e-05 2.23811e-05 6.94881e-05 0.0001383532 5.943037e-05 2.9185654e-05
-1.8641616e-05 -0.00014228153 1.2929783e-05 -9.1476984e-05 -6.3331405e-05 8.560487e-05 2.9515562e-05 -2.0342655e-05
-0.00010340945 -9.7205906e-05 -0.0002164594 -6.855846e-05 -0.0002276735 -9.899986e-05 -4.055762e-05 -1.7748227e-05
-0.00018773713 -9.9395154e-05 -0.00013002266 -6.8813846e-05 -0.00014063173 0.0002571406 0.0003140517 -8.18585e-05
0.0001521188 -3.374124e-05 -3.1293748e-05 2.9948922e-05 8.269281e-06 5.1781557e-05 9.237786e-06 8.12556e-05
-8.091709e-05 -4.6235316e-05 -6.2708765e-05 7.496606e-05 8.853854e-05 3.1763167e-05 -0.00015150628 -0.00027606598
1.3672482e-05 5.0156752e-05 0.000115099814 -2.8240904e-05 6.45373e-05 -3.143671e-06 3.983269e-05 -7.14558e-05
2.570632e-05 -0.0001978159 -5.3740183e-05 0.00015399019 -9.5375006e-05 -7.754162e-05 0.00018249745 1.6882217e-05
-6.986023e-05 9.768615e-06 3.9706152e-05 9.870095e-05 -0.00014224557 4.8650818e-05 3.4871406e-05 1.9086634e-05
00000000: e6ba 8db9 ef49 3c39 ab19 02b9 8dd4 afb9
00000010: c043 1839 bc3c 8cb8 dd2f 0d37 923b 00b9
00000020: 0529 82b8 cda8 f4b9 35c7 a635 cc0d 65b9
00000030: a698 53b9 1fe1 b7b7 3e8d d8b9 7c84 6cb9
00000040: 41af b0b9 d1d9 9938 8495 88b8 d1e1 07b9
00000050: 945a a4b9 6e45 4a3a 1cd6 8235 f9b5 8c39
00000060: b822 d538 b508 a9b7 31d6 8a39 cea9 2839
00000070: a02f 32b8 3426 6438 a1bf 1a39 360a 3b39
00000080: 566f 32b7 0660 85b9 50fb 89b8 5be3 eb38
00000090: cc32 013a 0292 d6b9 80c4 26b8 416c 37b9
000000a0: 1595 5738 05e0 dab9 4f32 bf38 87c8 4039
000000b0: 417a 3039 8fce 9838 be1b 0fb9 a8a1 01b7
000000c0: 1f2d b9b9 19e8 42b9 6f0e 3db8 8405 dfb7
000000d0: bb56 d8b9 3e65 cc39 7ae4 0f39 dc54 8fb9
000000e0: 6905 6139 19f2 9a38 18e8 9d39 e917 9e37
000000f0: 4688 c8b7 5d87 a339 cbe5 70b9 9cd3 b7b9
00000100: f5e5 a838 54e8 7239 e5ec 4a39 679a da38
00000110: 5c64 b5b8 1b46 afb8 5329 dc38 8a77 ac37
00000120: deeb 9f38 797f b1b8 d37b d639 b1b2 f3b8
00000130: b047 35b9 ca34 073a 9f34 f8b8 2838 0fb9
00000140: 8919 8438 6970 dab8 bd88 3fb8 c3d8 b1b9
00000150: 241a d139 8fa4 f437 b586 4439 128b d3b8
00000160: b59e a5b5 cf2a 8f39 f948 d039 8d06 a639
00000170: 6d0d 0439 2134 9139 08b8 e537 aabe 1eb9
00000180: 291d 91b6 7a8f be38 42a0 4d38 9f64 06b9
00000190: 08e9 9738 67c7 cb36 3c3c 3eb8 e18f 1a36
000001a0: f5fb 5d37 a507 86b8 da9e 1bb7 f75e b9b7
000001b0: 2109 6936 541f e1b7 c9b8 34b9 c280 8938
000001c0: cdca a3b8 7cc6 e9b8 902c 3ab8 0b4e ecb6
000001d0: 4dfd 10b9 5c29 cc36 1ccb 2439 6d62 2d39
000001e0: f804 76b7 757d 6d38 e0eb 1b38 f743 2837
000001f0: 4900 3838 3155 49b5 142e 5837 1015 5339
00000200: 1b6f ae38 c89e 6bb7 9a7e 15b9 6915 fcb7
00000210: 023d fb38 66db 97b8 7691 10b9 f9bc a3b8
00000220: 5efe 0fb9 ca93 f3b8 634b 80b8 a8e5 5339
00000230: e713 ce38 25df 81b8 d3b6 8738 5bbf 5037
00000240: ebb0 dab8 eb3d f2b7 bee7 05b9 944f c138
00000250: 72d5 1fb9 cd37 cdb7 753c 4438 6532 28b8
00000260: fd59 8cb8 e0b6 5fb7 66e7 d437 87f1 9c38
00000270: 52fe 75b8 2103 bc38 e2d2 e937 d424 d2b7
00000280: c149 14b8 d701 1eb8 cb11 0ab9 f94c 2438
00000290: a30b a038 3d2f ae38 a219 75b8 4fa9 cdb8
000002a0: abaa 9db8 98fb 2bb7 4812 2e39 5cce 1438
000002b0: 800a 8ab7 2b7d 5239 f63a 21b8 e732 75b8
000002c0: 10d3 79b8 c57e 53b8 d23c 3c38 851f 51b9
000002d0: 0906 2239 2ead b3b7 a77d 8338 c38b 3bb7
000002e0: 97ac 4cb8 01ef bf37 2ebc 8838 0cbf bb37
000002f0: 24ba 9138 e812 1139 e044 7938 b7d3 f437
00000300: 9160 9cb7 6831 15b9 ffec 5837 55d7 bfb8
00000310: cad0 84b8 c486 b338 3098 f737 85a5 aab7
00000320: 87dd d8b8 06db cbb8 61f9 62b9 0bc7 8fb8
00000330: a4bb 6eb9 259e cfb8 6a1c 2ab8 07e2 94b7
00000340: 4ddb 44b9 5e72 d0b8 b156 08b9 2750 90b8
00000350: 8b76 13b9 d4d0 8639 4ea7 a439 73ab abb8
00000360: 1482 1f39 6185 0db8 6841 03b8 d23a fb37
00000370: 4bbc 0a37 0630 5938 fdfb 1a37 c567 aa38
00000380: 08b2 a9b8 cbec 41b8 8382 83b8 1937 9d38
00000390: c4ad b938 7139 0538 a8dd 1eb9 f3bc 90b9
000003a0: dd62 6537 675f 5238 be61 f138 e1e6 ecb7
000003b0: 3358 8738 dbf7 52b6 0612 2738 8ada 95b8
000003c0: e7a3 d737 cd6c 4fb9 1567 61b8 6d78 2139
000003d0: 1104 c8b8 d79d a2b8 c95c 3f39 499e 8d37
000003e0: ed81 92b8 e2e3 2337 288a 2638 abfd ce38
000003f0: c127 15b9 6b0e 4c38 e342 1238 3c1c a037
