exp/auto-conv/2-classes/version_3/checkpoints/epoch=99.ckpt (torch_old, 15523 bytes, 21 tensors)

exp_avg f4 [32, 3, 3]
000000 b0 6e 1d b9 51 02 81 39 e1 8e 9d b8 4b cf 0d ba
       -0.00015013921 0.00024606523 -7.512957e-05 -0.0005409612
000010 1c ca ad 39 3a 5f b3 b7 cf e1 32 b9 8e 6c eb b7
       0.00033147715 -2.1382806e-05 -0.00017059523 -2.8064733e-05
000020 04 66 1f b7 42 fd ad b9 42 83 d2 39 79 e0 12 3a
       -9.500891e-06 -0.00033185823 0.00040152116 0.0005602907
000030 70 c1 bd b9 6c d5 b1 38 6e 23 a3 3a 85 1d fd 38
       -0.0003619301 8.4797706e-05 0.0012446472 0.000120694785
000040 36 48 4b 39 dc 9c 7e b8 43 28 85 b8 63 4f 26 b9
       0.0001938649 -6.0704406e-05 -6.3494335e-05 -0.00015860568
000050 51 b9 b5 b8 74 92 ac b8 ff 99 6f 39 85 bf 20 b9
       -8.6652704e-05 -8.228878e-05 0.00022850184 -0.00015330136
000060 72 f8 1e b8 5e e8 ff b8 9d 62 48 b7 29 cc c7 38
       -3.790152e-05 -0.00012202629 -1.1943889e-05 9.527087e-05
000070 32 90 52 b8 e4 ee 1a b9 eb 13 11 39 01 95 49 39
       -5.0202194e-05 -0.00014775578 0.00013835698 0.00019224362
000080 30 5e 29 b9 17 a6 fe 37 d3 4d 26 b8 e9 23 d9 b7
       -0.00016152184 3.0356501e-05 -3.9649964e-05 -2.5885138e-05
000090 23 2d 8b 37 f6 c7 9f 38 4c 9d e3 39 d4 32 8e b9
       1.659111e-05 7.6189564e-05 0.0004341401 -0.0002712222
0000a0 09 bb 1f b9 ef f7 63 3a be e2 c3 39 f4 95 8d b9
       -0.00015233098 0.0008696308 0.00037362234 -0.0002700534
0000b0 a7 f7 03 b9 18 bd 37 b9 3e 81 f5 38 c6 bb d2 b9
       -0.00012585391 -0.00017522683 0.000117065836 -0.00040194223
0000c0 35 30 0a b9 bf 26 df 38 46 01 36 b8 13 36 85 b9
       -0.00013178664 0.00010640686 -4.3393367e-05 -0.00025408025
0000d0 ee 16 98 38 36 12 2f 39 3d 4b 6b 39 c0 58 90 38
       7.252196e-05 0.00016696085 0.00022439375 6.882986e-05
0000e0 f3 88 88 39 d1 64 a7 39 59 3b 2d b9 f7 9f 30 39
       0.00026041977 0.00031927836 -0.00016520674 0.0001684426
0000f0 2f f3 8d b7 e4 57 6a b8 80 03 24 39 6f 72 d6 39
       -1.6921751e-05 -5.5871802e-05 0.00015641563 0.0004090252
000100 14 40 01 3a cd 4d 2e b9 7a e7 35 b9 59 94 05 ba
       0.0004930508 -0.00016622916 -0.00017347737 -0.0005095653
000110 fc 15 79 39 09 33 5a 39 7a fd 9c 39 26 13 22 b9
       0.0002375468 0.00020809112 0.00029943493 -0.00015456657
000120 6f c7 71 38 80 c7 d2 39 38 12 36 b9 52 23 7f b9
       5.7644615e-05 0.0004020296 -0.0001736366 -0.00024331853
000130 a1 8d 23 ba c2 6c be 39 f8 c9 16 3a b8 51 50 39
       -0.0006239061 0.00036320655 0.00057521416 0.00019866868
000140 dd 27 91 39 23 c1 bd 39 3e c3 27 b9 e8 bf f8 37
       0.00027686256 0.00036192787 -0.00015999094 2.9653267e-05
000150 0e b6 3b 39 37 02 10 b9 ae 14 9c 38 df c1 ae 39
       0.0001790153 -0.00013733735 7.4425116e-05 0.0003333231
000160 ba 69 82 b9 12 e8 8f 39 d0 2e ed b7 20 4a c0 b8
       -0.00024874305 0.0002744799 -2.82744e-05 -9.16908e-05
000170 5d 28 54 39 1e ac 00 b8 fe 87 84 38 61 36 04 39
       0.00020232932 -3.0677875e-05 6.319581e-05 0.00012608759
000180 81 40 0d b9 1b 40 85 b6 0f 7a 43 b8 42 b5 32 b9
       -0.00013470837 -3.9711717e-06 -4.66053e-05 -0.00017042927
000190 13 25 cc b8 38 7f 9b b9 5e f3 cc 38 cd a5 0a ba
       -9.734384e-05 -0.0002965869 9.772809e-05 -0.00052889885
0001a0 37 91 2b ba 03 40 01 38 90 73 2d b9 17 07 c5 38
       -0.0006544771 3.0815612e-05 -0.00016541616 9.3950126e-05
0001b0 3e a3 ec 37 6b 1f df b9 11 38 a7 b9 24 33 0d b9
       2.8209408e-05 -0.00042557283 -0.00031894495 -0.00013465859
0001c0 2a 1f 31 b9 28 f7 64 38 70 92 95 b8 8d fd 21 b9
       -0.00016891645 5.458962e-05 -7.13215e-05 -0.00015448612
0001d0 01 c2 50 39 1a a3 44 b9 e8 8f b0 37 71 78 c5 b8
       0.00019908698 -0.00018752777 2.1047847e-05 -9.416126e-05
0001e0 25 fc 50 b9 c7 0f c7 b8 25 27 1e 3a 3d 90 4c 38
       -0.00019930357 -9.491998e-05 0.00060330547 4.8771723e-05
0001f0 3b b4 79 b8 ce 72 32 38 1f 0b bf b8 08 8e ac b8
       -5.953408e-05 4.2545427e-05 -9.109661e-05 -8.2280545e-05
000200 7c c9 dd b9 65 8c 80 b9 69 54 f6 b9 40 8c 36 ba
       -0.00042302522 -0.00024518665 -0.00046983667 -0.0006963648
000210 0e d0 71 38 35 fb 07 ba c5 f7 26 b9 ad ab b8 39
       5.7652644e-05 -0.0005187274 -0.00015923295 0.00035223123
000220 f5 52 17 38 df 9d 79 39 6e cb bd 39 af 9f 26 39
       3.6078465e-05 0.00023805302 0.00036200456 0.0001589048
000230 43 b1 02 b9 db b3 35 39 68 7a ed 38 da 0b 8a b8
       -0.00012463801 0.00017328507 0.000113238406 -6.58256e-05
000240 f2 91 9d 38 83 5e 18 3a f8 d9 4f b9 39 26 f9 39
       7.513528e-05 0.0005812423 -0.00019822258 0.0004752146
000250 d8 38 f5 b9 56 7c 1e b9 88 cf ed 38 c9 8b 79 39
       -0.00046772393 -0.00015114373 0.00011339696 0.00023798565
000260 f2 2f 8e b8 df b9 e0 b9 d1 c7 11 b9 89 e5 1e 39
       -6.780018e-05 -0.00042863094 -0.00013902715 0.00015153563
000270 0b 05 12 b8 95 21 ef 39 f6 17 a2 b9 b7 79 f2 b6
       -3.481381e-05 0.00045610653 -0.000309169 -7.2263315e-06
000280 2a ec 70 b9 04 4b b3 37 28 2d 53 3a c5 42 07 ba
       -0.00022976162 2.1373395e-05 0.000805574 -0.0005159791
000290 95 84 a6 b8 29 39 12 38 30 49 f7 b9 30 b5 ae ba
       -7.940192e-05 3.4862347e-05 -0.0004716604 -0.0013329145
0002a0 c1 d9 8e b8 21 b7 05 ba 3e 57 18 b9 b1 e1 94 b9
       -6.8116475e-05 -0.00051008357 -0.0001452835 -0.00028396913
0002b0 f9 ab 1d b9 7b 98 35 b9 09 a1 9d b9 f8 3d f4 39
       -0.00015036752 -0.00017318309 -0.00030065354 0.00046585477
0002c0 cf ab a6 b9 d2 b8 1b ba 1a f7 60 b9 10 fb e0 b8
       -0.00031789995 -0.0005940321 -0.00021454357 -0.000107279164
0002d0 1d 5b 93 b9 00 bf 87 b9 2b 26 af 37 de aa 08 38
       -0.0002810591 -0.00025891513 2.0879399e-05 3.258406e-05
0002e0 b0 36 13 39 ff 07 41 38 4c 74 50 39 4f e4 2e 37
       0.00014039385 4.6022233e-05 0.0001987975 1.0424365e-05
0002f0 81 99 e9 b9 cc e3 20 39 22 ad bb 38 fe 36 de b9
       -0.00044555592 0.0001534365 8.949103e-05 -0.00042384112
000300 da 26 30 b8 2f 7a 43 b9 93 4e 80 b9 b1 3d 21 b9
       -4.1997853e-05 -0.00018642166 -0.00024472605 -0.00015377138
000310 2f 1a 49 b9 74 2f 4e b9 05 1d 99 39 d6 44 c2 b8
       -0.00019178608 -0.00019663369 0.00029204055 -9.2634626e-05
000320 a9 12 2c 39 38 18 33 39 b7 e4 83 39 20 24 50 b9
       0.0001641015 0.00017079792 0.00025156673 -0.00019849883
000330 84 4d 7f b8 75 a6 08 38 a3 58 a3 b8 5f ec cc b8
       -6.086893e-05 3.2579952e-05 -7.7889556e-05 -9.7715056e-05
000340 53 c2 2a b8 fa c1 f2 b9 98 ec 96 b8 af 4b 87 b9
       -4.0712137e-05 -0.0004630236 -7.1966264e-05 -0.00025805595
000350 13 37 07 39 60 d6 b5 38 aa f3 1e b9 ed dd 1b 3a
       0.0001289512 8.670683e-05 -0.00015158826 0.000594585
000360 69 a0 83 39 f4 7b 26 b7 c3 7a 14 39 e7 3b 08 36
       0.00025105782 -9.923231e-06 0.00014160112 2.0300447e-06
000370 13 2c 2a b9 04 45 80 37 e2 1a 7e 39 f5 09 5a b9
       -0.00016228882 1.5290927e-05 0.00024233342 -0.0002079381
000380 0a a9 2e 39 fd 90 6f 38 a0 52 46 39 f3 2e 75 39
       0.00016656905 5.711707e-05 0.00018913532 0.0002338251
000390 c3 62 3f 39 f4 d9 c9 39 af 70 88 b9 a2 66 0a b8
       0.00018251971 0.00038500095 -0.00026023897 -3.2997348e-05
0003a0 1b ef 37 39 16 56 81 b7 7d 2c a5 b9 a3 ac 8d 39
       0.00017541314 -1.5418085e-05 -0.000315044 0.0002702224
0003b0 66 82 10 ba 9a 30 32 39 98 0b 87 39 93 09 10 b9
       -0.0005512595 0.00016993508 0.00025757845 -0.00013736477
0003c0 2d 54 96 b9 93 bf f3 39 ad 1f 66 b9 da 42 5c 39
       -0.00028672945 0.00046491306 -0.0002194631 0.00021005739
0003d0 c0 03 80 38 8d 2b 75 39 ff 9d 5d 39 e9 d4 28 39
       6.104214e-05 0.00023381245 0.0002113506 0.00016101044
0003e0 37 36 56 b9 ee 22 d5 b8 c4 bf 3e 34 41 6b 0d b9
       -0.00020428827 -0.000101631376 1.7764893e-07 -0.00013486763
0003f0 c6 92 df 38 89 58 af b8 0b 91 ee b8 5b 98 92 b8
       0.00010660807 -8.361141e-05 -0.00011375741 -6.990201e-05

exp_avg_sq f4 [32, 3, 3]
000000 9c f7 40 35 cf 37 1d 35 71 09 71 35 4a 89 3b 35
       7.188589e-07 5.856827e-07 8.9793235e-07 6.986271e-07
000010 9f 8b 15 35 0b 53 46 35 c7 78 2e 35 9d 6b 1a 35
       5.571e-07 7.388159e-07 6.4995805e-07 5.752607e-07
000020 a1 0e 1c 35 a3 87 04 36 f8 ae de 35 55 7a 57 36
       5.8135817e-07 1.9748484e-06 1.6591212e-06 3.2108703e-06
000030 0c b5 e4 35 72 20 f4 35 60 4b 47 36 70 9c bf 35
       1.7040015e-06 1.818886e-06 2.9697185e-06 1.4276138e-06
000040 ba 92 18 36 a3 10 3a 36 85 6e ed 34 9e 7a af 34
       2.273517e-06 2.7725844e-06 4.4225104e-07 3.2685506e-07
000050 f3 df 72 34 f3 e2 e0 34 6d 42 97 34 5f 5c 91 34
       2.2619479e-07 4.188838e-07 2.8174273e-07 2.7075563e-07
000060 fb cc be 34 38 1e 99 34 d8 6e 79 34 46 81 b0 34
       3.55394e-07 2.8520458e-07 2.3230257e-07 3.2876613e-07
000070 cb e3 96 34 a0 6a 88 34 81 eb b0 34 ab 0b b0 34
       2.8105418e-07 2.5409554e-07 3.2953906e-07 3.2791044e-07
000080 00 f5 96 34 9a 2a a3 34 cc 42 89 34 8a 0e 9a 34
       2.8117938e-07 3.0392113e-07 2.556684e-07 2.8695314e-07
000090 7e df 96 35 0a 5e eb 35 df 7a d6 35 6e 0b 84 35
       1.1240916e-06 1.7536233e-06 1.5980003e-06 9.838093e-07
0000a0 17 8f b9 35 18 27 c7 35 4e 8e b6 35 70 94 e3 35
       1.3825219e-06 1.4838033e-06 1.3601473e-06 1.6956019e-06
0000b0 09 2e c5 35 a3 03 3c 35 eb e9 14 35 f5 81 6f 35
       1.4691042e-06 7.004075e-07 5.547469e-07 8.922355e-07
0000c0 87 a0 4d 35 ff 71 20 35 80 f0 41 35 9d e4 56 35
       7.660205e-07 5.977053e-07 7.2248076e-07 8.005389e-07
0000d0 bc b1 25 35 41 fb 48 35 b7 b5 f7 34 21 00 22 35
       6.172593e-07 7.487143e-07 4.613955e-07 6.034989e-07
0000e0 fd 23 dd 34 13 be cc 34 23 5a ed 34 9b 2d b2 34
       4.1190643e-07 3.8136258e-07 4.4210273e-07 3.3188266e-07
0000f0 46 47 d6 34 0e 01 f1 34 40 70 d1 34 25 35 8b 35
       3.9912464e-07 4.4890515e-07 3.9010956e-07 1.0371774e-06
000100 76 a6 ec 35 53 3d 6e 35 32 65 81 35 55 32 bb 35
       1.7631817e-06 8.875115e-07 9.640701e-07 1.3947234e-06
000110 ed bb 70 35 51 2f 91 35 34 3c b4 35 0d 83 49 35
       8.9680435e-07 1.0817113e-06 1.3428566e-06 7.506904e-07
000120 01 3e e6 35 82 08 b3 35 d7 e3 b3 35 3a 23 ff 35
       1.7154381e-06 1.3339015e-06 1.3402849e-06 1.9009233e-06
000130 89 a1 ba 35 72 68 cf 35 65 4c f6 35 18 16 9a 35
       1.3905093e-06 1.5453099e-06 1.8350662e-06 1.1480324e-06
000140 9e 45 cd 35 57 65 cd 34 3c d2 9e 34 d4 cb 0d 35
       1.5293951e-06 3.825796e-07 2.958276e-07 5.28232e-07
000150 b0 79 8f 34 11 b7 a8 34 6b 34 0f 35 30 29 be 34
       2.6724365e-07 3.1425637e-07 5.334793e-07 3.5420226e-07
000160 c2 3a c4 34 d9 df 0d 35 2f a4 8e 33 03 3d 9f 33
       3.6550597e-07 5.2852334e-07 6.642255e-08 7.4151124e-08
000170 18 30 ad 33 17 46 9c 33 a4 66 a6 33 f0 59 9b 33
       8.0646885e-08 7.277065e-08 7.7486476e-08 7.2341095e-08
000180 e8 4f ba 33 0c 71 d1 33 1f 4c b9 33 57 f7 73 35
       8.675835e-08 9.752884e-08 8.62858e-08 9.088448e-07
000190 2e 0b 57 35 85 94 a7 35 f8 b3 56 35 c9 83 7b 35
       8.011001e-07 1.2485694e-06 7.99831e-07 9.369656e-07
0001a0 72 d3 ba 35 a7 95 78 35 b8 8a 53 35 65 a6 84 35
       1.3919619e-06 9.260497e-07 7.880549e-07 9.883194e-07
0001b0 d4 92 d2 35 56 a4 aa 35 b9 37 12 36 3e ed bf 35
       1.5688952e-06 1.2713815e-06 2.178813e-06 1.4299656e-06
0001c0 9b 7e bb 35 e2 71 16 36 bb bc a8 35 43 4d b5 35
       1.3969433e-06 2.241803e-06 1.2571903e-06 1.3508037e-06
0001d0 4f c9 f1 35 a6 c8 90 35 52 61 8d 35 2a 28 d0 35
       1.8014488e-06 1.0787232e-06 1.0533643e-06 1.5508897e-06
0001e0 b4 f8 7d 35 ea c3 9d 35 0a 40 bc 35 56 fe 71 35
       9.4611755e-07 1.175443e-06 1.4025729e-06 9.0149604e-07
0001f0 7d 02 86 35 d5 62 b5 35 bc 50 a5 35 d8 9a 7f 35
       9.984502e-07 1.3514315e-06 1.2316955e-06 9.522023e-07
000200 96 ff 11 36 9c 6a 6b 35 25 f6 86 35 dc 9f 11 36
       2.1755454e-06 8.769946e-07 1.0055415e-06 2.1699734e-06
000210 f3 01 90 35 cd 94 95 35 d4 41 0b 36 80 24 c6 34
       1.0729403e-06 1.1144672e-06 2.075093e-06 3.690693e-07
000220 d8 4b c4 34 ce 03 21 35 66 47 ea 34 ea 05 ca 34
       3.6563029e-07 5.998271e-07 4.3637846e-07 3.7629735e-07
000230 b4 b9 23 35 09 be c0 34 4c 88 fc 34 6f 78 3d 35
       6.0992465e-07 3.5901056e-07 4.7037827e-07 7.058324e-07
000240 f4 66 bc 35 48 d9 dc 35 d9 b8 b2 35 17 48 cb 35
       1.4037055e-06 1.6454514e-06 1.3315831e-06 1.514566e-06
000250 fd d9 c0 35 92 47 b2 35 9d d6 b7 35 0d 22 a7 35
       1.4368558e-06 1.3282863e-06 1.3697023e-06 1.245238e-06
000260 d1 9b a7 35 c8 ee 73 35 67 6b 1a 35 d4 c1 04 35
       1.2487818e-06 9.0872027e-07 5.752576e-07 4.945589e-07
000270 41 9b 67 35 cf f8 01 35 5d b2 f0 34 ab ad 7b 35
       8.628013e-07 4.841831e-07 4.483326e-07 9.3757507e-07
000280 33 42 09 35 d2 47 12 35 fc a0 e8 35 1c 7d 0c 36
       5.113281e-07 5.449375e-07 1.73322e-06 2.093445e-06
000290 93 8f 0c 36 c2 fc e2 35 5f 1d 10 36 f2 3a 0d 36
       2.0945197e-06 1.6911874e-06 2.1474768e-06 2.1044948e-06
0002a0 db 7d fb 35 04 db 11 36 3c 52 03 36 be fc f8 34
       1.8737586e-06 2.1734168e-06 1.9568388e-06 4.6377494e-07
0002b0 83 94 b2 34 63 15 f1 34 62 ad 0f 35 72 9c e3 34
       3.326314e-07 4.490531e-07 5.3523956e-07 4.2395874e-07
0002c0 3e 5f 1f 35 71 0d 18 35 cb da b6 34 bf f2 00 35
       5.937071e-07 5.664397e-07 3.4059335e-07 4.803696e-07
0002d0 ea 70 46 35 aa 01 22 35 12 49 1b 35 8c 98 4a 35
       7.392506e-07 6.0352124e-07 5.784833e-07 7.547285e-07
0002e0 71 66 22 35 35 be 41 35 bc b9 1e 35 04 e7 3c 35
       6.0498775e-07 7.217489e-07 5.9129866e-07 7.037163e-07
0002f0 74 47 53 35 08 50 98 34 09 82 c2 34 1f 2d ba 34
       7.8707603e-07 2.8370437e-07 3.622993e-07 3.467803e-07
000300 71 4c a4 34 d6 e1 ac 34 5e 1b 96 34 13 8e a4 34
       3.0603e-07 3.2201814e-07 2.795959e-07 3.0650753e-07
000310 ab 06 9e 34 35 cf ab 34 4a 57 99 34 e3 49 92 34
       2.9434645e-07 3.2001995e-07 2.8561982e-07 2.724838e-07
000320 c5 ed 0a 35 c7 2c ad 34 5e 9c a8 34 10 83 bc 34
       5.1755006e-07 3.225634e-07 3.140621e-07 3.511309e-07
000330 ca f3 96 34 3b 01 c3 34 60 91 f8 34 c9 6f df 35
       2.8117057e-07 3.6322476e-07 4.6299374e-07 1.6647328e-06
000340 fa a0 ad 35 8d fc bc 35 35 42 dd 35 f2 93 8c 35
       1.2936355e-06 1.4080593e-06 1.6485052e-06 1.0473871e-06
000350 d1 19 d1 35 24 c7 e6 35 92 a9 b7 35 9d 58 db 35
       1.5579227e-06 1.7194293e-06 1.3683914e-06 1.6342561e-06
000360 d6 99 e7 34 a7 f7 d1 34 55 73 e5 34 cb f4 e5 34
       4.3139033e-07 3.9109474e-07 4.273849e-07 4.2832684e-07
000370 80 ce e9 34 44 53 fa 34 51 f0 c0 34 f5 02 04 35
       4.354988e-07 4.6626712e-07 3.593764e-07 4.9178135e-07
000380 e0 53 dc 34 1d 29 a5 34 67 25 c5 34 e9 59 e7 34
       4.103922e-07 3.076356e-07 3.6721323e-07 4.309252e-07
000390 2c 56 95 34 d8 37 d1 34 5b b6 c1 34 b9 87 97 34
       2.781611e-07 3.8969915e-07 3.6081732e-07 2.8224693e-07
0003a0 de 1d c6 34 e7 d4 ba 34 3f 04 1b 35 27 65 30 35
       3.6902105e-07 3.4800107e-07 5.774818e-07 6.5712305e-07
0003b0 d3 b2 10 35 ab 30 1e 35 56 ed 1d 35 da ef 1d 35
       5.3904404e-07 5.893041e-07 5.8832427e-07 5.883609e-07
0003c0 12 68 15 35 7d 68 1c 35 41 8b 11 35 cb 9c dd 34
       5.565827e-07 5.826658e-07 5.421935e-07 4.127854e-07
0003d0 aa e0 e3 34 80 8c 0b 35 3c 33 fb 34 df d2 de 34
       4.244551e-07 5.198599e-07 4.678967e-07 4.150415e-07
0003e0 46 9a 17 35 5b 1d e5 34 18 30 c4 34 91 be 07 35
       5.647638e-07 4.2675933e-07 3.6542838e-07 5.056873e-07
0003f0 df bd 1d 35 c3 87 0d 35 ac 03 1a 35 2c 79 31 35
       5.8763356e-07 5.272415e-07 5.7374814e-07 6.6113967e-07

exp_avg f4 [32]
000000 46 28 97 38 b9 84 dd 38 54 32 d8 b8 95 93 ad b7
       7.2077426e-05 0.00010562823 -0.00010309057 -2.069193e-05
000010 bb b2 82 b9 87 31 e7 38 e8 e5 2e 39 4a fd c8 37
       -0.00024928697 0.000110241635 0.0001667958 2.3959805e-05
000020 c3 ec 9f b8 7a 32 13 39 5d 2b 33 38 58 e4 3e b8
       -7.625811e-05 0.00014037816 4.271731e-05 -4.551219e-05
000030 54 ea ce b7 2d 38 fd 38 4f f1 ba b9 f9 f4 4c 37
       -2.4666231e-05 0.00012074444 -0.00035656473 1.2216385e-05
000040 70 36 13 38 2f 58 4c b9 e2 cc 00 39 8b 83 0d b9
       3.509823e-05 -0.00019487807 0.00012283356 -0.00013495811
000050 a9 0d 8f 39 05 88 e6 b7 fe 91 37 38 42 f3 84 38
       0.00027285263 -2.7481476e-05 4.3766566e-05 6.339561e-05
000060 7e 95 2b 38 ba b0 05 b7 41 47 2b b8 f9 3b 85 b6
       4.0908802e-05 -7.968565e-06 -4.0835937e-05 -3.9706906e-06
000070 14 75 1e 39 6e 36 7d 38 15 63 d8 b8 8b 2b b6 39
       0.00015111669 6.0370592e-05 -0.00010318138 0.00034746187

exp_avg_sq f4 [32]
000000 e5 72 88 34 56 ed c9 34 c9 11 41 34 f2 fd a6 33
       2.541557e-07 3.7611852e-07 1.7980996e-07 7.77617e-08
000010 6c c9 a5 34 7b 28 44 34 62 41 17 34 f3 9e 68 35
       3.08802e-07 1.8268649e-07 1.4086757e-07 8.6658036e-07
000020 53 8f 02 35 8d 47 fb 33 26 37 32 33 19 a6 0d 35
       4.863734e-07 1.1701113e-07 4.1494012e-08 5.2768297e-07
000030 49 96 25 35 10 19 14 35 bf ec 85 35 b8 07 3d 34
       6.1685984e-07 5.5170767e-07 9.978174e-07 1.7604805e-07
000040 cb 0e 05 34 b2 60 8a 34 49 4e 2c 35 11 c0 9c 34
       1.2391972e-07 2.5774858e-07 6.4188913e-07 2.919701e-07
000050 7a 42 62 34 81 14 17 34 cd ed 8e 33 a5 7b 92 34
       2.1072074e-07 1.407043e-07 6.655646e-08 2.7284582e-07
000060 15 22 b4 33 71 eb e3 33 b0 ab 9d 34 66 0f c5 33
       8.388103e-08 1.0613338e-07 2.9368448e-07 9.176328e-08
000070 f3 a1 86 34 bb 60 93 33 3d 4a 7b 34 d6 ac 07 35
       2.5077279e-07 6.862816e-08 2.3403204e-07 5.054293e-07

exp_avg f4 [1, 32, 3]
000000 e0 17 ae 3a 7d 56 33 3b 4b e1 53 b9 da 0e 03 3a
       0.0013282262 0.0027364783 -0.00020206456 0.00049994665
000010 a4 b8 e8 3a 57 e5 54 3b a7 a3 95 3a de b0 38 b7
       0.0017755223 0.003248533 0.001141657 -1.1008435e-05
000020 57 23 41 3a a3 56 84 3a a1 8b c2 b9 f6 75 a5 39
       0.0007367632 0.001009662 -0.00037106595 0.0003155914
000030 69 d0 b6 ba 63 b6 8c ba 27 c8 d4 ba 5f 81 bf ba
       -0.0013947609 -0.0010735508 -0.0016233966 -0.0014610699
000040 1c 51 cf 3a 73 73 8f b9 c8 15 97 3a 52 91 91 38
       0.0015817019 -0.00027361102 0.0011526877 6.941207e-05
000050 b4 a3 a2 ba 7e 77 30 3a c3 dc cb 3a d3 ab 55 3a
       -0.0012408406 0.0006731673 0.0015553463 0.0008150909
000060 0c 7c 59 39 75 3e c1 3a 83 80 25 3a 08 98 b9 b9
       0.00020740944 0.0014743345 0.00063134 -0.00035399222
000070 f4 92 97 3a 00 c4 71 ba 26 25 63 3a 38 2c ce 3a
       0.0011564181 -0.00092226267 0.00086648983 0.0015729731
000080 b7 d0 4e 3b 16 92 1b b8 7b 14 a6 3a 12 6d 72 3a
       0.003155751 -3.7090933e-05 0.0012670899 0.000924782
000090 7b a5 ac 36 f4 3b 33 39 36 bf 87 37 a5 49 e5 37
       5.145264e-06 0.00017093105 1.6182294e-05 2.733322e-05
0000a0 34 9c 56 3a fb 4d b4 39 46 dd a1 39 d4 ef a1 3a
       0.0008186728 0.00034390375 0.00030873175 0.00123548
0000b0 ba 77 8d 3a ea 6d 65 3a 4f 6f 0e 3b ae c9 68 3a
       0.0010793128 0.0008752035 0.0021733826 0.000888015
0000c0 a1 da 56 3a 16 8a a7 39 b2 c2 7f b8 00 10 1f 3a
       0.00081960304 0.00031955604 -6.097806e-05 0.0006067753
0000d0 8d c6 a8 3a 1b 47 00 3b eb 08 ca ba 6f 4c 04 3b
       0.0012876556 0.0019573632 -0.0015414035 0.002018716
0000e0 70 fd 65 3b bc b7 ea 3a 9d 3e dd 3a 40 ae 17 3b
       0.0035093687 0.001790754 0.0016879622 0.0023144633
0000f0 e8 cc 97 39 bb c5 b3 39 4f 7a e4 3a 34 ed 27 3a
       0.0002895363 0.0003428886 0.001743147 0.00064058905
000100 17 a4 56 3a 8a 4e b0 b8 10 57 2f ba 16 09 1e 3a
       0.00081879034 -8.406963e-05 -0.00066886935 0.00060285756
000110 cb b5 dc 39 19 97 ec 3a ab 49 88 3a 08 7c 9e 3a
       0.00042097116 0.0018050402 0.0010397931 0.0012091408
000120 40 f6 ff 39 25 aa 74 b8 e2 0d a5 38 f1 7e 9e 39
       0.0004882086 -5.8332593e-05 7.870399e-05 0.00030230687
000130 f4 6d 07 3b 61 86 a9 3a 22 20 2f 38 1b 75 20 b8
       0.0020664902 0.0012933725 4.1753177e-05 -3.8256036e-05
000140 a8 a8 72 39 64 ae 4b 3a 00 d7 29 3a e3 9b f7 3a
       0.00023141748 0.00077698217 0.0006478876 0.0018891062
000150 e2 ee 1d 3a 92 37 e6 3a 54 ed d0 39 03 a7 ef b9
       0.0006024671 0.0017564169 0.00039849675 -0.00045710066
000160 3c 32 c2 39 9b dd 8c 3a 03 83 bc ba 39 1e d6 3a
       0.0003703999 0.0010747196 -0.0014382306 0.0016335911
000170 3a 81 8f b9 5d 3c 6a 3a 91 4c 33 3b 78 bc 19 3b
       -0.00027371367 0.00089353864 0.002735887 0.0023458283

exp_avg_sq f4 [1, 32, 3]
000000 d1 b4 e8 37 6f bb 93 37 b2 be c0 37 02 48 aa 37
       2.7740754e-05 1.7611046e-05 2.2976983e-05 2.029911e-05
000010 0f 09 ce 37 93 14 e6 37 dc e5 10 38 b5 dc 12 38
       2.4561332e-05 2.7427717e-05 3.454635e-05 3.5014662e-05
000020 8a 3b 13 38 f7 c6 60 37 49 9b 4d 37 e8 b4 44 37
       3.510298e-05 1.33977655e-05 1.2255107e-05 1.1724631e-05
000030 2a 0b a0 37 7f f2 a0 37 12 f3 a5 37 c0 0d bb 37
       1.9078685e-05 1.9186407e-05 1.9782721e-05 2.229854e-05
000040 5d 55 93 37 99 50 da 37 90 d1 b3 37 38 ec f5 37
       1.7563516e-05 2.6025156e-05 2.1436048e-05 2.9316274e-05
000050 f7 28 92 37 1c c1 e1 36 f1 50 7e 37 95 24 f6 36
       1.7423632e-05 6.7280034e-06 1.5158425e-05 7.33563e-06
000060 bd e2 9c 37 bd 3b ed 37 c9 a1 93 37 50 2d 4e 37
       1.8702232e-05 2.828042e-05 1.7599103e-05 1.2289107e-05
000070 75 a7 5c 37 62 38 71 37 72 87 93 37 12 b8 a5 37
       1.3152011e-05 1.4377847e-05 1.7586837e-05 1.9755247e-05
000080 91 d1 b2 37 57 7a 7d 37 a7 2d 9c 37 e9 57 af 37
       2.131684e-05 1.510846e-05 1.8617908e-05 2.0902562e-05
000090 0f 03 5b 37 02 a3 3b 37 ee 69 81 37 0a 66 d9 36
       1.3054129e-05 1.1184022e-05 1.5427326e-05 6.478983e-06
0000a0 bd 42 04 37 f8 28 35 37 c5 2b 88 37 59 6c 70 37
       7.883352e-06 1.07979795e-05 1.6232845e-05 1.4330341e-05
0000b0 93 cf c3 37 b8 1f b9 37 eb 73 bf 37 a8 fb be 37
       2.334247e-05 2.2068489e-05 2.2822953e-05 2.2766952e-05
0000c0 62 89 ac 37 db ee 3e 37 d0 10 17 37 8a 16 0a 38
       2.0567972e-05 1.1380495e-05 9.004216e-06 3.2922755e-05
0000d0 aa 03 e7 37 40 7b 07 38 47 88 07 38 ff 46 52 38
       2.7539052e-05 3.2301294e-05 3.2313426e-05 5.0134022e-05
0000e0 68 2a 94 38 df a5 8a 37 a8 d5 15 37 be d4 33 37
       7.065089e-05 1.6528122e-05 8.930838e-06 1.0718764e-05
0000f0 3b 91 7a 37 7f 5a b0 37 35 07 ca 37 49 44 d5 36
       1.4934975e-05 2.1022975e-05 2.4083633e-05 6.355844e-06
000100 37 a7 cf 36 49 f0 d3 36 3d b8 d2 36 10 fa 10 37
       6.188547e-06 6.316263e-06 6.279936e-06 8.641291e-06
000110 f6 3c f4 36 b1 31 0c 38 3b 20 07 38 2d 97 05 38
       7.2788634e-06 3.342488e-05 3.2216525e-05 3.1850464e-05
000120 69 13 9f 37 3c 1d a8 37 28 ba 8f 37 15 b4 d9 37
       1.8963316e-05 2.0040774e-05 1.7133614e-05 2.5952273e-05
000130 95 b4 1b 38 02 20 38 38 ee 66 31 36 54 45 5c 36
       3.712306e-05 4.3898828e-05 2.6434968e-06 3.282291e-06
000140 cc 64 38 36 bb b0 ae 37 08 8d cc 37 c8 88 b9 37
       2.7476808e-06 2.0824713e-05 2.4384368e-05 2.2117412e-05
000150 12 bc 5f 37 fd 88 2f 37 08 89 73 37 0c d7 6c 37
       1.3335624e-05 1.0462708e-05 1.4515834e-05 1.4116766e-05
000160 77 97 3c 37 e7 c1 57 37 80 e0 a1 37 a4 61 eb 37
       1.1240939e-05 1.2860145e-05 1.9297237e-05 2.805965e-05
000170 41 1f b4 37 86 12 3e 37 29 43 93 37 54 2a 23 37
       2.1472226e-05 1.1329195e-05 1.755504e-05 9.725412e-06

exp_avg f4 [1, 32, 3]
000000 b9 12 e6 b8 ab 32 7b b9 3c 17 50 38 25 fe 9e 39
       -0.00010970742 -0.000239561 4.9612703e-05 0.0003032546
000010 8c c8 83 37 9e 10 80 b9 ac 80 ac 39 dc 9e 1f b8
       1.5709804e-05 -0.00024426443 0.00032902265 -3.8056503e-05
000020 ee db 4c b9 5e fc c0 3a 74 16 88 39 3d 15 07 ba
       -0.00019536886 0.0014723649 0.0002595667 -0.0005153006
000030 b4 5d 4b 39 e0 3c c5 b9 b3 2c 9f b9 7a 46 8e 39
       0.00019394496 -0.00037620123 -0.00030360147 0.0002713686
000040 9a 8b 5b 39 12 e9 9e b9 f1 4f f0 b8 43 9e 60 b9
       0.00020937473 -0.0003030976 -0.00011458982 -0.00021421262
000050 c9 41 4e 3a d0 4d cf b9 b6 63 21 b9 68 44 e4 b8
       0.0007868079 -0.00039540092 -0.00015391302 -0.00010884629
000060 d9 e9 5b b9 70 d5 41 b9 e1 fe e3 b9 91 47 94 38
       -0.00020972583 -0.00018485426 -0.00043486714 7.07052e-05
000070 68 0e 63 b9 2c e9 4b b9 6f ae 45 ba 67 63 83 b9
       -0.00021653774 -0.00019446452 -0.0007540946 -0.00025060328
000080 46 bc 57 39 ac de 84 38 b6 38 8d b9 59 c3 87 b8
       0.00020574135 6.335726e-05 -0.0002693587 -6.473688e-05
000090 fb ba 98 b8 5b 9f 90 38 ec 86 77 b9 8a 2d 26 39
       -7.2827526e-05 6.896137e-05 -0.00023606018 0.00015847958
0000a0 00 00 00 00 9d e6 2b ba 28 ca a6 b9 88 c0 41 b9
       0.0 -0.00065574964 -0.00031812605 -0.00018477638
0000b0 1b b6 1b 38 43 ad df b8 bd 44 e9 b8 6a ea 51 b6
       3.712448e-05 -0.00010665741 -0.00011123109 -3.1279874e-06
0000c0 6d 79 47 ba 61 62 18 b9 83 30 4b ba 4c e2 14 37
       -0.00076093414 -0.00014532499 -0.0007751064 8.874176e-06
0000d0 34 79 74 3a ef 76 af 39 eb c8 08 39 02 d9 90 39
       0.0009325922 0.00033467214 0.00013044818 0.00027627504
0000e0 96 1c b7 b9 9b e9 95 b9 79 d7 a9 39 2c 33 c7 b9
       -0.00034925778 -0.00028593544 0.00032394732 -0.00037994364
0000f0 d9 c7 13 3a df c0 af 39 f3 b5 6c 38 c6 78 24 39
       0.00056373846 0.000335223 5.6436238e-05 0.0001568525
000100 4f ca 4c b9 75 16 dc 39 97 b4 d2 39 f7 a6 96 b8
       -0.00019530322 0.00041978402 0.0004018887 -7.183657e-05
000110 36 f7 d3 b8 42 91 a8 37 23 e0 ab b9 b0 0e 0a b9
       -0.00010107311 2.0094802e-05 -0.00032782656 -0.00013166177
000120 83 fb 50 39 78 84 19 3a 52 30 88 b8 a7 90 94 b9
       0.00019930121 0.0005856226 -6.493986e-05 -0.00028336534
000130 ba f1 ee b8 11 e0 13 b9 f3 c1 5d b9 f9 e7 3f b9
       -0.000113937494 -0.00014102484 -0.00021148454 -0.00018301596
000140 35 17 e7 b9 cd e2 91 b9 54 de 4a b9 ce 94 f6 39
       -0.00044077044 -0.00027825535 -0.00019347045 0.00047031644
000150 50 d6 1f 3a 1f d1 6c b9 48 c0 87 37 a2 8b 35 39
       0.00060973037 -0.00022584618 1.6182792e-05 0.00017313522
000160 c8 d6 3a 37 a6 82 0d 3a 61 31 5a ba db cf d7 b8
       1.1136472e-05 0.0005398191 -0.0008323398 -0.00010290715
000170 da 4c 03 ba bb 43 80 8b 1e e1 f6 b8 6b 65 05 0c
       -0.0005008705 -4.9405716e-32 -0.000117721254 1.0276467e-31

exp_avg_sq f4 [1, 32, 3]
000000 e9 eb 39 37 a7 16 bb 35 3f 5d 26 36 d8 08 c8 35
       1.1081786e-05 1.3939178e-06 2.4790204e-06 1.4903735e-06
000010 5c b0 ef 35 fd 0c f2 35 be 3d 89 36 e3 5b 65 34
       1.7858215e-06 1.8034185e-06 4.090106e-06 2.1360715e-07
000020 c5 7d 94 35 00 b6 93 36 f8 d9 85 36 b0 10 05 37
       1.1063463e-06 4.402129e-06 3.989084e-06 7.931303e-06
000030 9b 30 53 35 98 4d d6 35 c6 f3 58 35 3b 2b 8d 35
       7.8674356e-07 1.5966825e-06 8.082101e-07 1.05179e-06
000040 8f 80 65 36 4a 6c cf 35 03 7b 7b 36 92 6d 1e 35
       3.419849e-06 1.5454218e-06 3.7473517e-06 5.901903e-07
000050 06 a1 18 36 cf ea a5 35 92 bf d6 36 a0 32 2b 35
       2.2743493e-06 1.2361796e-06 6.3999987e-06 6.3776133e-07
000060 0d 7f 80 35 93 88 dc 34 19 56 58 35 d6 56 43 36
       9.57372e-07 4.1077564e-07 8.059156e-07 2.910781e-06
000070 e1 95 08 35 64 f1 7d 35 17 eb 9e 37 f1 e8 b1 35
       5.088205e-07 9.4601114e-07 1.894454e-05 1.3255323e-06
000080 8b 79 23 37 cc d8 25 37 d6 3c a2 35 88 4d 41 37
       9.743856e-06 9.885243e-06 1.2087646e-06 1.1521748e-05
000090 b6 f5 d1 34 a1 53 1d 36 fb 46 bd 35 9f 70 e3 35
       3.9108062e-07 2.3443502e-06 1.4102255e-06 1.6945595e-06
0000a0 00 00 00 00 05 66 a5 35 a6 2c 9d 34 58 44 56 36
       0.0 1.232315e-06 2.9276015e-07 3.1928266e-06
0000b0 bd 73 60 35 00 32 91 36 f8 e4 82 37 3c aa 34 36
       8.3614924e-07 4.3271575e-06 1.560383e-05 2.692118e-06
0000c0 07 e6 74 36 4f c9 b5 36 c5 1e 03 36 75 26 b6 36
       3.6492727e-06 5.4176558e-06 1.9538431e-06 5.4284997e-06
0000d0 92 da 91 35 95 9b c9 35 fe 6c 82 35 8d e0 dc 35
       1.0866954e-06 1.5020947e-06 9.717476e-07 1.645663e-06
0000e0 1e 34 70 36 fb 11 96 36 e6 f5 cc 35 66 fb ed 36
       3.5793123e-06 4.4724416e-06 1.527075e-06 7.092417e-06
0000f0 c6 49 16 36 a7 b0 50 36 82 24 a4 36 75 73 92 36
       2.2394684e-06 3.109724e-06 4.891831e-06 4.36458e-06
000100 75 8b b1 34 55 b2 1c 36 2d 85 37 35 c2 5b 3b 36
       3.3070287e-07 2.3349614e-06 6.836661e-07 2.7918582e-06
000110 2f bf cf 35 95 52 20 37 c1 ce 85 35 e4 d4 b3 36
       1.5478344e-06 9.555971e-06 9.969446e-07 5.3593994e-06
000120 9d f3 31 36 18 ca 3a 37 38 8a e6 35 7b dd cc 36
       2.6516857e-06 1.1133518e-05 1.7176562e-06 6.1054575e-06
000130 3c 1e 10 35 59 cc ed 35 6b 99 9a 36 91 b6 ed 35
       5.3688177e-07 1.7717349e-06 4.607418e-06 1.771101e-06
000140 df fc 85 36 1a d6 89 36 42 70 96 36 ed bb bb 35
       3.993147e-06 4.107843e-06 4.483417e-06 1.3987279e-06
000150 08 ac 29 37 2f 0f 62 36 20 4e a0 36 a5 d7 a7 36
       1.0113239e-05 3.3685462e-06 4.7774665e-06 5.002092e-06
000160 75 fe 82 36 2c 45 07 36 dc fd 11 37 9b c9 35 37
       3.9039246e-06 2.015683e-06 8.70178e-06 1.0835381e-05
000170 79 6c e8 35 9f 29 0c 32 15 1c 32 37 3d 89 0f 34
       1.7316917e-06 8.158536e-09 1.0616165e-05 1.336784e-07

exp_avg f4 [32]
000000 37 52 54 ba 19 42 1d b9 0a 8a 02 b9 91 03 82 b8
       -0.0008099409 -0.0001499731 -0.0001244919 -6.199547e-05
000010 63 95 13 b8 bb d2 b8 b9 de 79 80 39 d3 b8 7e 38
       -3.518666e-05 -0.0003525222 0.0002450486 6.073045e-05
000020 a8 52 bc b9 b3 4a 02 3a 53 7c 97 38 1c dd f8 b9
       -0.00035919738 0.00049702375 7.223398e-05 -0.00047466985
000030 aa 30 92 b8 9b b7 f6 b9 fb a5 27 3a ba 1a b2 b9
       -6.970887e-05 -0.00047057573 0.00063952775 -0.00033970719
000040 6f 01 0e ba 4d 4c ce b7 1b 13 5e ba fa 05 14 b9
       -0.0005417084 -2.4592644e-05 -0.0008471475 -0.00014116606
000050 62 1d 30 ba 28 bb 89 37 21 da e9 39 c0 2a 43 ba
       -0.00067182456 1.6418824e-05 0.00044603742 -0.000744503
000060 b9 c1 60 3a 8a 96 95 b8 a7 04 05 37 34 7d 13 3a
       0.0008573789 -7.132914e-05 7.928501e-06 0.00056262617
000070 a3 ce 40 3a ff d7 5d ba 78 0b d2 b9 fb 6c ad b9
       0.000735501 -0.0008462667 -0.00040062866 -0.00033078328

exp_avg_sq f4 [32]
000000 d5 1c ff 36 bd ed d1 35 59 2a 06 36 82 27 35 36
       7.6029487e-06 1.5640904e-06 1.9992206e-06 2.6994098e-06
000010 e0 d0 e1 34 d5 5e be 35 c1 70 f6 35 ce 78 51 36
       4.2061492e-07 1.4183703e-06 1.8361244e-06 3.1213744e-06
000020 88 f1 ee 35 15 08 fa 35 fd 58 5e 37 f1 c9 1c 37
       1.7802677e-06 1.8628804e-06 1.325295e-05 9.345343e-06
000030 ac 2b 14 36 b1 c5 0a 35 bc bb 18 36 3e 48 10 37
       2.207914e-06 5.1696685e-07 2.275904e-06 8.599889e-06
000040 d2 f1 d1 36 7e 8d d9 36 c0 99 0f 36 55 7f 85 36
       6.256837e-06 6.483576e-06 2.1398155e-06 3.9785323e-06
000050 e3 29 15 36 58 1b 6b 35 47 34 30 36 37 b4 e9 36
       2.2227111e-06 8.758411e-07 2.6256473e-06 6.964921e-06
000060 fa 17 1c 37 9a 99 70 36 03 8b 80 36 62 d3 8c 35
       9.303907e-06 3.5852195e-06 3.8308804e-06 1.0492333e-06
000070 a6 dc 98 36 97 c1 c1 35 ca 01 2b 37 8a 6f 4c 36
       4.55564e-06 1.4435963e-06 1.0192811e-05 3.0463293e-06

exp_avg f4 [32, 3, 3]
000000 5f 0c b7 b7 a7 c9 33 b8 2c e1 19 b9 8e a5 83 b8
       -2.182106e-05 -4.286473e-05 -0.000146751 -6.277404e-05
000010 21 bc 0e 38 f9 b1 5e 39 31 de ec 36 59 96 5d b7
       3.4030647e-05 0.0002123787 7.0592146e-06 -1.3207632e-05
000020 e5 85 14 b9 9f f3 17 b9 4f b9 2d 37 ea a0 3e b9
       -0.0001416426 -0.00014491238 1.0354749e-05 -0.00018179757
000030 f2 e3 ad b9 2a 5b a9 38 98 c0 f6 38 a4 ca 86 38
       -0.00033166964 8.0755286e-05 0.000117660675 6.427363e-05
000040 3d 71 93 b8 3b a1 0a b9 6e c2 a8 b5 99 69 c2 b3
       -7.0305985e-05 -0.00013220769 -1.2573562e-06 -9.053037e-08
000050 0e 60 56 37 74 84 9e b9 ac ab d2 b6 0d 6e 09 b9
       1.27777585e-05 -0.00030234794 -6.278473e-06 -0.00013106335
000060 e6 6c d1 38 12 41 37 23 0b a1 00 38 b2 04 67 b8
       9.9861805e-05 9.934229e-18 3.066756e-05 -5.5079065e-05
000070 20 e3 d0 b8 16 58 81 b9 f9 c3 89 39 80 63 c0 b8
       -9.960518e-05 -0.00024670427 0.00026276687 -9.173807e-05
000080 cb 2d 0f 3a de 65 44 35 08 8c b1 b8 f8 84 93 b9
       0.0005461841 7.3163926e-07 -8.4661006e-05 -0.00028137094
000090 ca af 68 38 fb 1a d8 b7 8a 80 d1 38 1f 65 ce b7
       5.5476827e-05 -2.576177e-05 9.989839e-05 -2.4604202e-05
0000a0 6b 67 19 b8 bf 46 87 39 e8 b5 41 38 56 3a bc b5
       -3.6574358e-05 0.00025801916 4.61842e-05 -1.402407e-06
0000b0 1f d3 b6 37 04 4c 43 b8 f5 d7 8e b8 b6 48 5f b8
       2.1794402e-05 -4.6562418e-05 -6.811313e-05 -5.323506e-05
0000c0 88 42 a3 38 4d d4 96 b9 e2 98 9b 39 63 91 e1 b7
       7.784838e-05 -0.00028768406 0.0002967781 -2.6889791e-05
0000d0 f0 0e 24 b8 10 6e 0f b9 b6 a9 6e b8 4b 37 b2 b7
       -3.911456e-05 -0.00013678544 -5.6901677e-05 -2.1245001e-05
0000e0 46 0a 21 b9 8f a2 79 b9 97 05 14 39 17 37 89 39
       -0.00015357984 -0.00023807048 0.00014116462 0.0002617172
0000f0 ed e2 12 39 5d 30 4c 35 c9 38 04 b9 c9 87 0b 38
       0.00014008181 7.60663e-07 -0.00012609655 3.3266642e-05
000100 50 bb 59 b6 b9 03 18 39 f5 8d 05 b9 46 8f 9a 37
       -3.244455e-06 0.00014497236 -0.00012736752 1.8424947e-05
000110 7c 0f 57 b8 61 88 ab 38 6b b3 34 b8 65 51 0d 39
       -5.1274415e-05 8.179318e-05 -4.308244e-05 0.0001347713
000120 46 7e 73 b8 2e b8 45 37 77 23 85 b8 cc 3f 34 b9
       -5.8053316e-05 1.1784998e-05 -6.34854e-05 -0.00017189904
000130 14 cf ef 37 66 a7 52 b7 ea 6f 1d 38 a3 cf a3 b7
       2.8587448e-05 -1.2555951e-05 3.7535945e-05 -1.9527803e-05
000140 91 aa de b7 b3 b2 a9 38 0c a7 8d b7 d0 ed 91 39
       -2.6543888e-05 8.091833e-05 -1.6886297e-05 0.0002783374
000150 40 c6 36 38 d7 96 81 b6 40 4c 17 b8 8b d0 ac 38
       4.3576816e-05 -3.8620597e-06 -3.607222e-05 8.240443e-05
000160 7d 28 09 b7 fb da 87 39 5e a3 99 b8 f6 f0 94 b8
       -8.175263e-06 0.0002591236 -7.326038e-05 -7.1020724e-05
000170 cc 18 2f b9 f2 04 7a b9 13 b4 ec 38 8b f9 87 39
       -0.00016698538 -0.000238437 0.000112868984 0.0002593513
000180 cb 3d 89 b7 d3 d1 4a 33 4b b8 1c b9 32 e8 da b7
       -1.6360447e-05 4.7222624e-08 -0.00014945974 -2.609575e-05
000190 25 9b bf b8 6f bf 32 b9 e8 23 30 b9 b4 8e cc 38
       -9.136488e-05 -0.00017046717 -0.00016798044 9.7540586e-05
0001a0 6c a2 d3 39 d7 00 ac 37 ec 1a 3e 00 21 9d 3c b9
       0.0004036607 2.0504389e-05 5.703459e-39 -0.00017987612
0001b0 12 e8 e3 b7 df 9e d2 b8 c0 ef c1 b7 8a 96 8a 39
       -2.7168575e-05 -0.000100431724 -2.3119035e-05 0.00026433571
0001c0 7e 49 26 ba 79 6b 7b 39 be 1f 6b 38 14 13 cd b7
       -0.00063433487 0.00023977262 5.605793e-05 -2.4446788e-05
0001d0 45 90 d5 b8 c0 b0 d6 37 52 a6 53 b8 16 e4 4a b8
       -0.00010183504 2.5593094e-05 -5.0461218e-05 -4.8372975e-05
0001e0 05 51 e6 b6 54 94 c7 37 a0 b4 78 39 f9 83 1e 38
       -6.863966e-06 2.379172e-05 0.00023718411 3.7793045e-05
0001f0 ed 38 01 00 ee 12 93 b8 7d d5 8f b8 fd 7c 6d b7
       1.12257e-40 -7.013032e-05 -6.858537e-05 -1.4155402e-05
000200 c8 a0 cb 37 56 cf 4d 38 4a 29 8a b9 ab 9f 87 37
       2.4274355e-05 4.9068905e-05 -0.00026352174 1.6167605e-05
000210 ba d4 05 b8 9b 52 9f b8 82 18 0a 37 36 c8 42 37
       -3.1907788e-05 -7.597097e-05 8.231147e-06 1.1609916e-05
000220 77 17 a5 b6 f2 05 79 39 d2 31 25 38 48 49 04 b7
       -4.920115e-06 0.00023748705 3.9385464e-05 -7.884875e-06
000230 80 b2 9c 37 c7 c3 69 38 e2 2a b5 b8 82 32 4f 39
       1.867977e-05 5.573386e-05 -8.63874e-05 0.00019759874
000240 96 4c f0 b8 5d 72 6c 37 07 85 0e b9 3e a2 ce b9
       -0.00011458357 1.4093323e-05 -0.00013591732 -0.00039412262
000250 e9 20 90 38 63 2c 0f 38 ec 4a 89 38 4a 0f 4c b8
       6.872585e-05 3.4135195e-05 6.546624e-05 -4.865163e-05
000260 82 af a3 b8 da 4e bc 38 c4 ae 1c b9 5c 37 a7 39
       -7.8051366e-05 8.979226e-05 -0.00014942425 0.00031893968
000270 36 60 5e 3a a1 86 be b8 6f 35 a4 39 8e 65 45 37
       0.00084829645 -9.0849826e-05 0.0003132033 1.176576e-05
000280 6a 51 cb b8 63 9c 5f 39 77 1d 27 b8 93 b7 9b b8
       -9.694959e-05 0.00021325196 -3.9843344e-05 -7.425169e-05
000290 d4 6c 0c b9 c1 4e 12 39 10 db ac b8 34 28 e4 39
       -0.00013391982 0.00013952983 -8.242403e-05 0.00043517502
0002a0 b1 c3 10 b7 eb 7b 74 b8 1a 5b 3c b9 8f 23 99 b8
       -8.628632e-06 -5.828954e-05 -0.00017963015 -7.302232e-05
0002b0 4b a0 f2 b8 7c ef 85 b9 49 9f 5d 39 03 4c 55 b7
       -0.00011569316 -0.00025546167 0.00021135541 -1.2713487e-05
0002c0 0d e6 01 3a 4a 0a f2 37 a8 19 d5 b7 56 4f 8f b9
       0.000495524 2.885344e-05 -2.5403526e-05 -0.00027334195
0002d0 bc 53 37 b8 fa 65 ad b8 51 4c b6 b8 b8 29 7a 39
       -4.3708584e-05 -8.2682775e-05 -8.692651e-05 0.000238574
0002e0 3b 32 88 b9 e1 28 9f 39 a5 aa 18 b7 7a 17 98 b8
       -0.00025977366 0.000303573 -9.099637e-06 -7.252298e-05
0002f0 bc c0 0e b9 2f 32 96 b8 70 2f 3f b8 9f 15 19 b9
       -0.00013613974 -7.161905e-05 -4.558213e-05 -0.00014599272
000300 c2 ff ae b9 4c f5 3b 39 c3 f0 af 39 db 2a 15 39
       -0.0003337842 0.0001792509 0.00033557983 0.00014225712
000310 d2 d2 ac 36 6d 94 02 b9 93 d8 2e b8 f2 a0 5b b7
       5.150542e-06 -0.00012453059 -4.1686533e-05 -1.309089e-05
000320 85 c3 a6 b7 ec 4e 69 b7 dc fb 61 b9 92 18 db 37
       -1.9879788e-05 -1.3906258e-05 -0.00021551497 2.6118276e-05
000330 79 85 c6 36 a0 42 98 b8 de d2 1e b8 fa c5 e6 b7
       5.916398e-06 -7.260335e-05 -3.786652e-05 -2.7510327e-05
000340 18 b0 93 b8 5d 96 2f b9 0a 55 9d b8 c8 80 70 38
       -7.042306e-05 -0.00016745315 -7.502183e-05 5.7340396e-05
000350 f0 b8 a2 39 85 f5 7e 37 81 c5 77 36 b3 4d 32 b9
       0.00031036837 1.5196744e-05 3.692083e-06 -0.00017004348
000360 36 00 a6 b8 8c f1 b9 b8 b9 b7 3d b9 44 9f 5f 39
       -7.915536e-05 -8.866479e-05 -0.00018092887 0.00021326268
000370 5e 03 d2 b8 4c 0d fc 39 c5 b9 16 b8 d7 cc b0 b8
       -0.000100142075 0.00048075092 -3.59358e-05 -8.4304884e-05
000380 99 e2 6e b9 c1 8a 4e b8 b1 00 93 b7 cb 30 e4 b8
       -0.00022781863 -4.9243452e-05 -1.7524088e-05 -0.000108809756
000390 b0 8c 65 b9 a6 5e fc 38 5d 4d 4e 39 19 91 ee 38
       -0.00021891552 0.00012033926 0.00019674511 0.00011375751
0003a0 a4 48 ab 36 43 fc b7 b8 a3 39 29 b9 89 18 d9 b8
       5.1046536e-06 -8.7731074e-05 -0.00016138567 -0.00010351936
0003b0 de 8d 9a b8 13 fa 14 39 4b b3 ac b9 9c 38 01 3a
       -7.369717e-05 0.0001420754 -0.0003293998 0.0004929395
0003c0 ce 3e 33 b8 bb 55 6e b9 69 aa 36 b9 6d 6d f5 36
       -4.2735417e-05 -0.00022729386 -0.00017420355 7.314308e-06
0003d0 5c d6 88 b7 35 39 b3 39 98 fe 37 39 1d 91 bb b7
       -1.6312282e-05 0.00034184163 0.00017547084 -2.235971e-05
0003e0 6a ff 7a 38 2a 35 49 38 78 2e f0 b8 80 af 8b 39
       5.9842518e-05 4.7971647e-05 -0.00011452747 0.00026642904
0003f0 ee eb e0 b8 54 b4 9a b8 d3 bd a6 b7 01 2c 64 38
       -0.00010725098 -7.376881e-05 -1.9877136e-05 5.4400418e-05

exp_avg_sq f4 [32, 3, 3]
000000 12 e0 16 33 ac 59 80 33 df ea 0b 35 30 24 20 32
       3.5128387e-08 5.976776e-08 5.212332e-07 9.321454e-09
000010 8b c9 1d 34 19 ca 9c 34 7d 0f 75 33 fa f7 c1 32
       1.4695085e-07 2.920431e-07 5.7057594e-08 2.2580924e-08
000020 13 d6 06 35 88 ad 4b 35 7d 3c 57 33 81 b3 f4 35
       5.023041e-07 7.5875914e-07 5.0113602e-08 1.8231659e-06
000030 f5 5a 3f 34 20 f6 43 34 b6 87 bb 35 fc b7 30 35
       1.7821351e-07 1.825033e-07 1.3972083e-06 6.583284e-07
000040 69 1f c7 32 2a 0b d0 35 ca 58 d0 34 ec 7c aa 2e
       2.3180933e-08 1.5500457e-06 3.8807622e-07 7.7528955e-11
000050 6c a3 d6 34 5c 0c f7 33 92 c7 8f 32 67 79 e9 34
       3.997951e-07 1.1504082e-07 1.6738145e-08 4.3487964e-07
000060 2d 93 af 34 7d 5a 67 30 43 30 b6 34 a2 6c fa 33
       3.2703375e-07 8.41659e-10 3.3935257e-07 1.16612924e-07
000070 29 dd 45 35 91 64 e5 35 89 4a 1f 33 46 c0 78 35
       7.371005e-07 1.7091098e-06 3.708786e-08 9.2666994e-07
000080 e1 24 57 35 eb e2 06 34 2c bf 47 33 07 0c d7 35
       8.014741e-07 1.2562275e-07 4.6507168e-08 1.6022249e-06
000090 5c 0e 2e 32 4c d8 89 34 92 91 2f 34 e3 d2 43 32
       1.0131398e-08 2.5675615e-07 1.6351103e-07 1.1398444e-08
0000a0 41 fe a8 34 7c 3c fa 33 51 2b 43 32 c0 80 df 30
       3.1477433e-07 1.1652534e-07 1.1360343e-08 1.6261978e-09
0000b0 e8 81 0b 34 7b 88 39 32 a0 1c 8c 35 14 20 11 34
       1.2992643e-07 1.0799449e-08 1.0439144e-06 1.3515847e-07
0000c0 64 cd 31 32 86 8a 8a 35 e3 69 c3 33 f7 05 34 32
       1.0349456e-08 1.0322117e-06 9.099656e-08 1.0478735e-08
0000d0 d2 55 41 31 a6 b4 11 34 6c 19 f4 34 e0 3d 7d 33
       2.813398e-09 1.3569897e-07 4.5467038e-07 5.8962428e-08
0000e0 4d da 12 36 b6 c4 2c 34 ac d8 69 34 55 d0 af 35
       2.1882763e-06 1.6090311e-07 2.1778641e-07 1.3099149e-06
0000f0 38 58 e1 34 82 47 36 33 1c 75 f6 35 88 74 d7 34
       4.1973703e-07 4.2440213e-08 1.8362512e-06 4.0131658e-07
000100 09 b6 f0 32 a4 98 9a 33 81 22 61 34 9e c0 f3 32
       2.8022457e-08 7.198949e-08 2.096731e-07 2.8376515e-08
000110 7b bb a5 33 c5 35 b2 34 87 f9 da 32 ca dd 84 33
       7.717514e-08 3.3194206e-07 2.5492012e-08 6.187072e-08
000120 81 30 cd 32 1f d3 a1 30 1f b4 33 34 6b 22 c8 32
       2.3887198e-08 1.1774296e-09 1.6736202e-07 2.3298716e-08
000130 2b 19 10 32 79 b4 a1 33 b4 7b ce 32 cc 1a 10 31
       8.387626e-09 7.5299745e-08 2.403781e-08 2.096999e-09
000140 74 a8 16 34 0e de d5 34 05 68 81 31 05 52 ad 34
       1.4031122e-07 3.9835908e-07 3.76622e-09 3.2283438e-07
000150 c5 72 22 34 5b 45 37 31 ab c9 8a 34 9b 73 b9 34
       1.5129179e-07 2.6669429e-09 2.5851236e-07 3.454305e-07
000160 07 24 4e 31 5b ea 9a 34 c4 2a 3e 33 7f 6d 64 34
       2.9997425e-09 2.885525e-07 4.4276717e-08 2.1273989e-07
000170 fe 81 9f 35 16 17 b7 32 6d 58 e4 34 0c 78 58 35
       1.1884256e-06 2.1314502e-08 4.2532648e-07 8.064096e-07
000180 6c f8 51 33 0e 1f 42 31 74 7e 96 35 d8 2d 79 33
       4.8887543e-08 2.8248368e-09 1.1212674e-06 5.8016525e-08
000190 0f 2b e4 34 51 08 27 36 77 40 d7 32 96 9a 45 35
       4.249964e-07 2.488978e-06 2.505861e-08 7.361317e-07
0001a0 ff cb af 35 7f e6 81 33 e4 56 a3 31 5e a2 1a 36
       1.3097887e-06 6.0489576e-08 4.7538027e-09 2.3042298e-06
0001b0 ad 11 0e 33 78 a2 53 35 14 73 83 34 2e 77 88 32
       3.3078027e-08 7.884005e-07 2.4484382e-07 1.588668e-08
0001c0 6c c4 6b 35 0f 7d f8 33 f0 ca 3b 33 bd 94 7e 32
       8.7830153e-07 1.1571148e-07 4.37239e-08 1.4818565e-08
0001d0 c9 33 6d 34 30 82 83 31 e2 19 fc 32 c4 59 4a 34
       2.2091184e-07 3.8274024e-09 2.9348431e-08 1.8845373e-07
0001e0 7a dd 01 2f ee cf 9f 33 fc 9d 29 34 fc b6 4f 31
       1.1811166e-10 7.441837e-08 1.5796826e-07 3.022648e-09
0001f0 26 09 43 2f 69 8a 3d 34 5c 83 bb 34 dc b0 7e 34
       1.7738397e-10 1.765235e-07 3.492704e-07 2.3719934e-07
000200 f1 ba 71 32 f6 ad b2 34 6b 66 71 34 96 24 23 32
       1.4070552e-08 3.3281657e-07 2.2482133e-07 9.496167e-09
000210 4d 0a 9f 34 42 b2 81 33 2c 9a d4 32 da f0 74 35
       2.9623553e-07 6.0394555e-08 2.4750157e-08 9.124757e-07
000220 1c 48 5e 33 d4 37 41 34 e0 31 d2 34 b4 22 52 33
       5.1753986e-08 1.7994836e-07 3.9151837e-07 4.8925997e-08
000230 d8 0d 41 34 e9 b6 48 35 c5 e0 4a 33 64 02 47 34
       1.7979562e-07 7.4771975e-07 4.7236217e-08 1.8534189e-07
000240 f2 1b e3 34 a9 9e 09 33 65 8b 87 35 68 cb 22 34
       4.2302378e-07 3.20421e-08 1.0098853e-06 1.5161424e-07
000250 5b 06 73 34 92 72 6e 35 06 f5 d5 34 bc 32 24 33
       2.263345e-07 8.882863e-07 3.985262e-07 3.8230368e-08
000260 e6 58 71 35 5d a7 eb 34 df 89 df 33 b3 c4 5e 35
       8.990886e-07 4.3893934e-07 1.0409325e-07 8.298768e-07
000270 0f 4c 27 34 fe c3 f7 33 d8 c7 a1 34 11 c3 0e 35
       1.5580757e-07 1.15374846e-07 3.0133992e-07 5.318298e-07
000280 d6 4f 51 34 9f 41 41 35 e5 3c 1c 33 71 62 4a 35
       1.9493686e-07 7.1993594e-07 3.6376964e-08 7.5394115e-07
000290 4b 3a 66 35 8e 71 cb 32 d6 fe 7f 35 86 50 1d 35
       8.5766504e-07 2.3683949e-08 9.536574e-07 5.8604235e-07
0002a0 dc 5f 0f 33 5a 10 c2 31 1b 71 65 35 37 78 b1 33
       3.3381966e-08 5.648002e-09 8.547374e-07 8.264072e-08
0002b0 4d 01 0e 35 19 c7 0d 36 42 c3 07 33 7c 83 4a 35
       5.2901015e-07 2.1126527e-06 3.1609723e-08 7.54422e-07
0002c0 85 df 60 35 b4 2a e2 33 cf f1 f8 32 d8 87 fe 35
       8.3771766e-07 1.0531713e-07 2.8980962e-08 1.896401e-06
0002d0 06 e1 d8 32 94 4a 30 35 c7 61 81 34 be 8a 8d 32
       2.5248038e-08 6.5673635e-07 2.4099265e-07 1.6477653e-08
0002e0 13 59 38 35 a8 24 dd 33 cf 77 c6 32 ed aa 1f 32
       6.867496e-07 1.0297782e-07 2.3104716e-08 9.293882e-09
0002f0 59 4d 81 34 86 23 1f 35 15 20 b5 33 0d 3f 63 36
       2.40844e-07 5.928381e-07 8.434305e-08 3.3862336e-06
000300 cc 79 5d 34 3d 19 bc 34 76 91 05 36 73 c0 17 35
       2.0626538e-07 3.5036092e-07 1.9903214e-06 5.6531934e-07
000310 1d 1f 5b 33 d4 ad 3f 36 23 21 f0 34 97 ca ac 34
       5.101821e-08 2.85624e-06 4.4727594e-07 3.21849e-07
000320 69 93 01 33 a4 7d e6 34 f8 d3 9b 34 c5 8d 90 32
       3.0169222e-08 4.2932254e-07 2.9025227e-07 1.6828276e-08
000330 8b 18 d0 34 82 fa ea 33 96 c9 82 33 05 45 0a 33
       3.8760876e-07 1.0942041e-07 6.090265e-08 3.21934e-08
000340 37 b6 73 34 83 f6 a1 35 4a 79 34 32 ff b6 c0 34
       2.2697428e-07 1.2067179e-06 1.0504957e-08 3.5895934e-07
000350 f1 ac 1a 35 00 5b 42 33 28 61 66 32 02 5c 94 35
       5.7621133e-07 4.525191e-08 1.3409853e-08 1.1053637e-06
000360 92 c7 05 34 22 f9 38 35 89 66 5b 35 81 fb b2 33
       1.2459193e-07 6.890788e-07 8.1733066e-07 8.334519e-08
000370 f3 16 68 35 62 ab df 34 58 80 19 34 54 15 b0 33
       8.646013e-07 4.1661684e-07 1.4295927e-07 8.199518e-08
000380 46 a8 5c 35 8e a3 ae 34 e6 80 50 33 98 75 ea 35
       8.2201257e-07 3.2529027e-07 4.8546006e-08 1.7468583e-06
000390 ec 43 e7 33 cb b0 3b 34 14 07 83 35 5d b4 a0 34
       1.0769131e-07 1.7480049e-07 9.762321e-07 2.9933554e-07
0003a0 0d 84 8c 31 b6 f7 c2 35 9f 11 a7 35 77 ce 3a 36
       4.0895487e-09 1.452622e-06 1.2447598e-06 2.7836338e-06
0003b0 07 e4 b7 34 5a 1e 98 35 a9 3f 30 36 af 07 70 34
       3.4252318e-07 1.1333716e-06 2.6263099e-06 2.2354537e-07
0003c0 d8 ea 96 35 b1 18 92 34 0c 0d bd 34 0f 38 93 35
       1.1244219e-06 2.7212585e-07 3.5213486e-07 1.0968669e-06
0003d0 92 f3 8e 33 0f 43 4e 34 7e f0 fe 34 71 7a 86 33
       6.6566955e-08 1.9209641e-07 4.7486168e-07 6.262133e-08
0003e0 6a f9 56 34 f5 75 72 35 d3 72 7f 33 b7 8e 56 34
       2.002104e-07 9.0323675e-07 5.9476246e-08 1.9982222e-07
0003f0 51 11 9b 35 eb 25 d7 35 c1 db c8 34 25 0d 92 35
       1.155344e-06 1.6029784e-06 3.7412795e-07 1.0881673e-06

exp_avg f4 [3]
000000 32 69 9c ba e4 4d a8 3a d9 9f 8f ba
       -0.0011933206 0.0012840596 -0.0010957672

exp_avg_sq f4 [3]
000000 7e ed 1f 38 6d 98 f6 37 b3 60 38 38
       3.8129736e-05 2.9396464e-05 4.3959077e-05
