true/triplet-lstm/6-classes/before/version_2/checkpoints/epoch=93.ckpt (torch_old, 117690 bytes, 24 tensors)

exp_avg f4 [128, 3]
000000 d1 73 73 b9 d7 24 9f 39 28 c1 d5 39 ff fb a0 b9
       -0.00023217431 0.0003035429 0.00040770438 -0.0003070533
000010 1e 28 b7 38 81 7e 5b 39 e6 22 53 39 f2 ed 0a ba
       8.7335924e-05 0.00020932594 0.00020135529 -0.0005299739
000020 9c 68 bc b9 bc f7 91 39 c7 77 bd b9 c4 e4 a3 b9
       -0.00035936094 0.00027841132 -0.0003613813 -0.00031260226
000030 fd 73 33 38 0a 00 9c b9 c1 89 1d b9 16 bc f2 3a
       4.2784948e-05 -0.00029754668 -0.00015024004 0.0018519189
000040 5d 94 e8 ba cb 21 d5 ba f5 9e 93 3a c9 04 84 ba
       -0.0017744411 -0.0016260681 0.0011262583 -0.0010072227
000050 2e b6 29 ba 90 7e 00 3a 71 a5 86 b9 e7 7b 5d b9
       -0.0006473985 0.0004901672 -0.00025681735 -0.0002112236
000060 1f ab ab 3b 04 fa 29 bb b2 9c 61 bb b2 4c ce 39
       0.005238905 -0.0025936374 -0.0034425673 0.00039348524
000070 47 9b 68 b9 98 67 94 b9 f2 9b 74 3a 25 6d 6a ba
       -0.0002218309 -0.00028305943 0.0009331099 -0.00089426554
000080 e7 9a 61 ba d3 a9 6b 3a 12 ba 1a ba de 45 02 ba
       -0.0008606151 0.00089898444 -0.00059023604 -0.00049695175
000090 b8 4f e2 b8 9e 9f 51 b8 ba fb f2 38 66 25 08 3b
       -0.000107913685 -4.9978138e-05 0.00011586347 0.0020774244
0000a0 1b e5 c8 ba 48 f3 db ba fb b4 d8 38 2d f5 70 b9
       -0.0015327068 -0.0016780877 0.00010333393 -0.00022979519
0000b0 1f 09 47 b9 6b 90 2b b9 d0 7c cd b9 37 a2 27 b9
       -0.00018981517 -0.0001636163 -0.0003919364 -0.00015986791
0000c0 9b 65 99 39 8a e5 b7 b9 8e 09 8a b9 2d b3 6c 3b
       0.00029258136 -0.000350755 -0.0002632853 0.003611754
0000d0 fb bb 5d bb 9b b6 75 bb 5d 6d aa 34 d2 e0 45 b8
       -0.003383397 -0.0037492875 3.174454e-07 -4.717784e-05
0000e0 b3 91 21 37 2e 1b 2d 3b c0 73 d3 ba 59 cd 80 ba
       9.630271e-06 0.0026413905 -0.0016132519 -0.0009826823
0000f0 c8 ee 59 38 b0 3a 85 b9 15 90 1f b9 8a dd 09 3a
       5.1959214e-05 -0.00025411462 -0.00015217096 0.0005259147
000100 f8 66 0f ba be 4e 08 ba b8 4f 83 3a d6 ec 72 ba
       -0.00054703606 -0.0005199722 0.0010018265 -0.00092668587
000110 5a a1 61 ba b8 ae e3 3a 1a 8a 85 ba 0e a0 ce ba
       -0.0008607112 0.0017370796 -0.0010188252 -0.0015764253
000120 08 9b 1b 39 86 9a 79 ba 0e 27 4e ba 8b 2b da 39
       0.00014839706 -0.0009521622 -0.0007864096 0.00041612642
000130 39 3b ce b9 39 ba 66 b9 58 fa 71 3b d9 f4 1d bb
       -0.00039335506 -0.00022003883 0.0036922898 -0.002410224
000140 e0 f8 4e bb 7b 08 94 3a 20 0b 83 ba 52 7c 81 ba
       -0.0031581447 0.0011294031 -0.0009997822 -0.0009878969
000150 43 66 72 3a 1d e4 80 ba 02 f1 4f ba 29 34 7b b8
       0.00092468056 -0.0009833608 -0.00079323363 -5.989164e-05
000160 93 09 14 38 c4 e1 ea 38 98 b9 4c 3a 6b a1 5c ba
       3.5294866e-05 0.000112000416 0.0007809638 -0.0008416387
000170 b5 94 23 ba f7 8b ce b9 27 e0 5e ba 22 18 33 ba
       -0.00062401156 -0.00039395664 -0.0008502029 -0.0006831904
000180 fb 9c f0 b8 75 01 33 39 71 fd 62 39 52 ba b2 b9
       -0.00011473332 0.00017071313 0.00021647454 -0.00034089625
000190 8f 1c 26 39 32 87 76 39 3f 5a 2b 39 0d ba d3 b9
       0.00015841633 0.00023510752 0.0001634145 -0.00040383675
0001a0 20 cd 89 b9 a3 ca c1 39 ad 5d 00 ba 7c 5e 01 ba
       -0.00026283506 0.00036962805 -0.0004896771 -0.0004935039
0001b0 5f 21 a1 38 f0 87 9e b9 97 4d 24 b9 62 45 c5 3a
       7.683294e-05 -0.0003023739 -0.00015669163 0.0015050585
0001c0 5f 98 b4 ba f6 8e c1 ba 02 ff b9 3a 54 bf 88 ba
       -0.001377832 -0.0014767337 0.0014190378 -0.0010432997
0001d0 db 59 93 ba cc de ee 39 ed 62 72 b9 67 f5 76 b9
       -0.0011241989 0.00045560894 -0.00023115771 -0.00023551808
0001e0 23 14 8d 3b 2c 67 6f bb 61 69 89 bb 9a 41 ff 39
       0.004305379 -0.003653 -0.0041934703 0.00048686267
0001f0 84 11 b9 b9 77 5d d6 b9 ed 7d 68 3a 71 65 5f ba
       -0.00035299 -0.00040886897 0.0008868862 -0.0008521891
000200 1b cf 58 ba 1a c6 5e 3a ac 3a 13 ba 85 f6 2a ba
       -0.0008270607 0.00084981474 -0.0005616348 -0.00065217196
000210 b9 0a 4f b8 a5 57 8e b8 8e bc 8f 38 32 8b fd 3a
       -4.9362632e-05 -6.787413e-05 6.8538924e-05 0.0019343852
000220 62 40 b3 ba 83 01 cf ba 34 47 f1 38 2c c9 5a b9
       -0.0013675804 -0.0015793297 0.00011505038 -0.00020865042
000230 f7 47 3d b9 c8 9e c0 b8 a2 97 c7 b9 8f 98 25 b9
       -0.00018051254 -9.184849e-05 -0.00038069213 -0.00015792459
000240 5f ac 8b 39 77 fa c9 b9 84 b0 b4 b9 a6 6a 2c 3b
       0.00026640572 -0.00038524318 -0.0003446379 0.0026308685
000250 aa a0 33 bb cc 39 4b bb 28 f0 e7 b5 57 ff 2d b8
       -0.0027408996 -0.0031009791 -1.7280736e-06 -4.1484218e-05
000260 f5 de fb 37 9c cc 41 bb 1c 8e 88 3b 2c 9a 64 3b
       3.0025354e-05 -0.002957142 0.0041673314 0.0034881933
000270 c7 13 ad 38 ca 14 9f b9 b8 43 55 b9 e3 5d 04 3a
       8.252967e-05 -0.00030342332 -0.0002033849 0.00050493906
000280 17 14 1f ba d7 cd 13 ba f2 fe 6b 3a aa 48 59 ba
       -0.0006068362 -0.00056382775 0.00090025284 -0.0008288721
000290 a0 07 53 ba b7 e0 e8 3a 7e ee a9 ba 0c e2 c6 ba
       -0.00080501474 0.0017767166 -0.0012964753 -0.0015173568
0002a0 3d 0b 19 38 05 d8 24 ba 61 1e 08 ba 89 8b 9e 39
       3.648851e-05 -0.0006288293 -0.0005192515 0.0003024007
0002b0 64 98 4e b9 1d 1f 92 b9 c0 4a 41 3b 90 3b 0d bb
       -0.00019702461 -0.0002787047 0.0029494017 -0.0021550395
0002c0 c9 8e 24 bb f2 f5 89 3a 02 0e 71 ba 9e 93 7a ba
       -0.002510952 0.0010525568 -0.0009195508 -0.000955874
0002d0 7b d0 82 3a 24 e4 85 ba 60 35 7d ba 59 5b e6 b7
       0.0009980345 -0.0010215086 -0.00096591376 -2.7460674e-05
0002e0 93 de 75 b7 ce a8 32 38 e7 82 96 3a 80 3d 85 ba
       -1.465496e-05 4.259572e-05 0.0011483104 -0.0010165423
0002f0 40 5a 91 ba 58 3f 71 ba 34 c0 8d 38 18 b8 05 37
       -0.0011089519 -0.00092028594 6.7592046e-05 7.97028e-06
000300 32 f9 28 3a 94 28 67 ba 11 61 c9 b9 3f e2 1d ba
       0.00064458244 -0.00088179973 -0.00038410028 -0.0006022788
000310 89 94 89 3a e2 42 27 3a af 01 a4 39 6e ee 8c 39
       0.0010496537 0.0006380511 0.00031281772 0.00026880525
000320 5f 50 8b b8 4d 6a 21 3c b6 9b 0b bc 42 5c 24 bc
       -6.643007e-05 0.009852004 -0.008521011 -0.010031762
000330 fb c3 5b b7 ec b3 7a 39 5c 94 a4 38 93 73 fd 3b
       -1.30990475e-05 0.00023908884 7.8477635e-05 0.007734725
000340 67 f7 c4 bb 91 89 e1 bb 17 05 41 3c c2 d8 19 bc
       -0.006010938 -0.0068828543 0.011780999 -0.009390058
000350 7e d0 36 bc 22 95 30 bb 7f 33 06 3b 63 01 20 3b
       -0.011158107 -0.0026944359 0.0020477471 0.002441489
000360 a2 5f a9 3c 53 55 9d bc a1 b5 85 bc db ea 68 bb
       0.020675484 -0.019205725 -0.016321959 -0.0035540375
000370 a0 86 58 3b 03 e0 4d 3b e5 d9 d8 ba d3 59 c7 3a
       0.0033039227 0.003141404 -0.001654443 0.0015209265
000380 37 dd b9 3a 97 0c 07 bc 68 e5 e4 3b e1 c4 00 3c
       0.0014180307 -0.008242748 0.006985355 0.00785944
000390 b4 17 06 3b 5d 51 e2 ba 62 11 e4 ba 97 ba d1 bb
       0.0020460906 -0.001726668 -0.00174002 -0.006400417
0003a0 ec cb 99 3b 34 c8 ab 3b a7 ef f1 b8 71 b7 a5 39
       0.004693499 0.005242372 -0.00011536414 0.00031607927
0003b0 d3 62 2c 39 ac de 07 ba ef d5 fe 38 cd df 97 39
       0.00016440013 -0.0005183022 0.00012151512 0.0002896771
0003c0 7e e8 ae 3a ef 2e ba ba 4b 49 d3 ba ef fc 18 3c
       0.0013344435 -0.0014204661 -0.0016119865 0.009337648
0003d0 d6 28 0e bc 11 94 16 bc 69 36 19 ba bf d1 f7 39
       -0.008676728 -0.009190575 -0.00058445946 0.00047267784
0003e0 a6 2f ca 39 e7 19 c4 3d 05 d3 91 bd f9 43 b1 bd
       0.00038563943 0.09575253 -0.07120327 -0.08655543
0003f0 6b c4 00 3a d3 6f a8 39 d0 53 4a b9 4f 17 e3 ba
       0.0004912081 0.00032126773 -0.00019295444 -0.0017325672

exp_avg_sq f4 [128, 3]
000000 c4 98 3e 36 72 42 33 35 76 72 41 35 2c 9c 84 35
       2.8401128e-06 6.6779387e-07 7.2064665e-07 9.880218e-07
000010 1c ca 36 35 7f d2 a8 35 80 33 a1 35 fc f9 9c 35
       6.809439e-07 1.2578238e-06 1.2010423e-06 1.1695661e-06
000020 59 5b 92 35 50 1c 2f 36 a0 a8 25 37 28 09 bb 36
       1.0904433e-06 2.6093512e-06 9.8740275e-06 5.5741e-06
000030 e3 85 39 35 a6 38 0b 35 8e c1 01 35 64 58 e5 36
       6.91127e-07 5.186397e-07 4.8337904e-07 6.835022e-06
000040 e3 75 95 36 ef 0e a5 36 2f af 9d 36 66 8c dd 36
       4.45427e-06 4.9191217e-06 4.6993587e-06 6.602658e-06
000050 1e cd 72 36 16 ef 29 35 48 62 e1 34 9a 6c d6 34
       3.6180204e-06 6.330532e-07 4.1981025e-07 3.9939624e-07
000060 bb b0 0e 38 16 b8 d7 37 6c b9 c2 37 f6 f0 81 36
       3.402003e-05 2.5715719e-05 2.3212946e-05 3.872551e-06
000070 e7 7d c0 35 c6 f0 de 35 54 b0 bd 35 53 05 8e 35
       1.4341757e-06 1.6610363e-06 1.4132916e-06 1.0581374e-06
000080 af d0 87 35 39 4b 3d 36 d4 55 9d 36 79 3a 16 36
       1.0119019e-06 2.820698e-06 4.6889563e-06 2.2385777e-06
000090 bf 96 e0 34 16 8d b9 34 17 10 b3 34 84 66 0b 37
       4.1832934e-07 3.456159e-07 3.3353055e-07 8.308914e-06
0000a0 0a 91 ea 36 99 9d d3 36 14 3c b6 34 4b 25 b6 34
       6.990628e-06 6.306637e-06 3.3943854e-07 3.3927276e-07
0000b0 27 84 ba 34 1b 2f 05 36 b0 ed da 35 b1 8d d9 35
       3.4741353e-07 1.9845963e-06 1.6311442e-06 1.6208998e-06
0000c0 6e 2d b1 35 70 ad 22 35 de ae 5b 35 e8 23 9c 37
       1.320075e-06 6.060209e-07 8.183832e-07 1.861337e-05
0000d0 16 12 7d 37 46 e6 8c 37 60 ac 41 33 fe e5 19 33
       1.5084186e-05 1.679653e-05 4.509309e-08 3.5832265e-08
0000e0 d1 90 1b 33 a9 a6 e0 38 8a ca 1c 39 5f ad b8 38
       3.622046e-08 0.00010712195 0.00014952771 8.8060966e-05
0000f0 e4 c4 6e 35 35 92 9a 34 fc e4 a5 34 94 f0 64 36
       8.894842e-07 2.8791115e-07 3.0900253e-07 3.4114682e-06
000100 bd c1 d9 35 19 99 e9 35 93 4f 34 36 8c 1e e0 35
       1.6224145e-06 1.740441e-06 2.6868408e-06 1.6698191e-06
000110 7e 09 d9 35 12 77 4f 37 c1 e2 f8 36 ff 90 80 37
       1.6170522e-06 1.2365885e-05 7.4173736e-06 1.5326308e-05
000120 84 da 56 36 70 e9 3f 36 ac e8 55 36 c4 6e 10 36
       3.2015678e-06 2.8597096e-06 3.1874906e-06 2.1522146e-06
000130 bd dc cc 35 6a 4d 06 36 79 6f c4 37 8a be 6e 37
       1.5263428e-06 2.0012617e-06 2.341693e-05 1.4230269e-05
000140 19 bc ba 37 e6 5a 01 36 44 37 eb 35 13 be bf 35
       2.2260518e-05 1.9275408e-06 1.7524949e-06 1.4285928e-06
000150 63 33 5b 36 ea 76 04 36 ab be 13 36 74 f3 a6 34
       3.2663454e-06 1.973875e-06 2.201569e-06 3.1097045e-07
000160 28 c4 69 34 b0 a0 7e 34 13 f8 81 36 3f 44 36 36
       2.1771177e-07 2.3714051e-07 3.8733792e-06 2.7159838e-06
000170 13 76 3b 36 03 5f aa 36 7e 56 ef 36 69 5c a4 36
       2.79339e-06 5.0774556e-06 7.132824e-06 4.898339e-06
000180 27 fc e8 35 c0 81 c7 34 45 35 cb 34 79 6c 65 35
       1.7358733e-06 3.7161044e-07 3.7850455e-07 8.5466996e-07
000190 1f ad de 34 f2 7d 37 35 e8 66 63 35 04 a4 61 35
       4.1476684e-07 6.8356087e-07 8.471384e-07 8.4057706e-07
0001a0 e2 29 60 35 8a d4 75 36 6e 35 16 36 38 77 55 36
       8.350745e-07 3.663156e-06 2.2382842e-06 3.1808868e-06
0001b0 88 02 ce 34 68 92 b1 34 f1 b5 9a 34 80 9f ad 36
       3.8372332e-07 3.3075344e-07 2.8817115e-07 5.17437e-06
0001c0 d4 14 69 36 1b 64 6e 36 d0 33 aa 36 33 9f 81 36
       3.473183e-06 3.5523033e-06 5.0724266e-06 3.863033e-06
0001d0 e9 0d 95 36 f0 84 0a 35 5e 16 9e 34 66 1c d4 34
       4.4421654e-06 5.1602456e-07 2.9446068e-07 3.950874e-07
0001e0 fb 18 df 37 98 56 80 37 11 96 92 37 f4 f9 4d 36
       2.6595304e-05 1.5299112e-05 1.7474436e-05 3.0692872e-06
0001f0 95 77 80 35 13 fa bd 35 20 db 96 35 cd 58 7c 35
       9.571546e-07 1.4154379e-06 1.1239645e-06 9.400654e-07
000200 4e d7 6b 35 b1 01 30 36 76 f3 ea 35 1d b4 0a 36
       8.785763e-07 2.6227028e-06 1.7505215e-06 2.0668442e-06
000210 45 c7 a7 34 28 62 a1 34 73 5e 99 34 06 e6 e9 36
       3.1251162e-07 3.0060005e-07 2.8567192e-07 6.9707194e-06
000220 cb eb 98 36 91 40 af 36 46 8a 82 34 85 9a 8c 34
       4.557403e-06 5.222923e-06 2.4314994e-07 2.618946e-07
000230 0e 83 90 34 e1 72 ae 35 7d bc 95 35 41 46 95 35
       2.6917445e-07 1.2997444e-06 1.1156222e-06 1.1121812e-06
000240 fc 08 8d 35 6d 27 e8 34 c6 5d 13 35 42 58 a4 37
       1.0507933e-06 4.3242053e-07 5.4898226e-07 1.9591422e-05
000250 06 d3 37 37 f4 b7 47 37 ba cd 51 33 44 d3 58 33
       1.0956783e-05 1.1904154e-05 4.884871e-08 5.0483564e-08
000260 34 2a 45 33 4a f5 d8 38 32 ad b2 38 52 7e cd 38
       4.590602e-08 0.00010345371 8.5199616e-05 9.798691e-05
000270 2a f1 96 35 78 1f ca 34 55 9b c8 34 13 1d a2 36
       1.1246059e-06 3.7648329e-07 3.7365922e-07 4.831361e-06
000280 f3 bc d3 35 2f fb f5 35 9f da ee 35 7e 0c a1 35
       1.5775717e-06 1.8327027e-06 1.7796009e-06 1.199907e-06
000290 0b 4c ac 35 95 00 86 37 30 2c f5 36 e4 0e 2a 37
       1.283713e-06 1.5974316e-05 7.306713e-06 1.0136257e-05
0002a0 69 75 2a 36 c8 f8 d8 35 a6 ef 0d 36 fe ab 97 35
       2.5400316e-06 1.6165659e-06 2.115013e-06 1.1300433e-06
0002b0 6f 1c e7 34 0a a5 9e 35 50 7d 80 37 a0 67 25 37
       4.304779e-07 1.181995e-06 1.5317142e-05 9.8588935e-06
0002c0 97 a1 38 37 e4 f5 ce 35 99 e2 a4 35 cf 7f a8 35
       1.1004878e-05 1.541976e-06 1.2284901e-06 1.2554173e-06
0002d0 5b 6d 43 36 55 40 e1 35 b2 01 03 36 23 8d b4 34
       2.9120918e-06 1.6782529e-06 1.9521508e-06 3.3630303e-07
0002e0 65 7f 61 34 41 89 8a 34 b1 5c b2 36 58 0d 55 36
       2.1001104e-07 2.5804368e-07 5.315604e-06 3.174724e-06
0002f0 59 b6 8e 36 74 5c cc 36 3f 2c 72 36 d8 07 92 36
       4.253158e-06 6.0904367e-06 3.6086565e-06 4.352052e-06
000300 6a 90 30 38 f4 bd a7 37 92 eb ea 37 99 92 54 38
       4.2096166e-05 1.9996405e-05 2.800467e-05 5.068127e-05
000310 51 d4 b2 37 3f 85 ef 37 b1 b3 9e 37 dd 9f 20 37
       2.1318121e-05 2.8553068e-05 1.8918743e-05 9.573964e-06
000320 e1 32 35 37 ca 20 cf 39 80 a9 95 39 70 29 b7 39
       1.0800287e-05 0.00039506546 0.00028545782 0.00034935353
000330 7f a7 41 36 45 94 a2 35 c3 af df 35 64 cf 2b 39
       2.8856737e-06 1.2113093e-06 1.6665948e-06 0.0001638509
000340 d0 29 ce 38 87 1c 02 39 d8 15 de 39 1c 2a 92 39
       9.830634e-05 0.00012408393 0.00042359415 0.00027878664
000350 83 76 bd 39 b9 72 06 38 ef ae ab 37 19 2b fe 37
       0.00036137187 3.2054933e-05 2.0466248e-05 3.0299228e-05
000360 7a a3 37 3a 9b 0f 1a 3a 6a 26 41 3a 4a 66 c7 38
       0.0007005256 0.0005876959 0.000736809 9.508112e-05
000370 07 d5 60 38 a2 91 80 38 ce 75 42 37 e3 8c 06 37
       5.360416e-05 6.130642e-05 1.159073e-05 8.019825e-06
000380 27 20 f2 36 55 25 90 39 ed 53 3a 39 0a a4 61 39
       7.215905e-06 0.00027493635 0.00017769607 0.00021518781
000390 53 c9 08 38 0d e5 73 37 c4 9b 83 37 39 89 07 39
       3.2612425e-05 1.4537259e-05 1.5688951e-05 0.00012925723
0003a0 11 41 98 38 d1 1e a6 38 34 5a 43 36 48 ff bf 35
       7.2600444e-05 7.921237e-05 2.910977e-06 1.4304906e-06
0003b0 0d fb e6 35 f3 39 c7 36 b0 a0 52 36 93 9d 9a 36
       1.7209401e-06 5.9374083e-06 3.138597e-06 4.6079017e-06
0003c0 11 1a 97 38 5b 38 d1 37 54 26 55 38 7a b4 7e 39
       7.205096e-05 2.4940984e-05 5.0818853e-05 0.0002429056
0003d0 ee 35 2a 39 d8 72 25 39 a0 7c db 35 58 60 a5 35
       0.00016232554 0.00015778409 1.6353042e-06 1.2321498e-06
0003e0 5c 46 c5 35 ae ae 9e 3c 95 b3 dd 3c 25 db d0 3c
       1.4698121e-06 0.019370403 0.02706317 0.025495121
0003f0 6a 7c 54 38 19 b7 70 37 de 9c b7 37 de 86 87 39
       5.066061e-05 1.43477455e-05 2.1888347e-05 0.0002584969

exp_avg f4 [128, 32]
000000 37 cd 76 b8 73 22 84 38 da 28 69 38 79 ad 99 b8
       -5.884209e-05 6.300667e-05 5.5589575e-05 -7.32792e-05
000010 e5 8f 83 38 75 08 69 b8 40 1b 96 b8 df cf 80 38
       6.273369e-05 -5.5559405e-05 -7.157633e-05 6.1422346e-05
000020 94 6c 8a b8 7c 08 4f 38 69 21 7a 38 4a b0 9a 38
       -6.600577e-05 4.9360548e-05 5.963576e-05 7.3761286e-05
000030 cc 3c 88 b8 1b 14 7c 38 01 74 76 38 59 89 7e b8
       -6.49631e-05 6.0100207e-05 5.8759008e-05 -6.0686234e-05
000040 c3 b1 50 b8 29 8b a1 b8 35 3a 60 38 58 5c ea b6
       -4.9756618e-05 -7.702999e-05 5.345997e-05 -6.9844937e-06
000050 15 5b 84 38 84 b8 9e 38 46 84 72 38 68 06 97 b8
       6.311216e-05 7.568396e-05 5.7820485e-05 -7.201434e-05
000060 33 2f 7f b8 43 d1 19 b8 68 62 90 b8 0a 99 71 38
       -6.0840695e-05 -3.6672933e-05 -6.884785e-05 5.7601406e-05
000070 67 57 67 38 1e c0 93 b8 be 2f 30 38 84 75 ad 38
       5.515609e-05 -7.045291e-05 4.2006133e-05 8.271172e-05
000080 18 7b 2f 39 09 e5 3a b9 57 3f 23 b9 f9 91 57 39
       0.00016735157 -0.00017823665 -0.00015568487 0.00020558377
000090 35 cf 83 b9 58 02 d2 38 46 17 0c 39 3b f7 48 b9
       -0.00025140648 0.00010014017 0.0001336011 -0.00019165587
0000a0 d1 de 83 38 55 de 96 b9 63 14 23 b9 81 9e 1e b9
       6.2880696e-05 -0.0002877588 -0.00015552486 -0.00015127102
0000b0 6e 97 1c 39 4a 02 52 b9 e5 71 49 b9 ed 5f 6c 39
       0.00014933731 -0.00020028013 -0.00019211283 0.00022542449
0000c0 01 56 93 39 6e 2d 92 38 3c fc 1e b9 17 2a 46 b8
       0.00028102103 6.9702844e-05 -0.00015162019 -4.7246078e-05
0000d0 fb ac 81 b9 c4 3a 8f b9 9b 3d 74 b9 04 26 ad 39
       -0.00024733678 -0.0002731887 -0.00023292603 0.00033025455
0000e0 dc fb 32 39 a1 da 5a 39 b0 30 8f 39 42 43 40 b9
       0.00017069228 0.00020871546 0.0002731136 -0.00018335602
0000f0 30 9c 7a b9 3e cf 05 39 71 ba a7 b9 52 6e 67 b9
       -0.00023900042 0.00012761072 -0.00031991632 -0.00022070974
000100 5d 27 31 39 3c e9 3b b9 cb c0 11 b9 87 c2 53 39
       0.000168947 -0.00017920596 -0.00013900099 0.00020194995
000110 cf 38 5d b9 e9 ac 01 39 3a b9 27 39 db 05 45 b9
       -0.00021097365 0.00012366813 0.00015995363 -0.00018789565
000120 93 62 14 39 9b 06 7c b9 ce 1b 1c b9 93 17 34 b9
       0.00014151102 -0.00024035054 -0.00014887677 -0.0001717492
000130 2a 80 1f 39 c4 c2 3d b9 58 ee 32 b9 4a 6a 45 39
       0.00015211166 -0.00018097 -0.00017064193 0.0001882698
000140 f7 66 74 39 16 5b 04 39 12 03 1c b9 54 f2 87 b8
       0.0002330801 0.00012622433 -0.00014878463 -6.482439e-05
000150 7e b2 61 b9 27 da 7e b9 35 de 53 b9 14 ba 8d 39
       -0.00021524166 -0.00024304596 -0.00020205307 0.00027032255
000160 04 5e 30 39 30 c2 44 39 f0 f1 6c 39 fb a9 30 b9
       0.00016819692 0.00018764357 0.00022596843 -0.0001684799
000170 4e e5 5b b9 1d 8f 1a 39 41 f8 88 b9 6b 3c 54 b9
       -0.0002097089 0.00014739898 -0.00026124905 -0.00020240403
000180 34 0b af 38 d9 f7 ba b8 e3 4f 91 b8 6c ab 99 38
       8.346737e-05 -8.9153364e-05 -6.929019e-05 7.327538e-05
000190 8b 90 1c b9 42 5b da 36 4c fd 4d 38 39 37 ac b8
       -0.00014931166 6.50753e-06 4.911171e-05 -8.211885e-05
0001a0 f7 cd d8 b6 85 bb 23 b9 e3 06 a2 b8 cc 61 b2 b8
       -6.461279e-06 -0.00015614748 -7.726045e-05 -8.5059175e-05
0001b0 8a 27 8a 38 2b 6b bb b8 96 31 b8 b8 6d 15 00 39
       6.5877175e-05 -8.9368164e-05 -8.78304e-05 0.00012215013
0001c0 48 43 24 39 52 8c aa 37 d6 68 29 b8 95 26 0f b9
       0.00015665323 2.0330921e-05 -4.0390376e-05 -0.00013651916
0001d0 f3 f2 1e b9 2b 0a 4c b9 3a 5e 02 b9 63 cf 73 39
       -0.0001515856 -0.00019458744 -0.00012432868 0.00023251543
0001e0 0c 0f aa 38 72 50 d5 38 48 42 36 39 53 44 9c b8
       8.1090344e-05 0.000101716156 0.00017381564 -7.451386e-05
0001f0 f5 70 04 b9 ed b3 84 38 15 ef 30 b9 ef 1f 39 b9
       -0.00012630581 6.327764e-05 -0.00016873733 -0.00017654871
000200 36 e1 f8 38 7b 6f 07 b9 2e aa d6 b8 30 b5 15 39
       0.0001186751 -0.00012916133 -0.000102360136 0.00014277245
000210 57 24 06 b9 d8 e4 c1 38 f4 17 e9 38 75 12 03 b9
       -0.00012792773 9.2455826e-05 0.000111147674 -0.0001250001
000220 21 d8 fd 38 11 6d 19 b9 9f f7 df b8 9e ca f2 b8
       0.00012104237 -0.00014631847 -0.00010679592 -0.000115771996
000230 1b c5 f0 38 ab 24 f2 b8 d9 e0 f1 b8 f7 ad f9 38
       0.000114808056 -0.00011546289 -0.00011533657 0.00011905649
000240 b9 21 0c 39 c5 0e db 38 6e a2 f2 b8 0d 1b 93 37
       0.00013364003 0.00010445485 -0.00011569714 1.7536362e-05
000250 de b0 09 b9 c6 15 0e b9 b2 73 fd b8 07 e0 1b 39
       -0.00013131226 -0.00013550287 -0.0001208553 0.00014865409
000260 56 dd fc 38 08 c7 f8 38 65 b4 07 39 ef 99 e0 b8
       0.000120575234 0.00011862634 0.00012941805 -0.00010709825
000270 2a 23 02 b9 76 0b ed 38 d1 78 19 b9 eb 2c 22 b9
       -0.00012410866 0.000113031754 -0.00014636225 -0.00015466257
000280 06 60 94 39 72 ff 9b b9 0a 86 61 b9 59 99 bf 39
       0.00028300303 -0.00029754225 -0.00021507606 0.00036544612
000290 a9 94 bc b9 ee 9d 68 39 1f d5 b5 39 f5 1c a4 b9
       -0.00035968915 0.00022184078 0.00034681798 -0.00031302092
0002a0 3f eb 92 39 9a 05 d3 b9 66 31 8f b9 c0 5e c9 b9
       0.00028022562 -0.0004024923 -0.0002731189 -0.00038408302
0002b0 91 a5 98 39 8f 9b a4 b9 ef 37 8a b9 ac 37 9a 39
       0.00029115056 -0.00031396418 -0.00026363085 0.00029414648
0002c0 08 76 c2 39 c2 f0 b0 39 30 81 52 b9 f6 d6 ae b9
       0.00037090504 0.00033748714 -0.00020075287 -0.00033348025
0002d0 ad 69 be b9 64 97 02 ba 69 f5 ae b9 17 63 0e 3a
       -0.0003631836 -0.00049816654 -0.0003337071 0.00054316357
0002e0 b7 7f 7a 39 3f a3 a5 39 4d 42 ea 39 eb 24 8f b9
       0.00023889435 0.0003159288 0.00044681356 -0.00027302591
0002f0 ca e9 b4 b9 24 4c a4 39 58 f8 d8 b9 8c d8 b0 b9
       -0.00034506462 0.00031337247 -0.0004138376 -0.00033730676
000300 38 fb 15 b9 62 86 1b 39 d7 a5 1d 39 1c 53 3d b9
       -0.00014303334 0.00014832013 0.00015034467 -0.00018055405
000310 a4 02 19 39 44 a9 0f b9 8b 15 d1 b8 43 5e 23 39
       0.00014592201 -0.00013700599 -9.969909e-05 0.00015580007
000320 65 8c c0 b8 33 cb 32 39 c9 35 fb 38 93 39 b0 38
       -9.181424e-05 0.000170511 0.00011978631 8.403058e-05
000330 f6 29 06 b9 01 0c 1e 39 df a3 30 39 72 65 28 b9
       -0.00012794868 0.00015072526 0.00016845715 -0.0001605952
000340 3e ec 29 b9 25 1d 36 b8 a3 6f 44 39 29 ab 80 b9
       -0.00016205103 -4.3419324e-05 0.00018733605 -0.00024541587
000350 b3 f0 19 39 5e 13 cd 38 2b 88 1e 39 6e ca f7 b8
       0.00014680884 9.778769e-05 0.0001511878 -0.00011815583
000360 92 ec 2a b9 ca 03 0a b9 b3 81 ff b8 a3 4c 26 39
       -0.00016300593 -0.00013162117 -0.00012183506 0.00015859543
000370 4e 56 1d 39 c5 97 d5 b8 8f c3 3b 39 b9 ae 1d 39
       0.00015004838 -0.00010184901 0.00017906561 0.00015037776
000380 20 44 30 b9 f0 12 30 39 98 09 21 39 b0 eb 54 b9
       -0.00016810047 0.00016791723 0.0001535773 -0.00020305696
000390 69 7a 69 39 e8 ed 08 b9 a6 ac 1d b9 53 49 4a 39
       0.00022266213 -0.00013058598 -0.00015037003 0.00019291537
0003a0 86 10 d7 b8 25 7b 75 39 74 9b 22 39 c0 43 27 39
       -0.000102550766 0.00023410896 0.00015507435 0.000159516
0003b0 b3 d2 1f b9 63 ac 4d 39 f1 a9 46 39 77 e2 57 b9
       -0.00015241913 0.00019614543 0.0001894606 -0.00020588363
0003c0 0e 7a 77 b9 0f aa df b8 86 20 2a 39 9e 44 90 b7
       -0.00023601225 -0.000106651445 0.0001622458 -1.719809e-05
0003d0 46 85 6a 39 1b 0a 80 39 e1 d9 5f 39 40 84 92 b9
       0.00022365627 0.00024421592 0.00021348103 -0.00027945824
0003e0 0b b8 21 b9 64 e5 3b b9 6e e1 80 b9 d9 de 42 39
       -0.00015422718 -0.00017919164 -0.0002458202 0.00018584299
0003f0 db 73 61 39 22 6b 0d b9 97 80 89 39 08 43 33 39
       0.00021500832 -0.00013486718 0.00026226483 0.00017095741

exp_avg_sq f4 [128, 32]
000000 e6 9e 6c 34 b1 fe 26 34 28 ae c0 33 0c 05 b0 34
       2.203702e-07 1.5552611e-07 8.9723756e-08 3.2786227e-07
000010 fe 87 fb 33 f1 bb d7 33 10 c9 2b 34 ac 1c 0b 34
       1.1712835e-07 1.0045904e-07 1.5998762e-07 1.2955815e-07
000020 74 08 84 33 d6 83 32 34 7a 27 bc 33 7a 32 48 34
       6.1482666e-08 1.6625503e-07 8.761613e-08 1.8644815e-07
000030 f4 52 ef 33 92 16 dd 33 5a f0 d9 33 84 13 e0 33
       1.1144394e-07 1.029522e-07 1.01485696e-07 1.0434363e-07
000040 87 1c 10 34 9a c0 0c 34 0e f0 81 34 ca 28 7c 34
       1.3421423e-07 1.3108584e-07 2.4202785e-07 2.3484168e-07
000050 39 40 4b 34 84 1b 5c 34 3e 41 df 33 9b c1 5c 34
       1.8929212e-07 2.0499107e-07 1.0396114e-07 2.055953e-07
000060 6f ff 05 34 9c 53 34 34 ba 24 1d 34 31 32 c9 33
       1.2479516e-07 1.6794223e-07 1.4635125e-07 9.3689216e-08
000070 59 6a fb 33 3b 54 6a 34 24 c3 4a 34 14 eb 4f 34
       1.1707443e-07 2.1823591e-07 1.8883708e-07 1.9363898e-07
000080 f8 e3 46 34 1d 49 69 34 64 1e 32 34 b1 07 bf 34
       1.8523122e-07 2.1726414e-07 1.6588598e-07 3.558212e-07
000090 b4 b9 a2 34 32 c6 dc 33 5d 47 3a 34 99 55 6a 34
       3.0309968e-07 1.02806e-07 1.7348562e-07 2.1824088e-07
0000a0 9c 74 85 33 29 17 d2 34 5a 98 2d 34 66 9b 4a 34
       6.214506e-08 3.91324e-07 1.6167306e-07 1.886925e-07
0000b0 86 63 39 34 6d 60 73 34 db 92 68 34 3c 15 89 34
       1.7265674e-07 2.2666218e-07 2.166011e-07 2.553369e-07
0000c0 90 c9 b8 34 99 33 cf 33 a0 5b 5a 34 4e fe da 33
       3.4419327e-07 9.648574e-08 2.0336165e-07 1.0197674e-07
0000d0 cb 21 aa 34 65 26 ce 34 8b 91 8e 34 a1 2b 07 35
       3.1689555e-07 3.8398426e-07 2.6555458e-07 5.035491e-07
0000e0 93 c4 4f 34 dc 61 6a 34 92 61 c6 34 c7 42 52 34
       1.934989e-07 2.1828549e-07 3.6951366e-07 1.9582068e-07
0000f0 93 59 94 34 65 91 41 34 3e a9 ea 34 fc d9 b3 34
       2.7632322e-07 1.802742e-07 4.3709036e-07 3.3499953e-07
000100 1a 7f d2 33 44 69 ea 33 7c 73 bc 33 ad bb 24 34
       9.802007e-08 1.0915622e-07 8.775439e-08 1.5341966e-07
000110 3c 29 32 34 b8 6b 95 33 5b da ae 33 64 43 ee 33
       1.6592543e-07 6.957947e-08 8.142225e-08 1.1094997e-07
000120 03 ac 96 33 12 e6 62 34 d8 31 ab 33 48 04 ce 33
       7.016208e-08 2.1131589e-07 7.9718745e-08 9.593401e-08
000130 ca 80 cf 33 ba 01 ee 33 1b f0 f6 33 ed cf 0e 34
       9.662615e-08 1.1083053e-07 1.14989426e-07 1.3300424e-07
000140 70 6e 4b 34 ca 13 60 33 7c d8 c0 33 92 6e 96 33
       1.8946025e-07 5.2172062e-08 8.980075e-08 7.005032e-08
000150 95 ca 33 34 db 88 68 34 c1 36 16 34 76 a1 9c 34
       1.6744373e-07 2.1656471e-07 1.3989758e-07 2.9174743e-07
000160 73 47 d3 33 a6 93 ed 33 97 7c 55 34 3d d3 d4 33
       9.83845e-08 1.10630296e-07 1.9882496e-07 9.910443e-08
000170 92 45 1d 34 24 ab b1 33 c1 c2 81 34 33 c3 41 34
       1.4647074e-07 8.273335e-08 2.4169825e-07 1.8045539e-07
000180 d1 32 6c 34 ce 14 92 34 8a d6 57 34 4b 77 18 35
       2.19977e-07 2.7209757e-07 2.0101484e-07 5.6798007e-07
000190 93 b1 28 35 ca 2a ce 33 ca 7c 69 34 05 2d b5 34
       6.284328e-07 9.600406e-08 2.1745214e-07 3.3746633e-07
0001a0 aa f5 81 33 f7 63 65 35 ab d7 6a 34 8f d0 86 34
       6.0517166e-08 8.5454616e-07 2.1871408e-07 2.511119e-07
0001b0 3d 6d 4c 34 70 cd d9 34 c9 fe ad 34 71 34 fa 34
       1.9038721e-07 4.0568875e-07 3.2409142e-07 4.6604285e-07
0001c0 e0 72 58 35 4a 2b bb 33 9a da 61 34 cb 70 bc 34
       8.0633436e-07 8.71574e-08 2.1034285e-07 3.5099796e-07
0001d0 d6 7b 2a 35 28 35 75 35 27 29 10 35 1f 78 b1 35
       6.351014e-07 9.1346965e-07 5.3704065e-07 1.3222487e-06
0001e0 d2 2d 85 34 12 e1 d1 34 f0 a2 69 35 65 96 9f 34
       2.480652e-07 3.9093044e-07 8.703637e-07 2.9725484e-07
0001f0 34 90 19 35 b4 93 48 34 ec ee 96 35 d0 72 00 35
       5.7206785e-07 1.8680186e-07 1.1245406e-06 4.785079e-07
000200 e9 16 d4 32 a9 5f fa 32 b1 e7 ec 32 4c cf 21 33
       2.4690467e-08 2.9147332e-08 2.7579377e-08 3.767427e-08
000210 02 29 6c 33 14 24 b0 32 68 20 c6 32 63 e8 04 33
       5.498533e-08 2.0505503e-08 2.306497e-08 3.0945e-08
000220 45 ae ea 32 c9 7f 85 33 04 54 d0 32 69 90 d6 32
       2.7320434e-08 6.216539e-08 2.4252593e-08 2.4978549e-08
000230 fd 22 ed 32 f2 e7 0d 33 e7 f2 11 33 11 48 39 33
       2.7606342e-08 3.3040074e-08 3.398136e-08 4.3139213e-08
000240 94 29 87 33 e2 81 b8 32 3a 71 d8 32 4e 89 4d 33
       6.2939904e-08 2.1479483e-08 2.5197199e-08 4.785516e-08
000250 f1 63 4d 33 57 56 87 33 f7 22 43 33 f0 26 b3 33
       4.7821178e-08 6.3021325e-08 4.5433776e-08 8.34242e-08
000260 40 c1 fb 32 20 53 08 33 92 63 79 33 8b c0 02 33
       2.9308126e-08 3.174057e-08 5.806539e-08 3.04431e-08
000270 4c cf 47 33 65 09 cb 32 76 91 a2 33 da 60 55 33
       4.6521833e-08 2.3636582e-08 7.570172e-08 4.9681013e-08
000280 c2 ad 59 36 bc 6a 7d 36 18 6c 58 36 8d f2 a5 36
       3.243666e-06 3.7762065e-06 3.2249427e-06 4.94562e-06
000290 77 12 a4 36 82 02 0c 36 50 ae 45 36 54 5b 7f 36
       4.8897305e-06 2.0863085e-06 2.945675e-06 3.805112e-06
0002a0 52 0e ed 35 98 cb c4 36 0a 4f 48 36 fd ff 56 36
       1.7662044e-06 5.8649566e-06 2.984833e-06 3.203749e-06
0002b0 09 5e 61 36 19 8e 7c 36 05 af 83 36 8c 6a 90 36
       3.3582348e-06 3.7633638e-06 3.924479e-06 4.303938e-06
0002c0 7a ee ad 36 09 48 03 36 6c 3c 5f 36 ea 19 11 35
       5.183564e-06 1.9562451e-06 3.326476e-06 5.405442e-07
0002d0 fa 88 a8 36 8c 69 c0 36 44 75 90 36 c9 11 ed 36
       5.0227363e-06 5.734333e-06 4.305186e-06 7.065221e-06
0002e0 b8 cd 62 36 20 5a 62 36 de cb b8 36 08 c2 69 36
       3.3796368e-06 3.3729084e-06 5.5073606e-06 3.4832647e-06
0002f0 cd 81 92 36 1a e6 46 36 18 a0 ca 36 e5 47 c1 36
       4.36625e-06 2.9638236e-06 6.0387065e-06 5.760218e-06
000300 e6 cf a5 35 61 2d bd 35 05 88 96 35 d2 b0 0b 36
       1.2353964e-06 1.4094804e-06 1.1215458e-06 2.0815537e-06
000310 b2 02 0d 36 7a fa 36 35 7c ac 8b 35 18 5e c4 35
       2.1012206e-06 6.8164775e-07 1.0406507e-06 1.4630523e-06
000320 98 6c c8 34 3e a5 2f 36 1e fb 8d 35 33 50 9d 35
       3.7331915e-07 2.6173216e-06 1.0578403e-06 1.1720753e-06
000330 f8 e2 99 35 ae 02 cd 35 40 b5 c6 35 09 30 ee 35
       1.1465445e-06 1.527447e-06 1.48049e-06 1.7746362e-06
000340 60 70 1e 36 2e 61 08 35 f1 ea a3 35 ed b0 a2 34
       2.3609246e-06 5.0805363e-07 1.2212823e-06 3.0303582e-07
000350 7c 2b 11 36 6c a3 2f 36 55 4c f5 35 71 18 68 36
       2.1631995e-06 2.6172156e-06 1.8276138e-06 3.458492e-06
000360 96 ab ac 35 bd 99 bb 35 9d 84 2a 36 69 6e b3 35
       1.2864937e-06 1.397733e-06 2.5409165e-06 1.3368673e-06
000370 91 63 fe 35 7e 9e 89 35 57 e2 44 36 c7 fd 1f 36
       1.8953452e-06 1.0253423e-06 2.9338023e-06 2.3840564e-06
000380 2e 5d 87 33 08 b8 8a 33 54 7e 50 33 e8 42 f2 33
       6.303377e-08 6.459601e-08 4.854367e-08 1.1281173e-07
000390 b2 98 e6 33 29 e9 08 33 dc b1 5c 33 5f 58 9f 33
       1.0737985e-07 3.1877025e-08 5.1384504e-08 7.420089e-08
0003a0 3e c1 8e 32 49 25 11 34 19 d8 4e 33 3a fd 76 33
       1.6618852e-08 1.3517742e-07 4.8159652e-08 5.7506647e-08
0003b0 80 eb 52 33 66 df aa 33 86 2b 97 33 6d 98 bc 33
       4.910862e-08 7.956878e-08 7.039402e-08 8.782158e-08
0003c0 78 f0 0e 34 79 49 d8 32 8d 16 8b 33 6b d2 25 33
       1.3312263e-07 2.5179121e-08 6.476794e-08 3.860843e-08
0003d0 a3 82 f7 33 6f ed 18 34 8e b8 cf 33 93 ad 4d 34
       1.15255965e-07 1.4242481e-07 9.672759e-08 1.9155259e-07
0003e0 a5 97 76 33 43 ff ac 33 2d 66 15 34 82 0e 8e 33
       5.741426e-08 8.055806e-08 1.3913878e-07 6.615029e-08
0003f0 b3 22 dd 33 a5 ed 5a 33 ec a1 3e 34 34 3c db 33
       1.0297426e-07 5.0973217e-08 1.7754036e-07 1.0208933e-07

exp_avg f4 [128]
000000 9c a8 34 b8 de 34 47 3a a0 64 07 3a 3c bf 0c 3a
       -4.3072374e-05 0.00075991254 0.00051648356 0.00053690723
000010 97 9a 20 39 70 b2 59 3a a6 c4 4b b9 71 09 1c ba
       0.00015316378 0.00083044823 -0.00019432846 -0.00059523346
000020 24 f9 22 bb e9 6f 8a b9 42 06 2d 39 d0 75 0f b7
       -0.0024867738 -0.0002640479 0.00016500897 -8.550895e-06
000030 1c 9b e7 39 d7 a6 56 ba 4f 55 e2 b8 84 3d 45 3a
       0.0004417532 -0.0008188313 -0.0001079241 0.000752412
000040 cb a9 69 b9 ed 4c 12 3a d2 a6 8f b8 a7 ab 8e bb
       -0.00022283864 0.0005580921 -6.849844e-05 -0.0043539586
000050 39 58 ac 39 ff f6 98 39 d1 86 67 b9 f5 74 b5 ba
       0.00032872127 0.00029175726 -0.000220801 -0.001384406
000060 d3 c1 e6 3a 11 cf 36 ba ca e1 df ba 51 79 da b6
       0.0017605372 -0.00069736043 -0.001708084 -6.5110294e-06
000070 59 6c 9e b9 cb 16 b7 39 9c 50 23 ba 75 53 84 3a
       -0.00030216834 0.00034921462 -0.0006229968 0.0010095673
000080 8e a6 92 b8 13 a2 46 3a cf 56 e8 39 f5 79 21 3a
       -6.992846e-05 0.00075772515 0.00044315166 0.00061598356
000090 bf 5c 37 39 3c 44 47 3a 3c 7b 03 b9 e2 6b 20 ba
       0.0001748679 0.0007601415 -0.00012539042 -0.00061195914
0000a0 49 6b c2 ba c3 30 c8 b9 31 0f 20 39 77 45 9c 38
       -0.0014832999 -0.00038183303 0.00015264448 7.4515985e-05
0000b0 bb 52 be 39 7c a0 4a ba 03 40 d6 b8 99 37 32 3a
       0.00036301263 -0.00077296025 -0.00010216238 0.0006798446
0000c0 d7 d6 62 b9 c2 fa 2f 3a 5c c3 a6 b8 77 50 54 bb
       -0.00021633074 0.0006713086 -7.951885e-05 -0.0032396594
0000d0 dc 7d aa 39 cc 10 cc 39 8c c8 46 b9 55 0c ae ba
       0.000325187 0.00038922427 -0.00018957461 -0.0013278822
0000e0 c6 44 d4 3a c8 13 a9 b9 24 1d a3 ba cf 63 8a b7
       0.0016194812 -0.0003224893 -0.0012444598 -1.6497359e-05
0000f0 98 41 9f b9 9d 35 c5 39 e3 42 6b ba 32 a4 a0 3a
       -0.00030375714 0.00037614713 -0.00089745055 0.0012255965
000100 60 ca 72 ba 8d c8 23 ba c3 2d d9 ba 68 f6 a9 bb
       -0.00092617236 -0.0006247841 -0.0016569424 -0.0051868446
000110 33 1b b7 39 43 19 e3 b9 94 c1 ba bb bb 97 24 3b
       0.00034924745 -0.00043315635 -0.005699346 0.0025114852
000120 5f f0 25 bb 08 96 94 3b 1b 03 72 3a 30 59 68 3b
       -0.0025320274 0.0045344867 0.000923203 0.003545355
000130 50 ed 38 ba b4 82 80 3b 44 64 b8 38 3c c4 00 3a
       -0.0007054405 0.003921831 8.79248e-05 0.00049120537
000140 d4 90 cf ba f7 55 4b b9 47 26 c0 39 1e ba 83 bd
       -0.0015836009 -0.00019391613 0.00036649613 -0.064319834
000150 9c 66 a0 b9 b1 7c 7c 39 86 02 dd 3a ae 72 86 bb
       -0.00030594028 0.00024079044 0.0016861714 -0.0041030264
000160 a2 ef 12 3b 7e 25 93 bb 5a 85 85 bb a5 c1 68 3a
       0.0022420664 -0.0044905534 -0.0040747346 0.0008878953
000170 ec a4 25 3b 8c 72 20 b9 ff da e1 3b 0f b1 c5 bb
       0.0025275303 -0.00015301461 0.0068925614 -0.00603307
000180 68 22 6d b8 d9 e2 1e 3a 98 e5 30 39 17 98 ca 39
       -5.6537247e-05 0.00060610246 0.00016870198 0.00038641758
000190 81 b6 d6 b7 04 1c c5 39 ac 0f 33 b8 f0 78 37 ba
       -2.5595773e-05 0.0003759564 -4.269152e-05 -0.0006998917
0001a0 c1 23 da b9 6b aa 4a b9 44 1a 19 38 a8 dd 1d b8
       -0.0004160684 -0.00019327707 3.6502504e-05 -3.763815e-05
0001b0 94 7c bd 39 b4 67 2f ba ee d5 ab b7 a8 0d 99 39
       0.00036141707 -0.0006691173 -2.0484407e-05 0.0002919261
0001c0 0f 30 6c b9 ea 12 d3 39 78 76 b6 b8 be d1 95 ba
       -0.00022524617 0.00040259148 -8.700503e-05 -0.0011430306
0001d0 19 d6 6a 39 3a 8e 8a 39 1f e8 aa b9 a4 3b b9 ba
       0.00022395737 0.00026427378 -0.0003259787 -0.0014132154
0001e0 e1 df 88 3a f4 80 0f ba 9e 71 93 ba 51 c2 75 b8
       0.0010442698 -0.00054742326 -0.001124907 -5.8593523e-05
0001f0 bc 53 99 b9 b3 c0 b4 39 f2 95 3d ba 04 54 84 3a
       -0.0002924482 0.00034475847 -0.00072321214 0.0010095839

exp_avg_sq f4 [128]
000000 75 a8 10 36 7e 2b 1c 36 53 dc cb 35 b2 02 0f 37
       2.1555727e-06 2.3271127e-06 1.5188801e-06 8.524092e-06
000010 a8 06 60 35 b8 39 92 37 72 0e 69 37 0d 4f a9 35
       8.345619e-07 1.7431434e-05 1.38912455e-05 1.2614488e-06
000020 fe 58 ba 38 d2 7d 26 37 c8 76 3c 36 a8 ad 04 37
       8.885747e-05 9.923666e-06 2.8083323e-06 7.908246e-06
000030 dc f8 bc 35 da 5f c3 37 30 f7 e9 34 c0 18 28 36
       1.4079519e-06 2.3290446e-05 4.3579485e-07 2.5048357e-06
000040 a0 91 68 36 5e 5c 7a 38 a4 49 37 33 ca a0 8d 39
       3.465546e-06 5.969067e-05 4.2674984e-08 0.00027013413
000050 f1 25 37 35 38 97 03 37 8d 1c f2 36 8a bc ff 37
       6.8228024e-07 7.843417e-06 7.2154858e-06 3.0486164e-05
000060 60 4b bc 36 92 ee 6f 36 14 d8 56 38 96 e8 99 36
       5.6116114e-06 3.5752641e-06 5.1222814e-05 4.586832e-06
000070 af 39 14 37 1f b0 97 35 95 78 3a 37 ae 2b 3e 37
       8.834918e-06 1.1301635e-06 1.1114539e-05 1.13350525e-05
000080 62 a5 bf 35 08 a9 1e 36 46 5f 80 35 66 d3 4a 37
       1.4278742e-06 2.3642224e-06 9.564471e-07 1.2089358e-05
000090 8b 85 c4 34 fa 41 6f 37 39 a9 82 37 41 d5 9c 35
       3.660501e-07 1.42608715e-05 1.5576008e-05 1.1684971e-06
0000a0 df 4a b4 38 2b e9 1d 37 86 98 1c 36 95 f7 f8 36
       8.597015e-05 9.412218e-06 2.3334592e-06 7.4197983e-06
0000b0 28 8a 95 35 9f ae 9c 37 87 5c 86 34 f9 99 be 35
       1.1141574e-06 1.8677963e-05 2.5026768e-07 1.4200915e-06
0000c0 53 b7 3b 36 59 52 3d 38 18 42 5f 33 83 f8 ab 39
       2.797188e-06 4.5137804e-05 5.1981345e-08 0.00032800817
0000d0 fd 82 76 35 7b e8 1b 37 b4 85 95 36 49 0d 3b 38
       9.1832754e-07 9.2928485e-06 4.456111e-06 4.4596647e-05
0000e0 76 4c 96 36 31 90 ef 35 21 ef 1c 38 15 5c 60 36
       4.4792496e-06 1.7848853e-06 3.7416004e-05 3.34322e-06
0000f0 37 f2 f9 36 9d 20 b9 35 52 0a 87 37 85 8e 7d 37
       7.448976e-06 1.3793066e-06 1.609806e-05 1.5113158e-05
000100 f7 8b d3 38 1e 69 16 39 79 57 6b 38 60 fd b6 3a
       0.000100873345 0.00014344274 5.610983e-05 0.001396101
000110 b5 81 b4 36 24 b8 e7 39 bf 16 9d 3a f7 c5 95 38
       5.379518e-06 0.0004419695 0.0011984928 7.1417475e-05
000120 2b 9b 19 3b 66 4e a7 39 6c 28 10 38 b7 9d 5c 3a
       0.0023438435 0.00031911134 3.436992e-05 0.00084158353
000130 bb 22 e9 38 1e e3 d5 39 75 50 cd 36 cd 08 5c 37
       0.00011116775 0.0004079574 6.1188425e-06 1.3115071e-05
000140 3e 14 e3 38 df 9c 32 3a 67 d6 16 36 51 9d fe 3c
       0.00010827974 0.0006813537 2.247654e-06 0.031080874
000150 2d 23 49 38 05 fb c2 39 d9 94 a4 38 8a a7 78 3a
       4.7954894e-05 0.00037189588 7.8478544e-05 0.00094854145
000160 31 7c db 38 fb 2a 57 39 f0 e7 e3 39 5f b3 a9 38
       0.00010465866 0.0002052001 0.0004346962 8.0919584e-05
000170 ed 74 9d 39 23 1d 5e 39 c5 ae 39 3a 1c 3d 86 39
       0.0003003249 0.00021182424 0.00070832326 0.00025604002
000180 fd c0 6e 35 0f 97 f0 35 81 22 d1 34 6a cd eb 36
       8.8942744e-07 1.7925357e-06 3.8954389e-07 7.027459e-06
000190 34 63 d8 34 37 25 b1 36 b4 59 26 37 be f5 be 35
       4.0305315e-07 5.2793434e-06 9.915257e-06 1.4227624e-06
0001a0 ee ab 36 37 ff ff 23 37 ae 96 78 35 76 18 ef 36
       1.0888076e-05 9.775161e-06 9.260647e-07 7.1256027e-06
0001b0 7f 81 55 35 b7 95 76 37 66 60 1b 34 81 8e ac 35
       7.9537125e-07 1.4697601e-05 1.447057e-07 1.2856473e-06
0001c0 09 40 5a 36 36 96 f4 36 51 9b 11 33 60 ac c5 38
       3.2521805e-06 7.2892535e-06 3.3901703e-08 9.425799e-05
0001d0 39 bc 3c 35 aa eb d2 36 ed 62 08 37 43 f4 5c 38
       7.030936e-07 6.2859226e-06 8.129265e-06 5.2679574e-05
0001e0 b1 2b 3b 36 f9 7d 95 35 7b da 0b 38 86 ce 04 36
       2.7890603e-06 1.1138028e-06 3.334366e-05 1.9789745e-06
0001f0 c8 2c de 36 49 f7 c7 35 8e e0 43 37 bb c1 34 37
       6.621329e-06 1.4898625e-06 1.1675189e-05 1.0773942e-05

exp_avg f4 [128]
000000 9c a8 34 b8 de 34 47 3a a0 64 07 3a 3c bf 0c 3a
       -4.3072374e-05 0.00075991254 0.00051648356 0.00053690723
000010 97 9a 20 39 70 b2 59 3a a6 c4 4b b9 71 09 1c ba
       0.00015316378 0.00083044823 -0.00019432846 -0.00059523346
000020 24 f9 22 bb e9 6f 8a b9 42 06 2d 39 d0 75 0f b7
       -0.0024867738 -0.0002640479 0.00016500897 -8.550895e-06
000030 1c 9b e7 39 d7 a6 56 ba 4f 55 e2 b8 84 3d 45 3a
       0.0004417532 -0.0008188313 -0.0001079241 0.000752412
000040 cb a9 69 b9 ed 4c 12 3a d2 a6 8f b8 a7 ab 8e bb
       -0.00022283864 0.0005580921 -6.849844e-05 -0.0043539586
000050 39 58 ac 39 ff f6 98 39 d1 86 67 b9 f5 74 b5 ba
       0.00032872127 0.00029175726 -0.000220801 -0.001384406
000060 d3 c1 e6 3a 11 cf 36 ba ca e1 df ba 51 79 da b6
       0.0017605372 -0.00069736043 -0.001708084 -6.5110294e-06
000070 59 6c 9e b9 cb 16 b7 39 9c 50 23 ba 75 53 84 3a
       -0.00030216834 0.00034921462 -0.0006229968 0.0010095673
000080 8e a6 92 b8 13 a2 46 3a cf 56 e8 39 f5 79 21 3a
       -6.992846e-05 0.00075772515 0.00044315166 0.00061598356
000090 bf 5c 37 39 3c 44 47 3a 3c 7b 03 b9 e2 6b 20 ba
       0.0001748679 0.0007601415 -0.00012539042 -0.00061195914
0000a0 49 6b c2 ba c3 30 c8 b9 31 0f 20 39 77 45 9c 38
       -0.0014832999 -0.00038183303 0.00015264448 7.4515985e-05
0000b0 bb 52 be 39 7c a0 4a ba 03 40 d6 b8 99 37 32 3a
       0.00036301263 -0.00077296025 -0.00010216238 0.0006798446
0000c0 d7 d6 62 b9 c2 fa 2f 3a 5c c3 a6 b8 77 50 54 bb
       -0.00021633074 0.0006713086 -7.951885e-05 -0.0032396594
0000d0 dc 7d aa 39 cc 10 cc 39 8c c8 46 b9 55 0c ae ba
       0.000325187 0.00038922427 -0.00018957461 -0.0013278822
0000e0 c6 44 d4 3a c8 13 a9 b9 24 1d a3 ba cf 63 8a b7
       0.0016194812 -0.0003224893 -0.0012444598 -1.6497359e-05
0000f0 98 41 9f b9 9d 35 c5 39 e3 42 6b ba 32 a4 a0 3a
       -0.00030375714 0.00037614713 -0.00089745055 0.0012255965
000100 60 ca 72 ba 8d c8 23 ba c3 2d d9 ba 68 f6 a9 bb
       -0.00092617236 -0.0006247841 -0.0016569424 -0.0051868446
000110 33 1b b7 39 43 19 e3 b9 94 c1 ba bb bb 97 24 3b
       0.00034924745 -0.00043315635 -0.005699346 0.0025114852
000120 5f f0 25 bb 08 96 94 3b 1b 03 72 3a 30 59 68 3b
       -0.0025320274 0.0045344867 0.000923203 0.003545355
000130 50 ed 38 ba b4 82 80 3b 44 64 b8 38 3c c4 00 3a
       -0.0007054405 0.003921831 8.79248e-05 0.00049120537
000140 d4 90 cf ba f7 55 4b b9 47 26 c0 39 1e ba 83 bd
       -0.0015836009 -0.00019391613 0.00036649613 -0.064319834
000150 9c 66 a0 b9 b1 7c 7c 39 86 02 dd 3a ae 72 86 bb
       -0.00030594028 0.00024079044 0.0016861714 -0.0041030264
000160 a2 ef 12 3b 7e 25 93 bb 5a 85 85 bb a5 c1 68 3a
       0.0022420664 -0.0044905534 -0.0040747346 0.0008878953
000170 ec a4 25 3b 8c 72 20 b9 ff da e1 3b 0f b1 c5 bb
       0.0025275303 -0.00015301461 0.0068925614 -0.00603307
000180 68 22 6d b8 d9 e2 1e 3a 98 e5 30 39 17 98 ca 39
       -5.6537247e-05 0.00060610246 0.00016870198 0.00038641758
000190 81 b6 d6 b7 04 1c c5 39 ac 0f 33 b8 f0 78 37 ba
       -2.5595773e-05 0.0003759564 -4.269152e-05 -0.0006998917
0001a0 c1 23 da b9 6b aa 4a b9 44 1a 19 38 a8 dd 1d b8
       -0.0004160684 -0.00019327707 3.6502504e-05 -3.763815e-05
0001b0 94 7c bd 39 b4 67 2f ba ee d5 ab b7 a8 0d 99 39
       0.00036141707 -0.0006691173 -2.0484407e-05 0.0002919261
0001c0 0f 30 6c b9 ea 12 d3 39 78 76 b6 b8 be d1 95 ba
       -0.00022524617 0.00040259148 -8.700503e-05 -0.0011430306
0001d0 19 d6 6a 39 3a 8e 8a 39 1f e8 aa b9 a4 3b b9 ba
       0.00022395737 0.00026427378 -0.0003259787 -0.0014132154
0001e0 e1 df 88 3a f4 80 0f ba 9e 71 93 ba 51 c2 75 b8
       0.0010442698 -0.00054742326 -0.001124907 -5.8593523e-05
0001f0 bc 53 99 b9 b3 c0 b4 39 f2 95 3d ba 04 54 84 3a
       -0.0002924482 0.00034475847 -0.00072321214 0.0010095839

exp_avg_sq f4 [128]
000000 75 a8 10 36 7e 2b 1c 36 53 dc cb 35 b2 02 0f 37
       2.1555727e-06 2.3271127e-06 1.5188801e-06 8.524092e-06
000010 a8 06 60 35 b8 39 92 37 72 0e 69 37 0d 4f a9 35
       8.345619e-07 1.7431434e-05 1.38912455e-05 1.2614488e-06
000020 fe 58 ba 38 d2 7d 26 37 c8 76 3c 36 a8 ad 04 37
       8.885747e-05 9.923666e-06 2.8083323e-06 7.908246e-06
000030 dc f8 bc 35 da 5f c3 37 30 f7 e9 34 c0 18 28 36
       1.4079519e-06 2.3290446e-05 4.3579485e-07 2.5048357e-06
000040 a0 91 68 36 5e 5c 7a 38 a4 49 37 33 ca a0 8d 39
       3.465546e-06 5.969067e-05 4.2674984e-08 0.00027013413
000050 f1 25 37 35 38 97 03 37 8d 1c f2 36 8a bc ff 37
       6.8228024e-07 7.843417e-06 7.2154858e-06 3.0486164e-05
000060 60 4b bc 36 92 ee 6f 36 14 d8 56 38 96 e8 99 36
       5.6116114e-06 3.5752641e-06 5.1222814e-05 4.586832e-06
000070 af 39 14 37 1f b0 97 35 95 78 3a 37 ae 2b 3e 37
       8.834918e-06 1.1301635e-06 1.1114539e-05 1.13350525e-05
000080 62 a5 bf 35 08 a9 1e 36 46 5f 80 35 66 d3 4a 37
       1.4278742e-06 2.3642224e-06 9.564471e-07 1.2089358e-05
000090 8b 85 c4 34 fa 41 6f 37 39 a9 82 37 41 d5 9c 35
       3.660501e-07 1.42608715e-05 1.5576008e-05 1.1684971e-06
0000a0 df 4a b4 38 2b e9 1d 37 86 98 1c 36 95 f7 f8 36
       8.597015e-05 9.412218e-06 2.3334592e-06 7.4197983e-06
0000b0 28 8a 95 35 9f ae 9c 37 87 5c 86 34 f9 99 be 35
       1.1141574e-06 1.8677963e-05 2.5026768e-07 1.4200915e-06
0000c0 53 b7 3b 36 59 52 3d 38 18 42 5f 33 83 f8 ab 39
       2.797188e-06 4.5137804e-05 5.1981345e-08 0.00032800817
0000d0 fd 82 76 35 7b e8 1b 37 b4 85 95 36 49 0d 3b 38
       9.1832754e-07 9.2928485e-06 4.456111e-06 4.4596647e-05
0000e0 76 4c 96 36 31 90 ef 35 21 ef 1c 38 15 5c 60 36
       4.4792496e-06 1.7848853e-06 3.7416004e-05 3.34322e-06
0000f0 37 f2 f9 36 9d 20 b9 35 52 0a 87 37 85 8e 7d 37
       7.448976e-06 1.3793066e-06 1.609806e-05 1.5113158e-05
000100 f7 8b d3 38 1e 69 16 39 79 57 6b 38 60 fd b6 3a
       0.000100873345 0.00014344274 5.610983e-05 0.001396101
000110 b5 81 b4 36 24 b8 e7 39 bf 16 9d 3a f7 c5 95 38
       5.379518e-06 0.0004419695 0.0011984928 7.1417475e-05
000120 2b 9b 19 3b 66 4e a7 39 6c 28 10 38 b7 9d 5c 3a
       0.0023438435 0.00031911134 3.436992e-05 0.00084158353
000130 bb 22 e9 38 1e e3 d5 39 75 50 cd 36 cd 08 5c 37
       0.00011116775 0.0004079574 6.1188425e-06 1.3115071e-05
000140 3e 14 e3 38 df 9c 32 3a 67 d6 16 36 51 9d fe 3c
       0.00010827974 0.0006813537 2.247654e-06 0.031080874
000150 2d 23 49 38 05 fb c2 39 d9 94 a4 38 8a a7 78 3a
       4.7954894e-05 0.00037189588 7.8478544e-05 0.00094854145
000160 31 7c db 38 fb 2a 57 39 f0 e7 e3 39 5f b3 a9 38
       0.00010465866 0.0002052001 0.0004346962 8.0919584e-05
000170 ed 74 9d 39 23 1d 5e 39 c5 ae 39 3a 1c 3d 86 39
       0.0003003249 0.00021182424 0.00070832326 0.00025604002
000180 fd c0 6e 35 0f 97 f0 35 81 22 d1 34 6a cd eb 36
       8.8942744e-07 1.7925357e-06 3.8954389e-07 7.027459e-06
000190 34 63 d8 34 37 25 b1 36 b4 59 26 37 be f5 be 35
       4.0305315e-07 5.2793434e-06 9.915257e-06 1.4227624e-06
0001a0 ee ab 36 37 ff ff 23 37 ae 96 78 35 76 18 ef 36
       1.0888076e-05 9.775161e-06 9.260647e-07 7.1256027e-06
0001b0 7f 81 55 35 b7 95 76 37 66 60 1b 34 81 8e ac 35
       7.9537125e-07 1.4697601e-05 1.447057e-07 1.2856473e-06
0001c0 09 40 5a 36 36 96 f4 36 51 9b 11 33 60 ac c5 38
       3.2521805e-06 7.2892535e-06 3.3901703e-08 9.425799e-05
0001d0 39 bc 3c 35 aa eb d2 36 ed 62 08 37 43 f4 5c 38
       7.030936e-07 6.2859226e-06 8.129265e-06 5.2679574e-05
0001e0 b1 2b 3b 36 f9 7d 95 35 7b da 0b 38 86 ce 04 36
       2.7890603e-06 1.1138028e-06 3.334366e-05 1.9789745e-06
0001f0 c8 2c de 36 49 f7 c7 35 8e e0 43 37 bb c1 34 37
       6.621329e-06 1.4898625e-06 1.1675189e-05 1.0773942e-05
