true/triplet-lstm/4-classes/version_0/checkpoints/epoch=9.ckpt (torch_old, 18736 bytes, 12 tensors)

exp_avg f4 [64, 3]
0	0x3a0b14d5	0.00053055334
1	0xb8d246de	-0.000100267804
2	0xb98b9258	-0.0002662118
3	0x39c4dcdd	0.0003754859
4	0x39507c65	0.00019882766
5	0x38961f1d	7.158353e-05
6	0x39cd2364	0.00039127015
7	0x392a7601	0.00016256423
8	0xb8ecf8f3	-0.00011299727
9	0xba0e05bf	-0.00054177264
10	0x3aa1e720	0.0012352206
11	0x3ae1f1d9	0.0017238214
12	0xb99bb5c2	-0.00029699324
13	0x3a21b36d	0.0006168399
14	0x39a979d6	0.00032324967
15	0x3924b99c	0.00015709404
16	0x3911075d	0.0001383102
17	0xb9127882	-0.00013968538
18	0x38905ec9	6.88411e-05
19	0x38cde9b0	9.8186894e-05
20	0xb61fcb60	-2.3811226e-06
21	0xbaa83b91	-0.0012835135
22	0x3a6aac42	0.000895206
23	0x3aafd674	0.0013415352
24	0xb92136bf	-0.00015374551
25	0xb7971a71	-1.8012915e-05
26	0xb90ad67c	-0.00013240607
27	0xb9a93635	-0.0003227458
28	0xb8e98b84	-0.000111362926
29	0x39e414c2	0.00043503015
30	0xb99637a0	-0.00028651673
31	0x399f830a	0.00030424475
32	0x39bb01f9	0.0003566889
33	0x39d2bda2	0.0004019561
34	0xb914ec07	-0.00014202307
35	0xb99a5cde	-0.0002944236
36	0x3a56180e	0.00081670366
37	0x389878a2	7.2703944e-05
38	0x39df270a	0.0004256296
39	0xba136787	-0.0005623032
40	0x3a9208b1	0.0011141506
41	0x3a8c0136	0.0010681513
42	0xb8dc8629	-0.00010515407
43	0x39581269	0.00020606224
44	0xb92d39cd	-0.00016520098
45	0x3a2668f4	0.00063480367
46	0xb1ab8a0d	-4.9924496e-09
47	0xba16ad48	-0.0005747867
48	0x39e6e98e	0.0004404303
49	0xb8cd1245	-9.778565e-05
50	0xb9499e82	-0.00019227903
51	0x39d29981	0.0004016869
52	0x39bd32e3	0.00036086803
53	0x39804894	0.00024468137
54	0x3a3cc6c1	0.00072012475
55	0x387c2e26	6.012446e-05
56	0xb909cebb	-0.00013142351
57	0xba8e987e	-0.0010879186
58	0x3a90595a	0.0011012957
59	0x3ace2beb	0.0015729641
60	0xba33ce8b	-0.00068590854
61	0x3a8a6ff2	0.0010561927
62	0x3a4dca3f	0.00078502664
63	0x39a2833f	0.00030996834
64	0x3898f41d	7.2933944e-05
65	0xb97a6db2	-0.00023882723
66	0x3945a7b1	0.00018849854
67	0x3997fbd0	0.0002898858
68	0x38a8027f	8.011329e-05
69	0xbad5aeb9	-0.0016302682
70	0x3a1f5483	0.0006077962
71	0x3a9fc985	0.0012190795
72	0x39f295a5	0.0004626933
73	0x393c817b	0.00017977312
74	0x38b0fffa	8.440013e-05
75	0xba34bfd5	-0.000689504
76	0x3908c27d	0.00013042423
77	0x3a23f511	0.0006254474
78	0xba3198d4	-0.00067747873
79	0x38c2ca63	9.288338e-05
80	0x39e09eb0	0.0004284284
81	0x39cc7f8d	0.00039004945
82	0xb810d530	-3.453082e-05
83	0xb9ba5cc3	-0.00035545797
84	0xb9d366e6	-0.00040321721
85	0x3a43a958	0.0007463894
86	0x3a282048	0.00064135017
87	0xbb765b9b	-0.0037591222
88	0x3b0b100c	0.0021219281
89	0x3ac35d01	0.0014905037
90	0xba039d40	-0.00050206855
91	0x3a21b46e	0.0006168549
92	0x3802f71b	3.122455e-05
93	0x39e8abd7	0.0004437852
94	0x3a01ac14	0.0004946601
95	0xb96d2803	-0.00022616987
96	0x3a407022	0.0007340928
97	0xbacc27c5	-0.0015575817
98	0xb9b6dcdd	-0.000348783
99	0x3a924669	0.00111599
100	0xb95c4fa4	-0.00021010503
101	0xba8a82cd	-0.0010567546
102	0xbb79bb16	-0.0038105897
103	0x3a245ff0	0.00062703993
104	0x3b118852	0.0022206497
105	0xbbc2f391	-0.0059494455
106	0x3b2437c5	0.0025057655
107	0x3c0bb946	0.008528059
108	0x3aea2d26	0.0017866238
109	0x3a68bc77	0.0008878181
110	0xbb6c7404	-0.0036079893
111	0x3aca7078	0.0015444895
112	0xb9114b39	-0.000138563
113	0xbaa40044	-0.0012512286
114	0xbaa69753	-0.0012709893
115	0x3a05cedf	0.00051043736
116	0x3af9af4e	0.0019049437
117	0x3ba16aba	0.004926053
118	0xba1856d7	-0.000581128
119	0xbbad5066	-0.0052891253
120	0xbbf34bde	-0.0074248156
121	0xbaf77a28	-0.001888101
122	0x3b731937	0.0037093887
123	0x3b5d88b1	0.0033803398
124	0x39f1ba6f	0.00046106006
125	0xbad010a7	-0.0015874103
126	0xbbf608a8	-0.007508356
127	0x39b4ae20	0.0003446201
128	0x3bcf0c5e	0.006318613
129	0x3a99df3f	0.0011739506
130	0x37b546fe	2.160994e-05
131	0xbb338751	-0.0027393887
132	0x3c14bc34	0.009078074
133	0xbadd0296	-0.0016861733
134	0xbc22842b	-0.009919207
135	0xbc2904be	-0.010316072
136	0x3bc9d705	0.0061596655
137	0x3c7a915a	0.015293444
138	0x3bc11f21	0.0058936034
139	0xb97bc67d	-0.00024011168
140	0xbbf9e5e0	-0.00762628
141	0x390fc0c7	0.00013709358
142	0x3af664e4	0.0018798378
143	0xba873fb4	-0.0010318668
144	0x3a423ede	0.00074098806
145	0xb8d36415	-0.00010079906
146	0xb98518be	-0.0002538617
147	0x38cfcaf0	9.908329e-05
148	0x39ed313a	0.0004524084
149	0x39d2d485	0.0004021266
150	0x38eac02a	0.00011193783
151	0x39df3684	0.00042574492
152	0xb98a4f0c	-0.00026380306
153	0xba2aba7d	-0.0006512774
154	0x3a8590b9	0.0010190225
155	0x3ab69796	0.0013930674
156	0x39ddb18a	0.00042284682
157	0xb9949641	-0.00028340708
158	0xb98a56c4	-0.00026386057
159	0x380412c1	3.148872e-05
160	0x3a0944fa	0.00052364136
161	0xb990ba42	-0.00027604593
162	0x38b48e8d	8.609621e-05
163	0x39f5318c	0.00046766957
164	0x3909157b	0.0001307334
165	0xbaf33c89	-0.001855747
166	0x3a806512	0.0009795746
167	0x3adad756	0.0016696255
168	0xb94d7908	-0.00019595411
169	0x3a6c8654	0.0009022702
170	0x3a2e945e	0.00066596817
171	0xba45922a	-0.0007536734
172	0x37f25524	2.8888295e-05
173	0x3a444836	0.0007487567
174	0xb9803b71	-0.0002445835
175	0x39897b31	0.0002622246
176	0x3995b509	0.00028554376
177	0x38954352	7.117413e-05
178	0xb93a801c	-0.00017786067
179	0xba1c9e8c	-0.0005974553
180	0xb906b5de	-0.00012846987
181	0x3a250251	0.00062945957
182	0x3a4ac10d	0.0007734455
183	0xba97cfd9	-0.0011582329
184	0x3b377fe9	0.0027999824
185	0x3b10ac77	0.0022075453
186	0xba1da5b8	-0.0006013769
187	0x3ae2452b	0.0017263045
188	0x3a89f330	0.0010524746
189	0x37ea70aa	2.7947437e-05
190	0x3aafa22f	0.0013399775
191	0x39cebe06	0.0003943296

exp_avg_sq f4 [64, 3]
0	0x36789d4d	3.704644e-06
1	0x361c96a1	2.333349e-06
2	0x36a3e29b	4.884159e-06
3	0x36d36880	6.3004554e-06
4	0x36b20fd1	5.3066547e-06
5	0x36993257	4.5656157e-06
6	0x369db0c7	4.699544e-06
7	0x3618d90a	2.2776098e-06
8	0x35ded378	1.6601834e-06
9	0x37824840	1.5530852e-05
10	0x377c7e0c	1.5049718e-05
11	0x37fdbb66	3.0247214e-05
12	0x37369045	1.0881636e-05
13	0x36a13222	4.80401e-06
14	0x36d71df2	6.4109854e-06
15	0x35944336	1.104642e-06
16	0x353fd662	7.146501e-07
17	0x352a2020	6.3376683e-07
18	0x3594c46b	1.1084024e-06
19	0x34dd4976	4.1217908e-07
20	0x351d6994	5.8640694e-07
21	0x3898eb91	7.2918025e-05
22	0x381925be	3.6513193e-05
23	0x388ef418	6.816554e-05
24	0x37902869	1.7184955e-05
25	0x37244b28	9.79266e-06
26	0x365c923b	3.2867672e-06
27	0x36ac2a7f	5.1309466e-06
28	0x36881a3a	4.056169e-06
29	0x365ab38f	3.2589048e-06
30	0x377d0257	1.508052e-05
31	0x36576ef3	3.2102078e-06
32	0x373dd303	1.1314408e-05
33	0x3695c337	4.463272e-06
34	0x3627fa3a	2.503059e-06
35	0x365978a5	3.2405744e-06
36	0x37dd4e9e	2.6381862e-05
37	0x36eb93e2	7.0207616e-06
38	0x37511dc0	1.24642975e-05
39	0x385f0e64	5.3180745e-05
40	0x393f7648	0.00018259243
41	0x39554757	0.00020339839
42	0x37d6dbb1	2.561309e-05
43	0x37a026ea	1.9091607e-05
44	0x37a69fff	1.9863246e-05
45	0x3734381c	1.07419e-05
46	0x376470e9	1.3616148e-05
47	0x36d95ead	6.4781257e-06
48	0x35bce206	1.4072873e-06
49	0x3544e593	7.3349764e-07
50	0x35598a48	8.1040025e-07
51	0x36d5bd33	6.3699204e-06
52	0x36c73cf7	5.9377594e-06
53	0x369c9526	4.6665255e-06
54	0x36a40ac6	4.888835e-06
55	0x36acf1de	5.1541565e-06
56	0x36a11a13	4.8012093e-06
57	0x37e0d83b	2.6803571e-05
58	0x370b08ec	8.287123e-06
59	0x375cf9a1	1.3171143e-05
60	0x38095a1f	3.2747277e-05
61	0x37a82de1	2.0048525e-05
62	0x37b152dd	2.113863e-05
63	0x35c99e63	1.5021764e-06
64	0x35a9ad3b	1.2641898e-06
65	0x35a947d1	1.2612383e-06
66	0x35e0a793	1.6738071e-06
67	0x3504a645	4.9415786e-07
68	0x351e51b6	5.897849e-07
69	0x381bfbe8	3.7189486e-05
70	0x371ae254	9.231811e-06
71	0x373c3c0a	1.1219652e-05
72	0x378e41ec	1.6958416e-05
73	0x37921490	1.7414131e-05
74	0x3796b4ce	1.7965587e-05
75	0x37195645	9.139597e-06
76	0x35f0a290	1.7928705e-06
77	0x361599c6	2.2292238e-06
78	0x370b2ee2	8.295961e-06
79	0x360c1b02	2.0877346e-06
80	0x362fd3bf	2.6200285e-06
81	0x36cbf083	6.0778707e-06
82	0x36bceca0	5.6303834e-06
83	0x36ad1a9b	5.158899e-06
84	0x37901ba7	1.7179014e-05
85	0x378b9a4a	1.6641938e-05
86	0x37c8e79a	2.3949706e-05
87	0x394879ab	0.00019118811
88	0x3934f6b8	0.00017258048
89	0x3966f820	0.00022026943
90	0x38b8429b	8.78621e-05
91	0x38885596	6.500927e-05
92	0x38c82c2f	9.544973e-05
93	0x37862806	1.5992682e-05
94	0x378f3026	1.706935e-05
95	0x378cd35e	1.6787726e-05
96	0x38b285b7	8.512608e-05
97	0x38182d85	3.6282017e-05
98	0x381ae326	3.692801e-05
99	0x381040a9	3.4392495e-05
100	0x3800766d	3.062787e-05
101	0x378ea985	1.7006658e-05
102	0x3941a932	0.00018468944
103	0x38cf4e5b	9.885124e-05
104	0x39070fbb	0.00012880463
105	0x3acdfea1	0.0015716144
106	0x3ab1ab33	0.001355505
107	0x3ae9544e	0.0017801614
108	0x3a92cc5e	0.0011199822
109	0x3a11cccd	0.0005561829
110	0x39fc3b7b	0.00048109502
111	0x380c17f5	3.3400913e-05
112	0x37615b4b	1.3432301e-05
113	0x376fb45c	1.4287503e-05
114	0x3874dba2	5.8378682e-05
115	0x38014233	3.081765e-05
116	0x3850c518	4.9774622e-05
117	0x3a308454	0.00067335856
118	0x3984dba1	0.00025340638
119	0x39a989e2	0.00032336923
120	0x3a8c35e2	0.0010697211
121	0x3a0cff34	0.00053786044
122	0x3a19d3f7	0.0005868072
123	0x3a00db26	0.0004915468
124	0x396541f4	0.00021863711
125	0x39b4719b	0.00034416918
126	0x3a0f1903	0.0005458744
127	0x3989adba	0.00026260113
128	0x399af4e2	0.0002955562
129	0x3988f7e6	0.0002612464
130	0x38e8fd21	0.00011109771
131	0x38c4cdff	9.384378e-05
132	0x3bdecdd2	0.006799438
133	0x3b27afa3	0.0025586865
134	0x3b768268	0.003761435
135	0x3c0e04b4	0.0086681135
136	0x3b663c29	0.0035131073
137	0x3ba1abab	0.0049337945
138	0x3b3e61be	0.0029049958
139	0x3a89f8a5	0.0010526372
140	0x3ac43987	0.0014970758
141	0x39a2efec	0.00031077804
142	0x390edf37	0.0001362533
143	0x391f41ca	0.0001518793
144	0x3639b7a8	2.767405e-06
145	0x35f7f8f8	1.8475394e-06
146	0x36706807	3.5823339e-06
147	0x3712321c	8.713945e-06
148	0x36e43e37	6.8021723e-06
149	0x37033e41	7.822703e-06
150	0x36eae941	7.0008978e-06
151	0x36edba48	7.0848364e-06
152	0x36e06f88	6.688704e-06
153	0x3722b82d	9.698834e-06
154	0x369bb3b3	4.6402797e-06
155	0x36d2be1d	6.28062e-06
156	0x37de0734	2.6467816e-05
157	0x37e864a2	2.7703416e-05
158	0x3828476e	4.0120845e-05
159	0x36142f54	2.2081267e-06
160	0x36257ecb	2.466072e-06
161	0x3600fd3c	1.9220888e-06
162	0x35ba1b4d	1.3866025e-06
163	0x357ba1ec	9.3740414e-07
164	0x3574a3ed	9.1135627e-07
165	0x37ead8c8	2.799592e-05
166	0x37492e0c	1.1991255e-05
167	0x3789a4e7	1.6408461e-05
168	0x3773c031	1.4528677e-05
169	0x3746f84a	1.1859529e-05
170	0x36ed92db	7.0802466e-06
171	0x372efe74	1.0430453e-05
172	0x369f0f67	4.7403623e-06
173	0x36a84256	5.0145127e-06
174	0x3724baa7	9.81862e-06
175	0x36018889	1.9301972e-06
176	0x364f6c85	3.090857e-06
177	0x366a5310	3.4917066e-06
178	0x3643c5fc	2.9172506e-06
179	0x36555440	3.1788513e-06
180	0x36f6c841	7.354684e-06
181	0x36c8da9f	5.9859153e-06
182	0x36a9b1a7	5.057274e-06
183	0x38a3aac3	7.8042525e-05
184	0x382df998	4.1478866e-05
185	0x383160e1	4.2290314e-05
186	0x38b034fd	8.402204e-05
187	0x38c88188	9.56087e-05
188	0x38be4be1	9.0740396e-05
189	0x37459b3f	1.1778261e-05
190	0x374f9e82	1.2375067e-05
191	0x37233b57	9.729373e-06

exp_avg f4 [64, 16]
0	0x379dfb9d	1.8833025e-05
1	0xb9078656	-0.00012924647
2	0x38a1ed0c	7.721232e-05
3	0x380c16b5	3.339975e-05
4	0xb8d5d284	-0.00010195843
5	0xb8a55fa6	-7.885629e-05
6	0x370417c5	7.873347e-06
7	0x3740f7a3	1.1501749e-05
8	0x38a7131d	7.966741e-05
9	0xb6a38b90	-4.8740258e-06
10	0x37568df9	1.278845e-05
11	0xb8d1a2c5	-9.996215e-05
12	0xb886bb26	-6.424477e-05
13	0x3918fdd8	0.00014590414
14	0xb91fd434	-0.00015242473
15	0xb8d044d7	-9.931035e-05
16	0x3828ae57	4.0216688e-05
17	0xb9b4bc50	-0.0003447258
18	0x3951782e	0.00019976564
19	0x39109596	0.00013788635
20	0xb99c1c33	-0.0002977565
21	0xb98deb57	-0.00027068958
22	0xb872cf12	-5.7890145e-05
23	0x37bcb219	2.249428e-05
24	0x39514a28	0.00019959419
25	0xb7cd1939	-2.444965e-05
26	0x370d2c79	8.4146095e-06
27	0xb9a85942	-0.0003210996
28	0xb96ffca3	-0.0002288693
29	0x397e6efd	0.00024264674
30	0xb9954a9b	-0.0002847508
31	0xb9a9196e	-0.00032253138
32	0x375a9513	1.3028522e-05
33	0xb97ca291	-0.00024093153
34	0x391a3189	0.00014705038
35	0x390629a8	0.00012794754
36	0xb965d46e	-0.00021918278
37	0xb9516e15	-0.00019972802
38	0xb8a3d993	-7.812972e-05
39	0xb57714c1	-9.204487e-07
40	0x3922d7f3	0.00015529971
41	0xb85d274c	-5.2727104e-05
42	0x3778e151	1.48344125e-05
43	0xb96828fa	-0.00022140509
44	0xb95ac21d	-0.00020862413
45	0x39582029	0.00020611346
46	0xb975d5cb	-0.00023444665
47	0xb97fc252	-0.00024391085
48	0x39412e14	0.0001842308
49	0xb8e775b0	-0.00011036859
50	0x386ed0d7	5.693812e-05
51	0xb8496666	-4.80175e-05
52	0xb86b85f7	-5.615313e-05
53	0xb9299399	-0.0001617208
54	0x38ac86f7	8.226738e-05
55	0x391f1418	0.00015170907
56	0x3884c7af	6.3314445e-05
57	0x38b1b699	8.474029e-05
58	0xb90e5f33	-0.0001357764
59	0xb90a8282	-0.00013209324
60	0xb88830e3	-6.494091e-05
61	0xb9444d0f	-0.00018720723
62	0xb80f54bd	-3.4172775e-05
63	0xb96c596a	-0.00022540023
64	0x394ee0ae	0.0001972939
65	0xb98f0a27	-0.0002728265
66	0x38f3dff1	0.00011628855
67	0xb8c5b172	-9.426744e-05
68	0xb932d82b	-0.00017055932
69	0xb929d63c	-0.00016196904
70	0x39136dba	0.00014059889
71	0x391e6af3	0.00015107896
72	0x38ab175b	8.158266e-05
73	0x390ead06	0.00013606632
74	0xb8ee5fcf	-0.0001136657
75	0xb96f2efa	-0.00022810316
76	0xb8180aba	-3.6249614e-05
77	0x383974af	4.4216107e-05
78	0xb92b986e	-0.00016364615
79	0xb9532b06	-0.00020138556
80	0x3835f1ee	4.3379077e-05
81	0xb8b6abb2	-8.710417e-05
82	0x382a3ee0	4.0589715e-05
83	0x36e46cd6	6.8075997e-06
84	0xb88f61c8	-6.8369845e-05
85	0xb8750bb5	-5.8423455e-05
86	0xb717212b	-9.008024e-06
87	0x37ed4255	2.828349e-05
88	0x38252b5f	3.9379458e-05
89	0xb5ea8166	-1.7472018e-06
90	0xb7d52a8c	-2.5411391e-05
91	0xb8973922	-7.210883e-05
92	0xb8714c41	-5.7529895e-05
93	0x387634f2	5.870028e-05
94	0xb8b65148	-8.693576e-05
95	0xb8a06d72	-7.64978e-05
96	0x38f0b1f4	0.00011477238
97	0xb92fb4b0	-0.00016756612
98	0x38a8d1a2	8.0499114e-05
99	0xb80a5d8e	-3.2988894e-05
100	0xb8fcacf3	-0.00012048511
101	0xb8f0c03a	-0.00011479897
102	0x38b4b904	8.617531e-05
103	0x38cc7f50	9.751192e-05
104	0x389aa1c2	7.373422e-05
105	0x38944021	7.069135e-05
106	0xb8579ee5	-5.1407977e-05
107	0xb9158cd5	-0.00014262211
108	0xb7f275ba	-2.8903469e-05
109	0x38528425	5.019097e-05
110	0xb912381d	-0.00013944549
111	0xb92629a8	-0.00015846512
112	0x39095b7b	0.00013099417
113	0x393542ce	0.00017286392
114	0xb8e9867d	-0.00011135356
115	0xb924ff57	-0.0001573538
116	0x394a5e76	0.0001929941
117	0x388977bc	6.554971e-05
118	0x39041d18	0.00012599339
119	0x38f3f456	0.00011632654
120	0xb8f2a956	-0.000115710005
121	0x38ec954a	0.00011281164
122	0xb90d7615	-0.00013490797
123	0x390717b7	0.00012883438
124	0x390f6b36	0.00013677482
125	0xb9cfe9a2	-0.00039656187
126	0x396d1d7c	0.00022613065
127	0x38655b69	5.4682987e-05
128	0x3782cfc2	1.5593952e-05
129	0xb9441298	-0.00018698943
130	0x390970e0	0.00013107387
131	0x38af92d1	8.371997e-05
132	0xb92edd27	-0.00016676319
133	0xb923c332	-0.00015617607
134	0xb82a85eb	-4.065588e-05
135	0xb601ef30	-1.9361723e-06
136	0x391787ee	0.0001445112
137	0xb833a31a	-4.2828826e-05
138	0x37963c00	1.7909333e-05
139	0xb933bc42	-0.00017140902
140	0xb909fb19	-0.0001315888
141	0x3922889a	0.00015500412
142	0xb954108e	-0.00020224063
143	0xb9300076	-0.0001678484
144	0x38d7998e	0.00010280601
145	0x37ca1388	2.4089371e-05
146	0x35af8825	1.3078139e-06
147	0xb88c20ea	-6.681851e-05
148	0x382f2421	4.17569e-05
149	0xb81f144e	-3.7927464e-05
150	0x38d247e7	0.00010026973
151	0x38b55fc0	8.6485874e-05
152	0x37ca5213	2.4118495e-05
153	0x3850f54b	4.981951e-05
154	0xb873e1bd	-5.814595e-05
155	0x36a67ba6	4.96158e-06
156	0x379977e5	1.8294852e-05
157	0xb91fc63c	-0.0001523727
158	0x37818406	1.5439477e-05
159	0xb88e606c	-6.7890476e-05
160	0x38aa96c1	8.134312e-05
161	0xb89b185f	-7.3955154e-05
162	0x38835423	6.2622385e-05
163	0x34b4cafd	3.3675306e-07
164	0xb84bf819	-4.863003e-05
165	0xb8e0fe9d	-0.00010728578
166	0x3837cbe4	4.3820488e-05
167	0x3884eaec	6.338008e-05
168	0x38b674de	8.7002045e-05
169	0x37302060	1.0497955e-05
170	0xb81593c6	-3.5661993e-05
171	0xb8a328ff	-7.780082e-05
172	0xb880c538	-6.1402505e-05
173	0xb7f9dfef	-2.978739e-05
174	0xb8ca7959	-9.654713e-05
175	0xb9169e93	-0.00014364188
176	0x388b1289	6.631489e-05
177	0xb99e84eb	-0.0003023514
178	0x3934d034	0.000172437
179	0x3895f3e4	7.150302e-05
180	0xb976dfe0	-0.00023543788
181	0xb95e374a	-0.00021192167
182	0x36bb9115	5.589924e-06
183	0x3832b31e	4.2605323e-05
184	0x392ec3d6	0.00016666888
185	0x36938d9f	4.3974283e-06
186	0xb6adaf89	-5.1762368e-06
187	0xb98742cb	-0.0002579897
188	0xb924b9af	-0.00015709431
189	0x39831b85	0.0002500677
190	0xb994d290	-0.0002838564
191	0xb983c26c	-0.00025131123
192	0x39192b13	0.00014607263
193	0xb928579c	-0.00016054366
194	0x38a3b011	7.8052406e-05
195	0xb785bab7	-1.5941781e-05
196	0xb907cea3	-0.00012951581
197	0xb91f3d44	-0.00015186245
198	0x384e656e	4.920869e-05
199	0x38fbb99e	0.000120031866
200	0x38a47ef9	7.84378e-05
201	0x3886fb9a	6.436482e-05
202	0xb8be644e	-9.078589e-05
203	0xb9302450	-0.00016798195
204	0xb8911f0e	-6.919923e-05
205	0xb86d0f9b	-5.6519737e-05
206	0xb8e375f8	-0.00010846177
207	0xb95a4ecb	-0.00020819453
208	0x3a2354e3	0.00062306056
209	0xb9f9f401	-0.00047674778
210	0x392c347b	0.00016422749
211	0xba02283b	-0.0004965101
212	0xb92921f6	-0.00016129747
213	0xb95156c1	-0.00019964112
214	0x3a14b488	0.0005672653
215	0x39f2dc3d	0.00046321927
216	0x384d8f64	4.900935e-05
217	0x39ed1c9a	0.00045225472
218	0xb9c86a94	-0.0003822638
219	0xb9a91aaa	-0.00032254058
220	0x39678520	0.0002207947
221	0xb7485c9b	-1.194249e-05
222	0xb9b6a3e1	-0.00034835844
223	0xb95e7360	-0.0002121455
224	0x3987ea1f	0.0002592364
225	0xba02a0aa	-0.0004983047
226	0x3984cc40	0.0002532918
227	0xb8d0d8d3	-9.9585995e-05
228	0xb9ab7eca	-0.00032710127
229	0xb98c16d9	-0.00026719904
230	0x395f85fd	0.00021316852
231	0x393da2b0	0.0001808505
232	0x396570c7	0.00021881155
233	0x3922b148	0.00015515566
234	0xb8cddf43	-9.8167475e-05
235	0xb9c874b4	-0.00038233923
236	0xb850dd38	-4.979709e-05
237	0x39b26d94	0.00034032448
238	0xb9ee18b5	-0.00045413306
239	0xb999f611	-0.00029365768
240	0x38c8ca07	9.574374e-05
241	0xb94afa6f	-0.00019357515
242	0x38bcdcb7	9.00565e-05
243	0xb758788f	-1.2902673e-05
244	0xb921441f	-0.00015379534
245	0xb8d8b25f	-0.00010332907
246	0xb6db4cc0	-6.5356435e-06
247	0x387a4dc2	5.9677062e-05
248	0x38b12699	8.447207e-05
249	0x36da00ca	6.496998e-06
250	0xb8404957	-4.584467e-05
251	0xb9218565	-0.0001540385
252	0xb8b971c0	-8.842675e-05
253	0x39014da2	0.00012331319
254	0xb943dac6	-0.00018678149
255	0xb90085be	-0.00012256854

exp_avg_sq f4 [64, 16]
0	0x34e7e430	4.319313e-07
1	0x3516abec	5.6129534e-07
2	0x33ec733c	1.10105674e-07
3	0x34819cfa	2.4142338e-07
4	0x34554066	1.9860599e-07
5	0x3426a80e	1.5521093e-07
6	0x34b49a0b	3.3639694e-07
7	0x34981924	2.8330498e-07
8	0x33c37eae	9.103438e-08
9	0x347db6d9	2.3628981e-07
10	0x343033cf	1.6410125e-07
11	0x34945777	2.7630787e-07
12	0x3322ad3b	3.7876116e-08
13	0x348751cc	2.5205225e-07
14	0x34e2bca0	4.2233023e-07
15	0x3485663b	2.4847563e-07
16	0x34d3cf90	3.9452834e-07
17	0x36c4e3a4	5.867756e-06
18	0x36296ebd	2.524742e-06
19	0x350dd6f2	5.283938e-07
20	0x36788bd8	3.703628e-06
21	0x365285cb	3.1370316e-06
22	0x34ebfe18	4.3957039e-07
23	0x34882667	2.5359915e-07
24	0x3647c237	2.9766359e-06
25	0x34219810	1.5049613e-07
26	0x34071ae3	1.2582636e-07
27	0x367f2b40	3.8023136e-06
28	0x356b8e24	8.7751164e-07
29	0x36c9c223	6.0128673e-06
30	0x36ff89bc	7.6156266e-06
31	0x3681ff14	3.8741946e-06
32	0x340ef14c	1.3312564e-07
33	0x362e736f	2.5995212e-06
34	0x3596f280	1.1246448e-06
35	0x3485ca49	2.4920362e-07
36	0x35e042b7	1.6708717e-06
37	0x35bdd47d	1.414344e-06
38	0x34364c3c	1.6977805e-07
39	0x33c9af76	9.391708e-08
40	0x35b049af	1.3134467e-06
41	0x336e7f27	5.5529338e-08
42	0x334e117a	4.7979007e-08
43	0x35e47f5d	1.7024391e-06
44	0x34ea978d	4.3696164e-07
45	0x3639c9e8	2.7684673e-06
46	0x3662dfd7	3.3806916e-06
47	0x35eb3329	1.7523754e-06
48	0x36adc138	5.1782954e-06
49	0x35edb026	1.7709142e-06
50	0x3529fa66	6.3321784e-07
51	0x36d68bf3	6.393989e-06
52	0x358a8a83	1.0322113e-06
53	0x353cc1fc	7.031774e-07
54	0x368e4287	4.2396746e-06
55	0x3699e8d4	4.58686e-06
56	0x35be651e	1.4185532e-06
57	0x3681f150	3.872592e-06
58	0x36660bf9	3.427964e-06
59	0x357c59bf	9.4007913e-07
60	0x35c81c02	1.4909313e-06
61	0x369e8d99	4.725251e-06
62	0x35e8742e	1.731916e-06
63	0x35a27548	1.2104074e-06
64	0x353c50f8	7.015328e-07
65	0x37083bfe	8.1202e-06
66	0x365c4126	3.2820476e-06
67	0x352ee82e	6.5157917e-07
68	0x36a4bb13	4.909359e-06
69	0x36897252	4.096227e-06
70	0x35496d1a	7.50371e-07
71	0x35122ec3	5.4457286e-07
72	0x3675b5fa	3.661377e-06
73	0x34a4a747	3.066909e-07
74	0x347a6fc8	2.332373e-07
75	0x36ac1161	5.1280226e-06
76	0x358634f4	9.999189e-07
77	0x3704d462	7.917262e-06
78	0x3724c9c7	9.822142e-06
79	0x36a90bec	5.0379804e-06
80	0x33519136	4.8793673e-08
81	0x3529345f	6.3033616e-07
82	0x348c93f4	2.6184682e-07
83	0x334b1693	4.7285152e-08
84	0x34c8793a	3.7341107e-07
85	0x34af921b	3.2702596e-07
86	0x3365da57	5.3516796e-08
87	0x3304fbfd	3.0962827e-08
88	0x349ecab3	2.9577276e-07
89	0x3292407a	1.7025958e-08
90	0x32648173	1.330078e-08
91	0x34d938a4	4.046061e-07
92	0x33c17e68	9.010256e-08
93	0x35278f84	6.242119e-07
94	0x3557076d	8.010455e-07
95	0x34deeeaa	4.1524373e-07
96	0x34d30bb6	3.9310333e-07
97	0x3481ec48	2.420004e-07
98	0x336e71d0	5.5517205e-08
99	0x34b4b463	3.365886e-07
100	0x33c5e203	9.214639e-08
101	0x3396d081	7.022846e-08
102	0x34a6ec32	3.1091764e-07
103	0x349dd13b	2.9395764e-07
104	0x33b5d32f	8.4668834e-08
105	0x34832cd0	2.4433257e-07
106	0x345a9a0d	2.0358875e-07
107	0x33e0f748	1.0475793e-07
108	0x338a6175	6.443853e-08
109	0x345bffc1	2.0489007e-07
110	0x343f19cb	1.7797645e-07
111	0x33ea5572	1.09120165e-07
112	0x374a41f7	1.2055497e-05
113	0x36d86909	6.4495293e-06
114	0x359ffbb1	1.1919675e-06
115	0x37448686	1.1713832e-05
116	0x360875a2	2.033405e-06
117	0x35c5088f	1.4680135e-06
118	0x371b0f1b	9.242237e-06
119	0x37285ed6	1.0035661e-05
120	0x36028f66	1.9454978e-06
121	0x37048d39	7.900694e-06
122	0x36effc50	7.152128e-06
123	0x36313b02	2.6409402e-06
124	0x3604dfb6	1.979975e-06
125	0x36fa0c84	7.4520376e-06
126	0x3687db54	4.0488467e-06
127	0x364b23e8	3.0270257e-06
128	0x34bff8ce	3.5757552e-07
129	0x368c2654	4.176787e-06
130	0x35fd0640	1.8851788e-06
131	0x351763d3	5.6397147e-07
132	0x363402e6	2.6823777e-06
133	0x361ba5df	2.319335e-06
134	0x34ceb677	3.850325e-07
135	0x348f3395	2.6673357e-07
136	0x36192076	2.2817671e-06
137	0x34584d14	2.0144608e-07
138	0x3442ddd4	1.8148359e-07
139	0x363a900e	2.780001e-06
140	0x3543e2d7	7.2973256e-07
141	0x369b1c3d	4.6226473e-06
142	0x36bedbb5	5.6880185e-06
143	0x364241c2	2.8946529e-06
144	0x3604e8e1	1.9805086e-06
145	0x3551dbac	7.817823e-07
146	0x340d43d0	1.3156318e-07
147	0x3604e46d	1.9802494e-06
148	0x347b7b6c	2.3421097e-07
149	0x34259fa5	1.5424901e-07
150	0x35d32ae9	1.5733214e-06
151	0x35d8bbf8	1.614796e-06
152	0x3491cd73	2.715784e-07
153	0x35b2a971	1.3311347e-06
154	0x359bb6c7	1.1601595e-06
155	0x34a706df	3.1111173e-07
156	0x34b9865c	3.4556695e-07
157	0x358c8fc7	1.0472658e-06
158	0x34d64a5a	3.9914704e-07
159	0x34bb37cd	3.4872065e-07
160	0x35ccffee	1.527367e-06
161	0x351dd3fd	5.879554e-07
162	0x33e018d8	1.0435332e-07
163	0x35c922b2	1.4985765e-06
164	0x3438f4c4	1.722538e-07
165	0x34128f85	1.3649522e-07
166	0x359b623f	1.1576993e-06
167	0x35a7b97c	1.2496453e-06
168	0x34870b4d	2.5153932e-07
169	0x358daba3	1.0555272e-06
170	0x35782eb2	9.245515e-07
171	0x3489b328	2.5648592e-07
172	0x348655fc	2.5022007e-07
173	0x354fc72e	7.7403354e-07
174	0x3497da91	2.828497e-07
175	0x34a9204a	3.1502196e-07
176	0x34dbe447	4.0958022e-07
177	0x363e49f8	2.8355262e-06
178	0x35925c7c	1.0904764e-06
179	0x344c0b7b	1.9003157e-07
180	0x35cf8f0a	1.5464332e-06
181	0x35b6a136	1.3606975e-06
182	0x34d1a4d1	3.9049203e-07
183	0x348f218a	2.6660229e-07
184	0x35a18439	1.2033917e-06
185	0x3433cb4f	1.6744637e-07
186	0x33e01260	1.0434155e-07
187	0x35e7ce5e	1.7270902e-06
188	0x3499294b	2.8528515e-07
189	0x36216ce8	2.4054261e-06
190	0x3664e337	3.4106904e-06
191	0x35e9d90b	1.7423021e-06
192	0x35a92b93	1.2604163e-06
193	0x363accfb	2.7835474e-06
194	0x35ada0e3	1.2936329e-06
195	0x35fabb7b	1.8681015e-06
196	0x35f2de76	1.809515e-06
197	0x35d639a3	1.5961017e-06
198	0x35878a78	1.0098584e-06
199	0x359a1b1d	1.1481785e-06
200	0x35e2a5f3	1.688661e-06
201	0x356c9caf	8.8144856e-07
202	0x356f08ed	8.9047427e-07
203	0x35f327a2	1.8116446e-06
204	0x3588eec9	1.0202285e-06
205	0x3696088e	4.4713443e-06
206	0x36848bd8	3.9501865e-06
207	0x360b0eba	2.0721186e-06
208	0x371f94a6	9.511748e-06
209	0x380acc77	3.3092187e-05
210	0x3776d351	1.4711944e-05
211	0x378351c5	1.5654494e-05
212	0x37ad1456	2.0632677e-05
213	0x3793bc56	1.7611466e-05
214	0x3713507e	8.780624e-06
215	0x37216131	9.618977e-06
216	0x3796a9d3	1.7960474e-05
217	0x36e54e9b	6.8338827e-06
218	0x36e9d9da	6.9693024e-06
219	0x37b158ae	2.1141339e-05
220	0x370e6bbf	8.488946e-06
221	0x38488af8	4.781314e-05
222	0x383c631c	4.4914996e-05
223	0x37badd72	2.2276046e-05
224	0x363dfa58	2.8308914e-06
225	0x37c80333	2.3843348e-05
226	0x370f4743	8.540056e-06
227	0x35b30e81	1.334076e-06
228	0x375ddcd1	1.3224039e-05
229	0x373439b8	1.0742275e-05
230	0x362ea64e	2.6024823e-06
231	0x3609d956	2.0541097e-06
232	0x370ffa70	8.581774e-06
233	0x358dafb5	1.0556456e-06
234	0x352eec0e	6.5163556e-07
235	0x376fabcf	1.4285512e-05
236	0x363a2750	2.7739043e-06
237	0x37bcc100	2.2501219e-05
238	0x37f08eae	2.867667e-05
239	0x376bd8b8	1.405755e-05
240	0x3594ff72	1.1101204e-06
241	0x372bc9a0	1.0239339e-05
242	0x368d2e91	4.2075485e-06
243	0x355b29e5	8.164482e-07
244	0x36c7c03e	5.953042e-06
245	0x36b176cf	5.288842e-06
246	0x3599a6c7	1.1447927e-06
247	0x354a3e89	7.5341865e-07
248	0x36a2e6f3	4.8548623e-06
249	0x34f0db47	4.486303e-07
250	0x34b787a0	3.4185086e-07
251	0x36d8ad05	6.4574438e-06
252	0x35a5e39f	1.2359704e-06
253	0x371c289b	9.307779e-06
254	0x3756e54a	1.28087795e-05
255	0x36e024e3	6.6800144e-06

exp_avg f4 [64]
0	0xb9c78e95	-0.0003806247
1	0xba3f1020	-0.00072884746
2	0xb9e3ae65	-0.00043426748
3	0xba164e80	-0.00057337433
4	0xba934d1b	-0.0011238189
5	0xb97183cb	-0.00023032648
6	0xba36f763	-0.00069796125
7	0x389bab05	7.422831e-05
8	0xb9c15491	-0.00036874835
9	0xb983985e	-0.0002509979
10	0xb9b49c5e	-0.00034448778
11	0xba530665	-0.0008049964
12	0xba18218e	-0.000580334
13	0xbb367895	-0.0027842869
14	0xbaf0d3b2	-0.0018373637
15	0xba06e4b6	-0.0005145775
16	0xb98ab3ab	-0.00026455274
17	0xba81bb32	-0.0009897707
18	0xba2db6cf	-0.0006626667
19	0xba8c26c5	-0.0010692707
20	0xbaf85d40	-0.0018948689
21	0xb9e1a342	-0.0004303698
22	0xba76a8e8	-0.0009409324
23	0xba5e3a73	-0.00084773375
24	0xba9023e8	-0.0010997029
25	0xb9bb4b2b	-0.00035723424
26	0xba3d51bd	-0.0007221958
27	0xba9a9c01	-0.001179576
28	0xbae8a04d	-0.0017747969
29	0xbbbee3d0	-0.005825497
30	0xbb4dafda	-0.0031385333
31	0xba855310	-0.0010171849
32	0x3b314590	0.002704952
33	0xba50f274	-0.00079706986
34	0x3b522a16	0.0032068542
35	0x3bcbad51	0.0062157293
36	0xbbbed429	-0.0058236313
37	0xbab05742	-0.0013453739
38	0x3b11ae54	0.0022229152
39	0xbb0a577d	-0.0021109276
40	0x3c027134	0.00796156
41	0xbb5f2468	-0.00340488
42	0x3ac2939a	0.0014845014
43	0xbb2b2727	-0.0026115866
44	0xbc5ae668	-0.013360597
45	0x3c7fbe5b	0.015609349
46	0xbc38f4a1	-0.011288793
47	0xbb84059d	-0.0040289895
48	0xb9e470cb	-0.00043571586
49	0xba84b532	-0.0010124801
50	0xba3f1555	-0.00072892505
51	0xb9ea9322	-0.0004474158
52	0xbae62528	-0.0017558681
53	0xb9f85497	-0.0004736527
54	0xba4ca334	-0.00078063016
55	0xba34f901	-0.00069035596
56	0xba40719b	-0.0007341147
57	0xb9d4f65d	-0.00040619346
58	0xb9983b14	-0.00029035716
59	0xba5738f1	-0.0008210084
60	0xba7efce0	-0.00097270124
61	0xbb7051cd	-0.003666985
62	0xbb407b80	-0.0029370487
63	0xba89b8ec	-0.0010507382

exp_avg_sq f4 [64]
0	0x3760991f	1.3387092e-05
1	0x38715421	5.753723e-05
2	0x37cc64e2	2.4365672e-05
3	0x38c2735b	9.2721275e-05
4	0x38b97b45	8.844448e-05
5	0x36da3b29	6.5037934e-06
6	0x37063142	7.998491e-06
7	0x3982b51e	0.00024930475
8	0x38290ee9	4.0306626e-05
9	0x381f7816	3.8020393e-05
10	0x37f25504	2.8888237e-05
11	0x3812a135	3.495925e-05
12	0x38244562	3.9165265e-05
13	0x39e631af	0.00043906036
14	0x39931544	0.0002805387
15	0x38ed6ab6	0.00011320917
16	0x3766a84a	1.3748251e-05
17	0x385c5e26	5.253977e-05
18	0x382e856f	4.1609102e-05
19	0x391ca59c	0.00014939014
20	0x3980a6d3	0.00024538356
21	0x371bd332	9.287893e-06
22	0x371e83fa	9.448262e-06
23	0x396f8c22	0.0002284502
24	0x391158cd	0.00013861358
25	0x384bb48a	4.856711e-05
26	0x384c814a	4.87578e-05
27	0x385a9d92	5.2122e-05
28	0x38fcbf9c	0.000120519864
29	0x3ab9f228	0.0014186548
30	0x3a65d5c9	0.0008767513
31	0x391ea7be	0.00015130543
32	0x3a4b3827	0.0007752203
33	0x39a1f34a	0.00030889577
34	0x3ac0f8bc	0.0014722566
35	0x3c866b44	0.01640857
36	0x3c375644	0.011190001
37	0x3964614a	0.00021780017
38	0x398eef9f	0.00027262882
39	0x3bd62f0a	0.006536369
40	0x3c46838f	0.012116327
41	0x3b51fe24	0.0032042349
42	0x3bb8ba92	0.0056374753
43	0x3ae1e4a8	0.0017234283
44	0x3d4b071f	0.049567338
45	0x3d8f505e	0.06997751
46	0x3cdf312e	0.02724513
47	0x3b39c351	0.0028345177
48	0x376d3992	1.4139705e-05
49	0x387c807f	6.0201153e-05
50	0x3841187d	4.6037592e-05
51	0x3861316b	5.3690204e-05
52	0x395d41d5	0.00021100727
53	0x370c978e	8.379937e-06
54	0x372f266e	1.043976e-05
55	0x398bde5f	0.00026677825
56	0x388e6e3f	6.7916226e-05
57	0x3893482d	7.02295e-05
58	0x380063d3	3.0610547e-05
59	0x37e95203	2.7813954e-05
60	0x3836c64c	4.357686e-05
61	0x3a34ebd3	0.00069015956
62	0x3a64a463	0.00087220053
63	0x38e0ae56	0.00010713625

exp_avg f4 [64]
0	0xb9c78e95	-0.0003806247
1	0xba3f1020	-0.00072884746
2	0xb9e3ae65	-0.00043426748
3	0xba164e80	-0.00057337433
4	0xba934d1b	-0.0011238189
5	0xb97183cb	-0.00023032648
6	0xba36f763	-0.00069796125
7	0x389bab05	7.422831e-05
8	0xb9c15491	-0.00036874835
9	0xb983985e	-0.0002509979
10	0xb9b49c5e	-0.00034448778
11	0xba530665	-0.0008049964
12	0xba18218e	-0.000580334
13	0xbb367895	-0.0027842869
14	0xbaf0d3b2	-0.0018373637
15	0xba06e4b6	-0.0005145775
16	0xb98ab3ab	-0.00026455274
17	0xba81bb32	-0.0009897707
18	0xba2db6cf	-0.0006626667
19	0xba8c26c5	-0.0010692707
20	0xbaf85d40	-0.0018948689
21	0xb9e1a342	-0.0004303698
22	0xba76a8e8	-0.0009409324
23	0xba5e3a73	-0.00084773375
24	0xba9023e8	-0.0010997029
25	0xb9bb4b2b	-0.00035723424
26	0xba3d51bd	-0.0007221958
27	0xba9a9c01	-0.001179576
28	0xbae8a04d	-0.0017747969
29	0xbbbee3d0	-0.005825497
30	0xbb4dafda	-0.0031385333
31	0xba855310	-0.0010171849
32	0x3b314590	0.002704952
33	0xba50f274	-0.00079706986
34	0x3b522a16	0.0032068542
35	0x3bcbad51	0.0062157293
36	0xbbbed429	-0.0058236313
37	0xbab05742	-0.0013453739
38	0x3b11ae54	0.0022229152
39	0xbb0a577d	-0.0021109276
40	0x3c027134	0.00796156
41	0xbb5f2468	-0.00340488
42	0x3ac2939a	0.0014845014
43	0xbb2b2727	-0.0026115866
44	0xbc5ae668	-0.013360597
45	0x3c7fbe5b	0.015609349
46	0xbc38f4a1	-0.011288793
47	0xbb84059d	-0.0040289895
48	0xb9e470cb	-0.00043571586
49	0xba84b532	-0.0010124801
50	0xba3f1555	-0.00072892505
51	0xb9ea9322	-0.0004474158
52	0xbae62528	-0.0017558681
53	0xb9f85497	-0.0004736527
54	0xba4ca334	-0.00078063016
55	0xba34f901	-0.00069035596
56	0xba40719b	-0.0007341147
57	0xb9d4f65d	-0.00040619346
58	0xb9983b14	-0.00029035716
59	0xba5738f1	-0.0008210084
60	0xba7efce0	-0.00097270124
61	0xbb7051cd	-0.003666985
62	0xbb407b80	-0.0029370487
63	0xba89b8ec	-0.0010507382

exp_avg_sq f4 [64]
0	0x3760991f	1.3387092e-05
1	0x38715421	5.753723e-05
2	0x37cc64e2	2.4365672e-05
3	0x38c2735b	9.2721275e-05
4	0x38b97b45	8.844448e-05
5	0x36da3b29	6.5037934e-06
6	0x37063142	7.998491e-06
7	0x3982b51e	0.00024930475
8	0x38290ee9	4.0306626e-05
9	0x381f7816	3.8020393e-05
10	0x37f25504	2.8888237e-05
11	0x3812a135	3.495925e-05
12	0x38244562	3.9165265e-05
13	0x39e631af	0.00043906036
14	0x39931544	0.0002805387
15	0x38ed6ab6	0.00011320917
16	0x3766a84a	1.3748251e-05
17	0x385c5e26	5.253977e-05
18	0x382e856f	4.1609102e-05
19	0x391ca59c	0.00014939014
20	0x3980a6d3	0.00024538356
21	0x371bd332	9.287893e-06
22	0x371e83fa	9.448262e-06
23	0x396f8c22	0.0002284502
24	0x391158cd	0.00013861358
25	0x384bb48a	4.856711e-05
26	0x384c814a	4.87578e-05
27	0x385a9d92	5.2122e-05
28	0x38fcbf9c	0.000120519864
29	0x3ab9f228	0.0014186548
30	0x3a65d5c9	0.0008767513
31	0x391ea7be	0.00015130543
32	0x3a4b3827	0.0007752203
33	0x39a1f34a	0.00030889577
34	0x3ac0f8bc	0.0014722566
35	0x3c866b44	0.01640857
36	0x3c375644	0.011190001
37	0x3964614a	0.00021780017
38	0x398eef9f	0.00027262882
39	0x3bd62f0a	0.006536369
40	0x3c46838f	0.012116327
41	0x3b51fe24	0.0032042349
42	0x3bb8ba92	0.0056374753
43	0x3ae1e4a8	0.0017234283
44	0x3d4b071f	0.049567338
45	0x3d8f505e	0.06997751
46	0x3cdf312e	0.02724513
47	0x3b39c351	0.0028345177
48	0x376d3992	1.4139705e-05
49	0x387c807f	6.0201153e-05
50	0x3841187d	4.6037592e-05
51	0x3861316b	5.3690204e-05
52	0x395d41d5	0.00021100727
53	0x370c978e	8.379937e-06
54	0x372f266e	1.043976e-05
55	0x398bde5f	0.00026677825
56	0x388e6e3f	6.7916226e-05
57	0x3893482d	7.02295e-05
58	0x380063d3	3.0610547e-05
59	0x37e95203	2.7813954e-05
60	0x3836c64c	4.357686e-05
61	0x3a34ebd3	0.00069015956
62	0x3a64a463	0.00087220053
63	0x38e0ae56	0.00010713625

model.NN.weight_ih_l0 f4 [64, 3]
0	0x3b22808e	0.0024795863
1	0x3d7ea54e	0.062169366
2	0x3df8672f	0.12129056
3	0xbdeaf3ac	-0.11472258
4	0xbdbe042d	-0.0927814
5	0x3e06fb2a	0.13181749
6	0x3dc8351e	0.09775756
7	0xbd5efcdc	-0.054440364
8	0x3e5ceb78	0.21574199
9	0x3d3209ff	0.043466564
10	0x3da175be	0.07883786
11	0x3e6f5e2d	0.23375769
12	0xbe17057c	-0.14748186
13	0x3e58982a	0.21151796
14	0x3dce8a7e	0.10085009
15	0xbe5feb06	-0.21866998
16	0xbdcbcc97	-0.09951132
17	0xbe26b901	-0.16281511
18	0x3e135528	0.14387953
19	0x3e46a3f9	0.19398488
20	0x3d69c1e2	0.057069667
21	0x3e3206c5	0.17385395
22	0xbd137ca3	-0.036007535
23	0xbe1561f0	-0.14588141
24	0x3e321afb	0.17393105
25	0xbe264414	-0.16236907
26	0xbdf48b34	-0.119406134
27	0xbe356438	-0.17714012
28	0xbe29169c	-0.16512531
29	0x3d8c55e1	0.068523176
30	0x3c628a4d	0.013826919
31	0xbd090c2c	-0.033458874
32	0x3d383398	0.04497108
33	0x3e21a3bb	0.15785114
34	0x3d1d48b9	0.03839943
35	0xbd7a483c	-0.061104044
36	0xbe1e6fe0	-0.15472364
37	0x3cf97445	0.03045095
38	0x3bb15694	0.0054119322
39	0xbe8aa178	-0.27076316
40	0xbde9c5c9	-0.11414678
41	0xbe484c3d	-0.19560333
42	0x3e2dd3da	0.16975346
43	0x3d43bdf8	0.04778859
44	0xbdcbfa36	-0.09959833
45	0xbe1d43c7	-0.15357886
46	0xbe4f3aac	-0.20237225
47	0xbe06fe18	-0.13182867
48	0x3e86fc21	0.26364234
49	0xbe1db1b6	-0.15399823
50	0x3e45d17a	0.1931819
51	0xbdfb7938	-0.1227898
52	0xbe1a868e	-0.15090391
53	0xbe048cc8	-0.12944329
54	0x3d115431	0.03548068
55	0xbd801667	-0.06254273
56	0x3e3bd175	0.1834162
57	0x3dd5f448	0.104469836
58	0x3dff00f2	0.12451352
59	0xbd234557	-0.03986105
60	0xbe4ce85d	-0.20010515
61	0x3e488640	0.19582462
62	0xbe5534bd	-0.208209
63	0xbd6eda32	-0.058313556
64	0x3dcca04f	0.09991514
65	0xbb432324	-0.0029775584
66	0xbe145e77	-0.1448916
67	0xbbc57794	-0.0060262177
68	0xbd900f4a	-0.07034166
69	0x3e8750ef	0.26428935
70	0xbd8a5528	-0.067545235
71	0xbd4cc66d	-0.04999392
72	0xbe1d8f56	-0.1538671
73	0x3e2f06da	0.17092457
74	0xbd45a857	-0.048256245
75	0xbe0256f8	-0.12728488
76	0xbbe61fd9	-0.0070228395
77	0x3d278bd6	0.040904842
78	0x3dc624d9	0.09674997
79	0x3db51772	0.088423625
80	0xbd9b1217	-0.0757181
81	0x3dab4058	0.08361882
82	0xbbb57848	-0.0055380203
83	0xbde6111b	-0.11233731
84	0xbe81951d	-0.25309077
85	0xbdb4f600	-0.08835983
86	0xbd91e1ef	-0.071231715
87	0x3bf0e68f	0.0073517035
88	0xbd904066	-0.07043533
89	0x3e7c051e	0.24611327
90	0x3d48dbeb	0.049037855
91	0x3eaf4404	0.3423158
92	0x3db1eae8	0.08687383
93	0xbe2ed530	-0.17073512
94	0x3d94ddc5	0.07268862
95	0xbd39721e	-0.045274846
96	0x3cb4bd58	0.022062942
97	0xbb57362b	-0.0032838683
98	0xbe1d0f58	-0.15337884
99	0xbdb6bbc6	-0.08922534
100	0xbe27616d	-0.16345759
101	0x3dbf7529	0.093485184
102	0xbdb1d204	-0.086826354
103	0xbcf08b28	-0.02936323
104	0x3ceaa682	0.02864385
105	0x3d71dcf7	0.05904862
106	0xbcb7a08f	-0.022415427
107	0x3e210c2d	0.15727301
108	0xbd880f4a	-0.06643541
109	0xbd6fd53f	-0.058552977
110	0x3d4c544d	0.049885083
111	0x3ce2620f	0.027634649
112	0x3c788980	0.015169501
113	0xbdbb68d2	-0.09150852
114	0xbe256f56	-0.16155753
115	0xbd52b292	-0.05143983
116	0x3a815612	0.000986757
117	0x3ccead0b	0.025228998
118	0x3d1a433c	0.037661776
119	0xbe30150b	-0.17195527
120	0xbdbcd485	-0.092202224
121	0xbe001ec3	-0.12511735
122	0x3dd36a8a	0.10323055
123	0xbd82374f	-0.063582055
124	0x3e00ff2a	0.12597337
125	0xbd9f7a2c	-0.07786974
126	0xbd040c4f	-0.0322383
127	0xbdb7cfaf	-0.089751594
128	0x3e12fa3a	0.14353266
129	0xbdacb7b0	-0.08433473
130	0xbda2ea1a	-0.079548076
131	0x3d12321d	0.035692323
132	0xbdf5c8c5	-0.120011844
133	0x3da6e20c	0.08148584
134	0xbe294f57	-0.16534172
135	0x3e407b5a	0.18797055
136	0x3d148f75	0.036269624
137	0x3e7a2628	0.24428618
138	0x39b15a16	0.0003382719
139	0x3d3419da	0.043969966
140	0xbda70850	-0.08155882
141	0xbd54f576	-0.051991902
142	0x3e15778f	0.14596389
143	0xbe3feb84	-0.18742186
144	0x3e2b1d03	0.16710286
145	0xbe04ac15	-0.12956269
146	0xbd1f3a25	-0.03887381
147	0x3e288431	0.16456677
148	0x3e3d14a7	0.1846491
149	0xbe1fff93	-0.15624838
150	0xbdca7044	-0.09884694
151	0x3d8b6376	0.0680608
152	0xbe79d0c9	-0.24396051
153	0x3df7b364	0.12094763
154	0xbe1680f0	-0.14697623
155	0x3e68a36b	0.22718589
156	0x3e5cdb7b	0.215681
157	0xbe0b4b7d	-0.13603015
158	0xbe097daa	-0.13426843
159	0x3dbd8a68	0.092549145
160	0x3c21d183	0.009876612
161	0xbd2fa90a	-0.042885818
162	0xbdbcdd0a	-0.09221847
163	0x3cf90753	0.030399
164	0x3d5b27ed	0.053504873
165	0xbe55fef1	-0.20898034
166	0x3c2bbaaa	0.010481516
167	0x3e26b76d	0.16280909
168	0xbd61a3a3	-0.055087697
169	0xbddf9f1e	-0.10919021
170	0x3e0ce282	0.13758281
171	0xbd6200ad	-0.055176426
172	0x3ce44256	0.027863663
173	0x3e1e04a9	0.15431465
174	0x3e55d609	0.20882429
175	0xbcbbdbb8	-0.022931919
176	0x3d269986	0.040673755
177	0x3e15eb49	0.14640535
178	0x3c02f487	0.00799287
179	0xbddeee32	-0.10885276
180	0xbdd096ff	-0.1018505
181	0xbe0913fd	-0.13386531
182	0x3e510c14	0.20414764
183	0xbbd54e8d	-0.006509608
184	0x3e753c5f	0.23948811
185	0x3dbaf01b	0.09127828
186	0xbe51bff9	-0.20483388
187	0x3d97343b	0.07383009
188	0x3d598679	0.05310676
189	0x3dcf80ef	0.10132014
190	0x3ddf54ec	0.109048694
191	0xbd48dd61	-0.04903925

model.NN.weight_hh_l0 f4 [64, 16]
0	0xbe22a5fc	-0.1588363
1	0xbe4118dc	-0.1885714
2	0xbe0c3efc	-0.13695902
3	0x3e63899f	0.22220467
4	0xbe323803	-0.1740418
5	0x3e00c65f	0.12575673
6	0xbdac57b5	-0.08415166
7	0xbe47fa6a	-0.19529119
8	0xbd0ab879	-0.033867333
9	0xbe0b594f	-0.13608287
10	0x3dadcacd	0.08485947
11	0xbdb6eddd	-0.089320876
12	0xbe46fda6	-0.19432697
13	0x3e93ca88	0.28865457
14	0xbd3757ed	-0.044761587
15	0x3c9156b8	0.017741546
16	0x3e5b5ac3	0.21421342
17	0xbe28cb3a	-0.16483775
18	0x3c78aff0	0.0151786655
19	0x3d92e0a6	0.071717545
20	0xbdfe0182	-0.12402631
21	0x3d866208	0.06561667
22	0x3e2c9870	0.16855025
23	0x3eb92af0	0.3616557
24	0xbe12bcfd	-0.14329906
25	0xbe0a5d4e	-0.13512155
26	0x3dd11378	0.102087915
27	0x3d84d82e	0.064865455
28	0x3e89fa75	0.26948896
29	0xbe386536	-0.18007359
30	0x3e84d9c3	0.2594739
31	0x3e859fba	0.26098424
32	0xbdbe0491	-0.09278215
33	0x3d7819a8	0.060571343
34	0xbd0e24c6	-0.03470304
35	0x3e17e872	0.14834765
36	0xbd83409d	-0.064088084
37	0x3d9bb52a	0.07602914
38	0x3e0ff46f	0.14058088
39	0xbe55e5dc	-0.20888466
40	0x3c23371e	0.009961871
41	0x3e9b988e	0.30389827
42	0xbdb04991	-0.08607782
43	0xbe21eca7	-0.15812932
44	0x3e4db4d3	0.2008851
45	0xbe0b98f6	-0.13632569
46	0x3e46ea2e	0.1942527
47	0x3d99bd76	0.0750684
48	0xbe4f4c8b	-0.20244043
49	0x3e3c212c	0.18372029
50	0xbd60a8a3	-0.054848325
51	0xbdfe07a7	-0.12403803
52	0xbdcb1327	-0.099157624
53	0x3e666754	0.22500354
54	0x3e1bd0ef	0.1521642
55	0xbe63be68	-0.22240603
56	0x3d2816d6	0.041037403
57	0xbe8b4808	-0.27203393
58	0xbd8717f4	-0.065963656
59	0x3c0af793	0.008481878
60	0xbc9c3636	-0.019068819
61	0xbc4ac558	-0.012376152
62	0xbd462dd8	-0.048383564
63	0x3e2e6532	0.1703079
64	0xbe0324f0	-0.1280706
65	0x3e4cc2b6	0.19996151
66	0xbe5e401e	-0.21704146
67	0x3ddc3471	0.1075219
68	0x3e880022	0.265626
69	0xbe528148	-0.2055713
70	0x3dd3d0de	0.10342573
71	0x3dbb3a16	0.091419384
72	0xbe810e99	-0.2520645
73	0xbe2d735f	-0.16938542
74	0xbe36baaa	-0.17844644
75	0x3e1b4056	0.15161261
76	0x3caeb019	0.021324204
77	0xbe2b32a5	-0.16718538
78	0xbdee8c55	-0.1164786
79	0x3a84cd52	0.0010131991
80	0x3dd71748	0.105024874
81	0xbcd4f0bd	-0.0259937
82	0xbe0eae8c	-0.13933772
83	0x3d98ff95	0.074706234
84	0xbc1dfecc	-0.009643268
85	0x3d3f63aa	0.046725906
86	0x3e86e23c	0.26344478
87	0x3dbe570f	0.09293949
88	0x3db531c2	0.08847381
89	0x3c0acbce	0.008471442
90	0xbe1fb9a7	-0.15598164
91	0xbdd22966	-0.102618024
92	0x3ea89f9f	0.3293428
93	0x3b5ef227	0.0034018846
94	0x3e36e4e3	0.17860751
95	0x3d903b16	0.0704252
96	0x397acab1	0.00023917366
97	0xbd8e31d7	-0.069431
98	0x3d003936	0.03130456
99	0x3e5c19d3	0.21494226
100	0x3e0e2f1d	0.1388516
101	0xbd7e7ea0	-0.062132478
102	0xbd0e8c9c	-0.034802064
103	0xbe8f7765	-0.28020778
104	0x3c1dc1c1	0.009628714
105	0x3e27d5c1	0.16390134
106	0x3e7f09b6	0.24906048
107	0xbdda53de	-0.10660528
108	0xbe6432fe	-0.22285077
109	0x3c24494d	0.010027242
110	0xbe8604ad	-0.26175442
111	0x3e4d76a0	0.20064783
112	0x3e2c1d93	0.16808157
113	0x3e50bc7b	0.203844
114	0x3e588aa5	0.21146639
115	0xbda59f1c	-0.08086988
116	0xbe79720d	-0.24359913
117	0xbdcaa430	-0.098945975
118	0x3dbb189f	0.091355555
119	0xbc89fd0a	-0.016844291
120	0x3e994e8b	0.29942736
121	0xbdb147e7	-0.086562924
122	0xbd6edfef	-0.05831903
123	0x3e0ac464	0.1355148
124	0xbec0664b	-0.37578043
125	0x3e86e131	0.26343682
126	0xbd8b139d	-0.0679085
127	0xbda52c1b	-0.08065053
128	0xbd9c1bc9	-0.07622487
129	0x3dfcec62	0.12349774
130	0xbe01e1a1	-0.12683727
131	0xbd841080	-0.064484596
132	0x3e434d03	0.19072346
133	0x3e13a581	0.14418603
134	0x3e4c939e	0.19978186
135	0x3c59d0b4	0.013294388
136	0xbe36406e	-0.17798015
137	0x3d93dcfb	0.07219883
138	0xbe258bab	-0.1616656
139	0x3cf25ba5	0.029584715
140	0xbe0e78ac	-0.1391322
141	0xbdae4051	-0.08508361
142	0x3e9bfdb3	0.30466995
143	0x3e98ca10	0.2984166
144	0xbdd7748b	-0.10520276
145	0xbe30ef12	-0.17278698
146	0x3ca8613c	0.020554177
147	0xbded1812	-0.11576857
148	0x3e2fb1d1	0.17157675
149	0x3b6677e5	0.0035166678
150	0x3d99675e	0.07490419
151	0xbd38f328	-0.045153767
152	0xbdeb3f02	-0.11486627
153	0xbd3bd70a	-0.045859374
154	0x3e581107	0.21100245
155	0xbe8b2185	-0.2717401
156	0x3d8be2a3	0.06830337
157	0x3e7787df	0.24172924
158	0xbe7e58b5	-0.24838527
159	0xbdcf2146	-0.10113768
160	0xbe7ea167	-0.24866258
161	0x3e3bee83	0.18352704
162	0xbd2aa8da	-0.041664936
163	0xbd6977f1	-0.05699915
164	0xbe36df36	-0.17858586
165	0x3ce988db	0.02850764
166	0xbe6ed982	-0.2332516
167	0xbdab4aaf	-0.08363854
168	0xbe29815f	-0.16553257
169	0x3e5f015b	0.21777861
170	0x3e2df14d	0.1698658
171	0x3bd108ca	0.0063792216
172	0xbda6f3c3	-0.081519626
173	0x3e541179	0.2070979
174	0xbe789d82	-0.24278834
175	0x3cf0efc9	0.029411213
176	0x3d3b245c	0.045688972
177	0x3e07234e	0.13197061
178	0xbe139d66	-0.14415511
179	0xbe081ecb	-0.13292997
180	0xbdd868fa	-0.10566898
181	0xbde6a315	-0.11261574
182	0x3e934f0b	0.28771242
183	0xbe27ec18	-0.16398656
184	0xbe92f3b6	-0.28701562
185	0x3e83e4c9	0.25760487
186	0x3e2040a9	0.15649666
187	0x3da63417	0.08115404
188	0x3df641b8	0.120242536
189	0xbdb89348	-0.09012467
190	0x3ea22448	0.31668305
191	0xbdd391ea	-0.10330565
192	0xbe25002a	-0.16113344
193	0xbe47d739	-0.19515695
194	0x3e352e0c	0.17693347
195	0xbe0e15cd	-0.13875504
196	0xbcfc2ddf	-0.030783592
197	0x3cf9b7a4	0.030483074
198	0x3e1b46e8	0.15163767
199	0xbe80cec4	-0.2515775
200	0x3dac1b29	0.08403618
201	0x3d9d9285	0.07693962
202	0xbd134702	-0.03595639
203	0x3dfcfc05	0.123527564
204	0x3d891244	0.06692937
205	0x3e79ca40	0.24393559
206	0x3e790389	0.24317755
207	0xbdba5938	-0.090990484
208	0x3dfaf9ae	0.12254654
209	0x3e1dfc87	0.15428363
210	0x3d535808	0.051597625
211	0x3e831c89	0.25607708
212	0x3e7b719a	0.24555054
213	0x3e1367b5	0.1439503
214	0xbdfaa00c	-0.12237558
215	0xbe105ec3	-0.14098649
216	0xbe7832ac	-0.2423808
217	0xbe339fc8	-0.1754142
218	0xbdf16923	-0.11787631
219	0x3dd4b007	0.10385137
220	0x3e398269	0.18116154
221	0x3e49a5bc	0.19692129
222	0x3e933306	0.28749865
223	0x3d5fc1ab	0.054628056
224	0xbe2d91d1	-0.16950156
225	0x3ca91495	0.020639697
226	0x3bebe964	0.007199453
227	0x3e5dd51d	0.21663328
228	0x3ea31acd	0.31856385
229	0x3e53ad75	0.20671637
230	0xbe9c6784	-0.30547726
231	0x3dbd0e8b	0.092312895
232	0xbe42e39c	-0.19032139
233	0xbddc3d0f	-0.107538335
234	0xbd8fe59f	-0.070262186
235	0x3d6b18a1	0.057396535
236	0x3e25edba	0.16203967
237	0xbe7c19a8	-0.24619162
238	0x3e99febb	0.30077156
239	0x3ea2e015	0.31811586
240	0xbdfb2f23	-0.1226485
241	0x3d762f11	0.06010348
242	0xbdf23d74	-0.118281275
243	0xbd31cc1e	-0.043407552
244	0xbc98bb65	-0.018644044
245	0x3d1f077c	0.038825497
246	0x3e5f0788	0.21780217
247	0x3e599cdc	0.21251243
248	0x3cbdb803	0.023159033
249	0x3cce63dc	0.025194101
250	0xbe4303d3	-0.19044428
251	0xbd155ba0	-0.036464334
252	0x3e80ffc9	0.2519515
253	0xbe9e0038	-0.30859542
254	0x3cb671a4	0.022270985
255	0x3e194580	0.14967918

model.NN.bias_ih_l0 f4 [64]
0	0xbe200e6d	-0.15630503
1	0xbe0e35ee	-0.1388776
2	0xbe2be416	-0.16786227
3	0x3d0ff5de	0.035146587
4	0x3e5c4fe2	0.21514848
5	0xb98c979a	-0.00026815833
6	0xbb24f7ff	-0.0025172231
7	0x3e2baf16	0.16766009
8	0x3e44526b	0.19172065
9	0x3e5d351b	0.2160229
10	0x3e2cbd66	0.16869125
11	0xbe777862	-0.24167016
12	0x3e3d4f55	0.18487294
13	0x3c3a87d4	0.011384923
14	0x3eaf8546	0.34281367
15	0xbdbbadc5	-0.09164003
16	0x3c1a5426	0.009419477
17	0xbdd5b1c1	-0.104342945
18	0xbdf6c9a5	-0.120501794
19	0xbda15aef	-0.07878672
20	0x3e1cab95	0.15299828
21	0x3e4baa70	0.19889235
22	0xbe05a09b	-0.13049547
23	0xbdd3b63b	-0.10337492
24	0x3e8428f5	0.25812498
25	0xbd5d036b	-0.053958338
26	0xbde03e02	-0.10949327
27	0x3e26974d	0.16268654
28	0x3db53c1d	0.08849356
29	0x3eb8d11c	0.36097038
30	0xbd22eb46	-0.039775155
31	0x3e86323e	0.26210207
32	0xbe100f39	-0.14068307
33	0x3e67acf5	0.22624572
34	0xbddb69fc	-0.10713574
35	0x3e193c97	0.1496452
36	0x3d8a164e	0.067425355
37	0xbd629fd0	-0.05532819
38	0xbe949e34	-0.2902695
39	0xbe63a809	-0.22232069
40	0xbca803bc	-0.020509593
41	0xbd3a56cd	-0.045492936
42	0x3e926c41	0.28598216
43	0x3e14ca2a	0.14530244
44	0xbe32073e	-0.17385575
45	0x3e34b599	0.17647399
46	0x3e60feaa	0.21972147
47	0x3d0d7b4e	0.03454142
48	0x3e37fae2	0.17966798
49	0x3e5d788e	0.21628019
50	0x3d211aec	0.039332315
51	0x3eae524a	0.34047157
52	0x3deb5c72	0.11492242
53	0x3c9dda4a	0.019269127
54	0xbdf260cb	-0.11834868
55	0xbc8c7bed	-0.017148936
56	0x3e7b8b3b	0.24564831
57	0x3d935bfa	0.071952775
58	0x3e164752	0.14675644
59	0xbd2c63f2	-0.042087503
60	0x3e1e27cf	0.15444873
61	0xbdef8745	-0.116957225
62	0x3e25c588	0.16188633
63	0xbe3171bc	-0.17328542

model.NN.bias_hh_l0 f4 [64]
0	0x3e49b9fb	0.19699852
1	0x3c147529	0.009061136
2	0x3e8107a8	0.25201154
3	0xbdd02674	-0.10163584
4	0x3d07d1de	0.03315913
5	0xbd73ba83	-0.059504043
6	0xbcb84b73	-0.022496914
7	0xbd82fce4	-0.06395891
8	0x3cd9647a	0.026537169
9	0x3e153efd	0.1457481
10	0xbdf19019	-0.117950626
11	0x3e02578c	0.12728709
12	0x3e778d17	0.24174915
13	0xbbeb4fba	-0.007181135
14	0xbd1da9f6	-0.038492166
15	0xbde88d25	-0.11355046
16	0xbe471e09	-0.19445051
17	0x3ce8ec81	0.028433086
18	0x3e392d1f	0.18083619
19	0x3e39a296	0.18128428
20	0xbdace98b	-0.08442982
21	0xbcb10fdb	-0.021614006
22	0x3e0ea371	0.13929535
23	0xbb570a16	-0.0032812408
24	0x3c514354	0.0127724
25	0xbdf6c65c	-0.12049553
26	0x3e8621be	0.26197618
27	0xbc8a57ee	-0.016887631
28	0x3e6772ed	0.22602434
29	0x3e24d7de	0.16097972
30	0x3d9301e4	0.07178095
31	0xbd12f9e4	-0.035882846
32	0xbe717ddf	-0.23583172
33	0x3e5d4410	0.21607995
34	0xbdab97e0	-0.08378577
35	0x3da8d69a	0.08244057
36	0x3d61025a	0.054933883
37	0x3e8cc30a	0.27492553
38	0xbd14b34d	-0.036303807
39	0xbe642c57	-0.2228254
40	0xbdc6a28c	-0.09698972
41	0xbe660db5	-0.22466166
42	0xbdd7c884	-0.10536292
43	0x3e2b2e88	0.16716969
44	0x3df55fbe	0.11981152
45	0xbe445da5	-0.19176348
46	0xbd79f980	-0.061028957
47	0x3e409d56	0.18810019
48	0x3e5a94b4	0.21345788
49	0xbd285048	-0.041092187
50	0xbc56a8f9	-0.01310181
51	0x3e862e26	0.26207083
52	0x3df351f0	0.11880863
53	0xbccfaa3d	-0.02534973
54	0x3d37ac4c	0.04484205
55	0xbd2289ad	-0.03968208
56	0x3e51fc07	0.20506297
57	0xbd20a714	-0.039221838
58	0x3da6de67	0.08147889
59	0x3e360c80	0.17778206
60	0x3e773abc	0.24143499
61	0x3ea28f38	0.31749892
62	0xbd36c216	-0.04461869
63	0x3e821fed	0.25414982
