true/triplet-lstm/2-classes/version_2/checkpoints/epoch=5.ckpt (torch_old, 9803 bytes, 12 tensors)

exp_avg f4 [40, 3]
000000 c4 fb 6f ba aa 69 bf 39 bb 49 e9 39 4d de 02 3b
       -0.00091546425 0.00036509085 0.00044496157 0.0019968927
000010 7d ec 33 3b 3c 22 0c ba b3 13 57 3a 39 0a 8e ba
       0.002745419 -0.00053456775 0.00082045345 -0.0010836787
000020 13 31 5c ba 4e e0 f9 3a 91 d5 15 ba d7 26 b5 ba
       -0.00083996466 0.001906404 -0.0005715723 -0.0013820779
000030 cd f6 a0 3b 4d b4 75 bb 87 04 45 bb 7c b4 11 bb
       0.0049122334 -0.00374915 -0.0030062513 -0.0022232821
000040 1d a9 95 ba 43 5e fb 39 83 c1 af bb f1 79 0b 3a
       -0.0011418198 0.0004794468 -0.0053636446 0.00053206
000050 02 3d 33 3b ea 74 d0 3a 78 63 09 bb b3 17 d4 ba
       0.0027349596 0.0015903984 -0.002096383 -0.0016181379
000060 2f c1 86 3a b8 bc 51 3b 91 cc e6 b9 ea 8a 00 ba
       0.0010280962 0.0032003354 -0.00044021432 -0.00049035123
000070 2e c8 13 ba c9 10 fe b9 a9 2b f6 ba 7f 1c 99 3a
       -0.0005637434 -0.0004845916 -0.0018781322 0.0011681466
000080 8c 1c fa 39 ea fc 7b 3b 74 93 af 3b c5 99 f0 ba
       0.00047704985 0.003845031 0.005358154 -0.0018356374
000090 ac c4 40 39 01 63 a0 38 1c bf e1 b8 90 cc f9 3a
       0.00018383813 7.6478354e-05 -0.00010764433 0.0019058157
0000a0 e9 37 90 3a 20 ce d4 ba 9c 13 3c 3b a5 c3 c0 3b
       0.0011002991 -0.0016235746 0.0028698212 0.0058826976
0000b0 28 5b b6 ba aa e7 b9 bb 0b 3c 3f b9 d7 9a 1d 3b
       -0.0013912665 -0.0056733685 -0.00018237547 0.002404859
0000c0 9c 50 be bb c0 02 28 bb 92 93 eb 3a e4 00 2d 3b
       -0.005807949 -0.0025636405 0.0017973057 0.0026398236
0000d0 d0 9a 74 bb 87 af 4e bb f9 b1 98 3a c6 38 41 3b
       -0.003732372 -0.0031537728 0.001164972 0.0029483302
0000e0 5b b6 c2 39 ae 42 a2 ba 05 3a 75 3a d5 2b e4 b9
       0.0003713843 -0.0012379491 0.0009354654 -0.00043520206
0000f0 8e 84 74 bc 45 ba db 3a 08 b5 b6 3a e2 05 f0 bc
       -0.014924182 0.0016763887 0.001393945 -0.02929968
000100 17 26 c5 bb 50 88 4c 3c aa 31 a0 bc a5 2e 5a 3b
       -0.0060165036 0.012483671 -0.019554932 0.0033291962
000110 dc 2f 18 3c 35 1f a6 3c 16 09 9f 3a 33 46 64 bc
       0.009288754 0.020278553 0.0012133445 -0.013932752
000120 d3 44 51 bd 16 3f 08 bd e2 01 82 3c e8 8f 04 bd
       -0.051091027 -0.03326329 0.015870038 -0.032363802
000130 d5 6d 11 bc 1b 4d 43 3c 07 63 5b 3c 6c c1 6b 3c
       -0.008876284 0.011920239 0.013390309 0.014389377
000140 fc 3e 3e bb 7c 37 ad 3b b3 4b 0b bc 88 3c d6 bb
       -0.002902924 0.0052861553 -0.008501935 -0.0065379776
000150 f9 2b af bc 0e e1 de bb 91 18 3a 3b b4 77 35 3c
       -0.021383272 -0.006801731 0.002839599 0.011075903
000160 e9 6b bf bb e9 07 46 ba d7 b8 a6 ba 6d 55 1a 3b
       -0.0058417213 -0.00075542793 -0.0012719881 0.0023549453
000170 48 17 9d 3a 48 e1 af 3b 5f bd ec 3a cd ea d5 ba
       0.0011985088 0.005367432 0.0018061808 -0.0016320586
000180 eb 24 b7 3a 2d e0 90 ba 05 b3 85 ba f7 6a 0b 3b
       0.0013972794 -0.0011053138 -0.0010200447 0.0021273473
000190 ef 16 58 3a 3b 33 6c ba c8 ca b3 3b 26 0e 4a 3a
       0.00082431635 -0.00090103195 0.00548682 0.0007707797
0001a0 64 78 1e bb 1b 23 a6 bb 95 35 87 3a 4e 94 27 3b
       -0.0024180645 -0.005070103 0.0010315651 0.0025570574
0001b0 98 06 e0 bb f2 d8 ac b9 8e d4 4d 3b 3c ad c2 3b
       -0.0068367235 -0.00032968033 0.003140721 0.0059410613
0001c0 ca 81 d1 bb 7b 75 c8 bb e5 d3 b9 3a fc cb 47 3b
       -0.006393646 -0.0061175204 0.0014177529 0.0030486574
0001d0 2d 7b 57 3a 45 6e 72 ba 0b 14 a6 ba de bf 0c bb
       0.0008219954 -0.0009247999 -0.0012670768 -0.0021476666

exp_avg_sq f4 [40, 3]
000000 e0 93 e8 36 88 87 82 36 52 b5 51 36 54 9e 0f 3a
       6.9313537e-06 3.89008e-06 3.124897e-06 0.000547861
000010 07 34 d7 39 93 40 8b 39 44 b1 67 37 37 0e ca 35
       0.0004104676 0.00026560258 1.3809946e-05 1.505431e-06
000020 d4 8d c7 35 f6 60 e5 38 85 7d 18 37 cc 62 b4 38
       1.4867933e-06 0.00010937631 9.089131e-06 8.601471e-05
000030 11 f1 07 38 c6 12 94 38 7b 2a 15 38 88 4c 84 39
       3.241102e-05 7.060687e-05 3.556393e-05 0.00025234022
000040 27 0a 74 38 6d 20 2d 39 f1 db 37 3a 27 9b 97 38
       5.818359e-05 0.00016510645 0.000701367 7.2291405e-05
000050 74 d0 b8 39 22 f0 c1 35 eb 66 a1 35 3b 21 80 36
       0.00035250525 1.4449508e-06 1.2025388e-06 3.818566e-06
000060 f3 65 56 37 f2 d7 19 3a 98 f3 a4 39 dd 22 b6 36
       1.2779131e-05 0.0005868665 0.0003146201 5.4280813e-06
000070 d4 81 55 37 e6 4b 0e 37 0f 52 31 36 a1 e6 87 36
       1.2726017e-05 8.481531e-06 2.642282e-06 4.0501623e-06
000080 2b 11 05 37 ff b6 a3 3a dc 6f 19 3a 1b b7 4a 39
       7.931415e-06 0.001249045 0.0005853155 0.00019332433
000090 3a 44 9e 34 b3 36 c7 34 5c 87 ae 34 8f ae 0e 39
       2.9479435e-07 3.7106437e-07 3.2508513e-07 0.00013607203
0000a0 df af 69 38 2d 9f af 37 9d c2 23 3b bf 3c 55 3a
       5.571532e-05 2.0935748e-05 0.0024987825 0.0008134357
0000b0 e4 ce 7d 39 72 c3 a1 38 70 7d 49 39 cc e7 96 39
       0.00024205033 7.713483e-05 0.00019215583 0.00028782932
0000c0 de 33 bd 39 e1 49 b1 39 cc a2 e3 39 f9 c1 19 37
       0.00036087533 0.00033815115 0.00043418107 9.164673e-06
0000d0 c9 d1 7c 37 b3 26 a6 37 20 80 13 39 dd bc a4 38
       1.5069215e-05 1.9806763e-05 0.00014066743 7.855308e-05
0000e0 51 9e 14 38 0a 53 4b 37 90 43 32 37 36 94 b2 37
       3.5433393e-05 1.2119077e-05 1.0625357e-05 2.128827e-05
0000f0 9b 7e 7e 39 fb 96 95 39 12 96 1f 3a fc 93 69 3c
       0.00024270492 0.00028531984 0.0006087731 0.014256474
000100 90 d4 61 3c 65 50 28 3c bd 35 95 39 3f 9e ec 39
       0.013783589 0.010273074 0.00028459533 0.0004513133
000110 18 4b ab 39 0f b6 cc 3b 4b ae a8 3b f9 9f 95 3b
       0.0003267161 0.006247289 0.0051477305 0.0045661894
000120 9f 92 d5 3d ac 1e ca 3d bc 36 76 3d 44 53 3f 3c
       0.104283564 0.098691314 0.060110793 0.011677567
000130 89 81 f1 3b bd f5 00 3c 6d 44 ac 3a e1 bd 27 3c
       0.007370178 0.007871089 0.0013142951 0.010238142
000140 0a 6d 8e 3b 48 db 3d 39 66 a9 7e 39 93 97 b7 39
       0.0043464946 0.00018106133 0.00024286433 0.00035017412
000150 fa 9e cf 3a e4 7a 0f 3a 28 aa 18 3b 17 7c 28 3a
       0.0015840225 0.0005473329 0.002329478 0.0006427182
000160 72 53 85 39 11 0e 58 3a d5 17 95 36 0f 22 95 36
       0.00025429908 0.0008241842 4.4433204e-06 4.444511e-06
000170 8c ea cb 36 af 92 4f 39 e1 62 b3 38 94 2c 7d 38
       6.0771763e-06 0.00019795702 8.553803e-05 6.0361417e-05
000180 07 78 a4 36 1f 8a 92 35 17 1f 5c 35 fc f3 44 37
       4.901554e-06 1.0918046e-06 8.200163e-07 1.1739317e-05
000190 54 f2 0a 38 b7 10 de 37 d0 17 2c 39 1b 49 97 38
       3.312745e-05 2.6472246e-05 0.00016412069 7.213858e-05
0001a0 43 9b 5a 38 f5 f7 21 39 6e 3e 13 38 dd 66 e8 38
       5.211985e-05 0.00015446528 3.5105673e-05 0.00011081782
0001b0 90 be 71 39 96 d4 1d 39 14 21 ab 39 9b 2a 32 37
       0.00023054541 0.00015051881 0.00032640307 1.0619547e-05
0001c0 ac 34 6c 37 52 51 a7 37 f0 ee 00 37 b3 d3 1e 39
       1.407896e-05 1.9945819e-05 7.6850265e-06 0.00015146918
0001d0 a5 69 55 38 58 da 14 37 bc cb 86 37 45 59 a2 37
       5.0881546e-05 8.8723245e-06 1.6068916e-05 1.9353474e-05

exp_avg f4 [40, 10]
000000 7b fe 5e ba eb c1 c2 b7 93 64 31 b8 c3 1d 38 b9
       -0.00085065485 -2.3216902e-05 -4.2293756e-05 -0.00017558695
000010 ba a4 17 ba 2d 73 a4 ba e8 d3 df 3a 54 c3 cd ba
       -0.0005784739 -0.0012546532 0.0017076703 -0.0015698471
000020 e7 40 3f 38 10 22 a8 3a 5d 0f ee 35 d0 94 b7 b9
       4.5598394e-05 0.0012827534 1.7736853e-06 -0.00035015354
000030 cb df ba b8 c7 1a 23 3a 0e 0b 4a ba 06 54 0a ba
       -8.910856e-05 0.00062219467 -0.0007707336 -0.00052768027
000040 d0 ca 2b 3a 3d 62 38 39 97 29 13 ba 4a 21 75 b9
       0.0006553354 0.00017584204 -0.00056138024 -0.00023377422
000050 57 ce 7d b9 14 4d 92 39 7f 32 2e b7 89 c1 5b b9
       -0.00024204828 0.00027904718 -1.0382965e-05 -0.00020957565
000060 c4 65 c2 38 a1 81 b7 b9 15 31 1a 3a cd 09 1b ba
       9.269596e-05 -0.0003500106 0.00058819476 -0.0005914241
000070 a2 f2 42 39 3e d7 ee 39 ad a7 34 3a 05 58 e6 39
       0.0001859167 0.00045555265 0.0006891441 0.00043934598
000080 f4 79 0d 39 39 ea b2 b8 c4 a2 21 3a df 32 46 3a
       0.00013492239 -8.531329e-05 0.00061659166 0.0007560681
000090 10 2e 2b ba dc 0e 73 3a 30 20 1b 39 03 1b 67 ba
       -0.0006529996 0.00092719286 0.00014793943 -0.0008815976
0000a0 1b 39 c0 b7 51 31 79 ba 5e 4a 90 b8 bc 31 5d 3a
       -2.2914775e-05 -0.0009505945 -6.880307e-05 0.0008437892
0000b0 d7 31 aa ba 7d e1 cb b9 44 4d b8 39 ef e8 07 3a
       -0.0012984824 -0.0003888718 0.00035152782 0.0005184551
0000c0 0d b6 5e ba 5b 17 d4 b9 3a 4f 5c ba c5 5c 02 ba
       -0.00084957556 -0.00040453192 -0.00084041397 -0.000497293
0000d0 25 3f a5 38 16 0a f3 b9 3f ca 67 ba 48 c2 83 ba
       7.879575e-05 -0.00046356086 -0.00088420877 -0.0010052407
0000e0 3e 5d ad 3a 48 d2 c1 ba ac 31 bf 38 4e ea a4 3a
       0.0013226641 -0.00147874 9.116842e-05 0.0012582035
0000f0 49 6b 3e ba da 01 bf b9 53 6b 5c 39 d1 eb 65 ba
       -0.00072639115 -0.00036431738 0.00021020816 -0.0008770796
000100 5d 8c e4 b9 1a 86 0f ba 8a 90 4d 3a 30 fa ba ba
       -0.00043592128 -0.0005475 0.00078416674 -0.0014265236
000110 1a 32 00 3a 14 59 a5 3a 55 5f b4 ba 36 70 ec ba
       0.0004890278 0.0012615048 -0.0013761321 -0.0018038813
000120 f3 bf 04 ba 0c f5 a3 3a 1d cf 24 bb f4 7c bd ba
       -0.0005064003 0.0012508943 -0.0025147863 -0.0014456795
000130 bf 3b a0 3a f1 c8 d0 b9 08 73 8b ba fc b7 83 3a
       0.0012224837 -0.00039822565 -0.001063914 0.0010049338
000140 98 5a 22 3a 5e 76 1a 3a a1 d2 f5 38 a1 cd 1c b9
       0.0006193309 0.0005892272 0.00011721743 -0.00014953922
000150 e6 81 39 3a 94 ca d4 39 df 23 88 b9 82 56 d8 39
       0.00070765463 0.00040586723 -0.00025966667 0.00041263184
000160 78 cc c5 38 74 88 29 ba ab 51 45 ba 60 47 43 ba
       9.431777e-05 -0.00064671715 -0.0007527123 -0.00074492954
000170 d3 1d 01 b9 12 5c ab 39 a3 4e 99 ba 91 6a 85 ba
       -0.00012313509 0.0003268426 -0.0011696409 -0.0010178854
000180 85 cb 90 3a a2 99 54 ba 28 91 c3 b9 28 0b 5a 3a
       0.0011046982 -0.0008110051 -0.00037301448 0.00083177024
000190 b1 07 f4 ba cb e3 75 b8 80 00 56 b9 67 b7 72 b9
       -0.0018618015 -5.86247e-05 -0.00020408817 -0.00023147241
0001a0 56 e0 a7 ba f6 00 24 bb 79 57 5c 3b c5 5e 45 bb
       -0.0012807946 -0.0025024987 0.0033621474 -0.0030116301
0001b0 e8 22 a4 38 05 c1 2c 3b 9d d7 93 39 0d 58 31 3a
       7.826631e-05 0.0026360166 0.0002819867 0.0006765135
0001c0 ac b9 d3 36 2b 3a 4b 39 39 e9 0c 39 0d 97 20 ba
       6.309905e-06 0.00019381258 0.00013438323 -0.0006126024
0001d0 81 a3 91 3a 53 57 75 b8 41 97 29 b9 46 be 8c b9
       0.001111135 -5.849388e-05 -0.00016173442 -0.00026844646
0001e0 49 2a d8 b9 d1 08 18 3a 8b 64 0a b8 fa 1f d7 b9
       -0.00041230235 0.00057996536 -3.2995402e-05 -0.0004103182
0001f0 dd d6 81 39 3d bc 12 ba 5e a2 80 3a 8d b6 84 ba
       0.00024764883 -0.00055975077 0.0009814014 -0.0010125205
000200 84 4d bd 39 91 18 4e 3a 1a ed 2e 3a 06 57 68 3a
       0.00036106643 0.0007861937 0.0006672904 0.0008863065
000210 02 23 d5 38 db b4 b2 b9 f6 31 7f 3a 4e f2 2b 3a
       0.00010163152 -0.00034085553 0.0009734923 0.00065592385
000220 cd bb c9 b9 73 2c 22 3a 13 7c 9c 39 59 a4 35 ba
       -0.0003847763 0.0006186433 0.0002984708 -0.0006929092
000230 89 e3 51 ba 4a e0 13 ba b0 7c bd b9 78 18 74 3a
       -0.00080066227 -0.00056410267 -0.0003614179 0.00093115075
000240 73 71 e2 ba 86 fe de ba cd a4 08 3b 13 a4 df b9
       -0.0017276242 -0.001701311 0.0020850182 -0.0004265612
000250 54 5e 7a ba 9a 99 18 3a f3 cd d1 ba 80 89 6f ba
       -0.0009550799 0.0005821228 -0.0016006812 -0.00091376156
000260 98 d9 09 38 23 fb 24 ba 03 5b d1 ba 44 fe f2 ba
       3.2865995e-05 -0.0006293526 -0.0015972558 -0.0018538912
000270 1b c4 1a 3b ca 28 21 bb 86 9d 01 39 e0 0d 17 3b
       0.0023615423 -0.0024590963 0.00012361081 0.0023049042
000280 78 33 ae ba 2e cc d4 b9 8c 2b 07 39 8a 3c 6b ba
       -0.0013290485 -0.00040587917 0.00012890826 -0.00089735596
000290 79 1c 5c ba 8a 74 a3 ba 51 08 e2 3a 53 c1 10 bb
       -0.0008396577 -0.0012470644 0.001724491 -0.0022087886
0002a0 97 7e e8 39 c9 bc 03 3b 59 77 21 bb cd 08 16 bb
       0.00044344805 0.0020101538 -0.0024637787 -0.002289343
0002b0 2b c1 46 ba 55 03 c8 3a 80 33 70 bb ad 1b 34 bb
       -0.0007581885 0.0015259782 -0.003665179 -0.0027482316
0002c0 9e f9 32 3b b3 db c9 ba dd 94 b2 ba 7a ee 12 3b
       0.0027309428 -0.0015400558 -0.0013624687 0.0022419975
0002d0 7b a9 09 3a 31 78 8c 3a 22 79 48 39 2f 73 11 ba
       0.000525139 0.0010716972 0.00019118612 -0.0005548475
0002e0 65 8a 8a 3a f9 63 53 39 69 a7 9e 39 24 1e 36 b9
       0.0010569809 0.00020159771 0.0003026084 -0.00017368101
0002f0 52 7b f4 39 37 5a 8a b9 a3 ec f3 ba ff 4b 93 ba
       0.00046631187 -0.00026388626 -0.0018609952 -0.0011237859
000300 e4 1b 87 b9 45 3a ce 39 08 bc 10 bb 81 b3 23 bb
       -0.00025769987 0.00039334796 -0.0022084732 -0.002497882
000310 87 5a 41 3b 24 f9 1d bb b3 de 11 ba df 71 15 3b
       0.0029503421 -0.0024104798 -0.0005564496 0.0022803468
000320 1d 92 10 bc 99 c2 40 bc 0b cc db ba 6f e0 b5 3b
       -0.008823899 -0.011765146 -0.0016769184 0.005550436
000330 1e 42 86 bc d1 de 39 bc 6a 22 34 3c 75 21 e9 bb
       -0.016388949 -0.0113446275 0.010994533 -0.007114584
000340 e7 94 bf bb 2a ed 0b 3c 24 40 f7 bb a0 21 ca 39
       -0.005846608 0.008540431 -0.007545488 0.00038553495
000350 4d 3c bc 39 db 8c ce bb 10 22 92 ba 27 32 f6 bb
       0.00035903082 -0.0063034124 -0.0011149067 -0.007513303
000360 6e 4e 22 3c 45 1c 75 bc 45 08 7b 3b 2a 96 51 3c
       0.009906394 -0.014960353 0.003830449 0.01279215
000370 df 10 4b bc 16 ef 78 bc 42 67 41 bb 20 15 02 3c
       -0.012394159 -0.015193721 -0.002951101 0.007939607
000380 39 de ae bc 4c 8f 7a bc 07 4c 67 3c bb 9f 25 bc
       -0.021346198 -0.015292954 0.014117247 -0.0101088835
000390 e8 7c 0c bc f7 ee 43 3c ce 1b 31 3b 5d a0 97 3b
       -0.008574702 0.011958829 0.002702463 0.004627271
0003a0 6a 24 60 b9 ee 13 30 39 4b b4 9a 3b 41 c5 0e 3b
       -0.0002137587 0.00016792092 0.0047211996 0.0021785053
0003b0 af ca b7 ba 23 03 40 3b 74 96 3b 3a 08 45 5c bb
       -0.0014022196 0.0029298745 0.0007155903 -0.0033610482
0003c0 d2 b6 36 bc 45 80 81 3b ba 10 f3 3a a0 03 72 bc
       -0.011151986 0.0039520585 0.0018544414 -0.014771372
0003d0 ea 3a 2f 3b c7 2b 1b bc 1a d0 69 3c 4f 66 ce bc
       0.0026737996 -0.009470887 0.014270807 -0.025195269
0003e0 53 49 22 3c e0 f5 ac 3c d9 cd de bb cb 03 81 ba
       0.009905177 0.021113336 -0.0067994413 -0.0009843049
0003f0 b0 41 51 39 a5 c1 a3 bb 98 cb 11 bb 39 0c b7 bb
       0.00019956264 -0.0049974495 -0.0022246595 -0.005586174

exp_avg_sq f4 [40, 10]
000000 12 32 8d 34 70 1e 99 34 d3 c8 12 32 c1 2b 97 33
       2.6299728e-07 2.8520617e-07 8.543981e-09 7.039444e-08
000010 fd 53 9f 34 b9 6b 09 35 a1 80 7b 35 ca f2 1e 35
       2.9677167e-07 5.1193234e-07 9.3691966e-07 5.921289e-07
000020 7c 2f 03 34 f1 5b ff 34 00 d5 21 38 74 6d 93 39
       1.22176e-07 4.7564347e-07 3.8583763e-05 0.00028119574
000030 86 0d 84 35 86 ec e0 38 89 69 70 39 f4 de ed 37
       9.838702e-07 0.00010725208 0.00022927499 2.8356422e-05
000040 02 87 d7 38 dc a2 84 39 c1 1e c9 38 88 3c 0a 39
       0.00010277146 0.00025298342 9.590155e-05 0.00013183255
000050 22 ab ac 33 04 ad 12 35 61 6d 44 32 96 30 2a 34
       8.040503e-08 5.464101e-07 1.1433571e-08 1.5850159e-07
000060 be c0 f5 34 f9 a1 2d 33 54 35 1d 34 ef 86 9a 34
       4.5775045e-07 4.0427015e-08 1.4641165e-07 2.8782912e-07
000070 c7 11 01 34 bd 21 59 34 15 e5 cc 36 25 fb 69 38
       1.2020529e-07 2.0221974e-07 6.1063424e-06 5.5785426e-05
000080 8f 12 45 34 51 85 c2 37 45 3e 49 38 4a bf 95 36
       1.8353806e-07 2.3188682e-05 4.7980127e-05 4.462815e-06
000090 ae fa 94 37 57 57 40 38 12 9c b2 37 f6 35 c3 37
       1.7759707e-05 4.585771e-05 2.129193e-05 2.3270939e-05
0000a0 36 6a e9 37 19 49 40 39 b4 7b 51 35 44 c6 99 38
       2.7825223e-05 0.00018337778 7.803858e-07 7.3325384e-05
0000b0 95 48 1a 39 f4 dd 9a 37 e6 15 84 38 dd e8 22 39
       0.00014713623 1.8461586e-05 6.2983294e-05 0.00015536272
0000c0 7f 31 9a 38 c7 3b b7 38 d5 14 60 37 fc 70 18 38
       7.3525116e-05 8.7372544e-05 1.3356291e-05 3.634485e-05
0000d0 3f a3 95 34 d5 bc 3c 37 58 e4 e4 37 41 67 e0 37
       2.787219e-07 1.1249639e-05 2.7286049e-05 2.6750962e-05
0000e0 bb 6c 75 38 de a3 7a 38 1c 0c 2b 37 7f 93 12 38
       5.8513815e-05 5.9757258e-05 1.0195214e-05 3.494648e-05
0000f0 d7 a9 32 38 34 80 62 39 19 94 86 35 30 1e 96 38
       4.2596683e-05 0.00021600799 1.002688e-06 7.15818e-05
000100 99 94 31 39 ea db 85 38 a8 ce 2c 39 f0 58 79 39
       0.00016935392 6.3828964e-05 0.00016480184 0.00023779622
000110 e4 39 87 38 7a ed 0a 39 ec f6 a1 35 d5 c9 32 36
       6.4480846e-05 0.00013249172 1.2067298e-06 2.6641549e-06
000120 da 44 38 33 4d 41 52 35 73 85 0a 36 19 80 01 36
       4.290346e-08 7.832612e-07 2.064128e-06 1.929706e-06
000130 fb 64 87 36 00 f8 76 36 77 bc 86 35 c5 87 2d 36
       4.035069e-06 3.6801212e-06 1.0038628e-06 2.5858037e-06
000140 ae 63 38 37 da 9c 99 38 0e 4d a3 34 4c b2 f4 37
       1.0990463e-05 7.3248244e-05 3.041718e-07 2.9170093e-05
000150 5e b0 77 38 ae 56 2c 37 50 c0 0b 38 76 de 9b 38
       5.9053644e-05 1.0272181e-05 3.3319287e-05 7.4324125e-05
000160 47 9b dc 37 b1 c7 19 38 73 63 ae 35 3d d5 62 36
       2.629835e-05 3.666402e-05 1.2992954e-06 3.3800745e-06
000170 29 38 12 33 4a 26 89 35 51 cd 32 36 2e 99 1a 36
       3.404435e-08 1.0218439e-06 2.6643577e-06 2.303695e-06
000180 20 a6 a2 36 30 58 9c 36 5f be 98 35 90 05 4a 36
       4.8473157e-06 4.6594287e-06 1.1380288e-06 3.0103583e-06
000190 42 a9 81 35 fd 93 e6 34 91 cb 1a 33 4e bd 0d 34
       9.66051e-07 4.2948514e-07 3.604106e-08 1.3200517e-07
0001a0 b4 e6 23 35 ca 40 d7 35 97 12 39 36 cc 10 d2 35
       6.105795e-07 1.6037604e-06 2.757797e-06 1.5651108e-06
0001b0 60 81 46 34 9b 77 c8 35 df 44 93 38 f5 1d 24 3a
       1.8487253e-07 1.4935971e-06 7.0223345e-05 0.00062605675
0001c0 77 4e f0 35 bf 6a 5c 39 48 8d 08 3a 81 76 6c 38
       1.790423e-06 0.00021020601 0.0005209041 5.637715e-05
0001d0 ae 0e 6e 39 53 59 01 3a 8e 23 3a 39 73 44 85 39
       0.00022702917 0.000493427 0.00017751587 0.00025418735
0001e0 c8 bc 35 34 c0 08 c8 34 e5 2a 2d 33 c8 39 0b 34
       1.6925617e-07 3.725927e-07 4.0318714e-08 1.2966404e-07
0001f0 71 27 92 34 f5 51 f4 33 b4 69 3e 34 55 02 a7 34
       2.7223317e-07 1.1377043e-07 1.7733583e-07 3.110787e-07
000200 c5 73 cb 33 a2 a0 93 34 6e f1 18 37 43 3d c2 38
       9.4739825e-08 2.749776e-07 9.116118e-06 9.262052e-05
000210 10 70 8b 34 4a 23 3f 38 7d e6 b3 38 1b af cb 36
       2.5972304e-07 4.5570814e-05 8.578317e-05 6.0702564e-06
000220 0c 20 e3 37 57 48 b6 38 ca 7b 0d 38 9d 43 2a 38
       2.7075432e-05 8.6919106e-05 3.3732307e-05 4.059413e-05
000230 79 6c d3 38 35 23 76 3a ca f0 20 36 c0 cb b0 39
       0.00010081469 0.00093894015 2.3982016e-06 0.00033721142
000240 82 1d 54 3a df 08 a6 38 8d 43 ac 39 9f e4 47 3a
       0.0008091555 7.917149e-05 0.00032856726 0.0007625315
000250 b4 51 8d 39 c5 15 c7 39 82 63 fa 37 80 b7 8c 38
       0.0002695449 0.00037972457 2.984866e-05 6.7099e-05
000260 78 d0 83 35 5b ef 90 37 c3 3f 4c 38 08 48 80 38
       9.820933e-07 1.7277596e-05 4.8696773e-05 6.1169325e-05
000270 62 bf f7 38 a4 97 ed 38 d1 2f 84 37 fb de 92 38
       0.000118135256 0.00011329286 1.5757892e-05 7.003356e-05
000280 c5 05 49 38 be fb 55 39 3c 7e 4f 35 97 db 6e 38
       4.7927508e-05 0.00020407044 7.7297204e-07 5.694813e-05
000290 9d a9 23 39 8d 18 b9 38 e9 70 69 39 50 50 73 39
       0.00015608077 8.8260604e-05 0.00022262674 0.00023204205
0002a0 1d c9 7b 38 c6 ff 0e 39 ff db 21 36 16 e3 a9 36
       6.0030365e-05 0.00013637458 2.4118924e-06 5.0630288e-06
0002b0 45 71 a0 33 e6 dc d8 35 60 8d 93 36 ac dc a0 36
       7.471184e-08 1.6157544e-06 4.3973996e-06 4.794061e-06
0002c0 f5 a0 1e 37 10 47 17 37 ff 5f fb 35 92 f4 be 36
       9.45501e-06 9.016847e-06 1.8728896e-06 5.690913e-06
0002d0 9f 8e 13 37 7f 9f b2 38 e5 c9 96 34 62 60 27 38
       8.795089e-06 8.51741e-05 2.8086575e-07 3.9905666e-05
0002e0 ce 1a 9c 38 85 bb c7 36 99 a0 f5 37 42 57 9d 38
       7.4436524e-05 5.9524923e-06 2.928106e-05 7.5025964e-05
0002f0 0d 10 32 38 fb 7a 1b 38 24 ce 73 36 a6 a4 c5 36
       4.2453456e-05 3.7069414e-05 3.6329811e-06 5.890225e-06
000300 be f2 ab 33 77 09 de 35 51 9a af 36 42 b1 db 36
       8.0069626e-08 1.6543044e-06 5.233371e-06 6.547344e-06
000310 56 ac 50 37 42 3f 30 37 6c 9f 0c 36 0c ec 02 37
       1.2437891e-05 1.0505146e-05 2.0954421e-06 7.803563e-06
000320 48 0d f4 37 54 a6 7f 38 4f a6 27 35 0b a3 6b 37
       2.9093251e-05 6.0951643e-05 6.245436e-07 1.4045053e-05
000330 b0 f8 7a 38 c8 48 6d 38 14 87 f0 38 9c 97 93 38
       5.9836253e-05 5.6572986e-05 0.00011469252 7.037746e-05
000340 ce 36 b2 37 b5 ce 63 38 b7 9c 11 3b 96 26 60 3c
       2.1244774e-05 5.431353e-05 0.0022218653 0.013681075
000350 29 06 60 38 f8 a8 ab 3b bf 26 32 3c 49 eb 21 3b
       5.34115e-05 0.0052386485 0.010873496 0.0024706891
000360 7b b5 ea 3b a3 2d 6a 3c 3a 29 9e 3b b9 99 f6 3b
       0.0071627474 0.014293107 0.004826692 0.0075256494
000370 3a b4 d0 38 b0 de 24 3a 67 e9 53 36 2d d1 71 39
       9.951783e-05 0.00062892865 3.1577308e-06 0.00023061475
000380 78 9e 0b 3a 5e 5a d8 38 38 a2 96 39 48 07 18 3a
       0.0005326043 0.00010316515 0.00028731092 0.0005799425
000390 1d 2b 58 39 c2 dc a4 39 08 f6 fe 39 b9 11 64 3b
       0.00020615426 0.00031444995 0.00048629963 0.0034800603
0003a0 97 ef 60 37 cd 54 9f 3a 3d 90 38 3b c3 fd ef 39
       1.3407224e-05 0.001215601 0.0028162145 0.000457747
0003b0 c8 5d c9 3a 99 f6 49 3b 1e a7 92 3a c7 00 d9 3a
       0.0015363032 0.003081715 0.0011188721 0.0016556018
0003c0 e1 c3 25 3c d3 0b 7a 3d 28 bc 82 39 94 15 ba 3c
       0.010117502 0.061046433 0.0002493572 0.022715367
0003d0 94 c7 46 3d 74 00 36 3c 0a 90 04 3d c9 f0 7f 3d
       0.048530176 0.0111085065 0.03236393 0.06248549
0003e0 b2 24 a9 3c 7b e2 08 3d 9c 38 06 3b 91 78 5e 3c
       0.02064738 0.033419114 0.002048052 0.01357855
0003f0 dd a8 46 38 98 e7 a6 3b 3e a0 33 3c e9 1c 0a 3b
       4.7364145e-05 0.005093526 0.010963498 0.002107436

exp_avg f4 [40]
000000 2f f7 83 bb 25 71 51 3a 80 f4 f2 ba 79 0d f9 3a
       -0.0040272693 0.0007989577 -0.0018536001 0.0019001208
000010 eb c2 14 3b ed e3 4f bb 77 be 48 bb 50 33 22 b9
       0.0022699188 -0.0031721548 -0.0030631104 -0.0001546864
000020 68 d0 55 3a fc 14 d6 ba c3 be 01 bc 1a ea 89 ba
       0.000815636 -0.0016333158 -0.007919016 -0.0010522038
000030 1d bf 51 bb 28 db 2a 3a f0 1a 9f ba 32 f1 ae bb
       -0.0032004782 0.0006517642 -0.0012138765 -0.0053388113
000040 aa 86 a6 bb 6a 0d 43 bb d2 63 99 ba 3a ac b1 bb
       -0.005081971 -0.0029762634 -0.0011702722 -0.0054221423
000050 a0 87 18 bc 19 8c 1b bd c8 71 52 bc 9e 47 38 3b
       -0.009309679 -0.037975404 -0.01284451 0.002811886
000060 10 ce 89 bd 9b bd f3 bc 97 d7 c5 3c cd 14 68 bb
       -0.067287564 -0.029753497 0.024150653 -0.003541279
000070 a7 27 2f bc fc 7d 69 3c 65 72 b1 bb 66 d4 80 ba
       -0.010690606 0.014251228 -0.005415248 -0.0009828925
000080 2c 6e 15 bb 23 67 0c 3b 21 23 4d 39 0d 9e 8a bb
       -0.0022801263 0.002142378 0.0001956341 -0.004230267
000090 80 70 98 bb 86 27 9a bb 37 ef 5e 3a 74 01 87 bb
       -0.004652083 -0.0047044186 0.0008504274 -0.0041200463

exp_avg_sq f4 [40]
000000 a2 0e 0c 37 74 fa 72 3b 43 82 b6 36 bd 57 3b 3a
       8.348057e-06 0.0037075551 5.439187e-06 0.0007146558
000010 66 f9 27 3b 5f 73 5f 3a 73 73 5a 3b d4 4c 82 38
       0.002563083 0.00085239665 0.0033332973 6.2131934e-05
000020 b7 da 90 3a 8e d3 94 38 49 31 ad 37 ae ee df 3b
       0.001105151 7.096595e-05 2.0646157e-05 0.0068338728
000030 72 38 9c 36 d6 1a 8b 3a a8 e3 24 3c 69 b8 bb 3a
       4.6557334e-06 0.0010612856 0.010064043 0.0014321926
000040 e3 bb 54 3b 13 e4 ea 38 f1 e6 8e 3a 06 de 10 39
       0.0032460622 0.000112004716 0.0010902566 0.0001381562
000050 e1 6f 98 3a fc a5 59 3e e7 cf 0b 3c 56 24 3e 3d
       0.0011630022 0.21254724 0.0085334545 0.04642137
000060 2c b9 6a 3f 55 0f 4a 3e 9b e9 86 3d 60 d7 56 3a
       0.916888 0.19732411 0.065875255 0.00081955455
000070 03 0b 3b 3d 89 13 a1 3b 78 3b 49 37 22 1e 60 3b
       0.0456648 0.004915659 1.199438e-05 0.0034197648
000080 bb 77 b4 36 e5 31 80 3a 81 49 74 3b 4d 27 73 3a
       5.3783565e-06 0.0009780495 0.0037275257 0.00092755706
000090 01 ec 26 3b e2 61 87 39 76 4b 96 3a c7 00 f0 38
       0.002547026 0.00025822135 0.0011466581 0.000114442366

exp_avg f4 [40]
000000 2f f7 83 bb 25 71 51 3a 80 f4 f2 ba 79 0d f9 3a
       -0.0040272693 0.0007989577 -0.0018536001 0.0019001208
000010 eb c2 14 3b ed e3 4f bb 77 be 48 bb 50 33 22 b9
       0.0022699188 -0.0031721548 -0.0030631104 -0.0001546864
000020 68 d0 55 3a fc 14 d6 ba c3 be 01 bc 1a ea 89 ba
       0.000815636 -0.0016333158 -0.007919016 -0.0010522038
000030 1d bf 51 bb 28 db 2a 3a f0 1a 9f ba 32 f1 ae bb
       -0.0032004782 0.0006517642 -0.0012138765 -0.0053388113
000040 aa 86 a6 bb 6a 0d 43 bb d2 63 99 ba 3a ac b1 bb
       -0.005081971 -0.0029762634 -0.0011702722 -0.0054221423
000050 a0 87 18 bc 19 8c 1b bd c8 71 52 bc 9e 47 38 3b
       -0.009309679 -0.037975404 -0.01284451 0.002811886
000060 10 ce 89 bd 9b bd f3 bc 97 d7 c5 3c cd 14 68 bb
       -0.067287564 -0.029753497 0.024150653 -0.003541279
000070 a7 27 2f bc fc 7d 69 3c 65 72 b1 bb 66 d4 80 ba
       -0.010690606 0.014251228 -0.005415248 -0.0009828925
000080 2c 6e 15 bb 23 67 0c 3b 21 23 4d 39 0d 9e 8a bb
       -0.0022801263 0.002142378 0.0001956341 -0.004230267
000090 80 70 98 bb 86 27 9a bb 37 ef 5e 3a 74 01 87 bb
       -0.004652083 -0.0047044186 0.0008504274 -0.0041200463

exp_avg_sq f4 [40]
000000 a2 0e 0c 37 74 fa 72 3b 43 82 b6 36 bd 57 3b 3a
       8.348057e-06 0.0037075551 5.439187e-06 0.0007146558
000010 66 f9 27 3b 5f 73 5f 3a 73 73 5a 3b d4 4c 82 38
       0.002563083 0.00085239665 0.0033332973 6.2131934e-05
000020 b7 da 90 3a 8e d3 94 38 49 31 ad 37 ae ee df 3b
       0.001105151 7.096595e-05 2.0646157e-05 0.0068338728
000030 72 38 9c 36 d6 1a 8b 3a a8 e3 24 3c 69 b8 bb 3a
       4.6557334e-06 0.0010612856 0.010064043 0.0014321926
000040 e3 bb 54 3b 13 e4 ea 38 f1 e6 8e 3a 06 de 10 39
       0.0032460622 0.000112004716 0.0010902566 0.0001381562
000050 e1 6f 98 3a fc a5 59 3e e7 cf 0b 3c 56 24 3e 3d
       0.0011630022 0.21254724 0.0085334545 0.04642137
000060 2c b9 6a 3f 55 0f 4a 3e 9b e9 86 3d 60 d7 56 3a
       0.916888 0.19732411 0.065875255 0.00081955455
000070 03 0b 3b 3d 89 13 a1 3b 78 3b 49 37 22 1e 60 3b
       0.0456648 0.004915659 1.199438e-05 0.0034197648
000080 bb 77 b4 36 e5 31 80 3a 81 49 74 3b 4d 27 73 3a
       5.3783565e-06 0.0009780495 0.0037275257 0.00092755706
000090 01 ec 26 3b e2 61 87 39 76 4b 96 3a c7 00 f0 38
       0.002547026 0.00025822135 0.0011466581 0.000114442366

model.NN.weight_ih_l0 f4 [40, 3]
000000 ed 32 2f bd 8a 2e 41 3d a9 60 27 3e 6b 01 a2 bd
       -0.042773176 0.047163524 0.16345467 -0.07910427
000010 50 76 49 be 05 d6 94 3e b4 33 21 3e 4f 0d 4d bd
       -0.19674039 0.29069534 0.1574238 -0.05006152
000020 b4 29 a3 3e 8c 6b 55 3e 24 b7 1b 3e b6 27 6a 3e
       0.31867754 0.20841807 0.15206581 0.22866711
000030 de 9a 19 be df fe 28 3e 09 b6 0d 3e 59 b7 7d be
       -0.15000483 0.16503476 0.13838972 -0.24776973
000040 62 ff de bd 9c cb 67 be 1e 41 3c 3e d9 db 93 3e
       -0.10888554 -0.22636265 0.18384215 0.28878668
000050 cb ef 39 bd 22 97 31 3e d6 12 9b 3d c1 a3 8f be
       -0.0453947 0.17342809 0.07571952 -0.28054622
000060 7e e0 90 3e 2c cc 86 be 4e 00 38 be c3 13 34 be
       0.28296274 -0.26327646 -0.17968866 -0.17585663
000070 30 9d 7b be ce 87 1e 3d b0 36 65 3d ce 4b f4 bb
       -0.24571681 0.038703732 0.055960357 -0.0074553257
000080 8a 7e ec 3c 81 e4 95 3e 98 66 69 be df 68 9b bd
       0.028868932 0.29275897 -0.22793043 -0.07588362
000090 ed 16 47 be e6 ab dc bd 45 7e 16 be 29 7a 93 be
       -0.19442339 -0.107749745 -0.14696606 -0.28804138
0000a0 20 7b 2d be b4 c6 7f be bd 64 52 3e 0f 94 b1 bd
       -0.169415 -0.24978143 0.20546241 -0.08670818
0000b0 bf bd 7e bd 76 ae 5c be 7e f1 85 be f3 33 57 be
       -0.062192675 -0.21550927 -0.26160806 -0.21015911
0000c0 c3 82 e9 3d a5 db 48 be 3b 9d 85 3e 2a 90 52 be
       0.11401894 -0.19615038 0.2609652 -0.20562807
0000d0 9b f7 e7 bd 53 18 ed 3c c6 04 4b 3e f8 1c 3e be
       -0.11326524 0.028942263 0.1982604 -0.18565738
0000e0 aa 06 62 3e a5 e8 11 3e 46 cf 70 3e 1f 5b 27 be
       0.22072855 0.14248903 0.23516569 -0.16343354
0000f0 b7 f5 6c be 5e 56 2d 3e 76 47 94 be 82 22 be 3b
       -0.23140608 0.16927478 -0.2896077 0.0058024535
000100 91 21 7d 3d 4b 28 06 be 2d 39 1f be 35 9b b7 3d
       0.06179959 -0.13101308 -0.15549155 0.0896515
000110 03 f9 33 be c4 1b 76 3e d7 8f a2 3d c6 53 80 bd
       -0.17575459 0.24034029 0.079375915 -0.062659785
000120 35 63 d0 bd 44 aa 0a 3e c4 d6 20 be 6a f2 02 be
       -0.10175172 0.13541514 -0.15706927 -0.12787786
000130 cb b2 02 3b 09 dc c8 bd 49 7e 2c 3e 29 ee 7b 3e
       0.0019942995 -0.098075934 0.16845049 0.2460257
000140 ff 6a 88 bd c4 e0 ed 3d 85 28 1a be 2e 2a f8 bd
       -0.06661033 0.11615136 -0.1505452 -0.1211742
000150 43 1b 8e be 11 cf 2b be d2 71 58 be bf 26 2f 3d
       -0.27755174 -0.16778208 -0.21137169 0.04276156
000160 0f 1b 37 be 42 20 48 3e 24 43 04 3e e1 40 75 3e
       -0.17881416 0.19543555 0.12916237 0.2395053
000170 e5 29 72 3d eb 50 5e be c3 e7 ca 3d 3e 96 2d 3d
       0.059121985 -0.21710555 0.09907486 0.04237961
000180 ab 34 63 3e ec 29 2f 3d 3d 3d 4f be b3 f2 36 be
       0.2218806 0.04276459 -0.20238204 -0.1786602
000190 cd 30 82 be c6 1c 5f 3e dd b2 5f be 15 cb 39 3d
       -0.25427857 0.2178832 -0.21845575 0.04535969
0001a0 10 1b c5 3c eb 6a 02 3e 82 e4 a8 3d e9 55 bc 3d
       0.024060756 0.12736098 0.082467094 0.091960736
0001b0 92 5d f0 bd 07 1d 18 be 13 b7 ab 3d 34 9f f7 3d
       -0.11736597 -0.14854823 0.08384528 0.120909125
0001c0 cb b7 d9 bd f5 1c 2f be 22 86 93 be 56 ff 86 bc
       -0.10630759 -0.1710089 -0.28813273 -0.016479176
0001d0 3f f7 22 3e 0b 41 d6 3c aa f6 8a bd 0c be 05 be
       0.1591463 0.026154062 -0.06785329 -0.13060778

model.NN.weight_hh_l0 f4 [40, 10]
000000 39 0f aa bd 7d 40 c2 bd 15 53 f7 3d d2 aa 1d be
       -0.08303685 -0.094849564 0.120763935 -0.15397194
000010 80 2e 93 3e 82 09 42 3e 76 8d 61 be f3 d3 28 3e
       0.28746414 0.1894894 -0.2202662 0.16487102
000020 9f 81 97 3e 91 26 4a be fd ac c8 be 33 b7 81 bd
       0.2959108 -0.19741274 -0.3919448 -0.063337706
000030 99 11 91 be 64 9a 0a 3e 2f a7 58 be c8 31 15 3e
       -0.28333738 0.13535458 -0.21157525 0.14569771
000040 66 62 86 3e 3f bb a9 3e 9e 6d e9 bd 58 d8 c1 bd
       0.26246947 0.3315067 -0.11397861 -0.094650924
000050 ae 9c 6b 3d 3f 83 71 be 34 ba 93 3e 07 0b 92 bd
       0.05752247 -0.23585223 0.28853 -0.071310095
000060 8d bf c6 3d d9 70 a9 bd f7 62 cf ba eb 15 2c 3e
       0.09704504 -0.08273477 -0.001582234 0.16805236
000070 30 bc 3d 3e ab 22 ab bd 6c c9 7c be 2a 82 a1 3d
       0.18528819 -0.08356222 -0.24686211 0.07886155
000080 41 fc 9d be a4 a1 a4 3e 22 36 02 be 84 4c 40 3e
       -0.30856517 0.32154572 -0.12715963 0.18779188
000090 f2 43 a9 3e 05 a6 8a be 46 13 4f be 6a fe 15 3e
       0.3305965 -0.27079788 -0.20222196 0.14647833
0000a0 d9 ec 3d 3d e5 69 a1 bd 49 ee 6f be 10 ac a7 3e
       0.046368454 -0.07881526 -0.23430742 0.3274846
0000b0 c2 85 59 bd db 8f 9a be 07 3b d8 3d 94 1e 89 3e
       -0.053106077 -0.30187878 0.105581336 0.26781142
0000c0 67 ac 0d be d7 b7 3b be f2 2b 8a 3e ac c0 1f bd
       -0.13835298 -0.18331848 0.26986653 -0.039002106
0000d0 bd 2e d9 3c 71 1c e1 3d b0 1d c1 3e 6a a1 79 3e
       0.026511544 0.10991753 0.37717962 0.24377981
0000e0 d3 2d c2 3c 21 49 8a 3e 7c 03 85 be e8 4e 94 be
       0.023703491 0.27008918 -0.2597922 -0.2896645
0000f0 a2 7b a3 bc a8 bd 2a be 5b 9b 8c 3e 7a d0 66 bd
       -0.019956414 -0.1667391 0.27462277 -0.056351162
000100 3e 43 cf 3e 0d 61 2b 3e d3 4e b4 be a0 9c c0 3d
       0.4048099 0.1673624 -0.35216388 0.09404874
000110 49 1a 42 3e b5 fb 41 bd e4 70 b2 3e ba 3d 2e 3e
       0.1895534 -0.047359187 0.34851754 0.17015734
000120 7a 23 f7 bd e5 38 6a be 05 0a fb bd 5d 37 6d 3e
       -0.120673135 -0.22873266 -0.122577704 0.2316565
000130 88 69 c5 bd a6 fd 2b 3e 47 bb cd 3c 80 74 55 be
       -0.09639269 0.16795978 0.025113715 -0.20845222
000140 15 c9 1f be 89 91 7f be a4 4a 1a bd 39 20 67 3d
       -0.1560405 -0.24957861 -0.03766884 0.056427214
000150 21 ba 8e be b4 68 4f 3e 49 02 44 3a 55 06 b9 3d
       -0.2787638 0.20254785 0.0007477147 0.09034411
000160 99 f8 75 3c 8e 17 85 be e7 16 19 3e fe 8a a2 3e
       0.015012884 -0.25994533 0.14950143 0.31746668
000170 ff 80 2a be 1a 84 33 bd f3 2b 50 3e c7 cf cc 3e
       -0.1665077 -0.043827154 0.20329265 0.40002272
000180 14 05 39 be 65 aa 88 be 05 97 aa 3e 5d 27 90 bc
       -0.18068343 -0.266925 0.33318344 -0.017596895
000190 b7 89 8f 3e d4 c5 37 be 3b 55 6d 3e 04 4b a4 3e
       0.28034756 -0.17946559 0.23177044 0.32088482
0001a0 60 96 d0 bd 51 c9 cf 3d 15 d6 c6 bd e9 af db 3e
       -0.10184932 0.1014582 -0.09708802 0.42907646
0001b0 a4 d6 67 be 62 da 9a bd 0c c0 8a bc 29 ee cd be
       -0.22640473 -0.075611845 -0.016937278 -0.40220764
0001c0 89 3b 8e bb 19 98 c2 3e bf 11 4d be bf 05 a6 be
       -0.0043405932 0.38006666 -0.20026301 -0.3242626
0001d0 2a 7e 60 3d 04 b1 ae 3b e9 ec 0a 3c 62 b2 2e bd
       0.05480782 0.0053311605 0.008479335 -0.042650588
0001e0 bd 32 9a bd 78 30 90 3d ca 20 de bd 9a 7f 79 be
       -0.07529209 0.07040495 -0.10846098 -0.24365082
0001f0 0f 9f ea bd 43 68 b4 3e ec 93 56 3e 3b 7c 95 bd
       -0.11456119 0.35235795 0.20954865 -0.07299086
000200 e5 df 99 bd 52 05 b1 be 3f 63 97 be f0 9d dd bd
       -0.075134076 -0.34574372 -0.29567906 -0.1082114
000210 36 fd fc 3a 0e 08 99 bd 81 f0 33 bd 2d 6a ad 3d
       0.0019301537 -0.074722394 -0.043930534 0.08467517
000220 c4 75 fc bd 41 d9 73 3e 20 52 a4 be fe b2 62 3d
       -0.123271495 0.23813345 -0.32093906 0.05534648
000230 88 f7 55 3e fa d6 de be cc 69 9c 3d 0a cc 91 3e
       0.20895207 -0.4352339 0.07637367 0.28475982
000240 d1 0c bf be b7 51 07 be 4e 49 b4 be c6 09 7c 3e
       -0.37314466 -0.13214765 -0.35212177 0.24613103
000250 c9 02 13 be 73 87 74 be d0 12 06 be 6f 31 cf bd
       -0.14356531 -0.23879795 -0.13093114 -0.101168506
000260 9b fb 1b 3e 54 a8 1b bc f8 fd ec bd a9 23 ab 3e
       0.15232699 -0.009500582 -0.11571878 0.33425644
000270 e7 fd 40 be f9 97 1d 3e 4d 74 18 3e 87 3e be bd
       -0.18846856 0.15390004 0.14888115 -0.0928927
000280 e2 e6 7b 3e ce 68 c1 bd e6 cf f1 bd ad 79 22 be
       0.24599794 -0.09443818 -0.118072316 -0.15866728
000290 43 5a bb 3e 7d 80 43 3e 82 b7 9f 3d 9f 94 de 3d
       0.36592302 0.19091983 0.07798673 0.10868191
0002a0 44 f3 98 3d ef 3f cc bd 7d b1 80 3d 4e d3 87 3e
       0.07468274 -0.09973132 0.06283853 0.265284
0002b0 8d 0a b5 3e 5a 2f e8 bd f8 52 c4 3d 66 47 77 be
       0.35359612 -0.113371566 0.095861375 -0.2414833
0002c0 93 0c 81 bd 72 96 47 3e 3d a9 a2 3e 06 03 06 be
       -0.063012265 0.19490984 0.31769744 -0.13087091
0002d0 a4 5e 9c be 7c 6d 4c be 04 0d b2 be 2e 3c ad 3e
       -0.30540955 -0.1996364 -0.34775555 0.33834976
0002e0 1f 8e 37 3e 4e f2 97 3e 80 7c a3 3d 6d 7c 51 be
       0.17925309 0.2967705 0.07982731 -0.20457621
0002f0 1f 64 8c be fa 2e e9 bd 40 c8 ab 3e d2 26 2e 3e
       -0.27420136 -0.11385913 0.33551216 0.17006996
000300 21 34 95 3e 8f 7a 57 bd 0b 8b cb bd 98 0e 90 3e
       0.29141334 -0.052607115 -0.0993863 0.28136134
000310 36 91 b4 be 82 47 30 3e e5 c5 40 3e 94 38 02 be
       -0.35267037 0.17214778 0.18825491 -0.12716895
000320 9d 91 bd 3d 88 12 4a 3e 29 05 8c bd 29 55 08 be
       0.09256289 0.19733632 -0.06836922 -0.13313736
000330 ba 44 9e 3e b7 d9 8b 3e 9a 6c 1d 3e f1 36 e4 3d
       0.3091181 0.2731454 0.1537346 0.11143292
000340 f2 65 96 bd 39 15 e3 bb 0a bc 2c be 1c c8 c6 3d
       -0.07343663 -0.00693002 -0.16868606 0.097061366
000350 a1 08 38 be e4 e6 03 be 40 42 da 3e 73 e4 cb 3e
       -0.17972042 -0.12881047 0.4262867 0.3982273
000360 80 dc 1a be 1f cc ec bd 36 fc 70 bc b2 61 8c be
       -0.15123177 -0.115623705 -0.014708569 -0.27418286
000370 3b 4d db 3e 5d 5c 2e 3e 0e ea 6f 3e 11 21 30 bd
       0.4283236 0.17027421 0.23429129 -0.043000285
000380 08 33 21 be bd 7f cb 3d 95 8f ec 3d 65 f7 53 be
       -0.15742123 0.099364735 0.115508236 -0.20699842
000390 5a a5 92 3e 63 da 00 3e 02 00 90 be 59 c4 59 be
       0.28641778 0.12583308 -0.28125006 -0.21266307
0003a0 d2 7d c0 be 9c 19 9f 3e 5e 14 4f be ab 2b 41 be
       -0.37595993 0.31074226 -0.20222613 -0.18864314
0003b0 9c ca 1c be e4 79 00 bd 67 a7 c5 be 1c 45 62 bd
       -0.15311664 -0.031366244 -0.3860428 -0.05524169
0003c0 3d db 16 be 11 55 b7 3e 1b f1 88 3e 55 b2 c2 bd
       -0.1473207 0.35807088 0.2674645 -0.095066704
0003d0 04 95 19 3d d1 d4 98 3e 51 a0 ab be 2e 2c 96 3d
       0.037495628 0.29849866 -0.3352075 0.07332645
0003e0 a3 74 0c 3e 31 df 8a 3c d7 dc 33 bd 24 a7 0d 3e
       0.13716368 0.01695213 -0.04391178 0.1383329
0003f0 13 97 3a be 90 b5 7e be 21 c4 bf 3e 0e aa 1f be
       -0.18221693 -0.24873948 0.37454322 -0.15592214

model.NN.bias_ih_l0 f4 [40]
000000 00 aa 2a be 53 7f 17 3e ed 05 68 3d 2a b2 bd 3d
       -0.16666412 0.14794664 0.056646276 0.09262498
000010 93 5d a9 3c 28 52 88 3c 75 b9 02 be c7 87 e3 3d
       0.020674502 0.016640738 -0.12766059 0.11109882
000020 f8 ee 5a 3d b8 f2 8b 3e 76 ff d8 3e f7 67 ab 3c
       0.053450555 0.27333617 0.423824 0.020923598
000030 88 43 5a 3e 96 3e 86 3c 87 09 c7 3e 91 63 bf 3e
       0.21314824 0.016387265 0.38874456 0.3738065
000040 20 a8 5f 3e 52 e9 8d 3e 2b 68 8a 3d 7e 0f ab 3e
       0.21841478 0.27717072 0.0675815 0.33410257
000050 31 a1 a1 3d f7 0c a4 3d 63 ce 80 3e c1 a6 f1 bd
       0.07892073 0.08010285 0.2515746 -0.11799384
000060 b2 19 3f be 92 79 35 3e 3f 00 7b be b4 ff 91 3e
       -0.18662146 0.17722157 -0.24511813 0.28515399
000070 1f b0 47 be 41 41 ea ba b2 f0 1b 3e cf de bf 3e
       -0.19500779 -0.001787223 0.15228537 0.37474677
000080 df 9d 63 be 7f 9f aa 3e f5 18 13 bd 33 76 ab 3e
       -0.22228192 0.3332481 -0.035912473 0.33488616
000090 89 5c 35 3e 38 ad 1a be c4 18 6f be 27 88 f0 3d
       0.1771108 -0.1510514 -0.23349291 0.11744719

model.NN.bias_hh_l0 f4 [40]
000000 52 9f 7b 3e cf 12 2d 3d 38 3f 98 bd 99 4e 6a 3e
       0.24572495 0.042254265 -0.07433933 0.22881545
000010 d2 54 c8 3e 6a 6c ce bc 56 1e 53 be 0b 88 e8 3d
       0.39127213 -0.02519818 -0.20617041 0.11354073
000020 cd dd 3a 3d 5a 19 40 3e c3 37 2e be b0 98 c3 3e
       0.045621682 0.18759671 -0.17013459 0.3820243
000030 72 7a 82 3d 59 d1 f5 bd b7 7e e0 3e 2c 8f b1 bd
       0.06371011 -0.120028205 0.43846676 -0.08669886
000040 f0 79 a2 3e c2 8b 09 3e 6c c0 26 be 8f f5 c8 bc
       0.31733656 0.1343222 -0.1628434 -0.024531154
000050 ad 25 b7 3d b3 e5 97 be 19 89 07 be 66 1b 75 3e
       0.08942733 -0.29667434 -0.13235892 0.23936233
000060 e5 75 5b 3d c8 84 8e 3d 0d df 5b ba a4 ed 51 3e
       0.05357923 0.0695892 -0.0008387424 0.20500809
000070 1d 85 2c be 5e ce 0f be 2d af 45 be 3b 8c 67 3e
       -0.16847654 -0.14043567 -0.19305106 0.22612087
000080 d6 e3 08 3d 85 1c 37 be b1 2c 31 3e 2e fc c2 3d
       0.033420406 -0.17881973 0.17302205 0.09520756
000090 43 a0 19 3e 23 52 4a 3d 52 fa 95 3e 06 52 95 3e
       0.15002541 0.049394738 0.29292542 0.2916414
