exp/auto-lstm/2-classes/version_30/checkpoints/epoch=16.ckpt (torch_old, 470770 bytes, 54 tensors)

exp_avg f4 [256, 3]
000000 48 ed d8 37 de e7 62 b7 ac c0 bb b7 fb 8b 32 37
       2.58597e-05 -1.35246355e-05 -2.2381857e-05 1.06422185e-05
000010 e0 e6 ac b6 8b a7 62 b6 bf 9a 00 b7 72 f5 8c 37
       -5.152877e-06 -3.3774147e-06 -7.665424e-06 1.6803595e-05
000020 f6 8f c4 36 55 24 3e 36 32 9c fa b6 14 1f a7 b6
       5.8580144e-06 2.8333354e-06 -7.468764e-06 -4.980606e-06
000030 38 e3 88 b7 b5 e2 40 37 d5 d1 a6 37 9a 1b 71 37
       -1.631827e-05 1.1496876e-05 1.9886453e-05 1.4371146e-05
000040 34 7b 63 b7 df 8e 81 b7 ff 99 df b7 8d 7d be 37
       -1.355894e-05 -1.5444528e-05 -2.6655382e-05 2.270823e-05
000050 df d4 19 38 49 b5 f9 b5 26 c4 63 b7 a7 3d 97 b7
       3.6676294e-05 -1.8604707e-06 -1.3575924e-05 -1.8029312e-05
000060 43 f9 38 37 03 1d 8a b6 d2 87 dd b6 4e 6a e0 b6
       1.102529e-05 -4.116098e-06 -6.602125e-06 -6.6880957e-06
000070 43 11 fc b7 29 24 d6 b7 9b 58 a2 37 15 a5 cf b6
       -3.0048779e-05 -2.5527626e-05 1.9353165e-05 -6.188299e-06
000080 73 8a 21 b7 11 34 e5 b7 b2 fb 9a 37 1f e9 5b 37
       -9.628583e-06 -2.7323173e-05 1.8475435e-05 1.3107695e-05
000090 b7 ec 47 b6 9c 7c 04 b6 fd 15 99 b7 59 79 d7 b7
       -2.9791097e-06 -1.9742065e-06 -1.824926e-05 -2.5686504e-05
0000a0 fe 31 25 37 55 74 bb 37 6c 6b 64 37 5e e5 03 b7
       9.846406e-06 2.2346308e-05 1.361487e-05 -7.861612e-06
0000b0 b6 56 82 b7 01 7a 33 b8 d0 4b 04 38 e3 bd 15 38
       -1.5537586e-05 -4.279055e-05 3.154186e-05 3.5701214e-05
0000c0 f5 6d 45 35 f4 01 03 b8 6e e6 26 b8 7f 31 9c 36
       7.354823e-07 -3.1234653e-05 -3.979209e-05 4.6549244e-06
0000d0 fb 68 b2 b6 fa 80 64 b6 b8 ad bd b7 0d a9 64 37
       -5.3170347e-06 -3.4049722e-06 -2.261145e-05 1.3629219e-05
0000e0 ed c1 a2 37 0e 3e 31 37 d1 bc 6a b7 a8 a2 8c b7
       1.9402209e-05 1.056447e-05 -1.3991449e-05 -1.6765043e-05
0000f0 0b 30 92 b8 8b f5 f7 37 22 27 7f 37 12 ea 9c b7
       -6.970771e-05 2.9559034e-05 1.5208296e-05 -1.8705647e-05
000100 1b a7 36 37 ca ab 17 37 a0 4a 1a b8 ad 40 0e 38
       1.0886953e-05 9.040299e-06 -3.678596e-05 3.3915672e-05
000110 d8 85 08 38 c2 0c 3e b8 08 da 4d b5 9d 31 c5 36
       3.254958e-05 -4.531141e-05 -7.668573e-07 5.8768333e-06
000120 8e 7b 41 b7 e3 68 34 37 da 94 7d 37 48 bb d9 b8
       -1.1532464e-05 1.0753257e-05 1.5114632e-05 -0.0001038225
000130 43 13 7a 38 74 62 86 38 39 85 28 37 b4 e1 4b b7
       5.9622584e-05 6.407956e-05 1.0044599e-05 -1.21522935e-05
000140 50 db 22 b7 9e e5 96 b7 71 08 32 37 d4 e8 80 b5
       -9.707015e-06 -1.7988317e-05 1.0611592e-05 -9.604505e-07
000150 e1 82 f0 b6 85 88 d9 37 5e b6 21 38 f2 8f 0c b8
       -7.1677937e-06 2.5931988e-05 3.8555234e-05 -3.351266e-05
000160 db 3e 42 b6 d8 43 88 36 5e d3 98 b7 40 48 26 37
       -2.894484e-06 4.061014e-06 -1.8218238e-05 9.911193e-06
000170 b1 7d d3 36 41 84 0c b7 aa 23 09 37 62 a9 3f 36
       6.3029224e-06 -8.375443e-06 8.17414e-06 2.8559812e-06
000180 bf 1c 34 b7 e0 ee 43 37 30 98 36 36 d9 4e 1c b6
       -1.0735529e-05 1.1678523e-05 2.7208698e-06 -2.3291707e-06
000190 d0 c7 26 b6 f9 f1 ac b5 9e 12 c6 35 28 5f ac b7
       -2.4852234e-06 -1.2885422e-06 1.4757568e-06 -2.0548308e-05
0001a0 76 f9 ed b6 d1 8c 21 b7 25 cf 81 37 09 57 ad 37
       -7.0921915e-06 -9.629134e-06 1.5474458e-05 2.0663736e-05
0001b0 27 f4 5b 35 c6 4a 5f b6 a9 1c 5b 31 46 d0 aa b7
       8.1939146e-07 -3.3273113e-06 3.1884986e-09 -2.0362564e-05
0001c0 c1 56 47 b5 9c 3c 3a 37 99 05 73 36 e9 77 01 b7
       -7.425952e-07 1.1100576e-05 3.621308e-06 -7.716918e-06
0001d0 b0 a1 5e b6 94 88 70 b7 fe d5 f6 35 3f b1 88 b6
       -3.3174692e-06 -1.4336914e-05 1.8390708e-06 -4.07375e-06
0001e0 49 7c 9d b7 3f 94 d2 b6 2a 25 d0 b6 41 5b e4 b7
       -1.8773733e-05 -6.275746e-06 -6.2032095e-06 -2.7222211e-05
0001f0 37 15 2a 37 f5 3a 68 37 3d ae 91 b8 31 79 23 38
       1.0137729e-05 1.3842005e-05 -6.946593e-05 3.8975097e-05
000200 4c 03 18 38 c8 98 61 b7 3b ea 8f b6 00 c2 f2 b6
       3.6242694e-05 -1.3446617e-05 -4.289e-06 -7.2347466e-06
000210 d5 dc 91 b8 9d b7 19 38 11 89 83 37 66 08 9b b5
       -6.955272e-05 3.6649046e-05 1.5680243e-05 -1.1550844e-06
000220 50 e2 3a 37 4a 8b 91 36 93 37 a1 b7 0d a5 37 b7
       1.1139156e-05 4.337552e-06 -1.9218574e-05 -1.0946079e-05
000230 88 d1 e8 36 c6 a5 b7 b7 99 50 56 b6 b8 bd 43 b7
       6.9385314e-06 -2.1892494e-05 -3.19354e-06 -1.1667078e-05
000240 dc 7b 9a b8 c7 aa 99 38 c8 b5 89 38 13 d4 15 37
       -7.366363e-05 7.327418e-05 6.5665285e-05 8.930469e-06
000250 a8 cb 78 b7 68 3e 74 b7 b5 0c 63 b6 94 29 3a b6
       -1.4829369e-05 -1.4558063e-05 -3.3833032e-06 -2.7740361e-06
000260 5c c5 e6 b6 45 0f 86 36 4e ec 88 b7 f0 e5 cb b7
       -6.87751e-06 3.995289e-06 -1.6322501e-05 -2.4306559e-05
000270 0e 78 88 b8 56 7c 3b 38 6c 42 62 38 e2 5f 95 b7
       -6.507347e-05 4.470007e-05 5.394446e-05 -1.7806833e-05
000280 4f c0 45 36 68 70 23 37 d1 e4 1d 36 bf c9 7c b6
       2.9467226e-06 9.741729e-06 2.3528012e-06 -3.7668358e-06
000290 83 de cf b5 f7 83 bf 37 30 81 22 b7 c3 90 c0 b6
       -1.5487461e-06 2.2830425e-05 -9.686031e-06 -5.7388984e-06
0002a0 42 46 0f b8 b7 fb 9f 36 18 82 94 b6 49 1a cc 36
       -3.415929e-05 4.7678727e-06 -4.4258886e-06 6.0827338e-06
0002b0 04 9f 96 b6 40 84 a5 b6 6e c6 0a b8 a7 cd d4 37
       -4.48886e-06 -4.932779e-06 -3.3086566e-05 2.5368134e-05
0002c0 f6 41 da 37 5f 2a 96 b8 3b cb 3a 37 f4 1e 96 37
       2.601834e-05 -7.1604496e-05 1.1133782e-05 1.7895807e-05
0002d0 71 91 2a b8 90 4b d2 37 8a e8 02 37 ab 54 88 b7
       -4.066661e-05 2.5069137e-05 7.802746e-06 -1.625189e-05
0002e0 3b 00 de 36 e7 43 0c 37 96 c0 4a b7 d6 ab 0c 37
       6.6161424e-06 8.36046e-06 -1.2084978e-05 8.384659e-06
0002f0 2c 08 43 36 a8 fa 7e 36 34 42 61 37 b6 ed 1e 37
       2.906202e-06 3.799485e-06 1.3426459e-05 9.47288e-06
000300 f3 66 1b 38 1a c2 01 b8 3c 70 03 b8 5a 45 de 36
       3.705076e-05 -3.0936768e-05 -3.133736e-05 6.624189e-06
000310 c8 d9 b7 b6 de 0e 81 b6 20 32 48 36 bd cf ce 36
       -5.479178e-06 -3.8462304e-06 2.98315e-06 6.1634623e-06
000320 34 fd b5 b6 c5 2f 32 36 94 ba 9f b6 59 3a 30 b6
       -5.423697e-06 2.6551872e-06 -4.76029e-06 -2.6260007e-06
000330 05 da 95 b7 8f d8 50 36 8c 14 8e 36 ec 0d 6c 37
       -1.7863707e-05 3.112047e-06 4.2343218e-06 1.4069938e-05
000340 03 15 54 b6 eb d3 e9 b6 3d ee 30 b7 45 50 3c b7
       -3.1602692e-06 -6.9686116e-06 -1.0545887e-05 -1.1224362e-05
000350 4d fa 66 b6 d0 db d6 b6 45 72 32 b7 20 03 62 b7
       -3.4418365e-06 -6.4032865e-06 -1.0636232e-05 -1.3471377e-05
000360 fb 35 e7 37 0b b1 29 b7 c8 30 c0 b7 6b da 38 36
       2.7562483e-05 -1.0114406e-05 -2.29109e-05 2.7545273e-06
000370 1c ee 5f b7 a4 14 6c b7 d4 23 71 37 59 43 8b b6
       -1.3347275e-05 -1.4071502e-05 1.4373061e-05 -4.150363e-06
000380 83 c2 80 b6 e8 e3 db b7 ad d9 3e 37 4d 77 aa b5
       -3.8373414e-06 -2.6212962e-05 1.1375564e-05 -1.2700708e-06
000390 02 d9 b9 b6 44 75 32 b7 cf c6 b8 b7 b0 7b a5 b7
       -5.5386927e-06 -1.063693e-05 -2.2027087e-05 -1.972713e-05
0003a0 4e b1 13 37 56 ca ae 37 ad 70 e8 36 f9 ab 87 b6
       8.803165e-06 2.0836636e-05 6.927256e-06 -4.043334e-06
0003b0 99 ec 09 b7 4d 67 ff b6 46 c5 69 b7 37 2d b7 b7
       -8.2209235e-06 -7.611618e-06 -1.39338135e-05 -2.1836355e-05
0003c0 36 98 5d 37 6c f3 db b7 d9 f9 2c b8 53 e1 30 37
       1.3208066e-05 -2.6220187e-05 -4.1240684e-05 1.054288e-05
0003d0 f2 cf dc b6 6f 84 c2 b6 30 b2 fa b7 90 f7 d2 36
       -6.580719e-06 -5.797068e-06 -2.9885297e-05 6.2873078e-06
0003e0 ba 57 39 37 fe 23 b0 37 ce 6d 0d b8 17 08 18 b8
       1.1047285e-05 2.0997595e-05 -3.3719283e-05 -3.624716e-05
0003f0 0f ed 85 b8 6a ed d0 36 01 01 91 b7 0f c4 f0 36
       -6.38609e-05 6.2265217e-06 -1.7285814e-05 7.1753816e-06

exp_avg_sq f4 [256, 3]
000000 81 47 fb 2f 7b bf 8d 30 79 8c 09 30 f7 17 fb 2f
       4.570744e-10 1.0313522e-09 5.0039933e-10 4.5673662e-10
000010 16 29 47 2f 27 0b 6e 2f 32 b9 64 31 3c 12 d7 30
       1.8113541e-10 2.1649936e-10 3.3283638e-09 1.5648491e-09
000020 89 50 8e 30 36 35 2a 2f e7 35 e3 2e 40 03 34 2e
       1.0354749e-09 1.5480314e-10 1.033234e-10 4.0930148e-11
000030 31 cd 85 2f 3b a7 46 30 ae 9c 5b 30 41 94 72 2f
       2.4338356e-10 7.226963e-10 7.989439e-10 2.2062442e-10
000040 44 58 8f 2f 37 b7 75 2f 0e 0d 99 30 c1 e5 29 31
       2.6074265e-10 2.2347711e-10 1.1135926e-09 2.4723337e-09
000050 49 78 50 31 b4 85 6f 2f b3 e4 d1 2e 5a 53 d3 2e
       3.0336358e-09 2.1784424e-10 9.544845e-11 9.609975e-11
000060 89 2c e0 2f 33 37 f0 2f 93 ee 12 30 ff 8f 90 2f
       4.0777007e-10 4.3694967e-10 5.3453525e-10 2.6295763e-10
000070 93 69 34 30 a5 fe 12 30 5e 73 88 30 dc 55 1c 30
       6.563365e-10 5.347636e-10 9.928092e-10 5.6874483e-10
000080 e6 d2 43 30 13 37 2e 31 ba 8f 75 31 c8 c5 86 31
       7.124029e-10 2.5351639e-09 3.5733891e-09 3.9223984e-09
000090 2c 2e 16 2f a3 98 e1 2e 32 33 f6 2e d3 9d b4 30
       1.3658824e-10 1.0258929e-10 1.1195879e-10 1.314158e-09
0000a0 6d 04 1e 30 66 28 43 30 f8 0e 82 2f bb 9f f3 2e
       5.7486355e-10 7.0997996e-10 2.3657498e-10 1.10787345e-10
0000b0 24 8f 34 2f 70 44 1d 31 c7 9c 92 31 f8 ac b9 31
       1.6421758e-10 2.288541e-09 4.2669828e-09 5.403873e-09
0000c0 4e eb b7 2f 5a 09 25 2f 40 c4 16 2f 65 d5 77 2e
       3.34547e-10 1.5009985e-10 1.3712143e-10 5.635083e-11
0000d0 ab 02 53 2e 77 6a 37 2e f4 07 4d 2f cc dd 86 30
       4.7978215e-11 4.1703942e-11 1.8647467e-10 9.812822e-10
0000e0 71 a3 74 30 d1 33 d8 2f 30 90 48 30 0d 68 27 30
       8.8998947e-10 3.932699e-10 7.296448e-10 6.090211e-10
0000f0 de 03 ce 30 52 97 8f 30 6b 75 d1 30 eb 4b 10 30
       1.4989572e-09 1.0447627e-09 1.5240124e-09 5.249478e-10
000100 8b 6e 66 30 5e f1 bb 30 d0 23 6d 31 59 1c 59 31
       8.3830604e-10 1.3674641e-09 3.4508396e-09 3.159377e-09
000110 14 6e 16 31 5d ea a3 30 23 a1 1b 30 58 35 60 30
       2.1890445e-09 1.1926421e-09 5.661766e-10 8.156653e-10
000120 eb 3c 45 30 fc 65 d9 2f 53 b4 fa 2f a3 0c 33 31
       7.175475e-10 3.9544534e-10 4.5602863e-10 2.6055111e-09
000130 c0 e4 6a 31 6c 20 81 31 8e f4 ef 2f a8 21 b5 2f
       3.418151e-09 3.75808e-09 4.3647613e-10 3.2947622e-10
000140 ba d7 7e 2f 89 4b 81 30 f9 41 f1 2f b4 da 17 30
       2.3177807e-10 9.407454e-10 4.388452e-10 5.5244276e-10
000150 b2 0c 6a 30 4e 3a 92 31 0e 5f 79 31 fc c7 2b 31
       8.5146745e-10 4.2557877e-09 3.6288301e-09 2.4997453e-09
000160 08 d2 1b 30 82 8a 4b 30 61 4a a2 2f 0b cf 73 2f
       5.6687144e-10 7.40478e-10 2.9520478e-10 2.2174278e-10
000170 59 65 90 2f f8 53 a5 2f 95 5a 16 30 0f 31 c4 2f
       2.626546e-10 3.0072989e-10 5.4698407e-10 3.568705e-10
000180 e7 83 cf 2f 1e 8f 96 2f cc fd 88 2f a0 6d 94 2f
       3.7746803e-10 2.7386532e-10 2.491859e-10 2.6998936e-10
000190 c1 c7 6d 2f d2 91 2f 2f 57 25 21 2f 46 f4 73 2f
       2.1625991e-10 1.5967963e-10 1.465613e-10 2.2187505e-10
0001a0 96 25 cd 2f da 05 19 30 03 a9 07 31 55 d2 13 31
       3.731599e-10 5.566939e-10 1.9741158e-09 2.1510875e-09
0001b0 1d d4 79 30 78 a0 90 30 01 10 4d 30 55 de f5 31
       9.0887103e-10 1.0522987e-09 7.460131e-10 7.1557147e-09
0001c0 d0 75 d7 30 92 81 4a 31 43 24 0a 2f ee 0b 6d 2e
       1.5676793e-09 2.946852e-09 1.256391e-10 5.3898157e-11
0001d0 99 52 87 2e 34 cd 29 2f 35 24 19 30 55 58 1f 30
       6.1537615e-11 1.5443363e-10 5.571253e-10 5.796939e-10
0001e0 be ab ec 2f cb 2a e5 2f a2 eb fa 2f 61 c3 aa 2f
       4.305018e-10 4.1685264e-10 4.5642162e-10 3.1061645e-10
0001f0 09 1c a6 30 32 84 91 30 ec 11 3c 31 ce 1f 10 31
       1.2086058e-09 1.0587711e-09 2.7367788e-09 2.0972837e-09
000200 38 e4 3f 31 27 d7 3a 30 f7 5c 9f 2f 60 0a 0f 30
       2.7923885e-09 6.7972156e-10 2.8987987e-10 5.203784e-10
000210 a2 c9 8f 31 06 20 79 31 80 39 8f 31 8d 0f c8 2f
       4.1847708e-09 3.6252472e-09 4.1683847e-09 3.6390838e-10
000220 66 94 d8 2f a1 47 58 2f e3 f8 d1 2f 7d e6 77 2f
       3.9395615e-10 1.9670533e-10 3.8193723e-10 2.2546405e-10
000230 ac 01 c3 2f 11 96 aa 2e 70 7f 99 2e 3c 39 95 2e
       3.547148e-10 7.757362e-11 6.980272e-11 6.7859024e-11
000240 a7 ed b2 30 9e 1a a3 31 01 55 cb 31 0c 35 49 2f
       1.3018749e-09 4.7469504e-09 5.9177414e-09 1.829969e-10
000250 d6 a2 9c 2f 8a ed 61 2f ec 8b 8b 2f 92 d8 ee 2f
       2.8491937e-10 2.0548022e-10 2.5383373e-10 4.344583e-10
000260 7a ed b4 2f 56 1a 01 31 05 ec 13 30 03 4c e6 2f
       3.2910547e-10 1.878694e-09 5.381369e-10 4.1890766e-10
000270 6c 93 49 31 d8 04 67 31 99 f3 a9 31 36 56 03 30
       2.933315e-09 3.3617678e-09 4.946241e-09 4.7780035e-10
000280 56 f8 84 2f ab 7b 98 2f c6 74 9f 2e bb db 47 2e
       2.4187113e-10 2.773651e-10 7.251226e-11 4.544252e-11
000290 9f c2 f5 2d f0 54 bc 2f bb 75 f4 2f 03 8f 1c 30
       2.7939704e-11 3.4257353e-10 4.4466994e-10 5.69557e-10
0002a0 1f 24 90 30 a2 a5 ea 2f 29 55 ab 2f 4c 5c 2f 2f
       1.0487645e-09 4.268204e-10 3.116523e-10 1.5948948e-10
0002b0 eb ac 47 2e 6f ec 51 2e 92 cb 69 31 ff 66 15 31
       4.5400943e-11 4.7731093e-11 3.4021679e-09 2.17409e-09
0002c0 d8 4d 58 31 5a 70 1f 31 60 31 b8 30 a1 19 5a 31
       3.1476386e-09 2.320141e-09 1.3401795e-09 3.1737744e-09
0002d0 d7 33 76 31 58 36 75 31 47 d5 94 31 d7 9c 9b 2e
       3.582718e-09 3.5683083e-09 4.3316137e-09 7.076444e-11
0002e0 eb 8e 53 2e 11 f6 60 2e d2 e9 eb 2f 79 5d bd 2f
       4.8102782e-11 5.1150254e-11 4.291239e-10 3.4445316e-10
0002f0 15 88 98 2f 5f 5f 3e 30 65 45 68 30 56 8b e2 2f
       2.774533e-10 6.925713e-10 8.4499724e-10 4.1208165e-10
000300 b5 13 29 30 2d ef d6 2f 6a c2 13 30 02 20 40 2f
       6.1509847e-10 3.9096318e-10 5.375457e-10 1.747367e-10
000310 35 35 07 2f dc c9 02 2f 2d 3d 2c 30 36 6c dd 2f
       1.2297081e-10 1.1895146e-10 6.266017e-10 4.0276554e-10
000320 e3 d7 d8 2f ee 41 a5 2e 70 11 6b 2e 3c ef 0a 2e
       3.9443568e-10 7.515043e-11 5.34483e-11 3.159005e-11
000330 b9 1f c4 2f 11 e3 31 2f e4 14 66 2f 37 00 9b 2e
       3.5674733e-10 1.6178726e-10 2.09258e-10 7.048622e-11
000340 52 26 80 2e 26 6d 7b 2e d8 7d 0b 30 ee 9a dd 2f
       5.827573e-11 5.7167736e-11 5.074674e-10 4.030975e-10
000350 ad 84 28 30 54 86 b5 2e 29 97 3a 2e 73 3f 5f 2e
       6.130659e-10 8.2547885e-11 4.242576e-11 5.0760684e-11
000360 11 a0 ea 2f 0c bc 73 2f 4e 7a 87 2f c3 9e 5a 2f
       4.2678086e-10 2.2167529e-10 2.464326e-10 1.9883388e-10
000370 21 1c 24 2f 3f e6 06 2f 34 11 0f 2f cb ae b9 2e
       1.4925707e-10 1.2269029e-10 1.3011886e-10 8.4438755e-11
000380 ac 77 b5 2e 4d 19 88 30 18 d2 4c 30 34 b6 21 30
       8.252185e-11 9.902493e-10 7.451333e-10 5.8830385e-10
000390 c4 da 7f 2f 8b 4e 2c 2f 99 73 49 2f ae dd 1f 30
       2.3269836e-10 1.5671213e-10 1.8321912e-10 5.815889e-10
0003a0 a8 69 de 2f af 15 16 30 96 14 4b 2e 5f 41 c6 2d
       4.0456638e-10 5.4600496e-10 4.617514e-11 2.2539024e-11
0003b0 32 5d 01 2e 03 35 b6 2f e6 56 99 2f 2b 6c a4 2f
       2.9413978e-11 3.3143274e-10 2.7892283e-10 2.9908284e-10
0003c0 14 dc 5b 2f b8 0b 25 2f 0c e3 29 2f c2 49 b7 2e
       1.9996121e-10 1.5010826e-10 1.5451124e-10 8.3349785e-11
0003d0 19 5b 73 2e f2 6e 8a 2e 30 68 41 2f 7d ef 0a 2f
       5.5332714e-11 6.295221e-11 1.7590263e-10 1.263611e-10
0003e0 44 a0 41 2f bf 12 e0 2f a7 72 ad 2f 1b b4 bb 2f
       1.7610186e-10 4.0758683e-10 3.1549982e-10 3.4143074e-10
0003f0 0c c1 89 30 83 3d 2c 30 37 3b 87 30 c2 e4 f9 2f
       1.0022929e-09 6.266065e-10 9.839373e-10 4.5455378e-10

exp_avg f4 [256, 64]
000000 b9 56 06 b6 3e 80 9c 35 59 79 1e 36 74 4b 77 b4
       -2.0018035e-06 1.1660229e-06 2.3614468e-06 -2.3031117e-07
000010 82 aa 40 b6 b5 bb ff b4 d0 22 20 b6 45 75 82 b5
       -2.8709478e-06 -4.7634026e-07 -2.3862121e-06 -9.719885e-07
000020 1f 22 fa 34 81 a7 5c 35 f5 be 10 36 87 ed 80 b5
       4.6590955e-07 8.2200137e-07 2.1568824e-06 -9.605873e-07
000030 ee b1 01 b6 49 c9 08 36 6c 01 03 b5 cd 71 20 b5
       -1.9326067e-06 2.0382743e-06 -4.880337e-07 -5.9770247e-07
000040 95 fc c9 b5 45 71 ae b5 37 a1 c6 b5 07 1c f1 34
       -1.5049178e-06 -1.2996976e-06 -1.4799069e-06 4.491014e-07
000050 ab bc de 36 6a 84 d5 b5 0e 53 83 35 03 18 12 b6
       6.6380794e-06 -1.5908274e-06 9.784433e-07 -2.1769672e-06
000060 2e a3 50 b4 04 1a a8 b6 10 0c a9 b4 3f b9 df 34
       -1.9430874e-07 -5.009819e-06 -3.148748e-07 4.167177e-07
000070 2c a2 0f b5 40 73 83 36 1b 16 3d b6 0c ad 30 b5
       -5.350764e-07 3.917521e-06 -2.8176062e-06 -6.5816926e-07
000080 80 77 b8 b5 a0 bd 56 b4 0c 5f aa b5 af 6f 5e b5
       -1.3743847e-06 -1.9999288e-07 -1.2693649e-06 -8.2863966e-07
000090 f3 be cf b5 c9 b1 fe b5 48 d3 56 b3 cd 70 8a b5
       -1.5478275e-06 -1.8976217e-06 -5.0017917e-08 -1.0314631e-06
0000a0 58 23 30 35 ca 87 3f b6 d7 b9 ce b6 0c 9e 05 36
       6.561654e-07 -2.8540258e-06 -6.160913e-06 1.991054e-06
0000b0 7a 51 6a 36 7c 40 07 b5 52 e5 11 36 12 51 4c 36
       3.4916143e-06 -5.0385256e-07 2.1740166e-06 3.0445558e-06
0000c0 b8 0b 87 b6 23 dd 47 33 e2 8a 55 b4 1b c9 29 36
       -4.0246778e-06 4.653442e-08 -1.9887696e-07 2.5300021e-06
0000d0 e3 34 7d b6 03 98 2b 36 f5 80 62 b2 74 47 fd b5
       -3.7730722e-06 2.5569468e-06 -1.3184253e-08 -1.8870765e-06
0000e0 16 c6 a2 b6 77 2a 43 35 9a 99 4a b5 68 4f 05 b6
       -4.8510365e-06 7.2704955e-07 -7.5474384e-07 -1.9864765e-06
0000f0 e1 12 53 36 e6 4f a2 b5 d5 26 00 b6 ce f4 2f b5
       3.145244e-06 -1.2093194e-06 -1.909609e-06 -6.554882e-07
000100 de 69 2b b4 74 60 02 35 f8 c4 f2 35 33 16 f6 34
       -1.596413e-07 4.856913e-07 1.808773e-06 4.5837223e-07
000110 5b c0 88 35 21 34 62 35 74 fc 98 b4 34 cd 2e 35
       1.0188772e-06 8.426742e-07 -2.849589e-07 6.511866e-07
000120 d2 0f eb b5 1f 9e ac 34 f7 42 3b b5 3e f7 03 34
       -1.7513469e-06 3.2152545e-07 -6.9760375e-07 1.2290272e-07
000130 4e ec 5c b5 5e 89 19 36 d5 ba de b3 7d cb d7 34
       -8.2300255e-07 2.2878735e-06 -1.0371665e-07 4.0194928e-07
000140 45 9f 32 b5 87 24 44 b5 11 17 98 34 6b d9 1f 34
       -6.6541935e-07 -7.3068844e-07 2.832899e-07 1.4887125e-07
000150 6b 65 38 36 60 9b ab b5 d5 2b c4 35 60 ab 94 b5
       2.747717e-06 -1.2785713e-06 1.4615895e-06 -1.1076736e-06
000160 9e c7 c9 34 fd dc e6 b5 7b 38 3e 34 59 0f 2d 36
       3.7584408e-07 -1.7200651e-06 1.7715676e-07 2.5787942e-06
000170 10 2f 1b b5 2b 80 0a 36 a1 b5 af 35 04 5f 61 b4
       -5.7810485e-07 2.0638206e-06 1.3091377e-06 -2.0989324e-07
000180 9f 0d b0 b4 bc 7c 2a 35 3e 62 cd 34 70 06 cd 34
       -3.2792465e-07 6.351145e-07 3.8255706e-07 3.818891e-07
000190 4a b0 c7 b4 94 0e 40 b5 fd e3 ae b5 33 8e f2 34
       -3.7194906e-07 -7.154679e-07 -1.3030364e-06 4.5179476e-07
0001a0 26 59 30 34 9a 21 40 35 0e 6f d9 b5 cf 51 29 b1
       1.642371e-07 7.157447e-07 -1.6200081e-06 -2.463924e-09
0001b0 59 93 fb 35 f2 41 d2 33 dc e5 8d 35 91 d6 c4 34
       1.8743841e-06 9.7908824e-08 1.0572217e-06 3.6663963e-07
0001c0 6a 40 50 b5 43 74 a1 b4 f3 13 30 35 c9 ab 48 35
       -7.7579773e-07 -3.0073178e-07 6.559414e-07 7.4755786e-07
0001d0 b8 a6 d7 b5 76 f2 48 35 96 8a dd b4 62 cd ec b5
       -1.606727e-06 7.4858633e-07 -4.1265292e-07 -1.7643144e-06
0001e0 07 ed 18 b6 fb 23 d5 34 07 5f 0b b5 17 c5 4f b5
       -2.2787733e-06 3.970052e-07 -5.191982e-07 -7.740031e-07
0001f0 1e c1 8d 35 6c 9c 32 b5 c3 b8 5a b5 74 a3 9a b5
       1.0561523e-06 -6.653779e-07 -8.148019e-07 -1.1521465e-06
000200 c8 c3 8c 37 f1 59 86 b6 15 6c 03 37 3f 8c a7 b5
       1.6780468e-05 -4.0039818e-06 7.833373e-06 -1.2483287e-06
000210 01 65 d8 b5 86 36 c0 36 50 2b 20 b7 55 12 a7 b6
       -1.612265e-06 5.7283933e-06 -9.546828e-06 -4.979122e-06
000220 c9 32 01 b6 f2 88 b9 36 d9 e9 6a b6 64 0e bf b6
       -1.9252059e-06 5.529372e-06 -3.5004834e-06 -5.693919e-06
000230 ea cb 36 b7 66 88 b6 36 83 a4 14 b5 24 b1 fe b6
       -1.0895523e-05 5.4399015e-06 -5.537369e-07 -7.5904118e-06
000240 fe f8 77 b7 69 76 25 b6 de 8c 1b b6 c5 32 79 37
       -1.478032e-05 -2.465584e-06 -2.3178795e-06 1.4853377e-05
000250 77 82 15 37 21 7c 46 b7 36 cf 5d 37 74 ee 2a b7
       8.911468e-06 -1.1830621e-05 1.3220872e-05 -1.0188309e-05
000260 d6 29 37 36 50 b1 89 b7 47 fb b3 36 4e dc e8 b3
       2.7293477e-06 -1.641424e-05 5.3638682e-06 -1.0843415e-07
000270 6c 04 7b 37 fc 04 42 37 a3 92 80 b6 c6 73 5a 36
       1.4961795e-05 1.1564462e-05 -3.831768e-06 3.255192e-06
000280 0b ab a1 36 c0 5d 83 36 5d cf 6c b7 72 23 0d b7
       4.818086e-06 3.915018e-06 -1.4114977e-05 -8.412508e-06
000290 c5 69 e5 36 7d 1c 1b b7 f6 0c 13 b5 a5 0d cc b4
       6.837045e-06 -9.245353e-06 -5.478063e-07 -3.800789e-07
0002a0 58 a5 c5 36 28 29 2d b6 a8 f3 30 b7 43 94 ad 35
       5.890306e-06 -2.5802965e-06 -1.0547148e-05 1.2932654e-06
0002b0 42 9f 63 37 15 35 49 36 c0 27 d4 36 f7 21 93 36
       1.35673345e-05 2.9982232e-06 6.32272e-06 4.3848954e-06
0002c0 ec 9b 88 b7 fc 8d 9c 35 d3 5c 84 36 ab 22 60 37
       -1.628507e-05 1.1664229e-06 3.9447127e-06 1.3359512e-05
0002d0 70 1d 50 b7 07 88 7e 35 75 5e 0f 36 1d 88 43 36
       -1.240462e-05 9.482032e-07 2.1363642e-06 2.9136493e-06
0002e0 86 1f ef b6 e4 18 2a b6 7b 18 da b6 ca b3 64 b7
       -7.126425e-06 -2.5346462e-06 -6.499756e-06 -1.3631719e-05
0002f0 45 5f 20 37 a0 2a 7c 35 f5 b2 d2 35 d2 71 32 b7
       9.558925e-06 9.3939343e-07 1.5698303e-06 -1.0636128e-05
000300 e5 b9 e6 b3 06 30 28 35 1f da 80 35 12 3a 3f 33
       -1.07440236e-07 6.265476e-07 9.600225e-07 4.4523468e-08
000310 0a 32 7a b5 f7 c2 52 34 00 e0 86 b5 5e da dd b4
       -9.3205074e-07 1.9628702e-07 -1.0048971e-06 -4.132334e-07
000320 86 0f 52 34 d4 19 18 35 e9 6d 0a 34 44 ae bb b3
       1.9563421e-07 5.6662e-07 1.2892237e-07 -8.739565e-08
000330 0c 35 ba b5 3d 87 d5 35 25 42 8b b3 a0 73 7d b4
       -1.3873519e-06 1.5909096e-06 -6.4847235e-08 -2.3604525e-07
000340 55 65 4d b5 d6 c0 31 b5 45 9e 04 b5 56 48 28 b4
       -7.651591e-07 -6.621825e-07 -4.9404144e-07 -1.5672535e-07
000350 26 c9 37 36 5d 48 93 b5 0b e3 20 35 4c f7 0c b5
       2.7386209e-06 -1.0973414e-06 5.9935036e-07 -5.251393e-07
000360 2b 7e d2 b4 b7 76 14 b6 c5 21 b9 b4 be a8 d6 34
       -3.9207347e-07 -2.212282e-06 -3.4483506e-07 3.9983382e-07
000370 13 f6 8a 33 9a 0d c2 35 4a be 40 b5 4a 23 8a 33
       6.4708864e-08 1.4458085e-06 -7.180248e-07 6.432545e-08
000380 4e 1e db b4 87 ff 91 b4 57 64 e8 b4 8e 1d cb b4
       -4.0813978e-07 -2.7194275e-07 -4.3286374e-07 -3.78332e-07
000390 de 81 28 b5 29 92 ac b4 96 8f 0a b5 b2 c4 eb b4
       -6.277386e-07 -3.2143842e-07 -5.161795e-07 -4.3915276e-07
0003a0 90 a0 47 34 02 c5 7c b5 dc b9 21 b6 06 7c 21 35
       1.8591732e-07 -9.4164e-07 -2.4099054e-06 6.015765e-07
0003b0 b1 33 c3 35 64 24 80 b4 ef 25 bc 35 ae a8 90 35
       1.4543676e-06 -2.3868336e-07 1.4018132e-06 1.0777928e-06
0003c0 ea dd eb b5 3b 5a 09 34 9e 25 ff b4 57 1e 1f 35
       -1.757345e-06 1.2791945e-07 -4.752482e-07 5.9276266e-07
0003d0 24 df ed b5 6c ea bd 35 4c f3 2b b3 37 11 66 b5
       -1.7722818e-06 1.4149823e-06 -4.0035317e-08 -8.570673e-07
0003e0 a5 b0 06 b6 0d c4 a0 32 17 a1 68 b3 2d 2d 90 b5
       -2.0070377e-06 1.8715605e-08 -5.416322e-08 -1.0741984e-06
0003f0 72 76 9e 35 d3 2d 1d b5 8f cf 3f b5 c3 32 11 b5
       1.180639e-06 -5.855374e-07 -7.145508e-07 -5.409058e-07

exp_avg_sq f4 [256, 64]
000000 ff 92 28 2f 4a 87 52 2e a5 9b 62 2e ea 17 e8 2b
       1.5331734e-10 4.7868633e-11 5.152469e-11 1.6491229e-12
000010 69 bc 37 2d c6 b0 d8 2c 83 6f a4 2d 8b ec 59 2c
       1.0444181e-11 6.158715e-12 1.8694163e-11 3.0968862e-12
000020 16 6d 56 2d 78 36 00 2d 58 de 23 2c 58 1f d1 2e
       1.2188714e-11 7.288052e-12 2.3287119e-12 9.5097874e-11
000030 26 fc fb 2d 9b 63 2c 2e 77 83 21 2c af 6d 28 2e
       2.8647373e-11 3.919674e-11 2.2952454e-12 3.8296196e-11
000040 49 c6 ec 2d 56 70 08 2d b8 7f 71 2c 01 c7 15 2f
       2.691815e-11 7.7556486e-12 3.4319058e-12 1.3622171e-10
000050 41 45 d7 2e 42 a1 b4 2d 41 cf e8 2e 6a 3f 33 2e
       9.78937e-11 2.0535244e-11 1.0586954e-10 4.075621e-11
000060 ef 3c dc 2d f1 74 99 2e 3b c4 f6 2d 67 5a 99 2d
       2.5038164e-11 6.9784074e-11 2.8054106e-11 1.7434233e-11
000070 0e 5b 97 2e ab 04 70 2e 12 e4 b2 2d 5d 20 b2 2c
       6.8828596e-11 5.4573828e-11 2.033754e-11 5.0626573e-12
000080 d5 a8 1f 2e c2 2f be 2d d0 7d 4e 2e b9 96 87 2e
       3.6302367e-11 2.1621708e-11 4.695072e-11 6.165863e-11
000090 50 45 be 2e 44 11 b4 2e e7 bb fa 2c be 94 59 2c
       8.652512e-11 8.188519e-11 7.1262887e-12 3.0920123e-12
0000a0 f1 03 a2 2e b0 94 30 2d 47 64 88 2e 6f 09 78 2c
       7.367607e-11 1.0037457e-11 6.202377e-11 3.5248156e-12
0000b0 f2 5c 6d 2e d8 0d 5c 2d fb b4 eb 2d 2d 89 28 2d
       5.3970113e-11 1.2508626e-11 2.6796778e-11 9.5801535e-12
0000c0 8c fc 5f 2e b4 24 82 2c 97 e5 3e 2d b0 67 f8 2e
       5.0928636e-11 3.698897e-12 1.0851229e-11 1.1296153e-10
0000d0 b3 d8 44 2e 3e 70 fb 2d 3f 7d 5f 2b b6 1a 08 2e
       4.4757708e-11 2.8585242e-11 7.939933e-13 3.0946544e-11
0000e0 0c 56 59 2e db 4c 33 2c de e0 b8 2e d3 67 cd 2e
       4.9416513e-11 2.5480093e-12 8.407296e-11 9.3407636e-11
0000f0 2e 8f 62 2e 31 d4 92 2c 4c 72 88 2c 87 bd b1 2d
       5.151362e-11 4.1731276e-12 3.878042e-12 2.0206737e-11
000100 55 c1 50 2e de 02 b5 2d f2 a3 9d 2d 9d 2a f4 2a
       4.7465438e-11 2.0578591e-11 1.792164e-11 4.3372676e-13
000110 23 f9 8e 2c eb ab dd 2b d2 07 2f 2c 4a f6 1c 2b
       4.0635425e-12 1.5750711e-12 2.4873337e-12 5.576413e-13
000120 1a 10 ea 2c f9 48 8c 2b c7 59 17 2b 4f 37 28 2e
       6.6524676e-12 9.967852e-13 5.377057e-13 3.82479e-11
000130 3d 65 b0 2c 8b 1c 12 2d 8e c6 7c 2b 7c 5e 33 2d
       5.0134606e-12 8.305477e-12 8.9803935e-13 1.0195952e-11
000140 1e d3 9f 2c 07 b8 c8 2b 62 a6 c5 2b b1 b0 50 2e
       4.5424905e-12 1.4261933e-12 1.4043872e-12 4.7450658e-11
000150 b5 41 9f 2d a3 f8 1c 2c a6 19 13 2e 51 e0 6f 2d
       1.8105387e-11 2.2306954e-12 3.344671e-11 1.3635385e-11
000160 63 2f 5d 2d 25 b7 a2 2c 67 08 6b 2d dc 85 18 2d
       1.25729175e-11 4.62465e-12 1.3360069e-11 8.669922e-12
000170 f4 3a 8d 2d b3 79 75 2d 42 96 40 2d 84 e0 86 2b
       1.6056025e-11 1.395366e-11 1.09473e-11 9.583588e-13
000180 1d 3b 63 2d 6e c5 4b 2d 7f a5 5b 2d d6 81 b2 2d
       1.2916582e-11 1.1583052e-11 1.2485456e-11 2.0293916e-11
000190 b7 80 0f 2e 3e 64 1c 2e 58 8f 07 2c 0f 0e fe 2b
       3.2628757e-11 3.5559326e-11 1.9264226e-12 1.8051688e-12
0001a0 e2 2b 08 2e e6 5e a9 2c 06 f6 1a 2d e9 6b 83 2b
       3.0961796e-11 4.8138047e-12 8.808515e-12 9.338061e-13
0001b0 84 9e f7 2c 7c 75 9b 2c 8d 90 c7 2c c9 16 b5 2b
       7.037761e-12 4.4184083e-12 5.6719685e-12 1.2867148e-12
0001c0 ab 2c a9 2c 2c 53 ca 2b 37 7d ea 2c 28 9d 39 2e
       4.808228e-12 1.4376048e-12 6.6645816e-12 4.2203713e-11
0001d0 03 ae ed 2c 7c 9b 0f 2d fc 88 a5 2a ae 53 41 2d
       6.7552643e-12 8.163133e-12 2.940494e-13 1.09893605e-11
0001e0 83 7c 08 2d 54 08 10 2b 93 0c 1a 2e 6b a5 fd 2d
       7.758352e-12 5.1170635e-13 3.5026714e-11 2.883623e-11
0001f0 2e 2a 5a 2d 7c e4 87 2b 33 fb 9e 2b c2 2c 5b 2c
       1.2401231e-11 9.655744e-13 1.1296297e-12 3.1146617e-12
000200 c0 28 33 2f d7 a7 2e 2e 7f 29 58 2f df 8c 3f 2c
       1.6294432e-10 3.971209e-11 1.9659828e-10 2.7220932e-12
000210 89 e0 ff 2d dd 7d a3 2d 84 c4 9a 2e 3b 37 28 2d
       2.9089857e-11 1.8586849e-11 7.0380174e-11 9.561958e-12
000220 e0 35 16 2e ef fd 06 2e 67 83 da 2c f5 e8 0f 2f
       3.4153902e-11 3.069361e-11 6.2105212e-12 1.3088537e-10
000230 7b c1 eb 2e 60 44 ef 2e aa 0b 62 2c 04 ca 2c 2e
       1.0720932e-10 1.08806075e-10 3.2123007e-12 3.9287698e-11
000240 97 70 de 2e 5d 9c f5 2d 84 e7 2e 2d d9 21 1c 2f
       1.0115391e-10 2.7922714e-11 9.942162e-12 1.4200142e-10
000250 a3 ab d3 2f 41 64 be 2e 61 bb 8a 2f 46 8a fd 2e
       3.8502632e-10 8.658008e-11 2.5235194e-10 1.152967e-10
000260 01 32 ff 2d 0a 00 af 2f 7d 1a 2e 2e 1e 08 8e 2e
       2.901235e-11 3.1832342e-10 3.9586546e-11 6.458854e-11
000270 f9 6f 8f 2e 31 9a 98 2f c3 07 e8 2d 63 af 4b 2c
       6.5227775e-11 2.7758199e-10 2.6378793e-11 2.8945394e-12
000280 ae f2 cb 2d c7 89 1c 2e 5f 73 c7 2e 04 8b eb 2e
       2.31862e-11 3.5592664e-11 9.069966e-11 1.0711257e-10
000290 d5 3e 88 2e 05 f7 44 2f b2 18 98 2d 3b 01 fc 2c
       6.195725e-11 1.7913855e-10 1.7291366e-11 7.1624074e-12
0002a0 bb fe 04 2f 48 47 d3 2d f9 a6 b8 2f 38 29 2b 2d
       1.2095829e-10 2.4019578e-11 3.3588046e-10 9.729377e-12
0002b0 8e f0 86 2f 57 c2 2e 2d 59 7d bb 2e ab fc 36 2e
       2.4545382e-10 9.933907e-12 8.526042e-11 4.1606423e-11
0002c0 9a ef 64 2f 09 19 74 2c 8c 88 b4 2d 2a 4e 89 2f
       2.0821603e-10 3.4688383e-12 2.052427e-11 2.4975694e-10
0002d0 98 cf 70 2f 7f 2f 85 2e e7 7d 20 2c 2b c5 cb 2d
       2.1901625e-10 6.056577e-11 2.2807257e-12 2.3165988e-11
0002e0 8b e9 8b 2f e8 a6 32 2c 01 f9 13 2f 6b 6c 9b 2f
       2.5449895e-10 2.5387973e-12 1.3458036e-10 2.827137e-10
0002f0 b8 cd 59 2f 30 24 5b 2d 94 24 af 2d 38 7e 73 2e
       1.9809121e-10 1.2456744e-11 1.991144e-11 5.5363908e-11
000300 54 69 c3 2b 9e b6 12 2b 5c 46 33 2b 72 61 76 2a
       1.3884818e-12 5.212305e-13 6.369122e-13 2.1882997e-13
000310 8f 57 2f 2b 09 20 cf 2a 46 ff 74 2a 79 df 08 2a
       6.2294e-13 3.6792815e-13 2.1760119e-13 1.2156759e-13
000320 48 7a 08 2b da d5 94 2a 66 0e 2e 2a 33 f1 45 2b
       4.8486605e-13 2.643847e-13 1.54593e-13 7.032319e-13
000330 8d a5 12 2b 11 a8 7c 2b d1 6f e2 29 1d fa e4 2a
       5.209937e-13 8.9761624e-13 1.0055813e-13 4.0674487e-13
000340 68 3d 41 2a f7 1b 97 2a 63 6b 58 2a 2e 96 98 2b
       1.7163148e-13 2.6842393e-13 1.9221911e-13 1.0841933e-12
000350 4a 7e f9 2b 0b 0f 66 2a 51 0d 55 2b f6 57 af 2a
       1.7727566e-12 2.0433323e-13 7.569128e-13 3.114728e-13
000360 36 df e6 2a b2 cb 54 2b 4a 7e ab 2a 3c 2d 10 2b
       4.101109e-13 7.5600214e-13 3.0463333e-13 5.122185e-13
000370 c9 a2 74 2b 03 b3 2e 2b 9b e1 16 2b 25 a4 97 2a
       8.6912124e-13 6.2065647e-13 5.3603796e-13 2.6936886e-13
000380 6e c9 72 2b 37 6a 6b 2a ad 5e 9e 2a 16 fa fa 2a
       8.625521e-13 2.0909044e-13 2.8132133e-13 4.4582453e-13
000390 fa df a8 2b 46 cb 6e 2b 52 00 8b 2a 5f be 5c 2a
       1.1999284e-12 8.4836684e-13 2.4691582e-13 1.9605973e-13
0003a0 a8 a3 0d 2b e0 0e 01 2b fc c0 a3 2b 6a a1 4e 2a
       5.032038e-13 4.585065e-13 1.163541e-12 1.8352477e-13
0003b0 a5 e1 f8 2a 53 7f 1c 2b 09 ff d5 2a 55 2a ad 2a
       4.4210222e-13 5.559903e-13 3.8013367e-13 3.0760347e-13
0003c0 6f 98 0a 2b f7 48 39 2a 8c 4e 03 2b 0e 11 52 2b
       4.9238993e-13 1.6456616e-13 4.6649555e-13 7.4630655e-13
0003d0 d0 cf 33 2b 4f 45 5b 2b 14 9b 18 2a 2f 08 b2 2a
       6.388197e-13 7.7900615e-13 1.3554116e-13 3.162483e-13
0003e0 9f 6a a3 2b 13 36 ac 29 f1 ac 7f 2b 2b 70 24 2b
       1.161144e-12 7.647715e-14 9.0834203e-13 5.842017e-13
0003f0 80 4d 24 2b fb 74 73 2a 48 03 b0 2a ff 5a e8 2a
       5.8372057e-13 2.1623321e-13 3.1266157e-13 4.127462e-13

exp_avg f4 [256]
000000 72 87 fb b7 fb 8e 92 b6 6a 19 09 38 5d 3b 3c b7
       -2.9984603e-05 -4.367784e-06 3.2687014e-05 -1.1219495e-05
000010 d0 84 cc 36 66 44 1a b7 2d 15 9d 37 08 ed ae b7
       6.095135e-06 -9.195041e-06 1.872572e-05 -2.0852793e-05
000020 a5 fc 72 b6 77 23 0d 36 2c 93 bd 35 d8 23 02 37
       -3.6207869e-06 2.103128e-06 1.412443e-06 7.756949e-06
000030 64 49 6e 37 39 93 d8 37 88 83 91 b6 08 3c 92 b7
       1.4202993e-05 2.5817762e-05 -4.336649e-06 -1.743251e-05
000040 e9 ea 8f b7 b4 21 19 36 ed f5 4b b7 21 25 b3 b7
       -1.7156317e-05 2.2818394e-06 -1.2157002e-05 -2.1355752e-05
000050 25 38 9a 38 c8 79 5f 37 70 c6 83 38 d4 3a 00 38
       7.35375e-05 1.332019e-05 6.283529e-05 3.0572366e-05
000060 4a 65 90 b7 38 39 e3 38 f6 46 4e 37 c0 a9 3a b8
       -1.7213304e-05 0.00010834861 1.2295079e-05 -4.4503948e-05
000070 55 60 16 b8 02 3e 77 38 c3 79 03 b8 f2 f1 98 b6
       -3.5852503e-05 5.894714e-05 -3.1346233e-05 -4.558119e-06
000080 b2 d3 31 b7 66 62 11 b7 d9 72 b5 b7 b9 b5 7e b5
       -1.0599311e-05 -8.665584e-06 -2.1630362e-05 -9.4886815e-07
000090 1a e8 54 b7 1e 36 62 38 66 f4 1f b7 a4 ca 02 b7
       -1.2690225e-05 5.3933e-05 -9.534042e-06 -7.795785e-06
0000a0 22 b5 cb 37 1c 1a 33 b7 31 d7 be 38 4a 06 82 36
       2.4283832e-05 -1.06753105e-05 9.0999885e-05 3.875034e-06
0000b0 99 4a ad 38 a0 a9 f1 36 9f 16 cb 37 96 b7 87 b5
       8.263178e-05 7.2021066e-06 2.421002e-05 -1.0111714e-06
0000c0 2b 45 6a 38 93 5a f5 b6 7e e6 0c b7 eb 80 7a 38
       5.5854365e-05 -7.312113e-06 -8.398316e-06 5.972471e-05
0000d0 e0 16 cf 38 3c 56 03 36 7c 49 79 b7 9c 0a 41 b8
       9.87479e-05 1.9570716e-06 -1.4858666e-05 -4.6024667e-05
0000e0 30 19 0e 38 91 05 b0 b7 d4 3d 6a 37 e7 58 20 38
       3.3878896e-05 -2.0983427e-05 1.3961882e-05 3.822977e-05
0000f0 47 1e 44 38 a6 f1 81 37 fd 46 4f b6 89 d3 b1 36
       4.675824e-05 1.5490525e-05 -3.0886724e-06 5.299637e-06
000100 fd 9c 4f b8 3e 6b 20 b7 1a fc a3 37 e0 ed 62 b7
       -4.9498853e-05 -9.561712e-06 1.9548508e-05 -1.3526034e-05
000110 ab db 7e b5 a7 4b 9a b7 23 45 09 b7 bd 12 25 b8
       -9.494203e-07 -1.8393459e-05 -8.1819335e-06 -3.9356517e-05
000120 3b 3c 20 b7 3c 2c 01 b7 c3 4f 67 b5 6e 37 bc b7
       -9.550767e-06 -7.699298e-06 -8.6170274e-07 -2.2437158e-05
000130 bb 37 af b6 00 2a 03 37 0d f7 e8 b6 92 71 2f b8
       -5.2218943e-06 7.817987e-06 -6.9428993e-06 -4.1829022e-05
000140 e7 4e 11 b8 57 12 62 b6 24 c7 da b7 3e f8 2d b8
       -3.4644178e-05 -3.36873e-06 -2.6080357e-05 -4.1477608e-05
000150 b8 05 93 38 85 62 d6 b7 8c 57 69 38 d2 45 91 37
       7.0105714e-05 -2.5556665e-05 5.5633063e-05 1.731786e-05
000160 1c da e5 b7 45 59 cb 38 80 ac 87 37 9b 6b 97 b8
       -2.7400492e-05 9.696422e-05 1.617358e-05 -7.220284e-05
000170 b8 6b c6 b8 8e 9f 5b 38 a5 70 81 b8 89 93 08 b7
       -9.46144e-05 5.2362266e-05 -6.172181e-05 -8.140582e-06
000180 bd 3c 73 b7 ac 26 91 b7 5b 6a 64 b8 9e c4 03 b8
       -1.449807e-05 -1.7303355e-05 -5.4458487e-05 -3.1415948e-05
000190 31 e2 d5 b7 dc b8 31 38 ca 1b 80 b7 9b 81 38 b7
       -2.5496907e-05 4.2372252e-05 -1.527173e-05 -1.0997431e-05
0001a0 59 78 28 36 8d 99 01 b8 64 05 ce 38 ea 4e ef 35
       2.5104002e-06 -3.0899002e-05 9.8238495e-05 1.7829855e-06
0001b0 13 40 65 38 ae 1d 0e 37 9b 25 8c 37 db e9 bf b6
       5.465753e-05 8.47077e-06 1.6706812e-05 -5.719468e-06
0001c0 65 f3 09 38 1c 7f 21 b7 ca de 50 b7 dd ef 6b 38
       3.2890024e-05 -9.625943e-06 -1.2449638e-05 5.6251756e-05
0001d0 13 87 9c 38 20 89 b8 35 a8 22 5f b7 ef d6 99 b8
       7.463819e-05 1.3748977e-06 -1.3299905e-05 -7.335643e-05
0001e0 cc 89 cc 37 16 12 bd b7 33 4b e0 b6 85 71 f5 34
       2.4382862e-05 -2.2538978e-05 -6.6844746e-06 4.5717402e-07
0001f0 5f 93 d6 37 49 f7 43 37 2e 80 39 b6 4b 54 61 b7
       2.5579413e-05 1.1680481e-05 -2.7641759e-06 -1.3430671e-05
000200 31 f4 29 ba c3 d8 89 38 d9 dd a4 b9 76 a3 25 39
       -0.0006483226 6.573044e-05 -0.00031445807 0.0001579652
000210 99 26 bf 39 d6 21 81 b9 5a 75 ba 39 9f 61 cf 39
       0.00036459116 -0.00024630007 0.00035564118 0.0003955485
000220 36 42 e5 b9 ce 7d ab b9 b0 1d d1 37 0c bb 8b 39
       -0.00043727615 -0.00032709393 2.4928566e-05 0.00026651507
000230 91 e5 ce 39 df 20 59 b9 e4 6e c2 b8 74 b1 31 3a
       0.00039462422 -0.00020706978 -9.271296e-05 0.0006778457
000240 48 5d 0e 3a a3 93 fb 37 14 e2 b5 b7 ea 01 81 b9
       0.000543077 2.999028e-05 -2.1682157e-05 -0.00024606223
000250 cd 36 c9 b9 0a 74 be 39 88 33 4f ba 7b c1 c4 39
       -0.00038378537 0.0003632608 -0.0007904102 0.00037528187
000260 dd 56 3c b9 fd cd 36 3a 64 5b 14 b8 d6 07 7c b7
       -0.00017961436 0.00069734437 -3.5371064e-05 -1.5022195e-05
000270 b0 33 57 ba 81 37 1f ba b0 43 b6 b6 af 55 b6 b8
       -0.0008209301 -0.00060736394 -5.4319025e-06 -8.694396e-05
000280 bd ba 11 b9 0d 13 2b b9 74 80 11 3a 81 f8 f7 39
       -0.00013897843 -0.00016314928 0.0005550452 0.0004729666
000290 ea 99 fc b8 77 ba 04 3a ea 8d 5c b8 e1 77 70 39
       -0.00012044965 0.0005063186 -5.2584255e-05 0.00022932842
0002a0 9e 6b 84 b9 42 4f 66 37 fa fe b1 39 0b 17 f7 b8
       -0.00025257183 1.3727522e-05 0.00033950043 -0.0001178217
0002b0 c6 c2 2d ba c9 00 8e 38 7b b8 c0 b9 af 56 72 b8
       -0.000662845 6.771234e-05 -0.00036758542 -5.7778027e-05
0002c0 59 f6 4b 3a 38 84 a1 b9 e7 7b 50 b8 d9 a3 f4 b9
       0.0007780544 -0.00030806824 -4.9706458e-05 -0.00046661383
0002d0 a8 6c 0e 3a d7 71 3c b8 36 a2 78 b8 84 75 cd b9
       0.0005433061 -4.4928714e-05 -5.927888e-05 -0.00039188203
0002e0 c3 4d ca 39 b4 85 81 39 5f ee e5 39 58 ca 3c 3a
       0.0003858638 0.00024704414 0.00043855884 0.00072017824
0002f0 16 66 b5 b9 0e 94 5e 39 0d 9d 9e 37 5e 7f b4 39
       -0.0003459907 0.00021226724 1.89082e-05 0.0003442717
000300 a2 de 14 b8 fe 25 bc b6 d8 ba e5 37 6a e5 2f b7
       -3.5493293e-05 -5.6072595e-06 2.7385933e-05 -1.04842275e-05
000310 c5 41 23 36 0a 49 6c b7 62 2e e1 36 63 cd b8 b7
       2.4327176e-06 -1.4083702e-05 6.710922e-06 -2.203015e-05
000320 20 98 d3 35 79 eb f4 35 db 39 ec b4 6a ea 32 36
       1.5764999e-06 1.8247948e-06 -4.400052e-07 2.6660514e-06
000330 26 76 ec b6 3a 07 a7 37 88 2a 76 b6 91 90 ce b7
       -7.0471024e-06 1.9911316e-05 -3.6681613e-06 -2.4624433e-05
000340 7e 0f f0 b7 9f 14 a4 35 71 f8 83 b7 eb 9f ba b7
       -2.8617444e-05 1.2224954e-06 -1.5732106e-05 -2.2247395e-05
000350 92 ae 92 38 28 fb 48 b7 50 d9 5d 38 92 e0 ce 37
       6.994339e-05 -1.1979406e-05 5.2892894e-05 2.4661687e-05
000360 c0 4a af b7 85 33 9a 38 87 5a 91 37 04 ad 45 b8
       -2.0896434e-05 7.3528885e-05 1.7327502e-05 -4.7129593e-05
000370 d7 2a 2e b8 70 31 3b 38 c5 87 1d b8 89 58 99 b6
       -4.152473e-05 4.4630317e-05 -3.7558162e-05 -4.570062e-06
000380 ee 95 52 b7 2d 12 29 b7 a0 1b 08 b8 c2 15 8d b6
       -1.2551884e-05 -1.0077417e-05 -3.2450655e-05 -4.2046604e-06
000390 58 93 a1 b7 54 9f 6c 38 dd 0a 31 b7 d9 9f 1b b7
       -1.9261308e-05 5.641517e-05 -1.0552551e-05 -9.275937e-06
0003a0 39 46 b2 37 79 9b 44 b7 c7 a9 c9 38 1b 53 97 36
       2.1251954e-05 -1.1718709e-05 9.6160504e-05 4.5098254e-06
0003b0 d5 42 7f 38 d2 a9 16 37 98 34 a5 37 60 94 86 b5
       6.085898e-05 8.980236e-06 1.9694024e-05 -1.0026961e-06
0003c0 2d 6f 2d 38 69 41 e5 b6 08 c6 1e b7 bd c9 74 38
       4.1349955e-05 -6.8323466e-06 -9.463642e-06 5.8362017e-05
0003d0 d0 02 b6 38 ae ab 8d b4 7e fe 85 b7 87 aa 64 b8
       8.67896e-05 -2.638821e-07 -1.5973343e-05 -5.4518252e-05
0003e0 87 e3 7f 37 0e 73 c8 b7 81 de 0c 37 ce 71 30 37
       1.525216e-05 -2.3895434e-05 8.396456e-06 1.0516915e-05
0003f0 ea f5 3f 38 af dc 95 37 60 65 20 b6 01 f3 45 b7
       4.5766974e-05 1.7864948e-05 -2.3900866e-06 -1.1798694e-05

exp_avg_sq f4 [256]
000000 a0 ff 4b 31 a7 dd 8e 30 8f 75 6a 31 5c e7 bc 2e
       2.9685694e-09 1.0394857e-09 3.4118306e-09 8.590348e-11
000010 b0 9d 33 30 a4 ae 76 2f 09 c7 be 30 46 ad 29 2f
       6.534391e-10 2.2435614e-10 1.3880889e-09 1.543202e-10
000020 3f 32 1f 30 c8 8d 3d 30 49 9e a9 2f cd 9a 8d 31
       5.7915267e-10 6.895928e-10 3.085339e-10 4.121239e-09
000030 77 7e e2 30 8b a0 02 31 cc 01 99 2e d4 f7 5f 30
       1.6479608e-09 1.9008748e-09 6.957954e-11 8.147911e-10
000040 53 98 dd 30 55 06 87 2f 7f d8 e0 2f f4 96 3c 31
       1.612316e-09 2.4560856e-10 4.0899192e-10 2.7443408e-09
000050 15 1d ee 31 07 09 01 31 34 15 5c 31 d5 d7 07 31
       6.930018e-09 1.8777102e-09 3.2026266e-09 1.9767772e-09
000060 bd d3 80 30 08 09 e6 31 6b 83 84 30 28 b5 96 30
       9.373405e-10 6.6949077e-09 9.641615e-10 1.0965424e-09
000070 d6 5f e0 30 ef cd 9d 31 55 f3 ef 2f cb a2 84 2f
       1.6325383e-09 4.5927133e-09 4.3646745e-10 2.4126331e-10
000080 93 71 06 30 a9 99 5a 30 f8 00 63 30 55 f6 d7 30
       4.8910315e-10 7.95263e-10 8.2583496e-10 1.5713321e-09
000090 a7 7d a3 31 db 82 ae 31 b4 19 80 2e 57 a4 10 30
       4.7582094e-09 5.078943e-09 5.825332e-11 5.2620436e-10
0000a0 a1 ca 0e 31 bd 01 03 30 3b 72 b2 31 7a 24 5f 30
       2.07789e-09 4.765999e-10 5.1934683e-09 8.1178764e-10
0000b0 cc 65 bc 31 29 5a f5 2f 11 2f 0a 31 f8 01 c9 2f
       5.483093e-09 4.4629303e-10 2.0108397e-09 3.6563086e-10
0000c0 2f 22 7b 31 a1 27 f9 2f 2c 08 1e 30 88 ce 5b 31
       3.6544738e-09 4.5320994e-10 5.749168e-10 3.1986094e-09
0000d0 22 04 20 32 81 7a 2d 31 9f bc 68 2e 3d 57 2e 30
       9.314165e-09 2.5244449e-09 5.2918222e-11 6.3424804e-10
0000e0 43 88 3e 31 e1 cb a3 2e 8c d8 54 31 42 57 dd 31
       2.7726095e-09 7.448598e-11 3.0973153e-09 6.4418666e-09
0000f0 71 db 0e 31 e4 8b b9 2f 13 d3 dc 2f 5c 34 db 2f
       2.0788458e-09 3.3750702e-10 4.0167744e-10 3.9873072e-10
000100 47 35 a9 31 a4 06 c6 30 e4 01 5c 31 5b 76 91 2e
       4.9246043e-09 1.4408283e-09 3.2015288e-09 6.614861e-11
000110 55 dc 75 30 2d 6e 6c 2f eb 4f 08 31 80 46 93 2f
       8.944359e-10 2.1503217e-10 1.9836033e-09 2.6789237e-10
000120 33 df 99 30 ba bc 83 30 e7 57 b0 2f 18 7d fd 31
       1.1195652e-09 9.585144e-10 3.2076672e-10 7.3774906e-09
000130 f4 21 42 31 f8 01 67 31 77 e3 3b 2e 08 4c a7 30
       2.8250016e-09 3.3616043e-09 4.2720907e-11 1.2172459e-09
000140 71 01 1e 31 52 b0 da 2f 82 71 eb 2f 8f 01 8d 31
       2.2992845e-09 3.9779252e-10 4.2826903e-10 4.1038173e-09
000150 fc 8a 5f 32 78 10 47 31 e3 11 ee 31 cf e2 1f 31
       1.301191e-08 2.8967673e-09 6.928745e-09 2.326647e-09
000160 31 fc 89 30 d8 92 55 32 4a 20 f7 30 29 c4 e0 30
       1.0039739e-09 1.243162e-08 1.7980792e-09 1.6353897e-09
000170 57 82 6f 31 71 40 1f 32 ca cf 6d 30 d8 5c 75 2f
       3.4853167e-09 9.26967e-09 8.6515384e-10 2.2315605e-10
000180 b9 83 24 30 26 d1 bc 30 2b b8 01 31 13 ab 59 31
       5.985004e-10 1.3738244e-09 1.8876658e-09 3.16749e-09
000190 fd 7c c2 31 85 23 52 32 53 ab 8b 2e 63 54 d4 2f
       5.6603526e-09 1.2231685e-08 6.3514215e-11 3.8622536e-10
0001a0 3c 74 53 31 fb c4 5e 30 1f 7d 28 32 0b ad 36 30
       3.0770613e-09 8.1043056e-10 9.807336e-09 6.6457123e-10
0001b0 ec 75 2b 32 b2 12 0b 30 8f 6d 44 31 0c 04 96 2f
       9.980322e-09 5.0594473e-10 2.858403e-09 2.7287717e-10
0001c0 d5 67 39 32 04 8a eb 2f 43 e2 45 30 07 e5 f2 31
       1.0792026e-08 4.2844317e-10 7.198972e-10 7.0691644e-09
0001d0 ff 53 87 32 5d 37 45 31 54 6c 0f 2e b3 98 72 30
       1.5754265e-08 2.8698743e-09 3.261065e-11 8.8256086e-10
0001e0 d3 77 9b 31 54 3a 8c 2e ef fe b7 31 fc 44 2e 32
       4.524716e-09 6.376824e-11 5.3549836e-09 1.0143818e-08
0001f0 f1 ca 4c 31 48 25 7e 2f d7 bc e3 2f ec 74 32 30
       2.9801266e-09 2.311441e-10 4.1425238e-10 6.492218e-10
000200 f6 a2 ed 34 eb 81 08 34 f1 69 01 35 bf 76 45 33
       4.426326e-07 1.2713251e-07 4.821041e-07 4.5975636e-08
000210 0b df ec 33 ba 51 3c 33 0f c4 79 34 3e 09 46 34
       1.1030178e-07 4.384649e-08 2.3261258e-07 1.8443549e-07
000220 24 eb 78 34 da 65 51 34 24 2e 84 34 66 e0 2d 35
       2.3182344e-07 1.9501695e-07 2.4620488e-07 6.4774065e-07
000230 bf 75 d2 33 87 bc 8b 34 75 e6 8d 33 c1 c6 1e 35
       9.800305e-08 2.602794e-07 6.607744e-08 5.914881e-07
000240 c1 7e e5 34 c0 cd ed 33 6b 90 b4 34 74 89 33 34
       4.27468e-07 1.1073598e-07 3.363269e-07 1.6720679e-07
000250 1e ab 4a 34 ae 68 94 34 e7 a6 6d 35 92 56 63 34
       1.8874968e-07 2.7643313e-07 8.8532255e-07 2.1172517e-07
000260 95 42 1d 34 5e f1 02 35 49 a1 81 34 b8 5a 88 34
       1.4645987e-07 4.878001e-07 2.4145473e-07 2.539798e-07
000270 b0 a4 21 35 26 5e 8e 35 c8 e8 3c 34 9c 54 04 34
       6.0216826e-07 1.0607225e-06 1.759355e-07 1.2324239e-07
000280 bc 84 3f 34 f7 97 2c 34 7b 10 f5 34 2f 68 30 35
       1.783655e-07 1.6074033e-07 4.5646797e-07 6.5716716e-07
000290 12 67 88 34 0b 44 ba 35 7d a9 31 33 be b5 e0 33
       2.5406968e-07 1.3877883e-06 4.1365173e-08 1.04638715e-07
0002a0 40 6f 94 34 fd 2a 15 34 36 a6 b1 34 03 e2 c1 33
       2.7648093e-07 1.3892345e-07 3.3089754e-07 9.028374e-08
0002b0 be e2 68 35 ce 85 d9 33 c8 17 19 34 7f 12 0e 33
       8.675669e-07 1.0129189e-07 1.4257887e-07 3.3078773e-08
0002c0 5d d9 2c 35 48 da a9 34 97 5e 14 34 fd 14 72 35
       6.43913e-07 3.1637524e-07 1.3817986e-07 9.018257e-07
0002d0 91 27 23 35 48 64 6a 34 32 90 f7 32 19 7c 6b 34
       6.077981e-07 2.182943e-07 2.8820157e-08 2.1931227e-07
0002e0 67 c5 27 34 cf e4 98 33 0b 19 03 35 0c 5a 7b 35
       1.5624902e-07 7.1196716e-08 4.8837745e-07 9.363582e-07
0002f0 58 b8 f1 34 c7 1e 5e 33 f8 75 a6 33 dc 32 9e 34
       4.5023876e-07 5.1716395e-08 7.751436e-08 2.9466798e-07
000300 27 e6 94 31 5b a0 ac 30 41 35 3b 31 dc 75 b5 2e
       4.333532e-09 1.2560223e-09 2.7242353e-09 8.251863e-11
000310 49 e7 8e 30 c1 7d b9 2f 36 8a e2 30 88 98 59 2f
       1.0397595e-09 3.3740657e-10 1.6482946e-09 1.9790225e-10
000320 92 4a 42 30 f6 98 4f 30 7d 28 e0 2f e5 14 93 31
       7.068276e-10 7.552353e-10 4.077413e-10 4.2806385e-09
000330 13 7c 55 31 b5 19 07 31 ff 82 95 2e 5c a1 97 30
       3.1066107e-09 1.9659698e-09 6.799005e-11 1.1032557e-09
000340 ba 9b fd 30 d8 f4 d0 2f bf c9 09 30 75 a4 57 31
       1.8452433e-09 3.8008952e-10 5.012701e-10 3.13801e-09
000350 e2 b0 41 32 90 cb 35 31 f2 46 9e 31 7f ce 1a 31
       1.1274297e-08 2.6454678e-09 4.6064708e-09 2.252733e-09
000360 90 18 8e 30 7f dc be 31 e4 ee e4 30 04 b6 76 30
       1.0338841e-09 5.5547953e-09 1.665708e-09 8.975294e-10
000370 67 c5 0e 31 da 69 b5 31 e7 20 1c 30 ff 90 8f 2f
       2.077593e-09 5.2798272e-09 5.6799226e-10 2.6114574e-10
000380 63 4a 2d 30 aa 54 81 30 26 37 e5 30 ea 6b 19 31
       6.3042743e-10 9.410048e-10 1.6677617e-09 2.2325772e-09
000390 78 87 c5 31 e9 c3 14 32 ce 17 a9 2e 57 fb 09 30
       5.7488556e-09 8.659279e-09 7.689459e-11 5.0197485e-10
0003a0 2d fa 5d 31 d0 d7 34 30 de 3d 04 32 78 3d 90 30
       3.2301941e-09 6.5790307e-10 7.697478e-09 1.0494849e-09
0003b0 e3 02 ed 31 18 e3 07 30 bc c5 2b 31 ce 22 a4 2f
       6.897936e-09 4.9435434e-10 2.4996174e-09 2.9856156e-10
0003c0 1f d8 08 32 c4 20 04 30 34 76 24 30 71 0c 9a 31
       7.965382e-09 4.8067883e-10 5.983083e-10 4.4834043e-09
0003d0 b5 67 81 32 21 45 4e 31 c3 a5 86 2e 76 49 47 30
       1.5064737e-08 3.001624e-09 6.12306e-11 7.250017e-10
0003e0 26 b2 92 31 55 7f c7 2e 4a ac 8d 31 9b 4b fc 31
       4.2694124e-09 9.072091e-11 4.123227e-09 7.3427606e-09
0003f0 bf 45 45 31 07 e8 cf 2f f3 f8 14 30 3b ec 3f 30
       2.870692e-09 3.7817946e-10 5.4195864e-10 6.98211e-10
