exp/auto-conv/4-classes/version_16/checkpoints/epoch=76.ckpt (torch_old, 102686 bytes, 53 tensors)

exp_avg f4 [64, 3, 3]
0	0x392187b0	0.00015404704
1	0xb836a819	-4.3548735e-05
2	0xb8daa1ce	-0.000104251885
3	0x3846fcd7	4.7442354e-05
4	0x38cf8cd6	9.896762e-05
5	0xb896c816	-7.189826e-05
6	0x38857990	6.364577e-05
7	0xb9766796	-0.00023498977
8	0xb7a9a76f	-2.0224337e-05
9	0xb7f8b07e	-2.964609e-05
10	0xb86d1421	-5.652395e-05
11	0x38f76234	0.000117961696
12	0xb8bcccf8	-9.002717e-05
13	0x38c916bd	9.588662e-05
14	0x37d8331a	2.5773003e-05
15	0xb8386f0c	-4.397244e-05
16	0x38ffbb1c	0.000121941994
17	0x39070c8b	0.00012879276
18	0x38428f7d	4.638684e-05
19	0x38b46740	8.602301e-05
20	0xb8cfccff	-9.908713e-05
21	0x3890e087	6.9082766e-05
22	0x3894138e	7.060832e-05
23	0xb8ad6a51	-8.269086e-05
24	0x38a3c15d	7.8084624e-05
25	0x38671812	5.509711e-05
26	0xb95e3cf7	-0.00021194281
27	0xb8410734	-4.6021494e-05
28	0xb8b5ae6d	-8.663242e-05
29	0xb845253c	-4.7003137e-05
30	0x380c6631	3.3473774e-05
31	0xb80a55d8	-3.2981712e-05
32	0xb59f4990	-1.1867833e-06
33	0xb8397890	-4.421972e-05
34	0xb8c9657c	-9.60333e-05
35	0x38c610ac	9.444481e-05
36	0xb830b9e3	-4.213479e-05
37	0xb86efd1f	-5.697936e-05
38	0x38af571a	8.360874e-05
39	0x38b70c50	8.7284134e-05
40	0xb806903a	-3.208241e-05
41	0x389dc515	7.523053e-05
42	0x38a5d1a5	7.9068624e-05
43	0x3909b8bf	0.00013134161
44	0x38900cc8	6.868836e-05
45	0x384d35b6	4.892583e-05
46	0xb8194bf9	-3.6548798e-05
47	0xb7a458c3	-1.9591656e-05
48	0x37d21853	2.5045278e-05
49	0x3765e199	1.370199e-05
50	0xb75440c3	-1.2651263e-05
51	0xb84a7cef	-4.8276906e-05
52	0xb71c70e6	-9.324611e-06
53	0x38953343	7.114422e-05
54	0xb68f4dac	-4.2707743e-06
55	0x37ede39b	2.8358589e-05
56	0x382fc886	4.1910003e-05
57	0x36ffaae8	7.6194883e-06
58	0xb7fb05d1	-2.992424e-05
59	0xb5b913ea	-1.378937e-06
60	0x38349a2b	4.3058924e-05
61	0x389938c8	7.306185e-05
62	0x36411969	2.8774032e-06
63	0xb8f10e0c	-0.00011494392
64	0x38937aec	7.032402e-05
65	0x386e424d	5.680537e-05
66	0x38bfe5c8	9.15039e-05
67	0xb793eec4	-1.763495e-05
68	0xb8642d3b	-5.440156e-05
69	0x38781f71	5.915709e-05
70	0x39277588	0.00015970145
71	0xb8361cd8	-4.3419044e-05
72	0xb7d4df5d	-2.5376381e-05
73	0x381941d7	3.653936e-05
74	0x389d8a15	7.512063e-05
75	0xb62f1818	-2.6091056e-06
76	0xb830afb6	-4.2125313e-05
77	0x3850cb46	4.9780378e-05
78	0x3807d15b	3.2381486e-05
79	0x38c49b79	9.374967e-05
80	0xb66c16e3	-3.5180062e-06
81	0x385ca2b2	5.260361e-05
82	0xb81e0144	-3.7671314e-05
83	0x37411e22	1.1510712e-05
84	0x38b3ffd8	8.58304e-05
85	0xb89eb217	-7.567199e-05
86	0x381bb0a1	3.711938e-05
87	0x384a11b2	4.8177033e-05
88	0x375bddb1	1.3105034e-05
89	0x3891c878	6.951479e-05
90	0xb8fa5215	-0.00011936218
91	0x381ff8b0	3.8140162e-05
92	0xb83940b0	-4.4167682e-05
93	0xb5a1a5fb	-1.2043741e-06
94	0xb7ae9870	-2.08134e-05
95	0xb829cd44	-4.048391e-05
96	0xb8527b27	-5.0182596e-05
97	0x38a59df7	7.897236e-05
98	0xb7894516	-1.6363843e-05
99	0x388ae2f2	6.622625e-05
100	0xb86e9fe9	-5.689255e-05
101	0xb6ebc7be	-7.026799e-06
102	0xb7dc0467	-2.6228094e-05
103	0xb7236376	-9.738715e-06
104	0xb6079759	-2.0204664e-06
105	0x351cd140	5.841903e-07
106	0xb8e56dd1	-0.00010940026
107	0x38c94662	9.597537e-05
108	0x380d8dc1	3.374904e-05
109	0x388136a9	6.1613806e-05
110	0x3841d2a8	4.6210975e-05
111	0xb79d5ae4	-1.8758183e-05
112	0x384cf2f4	4.8863658e-05
113	0x383775a9	4.374018e-05
114	0x381a8f01	3.6849644e-05
115	0x3805393d	3.176298e-05
116	0xb6c96f96	-6.003257e-06
117	0xb8b3f3c9	-8.580794e-05
118	0xb850ba51	-4.9764585e-05
119	0x38de013a	0.000105860134
120	0x36397567	2.7635485e-06
121	0xb8c80910	-9.538431e-05
122	0x38abd787	8.1940605e-05
123	0xb89a5165	-7.358453e-05
124	0x3884c474	6.330843e-05
125	0x38d737da	0.00010262402
126	0x3803ad28	3.13941e-05
127	0xb6de394d	-6.6227863e-06
128	0xb762dee0	-1.3522542e-05
129	0x34c709a0	3.7073642e-07
130	0x3803e164	3.1442745e-05
131	0xb76dd1a8	-1.4175115e-05
132	0x379fd5ac	1.9053776e-05
133	0xb74131ce	-1.15152925e-05
134	0xb81ed47e	-3.7868034e-05
135	0x382611dd	3.959412e-05
136	0xb81b4691	-3.70206e-05
137	0x383968d0	4.420505e-05
138	0x37cf9e7c	2.4750123e-05
139	0xb7fb744d	-2.9975688e-05
140	0xb80aff7c	-3.3139702e-05
141	0x37bb4922	2.2326192e-05
142	0xb8bedb4f	-9.1007554e-05
143	0xb783707d	-1.5668798e-05
144	0xb8d90eb1	-0.00010350103
145	0x37407d95	1.1473331e-05
146	0x38bd44a6	9.025009e-05
147	0xb8b470d5	-8.6040855e-05
148	0x37f744c2	2.9476712e-05
149	0x37826d95	1.5548236e-05
150	0xb8813451	-6.160944e-05
151	0x38e7c5ae	0.00011051759
152	0xb72e46a1	-1.0387653e-05
153	0x3853d04b	5.0500308e-05
154	0xb8133b93	-3.5103014e-05
155	0xb8d1981b	-9.9942285e-05
156	0x374d9485	1.2253532e-05
157	0xb71ee91b	-9.471808e-06
158	0x376d101f	1.4130054e-05
159	0xb7df3c60	-2.6611786e-05
160	0xb98d154b	-0.0002690948
161	0xb89e8c20	-7.5601274e-05
162	0x3740e220	1.1496741e-05
163	0xb92548e6	-0.00015762783
164	0x38bc6523	8.983377e-05
165	0xb8b97e81	-8.8450506e-05
166	0xb856eb3b	-5.124065e-05
167	0x3894aa8a	7.088955e-05
168	0xb88c693e	-6.695323e-05
169	0xb8fdf51e	-0.00012109637
170	0x39131296	0.00014025936
171	0xb709f21d	-8.222208e-06
172	0x38463f4a	4.726582e-05
173	0xb7dce9cf	-2.633492e-05
174	0x36fafc0b	7.4799223e-06
175	0x38992082	7.3016636e-05
176	0xb8303338	-4.200937e-05
177	0xb81d3bd2	-3.748743e-05
178	0xb86b2c8b	-5.606985e-05
179	0xb80833e7	-3.2473265e-05
180	0x38a46e24	7.840645e-05
181	0xb911cab6	-0.00013903793
182	0x3886e4e8	6.432255e-05
183	0xb87d47f3	-6.038691e-05
184	0xb66f53c2	-3.5662529e-06
185	0x381144e8	3.4634868e-05
186	0xb7355f4c	-1.0810629e-05
187	0xb9010050	-0.00012302515
188	0x3920653a	0.00015296499
189	0x3889ce0b	6.5710476e-05
190	0x3885f7c8	6.388087e-05
191	0x383d50c7	4.513634e-05
192	0xb89869d1	-7.267635e-05
193	0xb71be383	-9.291692e-06
194	0x384e1e40	4.91424e-05
195	0x3757923d	1.2849047e-05
196	0xb89e2ed7	-7.542752e-05
197	0xb5d1d1d9	-1.5632787e-06
198	0xb92e50cb	-0.00016624031
199	0xb861182a	-5.3666685e-05
200	0x383c8c63	4.495344e-05
201	0xb88cca85	-6.7134424e-05
202	0xb757fa62	-1.2873295e-05
203	0x38628605	5.4007414e-05
204	0xb878d90c	-5.932995e-05
205	0x38ff8b9e	0.00012185353
206	0x383dc734	4.5246634e-05
207	0xb817d861	-3.6202724e-05
208	0x361a0c05	2.2954785e-06
209	0x38a25eae	7.7423974e-05
210	0x388a42e8	6.592815e-05
211	0xb7ee04c6	-2.8374034e-05
212	0x36be05a5	5.6630984e-06
213	0x381d0843	3.743941e-05
214	0x38c490a1	9.3729475e-05
215	0xb822ed74	-3.8844955e-05
216	0x37ea5b02	2.7937353e-05
217	0x3830f885	4.219312e-05
218	0x38242162	3.9131737e-05
219	0xb613bf11	-2.2015922e-06
220	0x3605511f	1.9865763e-06
221	0xb85c7d12	-5.256857e-05
222	0xb8670be3	-5.5085762e-05
223	0xb88056e1	-6.119698e-05
224	0xb75dac4f	-1.3212745e-05
225	0x384a7068	4.826524e-05
226	0x3857d74c	5.1460505e-05
227	0xb7a84fad	-2.0064263e-05
228	0xb8efc39d	-0.00011432844
229	0x3887825e	6.4615844e-05
230	0x38b70170	8.726388e-05
231	0x37625505	1.3490445e-05
232	0xb80fb675	-3.4263783e-05
233	0xb7f86a23	-2.9613328e-05
234	0xb7546dd3	-1.2661755e-05
235	0x38363bf2	4.344801e-05
236	0x38a4ec24	7.864114e-05
237	0xb7ec72eb	-2.8186905e-05
238	0xb6ed54ac	-7.0730075e-06
239	0x3849cb6a	4.811158e-05
240	0x38238e70	3.8994884e-05
241	0x397aca10	0.00023917132
242	0x38b20588	8.488732e-05
243	0x38589520	5.1637297e-05
244	0xb839d880	-4.430907e-05
245	0x37560720	1.2757053e-05
246	0x3544829c	7.320575e-07
247	0x3777ff7c	1.4781832e-05
248	0xb8441ae0	-4.675507e-05
249	0xb7ebb967	-2.8100518e-05
250	0xb7e2ac1b	-2.7021442e-05
251	0x38288d3e	4.0185863e-05
252	0x3777db4d	1.4773407e-05
253	0xb5e5e7d2	-1.7129298e-06
254	0xb8dfa96f	-0.00010665028
255	0x3897926e	7.227516e-05

exp_avg_sq f4 [64, 3, 3]
0	0x345fbe76	2.0837783e-07
1	0x3416dcf1	1.4050217e-07
2	0x3404d75b	1.2371804e-07
3	0x34677016	2.1554328e-07
4	0x342fb7cf	1.6365014e-07
5	0x33ea4f8e	1.0910945e-07
6	0x3463865e	2.1189905e-07
7	0x342bf4c9	1.6014668e-07
8	0x33d9ee32	1.01481774e-07
9	0x336abaef	5.4652386e-08
10	0x33ad68de	8.0750155e-08
11	0x33a1ef32	7.540656e-08
12	0x33833718	6.1101844e-08
13	0x33b1a374	8.271937e-08
14	0x33c971c6	9.380487e-08
15	0x33809957	5.988357e-08
16	0x33adcccb	8.093192e-08
17	0x33b75522	8.537087e-08
18	0x33b2c851	8.325208e-08
19	0x34003c20	1.1942802e-07
20	0x33e5be4a	1.0698257e-07
21	0x33b42ca2	8.390022e-08
22	0x3409d9b4	1.2838319e-07
23	0x33d953bb	1.01200804e-07
24	0x33ba1711	8.665496e-08
25	0x3404b1e4	1.2358174e-07
26	0x33e57dbd	1.0686515e-07
27	0x337cf479	5.889567e-08
28	0x3348c24a	4.6742834e-08
29	0x3378d4a0	5.793538e-08
30	0x339a1ff8	7.176999e-08
31	0x335f2f7f	5.196443e-08
32	0x337a0393	5.821091e-08
33	0x338d24eb	6.5725395e-08
34	0x335d633c	5.1545825e-08
35	0x336c0b6b	5.4958416e-08
36	0x341935d5	1.426882e-07
37	0x33c4f308	9.1711684e-08
38	0x33a67eee	7.753066e-08
39	0x341ec38d	1.4786038e-07
40	0x33d2b1aa	9.811204e-08
41	0x33952955	6.9458714e-08
42	0x340de93a	1.3216496e-07
43	0x33c79939	9.294531e-08
44	0x339eab1d	7.388574e-08
45	0x335426a7	4.939525e-08
46	0x332797de	3.902084e-08
47	0x332d8667	4.040194e-08
48	0x337ec23a	5.931563e-08
49	0x332d7b1e	4.0391676e-08
50	0x333cf79c	4.399736e-08
51	0x336518b3	5.334068e-08
52	0x331eea86	3.700054e-08
53	0x332a184e	3.9603314e-08
54	0x3321c032	3.7660534e-08
55	0x32f0bec1	2.8026422e-08
56	0x32e74b96	2.6926312e-08
57	0x332ed298	4.0704066e-08
58	0x3303ba92	3.06705e-08
59	0x32ed6f55	2.764106e-08
60	0x33296e62	3.944877e-08
61	0x32f93b1c	2.9014295e-08
62	0x32d5d340	2.4892529e-08
63	0x3425603b	1.5401831e-07
64	0x340e7571	1.3267505e-07
65	0x33c1b5c5	9.0203265e-08
66	0x342b63c7	1.5961915e-07
67	0x3412d237	1.3673785e-07
68	0x33c7cb0d	9.303594e-08
69	0x3431af56	1.6548196e-07
70	0x340c8cfe	1.3089809e-07
71	0x33c4c438	9.162653e-08
72	0x33c572f2	9.194436e-08
73	0x3364de33	5.3287476e-08
74	0x3387f7aa	6.331477e-08
75	0x33dab125	1.01836385e-07
76	0x33895bbf	6.396248e-08
77	0x336db1d7	5.5342607e-08
78	0x33cc5dd1	9.5165554e-08
79	0x3374e139	5.7015516e-08
80	0x336305f0	5.2857956e-08
81	0x339f2869	7.411365e-08
82	0x3376a0ce	5.742259e-08
83	0x33874394	6.29872e-08
84	0x33a5c059	7.718399e-08
85	0x3396b60f	7.0180356e-08
86	0x3388e8fe	6.3753745e-08
87	0x339c98ad	7.292088e-08
88	0x33776e38	5.7609412e-08
89	0x337f7b64	5.9484037e-08
90	0x334eba0e	4.813233e-08
91	0x331f7850	3.7129496e-08
92	0x331bae2a	3.624715e-08
93	0x33390ce6	4.30854e-08
94	0x33204fa3	3.7325332e-08
95	0x331e8091	3.6904172e-08
96	0x333df0a3	4.422385e-08
97	0x331a45a1	3.5919246e-08
98	0x331893c2	3.5524643e-08
99	0x33d833e2	1.0067721e-07
100	0x33e053c0	1.0446047e-07
101	0x33a1fbb2	7.54293e-08
102	0x34096341	1.2795228e-07
103	0x3407c5ed	1.264486e-07
104	0x338b1e37	6.478188e-08
105	0x33eff060	1.1173029e-07
106	0x33f966f9	1.1613697e-07
107	0x3397bc2a	7.065712e-08
108	0x32eade99	2.7342411e-08
109	0x32ce5ce2	2.4023795e-08
110	0x32d51705	2.4806932e-08
111	0x32f413de	2.8414373e-08
112	0x32e5a5ef	2.6734567e-08
113	0x32e07af1	2.613294e-08
114	0x32dca744	2.5687434e-08
115	0x32d5eb20	2.4903386e-08
116	0x32e7c38b	2.6980862e-08
117	0x3395360b	6.9481835e-08
118	0x3353e20f	4.9332865e-08
119	0x33b96297	8.632667e-08
120	0x33945a0c	6.9081665e-08
121	0x3378e7ba	5.7952754e-08
122	0x33b6cf96	8.512795e-08
123	0x338f1233	6.662267e-08
124	0x336a3af8	5.4536002e-08
125	0x33a3a102	7.619566e-08
126	0x33288d16	3.9243865e-08
127	0x331b5f8d	3.6175653e-08
128	0x32eb82cd	2.7417082e-08
129	0x331c4500	3.6384336e-08
130	0x3308c3f7	3.1843197e-08
131	0x32e186a8	2.6254682e-08
132	0x3319f6d5	3.584758e-08
133	0x32fcf28b	2.9446957e-08
134	0x32f0846c	2.7999896e-08
135	0x32f4c48b	2.8494716e-08
136	0x331815f1	3.5410213e-08
137	0x330cf1dc	3.281626e-08
138	0x33087157	3.176805e-08
139	0x3311a559	3.3910826e-08
140	0x33147072	3.4561204e-08
141	0x330fe8e0	3.350658e-08
142	0x33295905	3.942934e-08
143	0x3308efc5	3.1883037e-08
144	0x338ead78	6.643944e-08
145	0x32ffbf0a	2.9772782e-08
146	0x33996f31	7.144843e-08
147	0x33aa86cd	7.940762e-08
148	0x33038076	3.061765e-08
149	0x33a399bc	7.618243e-08
150	0x339566bc	6.9570405e-08
151	0x330aeeeb	3.2347923e-08
152	0x33981102	7.081145e-08
153	0x3499315d	2.8534387e-07
154	0x349f80cc	2.970977e-07
155	0x347ad2cc	2.3359752e-07
156	0x34ad96d1	3.2333494e-07
157	0x34b49282	3.363421e-07
158	0x34737f77	2.267751e-07
159	0x349d5008	2.930176e-07
160	0x34a54751	3.0785534e-07
161	0x34582810	2.0131142e-07
162	0x34171981	1.4072249e-07
163	0x344807c6	1.862928e-07
164	0x3415ac49	1.3939383e-07
165	0x342c6e12	1.6058792e-07
166	0x345f9bd3	2.0825182e-07
167	0x34246765	1.5311305e-07
168	0x343ae935	1.740744e-07
169	0x344d0a91	1.9095957e-07
170	0x341e8c88	1.4766022e-07
171	0x33c14ded	9.0014375e-08
172	0x33f17ac8	1.1244771e-07
173	0x34089fb9	1.2724094e-07
174	0x33d866f9	1.00770144e-07
175	0x340caf92	1.3102388e-07
176	0x34055692	1.2418084e-07
177	0x33c2da93	9.0735874e-08
178	0x33f91ef2	1.1600595e-07
179	0x3403920a	1.2253454e-07
180	0x33c0d92c	8.9802e-08
181	0x33e799bc	1.078474e-07
182	0x3358248d	5.032466e-08
183	0x33d00c8c	9.688037e-08
184	0x34138dcc	1.3742027e-07
185	0x338793c1	6.313304e-08
186	0x33d5651e	9.9369785e-08
187	0x3400c89b	1.1993909e-07
188	0x338a3e2b	6.437434e-08
189	0x33623516	5.2668007e-08
190	0x3325efb1	3.8635054e-08
191	0x3378a617	5.7893057e-08
192	0x33681935	5.4039635e-08
193	0x33496e17	4.6899086e-08
194	0x335025a6	4.8463015e-08
195	0x33682a40	5.4055135e-08
196	0x332ffc34	4.097474e-08
197	0x33793ba6	5.802908e-08
198	0x34409f31	1.7939307e-07
199	0x33ed68e7	1.1055254e-07
200	0x343a108b	1.7328618e-07
201	0x34412244	1.7986991e-07
202	0x33e23a0c	1.0534504e-07
203	0x343da46d	1.7661814e-07
204	0x343a437c	1.734715e-07
205	0x33f6aeb8	1.1487049e-07
206	0x3427cdf6	1.5628015e-07
207	0x33e2a7eb	1.0554489e-07
208	0x33cc6d4b	9.5193705e-08
209	0x33722bf9	5.638501e-08
210	0x33fd1bd2	1.1786291e-07
211	0x33c33639	9.090258e-08
212	0x337312b5	5.659486e-08
213	0x33dda38b	1.0320863e-07
214	0x33c1e5ac	9.02904e-08
215	0x3358dda6	5.0493007e-08
216	0x33dae3da	1.0192862e-07
217	0x33e40700	1.06183506e-07
218	0x33a80abd	7.825063e-08
219	0x34026673	1.2144464e-07
220	0x33e3c374	1.0606064e-07
221	0x3396defd	7.0254806e-08
222	0x33e3643a	1.0588742e-07
223	0x33d0d0df	9.723748e-08
224	0x339be5d4	7.2595554e-08
225	0x33dbdc20	1.0238023e-07
226	0x33c62c86	9.228192e-08
227	0x33a5d93d	7.722927e-08
228	0x33f63f31	1.1466762e-07
229	0x33c53845	9.183763e-08
230	0x33a32c08	7.598288e-08
231	0x33d4753a	9.893343e-08
232	0x33b2861c	8.313165e-08
233	0x3395b2e2	6.970892e-08
234	0x337d9aca	5.9046933e-08
235	0x33932961	6.852748e-08
236	0x33893c9a	6.390583e-08
237	0x3386bbec	6.274044e-08
238	0x339d3f35	7.3223795e-08
239	0x337d5ea8	5.8992242e-08
240	0x338032df	5.969718e-08
241	0x339aca03	7.2079295e-08
242	0x335d5dc5	5.1540855e-08
243	0x331c7d44	3.643551e-08
244	0x33202c0c	3.7292963e-08
245	0x32fcd81b	2.9434934e-08
246	0x334173f4	4.5041773e-08
247	0x331b8d9c	3.6217543e-08
248	0x3300151e	2.982153e-08
249	0x332de587	4.0488455e-08
250	0x3312adb4	3.4151256e-08
251	0x32e530fc	2.6681384e-08
252	0x34152664	1.3890673e-07
253	0x3398e13c	7.1190215e-08
254	0x3409c1f1	1.2829675e-07
255	0x3416509b	1.3999163e-07

exp_avg f4 [64]
0	0x3711ea70	8.697258e-06
1	0xb7df5974	-2.6625326e-05
2	0xb67b1c9f	-3.7418574e-06
3	0xb5aa8719	-1.2705306e-06
4	0xb7f691fe	-2.9393468e-05
5	0x377ce0e3	1.5072731e-05
6	0xb74139fe	-1.1517199e-05
7	0xb81328d7	-3.5085566e-05
8	0xb636ddb1	-2.7249155e-06
9	0x35b6412c	1.3579024e-06
10	0xb739b79f	-1.1069612e-05
11	0x37544508	1.2652257e-05
12	0x36a1517c	4.80766e-06
13	0x3687466b	4.0315113e-06
14	0x363a0812	2.7720857e-06
15	0x355dbdec	8.260529e-07
16	0xb7a95f74	-2.0190819e-05
17	0x38075577	3.2266104e-05
18	0x3730e4e5	1.0543711e-05
19	0xb233a411	-1.0456476e-08
20	0x3710d362	8.632285e-06
21	0x37c71c27	2.3735758e-05
22	0xb8119ed2	-3.4718607e-05
23	0xb7c40bd6	-2.3370532e-05
24	0x37668066	1.3738963e-05
25	0x3789f436	1.6445392e-05
26	0xb65c9b4f	-3.2872956e-06
27	0x34b4cfd5	3.367883e-07
28	0xb710f94b	-8.641112e-06
29	0xb754a1d9	-1.2673868e-05
30	0x3700f510	7.686453e-06
31	0x37c93741	2.3986797e-05
32	0x3631d152	2.6496896e-06
33	0xb78e87d7	-1.6990974e-05
34	0xb6bfc94d	-5.715678e-06
35	0xb6f450e0	-7.2811818e-06
36	0xb76eb600	-1.4228281e-05
37	0xb6ab2944	-5.101001e-06
38	0xb72d5624	-1.033166e-05
39	0x360a39e4	2.05973e-06
40	0xb5f86c39	-1.8508937e-06
41	0x366ea6d8	3.556188e-06
42	0x37cf55e0	2.4716312e-05
43	0x37830967	1.5620795e-05
44	0x379234b3	1.7429096e-05
45	0x376f5217	1.4264623e-05
46	0x37705f65	1.43273255e-05
47	0x37899284	1.63999e-05
48	0x37416d9d	1.1529218e-05
49	0x36ab4e2a	5.1052966e-06
50	0x378a7505	1.6505373e-05
51	0xb63bbd52	-2.797537e-06
52	0x371a19c4	9.185114e-06
53	0xb6d4b57c	-6.33922e-06
54	0x37f8f7ed	2.9679353e-05
55	0x380039c7	3.0571387e-05
56	0xb7d7b0f5	-2.57124e-05
57	0xb7384684	-1.0983673e-05
58	0xb6834891	-3.912552e-06
59	0x36fdb094	7.560544e-06
60	0x369933c1	4.5657803e-06
61	0xb7988438	-1.8181381e-05
62	0xb6c3507a	-5.8208216e-06
63	0xb70ccb46	-8.391979e-06

exp_avg_sq f4 [64]
0	0x30906698	1.0506538e-09
1	0x3077891f	9.005294e-10
2	0x2fbf893c	3.4840208e-10
3	0x2fa8f573	3.0733424e-10
4	0x307e0c97	9.2422553e-10
5	0x305b1c88	7.971228e-10
6	0x2f47ebd1	1.8182723e-10
7	0x30c186bd	1.4080893e-09
8	0x2fd1fc88	3.8196313e-10
9	0x2f6d78db	2.1597961e-10
10	0x2f380c5e	1.6739096e-10
11	0x301ee1dd	5.7801036e-10
12	0x2f6c80f9	2.1509895e-10
13	0x2fedfd63	4.329009e-10
14	0x2ecc4dc2	9.2906585e-11
15	0x2f087308	1.2409995e-10
16	0x306740ff	8.4129675e-10
17	0x314e75a5	3.0043819e-09
18	0x303d3467	6.883227e-10
19	0x2f7f2b25	2.3207443e-10
20	0x2fd7166f	3.9124212e-10
21	0x3016e717	5.489808e-10
22	0x313395fe	2.613319e-09
23	0x30acf219	1.2583455e-09
24	0x2fdaa398	3.977021e-10
25	0x303a3325	6.7739087e-10
26	0x2ff85045	4.5167972e-10
27	0x2f927969	2.6643512e-10
28	0x306f11dd	8.697308e-10
29	0x2facf7f3	3.1462796e-10
30	0x301f841b	5.8031596e-10
31	0x30166b22	5.4721927e-10
32	0x2ec75820	9.0651264e-11
33	0x300e8f5f	5.186304e-10
34	0x2f8325f9	2.3855742e-10
35	0x3058d4ba	7.8882645e-10
36	0x2fdb28d2	3.9864873e-10
37	0x30a0a1ac	1.1687482e-09
38	0x2fe16107	4.0996204e-10
39	0x2f844bbc	2.4064473e-10
40	0x2faff909	3.2009265e-10
41	0x3042c285	7.085322e-10
42	0x30449920	7.152199e-10
43	0x2fdb9ba5	3.994646e-10
44	0x300c4fb2	5.1044957e-10
45	0x2f91966a	2.6482222e-10
46	0x2fa80785	3.0564365e-10
47	0x304052ca	6.9966843e-10
48	0x2f8d669a	2.5720653e-10
49	0x30ba35b4	1.3548545e-09
50	0x30396334	6.7443584e-10
51	0x2f90b377	2.6320965e-10
52	0x2fc1a91c	3.5226655e-10
53	0x300c2a9a	5.0992244e-10
54	0x31019d98	1.8861552e-09
55	0x30927017	1.0654756e-09
56	0x3069ec3c	8.5100615e-10
57	0x3011cc73	5.304123e-10
58	0x303580c7	6.603042e-10
59	0x2ff41058	4.4394954e-10
60	0x2f56bde4	1.953065e-10
61	0x305be88a	8.0002194e-10
62	0x2f66f2b3	2.1004602e-10
63	0x3055b17b	7.7741164e-10

exp_avg f4 [21, 64, 3]
0	0xb900f63f	-0.00012298765
1	0x394dd96c	0.0001963132
2	0x382d0fa3	4.1260977e-05
3	0xb822bae5	-3.879787e-05
4	0xb89cee5e	-7.483059e-05
5	0x38ec5fde	0.000112712136
6	0xb87e7628	-6.066836e-05
7	0x3907a533	0.00012936145
8	0xb85f0891	-5.317532e-05
9	0xb91c58bc	-0.00014910375
10	0x3936c678	0.00017430808
11	0xb625ea43	-2.4723274e-06
12	0xb8efff6d	-0.00011443985
13	0xb8559da0	-5.0929957e-05
14	0xb902cd58	-0.00012474263
15	0xb9298bbc	-0.00016169151
16	0x38051546	3.1729483e-05
17	0xb89e851e	-7.558822e-05
18	0x38cb259b	9.686799e-05
19	0xb8c09187	-9.18238e-05
20	0xb7f4a75e	-2.9165003e-05
21	0x3606fef1	2.0115951e-06
22	0x386683d0	5.4959033e-05
23	0xb8197cec	-3.6594385e-05
24	0x39068b9e	0.00012831247
25	0xb857e7ec	-5.147599e-05
26	0xb7d75456	-2.566927e-05
27	0xb957e413	-0.00020588962
28	0xb85565a7	-5.087783e-05
29	0xb8e70102	-0.00011015126
30	0x369139f4	4.3280834e-06
31	0x38df6739	0.00010652695
32	0x38ab03df	8.1546365e-05
33	0xb825933c	-3.947619e-05
34	0x3829a1b8	4.0443352e-05
35	0x3887cb3a	6.4751555e-05
36	0x3801feb6	3.0993215e-05
37	0xb9176bbe	-0.00014440619
38	0xb8a6e559	-7.958216e-05
39	0x38b108fc	8.441691e-05
40	0xb9223e0b	-0.00015472637
41	0xb78c7c6f	-1.6747244e-05
42	0x37b8909c	2.2001848e-05
43	0xb8352408	-4.318732e-05
44	0x36d5b973	6.369484e-06
45	0x39148b5b	0.00014166294
46	0xb7d74f50	-2.566693e-05
47	0x37e4a4bf	2.7256434e-05
48	0x38e4c249	0.00010908076
49	0xb894e384	-7.099568e-05
50	0x371f7688	9.504736e-06
51	0xb57c0345	-9.3882073e-07
52	0x39716030	0.00023019384
53	0xb8cf3870	-9.8810415e-05
54	0xb5c24e76	-1.4476961e-06
55	0xb884acd6	-6.326444e-05
56	0x3965b9de	0.00021908383
57	0xb8f0f02e	-0.00011488829
58	0x396ab9bf	0.00022385175
59	0x37988292	1.8180614e-05
60	0x3855578a	5.0864684e-05
61	0xb8ad4764	-8.2625804e-05
62	0x38fc90d4	0.00012043273
63	0x35faa93a	1.8675703e-06
64	0xb8806814	-6.122902e-05
65	0x384a9cd1	4.83066e-05
66	0x38de7dc7	0.00010609213
67	0xb911b48b	-0.00013895535
68	0xb796991d	-1.7952692e-05
69	0x38f08c30	0.00011470204
70	0xb920962a	-0.0001531473
71	0xb74af928	-1.2098149e-05
72	0x38ad50c8	8.2643295e-05
73	0x38e8773b	0.000110848305
74	0x379035a6	1.719112e-05
75	0x37ed5a56	2.8294668e-05
76	0xb8d55947	-0.00010173261
77	0x38daf8df	0.00010441406
78	0x37bd4b8f	2.256574e-05
79	0xb8c58bd5	-9.419738e-05
80	0x354d38ec	7.6451283e-07
81	0xb7cb20ac	-2.42147e-05
82	0xb889c2a1	-6.5689215e-05
83	0x37789d43	1.4818567e-05
84	0x36473327	2.9683085e-06
85	0x388fe9b7	6.862304e-05
86	0xb85e2b1e	-5.296908e-05
87	0x38031671	3.1253734e-05
88	0xb8e08fbc	-0.00010707925
89	0x379f17c2	1.896534e-05
90	0x3789895e	1.639564e-05
91	0x37b5dd55	2.1679947e-05
92	0x380a49c7	3.2970474e-05
93	0x3861bd2f	5.382037e-05
94	0x38440abc	4.674004e-05
95	0x388034c7	6.113346e-05
96	0xb8782970	-5.91664e-05
97	0x37660a9f	1.3711541e-05
98	0x387104e5	5.7463436e-05
99	0x38d4f418	0.00010154414
100	0x3842229b	4.6285433e-05
101	0xb8b76e83	-8.7467044e-05
102	0xb8b24980	-8.501392e-05
103	0x392aab88	0.00016276364
104	0xb82b31d5	-4.0815987e-05
105	0xb935b047	-0.00017327174
106	0x397b9cc9	0.00023995632
107	0xb8de87f4	-0.00010611108
108	0x37cdad33	2.4518557e-05
109	0xb85201e6	-5.006967e-05
110	0xb7a1472f	-1.9225843e-05
111	0x396ed30b	0.00022776068
112	0xb93dbada	-0.00018094052
113	0x38b0ae84	8.42484e-05
114	0x38f58640	0.000117075164
115	0xb7b59c2e	-2.1649608e-05
116	0xb8792434	-5.9399943e-05
117	0xb95c1287	-0.00020987737
118	0x386113f5	5.3662767e-05
119	0xb7e8d9c2	-2.7757957e-05
120	0x38d8fb8c	0.00010346537
121	0xb94b6566	-0.00019397362
122	0x39100651	0.00013735263
123	0xb984823c	-0.00025274034
124	0xb6e13aa6	-6.71235e-06
125	0x374c4f9a	1.2177881e-05
126	0xb91c09e2	-0.00014881001
127	0xb79bbc2c	-1.8565064e-05
128	0x3861bf7e	5.382252e-05
129	0xb8831445	-6.250342e-05
130	0x3925aaec	0.000157993
131	0xb7ae1fff	-2.0757316e-05
132	0x38eb8175	0.000112297865
133	0x37f55fb5	2.9250843e-05
134	0x3945e220	0.00018871622
135	0x38001b6c	3.0543117e-05
136	0xb8458cf8	-4.7099747e-05
137	0xb87701fc	-5.8891237e-05
138	0xb667f8cd	-3.4566503e-06
139	0x396fb580	0.0002286043
140	0x3758f1e3	1.2930922e-05
141	0x383ccaa6	4.5011424e-05
142	0xb842a9bf	-4.6411293e-05
143	0x37a241d3	1.9342557e-05
144	0x38d743df	0.00010264641
145	0x37dfc28a	2.667426e-05
146	0xb81a92c6	-3.6853155e-05
147	0xb8b5b886	-8.665123e-05
148	0x3901a3d6	0.00012363432
149	0xb92eb848	-0.00016662583
150	0xb924409b	-0.00015664326
151	0x391a3738	0.00014707155
152	0xb70bf7e8	-8.342766e-06
153	0x39084229	0.00012994617
154	0x3830de50	4.2168715e-05
155	0x389b174a	7.395314e-05
156	0xb8f63a64	-0.0001174107
157	0x38c6b3ed	9.4748895e-05
158	0xb7ac0e9d	-2.0510803e-05
159	0x380f7633	3.420394e-05
160	0x38b14b16	8.4540035e-05
161	0xb907b452	-0.00012941778
162	0xb8c7fc1b	-9.536018e-05
163	0x3949d12c	0.00019246776
164	0x3870ad75	5.7382003e-05
165	0x38ff1549	0.00012163312
166	0xb9082c1d	-0.00012986404
167	0x38b9449d	8.834268e-05
168	0x394c36a2	0.00019475308
169	0xb900e38b	-0.00012291798
170	0x383cccb2	4.501333e-05
171	0xb8e28e52	-0.00010803029
172	0x38bb2963	8.924564e-05
173	0xb8fee0dd	-0.00012153548
174	0x390649cb	0.00012806726
175	0xb72c48fb	-1.0268991e-05
176	0x35a384c9	1.2183092e-06
177	0x384015ff	4.5796853e-05
178	0x39103535	0.00013752731
179	0x3898a81e	7.279239e-05
180	0x385ff52d	5.339568e-05
181	0xb74206f6	-1.1564922e-05
182	0x3800eb54	3.0736745e-05
183	0x38c254e2	9.2664515e-05
184	0x379cc83f	1.8689896e-05
185	0x3904346b	0.00012608028
186	0xb870d686	-5.742025e-05
187	0x390243c3	0.0001242301
188	0x38686ac2	5.5412536e-05
189	0x391fee69	0.00015252236
190	0xb9039db1	-0.00012551878
191	0x38e29653	0.0001080452
192	0x367ffc3a	3.8144776e-06
193	0x38c62ceb	9.449742e-05
194	0x388d6331	6.74188e-05
195	0xb89acc92	-7.3813964e-05
196	0xb613a5b5	-2.2001161e-06
197	0xb69ff238	-4.7667672e-06
198	0xb833b836	-4.2848485e-05
199	0xb9087269	-0.00013012592
200	0x388ca715	6.706842e-05
201	0x3836ca2f	4.358048e-05
202	0xb7b6f182	-2.1808552e-05
203	0xb7d39e3d	-2.5226846e-05
204	0xb8344ee6	-4.2988824e-05
205	0xb7ffe1a3	-3.050344e-05
206	0xb7347844	-1.0756838e-05
207	0x38b19858	8.468394e-05
208	0xb66c5926	-3.5218632e-06
209	0xb91626c9	-0.00014319563
210	0x3897b619	7.2341594e-05
211	0xb82d838e	-4.1368934e-05
212	0xb8acee5b	-8.245996e-05
213	0xb8e4f1d0	-0.00010916928
214	0xb89623e0	-7.1592396e-05
215	0x38a665a3	7.934428e-05
216	0xb8eaa836	-0.00011189321
217	0x38303b10	4.2016676e-05
218	0x382bced7	4.096221e-05
219	0x3897d982	7.240755e-05
220	0xb9032311	-0.00012506197
221	0xb76b2329	-1.4015278e-05
222	0xb93d1d62	-0.0001803539
223	0xb7585c90	-1.2896155e-05
224	0x390418cd	0.0001259774
225	0x3887cfff	6.476044e-05
226	0x38b94e19	8.836034e-05
227	0x36f92f64	7.4262953e-06
228	0x3918edb7	0.00014584405
229	0x389965f9	7.3146024e-05
230	0xb8f0733f	-0.00011465558
231	0xb7d74f7c	-2.566701e-05
232	0x3731db14	1.060103e-05
233	0xb7cd4b54	-2.4472982e-05
234	0xb7dc21e1	-2.624182e-05
235	0x390f7316	0.00013680416
236	0xb81625a5	-3.5797846e-05
237	0xb872ec2f	-5.791726e-05
238	0x3896e025	7.1943075e-05
239	0x3848b883	4.7855556e-05
240	0x36eb16b2	7.006188e-06
241	0xb7d345bc	-2.5185633e-05
242	0xb858e125	-5.1708095e-05
243	0x391cdf24	0.00014960446
244	0x37c00a98	2.2893117e-05
245	0x37f7d1bb	2.9542358e-05
246	0xb900437a	-0.00012232168
247	0x38b5a1f9	8.660922e-05
248	0x3897a30c	7.230611e-05
249	0x38499255	4.8058417e-05
250	0xb8844dba	-6.308728e-05
251	0xb744e075	-1.1734771e-05
252	0x38fcd76c	0.00012056422
253	0x3887b20a	6.470464e-05
254	0xb893fff7	-7.0571834e-05
255	0xb896fe4e	-7.199925e-05

exp_avg_sq f4 [21, 64, 3]
0	0x34b3e837	3.3510307e-07
1	0x34366a0a	1.6988648e-07
2	0x350d7795	5.270061e-07
3	0x3409d7b4	1.2837592e-07
4	0x34422cd0	1.808396e-07
5	0x34060504	1.2481547e-07
6	0x3459b5cd	2.0275839e-07
7	0x34af8d2b	3.2699003e-07
8	0x34cb4a45	3.7865735e-07
9	0x34297b4b	1.5784205e-07
10	0x34075272	1.2602848e-07
11	0x33d5dbd2	9.9585705e-08
12	0x34f38a59	4.5362938e-07
13	0x34d7ee84	4.0220414e-07
14	0x350eb382	5.316034e-07
15	0x34fecc9c	4.746006e-07
16	0x34af5cfa	3.266394e-07
17	0x3489e3d5	2.5684008e-07
18	0x34510151	1.9465121e-07
19	0x342add80	1.5913065e-07
20	0x34715be4	2.2478304e-07
21	0x341128c0	1.3519002e-07
22	0x33ae93dc	8.129402e-08
23	0x345e13fa	2.0682629e-07
24	0x340653de	1.2510233e-07
25	0x33af7dda	8.171965e-08
26	0x3413c5b8	1.3762372e-07
27	0x34e1c6e4	4.2054228e-07
28	0x34b5c2d2	3.3855628e-07
29	0x349f93e4	2.9723662e-07
30	0x345dec19	2.0668121e-07
31	0x34246e9b	1.5313928e-07
32	0x34252b71	1.5382626e-07
33	0x341572f4	1.3918526e-07
34	0x3410800d	1.345763e-07
35	0x347b9d1a	2.343335e-07
36	0x3431a6af	1.6545049e-07
37	0x3423298c	1.5195673e-07
38	0x340c4656	1.3064104e-07
39	0x33d5ab82	9.9497825e-08
40	0x3411176e	1.3512701e-07
41	0x33e42ea3	1.06255605e-07
42	0x33d71f57	1.00174184e-07
43	0x3428ac51	1.5708908e-07
44	0x34128278	1.3644774e-07
45	0x347d067d	2.3564822e-07
46	0x34693834	2.1720263e-07
47	0x34377cf0	1.7088655e-07
48	0x3416b9c8	1.4037425e-07
49	0x33bd682e	8.8199485e-08
50	0x33fd8389	1.1805157e-07
51	0x34a502bd	3.0735637e-07
52	0x34e80364	4.3215834e-07
53	0x34dca10d	4.1095373e-07
54	0x345c5792	2.0520955e-07
55	0x3483e99a	2.457062e-07
56	0x34906cf6	2.690137e-07
57	0x3441f2a8	1.8062804e-07
58	0x34978d6d	2.8228843e-07
59	0x345a2db1	2.0319455e-07
60	0x345989d5	2.0259843e-07
61	0x345bf701	2.0485824e-07
62	0x34a055f6	2.9864867e-07
63	0x341378c6	1.3734379e-07
64	0x340ce6dd	1.3122504e-07
65	0x341a40c1	1.4365925e-07
66	0x33f73a4d	1.1512439e-07
67	0x34078371	1.2620673e-07
68	0x33ef773d	1.1150994e-07
69	0x345d5e67	2.0616572e-07
70	0x3419e121	1.4331137e-07
71	0x342ee368	1.6287743e-07
72	0x343d8b5b	1.7652694e-07
73	0x34622032	2.1059603e-07
74	0x343b0b60	1.741987e-07
75	0x345d62fd	2.061824e-07
76	0x3477607f	2.3038773e-07
77	0x34c08ea5	3.5866574e-07
78	0x33f19725	1.124993e-07
79	0x342c1edb	1.6029973e-07
80	0x341cb551	1.4594595e-07
81	0x344b9fe9	1.8964023e-07
82	0x3445ec9d	1.8433134e-07
83	0x34548edd	1.9796012e-07
84	0x34750b56	2.2821527e-07
85	0x340cfd6f	1.3130715e-07
86	0x34b9d75c	3.461563e-07
87	0x347b0510	2.3378038e-07
88	0x34a206de	3.0179848e-07
89	0x34a19d89	3.010321e-07
90	0x3404d80b	1.2372054e-07
91	0x33b64cd4	8.4890104e-08
92	0x34807288	2.392519e-07
93	0x33f55920	1.1424913e-07
94	0x34039d7f	1.2257622e-07
95	0x340c8910	1.3088379e-07
96	0x33aad233	7.954477e-08
97	0x33e25fdb	1.0541381e-07
98	0x33a69c32	7.758389e-08
99	0x34a39add	3.0473794e-07
100	0x34aac23f	3.18063e-07
101	0x34a1b3e0	3.0119463e-07
102	0x3408ea9e	1.275134e-07
103	0x343229e7	1.6592786e-07
104	0x34251d40	1.5377464e-07
105	0x344d4d51	1.912024e-07
106	0x34798df1	2.324157e-07
107	0x34099bdf	1.2815825e-07
108	0x340bd844	1.3024061e-07
109	0x3414ef14	1.387055e-07
110	0x34229691	1.5142201e-07
111	0x34a745cd	3.115696e-07
112	0x34bade44	3.480692e-07
113	0x345c45c8	2.0514483e-07
114	0x3496a4c1	2.8059551e-07
115	0x341d95b9	1.4676233e-07
116	0x34d49479	3.9596105e-07
117	0x34ae5220	3.246978e-07
118	0x348837d7	2.5372603e-07
119	0x342b5df2	1.5959793e-07
120	0x341f22db	1.4820709e-07
121	0x34c43da1	3.6552686e-07
122	0x3491f1eb	2.7184373e-07
123	0x34e792bf	4.3133875e-07
124	0x34ae52fc	3.2470405e-07
125	0x34c33e46	3.636689e-07
126	0x341f9124	1.4860831e-07
127	0x3446a066	1.849854e-07
128	0x3434080d	1.6766735e-07
129	0x3485fe4a	2.49582e-07
130	0x344634b4	1.845936e-07
131	0x3481ec07	2.4199855e-07
132	0x3527a7a2	6.2456286e-07
133	0x3502557e	4.855318e-07
134	0x3521840c	6.016933e-07
135	0x340f21d3	1.3330218e-07
136	0x34062105	1.2491735e-07
137	0x34129f47	1.3655254e-07
138	0x3430150a	1.6398931e-07
139	0x3476f31a	2.2998975e-07
140	0x3438372a	1.7156404e-07
141	0x34552f38	1.9854349e-07
142	0x34265ed9	1.549446e-07
143	0x348ac2da	2.5846276e-07
144	0x33b4c6c6	8.41806e-08
145	0x33b5a812	8.459041e-08
146	0x339f2dfa	7.4123776e-08
147	0x34893db6	2.556314e-07
148	0x3467401a	2.1536871e-07
149	0x34142e0b	1.3800324e-07
150	0x344a285f	1.8827403e-07
151	0x34332c3e	1.668677e-07
152	0x34329305	1.6631027e-07
153	0x34c9405d	3.7485998e-07
154	0x34bc5017	3.5076002e-07
155	0x349f2851	2.9645392e-07
156	0x34af9250	3.2702746e-07
157	0x34879559	2.5254374e-07
158	0x34938d0f	2.7483517e-07
159	0x33fd686b	1.1800224e-07
160	0x33fc397a	1.17451194e-07
161	0x33f54bd4	1.14224946e-07
162	0x34808df7	2.394515e-07
163	0x344fb6b3	1.9344843e-07
164	0x34d138ee	3.8970705e-07
165	0x3416e3fa	1.4052776e-07
166	0x34776c20	2.3043003e-07
167	0x341d1d51	1.463243e-07
168	0x34ab40eb	3.1898466e-07
169	0x3464ccbd	2.1308638e-07
170	0x34268405	1.5507983e-07
171	0x341170c1	1.3545197e-07
172	0x346a6023	2.1827923e-07
173	0x3421153d	1.500202e-07
174	0x3441366e	1.7994327e-07
175	0x3418d207	1.423251e-07
176	0x343858e0	1.7168668e-07
177	0x34c5a549	3.681437e-07
178	0x34e3f3a6	4.2459322e-07
179	0x34ece366	4.412388e-07
180	0x33e9b00c	1.0881931e-07
181	0x342cb31b	1.6083906e-07
182	0x34146ae8	1.3822466e-07
183	0x34bdbe67	3.534253e-07
184	0x3484ef05	2.4760826e-07
185	0x3433c857	1.6743557e-07
186	0x342bc525	1.5997337e-07
187	0x341a44f3	1.4367451e-07
188	0x343472c1	1.6805554e-07
189	0x34b60bf9	3.3908853e-07
190	0x34974811	2.8178377e-07
191	0x34240577	1.5275678e-07
192	0x343fd7e7	1.7866806e-07
193	0x33c03418	8.9501725e-08
194	0x343fad65	1.7851342e-07
195	0x33529e01	4.903814e-08
196	0x3390fca4	6.7514776e-08
197	0x336eefb2	5.5631695e-08
198	0x341eb21f	1.4779697e-07
199	0x34575b77	2.005671e-07
200	0x3482a1ab	2.4332016e-07
201	0x33b9e7fe	8.656933e-08
202	0x33808b15	5.985763e-08
203	0x3376f557	5.7499474e-08
204	0x33b5267a	8.435468e-08
205	0x33ca8b80	9.431733e-08
206	0x339a1d31	7.176494e-08
207	0x3424f832	1.5363983e-07
208	0x33f4f6f2	1.14070545e-07
209	0x340f9e50	1.3375507e-07
210	0x33c08a1e	8.96582e-08
211	0x33844914	6.160022e-08
212	0x33ab588f	7.978917e-08
213	0x33b33972	8.345786e-08
214	0x338cf2bf	6.563413e-08
215	0x33e04200	1.0442818e-07
216	0x33bdc848	8.837429e-08
217	0x332d8f7e	4.0410207e-08
218	0x338dedbc	6.609068e-08
219	0x33eb44e1	1.0955569e-07
220	0x34035e33	1.2234595e-07
221	0x33ba2d9f	8.6695984e-08
222	0x33c442f8	9.139143e-08
223	0x3394fcf6	6.9378004e-08
224	0x33c5af2c	9.205391e-08
225	0x33ca2980	9.413907e-08
226	0x339fd717	7.443139e-08
227	0x341125e2	1.3517959e-07
228	0x33968a5a	7.010085e-08
229	0x33802eb4	5.96896e-08
230	0x33a5edf9	7.726698e-08
231	0x3365ec8b	5.3533352e-08
232	0x33589b4f	5.043267e-08
233	0x3329f4f7	3.9571173e-08
234	0x33607bc9	5.2266646e-08
235	0x338ff761	6.7039544e-08
236	0x33ac5f92	8.026758e-08
237	0x3396ae62	7.0166394e-08
238	0x33b2fd8a	8.3348894e-08
239	0x337285c2	5.6466668e-08
240	0x33828489	6.077705e-08
241	0x3323a606	3.8102392e-08
242	0x335a6bf3	5.085526e-08
243	0x341f6b88	1.4847149e-07
244	0x33feb10a	1.186e-07
245	0x33ae3534	8.112184e-08
246	0x33c9468c	9.372624e-08
247	0x342cf9b1	1.6109585e-07
248	0x3405c21d	1.2457208e-07
249	0x33df8b23	1.04095555e-07
250	0x33d16a0f	9.751613e-08
251	0x339f8080	7.4273885e-08
252	0x33d333fc	9.834909e-08
253	0x3416001b	1.3969877e-07
254	0x342055ec	1.493242e-07
255	0x333bac39	4.3695966e-08

exp_avg f4 [21]
0	0x36d3f25c	6.3165044e-06
1	0x35aebaa9	1.3018335e-06
2	0xb7bbe96f	-2.2400838e-05
3	0xb620d206	-2.3964108e-06
4	0xb5a8f985	-1.2589595e-06
5	0x334ad514	4.7225583e-08
6	0x373ecb76	1.1372254e-05
7	0x35d1d4b9	1.5633624e-06
8	0xb74b868f	-1.2131072e-05
9	0xb60dbdc5	-2.1121098e-06
10	0xb6e26cb5	-6.74798e-06
11	0x37c6427c	2.3634399e-05
12	0x35b77beb	1.3670627e-06
13	0xb741b3d4	-1.1545566e-05
14	0x3645219e	2.9374855e-06
15	0xb6a62324	-4.9512764e-06
16	0x372bdd2f	1.0243893e-05
17	0xb786e4f5	-1.6080661e-05
18	0xb7acbdab	-2.0592319e-05
19	0xb73e8357	-1.1355462e-05
20	0xb6671668	-3.4434725e-06

exp_avg_sq f4 [21]
0	0x307550a2	8.9245067e-10
1	0x2fcbd2ed	3.7075357e-10
2	0x316b909d	3.4279204e-09
3	0x302138c7	5.8652144e-10
4	0x2fb13c9a	3.2239172e-10
5	0x2feb3f88	4.2791393e-10
6	0x3082c311	9.514186e-10
7	0x2f235c43	1.4857542e-10
8	0x30bee8ee	1.3890522e-09
9	0x30759e70	8.9355634e-10
10	0x30c3c605	1.4244398e-09
11	0x3121504b	2.3474225e-09
12	0x3036dae4	6.6522277e-10
13	0x30d2f3da	1.5348818e-09
14	0x307fd3fc	9.306971e-10
15	0x30405722	6.9973016e-10
16	0x3098a297	1.1105666e-09
17	0x30960e6e	1.0918038e-09
18	0x31804600	3.7332484e-09
19	0x30cec7db	1.5045275e-09
20	0x30613aa4	8.1937856e-10

exp_avg f4 [10, 21, 3]
0	0xba117d00	-0.00055499375
1	0x39999f4c	0.0002930112
2	0x39b39e10	0.00034259306
3	0x387c916e	6.0216924e-05
4	0xb99f3ab8	-0.00030370592
5	0xb83527d5	-4.319086e-05
6	0xb859bdd3	-5.191362e-05
7	0x397e80fb	0.00024271377
8	0xb9ddaa80	-0.00042279437
9	0x39de6899	0.0004242107
10	0xb81d54c5	-3.7510665e-05
11	0x3802226d	3.1026477e-05
12	0x398cb47a	0.00026837346
13	0x38474a42	4.7514455e-05
14	0xba65fed9	-0.0008773632
15	0xb9ceee3e	-0.00039468886
16	0x3a0e6b7b	0.0005432886
17	0xb91428eb	-0.00014129623
18	0xb7ce1dc1	-2.4570969e-05
19	0xb9140512	-0.00014116269
20	0xb6f2c250	-7.234783e-06
21	0xb8e17179	-0.00010749972
22	0xb9516f2e	-0.00019973211
23	0x39d7d809	0.00041168954
24	0x39c57940	0.00037665106
25	0x3a26319a	0.00063397887
26	0xba706b27	-0.00091712404
27	0xb9f62311	-0.00046946903
28	0x3a146c34	0.00056618755
29	0x38a112a4	7.68055e-05
30	0x39442fce	0.00018709825
31	0xb68bb658	-4.1637504e-06
32	0xb99a0bd9	-0.00029381996
33	0xb95aa295	-0.00020850667
34	0xba34527c	-0.0006878746
35	0x3a1efd6f	0.0006064986
36	0x39b95688	0.0003535042
37	0xb9c8f975	-0.00038332833
38	0xb8e31382	-0.00010827837
39	0x398ae732	0.00026493665
40	0xb8b7510d	-8.741217e-05
41	0xb9e9a631	-0.00044565045
42	0x3a3758ed	0.0006994147
43	0x3a00d8b8	0.0004915106
44	0xba98f414	-0.0011669421
45	0xb987736e	-0.00025835208
46	0xb9123abf	-0.0001394553
47	0xb906a451	-0.00012840448
48	0xba01b893	-0.0004948463
49	0x396adea5	0.0002239892
50	0xb846f12d	-4.743149e-05
51	0x38505350	4.9668655e-05
52	0x39b40514	0.0003433606
53	0xb906fd81	-0.00012873673
54	0x38c6c74a	9.478496e-05
55	0x39f8afee	0.00047433324
56	0xb9fb1806	-0.0004789235
57	0x39a80b54	0.00032051897
58	0xb7f82d6c	-2.9585055e-05
59	0x3809da6b	3.2866763e-05
60	0xb92e16e7	-0.00016602465
61	0x399354ca	0.00028101198
62	0xb9a3b225	-0.0003122251
63	0xb987e7e6	-0.00025921984
64	0xb84e046b	-4.9118342e-05
65	0x39a1dab5	0.00030871262
66	0x38702a44	5.7259822e-05
67	0xb9514aee	-0.00019959707
68	0x398a63d9	0.00026395803
69	0xb7aa61ba	-2.0311087e-05
70	0x39eff44c	0.00045767648
71	0xb9aa239f	-0.00032451467
72	0x369e1fae	4.712455e-06
73	0xb97320b0	-0.00023186463
74	0x38da59fb	0.0001041181
75	0x39891432	0.00026145723
76	0x3a4968db	0.0007683166
77	0xba08874f	-0.0005208151
78	0xb9b786dc	-0.00035004958
79	0x39ae75b3	0.0003327556
80	0x394726de	0.00018992598
81	0x3992fd56	0.0002803604
82	0x37a3b57d	1.9515626e-05
83	0xb9903a01	-0.00027509037
84	0xb8a53b1f	-7.878825e-05
85	0xb995ab1c	-0.0002854698
86	0x39840164	0.00025178038
87	0xb8bc478f	-8.9778674e-05
88	0x3a799985	0.00095214724
89	0xb9b1eee4	-0.00033938058
90	0xb9d03a73	-0.000397164
91	0x38462391	4.7240002e-05
92	0x399e6f01	0.00030218813
93	0xb7330f80	-1.067284e-05
94	0x398ab305	0.0002645479
95	0xb8e6eb92	-0.00011011133
96	0x39a12c52	0.00030741334
97	0xba67693a	-0.00088276307
98	0x394ee374	0.00019730424
99	0x396ab00a	0.00022381559
100	0xb96f308b	-0.000228109
101	0xb93d98a4	-0.00018081308
102	0x3990ec96	0.0002764209
103	0x39c82409	0.0003817382
104	0xba1138e2	-0.0005539787
105	0x3886d49a	6.429218e-05
106	0x3a7cc947	0.000964303
107	0xba586df3	-0.000825613
108	0x394d4d77	0.00019579181
109	0x3894c87d	7.094534e-05
110	0x397d60aa	0.0002416397
111	0x38197f96	3.6596866e-05
112	0x39749ddb	0.00023328459
113	0xb8a4d9c7	-7.8606936e-05
114	0xb980827f	-0.0002451129
115	0x38ea416d	0.00011170176
116	0xb5a275b0	-1.2104192e-06
117	0xb821f09c	-3.8609476e-05
118	0x3a0a26c7	0.00052700605
119	0xb9912d3a	-0.00027690252
120	0xb727b5e0	-9.996322e-06
121	0xb8b547d7	-8.644134e-05
122	0x38899cfb	6.561909e-05
123	0x38fd4920	0.00012077601
124	0x39a2dfbf	0.00031065752
125	0xb98ad0b8	-0.0002647692
126	0xba45ac12	-0.0007540594
127	0x399689b0	0.00028712815
128	0x38fc82ac	0.00012040636
129	0xb94e4f53	-0.00019675241
130	0x3857520f	5.1336418e-05
131	0x3a3c3b78	0.00071804924
132	0x38e7e536	0.00011057632
133	0x3a1f4582	0.0006075726
134	0xba926a54	-0.0011170604
135	0xb8947c55	-7.0803486e-05
136	0xb9e50530	-0.0004368215
137	0x3a0b3eee	0.00053118065
138	0x3a812436	0.0009852711
139	0x3a955ec6	0.0011396043
140	0xba90390c	-0.001100333
141	0xba39aa92	-0.0007082607
142	0x3aa19e01	0.0012330414
143	0xb9d5ece3	-0.0004080302
144	0x39eca1c7	0.0004513396
145	0xb9aafc7f	-0.0003261305
146	0xb9726f61	-0.0002312041
147	0xb981ae4b	-0.00024734656
148	0xb9d53d23	-0.00040672076
149	0x3a1b7805	0.0005930665
150	0x3a09deba	0.0005259324
151	0x3ac8bb75	0.0015314656
152	0xbaaa7d64	-0.001300734
153	0xba61af22	-0.00086091657
154	0x3a3a5fa0	0.0007109586
155	0xb9aaee4f	-0.0003260248
156	0x392ed5db	0.000166736
157	0x39c36889	0.00037271183
158	0xb9899e96	-0.00026248832
159	0x384e19b0	4.913815e-05
160	0xbac1d1a3	-0.0014787208
161	0x3a7082d3	0.0009174768
162	0x399ca8e8	0.00029880484
163	0xba1c0cef	-0.0005952855
164	0x372ab393	1.01746e-05
165	0x3a9c396e	0.0011918971
166	0x384c01a5	4.863892e-05
167	0xba852eaf	-0.0010161008
168	0x3a822549	0.0009929325
169	0x3aa473aa	0.0012546678
170	0xbb0cd896	-0.00214914
171	0x37a52a72	1.9689298e-05
172	0x3a0392ed	0.0005019147
173	0x39695800	0.00022253394
174	0xb9524a1e	-0.00020054771
175	0x3a052dad	0.00050803536
176	0xba14b1c5	-0.00056722417
177	0xb95e631b	-0.0002120849
178	0x39acb2dd	0.0003293966
179	0xb9d3dbea	-0.00040408905
180	0x3910f549	0.00013824286
181	0x3a5b4d76	0.00083657296
182	0xba6f824c	-0.0009136542
183	0x3847a2a2	4.759676e-05
184	0xb9b2dd02	-0.0003411547
185	0x39892b40	0.000261629
186	0x390e5bb2	0.00013576334
187	0x39dd40e4	0.00042200752
188	0xba72a2e0	-0.00092558376
189	0x3803fb33	3.146678e-05
190	0x39276760	0.00015964871
191	0xba8700ef	-0.0010299961
192	0x39ad788d	0.0003308695
193	0x3ab57874	0.0013845102
194	0xba66035d	-0.0008774305
195	0x39a312df	0.00031103843
196	0xbac201dc	-0.001480158
197	0x398a73e0	0.00026407745
198	0xb936f88b	-0.00017449462
199	0x3a611e6f	0.0008587604
200	0x3929f23d	0.00016207337
201	0x3aa49b16	0.0012558426
202	0xbae651b0	-0.0017571952
203	0x3a4f7424	0.00079137296
204	0x3ac1620f	0.0014753955
205	0xba0877cd	-0.000520584
206	0xba810ba0	-0.0009845383
207	0xba0ac8e4	-0.0005294217
208	0xb98e910c	-0.0002719242
209	0x39bf0810	0.00036436366
210	0xba309975	-0.0006736734
211	0x3a5afcd4	0.00083537144
212	0xb9f01d35	-0.00045798128
213	0x3aeeae71	0.0018209947
214	0xbb068402	-0.002052546
215	0x3a740c9a	0.0009309739
216	0x3a152212	0.0005688976
217	0xb9af1727	-0.0003339585
218	0xba39b0ed	-0.0007083554
219	0x39cc9175	0.00039018286
220	0xb9bcb765	-0.00035994794
221	0x38ecaded	0.00011285753
222	0xbaf767dc	-0.0018875557
223	0x3aafdfad	0.0013418101
224	0xb94eb5e2	-0.00019713448
225	0xba0926dd	-0.00052319263
226	0x3946dd3a	0.00018965165
227	0x39ea8121	0.00044728167
228	0xb968c7ab	-0.00022199626
229	0xbaf57ac5	-0.0018728605
230	0x3aee4cc6	0.0018180839
231	0x3aeb5f1f	0.0017957425
232	0xbb45da09	-0.0030189774
233	0x3af93204	0.0019012098
234	0x395a989b	0.0002084695
235	0x39b8f2bc	0.00035276066
236	0xba853c5e	-0.0010165086
237	0x39a89b93	0.0003215937
238	0xba0e41d0	-0.0005426677
239	0xba1f859b	-0.00060852774
240	0x39c5875d	0.00037675622
241	0xba0201a1	-0.0004959349
242	0x3993c862	0.00028187322
243	0x3a8beca1	0.0010675379
244	0xbaad2c5f	-0.0013212076
245	0x39de95a3	0.00042454628
246	0x37c721dd	2.3738417e-05
247	0x3997a3f0	0.00028923107
248	0x39ca0fe7	0.0003854029
249	0x39e2b630	0.0004324182
250	0xba9f4102	-0.0012150111
251	0x395e4258	0.00021196285
252	0x39251278	0.00015742506
253	0xba365291	-0.00069550524
254	0x3a2f5326	0.00066881103
255	0x3a6bf9a1	0.0009001736

exp_avg_sq f4 [10, 21, 3]
0	0x352c42d4	6.417224e-07
1	0x34ec8c87	4.4060673e-07
2	0x3473804d	2.2677814e-07
3	0x3558b45e	8.072874e-07
4	0x35017745	4.8229805e-07
5	0x358a1c4b	1.0290036e-06
6	0x3566da7d	8.599962e-07
7	0x35407a21	7.1703295e-07
8	0x35e18728	1.6803142e-06
9	0x34ca080a	3.763128e-07
10	0x350e4d9f	5.3012076e-07
11	0x350cc239	5.2436695e-07
12	0x3603fb7e	1.966691e-06
13	0x358d2ce9	1.0518389e-06
14	0x36059a5d	1.9908396e-06
15	0x351ef921	5.9222117e-07
16	0x36134452	2.1944475e-06
17	0x3569d896	8.711444e-07
18	0x34a27c30	3.026521e-07
19	0x34cfb38d	3.8687395e-07
20	0x341cbb3e	1.459675e-07
21	0x34da386f	4.0646725e-07
22	0x3458693e	2.0154854e-07
23	0x3542d5d2	7.258178e-07
24	0x35c8ceee	1.4961386e-06
25	0x35b8fb50	1.378221e-06
26	0x36607115	3.3444423e-06
27	0x3534e3d8	6.738678e-07
28	0x35c0cfc9	1.4365588e-06
29	0x350bc086	5.2061694e-07
30	0x3494827f	2.7662097e-07
31	0x3441e70b	1.8058579e-07
32	0x34afedaf	3.2769228e-07
33	0x351da91b	5.873314e-07
34	0x3607738b	2.0183822e-06
35	0x362f3439	2.610743e-06
36	0x3523f7b9	6.1082716e-07
37	0x3591fd7d	1.0877117e-06
38	0x351e34f2	5.893663e-07
39	0x3615b18e	2.230608e-06
40	0x34c08774	3.5861342e-07
41	0x3583ca35	9.819111e-07
42	0x367f4b02	3.8041621e-06
43	0x3522fe56	6.071981e-07
44	0x36b1d29e	5.29953e-06
45	0x3528e116	6.291242e-07
46	0x354d836c	7.6559695e-07
47	0x3515ef2e	5.585488e-07
48	0x34c81253	3.7266236e-07
49	0x3559e8fe	8.117785e-07
50	0x352d7286	6.4614176e-07
51	0x348aa59b	2.5824997e-07
52	0x34f90abd	4.6387677e-07
53	0x35175295	5.6372056e-07
54	0x351719e4	5.628956e-07
55	0x351ccd39	5.8413167e-07
56	0x35da8b6e	1.6282845e-06
57	0x345689e9	1.9980475e-07
58	0x34a865a6	3.1366397e-07
59	0x3466663f	2.1457616e-07
60	0x34f2677c	4.5151307e-07
61	0x34eeee13	4.4504176e-07
62	0x359dc379	1.1754302e-06
63	0x3539210a	6.896595e-07
64	0x34b34062	3.3388193e-07
65	0x35276c9a	6.2370384e-07
66	0x350c41a0	5.224956e-07
67	0x35ac9d59	1.2860793e-06
68	0x35b1a761	1.3236241e-06
69	0x358abfc2	1.033761e-06
70	0x3605d6b5	1.994352e-06
71	0x356880fc	8.661443e-07
72	0x34c041bc	3.5810615e-07
73	0x354d34b6	7.6445156e-07
74	0x3524cf97	6.1396844e-07
75	0x35a13caa	1.201309e-06
76	0x362bca19	2.5598622e-06
77	0x366837cb	3.460317e-06
78	0x360b0dec	2.0720718e-06
79	0x35ed8cfb	1.7698907e-06
80	0x3588e73c	1.0200088e-06
81	0x351795bf	5.646979e-07
82	0x344bf49d	1.8994838e-07
83	0x34e7f40a	4.3204665e-07
84	0x349536e9	2.7793365e-07
85	0x3568ab4e	8.6676016e-07
86	0x357760a7	9.215532e-07
87	0x3587b34d	1.0110467e-06
88	0x36983c21	4.536953e-06
89	0x36902cf7	4.296769e-06
90	0x35edb2df	1.7709934e-06
91	0x35a16a26	1.2026328e-06
92	0x357a068b	9.314178e-07
93	0x34a29f9f	3.029099e-07
94	0x34957bbe	2.7843447e-07
95	0x34c7aaa8	3.7190807e-07
96	0x35e7d344	1.7272328e-06
97	0x369ccf34	4.673284e-06
98	0x362af37d	2.5473703e-06
99	0x354563ce	7.3533454e-07
100	0x3519c170	5.727843e-07
101	0x353950e0	6.903556e-07
102	0x35a72488	1.2453102e-06
103	0x35d40ff9	1.579988e-06
104	0x36613528	3.3558554e-06
105	0x36196726	2.2858817e-06
106	0x36dde1d9	6.6126054e-06
107	0x3714a51a	8.859928e-06
108	0x35538e1e	7.8810433e-07
109	0x34ff0e41	4.7507822e-07
110	0x35437f72	7.282862e-07
111	0x35558cdf	7.955368e-07
112	0x35a2da3c	1.2133455e-06
113	0x35122f95	5.445848e-07
114	0x35217b53	6.0156634e-07
115	0x357bff6c	9.3876474e-07
116	0x34d6e128	4.002443e-07
117	0x353a67a4	6.9441217e-07
118	0x3622bf50	2.425124e-06
119	0x35e50b99	1.7065205e-06
120	0x34c912f9	3.7452972e-07
121	0x34989217	2.84185e-07
122	0x349eb9d9	2.9565015e-07
123	0x35136e07	5.492188e-07
124	0x35d4671d	1.5825241e-06
125	0x357d5640	9.4375355e-07
126	0x3567fade	8.6419266e-07
127	0x351d7dd5	5.867017e-07
128	0x347babb9	2.3438669e-07
129	0x35620043	8.419194e-07
130	0x3524a6a8	6.133728e-07
131	0x35ab2803	1.2752138e-06
132	0x3509fa4c	5.1400707e-07
133	0x35c0c064	1.4361108e-06
134	0x35edb3e1	1.7710228e-06
135	0x342f8909	1.6347998e-07
136	0x35260555	6.184758e-07
137	0x353b6c3c	6.982043e-07
138	0x35efbdb5	1.78621e-06
139	0x359103d7	1.0804459e-06
140	0x368b1925	4.14545e-06
141	0x359181cb	1.0841117e-06
142	0x3646f108	2.9644598e-06
143	0x35a4c3a1	1.2275888e-06
144	0x350f2395	5.332343e-07
145	0x34c31736	3.633847e-07
146	0x345e69fa	2.0713915e-07
147	0x34b19807	3.3079434e-07
148	0x34f2cad6	4.5223595e-07
149	0x35a9277f	1.2602976e-06
150	0x35a2ecfa	1.213891e-06
151	0x36433c2f	2.9092296e-06
152	0x36e38362	6.780422e-06
153	0x35a2387f	1.2086383e-06
154	0x3609fd65	2.0562086e-06
155	0x35067f2d	5.0103955e-07
156	0x348e286e	2.6478978e-07
157	0x343de537	1.7685385e-07
158	0x34ee3204	4.4367346e-07
159	0x350f9658	5.349043e-07
160	0x3697e5c1	4.5268976e-06
161	0x36948295	4.4259455e-06
162	0x34f5c13b	4.57754e-07
163	0x3551a98c	7.810529e-07
164	0x34f5bedc	4.5773675e-07
165	0x364a489c	3.014261e-06
166	0x34ff9dc4	4.761224e-07
167	0x363a581d	2.7767449e-06
168	0x36ab719a	5.109422e-06
169	0x361ca86f	2.3343853e-06
170	0x37450ac0	1.1744618e-05
171	0x3530613d	6.570661e-07
172	0x34975415	2.818712e-07
173	0x34d2f84f	3.9296216e-07
174	0x34d2ba86	3.9251262e-07
175	0x35a38de7	1.2185745e-06
176	0x355e5402	8.282369e-07
177	0x348bd189	2.6043224e-07
178	0x355d739a	8.249714e-07
179	0x351d5f83	5.8626046e-07
180	0x35103a9a	5.3729457e-07
181	0x35dd4a14	1.6487343e-06
182	0x364529bd	2.9379582e-06
183	0x347388b8	2.2680877e-07
184	0x348c8366	2.6172637e-07
185	0x347e3c67	2.3677568e-07
186	0x34b2bb63	3.3291425e-07
187	0x358a9e61	1.0327896e-06
188	0x35dda97c	1.651511e-06
189	0x35c570b4	1.4710445e-06
190	0x35d0676c	1.5527307e-06
191	0x363f6c79	2.8524357e-06
192	0x361e7234	2.361031e-06
193	0x36af923f	5.2324317e-06
194	0x36153443	2.223315e-06
195	0x36be62ba	5.6739345e-06
196	0x36ec2640	7.037801e-06
197	0x35cb60d3	1.5152858e-06
198	0x3604e438	1.9802374e-06
199	0x36012134	1.9241825e-06
200	0x35a74c4e	1.2464677e-06
201	0x36a1a668	4.817546e-06
202	0x37599e2f	1.2971038e-05
203	0x371a9766	9.2143655e-06
204	0x371bdc56	9.290021e-06
205	0x36465352	2.9552798e-06
206	0x36bdeb2a	5.6600156e-06
207	0x35d674e9	1.5978268e-06
208	0x358dce9d	1.0565451e-06
209	0x362fab11	2.6176606e-06
210	0x35e31c8b	1.6921125e-06
211	0x366ddf1d	3.544562e-06
212	0x359d8ed5	1.1738981e-06
213	0x3716a63d	8.979402e-06
214	0x378dc0de	1.689832e-05
215	0x36c22e6e	5.7870557e-06
216	0x369ce943	4.6763175e-06
217	0x35f3471f	1.812561e-06
218	0x36865131	4.002963e-06
219	0x35959169	1.1143685e-06
220	0x35ddb390	1.6518043e-06
221	0x3588fb28	1.0205886e-06
222	0x3769d57c	1.3937588e-05
223	0x37441c6b	1.1689127e-05
224	0x36564c1b	3.1932784e-06
225	0x366fda77	3.5740939e-06
226	0x36100918	2.1462965e-06
227	0x36834e88	3.9132465e-06
228	0x35d89a1a	1.6138104e-06
229	0x371d3a50	9.371506e-06
230	0x372e07ae	1.0372996e-05
231	0x37225c67	9.677467e-06
232	0x380922e3	3.2695836e-05
233	0x375fbfef	1.3336524e-05
234	0x36036a7b	1.95825e-06
235	0x36305413	2.6274981e-06
236	0x3627be09	2.4995554e-06
237	0x368ab0e9	4.1333155e-06
238	0x36024ffa	1.9418062e-06
239	0x358493f3	9.877825e-07
240	0x3626d668	2.4860728e-06
241	0x3612a094	2.1849164e-06
242	0x35886f37	1.0165157e-06
243	0x36c3b50f	5.832531e-06
244	0x370c5989	8.365497e-06
245	0x3593aee1	1.100325e-06
246	0x358c0dc1	1.0434816e-06
247	0x354bbf36	7.590164e-07
248	0x3581e6c5	9.678412e-07
249	0x3674ccd4	3.647806e-06
250	0x36a33314	4.863725e-06
251	0x354855a3	7.4630424e-07
252	0x350310f1	4.8825956e-07
253	0x358ed4b0	1.0641725e-06
254	0x3522e57d	6.068365e-07
255	0x35d30051	1.5720817e-06

exp_avg f4 [10]
0	0x2d108327	8.214574e-12
1	0x2e75d5b2	5.589635e-11
2	0xaee02f0f	-1.01947e-10
3	0xae1af9f0	-3.5237535e-11
4	0x2eb8f344	8.410564e-11
5	0x2e6ab627	5.3367224e-11
6	0xaedac57f	-9.9485746e-11
7	0x2f123686	1.3297993e-10
8	0x2e46283f	4.5055733e-11
9	0x2d2b712e	9.7453556e-12

exp_avg_sq f4 [10]
0	0x1fae1711	7.3730027e-20
1	0x1fc1cb0f	8.207461e-20
2	0x1f8b42c9	5.8979277e-20
3	0x209e35f1	2.6801937e-19
4	0x1fcedaba	8.7606246e-20
5	0x2057b0d8	1.8269721e-19
6	0x2098393d	2.578768e-19
7	0x1fe7857a	9.8053124e-20
8	0x20a65ec5	2.8184207e-19
9	0x201870b7	1.2912195e-19

exp_avg f4 [10]
0	0xba278d6b	-0.00063916174
1	0x376980b2	1.3917846e-05
2	0x393d3555	0.00018044312
3	0xb986dff1	-0.0002572532
4	0x3a0214c8	0.0004962203
5	0xbb079986	-0.0020690872
6	0x3a9caa69	0.0011952642
7	0x3af02e26	0.00183243
8	0x3abc0458	0.0014344556
9	0xbabb93ee	-0.0014311054

exp_avg_sq f4 [10]
0	0x35f67526	1.8362523e-06
1	0x35b3ee84	1.3405956e-06
2	0x35ffebea	1.906764e-06
3	0x36cf3c11	6.1760734e-06
4	0x368aff0f	4.142413e-06
5	0x37c74f77	2.3759652e-05
6	0x36542552	3.1612185e-06
7	0x3784bae0	1.5822647e-05
8	0x3788007a	1.6212685e-05
9	0x37439b66	1.1659087e-05

exp_avg f4 [10]
0	0xb86aa7a0	-5.594606e-05
1	0x38b164d3	8.458798e-05
2	0x386f76eb	5.709279e-05
3	0xb83859fb	-4.395282e-05
4	0x38fc1917	0.0001202097
5	0xb915a049	-0.00014269458
6	0x38b13260	8.449401e-05
7	0x390ae114	0.00013244554
8	0x38afe92f	8.388084e-05
9	0xb94da53a	-0.00019611875

exp_avg_sq f4 [10]
0	0x33134ba4	3.42949e-08
1	0x332eeeef	4.072984e-08
2	0x3346d21c	4.629156e-08
3	0x32d7918d	2.5095483e-08
4	0x33d9fcb8	1.0150819e-07
5	0x343585fc	1.6905682e-07
6	0x3396a5e6	7.015096e-08
7	0x34123d58	1.3619626e-07
8	0x33c9bd3b	9.394213e-08
9	0x34a1d112	3.0140706e-07
