exp/auto-conv/4-classes/version_20/checkpoints/epoch=44.ckpt (torch_old, 915758 bytes, 103 tensors)

exp_avg f4 [8, 3, 3]
00000000: 5743 ad39 128e 37bb 27d1 be3a 6c04 103a
00000010: 4a08 84ba 19b6 7c3a cf82 573b 925d 42bb
00000020: 1c92 fcb9 039d 573a 360b 81ba 27f2 6db9
00000030: 5851 603a 2838 a239 3514 3f38 288b b83a
00000040: 80dd 81b8 3831 1dbb 72ec 8fba 1cc8 fb3a
00000050: 67f6 13ba 0a08 e8ba 9c71 f639 711b 9dba
00000060: c7b5 12bb 5adc e13a 34ef b63a 8746 0939
00000070: f875 133a 50eb 58ba 167b d738 d03b 5ab9
00000080: c32d 0fba 7bfd 19ba 8424 b73a d6d2 1db9
00000090: 3db8 60ba bb28 cf3a d736 82ba c43a 08ba
000000a0: 413b a439 72f8 d7ba c357 09bb 8d39 133b
000000b0: 9749 37b9 3c56 493a 05bf 25ba 9e49 75ba
000000c0: 9149 773a 6563 dab9 acef 7aba 0930 7b3a
000000d0: 8740 353a f8c1 dfba bfd5 55b9 527c 1537
000000e0: efe5 f539 892b 8eb7 e3b7 4638 fdb3 aeb9
000000f0: 5280 bbb9 35ae 053a d3c2 9839 8f55 8c39
00000100: 885d 9eba 5333 9639 14a4 c139 5f47 89ba
00000110: d10b d8b9 1abe b93a 1ac5 3fba a96f c2b8
0.00033047303 -0.0028008264 0.0014558182 0.0005493823 -0.0010073271 0.0009640172 0.0032884364 -0.0029657823
-0.00048174046 0.00082249957 -0.000984526 -0.0002269229 0.0008557043 0.00030940888 4.5556768e-05 0.0014079558
-6.192457e-05 -0.0023985635 -0.00109805 0.0019209418 -0.0005644322 -0.0017702591 0.00047005422 -0.0011986328
-0.002238618 0.0017231808 0.0013956786 0.00013091612 0.00056251837 -0.00082748104 0.000102749254 -0.00020812382
-0.0005461836 -0.00058742583 0.0013972674 -0.0001505123 -0.00085723755 0.0015804985 -0.0009934556 -0.0005196745
0.00031324665 -0.0016477241 -0.002095685 0.0022464723 -0.00017479654 0.00076803914 -0.00063227146 -0.0009356978
0.00094332645 -0.00041654255 -0.0009572457 0.0009582048 0.00069142174 -0.0017071357 -0.0002039289 8.910038e-06
0.00046901355 -1.6947992e-05 4.7378137e-05 -0.00033321968 -0.00035763026 0.0005099506 0.00029136855 0.00026766627
-0.0012082318 0.0002864847 0.00036934076 -0.0010473541 -0.00041207534 0.0014171035 -0.0007315442 -9.271439e-05

exp_avg_sq f4 [8, 3, 3]
00000000: 59b9 4038 e931 f737 daac 1c38 bb60 1e38
00000010: 4900 0538 b911 ee37 21ee 9f38 a6a4 0f38
00000020: 5296 1938 23e9 5e37 e192 2238 422b bf36
00000030: e058 4d37 359c 9337 9528 3b37 7c61 4a37
00000040: 453f 0837 78d7 3438 aaf5 b037 eb2a cc37
00000050: fc7a d337 ff41 cb37 031c 1738 7410 9937
00000060: 54b1 aa37 b29b 0338 3cf3 9f37 1866 6b38
00000070: cdc5 e136 f6e4 8637 fd57 3f38 15af de37
00000080: 057c 9337 ccdf 2e37 b215 7737 1d63 7537
00000090: 0341 2038 3345 f137 d58f fe37 8699 9038
000000a0: 4de6 d237 fdfa f837 c5f4 3238 692b 0338
000000b0: 830d 0e38 27d2 6237 61a7 4137 f314 a137
000000c0: e656 6037 f9bc 9137 312e 9437 de79 2537
000000d0: 56f7 6637 d835 e837 0037 b336 4262 1436
000000e0: 9e71 8a36 dbc9 8b36 2ef2 4036 fba7 5336
000000f0: 1371 cc36 4cdf 1d36 d0f1 d136 04b9 4237
00000100: 5f66 4b37 231f 1236 bc4f 8536 a97e 6b36
00000110: 937d 0337 83c6 9736 b19f 4536 17f3 a136
4.5948986e-05 2.9467936e-05 3.735428e-05 3.7760223e-05 3.1709937e-05 2.8380064e-05 7.626066e-05 3.4247198e-05
3.661804e-05 1.32865125e-05 3.87606e-05 5.6972794e-06 1.2239645e-05 1.7596505e-05 1.1155517e-05 1.2062836e-05
8.120963e-06 4.3116015e-05 2.1095231e-05 2.433868e-05 2.521043e-05 2.4230218e-05 3.6027293e-05 1.8246683e-05
2.0348154e-05 3.1377836e-05 1.9067542e-05 5.612345e-05 6.7285496e-06 1.6080663e-05 4.5619894e-05 2.6545991e-05
1.7581517e-05 1.0423315e-05 1.4727399e-05 1.4626215e-05 3.820752e-05 2.8761662e-05 3.0346137e-05 6.895051e-05
2.5141193e-05 2.968078e-05 4.2666466e-05 3.1273263e-05 3.3868022e-05 1.351958e-05 1.1542667e-05 1.920245e-05
1.3371673e-05 1.7373344e-05 1.7664484e-05 9.863141e-06 1.3766656e-05 2.7681628e-05 5.3410186e-06 2.2110912e-06
4.1259473e-06 4.166022e-06 2.8751197e-06 3.1539228e-06 6.0928373e-06 2.35248e-06 6.256836e-06 1.1606378e-05
1.2123578e-05 2.177382e-06 3.972991e-06 3.5091455e-06 7.837446e-06 4.5232605e-06 2.944824e-06 4.8264733e-06

exp_avg f4 [8]
00000000: 323b 2eb8 d47a 50b7 02a6 3238 1c2f fd37
00000010: 8a79 7a38 50f5 6537 7d1a 27b7 c7e4 06b8
-4.1539963e-05 -1.2426364e-05 4.2593114e-05 3.0181887e-05 5.9717837e-05 1.370658e-05 -9.960143e-06 -3.2161155e-05

exp_avg_sq f4 [8]
00000000: 5353 bf32 7fe6 3c32 a235 c232 f7d2 9732
00000010: 518d 2833 2fd1 5a32 824e 1032 4bf0 e132
2.2273218e-08 1.0995449e-08 2.2608962e-08 1.767465e-08 3.9244075e-08 1.2736833e-08 8.399754e-09 2.630272e-08

exp_avg f4 [16, 8, 3]
00000000: e51d 01bb eb2e 263a ae77 f43a 320d 12ba
00000010: 4bc3 6ab9 ebcd 203a 8986 253a 41fc 043a
00000020: 46d1 e2ba 8cdc 7eba e39d df3a 66e8 07ba
00000030: 6470 fb39 7e73 393a 0af7 f1b9 1f7b 48ba
00000040: ec66 653a 3062 f239 34e2 4a3a 7a48 23b8
00000050: 3420 aaba 7f8b 0c3a 1cb5 af39 f840 82ba
00000060: 9eeb ed3a 49c1 61ba fce7 7bba db29 0f3a
00000070: 83d3 8539 73da b0b9 ba27 29ba 6876 0fba
00000080: fbb1 bf3a 816b 8a39 886a c5ba a20d 843a
00000090: 6c06 2fba c3fa 4bba 9dbc 6f38 1d47 063a
000000a0: bcd1 57ba 29bb afb9 6e4a 7cba a812 cf39
000000b0: 7bb3 863a 93f6 30ba fba9 2cb9 eb74 5d3a
000000c0: 73ca 99b9 cfa3 143b 1d7e 84ba 33e5 2fba
000000d0: 0cda ab39 5a41 d239 eb3c 393a 7837 b8ba
000000e0: 38c2 0bba fdca a93a f763 1939 e0dc f3ba
000000f0: f2a4 bf3a 51d0 8a39 fcb5 8837 c0be 443a
00000100: af45 423a 93c4 cdba 4eb1 a438 f427 d8ba
00000110: 7ad3 4a3a 90d3 113a d343 3cba 1554 6239
00000120: 3f5c 42bb 2dff 653b a7d2 df39 d0d8 95ba
00000130: 7079 b4b9 6515 bd39 895c ad3a c5ba 8e38
00000140: c33d 34bb 71f3 2739 f670 273b 8a62 49bb
00000150: a778 c23a 1cc6 9c3a 4dfe c2b9 faed 20ba
00000160: 7615 c43a d623 59ba 4cc1 003b fc77 20bb
00000170: 04ce 7bba 58dd ad3a 99b0 d138 7b80 99ba
00000180: f0ab caba 4d4e 0a3b b772 8639 324f 9fba
00000190: 035e e4b8 e952 8e39 e3fe 913a 6903 61ba
000001a0: a62f b2ba e1a1 f439 e53d b43a c4c1 d9ba
000001b0: 13a0 bf3a 9b30 873a a1d2 8139 f629 8bb8
000001c0: 6164 963a ff7d 2eba 81e4 103a 6d89 adba
000001d0: 4e71 29ba 4d1c 813a c4c9 6db9 364e b9b9
000001e0: 8844 c7b9 6e7d ff37 066e d539 f729 51b9
000001f0: 3edc c7b9 9985 0bb9 3ff1 0137 fe5c b039
00000200: 76ae 04ba c387 d4b9 1adf 9f39 7122 7536
00000210: f29c b138 6da0 c839 f965 6139 0e22 b3b9
00000220: d801 acb7 f3c4 7e39 9c33 ff38 fccb 25b9
00000230: 312d d5b9 2e46 0939 0cff 9c39 f241 34b9
00000240: 7943 86ba e5b9 063a 90e5 e539 6fab 65b9
00000250: a535 c0b7 ab27 1e39 fe89 b339 441b eb39
00000260: ba39 54ba f17e 19ba b0ff 7b3a b8b6 a7b9
00000270: d7e5 6cb7 5a2b 8839 9fe4 b8b9 40d4 c9b9
00000280: d391 8a39 9b2f e439 5aa8 0f3a fb4a 68b9
00000290: 5bc5 feb9 76a8 4239 30dc bb39 f464 1bba
000002a0: 8029 6438 e1eb 26ba 9f5e 8637 4531 0ab8
000002b0: 2b46 d6b8 6e78 6d38 0544 8538 bc28 8f39
000002c0: 1141 5b39 ef9f 01b9 40d5 07b8 c8b3 1a3a
000002d0: fac2 bfb8 81f6 8339 139f c439 d4ef ccb8
000002e0: efc6 4f38 868f bd39 a8d6 c2b8 a2ca 8639
000002f0: c35c 3938 9ddf c0b7 f43d 2439 2259 b638
00000300: 43c4 80ba e890 a93a 8e01 25ba 8db6 2dba
00000310: 705d 76b9 dbb6 b839 35b9 563a c32e 3cb8
00000320: 1931 03ba 8aae 1a3a 01d7 653a a038 9fba
00000330: 0954 533a 3a6a 9839 c6f9 9e39 041a c7b9
00000340: 58d1 293a 287f 10ba 04af 093a 9133 5fba
00000350: 82ad a839 548d 7b3a 1d87 61b9 e32e dbb8
00000360: 95c0 6d39 c1ba a339 ff49 74ba 75ff 87b9
00000370: 0a5c 0939 c7be 99b8 24cb 3e39 19af 17ba
00000380: cc1a f339 609e 263a f12b 00b9 9ff4 5eb9
00000390: 6b7b 8a39 d44e 2839 8830 c539 c724 043a
000003a0: 02e0 e138 ac33 9cb9 e5af 26b9 54f9 aab9
000003b0: c887 153a db76 9b38 f421 53b9 7438 9439
000003c0: e6a9 d2b9 8cf0 883a 71e8 92b9 0f62 cab9
000003d0: 9f6b a836 707d 5839 a5d8 3d39 9e36 a8b9
000003e0: 8ef1 ebb9 4c05 8539 1881 483a a821 c4b9
000003f0: 4b04 173a 8d5c f038 cad0 d2b9 7672 57b8
-0.0019701656 0.0006339389 0.001865139 -0.0005571424 -0.00022388731 0.00061342 0.0006314298 0.0005072989
-0.00173048 -0.0009722195 0.0017060604 -0.00051844714 0.00047958188 0.00070743996 -0.0004615116 -0.0007647741
0.00087509933 0.00046230992 0.00077393954 -3.8929727e-05 -0.0012979568 0.0005361363 0.00033513538 -0.0009937575
0.0018151884 -0.00086118706 -0.00096094585 0.0005461254 0.00025525325 -0.00033732093 -0.0006452758 -0.0005472661
0.0014625186 0.00026401508 -0.0015061656 0.0010074864 -0.0006676677 -0.0007781202 5.71577e-05 0.0005122291
-0.0008232852 -0.00033518046 -0.0009624128 0.00039496017 0.0010276878 -0.00067506096 -0.00016466521 0.0008447903
-0.0002933327 0.0022680645 -0.0010108385 -0.00067098736 0.0003277812 0.00040103012 0.00070662674 -0.0014054617
-0.000533137 0.0012954172 0.00014628457 -0.0018605255 0.0014621301 0.0002647662 1.6297206e-05 0.00075052306
0.00074108964 -0.0015698842 7.853155e-05 -0.0016491399 0.0007737201 0.00055628363 -0.00071817375 0.00021584363
-0.0029657034 0.0035094724 0.00042690823 -0.0011432413 -0.00034422753 0.0003606483 0.001322643 6.805876e-05
-0.0027502633 0.0001601705 0.0025549508 -0.00307289 0.0014836983 0.0011960897 -0.00037192032 -0.0006138977
0.0014960009 -0.0008283233 0.0019646464 -0.0024485579 -0.0009605589 0.0013264818 9.9987905e-05 -0.0011711264
-0.0015462618 0.00211038 0.0002564394 -0.0012154339 -0.00010889398 0.00027146123 0.0011138584 -0.0008583577
-0.0013594523 0.00046659916 0.0013751356 -0.0016613533 0.0014619849 0.0010314168 0.00024761728 -6.635852e-05
0.0011474007 -0.0006656348 0.0005527214 -0.0013239809 -0.0006463722 0.0009850353 -0.00022677245 -0.0003534422
-0.00038007298 3.0456777e-05 0.000407085 -0.00019947426 -0.0003812033 -0.00013305842 7.745169e-06 0.0003363862
-0.0005061397 -0.0004053694 0.00030493067 3.6527892e-06 8.469251e-05 0.000382665 0.0002149566 -0.00034166913
-2.0504856e-05 0.00024296697 0.000121689605 -0.00015811616 -0.00040660196 0.00013091482 0.00029944663 -0.00017190704
-0.0010243497 0.0005139395 0.0004384932 -0.00021903006 -2.2913164e-05 0.00015082832 0.00034244353 0.00044843007
-0.000809576 -0.00058554026 0.00096129905 -0.00031988858 -1.412021e-05 0.0002597224 -0.0003526555 -0.00038495846
0.0002643006 0.00043523018 0.00054801034 -0.00022153177 -0.00048593697 0.00018564038 0.00035831472 -0.0005927824
5.4398086e-05 -0.0006367546 1.6018106e-05 -3.294765e-05 -0.00010217385 5.6617362e-05 6.354604e-05 0.00027305435
0.00020909707 -0.00012361979 -3.2385113e-05 0.0005901423 -9.143907e-05 0.00025169927 0.00037502553 -9.7721495e-05
4.9537917e-05 0.00036155822 -9.290624e-05 0.00025709445 4.419383e-05 -2.2992312e-05 0.00015663338 8.6950386e-05
-0.0009824116 0.0012936862 -0.0006294482 -0.00066266285 -0.00023495196 0.00035231453 0.000819105 -4.4866243e-05
-0.00050045695 0.0005900642 0.0008767695 -0.0012147613 0.00080615334 0.00029070844 0.00030322204 -0.0003797562
0.0006478033 -0.0005512112 0.00052522146 -0.0008514459 0.0003217273 0.00095959497 -0.00021508006 -0.00010451467
0.00022673824 0.00031228925 -0.00093188876 -0.00025939537 0.00013099625 -7.3311436e-05 0.00018195488 -0.00057862845
0.00046368537 0.0006355997 -0.000122234 -0.00021262698 0.00026413365 0.00016051094 0.00037610927 0.00050408806
0.00010770561 -0.00029793137 -0.0001589652 -0.0003261069 0.0005704132 7.4131145e-05 -0.00020135177 0.0002827082
-0.00040180905 0.0010447665 -0.00028020472 -0.00038601502 5.019319e-06 0.00020646094 0.00018105151 -0.0003208415
-0.00045002665 0.00025371683 0.0007648631 -0.0003740911 0.00057608326 0.00011461331 -0.0004020988 -5.1366595e-05

exp_avg_sq f4 [16, 8, 3]
00000000: c4e6 8537 9d34 de37 530f da37 03ad 5435
00000010: 0262 6d37 e4b4 f936 90e6 3638 8639 c037
00000020: 32e9 b837 1bd0 0a37 74f5 0337 145b 8d37
00000030: 5ee2 c435 c064 1637 5cd8 2236 68d0 3137
00000040: 5535 e836 1a63 e137 0847 ec36 0eec 8a36
00000050: 7e6d 4e37 2bf9 bf36 0648 2237 00e2 f736
00000060: 8733 c637 392c a137 4399 a637 b9d9 4136
00000070: 111e b436 6995 8236 01b3 7637 4b4f d837
00000080: 06fa c337 595e b436 8907 9c37 ba07 0137
00000090: 6d8a df36 cb96 1d37 45a8 4a36 c43b 2736
000000a0: 0fd5 5837 95ab 0338 962b 9f36 cde1 b436
000000b0: 3eee 0837 5832 5236 1d0f b536 efd8 6437
000000c0: 4fa7 3c37 bb25 7037 4889 0c37 8959 8136
000000d0: 8b92 6b36 547a c036 ace2 4637 c34e 1238
000000e0: b1a8 ce36 5046 a236 3368 2837 ea01 d536
000000f0: 86d7 7536 ee00 ae35 d23b d235 96aa 8037
00000100: 0de7 f636 db23 1737 06f3 aa36 85eb b536
00000110: 814f 2236 96e6 0a37 2eef 9436 cc09 b036
00000120: efbb d338 c1de 9e38 409b b838 ab3a 2238
00000130: 67d4 2c37 12f9 0738 e296 a238 138c 5d39
00000140: a17b a138 f605 9538 1fe1 0138 c5e8 2338
00000150: 1714 1837 3c58 3337 b02d 4e37 1df6 c738
00000160: ce17 2e38 1aa1 3738 fdfa 8d38 8fe4 d337
00000170: 547b 0238 7417 a237 8ab3 0738 272e ee37
00000180: 53d2 db36 b1f7 9837 2a32 a037 235b 3536
00000190: 0499 0e37 4b01 1436 05d2 9537 8b73 d237
000001a0: 7595 1e37 dba1 4537 240f 7b36 c52a 0037
000001b0: f63a 5136 ac39 eb36 7e6d 3236 d0ba 5737
000001c0: a840 1237 22fc 6e37 0a0e 0836 fa45 b936
000001d0: 4821 5b37 55c7 9636 d448 2b37 db22 2336
000001e0: ecb0 9135 38eb 3735 167c 4235 64ba cc34
000001f0: 51a0 a634 d99e 4234 91f7 9835 12bd cf35
00000200: dd46 5935 2f50 a034 9526 8934 34a6 2c34
00000210: 11b2 1f34 718b a234 78db 1435 c561 bc34
00000220: 5540 9c35 16af 1635 777d 8734 e469 b434
00000230: 362c 8134 5214 8833 2513 ec34 d068 8f34
00000240: 2743 8c37 d4fb 1d37 a175 2e37 38d5 df36
00000250: a990 fb35 61d7 3636 1707 5f37 b20b 9037
00000260: c014 7137 ff11 8f36 08be 1837 03a1 d335
00000270: 1561 8c35 00f7 ef35 0231 cc35 529d 1237
00000280: 6128 7937 6b26 a936 9c07 b736 6376 3736
00000290: c883 4e36 05f5 4036 dec8 8636 85fd 8236
000002a0: 9c49 2b35 dc26 0f36 3005 4d35 d822 1435
000002b0: 86b5 fb34 5ad0 9c34 2640 0b36 aaf5 ef35
000002c0: f1ee 3e35 8a32 0a35 2729 f334 64f1 9935
000002d0: fd1b 8235 ee29 8e35 a3c2 7535 6b7e 1835
000002e0: fa14 ca35 6b4b ee35 2ff2 c434 4a37 3b35
000002f0: c84a 0e35 4b3a e834 2b9d 5f35 65cb 8634
00000300: 3dde d937 3eac 3037 4dba 2d37 88c9 0237
00000310: 8430 e236 3827 3437 71dc 5f37 1092 b037
00000320: 1d51 dc37 bd0c ba36 ae01 2637 ce1e 0a37
00000330: d381 5937 383c 6337 87f4 2d37 896d 4037
00000340: c0d9 8637 d027 9037 94e7 1737 60dd d036
00000350: 2a18 c136 f312 d436 ba26 5f36 40c3 0d37
00000360: 39ff 2d36 fbad 3736 adae 0436 78e8 f135
00000370: bf81 4e35 5de8 d534 4514 0f36 987d 2c36
00000380: c7b0 5e36 dcdf 7535 8599 fb35 4c72 9435
00000390: b935 0c36 3d56 bb35 a594 b235 77c6 ef35
000003a0: b144 3436 27f3 0036 afa0 2535 e8bd 6335
000003b0: db94 3235 a1ec da35 2b8c 3f35 c096 5e35
000003c0: 7ec0 1837 0d22 7936 c74d b036 2a57 fe35
000003d0: 2d01 7d35 9c1e 2d36 7369 0237 4ffd dd36
000003e0: c677 6537 932a 7b36 3587 4136 cda2 0e36
000003f0: d70c ca35 afe5 9035 c7f8 2936 757f 2a37
1.5962294e-05 2.6488962e-05 2.5994761e-05 7.922792e-07 1.414912e-05 7.4418367e-06 4.360691e-05 2.291497e-05
2.20431e-05 8.273894e-06 7.8653575e-06 1.6850921e-05 1.466902e-06 8.964154e-06 2.426582e-06 1.05985455e-05
6.9203475e-06 2.6868238e-05 7.041617e-06 4.140201e-06 1.230405e-05 5.7212505e-06 9.672722e-06 7.3874835e-06
2.3627434e-05 1.9213288e-05 1.986011e-05 2.8885972e-06 5.367918e-06 3.8916955e-06 1.470442e-05 2.578613e-05
2.3362238e-05 5.3754015e-06 1.8600158e-05 7.690798e-06 6.662033e-06 9.393038e-06 3.0198291e-06 2.4919727e-06
1.292421e-05 3.1392632e-05 4.7436433e-06 5.3907047e-06 8.161702e-06 3.1321742e-06 5.3959798e-06 1.3640368e-05
1.1244628e-05 1.43139e-05 8.376614e-06 3.854923e-06 3.5103028e-06 5.7362868e-06 1.1854496e-05 3.4882465e-05
6.1589167e-06 4.8361617e-06 1.0037841e-05 6.3481175e-06 3.6633296e-06 1.2964281e-06 1.5663629e-06 1.5338224e-05
7.358269e-06 9.00865e-06 5.0946865e-06 5.4216384e-06 2.4186158e-06 8.279128e-06 4.438588e-06 5.2463492e-06
0.000100962694 7.575518e-05 8.802721e-05 3.867845e-05 1.0301453e-05 3.2418473e-05 7.752866e-05 0.00021128384
7.700106e-05 7.105984e-05 3.0965657e-05 3.9079012e-05 9.0645835e-06 1.0689775e-05 1.2289194e-05 9.5349016e-05
4.1507003e-05 4.3780637e-05 6.770154e-05 2.5259591e-05 3.1109274e-05 1.9322826e-05 3.2353717e-05 2.8393302e-05
6.5511936e-06 1.8235152e-05 1.9096846e-05 2.702415e-06 8.499486e-06 2.2054471e-06 1.7859982e-05 2.5087755e-05
9.452332e-06 1.17798e-05 3.7410728e-06 7.639353e-06 3.1177747e-06 7.0102597e-06 2.65878e-06 1.2858494e-05
8.717332e-06 1.424461e-05 2.027375e-06 5.521576e-06 1.3061166e-05 4.4935537e-06 1.0209351e-05 2.4309181e-06
1.0854833e-06 6.85151e-07 7.24512e-07 3.8133578e-07 3.1036555e-07 1.8125446e-07 1.1396934e-06 1.5477729e-06
8.094192e-07 2.9860664e-07 2.554631e-07 1.6079213e-07 1.4872809e-07 3.0276308e-07 5.5453665e-07 3.5088866e-07
1.1641629e-06 5.613414e-07 2.5236997e-07 3.3604658e-07 2.406029e-07 6.33669e-08 4.3972355e-07 2.6712087e-07
1.672057e-05 9.4165625e-06 1.0398596e-05 6.67074e-06 1.8743059e-06 2.724548e-06 1.32934865e-05 1.7171584e-05
1.4369551e-05 4.263827e-06 9.104151e-06 1.5767586e-06 1.0459067e-06 1.7878774e-06 1.5213448e-06 8.738907e-06
1.4850958e-05 5.041065e-06 5.454711e-06 2.7338035e-06 3.0773099e-06 2.875285e-06 4.016895e-06 3.9038155e-06
6.380958e-07 2.133128e-06 7.6376e-07 5.5185e-07 4.688447e-07 2.920886e-07 2.0749953e-06 1.7878385e-06
7.112822e-07 5.148255e-07 4.529222e-07 1.1469642e-06 9.6939e-07 1.0592028e-06 9.1552846e-07 5.6808375e-07
1.5056278e-06 1.7754331e-06 3.6684057e-07 6.9743385e-07 5.3007943e-07 4.325578e-07 8.3302683e-07 2.5107434e-07
2.5971904e-05 1.0530521e-05 1.035498e-05 7.7955265e-06 6.740973e-06 1.0737967e-05 1.3343161e-05 2.104885e-05
2.6263815e-05 5.544715e-06 9.894762e-06 8.232613e-06 1.2964435e-05 1.3544275e-05 1.0368537e-05 1.1469595e-05
1.6075443e-05 1.7184677e-05 9.05422e-06 6.2246545e-06 5.7546613e-06 6.3202983e-06 3.3252131e-06 8.449715e-06
2.5927568e-06 2.7370395e-06 1.9771207e-06 1.8023557e-06 7.6929786e-07 3.9843408e-07 2.132046e-06 2.5703102e-06
3.3183476e-06 9.159537e-07 1.8745637e-06 1.1060124e-06 2.0892896e-06 1.3957684e-06 1.3305295e-06 1.7864648e-06
2.6862074e-06 1.921502e-06 6.1701115e-07 8.484044e-07 6.652678e-07 1.6311134e-06 7.1357016e-07 8.2920815e-07
9.104724e-06 3.7123712e-06 5.254263e-06 1.8949843e-06 9.4251556e-07 2.5796826e-06 7.773156e-06 6.6158022e-06
1.3677351e-05 3.7426696e-06 2.8837942e-06 2.1254411e-06 1.505391e-06 1.0795683e-06 2.532777e-06 1.01624655e-05

exp_avg f4 [16]
00000000: c080 842e 1375 7a2f 512f 9dae 9cff 18b0
00000010: 4418 d2ad 6af1 7f2e bdab c9ae 3b8b 1b2f
00000020: 7a70 37b0 e070 5aae f54f 522e 1031 06af
00000030: ff34 292e b44c 47af d4dc 3eaf 0b06 1daf
6.0255356e-11 2.277896e-10 -7.1479385e-11 -5.566052e-10 -2.3885012e-11 5.8194706e-11 -9.1709286e-11 1.4146632e-10
-6.673485e-10 -4.9667714e-11 4.7819488e-11 -1.220466e-10 3.847322e-11 -1.8126195e-10 -1.7358853e-10 -1.4281214e-10

exp_avg_sq f4 [16]
00000000: 040a 7220 895f 9b20 ab86 5620 1ca8 c821
00000010: 982f 8d20 1601 d61e 38b1 2920 ca08 811f
00000020: 9ac9 5a21 2153 9d1f 4800 c81f ad11 3420
00000030: 1b7c fe1e b30d e41f 0187 8c20 7679 b41f
2.0501511e-19 2.632124e-19 1.8171063e-19 1.3597025e-18 2.3917824e-19 2.265858e-20 1.4373494e-19 5.4648165e-20
7.412809e-19 6.662961e-20 8.470376e-20 1.5252441e-19 2.6944625e-20 9.658442e-20 2.380626e-19 7.6433906e-20

exp_avg f4 [16]
00000000: 4185 92b9 eb8e 1bb9 71c5 f1b6 f655 18b8
00000010: 001f fbb9 8122 0fb9 611d 30b9 de3f 5d39
00000020: 83db 033a 954a 9038 6324 7138 71a9 0439
00000030: e552 7539 516c 3d37 704d 7439 807f 5db9
-0.00027946572 -0.00014835193 -7.205345e-06 -3.631968e-05 -0.00047897547 -0.00013650396 -0.00016795612 0.00021099995
0.0005029963 6.880347e-05 5.7492765e-05 0.00012651623 0.00023395901 1.1290497e-05 0.00023298501 -0.000211237

exp_avg_sq f4 [16]
00000000: 5629 4136 f522 b835 e2f2 f935 91fc 8336
00000010: f6ac 1d36 fd72 ce34 d7b5 6734 be3c 4536
00000020: 423b 1036 bcb6 0636 5e66 5e35 31a4 9f35
00000030: 190c be35 a2fe 0536 ca5c ff35 0202 0135
2.8783302e-06 1.3719242e-06 1.8622634e-06 3.933507e-06 2.34955e-06 3.8454155e-07 2.1579704e-07 2.9390644e-06
2.1492165e-06 2.0073921e-06 8.285041e-07 1.1894209e-06 1.4159624e-06 1.996676e-06 1.9025986e-06 4.8059167e-07

exp_avg f4 [16]
00000000: d30c 28b7 9b1e dfb6 e545 c3b4 8a72 b036
00000010: a27e 60b6 c317 9ab4 4418 7db6 18a1 8037
00000020: 53fa 4c35 ea78 2536 28f3 c1b6 36aa 8ab6
00000030: e3e9 2e35 fe68 97b6 057b 6eb7 fa3b d6b6
-1.0016566e-05 -6.649481e-06 -3.6372435e-07 5.258543e-06 -3.345231e-06 -2.8702024e-07 -3.7714062e-06 1.5333804e-05
7.636019e-07 2.4657297e-06 -5.7801553e-06 -4.1325357e-06 6.51604e-07 -4.5123734e-06 -1.4214548e-05 -6.384679e-06

exp_avg_sq f4 [16]
00000000: ed35 3530 22d2 aa31 a6d6 4130 72f8 5631
00000010: 577b 2c30 512d 8e30 8d8e db2f 36d7 f22f
00000020: 74c2 bc31 9229 1e30 983f e530 0684 0231
00000030: ac72 4930 39e6 4530 ae31 fb30 1697 be30
6.592405e-10 4.9715405e-09 7.0518025e-10 3.1282323e-09 6.274851e-10 1.034474e-09 3.9937156e-10 4.417246e-10
5.493627e-09 5.753914e-10 1.6680017e-09 1.8992536e-09 7.328633e-10 7.199535e-10 1.8276773e-09 1.3867261e-09

exp_avg f4 [32, 16, 3]
00000000: a5a6 ff39 7e49 1539 c772 d838 5a20 83b8
00000010: c093 3cb9 e44d df38 3701 b939 1090 c238
00000020: 507c d8b9 05f5 5038 23d4 27b9 b2eb 06ba
00000030: 6492 273a 5ec4 f639 02ea 32b9 ceb5 e0b7
00000040: 5b93 9a39 8bf4 96b9 dfaf a239 e323 b3b9
00000050: 5e1c fd38 ea57 96b8 da29 3a39 6005 c5b9
00000060: d7f2 2138 329a 2f39 4961 21b8 4de0 4438
00000070: b742 ca39 8c95 de38 d8ee 8039 633e 80b9
00000080: 0157 89b9 b439 53b9 69fd 00ba dc28 6939
00000090: a74a 073a ff7d 52b9 1e9c 6639 b97a 2839
000000a0: b3ac 1d39 b578 b4b6 0419 0aba d844 0939
000000b0: 5d6f 5037 9dc2 5739 56b4 41b9 c418 efb8
000000c0: ea13 5539 6782 8d38 2bac a339 1d3e b4b8
000000d0: 2ac2 ee38 517a a5b8 08bf 8839 5f54 feb9
000000e0: a700 4b39 7d4e 84b8 ed66 97b9 cac8 e5b8
000000f0: 247b 193a a52d 86b8 982b 9339 cb00 f139
00000100: 8d70 92b7 d1f1 dfb9 e4c8 c0b9 f5ff e9b8
00000110: 8d21 153a 124b 9039 eeac 15ba 8c93 ed38
00000120: 2462 9238 0dcf 8db9 2758 b539 a663 b139
00000130: 9038 8339 9e19 d0b8 f662 39b9 d2fc b9b9
00000140: c38a ae39 bd9a 07ba e472 8c38 d61e a4b8
00000150: 43ce 5db9 bcdd 4d39 8e1b ae39 86ea 3938
00000160: dd11 c7b8 eaf0 133a 310f b438 7ec0 e338
00000170: 2f9f 2bb9 2868 9cb9 a93d a0b9 51a3 073a
00000180: 0392 3c38 6fd5 a839 a60a fcb9 9c2e b0b7
00000190: 4c90 c7b9 8db1 40b7 afaf 5bba 883c 673a
000001a0: c953 c238 9f84 c5b9 92c4 d739 b8c5 d4b8
000001b0: ac65 3fba 07b5 c539 b888 a937 9877 c6b9
000001c0: 42e4 93b9 d4bc 263a 4bef c837 1429 3d3a
000001d0: 1199 6aba 6ba0 5aba c42f 433a c5ec e239
000001e0: ac3a 20ba cb7c 313a 3abd fdb7 4632 e2b7
000001f0: ac50 37b9 68ea cc39 62b9 88b9 9dc2 3f3a
00000200: 2fa1 12ba c9c7 2a3a 783c 8fb9 51a3 75b9
00000210: 1cb3 eb39 1265 1e39 714e 78ba e002 b7b9
00000220: 9a93 1d3a 46a4 b2b9 b778 a2b9 48f5 7bb9
00000230: 2354 093a 9144 81b8 ec90 8d3a 20d1 3aba
00000240: dfe2 ceb8 d7e9 b738 f7a9 0e3a 39da 3039
00000250: e727 b938 96a0 41b9 f365 3239 f17b 62ba
00000260: b460 1d3a 0d1c d0b8 7c65 9cb9 d5d2 3539
00000270: b647 a939 98af c5b9 6ea9 d939 33e2 133a
00000280: 8732 2bb9 9e21 c3b9 e0c3 21ba 958c cab8
00000290: b4fd 503a 8812 8f39 2acb 67ba a15f c139
000002a0: aa36 8737 af46 33ba 97e7 e139 2dfc ce37
000002b0: 4a1d 5739 a484 0db9 056c 84b9 18ad efb9
000002c0: 94f5 223a 6ff3 d1b9 ff91 d939 a3b8 6fb9
000002d0: 1bb9 ecb9 1533 e539 221b 053a 2f2c afb8
000002e0: 29cd fcb9 dc29 083a 9188 2439 2f30 73b9
000002f0: f5db bbb9 380f 20ba 0229 d1b9 7352 703a
00000300: 1822 633a d60e 0439 db3b 13ba b204 b7b9
00000310: 5382 03b9 e683 fc39 06e4 7339 1463 bb3a
00000320: 3adf fbba 0555 db39 857e dd38 a798 92ba
00000330: 31e6 aa39 6f0e b83a 2ff4 7dba 1427 81ba
00000340: 7a0c 453a c3ae 9c39 358d cf3a f12f d6b9
00000350: e3b0 9fba 2721 ebb8 a237 e13a ae05 c8ba
00000360: a229 8339 ffec 973a abd1 abba 352e 3739
00000370: 0bb8 4039 3db6 053a e989 653a b4f4 8d39
00000380: 78a0 cbba 9c65 3639 6179 b4ba 050f 483a
00000390: 1cf4 b23a 4369 80ba f98e 6bb9 da5a 5f39
000003a0: b4b1 503a d02f 91ba 16f2 1bba a67d 063a
000003b0: f310 c539 462d c33a 9e58 1a38 38cc f8ba
000003c0: 46fe 9d39 7fb4 1239 7aec 80b9 5e95 6639
000003d0: 88d5 09b9 7b37 79b7 1a0c b0b7 d4f7 ef39
000003e0: c657 fcb9 d279 1bb8 6d06 c9b7 9a26 89b9
000003f0: 4c70 4638 cf17 133a 20fb adb9 85d6 f9b9
0.0004876155 0.00014237125 0.000103210616 -6.252593e-05 -0.00017984118 0.00010647977 0.00035286855 9.2774746e-05
-0.0004129135 4.9819257e-05 -0.00016005388 -0.00051468157 0.00063923583 0.0004706708 -0.00017062578 -2.678754e-05
0.00029482957 -0.00028792428 0.00031030082 -0.00034168278 0.00012069264 -7.168933e-05 0.00017753933 -0.00037578773
3.8611553e-05 0.00016746743 -3.8475995e-05 4.6938938e-05 0.0003857815 0.0001061364 0.00024592015 -0.00024460544
-0.000261955 -0.00020144024 -0.00049205736 0.00022235833 0.00051609654 -0.00020074098 0.00021992667 0.00016067446
0.00015037022 -5.37847e-06 -0.000526801 0.00013090984 1.2423695e-05 0.00020576497 -0.00018473095 -0.00011401021
0.00020320682 6.747693e-05 0.00031218058 -8.594638e-05 0.0001138489 -7.890596e-05 0.0002608227 -0.00048509517
0.00019359832 -6.30887e-05 -0.0002887765 -0.00010956971 0.0005854836 -6.39812e-05 0.00028070505 0.00045967693
-1.7456967e-05 -0.00042714042 -0.0003677077 -0.000111579815 0.00056888984 0.00027521752 -0.00057096675 0.000113285234
6.9801026e-05 -0.0002704788 0.0003458869 0.00033834315 0.0002502841 -9.9229845e-05 -0.0001767984 -0.00035474316
0.00033291252 -0.0005172899 6.69712e-05 -7.825873e-05 -0.00021153041 0.00019632926 0.00033208396 4.4325854e-05
-9.492387e-05 0.0005643504 8.5858985e-05 0.00010860058 -0.00016367131 -0.0002983224 -0.00030563519 0.00051741773
4.4958677e-05 0.00032202477 -0.0004807312 -2.100254e-05 -0.00038063747 -1.1485431e-05 -0.0008380366 0.00088209705
9.266247e-05 -0.00037673578 0.00041154452 -0.00010145776 -0.0007301222 0.00037709644 2.0210035e-05 -0.00037854607
-0.0002820809 0.0006360535 2.3953287e-05 0.0007215899 -0.00089492 -0.0008339944 0.00074457773 0.00043282486
-0.00061122584 0.000677061 -3.0248066e-05 -2.696471e-05 -0.00017482293 0.00039084558 -0.00026078062 0.00073150714
-0.0005593476 0.00065147557 -0.00027320138 -0.00023425861 0.0004495614 0.00015105706 -0.0009472138 -0.00034906622
0.0006011069 -0.000340732 -0.00030988987 -0.000240286 0.00052386726 -6.163971e-05 0.0010800636 -0.0007126499
-9.8651035e-05 8.769676e-05 0.0005442197 0.00016865962 8.82892e-05 -0.00018465737 0.00017013382 -0.00086396845
0.00060034846 -9.923438e-05 -0.0002983025 0.00017340046 0.0003228762 -0.00037705596 0.000415157 0.0005641311
-0.00016326654 -0.00037218345 -0.000617085 -9.658296e-05 0.0007972375 0.00027288892 -0.00088422245 0.00036883078
1.6118709e-05 -0.0006838841 0.00043087892 2.4674542e-05 0.00020514909 -0.0001349622 -0.00025257483 -0.00045714597
0.00062164036 -0.0004004496 0.0004149824 -0.00022861599 -0.00045151342 0.00043716343 0.00050775905 -8.35288e-05
-0.00048218042 0.0005194226 0.00015691134 -0.00023192236 -0.000358313 -0.00061057834 -0.0003989414 0.00091675593
0.0008664443 0.00012594028 -0.0005616524 -0.00034907978 -0.00012541683 0.00048163458 0.00023259231 0.0014296495
-0.0019216307 0.0004183428 0.00010561667 -0.001118441 0.00032596433 0.0014042387 -0.000968757 -0.0009853565
0.0007516813 0.00029884846 0.001583493 -0.0004085298 -0.0012183454 -0.00011211848 0.0017182718 -0.0015260482
0.00025017286 0.0011591016 -0.001310875 0.00017469453 0.00018379108 0.0005100703 0.0008756207 0.00027075934
-0.0015535494 0.00017394725 -0.0013769084 0.00076316326 0.0013653073 -0.0009796995 -0.00022464608 0.00021300782
0.000796105 -0.0011076871 -0.00059488544 0.00051304174 0.00037587396 0.0014890812 3.6798992e-05 -0.001898176
0.00030134822 0.00013990885 -0.0002459025 0.00021990153 -0.00013144885 -1.4854474e-05 -2.098647e-05 0.0004577028
-0.00048130582 -3.7068334e-05 -2.396406e-05 -0.00026159437 4.7311463e-05 0.0005611153 -0.00033184234 -0.0004765281

exp_avg_sq f4 [32, 16, 3]
00000000: 74b2 4d35 9732 3035 cf1c 9035 9b0f 1f35
00000010: 2aba 8c35 a2a3 7735 7dc8 7a35 881f 9435
00000020: ffe6 ff34 d668 6f35 3ece 9535 ca60 f434
00000030: badd 6935 c1e8 9e35 315c 1635 bf5d bb35
00000040: 5495 2f35 016a 3035 2538 5935 3a1d 1535
00000050: a239 8335 ecb0 5b35 f844 a735 397a 1735
00000060: d297 a235 e07b 9135 f4cb 7235 fb41 eb34
00000070: bd2f cd34 9293 3a35 16ad 0735 5946 8b35
00000080: 786a 9835 f37a be35 b4f4 9d35 d2f8 ef34
00000090: 71fa ab35 add1 3035 bf8d 9335 ae69 3135
000000a0: 93ac 4f35 de18 3535 755e a535 4c44 5135
000000b0: 149b ba35 a774 1735 de42 6735 8dfb 9435
000000c0: 2ae4 9335 4dfd 5135 fcde 3035 60c4 f035
000000d0: 1193 4d35 fe4f 9a35 162c 5935 52b7 7f35
000000e0: 2b68 9b35 fce4 7d35 7c12 3135 507c aa35
000000f0: 9118 bf35 6d90 7135 dbe8 ab35 7ff2 4b35
00000100: 477a 9235 20e5 7635 e2f9 9135 3826 2e35
00000110: 39bd 2135 1936 9335 c4d8 b535 a893 c735
00000120: 7e96 4e35 7699 5135 e53e 9c35 da62 2935
00000130: 1a8f 9b35 490c 2635 bd04 a835 83d4 8d35
00000140: 1c35 9d35 6e6c b235 1350 9c35 cbb8 d335
00000150: c0a6 a835 e306 0936 67c0 8c35 5e00 9235
00000160: 16b4 4135 e7eb af35 2a3d e435 b617 1836
00000170: f271 8535 44e9 0536 eb61 fa34 61f7 8f35
00000180: 1b3d 3435 ccff c735 daa6 c735 070d a035
00000190: aaa7 1136 7292 dd35 b8a4 6136 f1cd 2436
000001a0: 614a 4e36 314e 6e36 d678 0b36 25f3 ff35
000001b0: ad8f 8d36 d047 4c36 31e3 9735 4040 2536
000001c0: 2a17 1c36 e554 1436 6f58 3e36 ad9b dc35
000001d0: 47d3 2836 650d 8236 a98f 4e36 aa8c 6936
000001e0: 1bfd 1236 9de1 0236 7384 a535 f24f 7a35
000001f0: 55ec f834 bb95 b435 2524 2d36 2efe 2836
00000200: 6f5e 4636 8ad8 6336 a597 4e36 e13d 9335
00000210: b6b2 4736 b5b1 bd35 94a0 8736 f7c9 f735
00000220: 5b13 1636 d4a0 9b35 998f 0336 3c46 4b36
00000230: 88de 7136 d043 2f36 d083 8d36 c171 6436
00000240: 954e c735 b6df 0735 4874 1e36 98bd bf35
00000250: 7383 8e35 81f8 b435 6229 ad35 d8d7 ee35
00000260: 4e0b fa35 d0bd df35 dba2 d535 8fec ee35
00000270: dc5b 0236 be15 ab35 4b38 0636 5e44 ac35
00000280: 6c7a 0136 b11c ad35 7786 ff35 c091 d735
00000290: f93f 9735 a41e 4736 3f68 0936 1bc4 5f36
000002a0: 351b 9635 1fb6 a135 12a4 2236 2093 4435
000002b0: 0697 f135 cd60 9434 26c6 3336 2ab2 4136
000002c0: cc85 f335 45d3 1f36 1545 f235 d45f 0d36
000002d0: bb17 f435 a4ad 2f36 fc3a 7536 2532 5135
000002e0: 1465 fc35 8e7f 1136 e701 1936 502e 1d36
000002f0: 1f9d 5836 78f3 3f36 d848 1136 7b62 f135
00000300: f12d 9636 c149 ee36 3a72 c036 9b76 2236
00000310: 01ca 4737 aae4 a236 609a 4c37 7a68 6537
00000320: 1392 cc36 a9e6 4437 1603 2c37 e902 8136
00000330: 8e22 f836 deb9 5d37 05a3 df36 06b5 3837
00000340: 0421 9836 7a18 1937 bb59 a636 aace 0037
00000350: 4722 3e37 2257 4137 7b2c 5237 aad8 2337
00000360: c8cd bd36 5450 4137 6e91 d036 8085 3536
00000370: 89f2 0936 3204 1837 d207 1537 996e 3637
00000380: d092 3c37 13d8 1237 27b0 5137 62d0 1b37
00000390: 4661 2537 d263 ea36 8efc 9a37 5b0f b636
000003a0: 0eb7 2337 f094 9936 8fc4 fc36 de80 fb36
000003b0: f85d 9737 22d8 bd36 f357 9337 b735 1e37
000003c0: 55fe 8c35 7a59 4735 6f11 0f36 d2d1 3935
000003d0: 7d3f c735 4aa9 e635 c67b 8335 0b6c 4736
000003e0: 39eb b035 64bb fc34 0de8 1636 ad73 9635
000003f0: f0ab e935 da45 2f36 2127 f735 72e7 de35
7.6628135e-07 6.563873e-07 1.073722e-06 5.9254825e-07 1.0484994e-06 9.225279e-07 9.3424006e-07 1.1036036e-06
4.7665523e-07 8.9186995e-07 1.116139e-06 4.5518965e-07 8.712192e-07 1.1839658e-06 5.601351e-07 1.3959869e-06
6.540988e-07 6.5719365e-07 8.09205e-07 5.5549356e-07 9.777034e-07 8.184131e-07 1.2462542e-06 5.642974e-07
1.2114126e-06 1.0839394e-06 9.0448816e-07 4.3820168e-07 3.821896e-07 6.950514e-07 5.054329e-07 1.0376781e-06
1.1355869e-06 1.4191886e-06 1.176863e-06 4.469826e-07 1.2813381e-06 6.587023e-07 1.0993607e-06 6.609142e-07
7.736464e-07 6.746394e-07 1.2320949e-06 7.795795e-07 1.3903214e-06 5.6421635e-07 8.615151e-07 1.110007e-06
1.1018758e-06 7.822717e-07 6.5889594e-07 1.7938546e-06 7.658246e-07 1.1497175e-06 8.0902953e-07 9.526167e-07
1.1578717e-06 9.458306e-07 6.5964537e-07 1.2702167e-06 1.4237759e-06 8.9989663e-07 1.2808263e-06 7.597627e-07
1.0913435e-06 9.197556e-07 1.0876067e-06 6.4875667e-07 6.025253e-07 1.0968098e-06 1.3548638e-06 1.4869629e-06
7.6959975e-07 7.808188e-07 1.164121e-06 6.3101254e-07 1.1590048e-06 6.1857696e-07 1.2518354e-06 1.0567168e-06
1.1712868e-06 1.3293591e-06 1.164621e-06 1.5774507e-06 1.2565506e-06 2.04186e-06 1.0486809e-06 1.0877955e-06
7.216016e-07 1.3107173e-06 1.7005125e-06 2.2663567e-06 9.942435e-07 1.9954323e-06 4.6637373e-07 1.0726327e-06
6.7144146e-07 1.4901102e-06 1.4875216e-06 1.192472e-06 2.1704277e-06 1.6508404e-06 3.3623492e-06 2.4557778e-06
3.0739686e-06 3.5510277e-06 2.078295e-06 1.9069745e-06 4.2188535e-06 3.044017e-06 1.1316498e-06 2.4624314e-06
2.3259295e-06 2.2103134e-06 2.8363681e-06 1.6436585e-06 2.515693e-06 3.8758612e-06 3.0780013e-06 3.4801583e-06
2.1903022e-06 1.9502834e-06 1.2332006e-06 9.3248593e-07 4.6365554e-07 1.3454622e-06 2.5800048e-06 2.5181903e-06
2.9559267e-06 3.3951678e-06 3.078466e-06 1.0970363e-06 2.9757334e-06 1.4133317e-06 4.0420073e-06 1.8461714e-06
2.2363008e-06 1.1595207e-06 1.9604106e-06 3.029024e-06 3.6041329e-06 2.6116504e-06 4.2174725e-06 3.404086e-06
1.4849526e-06 5.061696e-07 2.361152e-06 1.4285788e-06 1.0618081e-06 1.3483369e-06 1.2901548e-06 1.7795201e-06
1.8629742e-06 1.6670037e-06 1.5917134e-06 1.780123e-06 1.9424979e-06 1.2746821e-06 2.0000323e-06 1.2834896e-06
1.9293757e-06 1.2897855e-06 1.9038115e-06 1.6061167e-06 1.1268995e-06 2.9671146e-06 2.047527e-06 3.3343738e-06
1.1183789e-06 1.2048439e-06 2.4235383e-06 7.3229785e-07 1.7999853e-06 2.763758e-07 2.6788416e-06 2.8862946e-06
1.8143851e-06 2.3815821e-06 1.805051e-06 2.1066417e-06 1.8186323e-06 2.6178104e-06 3.6542178e-06 7.7931537e-07
1.8804881e-06 2.168093e-06 2.2799884e-06 2.342178e-06 3.2277965e-06 2.8602935e-06 2.1649084e-06 1.7984561e-06
4.4756966e-06 7.101539e-06 5.7353436e-06 2.4208919e-06 1.1908357e-05 4.854596e-06 1.2195291e-05 1.3673789e-05
6.096679e-06 1.1736215e-05 1.0252717e-05 3.8448384e-06 7.3949986e-06 1.3215902e-05 6.664896e-06 1.1009402e-05
4.5337965e-06 9.1252095e-06 4.9576315e-06 7.677512e-06 1.1332863e-05 1.1523984e-05 1.2527332e-05 9.766003e-06
5.656595e-06 1.1522399e-05 6.2158133e-06 2.704881e-06 2.0555765e-06 9.060883e-06 8.882913e-06 1.0873796e-05
1.1239856e-05 8.752587e-06 1.2498384e-05 9.287238e-06 9.857415e-06 6.985364e-06 1.8475836e-05 5.4258103e-06
9.758178e-06 4.577094e-06 7.5330677e-06 7.495385e-06 1.804436e-05 5.6578e-06 1.756472e-05 9.43004e-06
1.0504833e-06 7.426348e-07 2.1318808e-06 6.92232e-07 1.4845133e-06 1.7185605e-06 9.796283e-07 2.97162e-06
1.3181481e-06 4.7075002e-07 2.2486813e-06 1.1209537e-06 1.7409893e-06 2.611769e-06 1.8414322e-06 1.6607648e-06

exp_avg f4 [32]
00000000: d9db 822e 006d cdad d8b7 292e 6f49 b6ad
00000010: fe64 86ae 47d3 e2ae c0bb 8bae 4ef9 182d
00000020: 9fa6 18ae dd52 ec2d 0789 3f2d d184 74ae
00000030: a6e8 9dac 2dcc f8ad a2f3 052e 05ab f32c
00000040: 339c 902e 1059 ca2e 5ca5 18ad 4435 dd2d
00000050: ba5e 222e 2e30 71ae 8408 f8ad 2a17 962e
00000060: 3353 4fae baa3 9c2d ac32 e3ad 4788 b7ad
00000070: 82a1 a32d 9304 57ad d3fd 36ad a881 79aa
5.9507684e-11 -2.3354207e-11 3.8589437e-11 -2.0723616e-11 -6.111554e-11 -1.03148205e-10 -6.354339e-11 8.695556e-12
-3.4708788e-11 2.6866892e-11 1.0887519e-11 -5.559714e-11 -4.4880375e-12 -2.8285008e-11 3.0457088e-11 6.9254624e-12
6.5761084e-11 9.201717e-11 -8.676917e-12 2.5148446e-11 3.691867e-11 -5.4839848e-11 -2.8198117e-11 6.825325e-11
-4.7140247e-11 1.7807856e-11 -2.5829415e-11 -2.086521e-11 1.8602678e-11 -1.2222351e-11 -1.04018625e-11 -2.2160626e-13

exp_avg_sq f4 [32]
00000000: 6664 071f f241 921e 093d a61e eea2 3d1e
00000010: c7ae 5a1f c15d 181f ae3e cf1e e622 161f
00000020: aafa 021e 2908 0e1f a7b4 bf1d fef2 231e
00000030: e7a7 281e 931c 981d 2c41 851e 0e42 551f
00000040: 71f9 e61e 820d 4f1f 902a eb1d 822d cc1d
00000050: 5c99 a01e aac4 d11e 3784 a41e 5f49 9520
00000060: 12f5 021e 55ef bf1d 2e96 231e 7001 1e1e
00000070: 4577 b71e f666 ba1d f1e9 e61d 4c01 f81d
2.867041e-20 1.5485626e-20 1.7601177e-20 1.003927e-20 4.6307868e-20 3.2264803e-20 2.1942901e-20 3.1792603e-20
6.933979e-21 3.007642e-20 5.074407e-21 8.679398e-21 8.928567e-21 4.026361e-21 1.4108877e-20 4.5159144e-20
2.4455364e-20 4.384513e-20 6.224799e-21 5.4045404e-21 1.7004087e-20 2.2210074e-20 1.7418858e-20 2.5290135e-19
6.932822e-21 5.0804743e-21 8.6602046e-21 8.364748e-21 1.9425207e-20 4.934025e-21 6.1122383e-21 6.5646394e-21

exp_avg f4 [32]
00000000: f084 2c38 feaa 18b9 ecab 3ab9 9ca6 79b9
00000010: d612 1039 448e 8739 f09a c5b7 da44 3b39
00000020: 5020 0939 4f28 b738 805d b1b7 7e86 4439
00000030: cb46 7a38 0937 bb38 4caa 6638 dc9b 4139
00000040: 9398 5636 7151 4d39 d185 c538 cc7f d1b6
00000050: e664 7339 a652 8a38 4cf6 c3b6 894e 0139
00000060: 6cf5 5439 7038 e7b7 8016 cab8 693f a338
00000070: a25d 55b8 ccc3 69b8 df46 08b9 de2a 5538
4.1131803e-05 -0.00014559549 -0.00017802388 -0.00023808557 0.00013739927 0.00025855203 -2.3556378e-05 0.00017859359
0.00013077375 8.733628e-05 -2.1143584e-05 0.00018742119 5.9670576e-05 8.927106e-05 5.4994875e-05 0.00018463976
3.1977295e-06 0.00019580663 9.418617e-05 -6.243563e-06 0.00023211873 6.595747e-05 -5.8401256e-06 0.00012331655
0.00020309322 -2.7563627e-05 -9.6363015e-05 7.784257e-05 -5.087036e-05 -5.573388e-05 -0.00012996372 5.082308e-05

exp_avg_sq f4 [32]
00000000: 081e 1034 feee 2d35 5eb0 8635 abbc b535
00000010: ef68 2336 1ebc 3135 7438 3635 d3d7 e335
00000020: be7d 3635 a673 8634 f56a d933 7cb2 4135
00000030: a18e 4335 f0f2 3d34 95a7 a734 ca0f 4535
00000040: 6755 0336 334f 9534 774f 6734 fa29 7435
00000050: 0f85 2135 7fa6 dc34 e542 a335 12d9 2c36
00000060: 5267 7835 2e1b a934 6308 3a35 6136 cd34
00000070: 8d05 8834 0eb8 9835 d355 5e35 7968 f434
1.342197e-07 6.47953e-07 1.0035108e-06 1.354046e-06 2.4349972e-06 6.6211385e-07 6.7882434e-07 1.6975631e-06
6.798326e-07 2.504359e-07 1.0124305e-07 7.215783e-07 7.2850713e-07 1.7690377e-07 3.1228106e-07 7.3411195e-07
1.9570232e-06 2.7811038e-07 2.154246e-07 9.095817e-07 6.01708e-07 4.1099335e-07 1.2163915e-06 2.5756349e-06
9.253755e-07 3.149848e-07 6.9302604e-07 3.822379e-07 2.5336013e-07 1.137845e-06 8.2826335e-07 4.5524556e-07

exp_avg f4 [32]
00000000: aea5 4f39 6355 1439 31cb 85b7 9420 e637
00000010: 6075 1c39 de61 5739 71b0 84b7 d490 7eb8
00000020: cbfd 3a38 ac43 5738 b389 98b6 825c b938
00000030: 1ea3 eb37 2666 72b8 9998 fbb8 55f7 5439
00000040: 87e3 4739 7a72 54b9 e179 02b7 447b 48b8
00000050: 5096 1d39 2d3c 04b9 3f49 db38 22b2 cf39
00000060: 9959 a4b7 0801 fd37 3f69 9938 9e04 1737
00000070: 4765 2e39 d75d 2937 5657 c2b8 6ba5 bfb8
0.00019802779 0.00014146189 -1.5949454e-05 2.7433307e-05 0.00014921045 0.00020540456 -1.5817788e-05 -6.06932e-05
4.458222e-05 5.132302e-05 -4.5459833e-06 8.838718e-05 2.809014e-05 -5.779243e-05 -0.00011997036 0.00020310034
0.0001906288 -0.00020260541 -7.776981e-06 -4.7798516e-05 0.00015028683 -0.00012610918 0.00010456377 0.00039614836
-1.9592046e-05 3.016043e-05 7.315212e-05 9.001376e-06 0.00016631662 1.0095034e-05 -9.2669085e-05 -9.138401e-05

exp_avg_sq f4 [32]
00000000: 1c33 c635 bd3c 8e35 1b88 2033 4a24 b833
00000010: 273e dc35 34ee 3136 b634 bd34 17f6 1b34
00000020: 0a6f 3634 2ba4 1e35 0a13 4633 16b9 e534
00000030: 5ed9 4133 a8be 9934 62d9 8435 8828 7b36
00000040: e494 e935 78e4 5536 ef34 8a33 20b7 4c33
00000050: 9be7 e335 5f77 fe35 5dc9 9c35 2798 0a37
00000060: 8962 6f32 bed3 5432 372b ba34 c5b0 8931
00000070: f68b 8e35 b44c 2832 2cbe cf34 4e32 1f35
1.4767024e-06 1.0597502e-06 3.737669e-08 8.5747686e-08 1.6409366e-06 2.6513708e-06 3.5242346e-07 1.4525027e-07
1.6990467e-07 5.909848e-07 4.6117783e-08 4.2789242e-07 4.513401e-08 2.8637191e-07 9.898033e-07 3.7425507e-06
1.7403186e-06 3.187246e-06 6.435754e-08 4.7664003e-08 1.6980224e-06 1.8959216e-06 1.168151e-06 8.260867e-06
1.3934035e-08 1.2388169e-08 3.4676643e-07 4.007321e-09 1.0620558e-06 9.796327e-09 3.8695123e-07 5.930532e-07

exp_avg f4 [64, 32, 3]
00000000: 5409 bab5 98a2 ecb7 1185 53b8 8027 0939
00000010: ac03 8bb9 4243 8a38 95cb c7b8 352d 5f38
00000020: e192 bab8 73d3 c238 0377 2cb9 7c83 ac37
00000030: 2883 56b8 53e3 c037 357a 7eb8 4930 f038
00000040: b5cc 7537 5715 c8b8 2bb7 2ab9 2cc1 b638
00000050: e81f 61b8 d0ba 4535 47d1 8ab8 b322 0439
00000060: c558 dd37 a711 30b9 e68d 3239 19e2 cfb8
00000070: 706a 9a38 be00 2238 f264 0cb9 6bfd 9738
00000080: 1000 8938 87f5 9fb8 fe54 1ab9 98fd cd38
00000090: fc95 2838 da90 0db9 af60 e637 4bc4 fbb7
000000a0: 95ee 17b9 35bb 6b39 20f0 27b8 8b43 1bb9
000000b0: 77ff 7c38 6ec1 35b5 e55b 07b8 b5df 51b8
000000c0: 7ef3 4838 e7cd 3db8 b4d8 c938 cb21 8937
000000d0: c259 f338 499b 3137 39d3 a937 dd40 3bb9
000000e0: 21f9 a338 fc8c 8e37 ef01 6939 2471 05b9
000000f0: 13ae 6237 e011 f1b8 7be0 46b7 0398 ab38
00000100: df61 9bb8 2f51 3238 4204 e4b8 36f3 8fb8
00000110: 46f4 1638 faa4 11b8 d04f 0d39 99db 86b8
00000120: 4d17 14b7 cb75 06b9 2b78 3438 a81b d838
00000130: 4eee 8cb8 802e b238 ee2d b038 fe39 79b9
00000140: 9893 4138 6ac4 2f39 ee62 8a35 2f6c 01b8
00000150: 11c5 0d38 925c e1b7 4b07 0bb8 d5e1 3038
00000160: 956b a8b8 030e 0439 5df3 14b9 39e4 3839
00000170: 6c57 c3b8 a8b9 b638 d2b3 43b9 840d 1139
00000180: c26e 3439 5292 c537 b7be c7b8 83d5 a738
00000190: fcee 9038 2f6e 0fb9 4af7 af38 d4f1 52b8
000001a0: e357 1eb8 01ed 6eb8 14a6 e237 70cf cab8
000001b0: 396f 1239 a90d 93b7 40d9 fab8 0bff fe37
000001c0: ad9b c938 429a 6a37 aef7 8238 e5a2 0fb9
000001d0: d853 3eb8 d845 84b6 0484 dcb7 b64b 1cb8
000001e0: 41b0 ffb6 75b9 f9b7 567a 93b8 1147 9138
000001f0: bb4d b138 7d15 a538 3a41 06b8 9ad6 00b8
00000200: bff0 4137 9d9c 0239 f0c6 02b8 f7c7 9fb8
00000210: 173c 0739 1a87 ad36 2dd9 9ab8 caa0 7736
00000220: 22e0 5b36 4756 d6b7 1060 f0b6 ef16 77b8
00000230: 9d2a c3b8 b25a 6238 7ac5 32b6 859a c8b8
00000240: a210 0438 459d 5f38 0797 f437 0df8 e536
00000250: fdda 0239 8898 fd38 5de9 cbb8 50cd 64b7
00000260: b5e7 c6b8 76c5 29b8 e53e c837 db09 e038
00000270: 844e 0338 e2fa 43b8 1415 c1b8 cf90 be37
00000280: 0148 7a37 e12d 0738 7a32 1337 86ef aeb8
00000290: b61d 0cb9 cef0 3a38 e509 0a38 6493 b937
000002a0: 895b 8d38 5c2c 7db8 6a4f f7b8 4e15 8138
000002b0: 7512 af38 c186 ee37 9c82 ad38 a6ea 1338
000002c0: c88c 92b8 1a9a 86b8 addc 9238 6726 6d38
000002d0: fb83 d738 655d 6c38 9036 5137 6e60 be37
000002e0: 203e 5c37 5fd6 e637 186d acb7 eba8 9ab8
000002f0: 0022 8237 4b5f a4b7 7f18 b634 0fb6 1bb8
00000300: fc46 15b8 d8c0 f3b8 a260 41b8 1d05 2339
00000310: 6cde a2b9 e6c9 3b38 a68f 1ab9 103a e237
00000320: 2569 9cb6 c4c1 f238 8758 2eb9 2d33 17b8
00000330: 5c07 1fb8 09ba 15b8 6031 30b8 59ad e938
00000340: cfb0 b4b7 2f17 08b9 1348 83b9 44e2 3238
00000350: 72d3 5638 8819 9cb7 2556 a5b8 eca0 0639
00000360: e918 3437 70fd 39b9 4a4e 3039 6837 deb8
00000370: 9e2a 0139 8725 8038 8905 22b9 d897 1d38
00000380: 5b0b b838 8aa0 cdb8 9033 03b9 9f21 1c39
00000390: 6edf 8438 6eb2 2ab9 e37f 9638 89b2 c0b7
000003a0: 6919 2cb9 b612 4e39 9c18 38b8 1882 ffb8
000003b0: c15e d038 bdd5 c9b6 e7ed 66b8 76bf 21b8
000003c0: ea2f 2a38 26a0 dab8 4682 8d38 f5ef 2738
000003d0: 4d0e b138 49b3 24b7 7dd5 fe38 4e1f 34b9
000003e0: 0910 8c37 ff32 4d37 7537 6b39 4aae 29b9
000003f0: 1f23 3e37 00f7 a4b8 78b0 1438 8239 4a35
-1.3860795e-06 -2.8209106e-05 -5.0430248e-05 0.00013080053 -0.00026514882 6.5928805e-05 -9.5269796e-05 5.3209445e-05
-8.8965295e-05 9.290026e-05 -0.00016447534 2.0565225e-05 -5.1143725e-05 2.299404e-05 -6.0672133e-05 0.000114530856
1.46508e-05 -9.540718e-05 -0.00016280699 8.714417e-05 -5.3673895e-05 7.3660067e-07 -6.619334e-05 0.00012601427
2.638659e-05 -0.00016791244 0.00017028264 -9.912643e-05 7.363118e-05 3.86245e-05 -0.00013389045 7.247444e-05
6.532681e-05 -7.627444e-05 -0.00014718247 9.822397e-05 4.0194005e-05 -0.0001350077 2.7463158e-05 -3.0012938e-05
-0.00014489361 0.00022481086 -4.0039537e-05 -0.00014807114 6.0319402e-05 -6.770923e-07 -3.227209e-05 -5.0037826e-05
4.7910486e-05 -4.5252873e-05 9.624791e-05 1.6347409e-05 0.00011603862 1.0586177e-05 2.0244728e-05 -0.00017857873
7.8188496e-05 1.699337e-05 0.00022221332 -0.00012726017 1.35111795e-05 -0.00011495105 -1.1853986e-05 8.18223e-05
-7.409206e-05 4.2514115e-05 -0.0001087268 -6.864073e-05 3.5990284e-05 -3.472434e-05 0.0001347654 -6.430521e-05
-8.826913e-06 -0.00012823117 4.302726e-05 0.00010304834 -6.720108e-05 8.496363e-05 8.400889e-05 -0.00023768094
4.6152243e-05 0.0001676247 1.0310594e-06 -3.085675e-05 3.3800552e-05 -2.6865197e-05 -3.3146975e-05 4.2171992e-05
-8.030903e-05 0.00012593721 -0.0001420504 0.00017632627 -9.314608e-05 8.7130175e-05 -0.00018663637 0.00013833313
0.00017207398 2.3552366e-05 -9.524583e-05 8.00295e-05 6.9109694e-05 -0.0001367859 8.3907114e-05 -5.029312e-05
-3.7751986e-05 -5.696435e-05 2.7018636e-05 -9.670749e-05 0.00013965079 -1.7530127e-05 -0.00011961395 3.0397923e-05
9.613424e-05 1.3983403e-05 6.245017e-05 -0.00013698226 -4.5377616e-05 -3.9420374e-06 -2.6287518e-05 -3.726381e-05
-7.620111e-06 -2.9769473e-05 -7.032293e-05 6.927376e-05 8.454496e-05 7.8718156e-05 -3.2008837e-05 -3.071744e-05
1.15597495e-05 0.00012456109 -3.117969e-05 -7.618957e-05 0.00012896988 5.1715297e-06 -7.3837444e-05 3.689946e-06
3.2764005e-06 -2.5550964e-05 -7.1637405e-06 -5.8910748e-05 -9.306262e-05 5.3967065e-05 -2.6639013e-06 -9.565525e-05
3.1486743e-05 5.331381e-05 2.9157394e-05 6.8536087e-06 0.00012479346 0.00012092391 -9.7232616e-05 -1.3637662e-05
-9.4845345e-05 -4.047664e-05 2.3871145e-05 0.00010682988 3.1305957e-05 -4.6725276e-05 -9.206883e-05 2.2717197e-05
1.4917926e-05 3.2229236e-05 8.773635e-06 -8.341581e-05 -0.00013362509 4.4570123e-05 3.291098e-05 2.2122353e-05
6.740454e-05 -6.0361213e-05 -0.0001179267 6.155168e-05 8.348088e-05 2.843456e-05 8.273611e-05 3.5266065e-05
-6.988045e-05 -6.4183216e-05 7.0029266e-05 5.654097e-05 0.00010276582 5.6353765e-05 1.2470075e-05 2.2694669e-05
1.3127486e-05 2.7517961e-05 -2.0554799e-05 -7.374756e-05 1.551304e-05 -1.9594698e-05 3.3917965e-07 -3.7124435e-05
-3.5590478e-05 -0.00011623063 -4.6104782e-05 0.00015546796 -0.00031064765 4.4772307e-05 -0.00014740098 2.6968337e-05
-4.6614027e-06 0.00011575551 -0.00016626912 -3.6048867e-05 -3.7915408e-05 -3.5697627e-05 -4.2007654e-05 0.00011142594
-2.1540005e-05 -0.00012978607 -0.00025039967 4.2649233e-05 5.12185e-05 -1.8608538e-05 -7.883859e-05 0.00012839184
1.0734636e-05 -0.00017737388 0.00016813833 -0.00010596105 0.00012318275 6.110506e-05 -0.00015451586 3.7573132e-05
8.775919e-05 -9.8050645e-05 -0.00012512342 0.00014889844 6.3358675e-05 -0.00016278934 7.176378e-05 -2.297132e-05
-0.00016412664 0.00019652661 -4.3891938e-05 -0.000121835794 9.935862e-05 -6.015149e-06 -5.5057837e-05 -3.8563703e-05
4.0575782e-05 -0.0001042488 6.747669e-05 4.003938e-05 8.4426814e-05 -9.816905e-06 0.00012151429 -0.000171778
1.6696767e-05 1.2230826e-05 0.00022432006 -0.00016182024 1.133306e-05 -7.866137e-05 3.54503e-05 7.533455e-07
