test/2-classes/version_127/checkpoints/epoch=12.ckpt (torch_old, 13038 bytes, 21 tensors)

exp_avg f4 [24, 3, 3]
000000 d4 f0 0b bc e0 96 95 bb bb 88 3a ba d0 75 96 3b
       -0.008541305 -0.004565105 -0.00071157113 0.004591681
000010 d4 f1 2c 3b c5 3c 9a b8 25 a8 1e 3a 7d 0e 39 bb
       0.0026389258 -7.3546114e-05 0.0006052277 -0.0028237395
000020 c1 e0 41 b9 f1 e1 da 3b 2a ac ae 3b f2 01 91 b9
       -0.00018489642 0.0066797663 0.005330582 -0.00027658005
000030 68 5b c4 b8 64 53 10 bb 5d ac 22 b9 e3 91 a9 3b
       -9.363034e-05 -0.002202236 -0.00015513734 0.0051748618
000040 40 47 13 bb d2 20 82 bb b9 4b 6a bb 46 79 9e bb
       -0.0022472888 -0.0039711976 -0.00357507 -0.0048362343
000050 8e 6a 02 3a 4a 13 da 3a d3 f4 01 ba 3f 25 5d 3b
       0.00049749843 0.0016637829 -0.0004957441 0.0033744124
000060 70 b1 1a bb 54 be 31 bb da b2 16 3c 34 1a 80 bb
       -0.0023604296 -0.00271215 0.009197915 -0.0039093737
000070 97 8a 69 bb 54 01 c3 ba c6 d7 98 3b 5f f8 98 3a
       -0.0035635584 -0.0014877715 0.004664394 0.00116707
000080 1a 4b ac 3a e5 e7 92 ba 7c fa f5 ba 8a c5 26 3b
       0.0013144941 -0.0011208026 -0.0018766667 0.0025447332
000090 f0 c3 1a bb 78 2a 05 b9 34 7d e8 b9 23 4a 71 ba
       -0.0023615323 -0.00012699689 -0.00044343772 -0.00092044676
0000a0 ce f3 48 3a 7e 4c 78 3a 3e 8b 73 3a 54 e8 0f ba
       0.0007665724 0.00094718474 0.0009290463 -0.00054896367
0000b0 17 a2 74 ba ef cf bd bb 30 eb 36 bb f1 d4 cf 3a
       -0.00093320146 -0.00579261 -0.0027911179 0.0015856308
0000c0 ac 32 5a 3a e0 ac 65 39 9d ab 1b ba 1c fd dc ba
       0.0008323591 0.00021903543 -0.0005938353 -0.00168601
0000d0 3a 83 59 ba 83 19 a4 ba 73 40 3d 3b 9c 7f 50 3b
       -0.00082974473 -0.001251981 0.0028877526 0.0031814342
0000e0 3f fd 83 3b 10 59 ce ba 11 c4 a2 b9 c4 5f 1a bb
       0.004027992 -0.0015743095 -0.0003104513 -0.0023555616
0000f0 aa 84 80 3b 6d 48 1f bb 0b 54 0f bb a1 b1 95 3a
       0.003922065 -0.0024304644 -0.0021870162 0.0011420735
000100 4c 0b 9e 3b 8f 46 e7 3a 2c b0 ad ba 06 d4 2b ba
       0.004823124 0.001764493 -0.0013251356 -0.0006554726
000110 bd 75 ef b9 dc cd 6d 3b f2 b3 03 bb dc d5 ca bb
       -0.00045673354 0.0036286032 -0.002009627 -0.006190045
000120 fd bc 3b 3b d2 c1 56 3b f0 21 38 3a 79 63 f0 38
       0.0028646581 0.0032769335 0.00070241 0.0001146262
000130 9d 5b 28 bb 9a 29 d1 39 32 06 7f 3b 73 5b df ba
       -0.0025689371 0.00039894582 0.0038913605 -0.0017040804
000140 d6 e1 8e ba 95 e1 ad bb 52 10 02 bb 4c 94 1a bb
       -0.0010901045 -0.0053064325 -0.0019846153 -0.0023586927
000150 5b cb 58 3b a7 f2 55 3a be f4 c5 ba eb 6d 15 bb
       0.0033080194 0.0008161463 -0.0015102846 -0.0022801112
000160 b9 19 c6 b9 11 01 23 3b 9f e4 3a 3b bc 2c b8 3a
       -0.00037784668 0.0024872462 0.0028517616 0.0014051418
000170 39 4c ea ba c7 0c 62 3a 9d 97 fb b9 3d 38 2e ba
       -0.0017875499 0.000862312 -0.0004798741 -0.00066459534
000180 d2 b6 a6 3a 76 07 35 ba 74 a8 18 bb 69 e1 9d 3b
       0.001271928 -0.0006905714 -0.0023293765 0.0048181308
000190 7f 9d b9 ba bd ee 9a bb 8c 57 8a bb ca 74 98 3a
       -0.0014161317 -0.004728167 -0.004221862 0.0011631486
0001a0 b5 f1 eb 3a b6 dc ae b8 a7 d8 07 3b 45 04 ae bb
       0.0018001111 -8.338077e-05 0.00207285 -0.0053105676
0001b0 71 26 49 ba a5 5f e8 38 43 d5 2a 3a d0 72 ae b9
       -0.000767327 0.00011080437 0.0006516764 -0.00033273408
0001c0 09 a5 39 39 51 76 be 39 1c 5e 33 ba 44 9a 47 3a
       0.00017704455 0.00036327777 -0.00068423315 0.0007614235
0001d0 5b eb 14 ba bb 19 81 3b e4 3f eb 39 63 19 29 3b
       -0.00056808227 0.003939835 0.00044870295 0.0025802485
0001e0 45 59 ba b9 59 e0 12 bb e7 d4 b3 39 d6 79 4c 3b
       -0.00035543196 -0.0022411554 0.00034300165 0.003120055
0001f0 a5 39 1a b9 b7 c3 9a ba 2a 8c 5d 3b 00 f5 b6 3a
       -0.00014708059 -0.0011807595 0.0033805468 0.0013958514
000200 cd 16 83 bb 79 5f c1 ba 10 01 35 ba 21 f2 79 3a
       -0.004000521 -0.0014753185 -0.00069047604 0.0009534676
000210 c6 02 e3 3a cb 2b fa 3a c4 68 22 bb 09 00 13 3b
       0.0017319552 0.0019086538 -0.0024781683 0.002243044
000220 76 e1 1f 3b a4 f7 68 3b 54 fd 4c 3a 11 e7 a4 ba
       0.002439586 0.0035547996 0.0007819731 -0.001258107
000230 2c 66 31 bb cb 93 23 3b 35 45 eb ba 30 c2 3b 3a
       -0.0027068956 0.0024959918 -0.0017949702 0.000716242
000240 f7 c7 95 bb ce dd 22 bb 7b 5a 68 39 20 99 65 3a
       -0.004570957 -0.0024851444 0.00022158951 0.0008758474
000250 54 cd 31 3a c0 7c f0 3a 3d 81 6a bb a1 a2 80 3a
       0.00067826104 0.0018347725 -0.0035782598 0.0009814092
000260 85 28 3c 3b 08 af eb bb 6e bc 6f bb 72 5b 8e 3a
       0.0028710675 -0.007192496 -0.0036580819 0.0010860993
000270 02 82 de 3b a1 73 11 3b ff 60 84 ba cb 22 53 ba
       0.0067904005 0.0022194164 -0.0010099708 -0.0008054196
000280 9d d2 d0 ba e6 32 64 3b 58 65 d2 ba 56 c0 75 bb
       -0.0015931908 0.0034820377 -0.0016051931 -0.0037498674
000290 2c a4 8d bb 5a 53 6a b9 6c a9 2b 3b 2e 48 98 3a
       -0.0043225493 -0.0002234703 0.0026193513 0.0011618191
0002a0 be b4 8c bb 46 35 65 3b 1e 93 18 ba b3 89 ca ba
       -0.004294007 0.003497438 -0.0005820262 -0.0015452415
0002b0 e3 17 bd ba 3a aa 24 3b ec d7 c2 3a 7f 14 72 ba
       -0.0014426674 0.0025125877 0.0014865375 -0.00092346215
0002c0 c6 66 d3 39 7b 17 de ba 60 d2 61 3a 88 ec 1e 3b
       0.00040321628 -0.0016944254 0.0008614417 0.002424987
0002d0 2f d9 ac bb d2 63 cb ba 30 6d cd ba 14 c6 0c 3b
       -0.0052749137 -0.001551742 -0.0015672799 0.0021480368
0002e0 84 38 31 3b 97 e7 92 ba 55 a6 16 bb 0e fa b7 39
       0.0027041743 -0.0011207935 -0.0022987325 0.00035090785
0002f0 41 73 1e 3b 8a 71 8d 3a 07 7b 5b 3b 2d 3b 88 3b
       0.0024177583 0.0010791284 0.0033490078 0.004157445
000300 0e 26 20 bb 99 85 26 39 9d 2e 9e ba e4 ec 21 3b
       -0.0024436745 0.00015880763 -0.0012068335 0.0024707848
000310 1a d6 9e b8 3e 2f cd ba e1 c7 ae bb 7f 06 b7 ba
       -7.5739066e-05 -0.0015654338 -0.005333886 -0.0013963728
000320 44 c0 a5 ba d6 5d c4 b7 c1 32 10 3b 9f f0 00 3a
       -0.0012645801 -2.3408717e-05 0.0022002908 0.0004918668
000330 eb 30 68 bb 94 c4 af 3a 80 c4 16 39 bf f1 f0 3a
       -0.0035429548 0.0013410025 0.00014378317 0.0018382593
000340 09 67 4b 3b a6 ac 53 3b 6f 49 0e ba 96 96 a5 ba
       0.0031036756 0.0032298951 -0.00054278126 -0.0012633379
000350 89 3f f0 ba 36 c5 07 3b 29 cd 36 bb 47 e3 97 3a
       -0.0018329482 0.0020716912 -0.002789328 0.001158812

exp_avg_sq f4 [24, 3, 3]
000000 0b f8 da 38 ef 05 e4 38 56 a3 e4 38 10 b6 cf 38
       0.00010441252 0.000108729924 0.00010902311 9.904441e-05
000010 d4 04 99 38 6c 1a cf 38 fd de c5 38 cc a5 92 38
       7.296508e-05 9.8754506e-05 9.435227e-05 6.9927046e-05
000020 3b 18 c8 38 d2 10 0b 39 11 99 09 39 f1 ec 36 39
       9.5412564e-05 0.00013262339 0.0001312236 0.0001744514
000030 0e ac e0 38 af 52 01 39 7c 23 34 39 e7 95 f4 38
       0.000107132 0.000123332 0.00017179357 0.00011662748
000040 ff f2 01 39 e8 76 23 39 7a 40 8d 38 bc 98 b7 38
       0.00012392922 0.00015589187 6.7354136e-05 8.754569e-05
000050 fe 30 a0 38 53 52 a2 38 9d b1 ad 38 0b 73 90 38
       7.63852e-05 7.740096e-05 8.282366e-05 6.8878835e-05
000060 9b 99 8b 38 1f 9d a7 38 82 54 bf 38 0f b5 b9 38
       6.656648e-05 7.9924466e-05 9.1233305e-05 8.855212e-05
000070 fc 25 85 38 26 20 9c 38 7d 43 a1 38 3b c0 6f 38
       6.349009e-05 7.444648e-05 7.689649e-05 5.716107e-05
000080 28 9c 9f 38 21 4e 8c 38 3b 2d 5b 38 00 f9 9b 38
       7.610797e-05 6.690273e-05 5.2255793e-05 7.437356e-05
000090 e3 54 dc 37 98 cd f3 37 c4 0f c3 37 ba 93 e3 37
       2.6265572e-05 2.9063594e-05 2.3253153e-05 2.71293e-05
0000a0 73 5f ca 37 e2 03 d0 37 91 3e bb 37 fe cc cc 37
       2.4124723e-05 2.479734e-05 2.2321272e-05 2.4414152e-05
0000b0 73 de c1 37 94 a9 87 38 a7 91 51 38 d1 10 85 38
       2.3110979e-05 6.468888e-05 4.9965132e-05 6.3450665e-05
0000c0 f5 f1 8f 38 30 b0 0f 38 21 7f 52 38 e3 77 59 38
       6.8638394e-05 3.4257944e-05 5.01863e-05 5.1848485e-05
0000d0 34 b3 2d 38 ca 38 73 38 a9 2f b1 38 41 a6 91 38
       4.141331e-05 5.7988604e-05 8.448895e-05 6.945106e-05
0000e0 2e 84 ab 38 12 f0 9f 38 51 8e 83 38 6a 66 89 38
       8.178536e-05 7.6264274e-05 6.273075e-05 6.551745e-05
0000f0 1f 95 92 38 fb be 7f 38 01 2e 88 38 42 59 a8 38
       6.9895985e-05 6.0974602e-05 6.493554e-05 8.02749e-05
000100 f7 a2 b2 38 ce b3 a9 38 fc 20 b1 38 75 e1 96 38
       8.518056e-05 8.092039e-05 8.4461615e-05 7.194552e-05
000110 f1 cc 8c 38 d1 f0 95 38 d5 97 a4 38 f2 86 94 38
       6.7138935e-05 7.149729e-05 7.84841e-05 7.0823255e-05
000120 b8 b8 93 38 a1 d0 8b 38 45 ad b3 38 d9 00 85 38
       7.043913e-05 6.666897e-05 8.567659e-05 6.342092e-05
000130 2f b8 8f 38 53 a2 a3 38 8e fb 8c 38 3b 62 67 38
       6.853078e-05 7.802681e-05 6.722576e-05 5.5166176e-05
000140 1c 7c 98 38 33 d6 fc 38 63 e8 d4 38 db ef 09 39
       7.271042e-05 0.00012056194 0.00010152233 0.00013154691
000150 54 2f 02 39 aa 11 af 38 f0 7b 00 39 f0 2b f9 38
       0.00012415397 8.3479405e-05 0.00012253202 0.00011881429
000160 f8 44 ae 38 0c a1 0e 39 56 1c d0 37 d3 25 c1 37
       8.309813e-05 0.0001360217 2.4808727e-05 2.3025006e-05
000170 aa 74 d9 37 c9 61 be 37 e2 92 aa 37 0d 16 b5 37
       2.5922742e-05 2.26953e-05 2.0333977e-05 2.158715e-05
000180 51 a9 b4 37 74 8d b6 37 90 77 b6 37 9e 59 f9 38
       2.1536516e-05 2.176196e-05 2.1751766e-05 0.00011889938
000190 be 53 da 38 75 c5 b9 38 d3 a2 d0 38 d0 bd e6 38
       0.00010410648 8.858267e-05 9.948541e-05 0.0001100261
0001a0 80 14 e1 38 7e bb e3 38 46 63 c9 38 d7 0a d6 38
       0.000107326545 0.000108591266 9.602918e-05 0.00010206334
0001b0 8b 48 89 36 ae 68 79 36 5a 1a 64 36 41 0e 4a 36
       4.0913633e-06 3.7164823e-06 3.3989986e-06 3.0108642e-06
0001c0 bf 42 50 36 b5 b4 74 36 73 ab 58 36 a0 d3 77 36
       3.1033267e-06 3.6464019e-06 3.2286305e-06 3.692905e-06
0001d0 49 d2 67 36 1d b0 06 38 a1 e8 ca 37 95 26 fc 37
       3.4544084e-06 3.2112108e-05 2.4188603e-05 3.0058707e-05
0001e0 85 12 b4 37 7c be cf 37 34 f3 cb 37 d7 c0 a9 37
       2.1466296e-05 2.4765024e-05 2.4312736e-05 2.0236168e-05
0001f0 d2 ea 98 37 44 5a cf 37 38 d5 61 38 f3 d7 99 38
       1.8229159e-05 2.4718356e-05 5.3842756e-05 7.335832e-05
000200 e9 0e 82 38 3f d9 89 38 79 2d 66 38 bf 79 54 38
       6.20166e-05 6.573134e-05 5.4878623e-05 5.0658124e-05
000210 14 49 36 38 f8 79 75 38 b1 81 6b 38 9f 0e 13 38
       4.346024e-05 5.8526144e-05 5.614915e-05 3.5061148e-05
000220 7c c2 11 38 a0 f6 12 38 4d e9 f7 37 7d c7 12 38
       3.475182e-05 3.50388e-05 2.9553334e-05 3.49949e-05
000230 7c 09 e8 37 dd 76 0e 38 90 e3 dc 37 95 70 ea 37
       2.7660972e-05 3.396614e-05 2.633201e-05 2.7947399e-05
000240 c9 1c 6a 38 65 58 43 38 1f d4 7f 38 d0 77 68 38
       5.5816756e-05 4.6573947e-05 6.099429e-05 5.5424694e-05
000250 dd 0d 39 38 2d 69 79 38 72 dd 58 38 23 fb 43 38
       4.412035e-05 5.946418e-05 5.170465e-05 4.6725512e-05
000260 9e 36 6e 38 f4 7f 5f 39 5d 0c 40 39 87 49 5a 39
       5.6794488e-05 0.00021314604 0.00018315153 0.00020817491
000270 d8 10 55 39 22 08 18 39 fc 7e 80 39 b4 d2 46 39
       0.00020319538 0.0001449888 0.00024508673 0.00018961244
000280 b7 5e 30 39 ee 33 50 39 ee 6d 6b 38 d1 f5 78 38
       0.00016819952 0.00019855771 5.6130746e-05 5.9356742e-05
000290 92 e1 94 38 a3 ac 40 38 1e 52 46 38 c6 a2 7a 38
       7.099206e-05 4.5937148e-05 4.7283356e-05 5.975624e-05
0002a0 1b cd 6c 38 37 97 50 38 9e eb 73 38 a9 d2 02 38
       5.6457804e-05 4.9731894e-05 5.815515e-05 3.1190608e-05
0002b0 ca c2 ff 37 6e 7e 0f 38 11 c4 fa 37 a6 ce d9 37
       3.0489075e-05 3.4211604e-05 2.9893623e-05 2.5964644e-05
0002c0 c3 16 0d 38 66 59 e2 37 55 1d c9 37 38 1f 16 38
       3.3638218e-05 2.6982929e-05 2.3974726e-05 3.579186e-05
0002d0 f4 cb a2 38 69 7e a1 38 c3 89 95 38 61 ae 8e 38
       7.762751e-05 7.700624e-05 7.130534e-05 6.803568e-05
0002e0 f3 4d 90 38 3b 11 a3 38 54 b7 60 38 2e 9c 97 38
       6.880974e-05 7.775655e-05 5.35765e-05 7.229332e-05
0002f0 fb 36 a4 38 24 d1 41 38 08 65 2f 38 a4 5e 3e 38
       7.83037e-05 4.6209563e-05 4.1817344e-05 4.538767e-05
000300 47 28 22 38 52 1a 3a 38 3f ab 3d 38 09 d9 2e 38
       3.866132e-05 4.437037e-05 4.5220597e-05 4.1686963e-05
000310 3e c5 44 38 d9 9d 16 38 e0 7f 32 38 1f d8 33 38
       4.6913738e-05 3.5909794e-05 4.25576e-05 4.2878204e-05
000320 02 d1 2e 38 61 fa 0d 38 1f 7f 2c 38 cc 55 0b 38
       4.1679486e-05 3.3850203e-05 4.1126386e-05 3.3220087e-05
000330 c9 5d 1d 38 72 92 fc 37 8b d9 2d 38 bc 78 5e 38
       3.751906e-05 3.0108935e-05 4.1449017e-05 5.3041367e-05
000340 13 78 40 38 2c e5 59 38 2f c0 42 38 5e 57 2d 38
       4.5888195e-05 5.1950265e-05 4.643219e-05 4.132778e-05
000350 a4 1a 4a 38 7b 44 4a 38 98 71 35 38 e0 04 45 38
       4.8185364e-05 4.822433e-05 4.3259555e-05 4.6973e-05

exp_avg f4 [24]
000000 c8 37 a6 b8 56 83 71 38 da 4e 36 b8 06 dd 15 b9
       -7.925887e-05 5.7581194e-05 -4.3465618e-05 -0.00014292085
000010 2d f9 82 38 90 8d 0f 37 80 2e 31 38 6e 62 93 37
       6.245296e-05 8.556424e-06 4.2243395e-05 1.75696e-05
000020 2d a2 24 b6 46 0e b1 b8 e5 bb 3b b8 37 65 d1 38
       -2.4532303e-06 -8.442676e-05 -4.4759265e-05 9.984749e-05
000030 05 52 0b 38 c0 79 a7 38 93 57 00 38 2a 35 f0 b6
       3.321657e-05 7.985858e-05 3.0599138e-05 -7.1587465e-06
000040 50 2b 5b b8 14 c0 07 b9 0b f6 25 b8 40 02 08 b8
       -5.2254007e-05 -0.00012946158 -3.956821e-05 -3.2427022e-05
000050 ae ad 00 b9 39 e7 51 38 0a bc a5 b7 93 f6 01 38
       -0.00012271732 5.0044826e-05 -1.9757095e-05 3.0985637e-05

exp_avg_sq f4 [24]
000000 25 a9 bc 35 f9 1a 38 36 07 61 b5 35 88 ea a7 35
       1.4056319e-06 2.7433837e-06 1.351379e-06 1.2510727e-06
000010 b1 2b 0f 35 67 15 86 35 76 a7 8d 35 7f 2d c3 35
       5.333523e-07 9.990007e-07 1.0554056e-06 1.4541873e-06
000020 4f 09 cc 35 97 f2 0a 36 b9 30 0f 35 10 5e 86 35
       1.5201894e-06 2.0704808e-06 5.334255e-07 1.0011154e-06
000030 c4 66 b2 33 3a 8a a4 34 c9 61 14 35 54 83 59 34
       8.307464e-08 3.0647954e-07 5.527659e-07 2.0257477e-07
000040 cd 0a 5e 35 5e 27 61 36 cd 43 dc 34 f7 ed d0 34
       8.271716e-07 3.3550527e-06 4.1027525e-07 3.891616e-07
000050 f9 fd b9 35 d7 ab c8 34 f3 d2 a2 34 24 49 f4 34
       1.385749e-06 3.7377933e-07 3.0328337e-07 4.5501758e-07

exp_avg f4 [1, 24, 3]
000000 bb 33 92 bb 30 cf c2 3b 98 dc 8d 39 96 27 e7 3a
       -0.004461733 0.005945109 0.0002705797 0.0017635699
000010 88 32 e3 39 75 32 92 bb 43 93 1c bc 07 8a 47 bc
       0.00043334463 -0.0044615814 -0.009556594 -0.012178904
000020 ed f2 b7 3c e1 db f3 39 39 a4 9d bc 55 09 ba bb
       0.022454703 0.00046512394 -0.019243347 -0.005677382
000030 8a 41 e8 b9 ef 56 48 bc 78 d3 2a 3c 68 85 7c bb
       -0.0004429932 -0.012227758 0.010426395 -0.0038531665
000040 f0 21 76 bc 7b 44 62 bc 30 75 71 3b 9c 53 72 bb
       -0.01502274 -0.013810272 0.003684353 -0.0036976105
000050 8f c2 56 3b 6a cc f0 ba 22 e2 fd bb bb 8c 60 3c
       0.0032769775 -0.0018371467 -0.0077479044 0.013705428
000060 fa 48 db 3a 6d d7 8e bb 25 e0 b3 bb 0c 4a e8 bb
       0.0016730123 -0.004359177 -0.0054893666 -0.007088905
000070 9c 38 f9 3b f4 52 24 bb 69 cd db ba b5 e8 a6 3b
       0.0076056253 -0.0025073858 -0.0016769591 0.005093659
000080 22 ae c0 3c 9c ff 69 3b 05 0f f0 ba 6a 2c 7c bc
       0.023520533 0.0035705334 -0.0018315023 -0.0153914485
000090 3a 52 03 3b 5b 4b 69 3b 7c 3c 2f bc 85 5f 6d 3b
       0.0020038025 0.0035597894 -0.010695573 0.0036220264
0000a0 90 56 2b bc d0 cc b3 bb 6a 92 0b 3c 24 a1 0c 3b
       -0.01045765 -0.005487062 0.008518795 0.0021458352
0000b0 6a 79 82 ba e2 1b 12 bb fc 6a 23 3b 47 25 c5 3b
       -0.0009954397 -0.0022294451 0.0024935594 0.0060164067
0000c0 de b4 cf 3b 7f e2 3d 39 56 09 ae 3a 1a ad 8d 3b
       0.0063386997 0.00018108821 0.0013277929 0.004323614
0000d0 52 a9 87 3c b6 a4 8e 3b 29 8c 8b 3b 5b a7 28 3c
       0.01656023 0.004353131 0.0042586518 0.010293807
0000e0 a6 1c 8a 39 29 20 53 39 62 28 90 bc bf ae a5 bb
       0.00026342756 0.00020134509 -0.017597381 -0.0050562317
0000f0 7b c1 d3 3b 2a 5f 9a ba 0e 78 80 bc 86 c8 3e ba
       0.0064622737 -0.0011777629 -0.015682247 -0.0007277805
000100 77 3b 36 3c 4c 5c 60 3c 80 36 e6 3a 29 05 d6 bb
       0.011122576 0.01369388 0.001756385 -0.006531377
000110 56 fb cf ba f3 af d2 b9 a2 08 27 bb b1 9c 81 bc
       -0.0015867751 -0.00040185414 -0.0025487323 -0.015821787

exp_avg_sq f4 [1, 24, 3]
000000 83 02 8e 3a 1d db 95 3a d0 f7 74 3a b6 e8 4c 3a
       0.0010834489 0.0011433099 0.0009344788 0.0007816659
000010 4c 37 6b 3a c9 65 37 3a 0b 53 e5 3a 20 3d c4 3a
       0.00089727785 0.0006996063 0.0017496062 0.001497183
000020 d2 5f cc 3a e0 95 20 3a 5b 62 56 3a 9d f8 21 3a
       0.0015592522 0.0006125849 0.0008178108 0.0006178709
000030 c9 d1 97 3a 5b 66 8a 3a a7 66 5a 3a 82 a6 97 3a
       0.0011582907 0.0010559069 0.00083313364 0.0011570009
000040 09 43 bd 3a 23 be ab 3a e4 08 33 3a da 16 6b 3a
       0.0014439534 0.001310293 0.0006829633 0.0008967944
000050 dc 59 71 3a ad 83 0f 3a 86 64 09 3a 2b 89 50 3a
       0.00092068105 0.00054746383 0.00052411144 0.000795501
000060 79 04 e7 39 cc 3b fd 39 d6 df c7 39 49 b1 88 3a
       0.00044063086 0.00048300473 0.0003812301 0.0010428812
000070 85 44 95 3a 30 5a 8a 3a 2c 14 4a 3a ed 68 77 3a
       0.0011388218 0.0010555442 0.00077086943 0.00094379374
000080 2a 45 60 3a bb 94 64 3a f8 bd 6f 3a 6b 6d 9c 3a
       0.0008555228 0.00087196723 0.0009145434 0.0011934465
000090 05 7f 09 3a 9e 22 fc 39 73 93 fe 39 be ef f2 39
       0.00052450626 0.00048090977 0.00048556514 0.0004633646
0000a0 d6 7c db 39 33 b9 d9 39 16 e7 20 3a 79 0b 35 3a
       0.00041863945 0.0004152745 0.000613795 0.00069063116
0000b0 90 c8 2d 3a a4 25 56 3a 63 d4 80 3a 43 a4 65 3a
       0.00066293124 0.0008169061 0.0009828921 0.00087601336
0000c0 b4 93 d3 39 6f ee 9a 39 41 b1 b1 39 10 c9 8d 3a
       0.00040355104 0.00029550816 0.00033892135 0.0010817368
0000d0 b7 d5 79 3a 3f da 35 3a b1 90 77 3a 58 24 3f 3a
       0.0009530442 0.0006937123 0.0009443863 0.00072914874
0000e0 48 e4 94 3a 9c 0c 40 3a e8 25 61 3a 73 42 19 3a
       0.0011359537 0.00073260977 0.00085887173 0.00058463885
0000f0 bd b5 84 3a 66 62 40 3a b3 38 a8 3a 07 10 33 3a
       0.0010124963 0.0007338881 0.001283428 0.00068306964
000100 79 79 2f 3a 64 52 0a 3a b7 0b a2 39 79 d9 76 39
       0.0006693821 0.00052765594 0.00030907776 0.00023541403
000110 fd bc a8 39 43 0c 35 3a 85 b0 7b 3a ac e0 3b 3a
       0.00032184264 0.0006906429 0.00096011936 0.00071669626

exp_avg f4 [1, 24, 3]
000000 34 7b a5 3a d6 e4 3b 3b 1a 90 ee ba 79 7f ad b8
       0.0012625218 0.0028670332 -0.0018200905 -8.2730265e-05
000010 35 61 68 b9 df 3a 66 38 e2 0a aa 3a 47 ec 48 bb
       -0.00022161457 5.48911e-05 0.0012973214 -0.003065841
000020 6b cf 0c 3b 73 11 5b 3b 08 8a 4f ba 6f d2 8e ba
       0.0021485935 0.0033427149 -0.00079169916 -0.0010896454
000030 ed 2e 9a 3b 09 a5 3c bb 2c ad 2e ba 19 18 7c bb
       0.004705301 -0.0028784892 -0.0006663378 -0.0038466512
000040 8e 62 5e 3b f2 3f cf 3a fe 9c 8f b8 50 99 68 3a
       0.0033933255 0.0015811904 -6.8480134e-05 0.0008872943
000050 65 7f 13 ba 48 1f 32 3b 2e ef 59 ba 29 6d 03 bb
       -0.0005626588 0.002717929 -0.00083135336 -0.0020054078
000060 5f 7a ae 3a cf b0 b0 b9 59 b8 0b ba b7 f8 2a 3a
       0.0013311616 -0.0003370107 -0.0005329899 0.0006522047
000070 a8 5e 51 bb 8a 5a 0e 3b 33 67 1d 38 6e c2 30 3b
       -0.0031947289 0.0021721446 3.752783e-05 0.0026971358
000080 b5 78 2d ba a2 fe 90 3a d0 09 dd 3a 40 08 15 bb
       -0.0006617413 0.0011062215 0.0016863886 -0.0022740513
000090 16 54 c0 b9 0b 83 a6 3a 3d 27 b7 ba 4e aa bd 3a
       -0.00036683743 0.0012703849 -0.0013973486 0.001447031
0000a0 71 4a fe ba 15 e9 1f 3b ac 30 ef 3a 39 90 95 bb
       -0.0019400847 0.0024400402 0.0018248758 -0.004564312
0000b0 64 9c 0e 3b 09 99 2e 3a f8 04 87 bb 20 4e 19 3b
       0.0021760697 0.0006660377 -0.0041204654 0.0023392513
0000c0 2b a5 56 bb 35 63 1a 3b 94 74 49 3b 1e af 96 ba
       -0.0032752256 0.0023557667 0.0030739652 -0.0011496281
0000d0 dc 22 02 ba 1d 64 08 39 90 d4 62 bb 26 0d 9c 3b
       -0.0004964301 0.00013007266 -0.003461156 0.0047623096
0000e0 8c 32 5c ba 96 65 a2 ba ac 17 ac b9 4b a6 07 3b
       -0.0008399866 -0.0012389894 -0.00032824033 0.0020698484
0000f0 25 b1 ee ba 49 81 4d 3b 11 f9 63 b9 24 cd ce ba
       -0.0018210752 0.0031357578 -0.00021741191 -0.0015777689
000100 ad 66 14 bb f2 94 0d 3b 55 35 90 3b 02 92 17 bb
       -0.0022644207 0.002160367 0.004400889 -0.00231278
000110 b3 cd 44 ba e0 22 97 3a ef df 2b 3b 07 5f 40 bb
       -0.0007507458 0.0011530779 0.0026226004 -0.0029353516

exp_avg_sq f4 [1, 24, 3]
000000 0e f1 a1 38 50 07 ce 38 70 be be 38 a7 6f 18 38
       7.721978e-05 9.8242075e-05 9.095378e-05 3.634361e-05
000010 a9 c8 e0 37 39 21 17 38 ec fb c9 38 96 24 0c 39
       2.679632e-05 3.6032146e-05 9.631351e-05 0.0001336507
000020 bb 60 1b 39 38 bc 14 39 be 7e ce 38 22 5e ee 38
       0.00014817987 0.00014184497 9.846453e-05 0.00011366258
000030 90 00 79 39 76 b6 2e 39 27 9d 39 39 28 59 1f 39
       0.000237467 0.00016661905 0.00017701519 0.00015196635
000040 23 72 f2 38 fb 4a cf 38 1d 67 b1 38 40 46 7a 38
       0.00011560719 9.8844954e-05 8.459224e-05 5.967007e-05
000050 12 e6 7d 38 2b d7 1c 39 ae ab d1 38 73 c9 f6 38
       6.053417e-05 0.00014957476 9.9978744e-05 0.00011767717
000060 96 86 83 37 2f 67 ad 37 55 25 98 37 92 8c 50 38
       1.5679088e-05 2.0671256e-05 1.8137196e-05 4.972198e-05
000070 78 44 56 38 b2 24 44 38 db 56 5d 38 f0 46 4a 38
       5.1085342e-05 4.6764217e-05 5.2771396e-05 4.822662e-05
000080 21 ef 20 38 ef af 42 38 08 9a 50 38 c0 38 1e 38
       3.836968e-05 4.6417055e-05 4.9734517e-05 3.7722988e-05
000090 17 37 8c 38 73 71 9d 38 64 1b da 38 d8 0d b8 38
       6.6859815e-05 7.507475e-05 0.00010400152 8.776382e-05
0000a0 8d 52 d1 38 df 72 0b 39 53 a3 e4 38 ce 0d c2 38
       9.981273e-05 0.00013298866 0.00010902309 9.253212e-05
0000b0 b8 2a cd 38 16 0d 24 39 e5 90 46 39 9a f1 3d 39
       9.783119e-05 0.00015645134 0.00018936729 0.00018114448
0000c0 c5 24 62 39 9e 10 3e 39 41 5c 2b 39 47 02 28 38
       0.00021566737 0.00018126002 0.00016342198 4.0056442e-05
0000d0 f9 f0 dc 37 11 6a 17 38 84 ab 9a 39 84 68 82 39
       2.6338255e-05 3.6099987e-05 0.00029500958 0.00024873402
0000e0 2f 63 59 39 56 f9 24 39 ee fa f2 38 af c3 20 39
       0.00020731681 0.00015733144 0.000115861985 0.00015331687
0000f0 65 b3 9a 38 3f e0 8b 38 5b 4e 67 38 a9 63 13 39
       7.376707e-05 6.6698056e-05 5.5147666e-05 0.00014056139
000100 01 c0 2e 39 98 78 63 39 60 67 9d 39 33 07 52 39
       0.0001666546 0.00021693332 0.00030022394 0.00020029843
000110 d1 95 7b 39 3b 9a 75 38 e9 1b cd 38 27 bc c8 38
       0.00023993036 5.855619e-05 9.7803604e-05 9.571789e-05

exp_avg f4 [24]
000000 8c f2 33 3b 02 5e 04 ba 48 e4 c5 3a de a8 38 3b
       0.0027457802 -0.00050494086 0.001509794 0.0028176825
000010 90 9a 47 3b 63 38 c2 b9 77 af 1d bb 94 57 95 3b
       0.0030457117 -0.00037044575 -0.0024060884 0.0045575593
000020 04 f7 04 bb 85 5e 70 3a 77 f2 1c 3b 10 d4 c3 3b
       -0.0020288834 0.0009169358 0.0023948231 0.0059762076
000030 62 6e f7 ba a4 ca 8c 3b a8 b2 9a 3b a2 4c 89 bb
       -0.0018877501 0.0042966176 0.0047210045 -0.0041900435
000040 3f ca de 39 f2 71 8c bb c9 05 de b9 4e 81 5f bb
       0.00042493825 -0.0042860443 -0.0004234745 -0.0034104171
000050 52 0a 09 bb 8f 1e 18 3b e5 8a 96 3b a7 9a 0e 3b
       -0.0020910692 0.0023211574 0.0045941942 0.002175966

exp_avg_sq f4 [24]
000000 92 98 38 39 30 63 29 39 3f 47 21 39 f7 1a f4 38
       0.00017604444 0.00016154046 0.00015380698 0.00011639849
000010 f9 96 7c 39 47 8f a6 38 84 97 33 39 2e 57 2e 39
       0.00024088834 7.942184e-05 0.00017127214 0.0001662641
000020 d8 bb 9a 38 54 03 39 39 2f c1 98 38 ec a4 9a 39
       7.378281e-05 0.00017644215 7.283908e-05 0.00029496045
000030 82 9d 08 39 9a 6f b0 39 8b fa 54 3a 09 c1 16 39
       0.00013028647 0.00033652486 0.0008124492 0.00014377026
000040 ca 41 ef 38 01 ca 0d 39 9f f3 33 39 ba 97 26 39
       0.00011408662 0.0001352206 0.00017161526 0.00015887516
000050 11 ec 4f 39 8d 35 44 39 f6 81 7f 39 54 82 08 38
       0.00019829 0.00018711966 0.0002436711 3.2546304e-05

exp_avg f4 [24, 3, 3]
000000 50 90 be b9 07 54 29 3a 08 77 6a b9 99 d2 33 b9
       -0.00036347145 0.00064593594 -0.00022360322 -0.00017149224
000010 f4 d0 2a 3a d4 85 3b ba b9 73 84 ba e6 13 a5 3a
       0.0006516122 -0.0007153426 -0.0010105289 0.0012594431
000020 af bd 71 ba b3 77 08 b7 88 2e c6 b8 7a aa d9 38
       -0.00092216855 -8.134101e-06 -9.450043e-05 0.0001037912
000030 b5 ca 51 39 b3 8f 78 37 e3 c1 9d 39 55 c4 19 39
       0.00020007307 1.48154095e-05 0.0003008983 0.00014664356
000040 3d 4a a8 b8 d2 e4 c4 39 f1 74 c5 39 66 1b a4 ba
       -8.024692e-05 0.00037554518 0.00037661896 -0.0012520372
000050 8e 64 d7 38 7f 4f 07 b9 9a 99 b5 ba dd ce 2a ba
       0.00010270729 -0.00012904218 -0.0013854981 -0.00065158104
000060 80 36 55 3a fc ef 09 bb 1e a7 d9 b9 71 f8 af 39
       0.00081334263 -0.0021047583 -0.00041513977 0.00033563704
000070 c5 f2 f2 39 99 2b 77 39 3d 2d f6 38 ad e7 23 3a
       0.00046338714 0.00023571997 0.000117386204 0.0006252479
000080 88 3b 71 ba b6 e5 1c 3a b1 71 9d 3a c0 52 42 ba
       -0.0009202291 0.00059851573 0.0012012032 -0.00074128434
000090 c2 9d c4 39 de 3d 6f 38 5e 1c 05 3a 62 96 16 3a
       0.00037501572 5.703966e-05 0.00050777744 0.00057444547
0000a0 5b 51 05 3a a2 60 0b ba cb 64 93 3a 8d 2d 5a 3a
       0.000508567 -0.00053168286 0.0011245249 0.00083228276
0000b0 4b f1 a6 b8 8c 9c b4 b9 6b f2 72 38 88 3c 95 b8
       -7.960441e-05 -0.00034448912 5.7923065e-05 -7.1161485e-05
0000c0 dc 08 67 39 4e e5 9e 38 45 a4 02 3b 7b 62 c7 b9
       0.00022033177 7.5767384e-05 0.0019934338 -0.00038029611
0000d0 3d 67 bc b9 d2 28 f2 3a 07 51 a0 b8 3a d0 e8 39
       -0.00035935073 0.00184753 -7.644487e-05 0.0004440563
0000e0 00 f2 ea b9 f1 be 48 ba e0 9b 43 b8 1f 73 24 ba
       -0.00044812262 -0.0007657847 -4.6636793e-05 -0.0006273258
0000f0 ed e4 63 ba 42 bb 53 39 51 2c 8c ba 16 a3 c6 38
       -0.00086934754 0.00020192287 -0.001069436 9.471753e-05
000100 3c 13 20 39 83 91 b9 39 15 cd 05 3a 4a b3 11 3a
       0.00015265954 0.00035394364 0.0005104107 0.0005558027
000110 bd dd 16 b9 93 a0 0c 3a 19 c7 58 3a 65 fd 31 39
       -0.00014387719 0.00053645036 0.0008269414 0.00016974432
000120 5e 40 77 39 b8 f2 6f 39 c6 bc b4 38 86 2e 84 37
       0.00023579734 0.00022883236 8.618231e-05 1.575729e-05
000130 d2 16 47 39 4b 7f c2 39 6c 2a f9 39 34 38 76 39
       0.0001898662 0.00037097404 0.00047524588 0.00023481325
000140 0b 17 c4 39 32 40 83 38 b3 86 45 ba 52 b7 be 38
       0.00037401202 6.258524e-05 -0.00075350254 9.094052e-05
000150 e5 a9 76 38 5d 41 2f ba 8e bb 66 ba b7 a1 77 39
       5.8809197e-05 -0.000668546 -0.00088017515 0.00023615999
000160 08 52 72 ba 84 f6 2c ba b9 e8 88 b8 98 d9 14 3a
       -0.0009243791 -0.0006598013 -6.528333e-05 0.0005678176
000170 cd 3a 3e 38 bb 77 06 39 bb 4f 30 3a 99 08 97 39
       4.5354293e-05 0.00012823839 0.0006725748 0.0002880737
000180 41 b7 ff b8 98 45 84 3a ec 00 86 39 61 83 70 b8
       -0.00012193481 0.0010091541 0.00025559159 -5.7342815e-05
000190 f9 19 34 39 b7 75 83 39 7c 12 f2 39 db a3 0b 3a
       0.00017175813 0.00025073971 0.0004617161 0.00053268456
0001a0 be 9f 1f 38 85 07 47 39 c2 63 49 3a 6b 2d 87 39
       3.8057326e-05 0.0001898092 0.00076824066 0.00025783046
0001b0 07 2b 29 b8 aa 47 cf 3a 6d 68 3e 38 25 98 1c 39
       -4.0332812e-05 0.0015814204 4.5396784e-05 0.00014933998
0001c0 e9 a4 e1 3a 38 3a 13 3a 97 73 40 b9 c6 9d 2e 3b
       0.0017215285 0.000561628 -0.00018353607 0.0026644333
0001d0 62 a8 ce 39 e1 b2 55 3a 61 58 93 ba 35 e6 51 3a
       0.00039416837 0.000815196 -0.0011241549 0.0008007021
0001e0 bd d9 5b 3a 5a 26 38 ba 1c 20 55 3a ce b7 22 3b
       0.00083866325 -0.0007024758 0.000813009 0.0024828794
0001f0 a0 78 c4 ba b3 99 cb 3a ca 81 e2 39 de 0b 3d ba
       -0.0014989562 0.0015533477 0.0004320278 -0.0007211546
000200 99 e9 f3 38 6c 8a 41 b9 f2 e5 50 ba d7 4b cc ba
       0.00011630654 -0.0001845748 -0.0007968835 -0.0015586567
000210 9d 75 3a 3a 77 b6 73 ba 1a b2 ae ba e7 7d 0b 3a
       0.00071128627 -0.0009296904 -0.0013328225 0.000532119
000220 94 f1 fb b9 94 c6 48 39 5f 89 02 37 e3 d3 1f ba
       -0.0004805444 0.00019147462 7.780588e-06 -0.0006096942
000230 6e 79 10 3a 68 45 9b 3a 74 46 91 ba 0d 1b 34 3a
       0.00055112585 0.0011846246 -0.0011083619 0.0006870486
000240 72 46 00 ba ff a3 d1 b9 d8 0f f6 37 fa a0 ec 39
       -0.00048933097 -0.00039985773 2.9332863e-05 0.00045133365
000250 12 a1 1e b9 5d cc ad 3a 33 85 f7 b9 16 16 26 ba
       -0.00015128058 0.0013259758 -0.00047210752 -0.00063356885
000260 1d 7d b5 3a 1d eb 21 b9 52 e9 73 39 75 a7 9d b9
       0.0013846491 -0.00015441743 0.00023261204 -0.0003007014
000270 46 64 d3 b9 19 79 64 b8 9f f4 03 38 5a ab 28 ba
       -0.00040319766 -5.4472217e-05 3.1460655e-05 -0.0006434225
000280 d3 9a 82 b7 9a 4f 91 b9 db 6c 0c ba 86 64 f2 b8
       -1.5569303e-05 -0.00027715863 -0.0005356797 -0.00011558183
000290 f3 53 40 b9 29 2d ed 38 f3 f1 c0 b8 c6 8d 99 3a
       -0.0001834182 0.000113094524 -9.20034e-05 0.0011715225
0002a0 fd 1d 66 ba aa b8 e3 b9 fe 56 83 3a d3 b0 b3 39
       -0.00087782723 -0.000434344 0.0010020433 0.00034273285
0002b0 f0 8b f1 b9 53 4b 7f 39 2c f5 97 39 f0 7b fd b9
       -0.00046071364 0.00024346756 0.00028983632 -0.0004834826
0002c0 72 3e 00 3b 90 3a 91 3a 44 bc a6 ba 67 04 08 3b
       0.001956847 0.0011080075 -0.0012720902 0.0020754577
0002d0 c5 5c 8b b9 31 20 18 3a 72 a1 94 b8 da 40 14 39
       -0.00026581265 0.0005803137 -7.0872615e-05 0.00014138539
0002e0 68 bf 20 3a d0 a2 b5 3a 97 fe da b9 0a 97 32 3a
       0.00061320374 0.0013857726 -0.00041769884 0.00068126677
0002f0 f4 dd 9d 3a ef 68 93 39 78 0f d8 ba fd 4c 0f 39
       0.0012044297 0.00028116207 -0.0016484102 0.00013666223
000300 6a c3 1b b6 1a 93 df ba 6f 25 0c ba 08 ff 4e 3a
       -2.3210546e-06 -0.001705739 -0.0005346154 0.0007896279
000310 ac 74 2f bb 46 41 5d b9 d1 25 c1 39 44 e6 26 3a
       -0.0026772423 -0.00021100519 0.00036840004 0.000636671
000320 df 67 b0 39 3e 74 8f 39 8b a9 74 3a 82 cf 8c ba
       0.00033646726 0.00027361693 0.0009333125 -0.0010742994
000330 eb 79 42 3a 9e bc e0 3a bd 76 54 ba 77 68 a4 b9
       0.000741868 0.0017146056 -0.00081048516 -0.0003135835
000340 82 ef 4e 3a 91 0e 2f b9 89 31 ad b8 4e 19 58 3a
       0.0007893966 -0.00016694727 -8.2585095e-05 0.0008243517
000350 b9 58 96 b9 3c 88 5d ba 09 1e bc 3a 43 85 f9 b9
       -0.00028676333 -0.00084507815 0.0014352213 -0.0004759227

exp_avg_sq f4 [24, 3, 3]
000000 eb a3 80 37 40 b6 3a 37 97 b8 3d 37 e3 8d 7d 37
       1.533512e-05 1.1128897e-05 1.1308256e-05 1.5113011e-05
000010 b1 d4 28 37 74 d9 32 37 c0 8f 6e 37 a0 62 2d 37
       1.0063101e-05 1.06602565e-05 1.4219375e-05 1.03345665e-05
000020 bf 07 36 37 32 cb 82 35 86 7f 11 35 e9 3b 81 35
       1.0849849e-05 9.744892e-07 5.420228e-07 9.628685e-07
000030 d1 05 8b 35 58 7e 1a 35 68 3a 73 35 43 6d 89 35
       1.0358e-06 5.7553325e-07 9.0609547e-07 1.0239095e-06
000040 9b c1 fa 34 7d 35 6a 35 2a 92 85 37 18 04 c5 37
       4.6706995e-07 8.724963e-07 1.5922898e-05 2.3486136e-05
000050 ea 10 b1 37 36 9d 8b 37 6e ec c6 37 24 55 b1 37
       2.110792e-05 1.6643298e-05 2.3713535e-05 2.1139691e-05
000060 64 3d 6c 37 d3 ba be 37 90 34 b4 37 eb 1e 1f 37
       1.408099e-05 2.2736762e-05 2.1482148e-05 9.484337e-06
000070 9a 91 20 37 f4 a6 2f 37 61 fd 22 37 22 a6 28 37
       9.570644e-06 1.0469685e-05 9.714947e-06 1.0052261e-05
000080 76 e8 3f 37 74 c4 25 37 da 8b 27 37 42 94 3e 37
       1.1438611e-05 9.880507e-06 9.986537e-06 1.13594015e-05
000090 a1 4b fc 36 33 63 1e 37 10 18 e4 36 1d 8c 03 37
       7.5189896e-06 9.4406305e-06 6.7977307e-06 7.840831e-06
0000a0 f3 78 1b 37 c0 f7 00 37 15 92 fd 36 9c 99 25 37
       9.266881e-06 7.687078e-06 7.5569938e-06 9.870531e-06
0000b0 62 de de 36 12 02 be 37 6a 38 77 37 33 db d8 37
       6.6420043e-06 2.2650729e-05 1.4735482e-05 2.585128e-05
0000c0 79 72 ce 37 85 9d 8a 37 44 b5 e7 37 9b 75 d6 37
       2.461042e-05 1.6524233e-05 2.7621754e-05 2.5565552e-05
0000d0 5f 3d 60 37 bb 65 e4 37 d0 73 f3 36 fa b9 8c 36
       1.33657295e-05 2.722709e-05 7.2554467e-06 4.1939757e-06
0000e0 d1 16 bc 36 f2 b0 f8 36 89 6b 7a 36 c3 3a bd 36
       5.605493e-06 7.411575e-06 3.7315497e-06 5.6394797e-06
0000f0 b9 20 eb 36 db 00 7d 36 af 7f a4 36 42 6b 45 36
       7.007355e-06 3.7700436e-06 4.902445e-06 2.941772e-06
000100 6d 4a 9f 36 76 6c 6c 36 76 a3 53 36 05 8d 9e 36
       4.7472336e-06 3.5229873e-06 3.1536597e-06 4.7251838e-06
000110 d7 49 76 36 ac 70 3d 36 b7 00 9f 36 a1 dd 5e 36
       3.6699837e-06 2.8228778e-06 4.7386525e-06 3.3209583e-06
000120 da dc 2f 36 7f fa 45 36 f4 c1 21 36 f4 8f 3c 36
       2.6205585e-06 2.9501095e-06 2.4103765e-06 2.8097975e-06
000130 14 fb 58 36 f3 a5 2c 36 3c 77 39 36 49 2c 3f 36
       3.2332655e-06 2.5726592e-06 2.7636552e-06 2.8486995e-06
000140 38 12 24 36 ec d7 cc 36 27 94 f5 36 64 22 01 37
       2.444851e-06 6.1048104e-06 7.318816e-06 7.697006e-06
000150 9e 8e e6 36 65 f5 0f 37 ea 9f 0d 37 47 4e d3 36
       6.871137e-06 8.5806e-06 8.441488e-06 6.2974027e-06
000160 f9 fb eb 36 65 50 0d 37 a8 81 49 36 05 e7 a8 36
       7.0328792e-06 8.422973e-06 3.0026804e-06 5.0336844e-06
000170 e7 ea 94 36 76 d9 54 36 ea 55 b7 36 26 70 99 36
       4.43809e-06 3.171704e-06 5.4638267e-06 4.572811e-06
000180 52 71 2e 36 fe d8 a6 36 ba c4 a0 36 b0 44 e2 35
       2.5993982e-06 4.9724467e-06 4.7912736e-06 1.6858303e-06
000190 cb 58 52 36 af de 28 36 a4 a1 ea 35 ce 2b 53 36
       3.1344123e-06 2.516357e-06 1.7481402e-06 3.1466948e-06
0001a0 7e c2 24 36 e8 73 cb 35 a4 93 4c 36 0a ec 27 36
       2.4551114e-06 1.5158412e-06 3.0484307e-06 2.5022332e-06
0001b0 06 ff a1 37 16 a8 0b 38 f1 35 f3 37 d6 5e a4 37
       1.931145e-05 3.3296725e-05 2.8992976e-05 1.9594485e-05
0001c0 d4 3c 13 38 4f 2c fb 37 48 00 86 37 f0 47 09 38
       3.510418e-05 2.9942164e-05 1.5974176e-05 3.2730342e-05
0001d0 b4 15 03 38 5f 5d 43 38 38 cd 12 38 4f 67 00 38
       3.1253046e-05 4.657858e-05 3.5000237e-05 3.061379e-05
0001e0 cc 74 3f 38 1d 4e fa 37 b9 4c f5 37 1b 50 34 38
       4.5646724e-05 2.9838697e-05 2.9242003e-05 4.298995e-05
0001f0 d9 56 0a 38 ac 19 e2 37 37 cc 7c 37 c6 3e 86 37
       3.2982647e-05 2.6953254e-05 1.5067918e-05 1.6003276e-05
000200 a5 47 b2 37 46 d2 91 37 06 21 92 37 96 3c bd 37
       2.1252616e-05 1.7383263e-05 1.7419934e-05 2.2558768e-05
000210 93 d6 89 37 b2 9d 78 37 63 a1 b4 37 59 52 6a 37
       1.6431592e-05 1.4818668e-05 2.1532824e-05 1.396666e-05
000220 b3 e6 52 37 57 7b 31 37 66 0e 6c 37 dd 5c 41 37
       1.2570689e-05 1.0578739e-05 1.4070049e-05 1.1525318e-05
000230 a6 3e 23 37 fc cb 61 37 a9 68 46 37 d2 1a 22 37
       9.730144e-06 1.3458539e-05 1.1826088e-05 9.662197e-06
000240 86 27 69 37 a1 4f 25 37 bf a4 8e 37 4b 5d 7d 37
       1.38970845e-05 9.853306e-06 1.7004435e-05 1.5101697e-05
000250 f5 34 38 37 3c f8 9a 37 5c b1 85 37 4a 33 28 37
       1.0979585e-05 1.8473824e-05 1.5937425e-05 1.0025522e-05
000260 dd 11 94 37 f8 9f 2e 36 06 9d 24 36 6c a9 d9 35
       1.7651293e-05 2.6021135e-06 2.4529304e-06 1.6217068e-06
000270 8c c7 31 36 db c8 14 36 85 9a f3 35 d0 c9 28 36
       2.6491207e-06 2.2170632e-06 1.8149882e-06 2.5151421e-06
000280 4a b8 26 36 73 26 b7 35 b4 56 36 37 fc 4d 22 37
       2.4843198e-06 1.3645753e-06 1.08682325e-05 9.67411e-06
000290 2b 65 54 37 42 1d 47 37 36 fe 2b 37 f5 4d 6c 37
       1.265974e-05 1.1868136e-05 1.0251582e-05 1.4084847e-05
0002a0 3f 67 4f 37 3b 89 28 37 4e c1 5a 37 d3 62 1a 38
       1.23622e-05 1.0045532e-05 1.303882e-05 3.68085e-05
0002b0 3c 4a b6 37 da 05 fe 37 30 69 1b 38 5f 32 b2 37
       2.1730659e-05 3.0281884e-05 3.7052843e-05 2.124271e-05
0002c0 b3 a0 f7 37 00 e1 1c 38 8e 1d 9c 37 c3 12 00 38
       2.9519526e-05 3.7402846e-05 1.8610412e-05 3.053505e-05
0002d0 6a 6a 38 37 f6 64 2d 37 1b d1 71 37 fd 3a 52 37
       1.0992031e-05 1.033511e-05 1.4413406e-05 1.253071e-05
0002e0 89 e8 42 37 30 39 81 37 e3 8c 4c 37 8c 96 1f 37
       1.1617442e-05 1.5404628e-05 1.219215e-05 9.51219e-06
0002f0 16 77 7b 37 ae 8f c7 37 01 fd 0e 38 71 a8 ff 37
       1.4988493e-05 2.3789555e-05 3.4091066e-05 3.0476805e-05
000300 6d 59 cc 37 22 84 12 38 62 ae 02 38 cb 21 aa 37
       2.4360337e-05 3.493217e-05 3.1156822e-05 2.0281315e-05
000310 c4 50 0c 38 29 f4 06 38 c1 d7 82 37 9f 17 8c 37
       3.345382e-05 3.217548e-05 1.5597676e-05 1.67003e-05
000320 75 2e 90 37 ea 2b 84 37 7d 1d 91 37 67 c6 9a 37
       1.7187771e-05 1.5756075e-05 1.7299079e-05 1.8450619e-05
000330 f7 20 84 37 ba c2 90 37 26 6f 9c 37 3a 71 41 37
       1.5750977e-05 1.7256814e-05 1.8648407e-05 1.1530059e-05
000340 eb 6f 34 37 87 ef 20 37 ac 18 3e 37 0a 7b 28 37
       1.0754894e-05 9.5925125e-06 1.1330627e-05 1.0042228e-05
000350 d3 56 18 37 7c d2 2a 37 f1 f6 2e 37 d1 cc 1b 37
       9.080121e-06 1.0181797e-05 1.0428704e-05 9.2864075e-06

exp_avg f4 [3]
000000 f9 2f 9e 3b 0f f6 29 3c 30 bf 60 3c
       0.004827496 0.010373606 0.013717458

exp_avg_sq f4 [3]
000000 48 e4 00 3b 13 75 fe 3a 8f e5 ef 3a
       0.0019667316 0.0019413553 0.0018302667

model.conv1.weight f4 [24, 3, 3]
000000 43 5f c8 3d f9 fd 05 be 42 e3 dd 3d 18 c8 6a bc
       0.09783795 -0.13085164 0.108343616 -0.014329933
000010 38 ba bc be 73 cb 33 3e 6d 29 89 3e 94 12 67 be
       -0.36860824 0.17558078 0.26789418 -0.2256568
000020 fd 51 8c 3e 18 79 ee bc a9 41 62 3e 04 24 bf 3d
       0.27406302 -0.029110476 0.2209536 0.09333041
000030 a0 2f 0a be b4 99 7b 3e 35 85 82 3d 8b fc b3 be
       -0.1349473 0.24570352 0.063730635 -0.35153612
000040 c6 5e 06 bc 1b 78 a4 bd 66 29 9e 3e 6c 3e f2 3d
       -0.008201307 -0.08030721 0.3089096 0.11828312
000050 3e 81 b5 bd 64 5e 89 3e de a3 5d 3c c7 ad 7d be
       -0.088625416 0.26829827 0.0135278385 -0.24773322
000060 fc 65 a9 3e b0 62 7f be ce 06 60 be da 48 d5 bd
       0.3308562 -0.2493999 -0.21877596 -0.10414286
000070 ae 66 94 be c3 54 8f bc 5a 82 14 3d 23 d1 d8 bc
       -0.28984588 -0.017496472 0.036257125 -0.026466912
000080 e9 0b 02 3e 76 e3 79 3e 25 47 7e be 85 d6 a7 bd
       0.12699856 0.24403176 -0.24831827 -0.08195213
000090 8b 9e 6a bd e8 0c 60 be ce e4 50 be 6d 0a 5e be
       -0.057280105 -0.21879923 -0.20399782 -0.21683665
0000a0 5a 18 5b be cb a0 71 be 37 94 a9 3e 24 37 e5 bd
       -0.21396008 -0.23596494 0.3312089 -0.11192158
0000b0 0b 5b a8 bd 5a 1f ce bd b2 d4 d6 be fa 09 b8 bd
       -0.0822049 -0.100645736 -0.4195915 -0.08986278
0000c0 2c 9a 25 3e e3 50 7b be 03 93 9c 3e 7c 0a 93 bd
       0.16172093 -0.24542575 0.3058091 -0.07179734
0000d0 ea 4d 77 be 6a ad 89 3d 69 82 ed 3d 0a 49 77 bd
       -0.24150816 0.06722529 0.115971394 -0.06037239
0000e0 0c f2 04 3e bd 48 43 3e 66 bb 8e 3e f4 38 4f be
       0.12982959 0.19070716 0.2787735 -0.2023657
0000f0 65 5a 72 be 2e a1 54 3e dd d8 b1 be f4 ec d1 bd
       -0.23667295 0.2076461 -0.34735766 -0.10250273
000100 0e b0 71 3d 3d e8 32 be c9 1a 8f bd f6 4c de 3c
       0.05900579 -0.17471404 -0.06987531 0.027136307
000110 96 4f 74 be 33 23 85 3e 4f 0e ca 3d 77 df 48 be
       -0.23858485 0.26003417 0.098660104 -0.19616495
000120 68 9d fc bd 32 31 93 3d 27 6a 83 bd 06 b7 3f be
       -0.1233471 0.07187118 -0.06416731 -0.18722162
000130 8c 00 5b 3d 58 2d 03 bc 6b 62 46 3b e5 ee 96 3e
       0.05346732 -0.008006416 0.0030271064 0.29479137
000140 3e 9c 1b 3d b0 13 2f 3e 7e 6e 90 be a1 e9 2a be
       0.0379908 0.17097354 -0.282093 -0.16690685
000150 6b 24 24 be 71 a3 86 be a2 99 17 be 45 46 00 bb
       -0.16029517 -0.2629657 -0.148047 -0.0019573134
000160 37 c7 6c be b9 1a a9 3e 26 d9 51 bd 90 1d a7 3e
       -0.2312287 0.330282 -0.05123248 0.32639742
000170 06 ae 90 3d 84 6e 7f be 1a 62 57 3e fe cd 20 bd
       0.07064442 -0.24944502 0.21033517 -0.03925895
000180 29 d8 76 3e 4b 4f 35 bd 4c 6d 4c be 03 18 09 be
       0.24105896 -0.044265073 -0.19963568 -0.13388066
000190 a6 c5 cb be fb 72 82 3e 90 b1 0f be ea 81 4b bd
       -0.3979923 0.25478348 -0.14032578 -0.049684443
0001a0 c0 49 58 3d 5f ee cb 3d e2 85 67 bc e0 94 82 3e
       0.05280471 0.09957575 -0.014131041 0.25504208
0001b0 57 fc d3 bd 6c 8a b9 bd 6b d8 15 3d 8c 59 2c 3e
       -0.103508644 -0.09059605 0.036583345 0.16831034
0001c0 3b 59 05 be 75 f7 88 be 61 cc 6a be bb 64 6b bb
       -0.1302232 -0.26751295 -0.22929527 -0.0035918194
0001d0 8e e2 08 3d f3 d8 ba 3c fa b6 5b be b9 bf 09 be
       0.033419184 0.022808528 -0.21456519 -0.13452043
0001e0 4a 14 01 be aa a7 a7 bd f9 b0 ca 3d 58 0a 34 be
       -0.12605396 -0.08186276 0.09897036 -0.17582071
0001f0 d0 4f 6d 3e 0b 14 20 3d 8b ff dc bd 92 80 c2 3d
       0.23174977 0.039081614 -0.107909285 0.09497179
000200 f8 d2 2e 3e 64 44 0e bd 11 3d c0 be 4e 1f 21 3e
       0.17072666 -0.03473319 -0.3754659 0.15734598
000210 d2 21 00 be 2d 25 a0 bc 57 73 89 bd 1d 29 4a 3e
       -0.12512901 -0.019548977 -0.067114525 0.19742246
000220 08 a4 9d 3e 17 b5 c6 3d 95 fd 0b bd eb 4d 8f bc
       0.30789208 0.09702509 -0.03417738 -0.017493209
000230 8f 43 a4 bd cd f7 3d be 57 93 b4 3e 21 6d 22 be
       -0.08020698 -0.1855156 0.3526866 -0.15861942
000240 19 a9 2f 3e 32 a7 30 be 6b 25 f8 3d de 1e f8 3c
       0.1715435 -0.1725128 0.12116512 0.030288156
000250 ed 6c 11 3e 5d 8b ed 3c e1 bc 28 be 8c a3 e8 3d
       0.14201708 0.028997118 -0.16478302 0.11359319
000260 6e ce 4d be 66 12 3c 3e 50 44 c7 bd f0 20 a0 3e
       -0.20098278 0.18366393 -0.097298265 0.3127513
000270 e0 75 22 3e a9 6a be be bc 8f a8 bd 58 c5 b2 3d
       0.15865278 -0.3719075 -0.0823054 0.087290466
000280 d4 c4 8b 3d ef 64 cb 3d 19 0a 3b be c2 ef 84 3e
       0.06824651 0.09931361 -0.1826557 0.2596417
000290 93 78 30 3e ff 11 af be aa 17 aa 3d 03 1b f0 3d
       0.17233495 -0.34193417 0.08305295 0.11723902
0002a0 a3 b7 a3 bd 41 5b 44 bd e6 23 de 3d 69 e1 91 bd
       -0.0799401 -0.04793859 0.10846691 -0.07123072
0002b0 ea ba d3 bd 04 0b 4a 3d b3 81 36 3e dc 18 e6 3d
       -0.103383854 0.04932691 0.17822914 0.1123521
0002c0 fe 5a 0b 3e 93 a0 11 3e 44 42 c9 be 54 de 1a be
       0.1360893 0.1422141 -0.3930837 -0.15123874
0002d0 99 16 36 be 8d c7 23 bd 48 13 74 3e 39 c3 74 bd
       -0.17782058 -0.03998523 0.2383548 -0.05975649
0002e0 07 04 02 3e f2 96 15 3e 44 3b aa be 31 34 07 3e
       0.12696849 0.14608362 -0.3324834 0.13203503
0002f0 30 45 5c 3e 84 a7 f1 bc ce 60 ad 3e d5 6f 83 bd
       0.21510768 -0.029498823 0.3386292 -0.06417815
000300 90 0e 72 be 1f 37 b4 bd 01 11 f1 bd a5 33 28 3e
       -0.23638368 -0.08799576 -0.11770821 0.16425951
000310 0f 28 eb bc 09 02 bb 3d 8f 14 7c 3d 2a 57 17 be
       -0.028705625 0.091312476 0.061543044 -0.14779344
000320 2d 61 60 bd 31 03 48 be cb 4a a1 3c b8 ca ad 3d
       -0.054780174 -0.19532467 0.019688984 0.08485931
000330 4c c8 bf bd 3e f1 25 3e b6 3b 94 bb 73 78 7d bd
       -0.093643755 0.16205308 -0.0045237197 -0.061882447
000340 da a7 09 3e 1f 65 85 be 05 42 bd bc 2b ec 89 3e
       0.13442937 -0.26053712 -0.02310277 0.26937994
000350 b2 92 05 be e9 0a c5 bd 25 7c 34 3e ab b6 83 3e
       -0.13044241 -0.096212216 0.17625482 0.25725302

model.conv1.bias f4 [24]
000000 a2 3d 23 3f 51 36 5b bf ee d4 22 3f 9d 5a 19 3f
       0.6376592 -0.85629755 0.63606155 0.5990389
000010 35 e9 26 3e 27 4a 1e 3e 6d 4c e4 be 4d c1 9f be
       0.16299899 0.15457974 -0.44589558 -0.31202164
000020 ab 63 88 be 5a 84 2e 3f 28 cd 43 be 5b 71 ec be
       -0.2663854 0.681707 -0.1912123 -0.46180233
000030 d7 9b 30 bf 27 56 07 bf c1 bf 12 bf 45 45 5d bf
       -0.6898779 -0.52865833 -0.57323843 -0.8643382
000040 42 fc 67 3f 79 4a 8c 3f 41 77 48 3f 2c 7d c2 3e
       0.9061929 1.0960227 0.7830697 0.37986124
000050 3f 81 4c 3f 14 b1 18 bf af 42 27 3f 3c b1 38 bf
       0.79884714 -0.596452 0.65336126 -0.7214544

model.conv2.weight f4 [1, 24, 3]
000000 59 8b d3 3c 5a 51 a6 bd 9b 76 34 be b6 f2 9b bd
       0.025823282 -0.08120985 -0.1762337 -0.07614653
000010 a6 0c a8 bc e3 55 50 3e 65 38 84 3d 8c dd 56 3b
       -0.020513844 0.20345263 0.06456069 0.003278586
000020 f1 2c 24 be f0 cd bb bd 6a 00 57 bd 6f 75 fc bd
       -0.16032769 -0.09170139 -0.05249063 -0.12327086
000030 79 49 a5 3d 7f 5f 2c bd d9 b7 fd 3a ac c9 b2 3d
       0.080706544 -0.04208326 0.0019357159 0.08729872
000040 73 3d 31 bd 07 d0 ce bd 2f d2 08 bd b8 dc 53 3d
       -0.043271493 -0.10098272 -0.03340357 0.051724166
000050 d0 92 f4 3d f0 f8 9d bd e7 65 9e ba 5d ed 0a 3e
       0.11942065 -0.07713497 -0.0012084813 0.1356711
000060 93 66 b2 bd fc 64 aa 3c 0a 15 e1 3d d1 83 b9 3c
       -0.08710971 0.020800106 0.10990341 0.022645863
000070 3c 31 63 3c fc 2d 30 be 44 32 a0 bd 71 bf b9 bb
       0.013866719 -0.17205042 -0.078220874 -0.0056685735
000080 0c 6f b6 3c 3c ff 56 3c 2e a2 f7 bd a2 00 1c 3e
       0.022269748 0.013122376 -0.1209148 0.15234616
000090 31 fa 3c 3d c4 8e 07 bc 83 e0 d6 3b 14 cd 34 3d
       0.04613704 -0.008273784 0.0065575256 0.04414089
0000a0 a3 cc 48 3d d0 b1 99 3d a9 e3 20 bd 3a 9f 85 bd
       0.04902328 0.07504618 -0.039279614 -0.06524511
0000b0 2a a0 cb 3d 9a 27 21 bd 32 a5 c5 3d 06 f8 1b 3d
       0.09942658 -0.039344408 0.09650649 0.03807833
0000c0 8d b5 9f 3c dd 0e 06 bc 15 04 01 be 1e fe 90 bb
       0.01949575 -0.008182255 -0.12599213 -0.0044248244
0000d0 c2 aa 32 3d 66 35 6b be 74 f1 9d 3c 2f a4 bd bd
       0.04361988 -0.22969589 0.019280173 -0.09259831
0000e0 42 f9 c9 bd 89 b0 41 3c b9 8d 2a 3d 6c 68 8c bd
       -0.09861995 0.011821874 0.041639064 -0.068558544
0000f0 87 ce 55 bd 41 03 d4 3c 93 75 15 be d0 03 18 3c
       -0.052198913 0.025880458 -0.14595632 0.009278253
000100 6d bf 93 3d 17 c8 8c 3d dd c7 cd 3c f7 52 82 bd
       0.07214246 0.068741016 0.025119716 -0.063634805
000110 3e 4c 96 bd 74 cc 50 3b 4b c8 c7 3d 53 f4 59 3d
       -0.07338761 0.0031860145 0.09755 0.05321152

model.t_conv1.weight f4 [1, 24, 3]
000000 b7 1f 33 3e 8f 42 02 be 5f 14 ea 3d a1 e8 93 3c
       0.17492567 -0.12720703 0.11429667 0.018055262
000010 6f f1 38 3d 50 59 1e bc e4 11 7f be 01 ee 2d 3e
       0.045152124 -0.009664848 -0.24909168 0.16985323
000020 07 e3 1e 3c 91 1f ba bc cb 9c 02 be 46 a1 49 3e
       0.009697682 -0.02272013 -0.12755124 0.19690427
000030 e6 ee 81 bc c0 db 83 bb 5e e3 5c 3e 88 31 cd 3d
       -0.015860986 -0.004023999 0.21571109 0.10019213
000040 0d b3 be 3d 19 cb 89 be fe 60 03 bd 46 11 25 be
       0.09311495 -0.26912764 -0.03207492 -0.1611987
000050 bf d1 39 bd 6b 11 89 3d 00 5b f2 3b 28 bb 17 3e
       -0.045366045 0.06692775 0.007396102 0.14817488
000060 cf 9a 8c bd 1d e2 4a bd 44 53 41 bd 76 6b 7a bd
       -0.06865465 -0.049532045 -0.04719855 -0.06113764
000070 da 55 ee 3d f7 b8 e9 3d 7c 7d b9 3d 5f 16 a6 bd
       0.11637469 0.11412232 0.09057137 -0.08109736
000080 c5 a1 4c 3c e2 35 e0 3d 83 36 6e 3c b5 d5 e2 3d
       0.012489741 0.10947777 0.014539364 0.11075918
000090 0a ad 31 3e ff 27 83 be e6 bc b9 3c 2c 49 8a be
       0.17351165 -0.25616452 0.022673082 -0.2700895
0000a0 21 fa 74 3e 59 28 fd bb 90 1a 4a be 9f c6 1e 3d
       0.23923542 -0.007725757 -0.19736695 0.03876364
0000b0 95 83 2d 3e e6 14 75 be 54 6f 7f 3d 38 e3 f2 bd
       0.16944726 -0.23933753 0.06236203 -0.11859745
0000c0 0d 6c 22 3e a5 ef 42 3e b9 91 07 be dc ac 11 3c
       0.1586153 0.1903673 -0.13239183 0.008891311
0000d0 e7 79 82 bd e2 72 aa bd c2 2a 1c 3e 92 1f db 3d
       -0.06370907 -0.083226934 0.15250686 0.10699381
0000e0 ad 5c 29 be 7c 4e 2b be d5 65 0d 3e 4d f3 8e be
       -0.16539259 -0.16729158 0.13808377 -0.2792
0000f0 63 c6 03 3e 4e 12 12 bd 92 2c 25 be d1 5c 71 be
       0.12868647 -0.035661988 -0.16130283 -0.23570563
000100 76 46 87 3e a6 90 98 3a 30 45 4a 3c 21 c8 1b be
       0.26420945 0.0011639788 0.012345597 -0.15213062
000110 10 f8 86 3e 2a 03 35 3e ac 75 0c be d4 35 95 3d
       0.26361132 0.17676988 -0.13716763 0.072856575

model.t_conv1.bias f4 [24]
000000 4d b4 87 bd f5 f4 b3 3c b2 ca 67 bd 3c 93 88 3c
       -0.066261865 0.02196739 -0.05658979 0.01667177
000010 a5 b0 5d 3d df 9b af 3d 5f f6 93 bd 60 e2 27 3d
       0.05412354 0.08574652 -0.07224726 0.040987372
000020 7d 89 81 3d 2f 14 95 bd 17 a1 24 3d 3f 82 ec 3c
       0.06325052 -0.0727924 0.04019269 0.0288707
000030 91 5e e1 3d c9 a1 13 3e e0 19 a6 bd da 33 9c 3d
       0.11004365 0.14417185 -0.08110404 0.076270774
000040 b1 59 bf 3c 53 10 f7 bc 4a 4a 98 3a d9 e7 18 3e
       0.023358198 -0.030159151 0.001161882 0.14932193
000050 c0 0f a7 3d 7f 9d 95 bd 75 e1 f2 3c 6d 3e ce bc
       0.08157301 -0.073054306 0.029648522 -0.025176251
