exp/auto-conv/4-classes/version_21/checkpoints/epoch=66.ckpt (torch_old, 370171 bytes, 91 tensors)

exp_avg f4 [8, 3, 3]
00000000: a019 0b3a e7da 5b3a 4e65 d938 d9cd 9c39
00000010: e7fa 4b39 2e00 2aba 07f7 9fb9 90fc a237
00000020: c2be 61ba 4816 c43a ea24 983a d7e1 2aba
00000030: 38d9 f0b9 9403 dd38 542b 12ba 8280 a6ba
00000040: 2d6a 2bb9 d78a cd38 de87 8538 9fb5 d2b9
00000050: ff78 4c3a dccf bd39 89ab 0dba b348 133a
00000060: 36d1 e739 71f9 14ba 91b2 ff39 ca02 dcb9
00000070: 1bd2 5f39 b56d 1cba f71b 7fba cf84 6839
00000080: 43e7 a4b9 afae 98ba f358 0939 3aae af39
00000090: 8e1c a63a 9730 38b8 7bec 16ba 0a5b 49ba
000000a0: 933f 13ba ed7c e939 ef25 09ba b47f beb9
000000b0: 3d02 b73a bd99 ba3a efed 4f3a 701f 88ba
000000c0: 4217 1eba c346 24b9 0937 19ba c6cb c7ba
000000d0: d197 75b9 f002 6f39 c19c 033a a221 3d3a
000000e0: 2840 4b3a 1506 2a3a 9a4d 1bb9 08c9 a1b9
000000f0: 2004 b039 4360 b4b9 e5b7 2fba 828e 8237
00000100: 2b0c c3b9 9fa1 b6b9 f80c cb39 4041 0eb8
00000110: af09 45b9 dc15 a739 0e34 9239 b0c0 02ba
0.00053062476 0.0008386806 0.00010366236 0.00029908007 0.00019453057 -0.0006485012 -0.00030510893 1.9429513e-05
-0.0008611494 0.0014960254 0.0011607681 -0.0006518638 -0.00045938208 0.00010538768 -0.00055759144 -0.0012703093
-0.00016347384 9.801023e-05 6.3672414e-05 -0.0004018964 0.0007800012 0.00036203756 -0.0005404284 0.0005618438
0.00044215628 -0.00056829216 0.00048770432 -0.00041963748 0.00021345208 -0.00059672754 -0.0009731645 0.00022174719
-0.0003145282 -0.001164874 0.00013098474 0.0003350841 0.0012673305 -4.391427e-05 -0.0005757284 -0.00076811074
-0.0005617078 0.000445343 -0.0005231788 -0.0003633477 0.0013962459 0.0014236491 0.0007931878 -0.0010385346
-0.00060306874 -0.0001566662 -0.00058446877 -0.0015243224 -0.00023421577 0.0002279391 0.00050206116 0.00072147895
0.00077533955 0.00064858916 -0.00014810861 -0.00030858093 0.0003357241 -0.00034403996 -0.00067031226 1.5563568e-05
-0.00037202364 -0.00034834162 0.0003872884 -3.3916207e-05 -0.00018790991 0.0003186901 0.00027886074 -0.0004987819

exp_avg_sq f4 [8, 3, 3]
00000000: fbfb d337 ad08 3c38 585e 0f38 4c7f f837
00000010: 9f53 1438 6da4 d237 d4b4 0e38 8af9 4b38
00000020: c252 eb37 1e84 b737 855b 8138 efa4 4037
00000030: 7ac9 a437 61b8 ed37 f5b3 8837 1e29 d937
00000040: 6455 9a37 7ae1 f737 1eca c137 e446 1538
00000050: 469e f237 66e0 c237 7f2a 8a38 ccf2 c337
00000060: 3ad2 a137 ee4f a438 4d56 ab37 eec9 9838
00000070: 63a5 d836 4669 af37 3f44 5438 b889 5438
00000080: cdf0 5737 8ffb b337 6822 0538 4a3f 8d37
00000090: 1085 1a38 c97d a038 dcd7 1d38 3aad 7238
000000a0: 1d84 6538 364d 1638 7851 0938 7fc8 6738
000000b0: 155e 1838 ee90 8e37 794d 4938 9431 2238
000000c0: 2a50 e137 ae1c 6638 802c 0638 b897 ab37
000000d0: e523 2538 26ca 3538 17a5 5f37 5ff8 8d36
000000e0: 7705 1037 522d 3537 88b4 4636 4006 b536
000000f0: d016 be36 6134 1d37 5256 0837 6b4f a837
00000100: 1d4c 7736 303c 9d36 ea6c 7e36 8bd1 9536
00000110: b803 0d37 79bd 7337 6d84 4936 9660 9e36
2.5270498e-05 4.4830773e-05 3.418172e-05 2.9623181e-05 3.5363828e-05 2.5110518e-05 3.4023848e-05 4.8631373e-05
2.805272e-05 2.1876822e-05 6.168246e-05 1.1482493e-05 1.9644143e-05 2.833846e-05 1.6296262e-05 2.5887563e-05
1.8397994e-05 2.954969e-05 2.3101511e-05 3.559039e-05 2.892235e-05 2.3231096e-05 6.588268e-05 2.3358873e-05
1.929059e-05 7.8350175e-05 2.0424975e-05 7.285537e-05 6.456555e-06 2.0910647e-05 5.0608298e-05 5.0673e-05
1.2871064e-05 2.1455604e-05 3.1741714e-05 1.6837981e-05 3.6840385e-05 7.652824e-05 3.763275e-05 5.7858626e-05
5.4720895e-05 3.5834695e-05 3.273922e-05 5.526142e-05 3.6327245e-05 1.6995207e-05 4.7994286e-05 3.8669983e-05
2.685942e-05 5.4862983e-05 3.1989533e-05 2.0455438e-05 3.9372495e-05 4.334203e-05 1.3330274e-05 4.2310417e-06
8.584341e-06 1.0798993e-05 2.9609382e-06 5.394948e-06 5.665097e-06 9.370125e-06 8.12633e-06 2.0064143e-05
3.6850172e-06 4.6859714e-06 3.7912346e-06 4.46494e-06 8.405121e-06 1.4528044e-05 3.0028416e-06 4.720011e-06

exp_avg f4 [8]
00000000: 7c32 b138 e6f8 6037 8871 92b8 8486 14b7
00000010: 1155 aab8 9773 3838 e044 1db8 d1ac 22b8
8.449421e-05 1.3409392e-05 -6.982969e-05 -8.852807e-06 -8.1220765e-05 4.397667e-05 -3.749586e-05 -3.8784758e-05

exp_avg_sq f4 [8]
00000000: 36d6 7533 86c9 8c33 aed8 8833 de09 0733
00000010: 7a8b 9234 140c 1933 4548 f632 3341 9933
5.723833e-08 6.555915e-08 6.372407e-08 3.144111e-08 2.7296102e-07 3.5634073e-08 2.8671034e-08 7.1364774e-08

exp_avg f4 [16, 8, 3]
00000000: 1a62 fa39 9cc2 1bba b4f8 7ab9 8255 403a
00000010: 14ff 8039 6be6 4aba 5d05 ae39 63b3 bcb9
00000020: 2a1e 96b9 9669 7fb9 4833 59ba fe37 a539
00000030: 2cfa 26b8 7267 5f39 9f55 db39 be4f 6639
00000040: a7df cab8 30cf c239 8c06 ebb9 6384 a037
00000050: 139d d6b8 d932 55b9 085c 24b9 17f6 e838
00000060: 6b9f 7a36 1991 f639 3bb9 aab9 911a d9b9
00000070: ebdb 2739 438c 9039 fac2 c139 d0e7 26b7
00000080: f4c8 f638 5ff6 c139 b7d2 0139 3a75 deb9
00000090: 8534 b8b8 8cdb eeb8 ff32 bfb8 1b92 bcb7
000000a0: 8f03 8038 c7d7 b8b9 b2bc 4239 fbba 98b9
000000b0: 0910 7939 64de 1339 df41 70b8 6f87 19b8
000000c0: 0fd0 f8b9 e591 ffb9 e510 9539 0dba 8c3a
000000d0: 77d3 0b39 7011 81b8 92c5 e639 26b1 3e3a
000000e0: 110d 4ab9 ea0e 8cba 5c9f 7fb9 013b 6339
000000f0: af98 d1b9 eb40 2cb9 d7de db39 a08f 66ba
00000100: 4494 e4b8 1ff9 b739 9e24 f639 16ee 033a
00000110: e2c6 24ba a86e 8cb8 d056 ce37 127d a7b8
00000120: e614 47ba 909b cdb9 40ea 2d3a 0625 4b3a
00000130: b59a f4b9 ac5c 3cba 520a 173a fdc7 8a35
00000140: 4f9c bcba 3556 98ba e6b1 69b8 2357 063a
00000150: a1bb ddb8 53d4 b339 1205 8b39 8f0a 10ba
00000160: b180 c639 f552 4f3a 589a 9639 fe84 f3b8
00000170: 15a1 5cba 2f92 06b9 2259 7538 eabe 9cb9
00000180: e21c c136 9ce8 11ba 8504 d538 6d99 903a
00000190: 98f0 0c3a 62c9 50b8 4bee 343a 4ea7 443a
000001a0: 487c 18b9 37c4 43ba 146f 2dba 3e71 6238
000001b0: 85a0 3dba 40f8 77b9 a6d5 d838 351f 21ba
000001c0: b4c4 d5b9 f797 a539 6d7b ad39 2220 db39
000001d0: e6a5 9ab9 7a13 8bb9 d630 8c33 dddc 3eb9
000001e0: 176c 33b9 377d e234 49f6 14b9 a062 3639
000001f0: 6eed 6a39 f833 f638 8c52 f839 5610 a039
00000200: d4c3 8d37 dc66 b2b8 1891 0bb8 da13 57b9
00000210: e0aa 26b9 b8d8 86b7 c480 3639 b418 83b9
00000220: 7c5a 4f34 e8d7 a736 c732 8b39 74eb 6738
00000230: 688a 89b8 aa59 6b38 a3eb 23b7 1bf2 53b8
00000240: 0223 ccb9 bb81 bab9 4b6b 823a 4a9c aa39
00000250: cee3 3eba 182e 1eba cfe1 c3b9 44da 64b9
00000260: 5bd4 93ba ae74 74ba e542 0a39 1eb8 313a
00000270: 43a8 9fb8 72bf f938 f842 b6b9 33fb 40b9
00000280: 3ade 3c39 22af 113a 7001 cab8 a3a5 ea37
00000290: bb1a 09ba c4f8 6bb9 0122 fa38 a40f 73b9
000002a0: 26f9 73b9 f4ab 3039 9848 0339 d996 cbb6
000002b0: e952 6db9 3917 88b9 0306 54b8 d840 e6b9
000002c0: 395f d6b9 d978 46b9 6982 4339 b015 9038
000002d0: cd8b 8439 3a6a 9838 55cd 7937 5c47 9e38
000002e0: 8ea1 a239 f54d 2338 0746 86b8 c293 3db9
000002f0: bf03 4cb9 2357 5038 37c2 8db8 12b0 7fb6
00000300: 013d 64ba 0b12 d7b8 dc3a 813a 61bd c73a
00000310: a6fe 4739 544c c2b9 a9cc e43a 2d48 223a
00000320: 89d3 efba c275 edba 688e 16ba 3a3c 38b9
00000330: 1622 67ba 95d0 d2b8 0629 c736 7d4d ceba
00000340: b532 e638 3278 043a 4f79 813a 308b bfb8
00000350: 4441 a7ba 5484 95b8 186b d9b8 3b00 d8b9
00000360: 3a28 c2b9 ae87 4fba 03ec 4f3a 4cf7 153a
00000370: 497c 23ba fa83 0bba a2d4 1aba cd4a 3839
00000380: 69d1 0eba e383 68ba 283a a8b6 730a 613a
00000390: b4ea 6839 98d1 e139 1e0d c339 778a 47b9
000003a0: d737 4e38 cd3a 493a 924a e7b8 e471 bc39
000003b0: e5a1 40ba 57ae 3ab9 028d 7439 0d1d 2f37
000003c0: a81f 193a 6ffa fab9 22cb eeb7 7299 2339
000003d0: b125 1539 a10e b1b8 9097 e6b9 d236 5e39
000003e0: 3aff f439 9c8f 1339 575d e8b9 5b54 7939
000003f0: 3749 99b8 69ca 2ab9 c346 51b8 d341 2d39
0.00047756807 -0.000594178 -0.00023934507 0.00073369604 0.0002460411 -0.00077400234 0.00033191862 -0.00035991808
-0.00028632703 -0.00024358029 -0.00082855346 0.0003151297 -3.9810475e-05 0.00021305474 0.00041834728 0.00021964216
-9.673769e-05 0.0003715693 -0.0004482757 1.9135134e-05 -0.000102335725 -0.00020332205 -0.00015674543 0.0001110846
3.7345696e-06 0.00047028883 -0.00032562934 -0.0004140926 0.00016008287 0.00027570323 0.00036957097 -9.948344e-06
0.000117676245 0.0003699539 0.00012380896 -0.0004243048 -8.783586e-05 -0.00011389618 -9.1170885e-05 -2.2479382e-05
6.1041785e-05 -0.00035255981 0.00018571576 -0.0002913101 0.00023752464 0.0001410186 -5.7281806e-05 -3.6604175e-05
-0.00047457262 -0.0004874609 0.00028432082 0.00107366 0.0001333485 -6.154447e-05 0.0004401622 0.0007274322
-0.00019269089 -0.0010685597 -0.00024378061 0.00021670388 -0.00039977345 -0.00016427382 0.00041936964 -0.00087952055
-0.00010899504 0.0003509009 0.00046948058 0.0005032731 -0.00062857394 -6.6963315e-05 2.4597539e-05 -7.986477e-05
-0.00075943617 -0.0003921655 0.0006634332 0.00077493524 -0.00046654572 -0.000718544 0.0005761731 1.0340005e-06
-0.0014389845 -0.0011622371 -5.571721e-05 0.0005124679 -0.0001057305 0.00034299734 0.00026515924 -0.00054947374
0.00037861385 0.0007908785 0.00028725225 -0.00011611915 -0.0008416337 -0.00012833693 5.8495563e-05 -0.0002989688
5.7552106e-06 -0.00055659725 0.00010157473 0.0011032053 0.00053764274 -4.9778617e-05 0.00069019635 0.0007501737
-0.00014542148 -0.0007467898 -0.0006615978 5.3988064e-05 -0.0007233697 -0.00023648236 0.00010339478 -0.0006146313
-0.0004077308 0.00031584475 0.0003308909 0.00041794876 -0.00029496773 -0.00026526657 6.528141e-08 -0.0001820209
-0.00017111037 4.2186886e-07 -0.00014206128 0.00017393613 0.00022404428 0.00011739874 0.00047363748 0.0003052975
1.68997e-05 -8.5068605e-05 -3.327531e-05 -0.00020511393 -0.0001589465 -1.6074962e-05 0.00017404841 -0.00025004672
1.9311295e-07 5.0021226e-06 0.00026549978 5.5293975e-05 -6.558449e-05 5.6111872e-05 -9.770421e-06 -5.05318e-05
-0.00038935995 -0.0003557334 0.0009950189 0.0003254137 -0.00072818703 -0.000603409 -0.0003736154 -0.00021825085
-0.0011278497 -0.0009325248 0.00013185626 0.000677945 -7.613052e-05 0.00011908905 -0.0003476364 -0.00018404126
0.00018011863 0.0005557408 -9.632378e-05 2.7972104e-05 -0.00052301184 -0.00022504019 0.00011927263 -0.00023180112
-0.00023267101 0.00016848725 0.00012520177 -6.0674324e-06 -0.00022632968 -0.00025957244 -5.0550338e-05 -0.0004391733
-0.00040888207 -0.0001892777 0.00018645231 6.870495e-05 0.00025281162 7.267711e-05 1.4889364e-05 7.547319e-05
0.00031019415 3.893483e-05 -6.4026615e-05 -0.00018079489 -0.00019456352 4.9672217e-05 -6.759579e-05 -3.8100447e-06
-0.00087066 -0.0001025536 0.000985946 0.0015238934 0.00019072983 -0.00037059432 0.0017456013 0.00061905646
-0.0018297295 -0.001811676 -0.0005743266 -0.00017570044 -0.000881703 -0.00010052432 5.935438e-06 -0.0015739646
0.000109766996 0.0005053311 0.0009878072 -9.1335154e-05 -0.001276054 -7.129522e-05 -0.00010367314 -0.00041198902
-0.00037032535 -0.0007916641 0.0007931592 0.0005720749 -0.00062364765 -0.0005322095 -0.00059063185 0.00017575473
-0.00054480747 -0.00088697503 -5.0135604e-06 0.0008584626 0.00022212678 0.00043071504 0.0003720307 -0.00019029701
4.9166232e-05 0.00076763035 -0.00011028828 0.0003594301 -0.0007348343 -0.00017803289 0.00023322183 1.0437577e-05
0.0005841204 -0.00047870303 -2.8466402e-05 0.00015602054 0.00014223788 -8.4427425e-05 -0.0004398194 0.00021191992
0.00046729465 0.00014072511 -0.00044320032 0.00023777915 -7.309246e-05 -0.00016287867 -4.9895385e-05 0.00016523087

exp_avg_sq f4 [16, 8, 3]
00000000: d7cc a137 3ebf e237 1279 6537 36d8 4236
00000010: 3d33 2037 f1ae 6537 f932 2938 d37e 8637
00000020: 503c ee37 652e ea36 01ac 0637 fa06 8b37
00000030: 5fd0 8636 7c2b ff36 2c27 f936 28ee 7e37
00000040: a448 3c37 7351 9637 1caf 1c37 b605 bb36
00000050: 30ea f436 e8a6 cb36 780c b336 ad05 9f36
00000060: e229 9736 6fa6 0337 6fdf 1237 d72c 0d36
00000070: fb6b 7d36 4d23 c535 d285 d036 c08b 5c37
00000080: 9e9c c036 8435 0636 e221 6d36 d597 bf36
00000090: dc65 0236 b6b9 2f36 ca3e 0536 3b63 ed35
000000a0: 497f 7636 3bca 4037 6290 9035 8311 2236
000000b0: 2919 4836 831a 5a35 3d83 1136 1137 0f36
000000c0: 65fe b237 ca06 1838 3cde a937 1ac5 5437
000000d0: 0201 0237 85b9 6837 a81c 1838 6c16 c838
000000e0: 4b1f 3d37 7829 4537 c811 3b37 c0d1 8837
000000f0: bf8b ae36 f573 b836 852c 8b36 2fd7 c337
00000100: aaf6 9737 08c8 1a38 b61d 4937 16e3 4f37
00000110: 68b1 ed36 5c8a f836 8906 2a37 82a8 0d37
00000120: 95c1 5b38 6179 4838 dd46 8938 cf6b e337
00000130: 7116 6637 cf16 d637 3622 7f38 0637 1839
00000140: 4bdb 7438 0efc 6b38 da85 1637 40fc c437
00000150: fc08 1c37 5743 2a37 f331 0a37 8d4a 9e38
00000160: a3bd d737 a5cd 1c38 9375 2838 36ec 8437
00000170: 2613 cf37 33e4 0537 b43c 9437 3b66 4737
00000180: 7ef5 3b37 dea1 ec37 288b b437 3f12 da36
00000190: 2b58 2d37 b035 be36 5267 ee37 03cf 4738
000001a0: d00d 6337 347e 9c37 7800 b936 e709 8b37
000001b0: 622b e836 82ea 3137 8352 ae36 f5ef cc37
000001c0: 120f 8737 563f d137 6427 a436 d743 1a37
000001d0: daf1 8a37 487e bd36 1b0c 3937 c647 ce35
000001e0: a6bb 6a35 e603 0d36 9f32 e335 d636 ed35
000001f0: d323 1535 b989 6e35 b33a 2e36 2ee4 8d36
00000200: f139 8335 919a df34 ce17 0f35 df97 9c34
00000210: 14a3 a935 2a25 9735 4f01 7e35 f99e 2a35
00000220: bbfa a535 1525 f235 68e6 ff34 365d 8935
00000230: cbc7 1f35 f658 9734 abfa ad34 bcbb 1d35
00000240: 9488 9736 57d6 b436 53d5 4537 9ad4 8336
00000250: b631 cc36 ebba 5f36 2853 1e37 39d8 2537
00000260: 9a3e 3337 d4ae cb36 ef86 6936 5634 8136
00000270: 0074 3c36 f386 bd36 fe2c 9f36 efb2 f736
00000280: 7c1c e836 ab7e de36 ac4c da35 ded7 dc35
00000290: b020 b636 fbe6 eb35 6b9b 5e36 fca0 db35
000002a0: b4f6 ca35 8188 5736 c154 8f35 b011 6535
000002b0: 0a1a 6435 5e73 4635 9b9c 8236 6c1c 8636
000002c0: e1d3 5e36 d490 6135 6bd0 5b35 9c8f 2336
000002d0: 3eb3 ac35 9667 9135 ef99 8e35 17e6 7a35
000002e0: 4b68 3236 164c 1336 7d71 3235 bed3 6f35
000002f0: c697 0435 1151 dc34 eadd a635 5975 1635
00000300: 4d66 0038 ebd5 bc37 04ee bf37 46e0 9137
00000310: 6e0b 2337 e075 9937 7a0c 0a38 ff8a 8538
00000320: 6509 5638 1597 8d37 882d 5537 64ca 9037
00000330: 3a53 b937 c882 d037 74e5 bb37 35b8 f637
00000340: 562c b537 9955 2238 7e36 7f37 7334 2837
00000350: e430 1737 5429 1737 0f62 0137 ab37 7137
00000360: ef29 a837 e508 f837 6f72 6e38 e4fb 3437
00000370: 92af 7637 53a7 2536 9483 9937 7164 8e38
00000380: 8747 2938 5259 8537 af82 4737 3489 7b37
00000390: 3273 ab36 3c6d a136 093a d736 f696 8e37
000003a0: 541d 6837 7e4c 1938 6b10 ac36 066d 1637
000003b0: dde8 9b37 0d77 8d36 ae79 1437 ceb8 4a37
000003c0: 7362 4237 a8d6 2a37 a999 a836 f015 1c37
000003d0: 0948 7e35 3286 2836 00dc 8b37 3fbb b337
000003e0: d469 6537 ab84 df36 69b7 1237 d44c 2936
000003f0: d772 8236 1f93 9135 e3af 1536 10f3 fb36
1.9288082e-05 2.7030354e-05 1.36776525e-05 2.9034104e-06 9.548673e-06 1.3690195e-05 4.0340212e-05 1.6033102e-05
2.8399896e-05 6.9791445e-06 8.02707e-06 1.657334e-05 4.017769e-06 7.6046545e-06 7.4253385e-06 1.519503e-05
1.1222586e-05 1.7919321e-05 9.339095e-06 5.573699e-06 7.2990297e-06 6.069302e-06 5.3360673e-06 4.73923e-06
4.5050265e-06 7.846959e-06 8.7543e-06 2.1036738e-06 3.776279e-06 1.4687918e-06 6.214462e-06 1.314556e-05
5.7402785e-06 1.9998706e-06 3.5335474e-06 5.709919e-06 1.94308e-06 2.618513e-06 1.9855092e-06 1.7686756e-06
3.6730946e-06 1.1491177e-05 1.0770857e-06 2.4150074e-06 2.9816968e-06 8.124991e-07 2.1683074e-06 2.1340713e-06
2.1337715e-05 3.6245947e-05 2.0249856e-05 1.2682076e-05 7.7488385e-06 1.3871472e-05 3.6266312e-05 9.5409196e-05
1.1272564e-05 1.175177e-05 1.1150209e-05 1.6310136e-05 5.2018727e-06 5.4971265e-06 4.1477056e-06 2.3346014e-05
1.8115465e-05 3.6902755e-05 1.1987451e-05 1.2391034e-05 7.083803e-06 7.407083e-06 1.0134311e-05 8.443489e-06
5.2393956e-05 4.779676e-05 6.5458684e-05 2.7110711e-05 1.3714293e-05 2.5521409e-05 6.08286e-05 0.00014516347
5.8378366e-05 5.626311e-05 8.9718615e-06 2.3482484e-05 9.300416e-06 1.0148468e-05 8.237071e-06 7.547913e-05
2.5718304e-05 3.738482e-05 4.016382e-05 1.584562e-05 2.468524e-05 7.9805495e-06 1.7671242e-05 1.1885127e-05
1.1203227e-05 2.8208768e-05 2.1522472e-05 6.4990304e-06 1.0332132e-05 5.6686913e-06 2.8419923e-05 4.7638092e-05
1.353347e-05 1.8655417e-05 5.513484e-06 1.6574702e-05 6.919189e-06 1.0604623e-05 5.1952097e-06 2.4430434e-05
1.6100272e-05 2.4944235e-05 4.8921665e-06 9.1949105e-06 1.6563503e-05 5.64734e-06 1.1029678e-05 1.5369085e-06
8.744486e-07 2.1012906e-06 1.6927551e-06 1.7673835e-06 5.5558957e-07 8.886232e-07 2.5962188e-06 4.228691e-06
9.777124e-07 4.164945e-07 5.330629e-07 2.9167765e-07 1.2638943e-06 1.1261193e-06 9.462428e-07 6.356127e-07
1.236643e-06 1.8041197e-06 4.7665094e-07 1.0234423e-06 5.952285e-07 2.819067e-07 3.2406146e-07 5.8760247e-07
4.5160505e-06 5.3893705e-06 1.1791783e-05 3.9288543e-06 6.085461e-06 3.333839e-06 9.436895e-06 9.88511e-06
1.0683807e-05 6.070224e-06 3.4798247e-06 3.8505923e-06 2.8081704e-06 5.648349e-06 4.743807e-06 7.3820042e-06
6.917455e-06 6.6308617e-06 1.626458e-06 1.6454103e-06 5.427828e-06 1.7576089e-06 3.3171043e-06 1.6363624e-06
1.5121973e-06 3.2116952e-06 1.0678997e-06 8.5334887e-07 8.497451e-07 7.392863e-07 3.892533e-06 3.99682e-06
3.3203908e-06 8.4029784e-07 8.1887146e-07 2.4372484e-06 1.2867165e-06 1.0833489e-06 1.0624625e-06 9.346708e-07
2.6584773e-06 2.1948995e-06 6.6475314e-07 8.9342564e-07 4.939469e-07 4.1037177e-07 1.2432549e-06 5.605012e-07
3.0612853e-05 2.251096e-05 2.2879809e-05 1.7389782e-05 9.718218e-06 1.8293911e-05 3.2913384e-05 6.367824e-05
5.1030325e-05 1.6878863e-05 1.270639e-05 1.7260383e-05 2.2092474e-05 2.4856432e-05 2.2398985e-05 2.9411263e-05
2.1597527e-05 3.870353e-05 1.5211872e-05 1.0025792e-05 9.011685e-06 9.009924e-06 7.71183e-06 1.4377681e-05
2.0046687e-05 2.9568046e-05 5.6850196e-05 1.0787484e-05 1.4703621e-05 2.4684311e-06 1.8300292e-05 6.789796e-05
4.0359355e-05 1.5896429e-05 1.18917515e-05 1.4992711e-05 5.1096076e-06 4.8108905e-06 6.4142555e-06 1.6998016e-05
1.3835106e-05 3.654928e-05 5.1279108e-06 8.966081e-06 1.8585875e-05 4.215987e-06 8.849818e-06 1.2083166e-05
1.1586223e-05 1.0182768e-05 5.0246786e-06 9.303432e-06 9.47272e-07 2.5112063e-06 1.6672537e-05 2.1425656e-05
1.3674104e-05 6.6613625e-06 8.744982e-06 2.5227682e-06 3.887671e-06 1.084616e-06 2.230511e-06 7.508679e-06

exp_avg f4 [16]
00000000: 2317 6c2f 8375 b1ae b590 07af a72e a8ad
00000010: 1e9a 902e a8a8 09af 5ceb 10ad bfe0 072f
00000020: b8ec 0daf b1fa b72f 2377 72ae 8158 ccaf
00000030: 2f8a 3e2d 49c8 202f 10de e22e 3faf b22e
2.1472295e-10 -8.0699024e-11 -1.2329589e-10 -1.9120107e-11 6.5757386e-11 -1.2519996e-10 -8.237713e-12 1.2358024e-10
-1.2907975e-10 3.3465633e-10 -5.5130244e-11 -3.717027e-10 1.08309325e-11 1.4623071e-10 1.03167364e-10 8.125633e-11

exp_avg_sq f4 [16]
00000000: e4ec 2a21 c507 1020 8b40 2421 8ad1 ba21
00000010: a38b 3a21 797b 871f 9470 0421 1c58 1b20
00000020: 4571 0f22 c11c c720 e1b6 1320 68c2 bd21
00000030: b9c6 af1f 16ba 1320 1dc8 9f21 5e57 4320
5.791176e-19 1.2199845e-19 5.5650783e-19 1.2659315e-18 6.320406e-19 5.737899e-20 4.4872336e-19 1.3158164e-19
1.9440078e-18 3.373094e-19 1.2511894e-19 1.2858597e-18 7.444414e-20 1.2512955e-19 1.0827229e-18 1.654605e-19

exp_avg f4 [16]
00000000: 2471 a6b9 3834 6eb8 c8fe 36b9 58ba fe38
00000010: 5773 c837 5931 3137 57a8 7139 4ec5 2cb8
00000020: f931 b839 30d6 f8b8 8100 1db8 cc36 1639
00000030: b7d0 b8b7 8986 82b9 e463 0339 d98a 5c37
-0.00031746284 -5.6792254e-05 -0.00017451786 0.00012146373 2.3895567e-05 1.0561512e-05 0.00023046263 -4.119175e-05
0.00035132447 -0.00011865457 -3.7432186e-05 0.00014325528 -2.20317e-05 -0.0002489577 0.00012530346 1.314535e-05

exp_avg_sq f4 [16]
00000000: 3e49 e035 c07f 9d35 9151 b336 b388 0536
00000010: 4080 e535 8e5e 9334 af4a 2935 aebe 6935
00000020: 0dab 0436 e924 5936 71a8 d734 099d c735
00000030: 3d5d 5b34 9541 5136 94f4 ae36 3b74 ab35
1.6710617e-06 1.1734592e-06 5.3441113e-06 1.9898114e-06 1.7099155e-06 2.744968e-07 6.3066085e-07 8.707674e-07
1.9769097e-06 3.2357004e-06 4.0169428e-07 1.4872359e-06 2.0429884e-07 3.11816e-06 5.2140767e-06 1.277432e-06

exp_avg f4 [16]
00000000: 1ce6 98b7 927f 0535 1ed7 fab7 07a9 98b7
00000010: 0170 b0b7 c8af beb7 8aef b836 f9f7 77b7
00000020: 12af a1b7 ad7c 83b7 aa6b b136 14d0 8f37
00000030: 0b83 b837 ac2b 34b6 b4b6 89b7 83ad c3b6
-1.8226965e-05 4.9732e-07 -2.9902494e-05 -1.8198522e-05 -2.103299e-05 -2.273162e-05 5.5115133e-06 -1.4780083e-05
-1.9274219e-05 -1.5674474e-05 5.287545e-06 1.7143822e-05 2.1995531e-05 -2.684751e-06 -1.641675e-05 -5.8316523e-06

exp_avg_sq f4 [16]
00000000: cf18 1e31 554a 3230 3043 5b31 a059 b931
00000010: dc18 f031 a626 c530 e75d ab31 b449 d630
00000020: d430 2a32 9168 0731 e478 ad30 cc3e d931
00000030: a690 9331 a4e9 e830 9484 e731 e3e0 1d31
2.3006128e-09 6.4861655e-10 3.1906886e-09 5.394398e-09 6.9877455e-09 1.4344621e-09 4.9874305e-09 1.5591497e-09
9.906405e-09 1.9704525e-09 1.2621766e-09 6.3226704e-09 4.2947077e-09 1.6946626e-09 6.7380572e-09 2.297434e-09

exp_avg f4 [32, 16, 3]
00000000: b6e4 1f39 d943 0438 1fb9 37b9 c6fc 5bb8
00000010: edf8 1bb9 5152 feb7 a4e7 1db8 b883 7e39
00000020: c8d6 7538 cf94 0ab9 303c 6c37 1869 5338
00000030: 1a5b 57b8 937a 5a39 aee6 4938 2ea0 b738
00000040: 4a81 efb8 fe24 9438 6c96 feb8 26b1 ac38
00000050: 858d a2b8 31bf 99b9 7d83 d138 9334 cd38
00000060: afd2 58b9 640e 0c39 7aab 1939 767f be38
00000070: 28a8 c438 bd64 b037 8ee4 d8b8 1d87 6839
00000080: 37c2 d1b8 a57f dd38 af56 21b8 d05d 74b8
00000090: a615 1d39 4dd6 e0b6 20ff 82b9 1932 94b8
000000a0: 0d31 8c39 4acb b937 e0f1 29b9 5bf6 10b8
000000b0: 8909 5b39 600c 3bb8 f98b 9439 9208 d3b8
000000c0: c233 0bba a2bc fdb9 8d37 2fb8 7b01 1739
000000d0: df87 b639 61fe aa39 bac9 063a 43c7 9338
000000e0: 8bca 8ab9 d72a 9739 138f 9839 1a0f 4a39
000000f0: 5979 7139 7a47 bd38 0b5d c5b7 9925 31b9
00000100: 5e85 bdb7 fe7a a4b8 9086 b1b9 603c 9bb9
00000110: 25c2 b038 df88 e837 407c 2bb8 5bce efb8
00000120: 05eb 8f39 f77f ac39 20c0 3239 10cc f7b8
00000130: 374b deb9 ffe6 e3b9 4d72 2f3a 662e b739
00000140: 6f96 fb38 12c1 6c39 7607 0eb8 2eb5 25b9
00000150: 19e6 b7b9 978b 68b9 1291 8439 f6bb e638
00000160: bfb9 34b9 9c9c 8db9 1a1c 2238 f2c6 1239
00000170: 9034 1cb8 0008 0439 b4b6 b3b9 8826 75b9
00000180: 96bb 2139 113a 9937 cac6 2639 5b29 22b9
00000190: 7fe2 afb8 adce 8cb8 f56e 5b38 4cfe d6b8
000001a0: 4263 c338 0644 df37 00f0 04b9 19e9 74b8
000001b0: b916 d938 653f e6b8 69ec 9f38 f758 86b7
000001c0: f488 7139 bb03 1eb8 a71b 8b39 c268 d8b8
000001d0: 84dd 93b7 159e b439 20dd 95b8 1ce1 35b9
000001e0: 0496 c338 7d08 2ab9 977e 56b8 aa92 1039
000001f0: 094b 1439 5c3e 9138 ffcb dfb8 47ea b2b9
00000200: cdd7 c138 5c35 60b9 4349 9237 0f5d c237
00000210: 7b69 24b8 0721 b1b8 15d8 4039 143c 5539
00000220: 1598 b9b8 6d2e 3e38 c2da 0439 0d76 7138
00000230: 2ebd 38b9 b217 5c39 1080 2cb9 82b6 1439
00000240: 98c5 aeb7 b688 60b9 94a3 de38 fc56 0438
00000250: 3972 9c38 0fc6 0d39 b326 5a39 b7cb 02b8
00000260: 4ccb 97b9 591f 8138 9b0b 0d39 737e 8337
00000270: ab9b 7539 e94c fc37 e9d6 84b9 a971 bbb9
00000280: fd02 4b37 d5d7 1439 dfa0 1539 6c6f 6e38
00000290: 4046 dbb8 9821 1838 4201 ba39 331d a0b9
000002a0: c7f7 6239 7a83 7239 fd67 18b9 1115 1cb9
000002b0: a257 ccb8 430a 36b9 48b2 1e3a 4fa1 00b9
000002c0: 4f5c 46b9 e1b0 6438 ddb9 23b9 4006 26b8
000002d0: 981a 4539 a6c9 b7b9 39b5 6839 fa5b 6839
000002e0: 967d 0138 d8fc aeb9 1875 1eb9 7f9e ac39
000002f0: 69ac 94b8 aa14 a739 9d08 1bb9 5584 94b9
00000300: 91d4 41b9 489a 9db8 1d9a 5837 fc27 ba35
00000310: 2dca d838 f609 f737 90a1 0939 6282 4b37
00000320: 4866 5137 1f23 b838 c7b1 a038 efac b038
00000330: 3170 6838 14de c5b6 f28d c838 1dc3 5a38
00000340: 93f8 aab6 e522 bab8 b375 0bb9 c968 a7b8
00000350: 1c43 f838 a55c 9136 e94f 23b9 a6ea b438
00000360: 0bb3 cb38 0696 b938 bae4 2639 f951 0138
00000370: 7f9c 0fb9 73b6 b4b8 41e6 b737 25b5 ff38
00000380: 04ba b438 cb49 1c37 1a2a 9934 ec07 eab8
00000390: eda7 5db9 2bdb 2638 5949 0338 d015 2337
000003a0: 1c32 99b8 75e3 5438 318c fb38 2b8c b236
000003b0: 1ca2 2138 9702 56b8 83f8 b3b8 f779 8238
000003c0: 82ba 1239 1884 b438 1185 17b9 ed41 11b8
000003d0: 9317 0bb9 a323 21b8 7d32 06b9 cacc 0139
000003e0: 789f f038 ddde 0cb9 405e a3b8 76c9 7437
000003f0: 6287 0fb9 0531 df38 5812 1138 4ada 1a39
0.00015248623 3.153444e-05 -0.00017521203 -5.2449082e-05 -0.00014874684 -3.0317491e-05 -3.764745e-05 0.00024272397
5.8612583e-05 -0.00013216141 1.408071e-05 5.0404196e-05 -5.134484e-05 0.00020835763 4.813697e-05 8.755956e-05
-0.0001142049 7.06408e-05 -0.00012139682 8.2345956e-05 -7.751122e-05 -0.00029324883 9.990388e-05 9.7849545e-05
-0.00020677851 0.00013356801 0.00014655097 9.0836475e-05 9.37733e-05 2.1027745e-05 -0.00010342254 0.00022175578
-0.00010002072 0.00010561877 -3.846612e-05 -5.8261503e-05 0.00014980751 -6.700668e-06 -0.00024985615 -7.066521e-05
0.00026739427 2.2148382e-05 -0.00016207201 -3.456171e-05 0.0002088902 -4.45958e-05 0.00028333048 -0.000100628604
-0.0005310142 -0.00048396463 -4.1774987e-05 0.00014401034 0.00034814977 0.00032614454 0.0005141754 7.0466216e-05
-0.00026472317 0.00028832883 0.00029098298 0.00019269847 0.00023028757 9.025536e-05 -2.3527557e-05 -0.00016894042
-2.259266e-05 -7.8430385e-05 -0.00033860328 -0.00029608887 8.428496e-05 2.772029e-05 -4.0885294e-05 -0.00011434845
0.0002745019 0.00032901738 0.00017046975 -0.000118158874 -0.0004239918 -0.0004346892 0.00066927524 0.0003493905
0.00011996633 0.00022578638 -3.3862387e-05 -0.00015803121 -0.00035075916 -0.00022177245 0.00025285088 0.00011002265
-0.00017235334 -0.000270103 3.864998e-05 0.00013997758 -3.724225e-05 0.00012591481 -0.00034277665 -0.00023379375
0.00015424038 1.826606e-05 0.00015905048 -0.0001546493 -8.3868385e-05 -6.7142166e-05 5.2317006e-05 -0.00010251682
9.316813e-05 2.6615347e-05 -0.00012677908 -5.8391222e-05 0.00010351599 -0.00010979063 7.625746e-05 -1.6015472e-05
0.0002303457 -3.767361e-05 0.0002653275 -0.00010319195 -1.7626917e-05 0.00034450056 -7.1460614e-05 -0.00017345365
9.326267e-05 -0.00016215626 -5.1139472e-05 0.00013787547 0.00014142333 6.925754e-05 -0.00010671466 -0.00034125356
9.243153e-05 -0.00021382183 1.7438671e-05 2.3169936e-05 -3.9198883e-05 -8.4461695e-05 0.00018391044 0.00020335644
-8.849815e-05 4.5342767e-05 0.00012669995 5.756882e-05 -0.00017618082 0.00020989662 -0.00016450905 0.0001418237
-2.0834428e-05 -0.00021413233 0.00010616254 3.1552263e-05 7.459935e-05 0.0001352059 0.00020804517 -3.118414e-05
-0.00028952432 6.157038e-05 0.00013451131 1.56753e-05 0.00023423012 3.0076555e-05 -0.00025337122 -0.00035752103
1.2100439e-05 0.00014194784 0.00014269676 5.684739e-05 -0.00010455819 3.627091e-05 0.00035477622 -0.00030539333
0.00021645344 0.00023127897 -0.00014534588 -0.00014885167 -9.743801e-05 -0.00017360695 0.00060537877 -0.00012267123
-0.00018917139 5.4524167e-05 -0.00015614131 -3.9583305e-05 0.00018797291 -0.0003505472 0.00022192755 0.00022159508
3.0872958e-05 -0.0003337625 -0.00015111675 0.00032924485 -7.089304e-05 0.00031868118 -0.0001478516 -0.00028327355
-0.00018485101 -7.5150805e-05 1.2910486e-05 1.3869717e-06 0.00010337341 2.9449333e-05 0.00013125525 1.21301e-05
1.2481185e-05 8.7803455e-05 7.662508e-05 8.4245454e-05 5.5417597e-05 -5.896911e-06 9.5631825e-05 5.2156964e-05
-5.0953327e-06 -8.875671e-05 -0.0001329992 -7.982698e-05 0.000118380616 4.332122e-06 -0.0001557466 8.6267755e-05
9.713144e-05 8.8494315e-05 0.00015916201 3.083234e-05 -0.00013695842 -8.617053e-05 2.192252e-05 0.00012193088
8.617717e-05 9.315506e-06 2.8529104e-07 -0.00011159465 -0.0002113876 3.97816e-05 3.1301144e-05 9.720636e-06
-7.304942e-05 5.0756575e-05 0.00011994725 5.321131e-06 3.8536367e-05 -5.1023988e-05 -8.581674e-05 6.221601e-05
0.00013993125 8.607673e-05 -0.00014450053 -3.4632092e-05 -0.00013264855 -3.841858e-05 -0.00012798044 0.00012378689
0.00011473795 -0.00013434463 -7.790001e-05 1.459044e-05 -0.00013687977 0.00010642599 3.4587778e-05 0.00014767903

exp_avg_sq f4 [32, 16, 3]
00000000: f8d3 1e35 5e65 5c35 69f6 de35 6e85 b535
00000010: 937f 8135 e27a a035 da85 3b36 714e 4036
00000020: a9c5 8435 eef5 0e36 d31e 5236 0e26 8c35
00000030: afcd 2336 435e ff35 eae1 2f35 01ad dc35
00000040: fada b535 0e25 1236 0fd9 3735 3ab5 cb35
00000050: 7f02 8b35 e1f9 3036 2552 5536 65d4 d435
00000060: 5419 a335 ff28 fb35 1e56 e534 6e24 7735
00000070: 4e84 8f35 6510 ba35 5002 6335 264d 3036
00000080: ba13 6a35 4acf 2436 0b2d cc35 bf14 3935
00000090: fe45 a435 19df cd35 c147 5836 d422 ec35
000000a0: b659 0236 8808 9635 82fe ac35 a373 0536
000000b0: 6f02 6236 4022 f835 8e2f 7a36 da12 e135
000000c0: 0cca 8235 afbf d035 55bf a835 3d99 2436
000000d0: da70 9835 0312 f435 ab29 3a36 3464 a735
000000e0: 02b2 e935 81e6 3436 6d21 d835 1bec 2036
000000f0: 6b7f 3936 cb8e d535 5a10 b935 e687 0c36
00000100: b3f0 0c36 7018 e935 78a9 1236 2b40 a535
00000110: 7d8d b935 3edc 4336 6a62 e135 e2c4 3936
00000120: a822 0736 663d 4d35 da7f 6b35 a437 0136
00000130: 500c be35 2a99 1a36 0b74 b135 c238 e935
00000140: c220 b135 65bf 4536 41cb d235 549a bb35
00000150: 8f7c c735 a805 3f36 cd9a d435 49ad 5f36
00000160: b724 d335 a1bb f735 6670 e435 4995 5b36
00000170: 7a04 fc35 1155 5f36 b277 8035 8bb1 f535
00000180: 4fa1 9a34 f278 4d35 b7bb 9535 7b78 e535
00000190: 7b4f e834 ec2e a435 cc6a e335 f59a 1936
000001a0: 8a2b a435 ae4e 7435 03cb 0e36 402c 9c35
000001b0: 58d1 e835 9cd3 3836 b389 5a35 30ff 4235
000001c0: 799e 7d35 7213 ee35 59f8 1935 53ef 9235
000001d0: b1a2 2a35 7813 1136 7a08 c335 3b45 df35
000001e0: e0a1 3d35 e9c0 1336 c8a7 1735 7d07 9235
000001f0: 9c99 1d35 bf45 9d35 4321 9335 177d 2e36
00000200: 19eb b735 94fd c335 af06 1b36 db45 8135
00000210: 6127 3d35 4d02 be35 f839 2536 dbb1 b935
00000220: 31f1 1436 1d2e 4c35 76d6 fb34 0f4e d435
00000230: 18f8 4136 45d5 e435 07be 0336 c88a fb35
00000240: d070 5736 f78c 2436 78cd 2b36 285f b635
00000250: 18ae 7f36 7b45 c436 f303 8c36 c26f 8136
00000260: 075d 0637 e51e 8d36 abd0 7436 11a7 0437
00000270: 81c8 b836 b7ff 0f36 5e00 cb36 e82a 9136
00000280: d336 ae36 5e07 8f35 75dd 8436 feef 9f35
00000290: 7462 5436 8e5e d936 9051 cb36 0f5a 5e37
000002a0: a29b 4136 a190 fd35 2696 ee36 f792 f935
000002b0: 1065 b136 ba53 4b36 13e8 fc36 f282 9136
000002c0: 1b54 5536 9e45 9a36 8295 3336 34e3 c236
000002d0: cbcb b036 fec5 f436 944d d636 747c 9436
000002e0: 39a6 5136 993a f436 27e2 c536 c0a5 f136
000002f0: 238c ce36 44c4 1a37 5e1e 7336 643f 1437
00000300: 9e23 a034 3392 aa34 6b2a 9b34 b670 5d34
00000310: 2a5c c134 e242 e934 5b26 af34 b9f0 f034
00000320: 7c4c 1435 1ec0 9b34 e3ee d034 1570 c434
00000330: dc2d ac34 d190 f334 9103 2335 48e1 a934
00000340: e1a7 5334 7001 9334 3e39 3d34 fdb5 8634
00000350: f20c ac34 99c3 b034 a832 2035 6737 1635
00000360: a5f1 a234 ea01 a534 e068 da34 a73a 8934
00000370: 3a3b b634 408d 9734 074e 1635 5790 8134
00000380: f655 db34 ecc3 6b34 1f10 c134 ce6c ec34
00000390: fd0c 1a35 41b8 0635 3a04 c334 851e 9134
000003a0: 470b c634 ecf6 0d35 abe5 3335 7732 ef34
000003b0: 7ed1 e634 8d0e a934 3c61 bd34 7f41 2735
000003c0: 325d b934 0644 1535 3e90 2036 7ba9 e835
000003d0: cc14 4635 1137 9c35 691d 1c36 c333 4b36
000003e0: 92de a435 90fd c635 99db 1a36 403f ce35
000003f0: 9e7c 4736 cee0 1536 8286 9b35 9c03 5735
5.916804e-07 8.2103895e-07 1.6612004e-06 1.3524384e-06 9.648378e-07 1.1956693e-06 2.7943083e-06 2.8655888e-06
9.892293e-07 2.1302799e-06 3.131038e-06 1.0441888e-06 2.4408616e-06 1.9026414e-06 6.552133e-07 1.6441628e-06
1.3549281e-06 2.1777264e-06 6.8488674e-07 1.5177422e-06 1.0357033e-06 2.6371492e-06 3.1787288e-06 1.5857046e-06
1.2151818e-06 1.8712889e-06 4.2717232e-07 9.206768e-07 1.0692836e-06 1.3862851e-06 8.4567455e-07 2.627095e-06
8.72005e-07 2.4558562e-06 1.5212294e-06 6.894806e-07 1.2239323e-06 1.533862e-06 3.2228274e-06 1.7593507e-06
1.9423728e-06 1.1178354e-06 1.288907e-06 1.9885854e-06 3.367804e-06 1.8487408e-06 3.7280583e-06 1.6769293e-06
9.744558e-07 1.5552995e-06 1.257266e-06 2.45271e-06 1.1357727e-06 1.8184659e-06 2.7740414e-06 1.2471633e-06
1.741166e-06 2.695626e-06 1.6102982e-06 2.397929e-06 2.7641315e-06 1.5911295e-06 1.3788333e-06 2.094073e-06
2.100173e-06 1.7366965e-06 2.185434e-06 1.2312133e-06 1.3824753e-06 2.9185462e-06 1.6792449e-06 2.768175e-06
2.013674e-06 7.64578e-07 8.773037e-07 1.9254885e-06 1.4159687e-06 2.3036941e-06 1.3221301e-06 1.7376371e-06
1.3197061e-06 2.9466694e-06 1.5705374e-06 1.3977501e-06 1.4862907e-06 2.846451e-06 1.5840284e-06 3.3330455e-06
1.573141e-06 1.8457541e-06 1.7020036e-06 3.2720438e-06 1.8776766e-06 3.3279105e-06 9.571579e-07 1.8305594e-06
2.8802103e-07 7.654445e-07 1.1155997e-06 1.7096894e-06 4.3271197e-07 1.2232608e-06 1.69439e-06 2.2888973e-06
1.2231624e-06 9.101158e-07 2.1277817e-06 1.1635784e-06 1.7346274e-06 2.754131e-06 8.141171e-07 7.264198e-07
9.448045e-07 1.7738041e-06 5.7358335e-07 1.09475e-06 6.356668e-07 2.1618016e-06 1.4531099e-06 1.6634943e-06
7.0643546e-07 2.2016995e-06 5.649604e-07 1.0880027e-06 5.871059e-07 1.171771e-06 1.0962034e-06 2.6000832e-06
1.3702985e-06 1.4602433e-06 2.310069e-06 9.63158e-07 7.046529e-07 1.4156773e-06 2.4620658e-06 1.3835337e-06
2.219411e-06 7.6063026e-07 4.6908434e-07 1.5817949e-06 2.890365e-06 1.7049393e-06 1.9631132e-06 1.8741348e-06
3.2103162e-06 2.4519957e-06 2.5600584e-06 1.3587751e-06 3.8099297e-06 5.849344e-06 4.172785e-06 3.85751e-06
8.008682e-06 4.205724e-06 3.6480294e-06 7.906711e-06 5.506969e-06 2.1457506e-06 6.049914e-06 4.3263317e-06
5.1919865e-06 1.0656474e-06 3.9596875e-06 1.191627e-06 3.164777e-06 6.4781116e-06 6.0593666e-06 1.32531995e-05
2.8849831e-06 1.8892061e-06 7.1104323e-06 1.8594718e-06 5.2867763e-06 3.0298092e-06 7.5372022e-06 4.336581e-06
3.178843e-06 4.597662e-06 2.6760104e-06 5.8081005e-06 5.2689334e-06 7.294816e-06 6.3867283e-06 4.425232e-06
3.1240181e-06 7.2785883e-06 5.897385e-06 7.2016555e-06 6.1555925e-06 9.224812e-06 3.6227498e-06 8.836247e-06
2.9828237e-07 3.1771341e-07 2.8901863e-07 2.0623233e-07 3.601611e-07 4.3448296e-07 3.2624197e-07 4.4878632e-07
5.5245596e-07 2.9010783e-07 3.8916832e-07 3.6589395e-07 3.2070864e-07 4.5367645e-07 6.072742e-07 3.1642617e-07
1.971198e-07 2.738193e-07 1.7622821e-07 2.509186e-07 3.2046916e-07 3.292487e-07 5.967836e-07 5.5959975e-07
3.035067e-07 3.0735038e-07 4.068197e-07 2.5560914e-07 3.3943235e-07 2.8228715e-07 5.59929e-07 2.4133143e-07
4.0854474e-07 2.1957356e-07 3.596078e-07 4.403759e-07 5.738837e-07 5.0187015e-07 3.6324656e-07 2.703056e-07
3.688858e-07 5.288591e-07 6.701691e-07 4.4553937e-07 4.2993264e-07 3.148929e-07 3.527474e-07 6.230766e-07
3.4526744e-07 5.560581e-07 2.3925818e-06 1.7334672e-06 7.379101e-07 1.1638932e-06 2.326293e-06 3.0279487e-06
1.2283729e-06 1.4825946e-06 2.307561e-06 1.5366604e-06 2.9725848e-06 2.2333584e-06 1.1587547e-06 8.0098994e-07

exp_avg f4 [32]
00000000: 7a9e b5ad d5ec f8ac 7fd8 bb2d 159b c72d
00000010: 6cf4 39ad 9f32 c42d 212f 462d 9e71 c0ae
00000020: 4355 292d a3e4 53af 5fbe 552e 6ba6 61ac
00000030: b9c7 402e 1fea 0eae 972a 29ae d6bb 47ad
00000040: 1fd9 d4ae c649 b02d 737f 0a2e 51da 2f2d
00000050: ddc0 71ae 52aa 77ae 5930 d5ad 6a81 972b
00000060: c5ab 80ad afb7 782c 58fb 392b d5ca 97ae
00000070: 3b94 c9ad 078b baae e30c 2e2d 71f4 0ead
-2.0647695e-11 -7.0748776e-12 2.1355582e-11 2.2692551e-11 -1.0570305e-11 2.23051e-11 1.1265462e-11 -8.7513316e-11
9.62547e-12 -1.9271566e-10 4.8599676e-11 -3.2066804e-12 4.3833135e-11 -3.2495003e-11 -3.846398e-11 -1.1353548e-11
-9.679212e-11 2.0041645e-11 3.1490765e-11 9.996074e-12 -5.4968353e-11 -5.6312573e-11 -2.4236767e-11 1.0765115e-12
-1.4628196e-11 3.5344885e-12 6.607401e-13 -6.902715e-11 -2.2916882e-11 -8.482997e-11 9.893616e-12 -8.126042e-12

exp_avg_sq f4 [32]
00000000: 1612 731e c223 871f f6cf 831e e302 071f
00000010: 5658 821e ae32 7b1e f9ce 631f f8da a71f
00000020: 6194 541e 0b2a 1320 0050 c91e 48c6 4d1e
00000030: 40ca a11e bc15 9f1e e572 091f 5e1f 691f
00000040: 18f3 2e1f 0e89 d01e 63b9 e61e 82d7 5a1f
00000050: ffa5 351f e8c4 831f e160 501f e4c0 021f
00000060: 6aa8 2e1e 0825 ee1d c0f5 781e 7ed5 1b1f
00000070: 3b6c 0c1f 778b 111f 8866 9c1d 9d76 861e
1.2868053e-20 5.723388e-20 1.3956175e-20 2.858975e-20 1.380082e-20 1.329831e-20 4.8240324e-20 7.1089505e-20
1.12538706e-20 1.2465295e-19 2.131479e-20 1.0893613e-20 1.7130187e-20 1.6843769e-20 2.9105917e-20 4.9365616e-20
3.7047016e-20 2.2079541e-20 2.4428871e-20 4.634156e-20 3.846555e-20 5.580641e-20 4.412585e-20 2.7688126e-20
9.2463105e-21 6.3036365e-21 1.31798306e-20 3.2999123e-20 2.973568e-20 3.0820307e-20 4.139887e-21 1.4236859e-20

exp_avg f4 [32]
00000000: 21dc 2e38 c428 1e39 817e a237 3508 1337
00000010: ad04 95b8 46c9 4638 e767 7338 e2cc c2b7
00000020: 967c 5fb8 73a5 eb36 ad1b 9738 103e 4eb9
00000030: c346 2d38 2f0e e938 7338 9bb7 240f c638
00000040: 22cf 6b38 9a42 6337 03b1 f6b7 bbbb 9d37
00000050: 0279 35b9 d3bd ec37 cbe9 26b9 fe07 e1b8
00000060: 03f4 66b8 9e5b 91b8 8645 9db6 beae 75b8
00000070: 806f d538 92b0 e838 4b03 be38 17f4 8fb8
4.1689844e-05 0.0001508324 1.9370813e-05 8.763794e-06 -7.1057446e-05 4.739433e-05 5.803248e-05 -2.3222008e-05
-5.3283373e-05 7.0228066e-06 7.205396e-05 -0.00019668811 4.1312316e-05 0.00011112948 -1.8503726e-05 9.444196e-05
5.6221274e-05 1.3545761e-05 -2.9407913e-05 1.8803277e-05 -0.00017306584 2.8221786e-05 -0.00015918088 -0.00010730325
-5.5063527e-05 -6.931204e-05 -4.687058e-06 -5.8575293e-05 0.000101774 0.00011095511 9.0605194e-05 -6.864237e-05

exp_avg_sq f4 [32]
00000000: a8e4 6f35 5873 b635 1654 4d35 956f 0336
00000010: 2d94 ab34 68d6 2435 ae6a b335 bdd2 1536
00000020: df00 d935 9607 9435 522e ec34 e32c 5a35
00000030: bdaa b935 9007 8635 3740 6a35 4759 8f35
00000040: d0c6 d635 15d1 2735 6b89 a235 53ad 4835
00000050: dafe 2f36 1881 c235 d2aa 8935 2182 7035
00000060: 6518 9935 e87a 1434 39f5 1d35 427c b235
00000070: d2d8 bb34 0673 3936 f49e 5734 30a7 b635
8.9367177e-07 1.3593626e-06 7.649081e-07 1.958547e-06 3.1959044e-07 6.1406763e-07 1.3367587e-06 2.2325396e-06
1.6168013e-06 1.1029067e-06 4.3992128e-07 8.127665e-07 1.3833265e-06 9.985979e-07 8.726524e-07 1.0680313e-06
1.6002105e-06 6.25166e-07 1.2109934e-06 7.4758026e-07 2.6225375e-06 1.4491698e-06 1.0257011e-06 8.959633e-07
1.1406488e-06 1.3828287e-07 5.8843904e-07 1.3298197e-06 3.4989222e-07 2.76341e-06 2.0081262e-07 1.3608715e-06

exp_avg f4 [32]
00000000: 8b13 6339 ffe1 91b9 6d3f 8e39 1e14 aeb8
00000010: 0eff 80b9 cad2 97b7 55f8 e439 2963 d2b8
00000020: 05ab a737 007e c7b9 facd e539 4c49 a2b9
00000030: 3af7 3736 4f4c 0339 fd59 d539 babe fcb9
00000040: a2d2 d1b9 2417 a839 ad55 be39 5131 18b9
00000050: bdc1 f1b9 63c3 f139 1ecd 1eba eea2 3fb9
00000060: e013 31b8 8424 3fb9 839b ddb7 2ac0 31b8
00000070: 99ce 8ab9 e8e4 4c37 2376 0339 fd89 e8b8
0.00021655687 -0.00027824935 0.00027131606 -8.300714e-05 -0.00024604093 -1.8098759e-05 0.0004367257 -0.0001003205
1.9987589e-05 -0.00038050115 0.00043831748 -0.00030953658 2.741303e-06 0.0001252156 0.00040693572 -0.00048207288
-0.0004002052 0.00032060698 0.00036303457 -0.00014514221 -0.00046111448 0.00046112677 -0.00060577865 -0.00018275875
-4.22186e-05 -0.00018228783 -2.6417669e-05 -4.2379055e-05 -0.00026475338 1.2212644e-05 0.00012537143 -0.000110883244

exp_avg_sq f4 [32]
00000000: baec 9a34 91cb 9335 946e 2c35 b738 3534
00000010: e1d8 b435 2b9f 1f31 613d e635 8e74 4834
00000020: 29f6 7332 b41a 3136 a004 f035 9d89 8835
00000030: 4971 e431 bd9c b933 8a6d f535 251a 3236
00000040: e80f aa35 9a30 6435 d82d b535 6c90 ba34
00000050: d454 2036 a9a4 1036 92bf 6136 04f7 3235
00000060: b02c bb33 566c 1635 f18e 5e33 5fe0 9233
00000070: 1e46 8a35 227a 8831 1ac0 de33 c8eb ce33
2.8856977e-07 1.1011599e-06 6.4235905e-07 1.6877571e-07 1.3474165e-06 2.3228022e-09 1.7154199e-06 1.8668854e-07
1.4200432e-08 2.6390599e-06 1.788274e-06 1.017284e-06 6.6485524e-09 8.643244e-08 1.8285803e-06 2.6539285e-06
1.2670616e-06 8.5007343e-07 1.3498893e-06 3.475028e-07 2.3891234e-06 2.1553517e-06 3.3639121e-06 6.666962e-07
8.715995e-08 5.6037004e-07 5.1818407e-08 6.839468e-08 1.0302208e-06 3.972006e-09 1.0372624e-07 9.635511e-08

exp_avg f4 [64, 32, 3]
00000000: c12c 9138 52f5 d637 08e8 1038 9d14 0eb8
00000010: b1f6 f938 a97c 5038 6ba7 3db7 2cdc f537
00000020: 5ba6 ccb7 1e19 75b8 f8fa 2fb6 2108 b3b7
00000030: 0056 d7b6 cbeb 91b7 a739 dc37 9f5c c537
00000040: 2f5b 7038 0a69 8038 5560 bfb7 db9b c137
00000050: ef1a bd38 c354 9c38 f65f 7238 7671 2fb7
00000060: b31e b237 9a50 fc38 bb38 1fb6 f19f bbb7
00000070: f865 4cb8 a83f c5b7 0008 8238 cfd4 0ab7
00000080: 9201 c3b6 5d6f af38 eeed 5838 e0d2 c5b8
00000090: 07c1 40b8 c250 83b7 fd3b 96b8 82ba 15b8
000000a0: d879 9838 0e05 3438 c9ee 3b38 4bf7 1d38
000000b0: b3e3 2eb8 10ed 87b8 d902 0a38 c17f 8e38
000000c0: 467f 5937 141b 1bb7 24d6 6637 497a 4438
000000d0: 5d6f 5fb8 0f04 ac37 99b4 6238 83e3 2a38
000000e0: 8d63 3cb8 c855 79b7 efe6 8fb8 5f54 aa37
000000f0: caa6 30b8 3ce5 6f38 375f fc37 1140 4d38
00000100: c904 1f37 82c9 6f37 0872 7437 06fb 1d37
00000110: 6b47 d2b7 110b 0938 bc32 86b8 ae2d b0b7
00000120: f333 7937 21ef 85b7 999c ccb8 da47 0a37
00000130: b325 d2b7 ee35 9338 ff37 9db8 5caf e138
00000140: 87d5 8137 a14d e137 8008 a5b7 8436 2938
00000150: 216e 5037 bbf9 92b8 61bd 48b8 7429 eab7
00000160: c2d7 a138 fae3 1538 033f ed37 d09d f0b8
00000170: 3e88 3eb8 1578 dab8 004f 2638 d565 b1b6
00000180: fe85 6db8 b039 afb7 04ca 63b8 7b83 85b8
00000190: dfd7 16b9 c4a0 4e37 56e5 7cb7 91d9 cbb7
000001a0: fbd8 bf38 f028 0738 3c21 23b6 b0e8 1938
000001b0: 10c9 b637 e359 02b8 8e96 cdb7 8c42 4db7
000001c0: b964 84b8 cd19 1fb8 3425 1a38 a830 8db8
000001d0: 97d4 83b8 f2ba d6b8 7b5c 77b7 20f5 a1b6
000001e0: a1e6 f4b8 2870 9fb8 5917 2c38 7756 0538
000001f0: c71c 7238 c901 13b8 eda7 b4b7 4d07 eb37
00000200: 5c83 ac37 64b2 0db9 1ca6 0838 8a3b be38
00000210: e791 1337 3572 0438 1ef5 ca38 ddcb 01b8
00000220: 2a35 91b8 1df4 f0b7 037b 8eb8 7b3e 5b37
00000230: bc11 8a38 3a0d 1638 3e63 c2b8 255c 52b8
00000240: a554 15b7 e90f a737 8bb7 65b8 b2f7 8137
00000250: 56e8 3038 8935 41b8 d186 b4b8 220b 0738
00000260: 0ae2 a837 be5d 9e38 b0e0 0838 5c08 57b8
00000270: af35 abb7 2136 b2b8 5558 4937 f38f 3eb7
00000280: cbfc 41b7 eb29 0e37 b18d c0b7 6f2f 31b7
00000290: c654 3a38 5263 b137 1dab ad38 d340 52b8
000002a0: 2cd8 3eb8 7330 9e38 05a3 a438 3352 2838
000002b0: 707e c8b7 bf41 b8b8 3ebe 57b8 d06f deb8
000002c0: 668f fb37 9360 5f37 acf2 6ab7 1663 2cb8
000002d0: b346 d737 b5ef a738 8622 2835 b9b4 21b8
000002e0: 6eb0 99b8 eefc cab7 4340 8638 e15f c638
000002f0: 1208 8237 7428 0138 8b7d 99b8 155c 9938
00000300: a15d 8338 63f5 1638 07d3 f237 e571 b738
00000310: 2bb0 0039 6c6a 8a35 0b15 8b37 8d31 ddb6
00000320: 7f72 ceb8 dc6c 05b8 112b 11b7 b86f 3eb7
00000330: d0b1 2036 374e 0638 0182 8737 8f89 b337
00000340: 122a 7338 8fbc c537 fc2d 41b7 5680 8438
00000350: 1dfd 0c38 e15b bb38 5265 d737 7916 5737
00000360: 7895 dd38 efc8 8238 9cd6 acb7 0c47 58b8
00000370: 4090 19b8 aaf6 4738 63b3 8337 f7a4 00b8
00000380: 0c42 23b8 dfc4 d738 1808 15b8 5cb3 a3b8
00000390: 243c 73b7 cba4 55b8 faf9 a7b8 6589 1538
000003a0: 20c7 8b38 750b 2f38 cc39 5538 9cfb cdb7
000003b0: 8734 91b8 de7d 13b7 c952 b938 0441 9038
000003c0: 2082 3836 5129 4836 c3d6 6338 7a92 79b7
000003d0: 8e37 cdb7 fbec 7937 4572 6838 e23a bfb7
000003e0: cd29 19b7 4307 90b8 670f 9db7 203f 4038
000003f0: 2dfb 1638 8c8d 9338 21e5 cab4 edbb 9537
6.922475e-05 2.5625024e-05 3.454837e-05 -3.3874636e-05 0.00011919195 4.9707163e-05 -1.1304258e-05 2.9308801e-05
-2.439616e-05 -5.8435944e-05 -2.6223115e-06 -2.1342248e-05 -6.417511e-06 -1.7395147e-05 2.625289e-05 2.352736e-05
5.730538e-05 6.123081e-05 -2.2813832e-05 2.3079969e-05 9.017239e-05 7.454448e-05 5.7786667e-05 -1.045723e-05
2.1233549e-05 0.000120313096 -2.3725868e-06 -2.2366616e-05 -4.8732356e-05 -2.3513872e-05 6.200373e-05 -8.274989e-06
-5.8116357e-06 8.365393e-05 5.1720002e-05 -9.4329705e-05 -4.5956138e-05 -1.5654023e-05 -7.163731e-05 -3.5698067e-05
7.27062e-05 4.292005e-05 4.480666e-05 3.7662026e-05 -4.1696894e-05 -6.481458e-05 3.2904416e-05 6.794884e-05
1.2963841e-05 -9.245025e-06 1.3758927e-05 4.684393e-05 -5.327106e-05 2.0505888e-05 5.4050794e-05 4.0743045e-05
-4.4915407e-05 -1.4861529e-05 -6.861786e-05 2.0304868e-05 -4.2117004e-05 5.719553e-05 3.0085079e-05 4.8935475e-05
9.478253e-06 1.4292427e-05 1.4570083e-05 9.416375e-06 -2.5067207e-05 3.267365e-05 -6.399068e-05 -2.1002106e-05
1.4853652e-05 -1.5966189e-05 -9.7566466e-05 8.24217e-06 -2.5051506e-05 7.0195514e-05 -7.4967735e-05 0.00010761499
1.547743e-05 2.6858239e-05 -1.967349e-05 4.034351e-05 1.24234075e-05 -7.0083384e-05 -4.786009e-05 -2.7914277e-05
7.717266e-05 3.5736688e-05 2.8281944e-05 -0.00011473487 -4.5426415e-05 -0.00010417417 3.965106e-05 -5.286866e-06
-5.6629993e-05 -2.0888489e-05 -5.430916e-05 -6.366424e-05 -0.00014385533 1.2315988e-05 -1.5073767e-05 -2.4300798e-05
9.1480055e-05 3.2224634e-05 -2.4308238e-06 3.669475e-05 2.1789718e-05 -3.107813e-05 -2.4508012e-05 -1.2234446e-05
-6.3130115e-05 -3.7932583e-05 3.675111e-05 -6.732467e-05 -6.286165e-05 -0.000102391365 -1.474388e-05 -4.82671e-06
-0.00011677785 -7.6026015e-05 4.102974e-05 3.1790198e-05 5.7724097e-05 -3.5049194e-05 -2.1535869e-05 2.8017583e-05
2.0565167e-05 -0.00013513264 3.2579628e-05 9.070996e-05 8.795853e-06 3.1577616e-05 9.677767e-05 -3.094586e-05
-6.9240414e-05 -2.8723904e-05 -6.7940004e-05 1.3067965e-05 6.583656e-05 3.5775105e-05 -9.269126e-05 -5.0153718e-05
-8.9008e-06 1.991536e-05 -5.4768792e-05 1.549334e-05 4.217805e-05 -4.6064644e-05 -8.60818e-05 3.2196876e-05
2.0132418e-05 7.551488e-05 3.2634183e-05 -5.126778e-05 -2.0409787e-05 -8.497784e-05 1.20011e-05 -1.1358398e-05
-1.1562554e-05 8.473619e-06 -2.2954164e-05 -1.0561066e-05 4.4424807e-05 2.1146294e-05 8.281155e-05 -5.0128274e-05
-4.5500856e-05 7.5430515e-05 7.850494e-05 4.0130875e-05 -2.3900735e-05 -8.78605e-05 -5.143717e-05 -0.000106066116
2.9988307e-05 1.3314321e-05 -1.4003988e-05 -4.1100277e-05 2.566292e-05 8.0078295e-05 6.2635115e-07 -3.8553702e-05
-7.328471e-05 -2.4198056e-05 6.4015876e-05 9.4592346e-05 1.5500966e-05 3.079367e-05 -7.318993e-05 7.31276e-05
6.2640065e-05 3.599132e-05 2.8946915e-05 8.7473345e-05 0.00012272659 1.0312774e-06 1.657989e-05 -6.5920817e-06
-9.844172e-05 -3.1811054e-05 -8.652701e-06 -1.1350894e-05 2.3945358e-06 3.2020933e-05 1.6153792e-05 2.1402519e-05
5.7974896e-05 2.3572034e-05 -1.1514403e-05 6.318155e-05 3.361433e-05 8.933969e-05 2.5677178e-05 1.2820231e-05
0.00010565942 6.23631e-05 -2.0603933e-05 -5.156458e-05 -3.6612386e-05 4.767502e-05 1.569995e-05 -3.0671214e-05
-3.892374e-05 0.00010288669 -3.5531906e-05 -7.805854e-05 -1.4497931e-05 -5.0936633e-05 -8.009742e-05 3.5652327e-05
6.6651264e-05 4.173392e-05 5.0836985e-05 -2.455507e-05 -6.923923e-05 -8.7911885e-06 8.836907e-05 6.878565e-05
2.749388e-06 2.9826372e-06 5.432103e-05 -1.4875661e-05 -2.4463774e-05 1.4896733e-05 5.5419532e-05 -2.2796394e-05
-9.129243e-06 -6.867808e-05 -1.872303e-05 4.5835157e-05 3.5996713e-05 7.0358714e-05 -3.7792145e-07 1.7849694e-05
