models/autoencoder.pt (torch_old, 344296 bytes, 10 tensors)

weight_ih_l0 f4 [400, 4]
-0.0021971292 -0.08890708 -0.044413496 0.029166488 -0.028436258 -0.09106636 0.03677943 0.0072668884
-0.028982023 0.040120758 0.020924907 -0.031249017 0.08466899 0.05360842 0.016060336 -0.02687505
-0.087936826 0.0802727 -0.022202546 -0.07034617 0.057487637 0.032462984 0.018612657 -0.025331417
-0.028887883 0.011594887 0.07415482 0.01904472 -0.0472999 0.10285055 0.0048644533 0.07711598
0.022472402 0.08998755 0.06033084 -0.051331583 0.07751512 0.0014261197 -0.07829345 -0.015615794
-0.09648337 -0.04825128 -0.06772511 0.061878562 -0.017384907 -0.02307097 0.042354878 0.04545443
-0.056344762 0.041665874 0.04788705 -0.08458827 0.08856323 -0.058297835 -0.033727653 -0.08011514
0.09557018 0.013108812 0.078435265 0.0028314497 0.0480452 -0.028553346 -0.0726049 0.020719415
-0.0040494697 -0.016584447 -0.054993525 -0.0011049669 0.033265453 0.035183057 -0.08442557 0.05340388
0.010206132 0.07047569 0.07540091 -0.07933079 0.099815845 -0.09404801 0.060613193 0.012443426
0.05471483 -0.060336806 0.054084342 -0.044847105 -0.09031116 0.03866239 0.05830836 0.09280376
-0.007214259 0.09160053 0.060836557 -0.044260185 -0.08522768 0.0533088 -0.05573001 0.04828414
-0.07939561 0.06872313 0.02616317 -0.0062896097 0.03998153 -0.06658357 -0.015613216 0.004730996
-0.058739603 -0.023544047 -0.0399436 0.09919701 0.08194069 0.08809277 0.08297226 -0.105266124
0.030383557 0.03905525 -0.069451764 0.041541792 -0.046728287 0.012481186 0.030765455 0.086161226
-0.05823061 -0.084831424 0.08686063 0.045012373 0.050844796 0.040922783 -0.039596103 0.057907082
-0.09008347 0.019438239 0.05126813 0.06862684 -0.05100185 -0.07488235 0.034876466 -0.06888726
-0.08516294 -0.09006823 -0.048482638 -0.0178623 -0.06372054 -0.041742917 -0.08652176 0.057499528
-0.017341401 -0.059499316 0.023783902 -0.073457204 0.06470374 0.062302317 -0.094905145 -0.083564736
-0.0588722 -0.05750371 0.0072692186 -0.09062586 -0.074829645 0.041820023 -0.039440677 -0.044108536
-0.084463574 0.04190651 0.009974165 -0.035767242 -0.0650277 0.02581581 0.025460366 0.034738965
0.028578281 -0.011227376 -0.07390714 0.059382405 -0.0023945556 -0.06867197 0.087393835 0.048972115
-0.07408559 -0.05225637 -0.037568476 -0.058460347 0.046918463 -0.07197037 0.08826146 -0.042164948
0.06664984 -0.0034362508 -0.04900143 0.06782094 -0.07660433 -0.053974677 0.013732731 0.0788831
-0.037556034 -0.05648403 -0.06858341 -0.039915506 -0.029589705 -0.02180204 -0.054136112 0.03708485
-0.0005457709 -0.061872702 -0.05133258 0.024683071 5.5845558e-05 0.07217849 -0.0129155135 -0.08624591
-0.07882208 -0.022408837 -0.015266546 0.01367029 -0.017783245 0.02928508 -0.030572888 0.08104974
0.023642698 -0.034596443 0.08914199 0.021993965 -0.059599448 -0.055051137 0.06329401 0.048840232
0.081182584 -0.0059814933 0.06978636 0.044550005 0.030056283 -0.024044441 0.09410154 0.018064814
-0.027354328 -0.011457592 0.09172008 0.07466925 -0.007120196 0.104241535 0.049419288 -0.05621502
-0.09245974 0.06340204 0.09869191 -0.054466605 0.043783013 0.0024285805 -0.025331851 -0.023947276
0.031069588 0.02504009 0.07213681 0.037611146 0.045315612 0.09023503 0.03292473 0.02046501
00000000: b6fd 0fbb ea14 b6bd edea 35bd 8fee ee3c
00000010: 28f3 e8bc 0081 babd 07a6 163d 141f ee3b
00000020: b56b edbc aa55 243d b66a ab3c f0fd ffbc
00000030: ef66 ad3d 8194 5b3d f790 833c 1129 dcbc
00000040: 3918 b4bd 0366 a43d 1de2 b5bc a711 90bd
00000050: 2878 6b3d e8f7 043d 9279 983c d583 cfbc
00000060: 48a6 ecbc 7bf8 3d3c 7bde 973d ac03 9c3c
00000070: 8abd 41bd 4fa3 d23d fe65 9f3b fcee 9d3d
00000080: 0b18 b83c 654b b83d 791d 773d 1141 52bd
00000090: 3fc0 9e3d a3ec ba3a 5158 a0bd 63d9 7fbc
000000a0: 1399 c5bd 22a3 45bd 76b3 8abd 6074 7d3d
000000b0: cb6a 8ebc 55ff bcbc 4f7c 2d3d 6d2e 3a3d
000000c0: c4c9 66bd d6a9 2a3d 3625 443d 9d3c adbd
000000d0: a460 b53d b6c9 6ebd 0226 0abd 6813 a4bd
000000e0: 4cba c33d 58c6 563c aba2 a03d d88f 393b
000000f0: 0bcb 443d b5e8 e9bc e1b1 94bd c3bb a93c
00000100: 6ab1 84bb 1bdc 87bc e440 61bd 89d4 90ba
00000110: 5b41 083d 1c1c 103d 50e7 acbd 07be 5a3d
00000120: 9f37 273c 8f55 903d cb6b 9a3d 2e78 a2bd
00000130: 406c cc3d 3e9c c0bd 8a45 783d 83df 4b3c
00000140: a81c 603d ba23 77bd 8b87 5d3d 99b1 37bd
00000150: 0ff5 b8bd 745c 1e3d bfd4 6e3d e60f be3d
00000160: 9765 ecbb 0f99 bb3d c12f 793d 2b4a 35bd
00000170: da8b aebd 545a 5a3d 2745 64bd 97c5 453d
00000180: 2a9a a2bd b6be 8c3d 2554 d63c 1219 cebb
00000190: acc3 233d f75c 88bd 93ce 7fbc 7906 9b3b
000001a0: f098 70bd 72df c0bc e69b 23bd cd27 cb3d
000001b0: 85d0 a73d fb69 b43d 5ced a93d c495 d7bd
000001c0: f0e6 f83c 66f8 1f3d ba3c 8ebd ba27 2a3d
000001d0: 2966 3fbd e37d 4c3c d607 fc3c 4c75 b03d
000001e0: 3883 6ebd 19bc adbd fce3 b13d e55e 383d
000001f0: a242 503d a69e 273d 862f 22bd fa2f 6d3d
00000200: af7d b8bd f13c 9f3c 88fe 513d 3b8c 8c3d
00000210: 51e7 50bd eb5b 99bd a0da 0e3d c414 8dbd
00000220: e869 aebd b175 b8bd bb95 46bd f553 92bc
00000230: ea7f 82bd 9ffa 2abd 5232 b1bd a084 6b3d
00000240: 8e0f 8ebc 8eb5 73bd 75d6 c23c bb70 96bd
00000250: 6583 843d b730 7f3d a15d c2bd fd23 abbd
00000260: fa23 71bd 0389 6bbd a032 ee3b 0d9a b9bd
00000270: 4940 99bd 794b 2b3d 8c8c 21bd 27ab 34bd
00000280: 3dfb acbd 29a6 2b3d ae6a 233c ac80 12bd
00000290: 3e2d 85bd ad7b d33c 4292 d03c 724a 0e3d
000002a0: 001d ea3c 07f3 37bc a05c 97bd f73a 733d
000002b0: faed 1cbb e4a3 8cbd 8afb b23d fc96 483d
000002c0: 30ba 97bd c70a 56bd 67e1 19bd 1e74 6fbd
000002d0: 932d 403d 3465 93bd 6dc2 b43d 27b5 2cbd
000002e0: b67f 883d b932 61bb b9b5 48bd b4e5 8a3d
000002f0: bbe2 9cbd 8d14 5dbd 40ff 603c 768d a13d
00000300: 5bd4 19bd cc5b 67bd 7575 8cbd 717e 23bd
00000310: 1c66 f2bc 319a b2bc d4bd 5dbd 49e6 173d
00000320: 1112 0fba 3b6e 7dbd 1d42 52bd 2734 ca3c
00000330: b63b 6a38 51d2 933d 979b 53bc b2a1 b0bd
00000340: 786d a1bd bd92 b7bc 8920 7abc 5af9 5f3c
00000350: 2bae 91bc 44e7 ef3c fe73 fabc 68fd a53d
00000360: 55ae c13c 00b5 0dbd 1390 b63d b02c b43c
00000370: 8d1e 74bd 4d7d 61bd 4aa0 813d b20c 483d
00000380: 0e43 a63d 6700 c4bb 27ec 8e3d 117a 363d
00000390: 9838 f63c d9f8 c4bc 4fb8 c03d a9fc 933c
000003a0: 2f16 e0bc a0b8 3bbc bdd7 bb3d 31ec 983d
000003b0: 8850 e9bb 967c d53d e16b 4a3d b941 66bd
000003c0: 885b bdbd eed8 813d fc1e ca3d 6018 5fbd
000003d0: d155 333d d228 1f3b be84 cfbc 142d c4bc
000003e0: a685 fe3c e020 cd3c 77bc 933d 250e 1a3d
000003f0: dd9c 393d 25cd b83d 15dc 063d 3da6 a73c

weight_hh_l0 f4 [400, 100]
0.018840602 0.022762164 0.054629665 0.06525801 0.044428945 -0.03349925 -0.035533816 0.024286358
0.08729811 -0.007172304 -0.027810877 0.059431788 0.06412702 0.0015517093 -0.030875083 -0.097040996
0.0025445642 0.0260693 -0.07684204 -0.069662 -0.103858665 0.073762015 0.09462651 0.093594715
0.09382305 -0.010695854 0.041145697 0.053392977 -0.023736292 -0.0527777 0.07844094 -0.011021892
0.038850464 -0.05047324 -0.04692742 -0.022680426 -0.0016042903 0.056498785 0.06574666 -0.0086757215
0.09691686 -0.05515255 0.0019980378 -0.060366496 0.017760172 0.08582353 -0.086045206 0.025790177
-0.0974461 -0.024336595 -0.042560276 0.0009575404 -0.074170984 0.027947549 -0.0896627 0.017580612
-0.043178707 -0.06313836 0.0896539 0.016593874 -0.066650845 -0.056145072 -0.044099156 -0.06137904
0.009161229 0.0019443849 0.08719683 0.0074104583 -0.055279884 0.08288792 0.021391572 -0.016158504
0.07401469 0.0829717 -0.083910614 -0.08120614 -0.066208646 -0.08282363 -0.025120528 0.04014821
-0.091080375 -0.10168459 -0.08367049 -0.052808102 0.059246287 0.090396166 0.09451403 -0.0048640575
-0.08272598 0.101546384 -0.06888785 0.038138874 0.049410343 0.028201364 0.038506307 -0.09548626
-0.037588995 -0.05927254 0.06254886 -0.062838 0.0038736647 0.096083686 0.081482336 -0.07910438
-0.09182779 0.071424484 0.033351798 -0.08298377 0.081860915 -0.080941014 0.09255682 0.066825196
0.060690906 -0.024692476 0.0145721035 -0.084876224 0.06174985 0.013247753 0.08151476 -0.048344493
0.102580756 0.07337682 -0.028127948 0.032016642 -0.07867961 -0.069381334 -0.063232504 -0.05101212
0.024198163 -0.049844775 -0.02918235 0.06245369 0.015873289 -0.045923993 -0.033521388 -0.02096367
0.05296833 0.06904784 0.075102106 -0.074063994 -0.010024764 0.030790122 -0.033399884 0.06746629
-0.015253709 0.018364452 -0.08477797 0.06767689 -0.060155246 -0.0012011026 -0.088704295 0.08563626
0.01147285 0.037584033 -0.084161505 0.015018497 0.048593987 0.07657789 0.0697085 -0.023164805
-0.0073945974 0.026576089 -0.026737329 -0.04403662 -0.08551959 -0.10652121 -0.05734272 0.005115636
0.014783334 0.014528922 0.021620948 -0.025311327 -0.10570072 0.09926443 -0.07200352 0.007495065
0.04535462 0.020609029 -0.04538358 -0.09372097 0.08764451 0.005750904 0.08334051 0.05526131
0.050375886 0.012749223 -0.015933836 -0.05340636 0.00536508 0.09014108 0.06336807 0.09297682
0.100328125 0.076800354 -0.0621673 -0.049013752 0.00057243236 -0.056739185 -0.02040149 -0.027475042
0.08790912 -0.0058122477 0.09873583 -0.07710156 -0.097170904 0.013976848 0.017509751 -0.040347032
-0.050180193 0.02756306 0.0040536285 -0.014665862 0.050295707 -0.04368944 0.07857847 -0.06962791
-0.05359117 0.032682147 0.061752886 -0.0026472174 -0.08093125 -0.0045977444 -0.035220027 -0.03205387
-0.01536516 0.02179568 -0.021824645 -0.070130475 -0.05072598 -0.08342887 -0.101919934 0.047127493
0.05503923 0.07315517 0.00726808 -0.04041757 -0.059807453 0.050562207 -0.059487008 0.07394848
-0.052831147 -0.09385827 -0.070999 0.079751536 0.077013485 0.024865383 -0.0003279732 0.083661176
0.060091496 0.06172137 -0.06763462 0.016408654 0.089347705 -0.07016323 0.0998962 -0.06366483
00000000: 9b57 9a3c b877 ba3c 5bc3 5f3d fea5 853d
00000010: 20fb 353d 8236 09bd e88b 11bd 2ff4 c63c
00000020: 5ac9 b23d a605 ebbb a3d3 e3bc bf6e 733d
00000030: 0755 833d b962 cb3a beed fcbc 6ebd c6bd
00000040: b4c2 263b 498f d53c 5c5f 9dbd f3aa 8ebd
00000050: dab3 d4bd 8a10 973d 8bcb c13d 96ae bf3d
00000060: 4d26 c03d aa3d 2fbc 6488 283d 98b2 5a3d
00000070: 9d72 c2bc 6e2d 58bd a5a5 a03d 2a95 34bc
00000080: aa21 1f3d 07bd 4ebd f736 40bd 4dcc b9bc
00000090: 0d47 d2ba 456b 673d 2fa6 863d 9d24 0ebc
000000a0: 597c c63d a4e7 61bd 83f1 023b dc42 77bd
000000b0: c87d 913c 3fc4 af3d 7838 b0bd ec45 d33c
000000c0: d291 c7bd 8a5d c7bc af53 2ebd 7303 7b3a
000000d0: f5e6 97bd 42f2 e43c 14a1 b7bd 3705 903c
000000e0: 28dc 30bd af4e 81bd 779c b73d e0ef 873c
000000f0: 3d80 88bd 60f8 65bd 51a1 34bd 9768 7bbd
00000100: fb18 163c bbda fe3a 4094 b23d 6ed3 f23b
00000110: 296d 62bd 24c1 a93d 613d af3c d75e 84bc
00000120: 0495 973d 11ed a93d 54d9 abbd 684f a6bd
00000130: 6698 87bd 6f9f a9bd 91c9 cdbc 7372 243d
00000140: 5988 babd 0340 d0bd 6f5b abbd 4f4d 58bd
00000150: 3cac 723d a021 b93d 9290 c13d ac62 9fbb
00000160: 3d6c a9bd 8df7 cf3d 1315 8dbd 8237 1c3d
00000170: 8062 4a3d 8c06 e73c cab8 1d3d 4d8e c3bd
00000180: ebf6 19bd c3c7 72bd 9e19 803d 36b1 80bd
00000190: 4fdd 7d3b 86c7 c43d 36e0 a63d 7a01 a2bd
000001a0: 3510 bcbd 0047 923d e59b 083d 65f3 a9bd
000001b0: b2a6 a73d 67c4 a5bd 6e8e bd3d a6db 883d
000001c0: 0797 783d e047 cabc d5bf 6e3c 96d3 adbd
000001d0: 69ed 7c3d 1a0d 593c 36f1 a63d e004 46bd
000001e0: dc15 d23d 9646 963d 956c e6bc e223 033d
000001f0: c622 a1bd cd17 8ebd 0b80 81bd 16f2 50bd
00000200: 3a3b c63c 092a 4cbd d30f efbc 71cf 7f3d
00000210: b308 823c cc1a 3cbd b94d 09bd 01bc abbc
00000220: 52f5 583d f468 8d3d 22cf 993d ddae 97bd
00000230: e83e 24bc 913b fc3c 51ce 08bd c42b 8a3d
00000240: b1ea 79bc 0c71 963c 13a0 adbd 2e9a 8a3d
00000250: 5965 76bd 516e 9dba 99aa b5bd 1062 af3d
00000260: 9ff8 3b3c b7f1 193d de5c acbd 2410 763c
00000270: 7d0a 473d ded4 9c3d 54c3 8e3d 1ec4 bdbc
00000280: 614e f2bb 19b6 d93c 3e08 dbbc be5f 34bd
00000290: e524 afbd cb27 dabd 33e0 6abd 11a1 a73b
000002a0: cc35 723c b70a 6e3c 6a1e b13c b359 cfbc
000002b0: 9e79 d8bd 264b cb3d 9576 93bd 2a99 f53b
000002c0: c4c5 393d 44d4 a83c 22e4 39bd c8f0 bfbd
000002d0: f77e b33d 1472 bc3b 6eae aa3d af59 623d
000002e0: f256 4e3d 1ee2 503c ad87 82bc a1c0 5abd
000002f0: 8ecd af3b e39b b83d 1ec7 813d a26a be3d
00000300: d578 cd3d 8149 9d3d 24a3 7ebd a5c2 48bd
00000310: 490f 163a 5967 68bd 0721 a7bc 5713 e1bc
00000320: b209 b43d ab74 bebb 0336 ca3d 6ce7 9dbd
00000330: 8a01 c7bd 26ff 643c 9c70 8f3c ee42 25bd
00000340: bf89 4dbd edcb e13c 4dd4 843b 1549 70bc
00000350: df02 4e3d b3f3 32bd c0ed a03d 1499 8ebd
00000360: 6a82 5bbd b7dd 053d 98f0 7c3d f07c 2dbb
00000370: 48bf a5bd ada8 96bb e042 10bd eb4a 03bd
00000380: 27be 7bbc db8c b23c 99c9 b2bc 91a0 8fbd
00000390: 0cc6 4fbd c1dc aabd 66bb d0bd c208 413d
000003a0: d170 613d 61d2 953d 1329 ee3b e58c 25bd
000003b0: a9f8 74bd 511a 4f3d a6a8 73bd 4d72 973d
000003c0: 7965 58bd c438 c0bd ec67 91bd c654 a33d
000003d0: 3fb9 9d3d 7db2 cb3c d1f3 abb9 8d56 ab3d
000003e0: 8022 763d 8ccf 7c3d 0584 8abd 716b 863c
000003f0: eefb b63d bdb1 8fbd 6196 cc3d b562 82bd

bias_ih_l0 f4 [400]
0.03193823 -0.030668605 0.03429136 0.020991227 -0.057630017 -0.07883771 -0.04564306 -0.0523403
-0.052045688 -0.04944876 -0.0478991 0.031083109 -0.0052784723 0.058034405 -0.009785651 -0.065862015
-0.020742435 0.045776717 -0.05010786 -0.083480395 0.032332864 -0.07653571 0.06758408 0.07612924
-0.0107016275 -0.019427845 -0.056877416 -0.029702136 -0.02767598 -0.016283395 0.059908427 0.07845617
-0.055961005 0.081748635 -0.102201976 0.015403603 0.06788997 0.056358337 0.018840034 -0.05916355
-0.0033431759 0.010526305 0.04069043 -0.084358916 -0.014181034 -0.06886099 0.06412627 0.084675655
-0.009527248 -0.0071882894 0.06674107 0.07837856 -0.040556155 -0.03585386 -0.04973269 -0.07957347
0.031329285 0.04152554 0.1017356 -0.027787555 0.07786388 0.09444137 0.063035585 -0.0838282
0.083719686 0.022758413 0.06098346 -0.042239822 -0.07635561 -0.032286994 -0.017917829 -0.068518296
0.028182354 -0.03506148 -0.06906631 -0.08766198 -0.0051652677 0.012551645 0.06752212 0.08077402
0.075465865 0.01399548 0.07764835 0.04698484 0.06922927 -0.07609968 -0.06208055 -0.012142772
0.038511258 0.061446354 -0.04429205 -0.05540872 0.00018504028 -0.064443566 -0.010884248 0.01659759
0.04727574 -0.04454393 0.062437605 -0.054804567 -0.058110982 0.025051434 -0.09303115 -0.026585748
-0.0835485 0.008657922 -0.061194338 -0.052869912 -0.0700244 0.016968278 -0.086343475 0.0064906795
0.06394815 -0.0516998 -0.03686156 0.011658621 0.024686579 -0.01521097 -0.077950105 -0.03908543
-0.0367373 -0.08384543 0.028254367 0.07251864 0.0059612175 -0.02947732 -0.06276244 0.044976886
-0.06837798 -0.046880536 -0.074768946 0.04967607 0.024119344 -0.057021443 -0.026678355 0.008115028
-0.066814624 -0.017962353 -0.031247318 -0.07905822 -0.06235423 -0.013383101 -0.04846534 0.076892175
0.01989594 -0.028940542 0.0059673805 0.050577596 -0.015817644 0.05439792 -0.07855659 0.0031676148
0.01633568 -0.004839829 -0.058733016 -0.02540781 0.06926072 -0.015293733 -0.06284648 0.022099728
-0.09614261 -0.0165949 0.08823574 -0.022812145 -0.031443674 -0.0738776 0.023579339 0.060325723
-0.0150721865 0.09206601 0.078301236 0.04636559 0.043325648 -0.011595668 0.04800863 0.055816364
-0.053582594 0.08703337 -0.050042443 0.042257633 -0.073360786 -0.056539208 0.047300193 -0.029901968
-0.062231407 -0.037493702 -0.072889775 -0.05702808 -0.038440723 0.099431485 0.022537615 0.05981568
-0.0053763688 -0.010231969 -0.007916198 0.07466858 -0.034956485 0.07241184 -0.097252876 0.10009075
-0.08535577 -0.07700163 0.01153071 0.09410468 0.053881608 -0.03609975 -0.03075015 -0.03404241
-0.01178886 0.04573571 0.08782348 0.08891551 -0.032828204 -0.023905154 -0.0457633 -0.05197208
-0.009565882 -0.04592289 -0.08091323 0.06550663 0.0042790566 -0.07021794 -0.011253503 -0.0737434
0.0358334 0.10084549 -0.011262276 -0.05761862 0.0021085883 0.082536645 -0.09417432 -0.047926735
-0.001929925 0.06896139 0.07658961 -0.02614365 -0.08175999 -0.06437474 0.034301482 0.046074495
-0.08067727 0.08409567 -0.045292575 -0.0431789 0.082305245 -0.084965475 -0.04676472 0.073572986
-0.03595721 -0.02484658 0.042434607 0.054902148 -0.08422848 -0.046616293 0.032116443 -0.059105676
00000000: a9d1 023d ba3c fbbc 1975 0c3d cbf5 ab3c
00000010: 740d 6cbd aa75 a1bd 38f4 3abd c862 56bd
00000020: dc2d 55bd c88a 4abd d931 44bd 01a2 fe3c
00000030: 09f7 acbb 7cb5 6d3d ff53 20bc aae2 86bd
00000040: 0aec a9bc 5e80 3b3d e63d 4dbd c5f7 aabd
00000050: 776f 043d c1be 9cbd 8669 8a3d a6e9 9b3d
00000060: e155 2fbc 2527 9fbc 4bf8 68bd e551 f3bc
00000070: bdb8 e2bc c164 85bc 8a62 753d a1ad a03d
00000080: 5e37 65bd d46b a73d 454f d1bd 655f 7c3c
00000090: e609 8b3d 00d8 663d 6a56 9a3c 7b55 72bd
000000a0: 2f19 5bbb 8676 2c3c 02ab 263d 5ec4 acbd
000000b0: 9157 68bc fe06 8dbd a254 833d 6e6a ad3d
000000c0: 2d18 1cbc be8b ebbb 8baf 883d f084 a03d
000000d0: 361e 26bd 7fdb 12bd 81b4 4bbd 6af7 a2bd
000000e0: 2353 003d af16 2a3d c15a d03d baa2 e3bc
000000f0: 1977 9f3d 7a6a c13d cd18 813d 1fae abbd
00000100: 3a75 ab3d da6f ba3c cbc9 793d aa03 2dbd
00000110: 5460 9cbd 5e3f 04bd 69c8 92bc 5253 8cbd
00000120: aede e63c a09c 0fbd a372 8dbd 2088 b3bd
00000130: 6841 a9bb 6aa5 4d3c 0a49 8a3d d96c a53d
00000140: d98d 9a3d 4c4d 653c 1906 9f3d 2d73 403d
00000150: 13c8 8d3d 26da 9bbd 2d48 7ebd 7af2 46bc
00000160: fbbd 1d3d 2caf 7b3d 956b 35bd 41f4 62bd
00000170: 5f07 4239 fdfa 83bd d853 32bc abf7 873c
00000180: 35a4 413d b273 36bd 93be 7f3d c17a 60bd
00000190: c805 6ebd aa38 cd3c 1e87 bebd 5bca d9bc
000001a0: 7a1b abbd f5d9 0d3c eaa6 7abd 1f8e 58bd
000001b0: f468 8fbd 0f01 8b3c d9d4 b0bd c4af d43b
000001c0: 3ff7 823d 2bc3 53bd 26fc 16bd cd03 3f3c
000001d0: 823b ca3c 6f37 79bc 4ea4 9fbd 0b18 20bd
000001e0: da79 16bd 27b7 abbd b475 e73c a784 943d
000001f0: 5156 c33b 6c7a f1bc 9889 80bd af39 383d
00000200: c109 8cbd ce05 40bd 7620 99bd 2379 4b3d
00000210: ee95 c53c 518f 69bd 918c dabc e5f4 043c
00000220: 1bd6 88bd c925 93bc 60fa ffbc 47e9 a1bd
00000230: 2667 7fbd cb44 5bbc 9883 46bd a579 9d3d
00000240: cffc a23c b714 edbc 048a c33b 742a 4f3d
00000250: 0194 81bc 5ad0 5e3d 47e2 a0bd c297 4f3b
00000260: 67d2 853c 6e97 9ebb 0892 70bd 0a24 d0bc
00000270: 90d8 8d3d 9192 7abc a8b5 80bd 7d0a b53c
00000280: 6be6 c4bd 07f2 87bc f1b4 b43d 89e0 babc
00000290: 15cb 00bd 244d 97bd 7529 c13c 1b18 773d
000002a0: 55f1 76bc 1b8d bc3d 665c a03d d8e9 3d3d
000002b0: 3c76 313d c2fb 3dbc b2a4 443d b39f 643d
000002c0: 6c79 5bbd 8d3e b23d 4ef9 4cbd 5716 2d3d
000002d0: 2e3e 96bd a895 67bd d9bd 413d f9f4 f4bc
000002e0: 5ce6 7ebd ff92 19bd 3c47 95bd 4796 69bd
000002f0: 0574 1dbd bca2 cb3d cea0 b83c 4901 753d
00000300: 402c b0bb fda3 27bc f1b2 01bc d7eb 983d
00000310: 882e 0fbd a94c 943d 842c c7bd 61fc cc3d
00000320: 02cf aebd 08b3 9dbd 4eeb 3c3c f4b9 c03d
00000330: f6b2 5c3d 55dd 13bd bde7 fbbc 0e70 0bbd
00000340: 1026 41bc 5e55 3b3d ccdc b33d 5619 b63d
00000350: de76 06bd bed4 c3bc 4c72 3bbd ade0 54bd
00000360: 38ba 1cbc a419 3cbd d6b5 a5bd 5728 863d
00000370: 5437 8c3b 6cce 8fbd 9d60 38bc c806 97bd
00000380: 0bc6 123d 1588 ce3d 6985 38bc 8101 6cbd
00000390: 3e30 0a3b f908 a93d 77de c0bd d34e 44bd
000003a0: 8af5 fcba a13b 8d3d 03db 9c3d 352b d6bc
000003b0: c871 a7bd e7d6 83bd b67f 0c3d 9cb8 3c3d
000003c0: 203a a5bd 5a3a ac3d b584 39bd 5cdc 30bd
000003d0: a78f a83d 6102 aebd 5d8c 3fbd 6fad 963d
000003e0: de47 13bd 0e8b cbbc e9cf 2d3d 13e1 603d
000003f0: fb7f acbd baf0 3ebd 888c 033d cb18 72bd

bias_hh_l0 f4 [400]
0.082451634 -0.08712224 -0.016298775 -0.024531098 0.03656514 0.077714086 -0.053030126 0.037342347
0.0960336 0.058957703 -0.04770504 0.02385198 0.04918788 -0.099637695 0.0058851545 -0.0869579
0.0042225383 0.010410096 -0.088299766 0.091696925 0.0074010794 -0.049291916 -0.007520822 -0.050834116
-0.06831586 0.0064158947 0.009639869 0.009714801 0.032016046 -0.013783644 -0.0902696 -0.01655609
-0.08613685 0.089538366 -0.020838363 -0.038886312 -0.04273639 0.04419093 -0.00484197 -0.024398282
-0.08349981 -0.07949575 0.05795633 -0.0815697 -0.10185063 0.04642718 0.010167882 -0.013083949
-0.060029857 -0.09498713 0.0012066673 0.044969045 -0.044348046 0.036410704 0.0876956 0.075060226
0.04376329 -0.03945424 -0.0888459 0.08350476 -0.07979354 -0.06132342 -0.06644737 0.058578525
0.07848708 -0.042766105 0.069282316 -0.042858697 0.06250739 0.0037019474 0.058032833 0.02776693
-0.050660428 -0.045389034 0.01680356 -0.08283151 -0.07656551 -0.012764862 -0.09191796 0.0578687
0.05353021 0.06755237 -0.0065991646 -0.030603196 -0.056346383 0.05752638 0.09899708 -0.021793585
-0.039886482 -0.0018152606 -0.024454283 -0.10787696 -0.013170836 -0.099923044 -0.026763026 -0.044307202
-0.014793739 0.07433125 0.06600655 0.06901849 0.061387792 0.015066919 0.049789783 -0.05556854
-0.046898376 0.050263636 -0.04399088 -0.003054522 0.10032702 0.07915346 0.053309638 0.06888712
-0.025511803 0.0538449 0.006913939 -0.009855884 0.050508924 -0.07721655 -0.07776344 -0.059085365
-0.06496601 -0.100664206 0.09207589 0.08669745 -0.043680437 0.018699428 0.024013989 0.08154186
-0.013476207 -0.064415865 0.045693588 0.020791398 -0.07894961 0.062431697 0.085388064 -0.09616171
-0.023962975 0.016365958 -0.014510753 -0.0011784573 -0.09491967 0.07303765 -0.072070725 0.091596596
-0.079841316 0.015188019 -0.06632675 0.044435084 0.049570564 -0.07171573 0.021452203 -0.075182244
-0.0835651 0.042409904 -0.06611299 0.02304789 0.079029456 -0.039873514 0.0056436607 -0.0041823853
0.09263362 0.039006863 0.013591021 0.041413143 -0.06302061 -0.03311535 0.101343945 -0.054138906
0.074331276 -0.027672462 -0.021174623 0.027079027 0.07267944 -0.0021655965 -0.081493735 0.08451161
0.049159862 0.05530047 -0.058188934 -0.087994285 0.070955016 0.015857317 -0.004003591 0.09175955
0.048376523 0.04034138 -0.03208548 -0.03667723 0.032590427 -0.03272709 -0.100317724 0.08949539
0.006073518 -0.10380602 -0.055385422 0.057790175 0.05224781 -0.083620846 -0.00025210576 -0.00072772097
0.025129218 -0.08082887 -0.07904473 -0.024799174 -0.05968111 0.069853954 -0.046240773 0.036673144
0.053048633 -0.007790634 -0.013106585 0.06403172 0.04549196 0.07403311 0.014836738 0.07906193
-0.01170136 -0.032738153 -0.019895079 0.07157088 -0.09858708 -0.040438544 0.04535343 -0.046134762
0.056702044 -0.024104556 -0.048712995 -0.1090523 0.043129228 0.039718788 0.016574964 0.04405354
0.060374003 -0.10167231 0.02973252 -0.03919517 -0.08115033 0.053989526 -0.0028022786 0.081893735
0.0036235582 -0.0818572 -0.008115857 0.07828581 -0.041759282 -0.09161332 0.046854742 0.0031196794
-0.08250088 -0.03523948 0.07655416 -0.058345594 0.028162505 0.08851358 0.06127395 -0.06477883
00000000: 67dc a83d 256d b2bd 0285 85bc 71f5 c8bc
00000010: 54c5 153d 9028 9f3d 1e36 59bd 4af4 183d
00000020: 44ad c43d a27d 713d 5c66 43bd 3a65 c33c
00000030: 3b79 493d d90e ccbd 41d8 c03b fc16 b2bd
00000040: 385d 8a3b 1b8f 2a3c 82d6 b4bd 99cb bb3d
00000050: c184 f23b 52e6 49bd 3a71 f6bb 6f37 50bd
00000060: 30e9 8bbd 6d3c d23b 8bf0 1d3c d42a 1f3c
00000070: 4223 033d cbd4 61bc 45df b8bd a3a0 87bc
00000080: 8468 b0bd e45f b73d 37b5 aabc 4147 1fbd
00000090: 5a0c 2fbd 8c01 353d 63a9 9ebb e8de c7bc
000000a0: f301 abbd abce a2bd 9e63 6d3d 040e a7bd
000000b0: 1097 d0bd 6d2a 3e3d 3097 263c 0f5e 56bc
000000c0: dee1 75bd 9d88 c2bd 0929 9e3a 7631 383d
000000d0: 4ca6 35bd 6423 153d c099 b33d 2db9 993d
000000e0: 2341 333d c59a 21bd d7f4 b5bd 8b04 ab3d
000000f0: cc6a a3bd 442e 7bbd 8f15 88bd 09f0 6f3d
00000100: d6bd a03d 832b 2fbd e3e3 8d3d 9a8c 2fbd
00000110: e003 803d 5f9c 723b d6b3 6d3d 7977 e33c
00000120: 4f81 4fbd dae9 39bd 9fa7 893c 91a3 a9bd
00000130: 61ce 9cbd b623 51bc 7c3f bcbd bb07 6d3d
00000140: 7e42 5b3d e658 8a3d ce3d d8bb 8eb3 fabc
00000150: 77cb 66bd c8a0 6b3d fbbe ca3d 7688 b2bc
00000160: 0260 23bd 0aee edba 5954 c8bc 98ee dcbd
00000170: 7dca 57bc 74a4 ccbd 223e dbbc 787b 35bd
00000180: 7061 72bc fb3a 983d 712e 873d 9159 8d3d
00000190: c471 7b3d 3ddb 763c 5ff0 4b3d d69b 63bd
000001a0: 8318 40bd 3ee1 4d3d c82f 34bd 602e 48bb
000001b0: 4178 cd3d 361b a23d 355b 5a3d b114 8d3d
000001c0: 21fe d0bc 788c 5c3d 538e e23b 937a 21bc
000001d0: 72e2 4e3d b623 9ebd 7042 9fbd 7f03 72bd
000001e0: e60c 85bd 0929 cebd 4992 bc3d 6f8e b13d
000001f0: 42ea 32bd 8b2f 993c fcb8 c43c 6bff a63d
00000200: 4fcb 5cbc 77ec 83bd 3329 3b3d b952 aa3c
00000210: 55b0 a1bd 61b8 7f3d f0df ae3d 6ef0 c4bd
00000220: 004e c4bc e711 863c 82be 6dbc 7776 9aba
00000230: 3e65 c2bd c394 953d d199 93bd ff96 bb3d
00000240: d883 a3bd 2bd7 783c 52d6 87bd 9001 363d
00000250: 810a 4b3d b2df 92bd 88bc af3c 26f9 99bd
00000260: 2e24 abbd 02b6 2d3d 3f66 87bd eece bc3c
00000270: 32da a13d 6952 23bd 75ee b83b 640c 89bb
00000280: b2b6 bd3d a9c5 1f3d e0ac 5e3c d4a0 293d
00000290: f310 81bd f6a3 07bd 6a8d cf3d c2c0 5dbd
000002a0: ff3a 983d 5cb1 e2bc 6776 adbc d6d4 dd3c
000002b0: f5d8 943d aeec 0dbb 30e6 a6bd 6c14 ad3d
000002c0: da5b 493d bf82 623d 8557 6ebd 5936 b4bd
000002d0: dd50 913d 34e7 813c 8e30 83bb 6eec bb3d
000002e0: 7626 463d 013d 253d 106c 03bd dd3a 16bd
000002f0: 8a7d 053d d70c 06bd 6173 cdbd 5c49 b73d
00000300: 5d04 c73b 4098 d4bd d3db 62bd 64b5 6c3d
00000310: cd01 563d 6841 abbd 102d 84b9 87c4 3eba
00000320: cadb cd3c 9b89 a5bd 34e2 a1bd a327 cbbc
00000330: 2e74 74bd 970f 8f3d f766 3dbd 9436 163d
00000340: 8649 593d 9348 ffbb 00bd 56bc 1023 833d
00000350: c755 3a3d ac9e 973d ca15 733c 39eb a13d
00000360: 10b7 3fbc 7118 06bd 01fb a2bc c193 923d
00000370: 06e8 c9bd e3a2 25bd 85c4 393d cef7 3cbd
00000380: 6740 683d eb76 c5bc 4787 47bd d056 dfbd
00000390: 46a8 303d 2bb0 223d 38c8 873c 7c71 343d
000003a0: bb4a 773d 9239 d0bd 9d91 f33c 1d8b 20bd
000003b0: 2532 a6bd 1f24 5d3d 6fa6 37bb e7b7 a73d
000003c0: 3879 6d3b bfa4 a7bd 5ff8 04bc 5054 a03d
000003d0: c80b 2bbd c49f bbbd c2ea 3f3d 8973 4c3b
000003e0: 39f6 a8bd 4657 10bd 6dc8 9c3d cafb 6ebd
000003f0: 0eb5 e63c 9c46 b53d 65fa 7a3d c3aa 84bd

weight_ih_l0 f4 [400, 4]
0.012451857 0.06663528 0.07872318 -0.10277722 -0.006145216 -0.00035579884 0.062178746 0.042888787
0.054460857 0.030643089 0.10390258 -0.03343306 -0.05825649 0.07196826 -0.07403432 -0.023195136
-0.068014555 -0.020302875 0.082041584 0.09320618 -0.01725029 0.04669557 -0.029411146 0.052007202
-0.0063097444 0.06378006 0.07987765 0.06487018 -0.07487349 -0.062093828 0.07658163 -0.061045963
-0.009540586 -0.094460405 0.0064560818 -0.06551271 -0.062211834 0.068715654 0.038163517 -0.027978415
0.029606426 0.09004686 -0.035196915 -0.10667378 -0.00016916193 -0.10240898 -0.03568881 -0.09237421
0.01947547 -0.093387365 0.0725899 -0.0030248177 -0.052645087 0.04402088 -0.017038599 0.068700515
0.07029773 0.06996073 0.040417027 -0.015596581 0.027432792 -0.07704861 -0.03469517 -0.059795097
0.009330291 0.095637895 -0.0027796319 0.0097900685 0.06322327 0.09831312 -0.04672032 0.01586357
-0.083475076 -0.008007889 0.071076825 0.04760396 -0.014095049 -0.06318555 -0.0033277483 -0.055243
-0.05265153 0.07697623 0.034264818 -0.06739824 -0.09408094 0.0029534453 -0.08723234 -0.07217399
0.10065156 0.034948397 -0.063870005 0.0022036782 -0.08427631 0.048630815 0.06527707 -0.071106486
-0.027674625 0.048150398 -0.079003565 -0.020843878 -0.04818667 0.057634797 0.006031364 -0.005568238
0.036309127 -0.09075765 0.08494246 -0.10248373 0.06444335 -0.040678404 -0.05858619 0.083738156
-0.032898713 0.005088188 -0.010847371 -0.0592934 -0.093092024 0.004754045 -0.022484878 -0.06957049
0.016190065 0.07178609 -0.050207473 -0.056244772 0.018355157 -0.0043391297 -0.061472192 -0.09093193
0.030272333 -0.0076640113 -0.065022394 0.0013406124 0.054883037 0.042668656 -0.016203608 0.05718271
0.0007921914 0.03324235 0.049922768 -0.08001231 0.092107914 0.008099803 -0.08949863 0.010508755
-0.09282346 -0.07243406 -0.028882582 -0.0031037678 0.0164813 0.009637571 0.09157367 -0.03727635
-0.04983394 0.019016907 -0.09776575 -0.08122954 -0.016050443 -0.056750625 -0.087542646 -0.06540376
-0.053424872 0.06329719 -0.08251769 -0.023296308 0.015831226 -0.07505381 0.09305434 0.027047515
-0.059483662 0.008845085 -0.049392566 0.012646353 -0.002024044 0.092167795 -0.00818023 -0.032270174
0.050726864 -0.08440402 -0.0014509697 -0.07147938 -0.07752743 -0.057905026 0.041188575 0.062814236
-0.04200153 -0.038158126 -0.0037867045 -0.007657322 -0.048887555 0.0391534 0.04456136 0.039286252
-0.062176872 0.040144138 0.08158839 -0.04632824 -0.057651456 -0.012335482 0.078215376 -0.0536791
-0.072886005 0.043580107 -0.08889405 0.012453507 -0.053018957 -0.046512365 -0.00047701693 -0.011107741
0.0029418746 0.08137409 0.05943975 -0.09574693 0.0015140108 0.052023314 0.08751063 -0.0776696
0.013383724 -0.02729479 -0.071121454 -0.014357368 0.06342354 -0.05704433 0.033901498 0.05269499
0.09861925 0.09909985 -0.0363004 -0.06739507 -0.032651518 0.0683244 0.061325442 0.051320586
-0.023639712 -0.05804194 0.06706059 0.011378061 0.05813105 0.06765387 0.052991048 0.01034121
0.037842423 -0.04633921 0.021695388 0.011747591 0.026851984 -0.09851834 -0.04520314 0.011996551
-0.08413103 -0.0619626 0.04502115 0.09767098 -0.019749703 -0.1035518 0.080510974 0.0060117086
00000000: e002 4c3c 1478 883d 9e39 a13d dd7c d2bd
00000010: cf5d c9bb 838a bab9 24af 7e3d 27ac 2f3d
00000020: 5912 5f3d 3707 fb3c e0ca d43d 1bf1 08bd
00000030: 5b9e 6ebd 1864 933d 4e9f 97bd ba03 bebc
00000040: 374b 8bbd 3752 a6bc 6b05 a83d e2e2 be3d
00000050: 7b50 8dbc db43 3f3d a5ef f0bc 8105 553d
00000060: f9c1 cebb 1f9f 823d e596 a33d a8da 843d
00000070: 4657 99bd 1956 7ebd d4d6 9c3d 550b 7abd
00000080: 1e50 1cbc 7574 c1bd 8a8d d33b 872b 86bd
00000090: d6d1 7ebd cbba 8c3d 5951 1c3d fd32 e5bc
000000a0: 2d89 f23c 7d6a b83d a42a 10bd c877 dabd
000000b0: 0f61 31b9 cdbb d1bd 6e2e 12bd b12e bdbd
000000c0: 058b 9f3c e041 bfbd 03aa 943d 053c 46bb
000000d0: 60a2 57bd 3d4f 343d 8894 8bbc dbb2 8c3d
000000e0: 42f8 8f3d 9247 8f3d 538c 253d cd88 7fbc
000000f0: bcba e03c a9cb 9dbd 861c 0ebd b4eb 74bd
00000100: 14de 183c cddd c33d 7c2a 36bb 8666 203c
00000110: 347b 813d 6458 c93d ce5d 3fbd 51f4 813c
00000120: fbf4 aabd 8533 03bc ba90 913d 5ffc 423d
00000130: ecee 66bc 6d67 81bd 5a16 5abb 7c46 62bd
00000140: 21a9 57bd b7a5 9d3d 4459 0c3d 1708 8abd
00000150: 82ad c0bd 978e 413b dea6 b2bd f5cf 93bd
00000160: 6822 ce3d 0d26 0f3d 47ce 82bd 966b 103b
00000170: 0f99 acbd 1b31 473d fcaf 853d 47a0 91bd
00000180: e5b5 e2bc 5a39 453d 9fcc a1bd c8c0 aabc
00000190: 635f 45bd 7712 6c3d c0a2 c53b c475 b6bb
000001a0: e1b8 143d 26df b9bd 50f6 ad3d fde2 d1bd
000001b0: e0fa 833d 669e 26bd 13f8 6fbd e97e ab3d
000001c0: cdc0 06bd d1ba a63b 2cb9 31bc a3dd 72bd
000001d0: 08a7 bebd d2c7 9b3b 3532 b8bc f97a 8ebd
000001e0: 07a1 843c 9604 933d 5aa6 4dbd eb60 66bd
000001f0: 8e5d 963c 422f 8ebb 44ca 7bbd 853a babd
00000200: affd f73c 6322 fbbb 762a 85bd 7db7 af3a
00000210: 09cd 603d 54c5 2e3d 6ebd 84bc 6b38 6a3d
00000220: 11ab 4f3a 2129 083d d17b 4c3d 7edd a3bd
00000230: 13a3 bc3d 09b5 043c 0f4b b7bd ea2c 2c3c
00000240: 3a1a bebd 4f58 94bd 2a9b ecbc 9568 4bbb
00000250: cb03 873c e7e6 1d3c fa8a bb3d 16af 18bd
00000260: ac1e 4cbd 58c9 9b3c 6939 c8bd ac5b a6bd
00000270: 387c 83bc 5873 68bd 8f49 b3bd 68f2 85bd
00000280: 0ad4 5abd f5a1 813d 09ff a8bd e6d7 bebc
00000290: 7db0 813c d0b5 99bd 4693 be3d c092 dd3c
000002a0: 24a5 73bd faea 103c dc4f 4abd a632 4f3c
000002b0: d3a5 04bb 78c2 bc3d 5f06 06bc bb2d 04bd
000002c0: f9c6 4f3d 04dc acbd 772e beba c863 92bd
000002d0: b4c6 9ebd d22d 6dbd 5ab5 283d c0a4 803d
000002e0: cc09 2cbd b24b 1cbd 5c2a 78bb 46ea fabb
000002f0: 513e 48bd 515f 203d f985 363d 9fea 203d
00000300: 2dad 7ebd 2e6e 243d d017 a73d aec2 3dbd
00000310: ef23 6cbd c31a 4abc 622f a03d 9ede 5bbd
00000320: 4245 95bd 0e81 323d 150e b6bd cb09 4c3c
00000330: 682a 59bd c083 3ebd 2118 fab9 3efd 35bc
00000340: 77cc 403b 75a7 a63d 1877 733d f716 c4bd
00000350: c671 c63a 6616 553d c638 b33d 3d11 9fbd
00000360: 6847 5b3c 5399 dfbc 20a8 91bd 2b3b 6bbc
00000370: 33e4 813d 51a7 69bd 4cdc 0a3d b4d6 573d
00000380: e4f8 c93d ddf4 ca3d baaf 14bd 6d06 8abd
00000390: 99bd 05bd aaed 8b3d 6330 7b3d 8935 523d
000003a0: 12a8 c1bc 63bd 6dbd 1057 893d 0c6b 3a3c
000003b0: d31a 6e3d 1d8e 8a3d 240d 593d 2e6e 293c
000003c0: a800 1b3d 2fce 3dbd 87ba b13c f878 403c
000003d0: b1f8 db3c fcc3 c9bd ed26 39bd 2f8d 443c
000003e0: e44c acbd 7fcc 7dbd 1968 383d b907 c83d
000003f0: 21ca a1bc f712 d4bd f0e2 a43d defd c43b

weight_hh_l0 f4 [400, 100]
-0.078448035 -0.08831349 0.048742656 -0.08521599 0.092387006 -0.10711252 -0.058197696 -0.090069056
0.025391502 -0.031180333 -0.02372998 0.029699761 -0.041469194 -0.09707672 -0.035559073 0.06334163
0.047588527 -0.06534968 -0.03363318 -0.10117817 -0.05137871 -0.08500748 -0.059525315 -0.050442316
0.081683956 -0.034650244 0.0669392 -0.10540351 0.030995918 0.0035847845 0.022457652 0.01192388
0.017162401 0.06078071 0.07792071 0.090521924 -0.026990265 -0.061254453 0.06746964 0.02066006
0.056015734 0.069912165 0.06478852 -0.070892304 0.10356762 0.02341234 0.020076562 -0.08580288
0.048126426 0.023230607 0.036177628 -0.021302894 -0.014482175 0.09021439 0.07370822 -0.055291336
-0.021363983 -0.048928067 -0.098381616 0.03416025 -0.09026548 -0.0141118355 0.08408267 -0.023399197
0.005078185 0.05998558 0.06620296 0.030564055 0.03468589 -0.073959395 -0.08928237 -0.010903368
0.037879046 -0.0063447086 0.038054448 -0.015188858 -0.10753296 0.030539261 -0.09419122 0.048242714
0.09863541 -0.04272086 0.03180303 0.062866345 0.018649481 0.07535117 -0.0053047617 -0.026609262
0.006240958 0.0017453155 -0.10771695 0.10304568 0.061299745 0.057552755 -0.099537104 0.0933987
-0.060381003 0.010862696 0.07083548 0.013011794 0.07799831 0.041150767 -0.067084 -0.02816306
0.06923809 0.043444935 0.08962655 -0.09442798 -0.06991144 -0.020928556 0.09595441 0.006348731
0.054757547 -0.028832482 0.08352609 0.05107242 0.1094179 -0.088799275 -0.014089461 -0.053707734
0.07903505 -0.0043416303 0.033154454 -0.008230681 0.04157007 0.017977955 0.0912548 0.042405084
0.08483416 -0.033334136 -0.095752254 -0.0009379735 0.038509164 0.10571533 0.049578924 -0.03331417
-0.06452119 0.0026062157 -0.07104276 0.045065653 0.03527723 0.058551125 0.04355083 0.0060390215
0.051099494 -0.049270954 0.012214268 0.045485552 -0.0754292 0.07298593 -0.05342977 0.029672518
-0.06370224 -0.0127621265 -0.076832555 0.008950515 -0.072755724 -0.045394246 -0.04574036 0.061086327
-0.002698295 -0.059205256 -0.041463036 0.051329713 -0.06968389 0.050047874 0.040802028 -0.08853053
0.10681744 0.097946286 0.073156804 0.08161067 0.101156905 0.03939166 -0.057673793 0.07641404
0.06747394 -0.08299543 0.06954324 -0.037087258 -0.0666384 -0.042871233 -0.09102706 -0.07600511
0.056749847 0.016997237 0.04407416 -0.008358253 0.08146754 -0.034005634 -0.04802878 -0.0006320445
-0.089202575 -0.021088894 0.08323868 -0.062650084 -0.006472543 0.05453041 0.0594137 -0.05481838
0.09564774 0.0041923365 -0.0032047785 -0.10673737 -0.011480003 0.06528229 -0.1009414 0.09846298
-0.016364312 -0.04533753 -0.048906807 -0.0636715 -0.041370764 -0.01897919 -0.03817327 0.029257936
-0.0920522 0.10927822 -0.05182122 0.021292988 -0.09919474 0.036490574 -0.0010414197 -0.0057698996
0.08714153 0.07037396 0.095836446 -0.029246788 -0.102156974 0.05946308 0.017081423 0.07632898
-0.07198055 -0.09341072 0.054588363 0.03447193 -0.018693866 -0.036564868 0.017837817 -0.104031354
-0.08804749 0.055895973 -0.00479285 0.08046604 -0.042110275 -0.08572768 0.052405335 0.028926875
-0.037697665 0.02121977 -0.06287825 0.07701202 -0.018280007 -0.075461484 -0.05931576 0.045793306
00000000: 5da9 a0bd b4dd b4bd 61a6 473d b985 aebd
00000010: 6635 bd3d cf5d dbbd b560 6ebd 2076 b8bd
00000020: d701 d03c e66d ffbc 6065 c2bc ea4c f33c
00000030: 9adb 29bd 29d0 c6bd 64a6 11bd 42b9 813d
00000040: 30ec 423d 0ed6 85bd f2c2 09bd 8036 cfbd
00000050: 7b72 52bd 6718 aebd d1d0 73bd 9a9c 4ebd
00000060: eb49 a73d 6aed 0dbd 6b17 893d ccdd d7bd
00000070: 27eb fd3c b4ee 6a3b 1cf9 b73c 615c 433c
00000080: 2a98 8c3c 32f5 783d e594 9f3d 8f63 b93d
00000090: b01a ddbc f3e5 7abd 862d 8a3d 493f a93c
000000a0: c170 653d 1c2e 8f3d d8af 843d fc2f 91bd
000000b0: 431b d43d 3ccb bf3c 9a77 a43c 6cb9 afbd
000000c0: 3720 453d 1d4e be3c fe2e 143d 6883 aebc
000000d0: a546 6dbc 52c2 b83d 56f4 963d 2b79 62bd
000000e0: 8503 afbc cc68 48bd 4d7c c9bd 9eeb 0b3d
000000f0: 1cdd b8bd 5435 67bc 8933 ac3d acaf bfbc
00000100: e766 a63b 71b3 753d 6b95 873d 7861 fa3c
00000110: cb12 0e3d 0678 97bd add9 b6bd 0aa4 32bc
00000120: 0f27 1b3d 46e7 cfbb fbde 1b3d b0da 78bc
00000130: 3e3a dcbd 792d fa3c 54e7 c0bd 279a 453d
00000140: 5d01 ca3d 12fc 2ebd e543 023d 12c0 803d
00000150: ccc6 983c b751 9a3d 91d3 adbb abfb d9bc
00000160: f380 cc3b 12c3 e43a b49a dcbd 9d09 d33d
00000170: 7115 7b3d 70bc 6b3d 1cda cbbd d147 bf3d
00000180: 1252 77bd 73f9 313c 3112 913d 6b2f 553c
00000190: 94bd 9f3d b58d 283d 5663 89bd 38b6 e6bc
000001a0: b3cc 8d3d 51f3 313d 208e b73d 7563 c1bd
000001b0: bb2d 8fbd 5d72 abbc bf83 c43d 0409 d03b
000001c0: 7349 603d 1932 ecbc ba0f ab3d 5031 513d
000001d0: 7e16 e03d 65dc b5bd 7cd7 66bc a4fc 5bbd
000001e0: 21dd a13d 3c44 8ebb f7cc 073d fad9 06bc
000001f0: 6145 2a3d 8146 933c cce3 ba3d f4b0 2d3d
00000200: 88bd ad3d 6089 08bd c219 c4bd 56e2 75ba
00000210: c9bb 1d3d 4781 d83d 4513 4b3d 7074 08bd
00000220: b023 84bd 0bcd 2a3b de7e 91bd c396 383d
00000230: db7e 103d 4ed3 6f3d 5b62 323d fce2 c53b
00000240: b44d 513d 57d0 49bd 5a1e 483c 0f4f 3a3d
00000250: a07a 9abd a679 953d 2dd9 5abd c813 f33c
00000260: 5276 82bd 3d18 51bc 635a 9dbd 2ea5 123c
00000270: f400 95bd 51ef 39bd 3e5a 3bbd a835 7a3d
00000280: e1d5 30bb 3681 72bd 25d5 29bd 1b3f 523d
00000290: 6db6 8ebd 00ff 4c3d 0720 273d 7f4f b5bd
000002a0: 1ac3 da3d 1098 c83d 3cd3 953d 7f23 a73d
000002b0: 5a2b cf3d 2659 213d 5b3b 6cbd f77e 9c3d
000002c0: c72f 8a3d 82f9 a9bd b06c 8e3d cfe8 17bd
000002d0: b779 88bd bf99 2fbd 656c babd 91a8 9bbd
000002e0: 8772 683d ca3d 8b3c 1b87 343d 0ef1 08bc
000002f0: 74d8 a63d 7e49 0bbd d3b9 44bd caaf 25ba
00000300: d7af b6bd 9ec2 acbc 0b79 aa3d b04e 80bd
00000310: a017 d4bb 475b 5f3d c85b 733d 3d89 60bd
00000320: f6e2 c33d de5f 893b 4307 52bb 1f99 dabd
00000330: 9f16 3cbc b9b2 853d 5dba cebd f5a6 c93d
00000340: 730e 86bc d9b3 39bd 8152 48bd 3466 82bd
00000350: 6474 29bd 3f7a 9bbc 935b 1cbd 57ae ef3c
00000360: dd85 bcbd 42cd df3d 7d42 54bd a26e ae3c
00000370: 9d26 cbbd 2477 153d 3f80 88ba 6d11 bdbb
00000380: 4277 b23d 3920 903d e645 c43d f696 efbc
00000390: ad37 d1bd 8f8f 733d 57ee 8b3c 5e52 9c3d
000003a0: 8a6a 93bd 1f4e bfbd 0c98 5f3d 7032 0d3d
000003b0: e123 99bc 0bc5 15bd 9d20 923c 640e d5bd
000003c0: 3e52 b4bd 2df3 643d 570d 9dbb 61cb a43d
000003d0: d37b 2cbd fe91 afbd faa6 563d 0ef8 ec3c
000003e0: de68 1abd 15d5 ad3c 50c6 80bd 7ab8 9d3d
000003f0: f4bf 95bc 8d8b 9abd 15f5 72bd c391 3b3d

bias_ih_l0 f4 [400]
-0.08367093 -0.03742876 -0.018551223 0.048634753 0.07442362 -0.076264255 0.022073334 -0.05689123
0.028891701 -0.07848349 -0.111843035 0.086384945 0.047502704 -0.08783431 0.107021675 -0.0395308
-0.061702855 0.0180153 0.10325139 0.0010339221 -0.06061924 0.06525766 -0.084223285 0.091000214
0.08151032 -0.0052573504 0.055731785 0.059605278 0.0034673787 0.016772259 -0.006044888 -0.0334222
-0.0036956125 0.016218502 -0.07684182 0.087733015 0.012141201 -0.015665347 0.038268574 -0.009656297
0.05493426 -0.07481169 0.08180707 0.02772762 -0.01646512 0.049329877 0.039063867 0.09236295
-0.05371321 -0.036281303 -0.015306906 -0.0782228 -0.046579316 0.0069221794 -0.10457102 0.010258178
0.051688395 -0.072617546 0.0028660211 0.06953803 -0.06482531 -0.02633326 -0.060723584 0.069382966
0.09536931 0.029090911 0.006992465 -0.032050442 0.047026098 -0.040834934 -0.00029697167 0.02922993
-0.06533305 -0.030348063 -0.07714389 0.073586404 0.00720957 -0.031820007 0.07572414 0.052926306
0.061050672 -0.02817598 -0.011632193 0.044721816 0.10762057 0.06918419 -0.04715019 -0.08729906
-0.027834004 0.05849785 0.022522876 -0.08074032 -0.006863028 -0.06667612 -0.06842915 -0.0102407485
0.037029907 -0.015360966 0.010690826 0.009714759 -0.054590244 0.08150208 0.047449812 0.0798102
-0.078616604 -0.060521595 -0.1034785 -0.089482985 0.077512115 -0.072576866 -0.07037024 0.0045471587
0.046501957 -0.014731573 0.0890479 -0.041848868 0.06442598 -1.0571573e-05 -0.07162395 -0.0050964085
-0.026922585 -0.04908149 0.06637138 0.062482573 0.07289702 -0.08032288 0.05616755 -0.027045105
-0.072968856 0.05835813 0.009724477 0.07007688 0.057661675 -0.012791134 -0.07561757 -0.06901241
0.053677954 -0.050179187 -0.10356046 0.033566236 0.08825611 -0.046539817 -0.0742046 0.056673035
0.030512964 -0.060190544 -0.006491287 -0.0075340657 -0.07754415 0.0053326236 -0.018642075 0.09448714
-0.009739878 0.028444692 -0.046113614 0.06449749 -0.043995183 -0.06321779 0.0097601 -0.058989756
0.053024974 -0.050645284 -0.016621146 0.020302245 -0.008841601 0.042624295 0.06757173 -0.027395623
0.1112964 -0.05296493 -0.06530068 -0.03729221 -0.023337694 -0.090073064 -0.02621993 0.097369306
0.00094871427 -0.06568439 0.05827775 0.077859156 -0.07218179 0.027177766 0.09684552 0.012091627
-0.052610032 -0.056259673 0.056034755 -0.055091593 -0.016574878 -0.03173585 0.09534266 0.051592264
0.005577183 0.0014286331 0.07085367 0.028136866 -0.092832215 -0.06358856 0.060313206 -0.04556431
-0.038891926 -0.024681563 0.072993696 -0.058902215 0.09025738 0.020337636 0.04510041 0.030955307
-0.022336954 0.03978116 -0.07473077 -0.08097513 0.01744642 0.04917159 -0.02103457 -0.04601157
0.02587272 0.08953092 0.009867799 0.08764884 0.031633724 0.09317823 -0.057054933 -0.05741731
0.0864448 -0.06860409 0.080624625 0.055039734 -0.055992275 0.01167753 0.041276895 -0.07683385
-0.016733445 -0.06332394 -0.073323265 0.077977024 0.045186978 0.027750053 -0.005571721 -0.06387776
-0.06964586 0.07838895 0.10125277 -0.04818512 0.057440158 0.06105537 -0.055496953 0.0070501026
-0.050231054 0.07178798 0.020370984 0.0561439 0.017908318 0.05101791 -0.04726379 0.05503282
00000000: aa5b abbd e64e 19bd bcf8 97bc 3c35 473d
00000010: 696b 983d 6f30 9cbd 23d3 b43c c706 69bd
00000020: 4aae ec3c f4bb a0bd f60d e5bd 97ea b03d
00000030: 3292 423d 7ae2 b3bd 2e2e db3d 0ceb 21bd
00000040: 22bc 7cbd d394 933c 7775 d33d ab84 873a
00000050: e14b 78bd cfa5 853d 427d acbd 525e ba3d
00000060: e2ee a63d da45 acbb 0347 643d aa24 743d
00000070: f63c 633b fa65 893c 3214 c6bb b7e5 08bd
00000080: 1732 72bb aadc 843c 3e5f 9dbd 5ead b33d
00000090: e3eb 463c 9d54 80bc 82bf 1c3d 7235 1ebc
000000a0: bf02 613d df36 99bd 778a a73d 0925 e33c
000000b0: dce1 86bc 200e 4a3d 6f01 203d c928 bd3d
000000c0: 6202 5cbd b49b 14bd d1c9 7abc 4633 a0bd
000000d0: f4c9 3ebd 73d3 e23b 5529 d6bd eb11 283c
000000e0: 36b7 533d 82b8 94bd dbd3 3b3b f469 8e3d
000000f0: 22c3 84bd d9b8 d7bc 4bb9 78bd a818 8e3d
00000100: fc50 c33d 1050 ee3c 0c21 e53b 5347 03bd
00000110: 709e 403d 8842 27bd ddb2 9bb9 9b73 ef3c
00000120: 56cd 85bd 809c f8bc 9efd 9dbd 78b4 963d
00000130: 423e ec3b b255 02bd 4215 9b3d 41c9 583d
00000140: 4510 7a3d 50d1 e6bc f494 3ebc 392e 373d
00000150: 2c68 dc3d 71b0 8d3d 8f20 41bd d9c9 b2bd
00000160: 2304 e4bc 719b 6f3d e581 b83c 2e5b a5bd
00000170: 40e3 e0bb 7d8d 88bd 9524 8cbd d0c8 27bc
00000180: acac 173d 90ac 7bbc 9328 2f3c a72a 1f3c
00000190: 059a 5fbd 90ea a63d bc5a 423d 8873 a33d
000001a0: be01 a1bd 7ee5 77bd 89ec d3bd db42 b7bd
000001b0: acbe 9e3d 2ea3 94bd 461e 90bd 5500 953b
000001c0: d678 3e3d b25c 71bc bf5e b63d b869 2bbd
000001d0: c5f1 833d 8f5c 31b7 94af 92bd c6ff a6bb
000001e0: c18c dcbc ac09 49bd b8ed 873d baed 7f3d
000001f0: 084b 953d 5280 a4bd f20f 663d b28d ddbc
00000200: b270 95bd ef08 6f3d 6a53 1f3c 7884 8f3d
00000210: a62e 6c3d e891 51bc 62dd 9abd 6156 8dbd
00000220: 6add 5b3d b188 4dbd 8217 d4bd c07c 093d
00000230: 9fbf b43d 89a0 3ebd 95f8 97bd fc21 683d
00000240: 53f6 f93c 5c8a 76bd ddb4 d4bb 53e0 f6bb
00000250: 78cf 9ebd 4abd ae3b 44b7 98bc 7982 c13d
00000260: 0294 1fbc d804 e93c a1e1 3cbd 4317 843d
00000270: 4b34 34bd 5478 81bd d4e8 1f3c 3e9f 71bd
00000280: b730 593d 6e71 4fbd 1229 88bc e550 a63c
00000290: 5ddc 10bc d096 2e3d 0c63 8a3d c96c e0bc
000002a0: 5eef e33d c1f1 58bd 5dbc 85bd b7bf 18bd
000002b0: b12e bfbc 3a78 b8bd 2ecb d6bc 8f69 c73d
000002c0: 23b3 783a 8a85 86bd a6b4 6e3d 9f74 9f3d
000002d0: 0cd4 93bd e8a3 de3c f256 c63d f61b 463c
000002e0: 9e7d 57bd 8b70 66bd b384 653d b9a7 61bd
000002f0: 0ac8 87bc 73fd 01bd 0343 c33d 6952 533d
00000300: cdc0 b63b f940 bb3a bb1b 913d 497f e63c
00000310: d11e bebd b83a 82bd fb0a 773d a4a1 3abd
00000320: 244d 1fbd fd30 cabc b87d 953d 7343 71bd
00000330: dcd8 b83d 1d9b a63c 35bb 383d fc95 fd3c
00000340: fdfb b6bc 92f1 223d 720c 99bd 4ad6 a5bd
00000350: cbeb 8e3c 2668 493d b150 acbc a176 3cbd
00000360: 07f3 d33c fd5b b73d 8cac 213c 3c81 b33d
00000370: 5d92 013d 3ad4 be3d 6fb2 69bd 6a2e 6bbd
00000380: f909 b13d 4d80 8cbd 861e a53d 5871 613d
00000390: 2858 65bd 1c53 3f3c f611 293d 115b 9dbd
000003a0: 9414 89bc fbaf 81bd 822a 96bd 6bb2 9f3d
000003b0: fb15 393d 1454 e33c fc92 b6bb 58d2 82bd
000003c0: 7da2 8ebd 638a a03d 9d5d cf3d c35d 45bd
000003d0: 5f46 6b3d 3215 7a3d c650 63bd 8c04 e73b
000003e0: 14bf 4dbd 9405 933d 0de1 a63c 25f7 653d
000003f0: 77b4 923c 28f8 503d ad97 41bd 186a 613d
