models/autoencoder.pt (torch_old, 235415 bytes, 24 tensors)

weight_ih_l0 f4 [160, 3]
00000000: 1b42 403d 9073 b63d 1313 7ebd c8aa 66be
00000010: 20da 2c3d 584f e6bc 75d9 103e 3c67 4bbd
00000020: d8ac cfbc 7815 ad3d 71ae 0fbe 73aa bdb9
00000030: d3cf 9a3c 805d 123e e778 20be 2805 903e
00000040: 58e8 483d 0218 8abd 2430 83bc e374 21bd
00000050: c7e7 613e beee 313e 8648 c23c 9fde fc3c
00000060: 8ec5 e3bd 90bc 4f3e f226 11bd 50fd a23a
00000070: 24a1 fdbd a2d9 e03d aa13 18be cec2 7ebd
00000080: 7be7 f5bd d622 a63c 2fde 323d 6b53 603e
00000090: 2e36 a0bd 39bb 8fbd ab35 bf3d 9888 303b
000000a0: f6a6 aebd 8fec 0d3e f8e4 0dbe 9b0b e1bb
000000b0: 3d52 253e 88ef 4d3d 5fda 06be 77b2 81bd
000000c0: c566 05bd d872 2ebe 7694 ad3d f0e3 b13c
000000d0: c465 49be a3b0 1bbe 13bb 0a3c 3281 7e3d
000000e0: 500a 5c3d 0ae7 73be bf25 0a3e ac1c 1abd
000000f0: 1d5d 2e3a ce1c fcbd 069f aa3d 8728 b4bd
00000100: c215 783d 552c 083e 6a14 14bd a339 c53d
00000110: 91a8 fa3c 215e c2bd 62b8 d9bd 86bb 98bd
00000120: 8e2c 613d 5370 073e 54fa 3c3d 23bb c13d
00000130: 65a1 1bbd bfb0 65be e04b fb3d 1c4c 0e3d
00000140: cbdc f03c 55a5 ee3d 911b 873e a20a 02be
00000150: 2c4a 483d 7d24 2fbd ec72 41be d8e1 623d
00000160: f8b7 40bd 32ce b4bd 5aba 86bb 3f28 b5bd
00000170: 1461 e1bd 6adf 1f3e c65a 28be 9b12 f8bd
00000180: 991a 0d3d 4613 8cbd 6de2 f93d e328 413e
00000190: 75a1 5abd 2fd5 96bd 5bb7 d13d f3a0 f73d
000001a0: 0ffe 333e f9f0 3bbb e7cd 43bd 2c66 60be
000001b0: 72f4 14bc e3d1 aabc b926 623d 319a f9bd
000001c0: 754b 163d c2f2 86bd 6694 b33c 65a0 22be
000001d0: 699e 163e 8c65 c7bd 91fc b13d 6052 28be
000001e0: 5e2a 82bd 4874 c5bc 0c96 5e3e 9a0d f8bd
000001f0: 70dc 32be d69e fabd f4dd 3abd aa3a b73c
00000200: 6b4f 033d 5274 a13d c102 ec3b 3d9b 14bd
00000210: 38f6 95bd 29e6 12be f3c7 e4bc 9384 c83d
00000220: 1ade eabb c828 bd3d 4c3c 09be 8c59 47be
00000230: d4dc e4bd 4ff9 1e3d f64c ea3a 445e 8cbc
00000240: a134 533c fc2b 9fbd a356 20be 3d9c ebbd
00000250: e987 0d3e edf2 fcbb 4bcd 053b b2f7 4cbe
00000260: 1b72 0e3c 2a8a 3ebd 3918 923c 69cc c3bd
00000270: e57a 7fbe ede1 c4bd 9d2a 69be 6bfb 8ebd
00000280: 27bb 2bbd 0884 0e3e 9371 2cbe 48b7 fdbd
00000290: 0b23 dc3d 1c10 043e 99df b8bb acae 8dbd
000002a0: fa64 903d 3a80 5cbe b0eb 4e3d 403d 12bd
000002b0: c0c8 7d3c 9039 b03c 1c64 40be e33a e7bd
000002c0: 84e4 a63c 776a a13c 2f1f a43d f8ea 01bd
000002d0: c3bd c6bd 679e 0b3e 1a71 e53d 89e3 84bd
000002e0: af45 823c 2200 6d3e f467 093d 9380 00be
000002f0: f47a 1abe 1a01 7fbe 15ff 5abe 93c2 943d
00000300: 89ae cc3d 9661 5ebe e96d 3dbe df64 edbd
00000310: b726 4a3e 7d7a 2abe 9484 76be a846 19be
00000320: 17b4 8fbd 69aa 72bd db3f 39bd 5929 bd3d
00000330: 11d2 c6bc d8c0 77bd bf60 97ba 409a 003e
00000340: fcb5 d6bd 70b7 b5bd a7e3 013e 6689 d8bd
00000350: 31d4 653e 8bde f73d f0aa 95bd 19c8 753d
00000360: fa87 183d 30c0 64bc 499a 8dbc 347f a3bc
00000370: e636 b33c 947d 18be fad3 a23d cebc 9cbd
00000380: 81d8 d53d 3967 663e 41c1 58be 58f8 f1bc
00000390: 668c 6fbe 71b3 edbd 2967 e9bd a860 88bd
000003a0: be63 17be a992 81bd 4b81 0b3e 12cb 0cbd
000003b0: d66b a33d 0bde 32bd e1a3 cabd c665 28bd
000003c0: ab17 113e aa7a b2bd 4be8 2cbe a318 6dbe
000003d0: f484 b23c d38f 533e cf4a 2e3e e28d b83d
000003e0: 4ad8 d8bb d0c9 e6bb c199 55be 4e20 dbbc
000003f0: 8983 a1bd e415 643e 91af dabd c6d5 61be
0.046938043 0.089087605 -0.06202991 -0.22526085 0.042200208 -0.028114006 0.14145453 -0.049659
-0.025350973 0.084513605 -0.14031388 -0.00036175884 0.018897926 0.1429348 -0.1567112 0.28128934
0.049049705 -0.067428604 -0.016014166 -0.039418112 0.22061072 0.17376229 0.023716222 0.030867873
-0.11121665 0.20286775 -0.03543753 0.0012435112 -0.12384251 0.1097901 -0.14851251 -0.0621975
-0.12007042 0.020280283 0.043668922 0.21906821 -0.07822834 -0.07018132 0.09336408 0.0026936885
-0.08527939 0.13859771 -0.13856876 -0.0068678386 0.16144653 0.050277263 -0.1316924 -0.063328676
-0.03256871 -0.17035997 0.08475582 0.021715134 -0.19667727 -0.152041 0.0084674535 0.06213493
0.053720772 -0.23818603 0.13490961 -0.037625 0.0006651448 -0.123101816 0.083311126 -0.087967925
0.060567625 0.13298161 -0.03615228 0.09630134 0.030597957 -0.0949061 -0.10630871 -0.07457642
0.05497413 0.13226442 0.04613717 0.094595216 -0.037995715 -0.22430705 0.122703314 0.034740552
0.029402157 0.11652628 0.2638822 -0.12699369 0.04889886 -0.042759407 -0.18891495 0.055391163
-0.047050446 -0.08828391 -0.0041115703 -0.08845567 -0.11004844 0.1561257 -0.16440877 -0.12112924
0.034449194 -0.068396136 0.122013904 0.18863253 -0.053376634 -0.0736488 0.102400504 0.120912455
0.17577384 -0.0028677566 -0.047803786 -0.21913975 -0.009091483 -0.020852035 0.05521271 -0.12187613
0.036693055 -0.06589271 0.021921348 -0.15881498 0.14708866 -0.097361654 0.08690751 -0.16437674
-0.06355737 -0.024103299 0.21736926 -0.12111969 -0.17466903 -0.12237327 -0.045621827 0.02236684
0.03205816 0.078835145 0.0072024767 -0.03628086 -0.07322353 -0.14345612 -0.027927374 0.097909115
-0.00716759 0.09236294 -0.13401908 -0.19467753 -0.11174932 0.038811978 0.0017875719 -0.017134793
0.012890966 -0.07772061 -0.1565805 -0.115044095 0.13821377 -0.0077193887 0.0020416554 -0.20016363
0.008694197 -0.046518482 0.017833816 -0.095604725 -0.24949224 -0.096134044 -0.22770162 -0.06981548
-0.04192653 0.13917553 -0.168402 -0.12388474 0.107488714 0.1289677 -0.0056418893 -0.06918082
0.0705051 -0.2153329 0.050517738 -0.035702944 0.015489757 0.021511823 -0.18788189 -0.112905286
0.020372637 0.019704087 0.0801376 -0.031718224 -0.09704163 0.13634644 0.11203213 -0.064887114
0.015902368 0.23144582 0.033546403 -0.12549047 -0.15085965 -0.24902764 -0.21386369 0.072636746
0.099942274 -0.21716914 -0.18498959 -0.11591505 0.19741331 -0.16648288 -0.24074012 -0.1496836
-0.07016771 -0.059244547 -0.045226913 0.09236402 -0.02427009 -0.060486645 -0.0011549218 0.12558842
-0.104839295 -0.088728786 0.12684499 -0.10573082 0.22444226 0.121029936 -0.07307994 0.06000528
0.037239052 -0.013961837 -0.017285483 -0.019958116 0.021876764 -0.14891654 0.079505876 -0.07653199
0.104416855 0.22500314 -0.2116747 -0.029537365 -0.23393402 -0.11606491 -0.11396629 -0.06659061
-0.14784142 -0.06326801 0.1362354 -0.03437335 0.079795524 -0.043668788 -0.09894539 -0.041112684
0.14169185 -0.087148026 -0.16885488 -0.2315393 0.021791913 0.20660333 0.17020725 0.09011437
-0.0066175805 -0.007043101 -0.20859434 -0.026748803 -0.078864165 0.22273976 -0.10678018 -0.22054204

weight_hh_l0 f4 [160, 40]
00000000: 4ce1 b4bd b092 0dbe f124 e9bd d6c1 a2bd
00000010: b98f 323c bf08 85bc a99e b53d 1219 95bd
00000020: 0872 dc3b f2a9 ec3c 24ba cfbd a86b 90bc
00000030: 3994 42be f4be 0d3d c2ae 25be 7ffd 143e
00000040: 15f6 16be 2e0a ad3c 032d b33c 325a 1fbe
00000050: 078d c4bc 1fde 8ebd 6d23 2ebd ab7f ff3c
00000060: f22a d3bd 0197 123e bd86 383b c77a 6f3e
00000070: 254c fcbd 9c51 743e 33a9 1cbd e1e4 ecbd
00000080: a0dc 84be a75f 9abd 2908 6a3e 192c 423e
00000090: ffc8 613e e832 16bc d6e0 bbbd f7bf 51bd
000000a0: bdcd 5bbd 7286 033d 7897 223d 3dfa febd
000000b0: d4ca e03d 3372 bf3d 69ee 7e3d 5d00 cfbd
000000c0: c817 16bd a355 f6bd e631 313e 4876 9fbd
000000d0: 0280 0cbe 1b6c ccbd 0b0c 7abb f26c fd3d
000000e0: 4da9 103d c90e 2cbe 09fa 903d 9695 153e
000000f0: c53d a2bd b173 d2bd bb0d df3c 4dd0 413e
00000100: a09e 5ebe db97 f4bd 9b03 8d3c 3bf3 093e
00000110: d0fb 93bd 1995 da3d 2f3d b53d 374f c6bd
00000120: d652 eabd af4f cabd 4b68 853c ac54 c3bd
00000130: d228 76bd ac5b 7ebd af0b 99bc 2c07 a8bc
00000140: cefb 12bd c39e 73bd cdaa 583e 4bf0 01be
00000150: e5da 39be 4c1c 5bbd 3764 cb3d a4e8 a33c
00000160: 3b8b 083e d5d2 cf3c 7e68 01be 681b 25bc
00000170: b6d2 203c 5359 be3d 8535 dbbd 1449 ccbc
00000180: 1f5b 26be 1a8f 1fbe 2187 8f3e 9c0d e4bd
00000190: c52b 963d 4724 1abc b5ed 14bd 6d52 ca3d
000001a0: f5ee e5bd c74c 4fbd 12c0 92bd 3a3d 3dbd
000001b0: c4fb c4bc 3f9b 11be 3ea0 3f3e 28ec e9bb
000001c0: 80bc ed3d da81 85bd 3776 eebd c497 a3bd
000001d0: a666 a5bc 0844 e3bd 2cc9 c53d 8c50 10be
000001e0: 191c e13b 8092 fc3d 9513 e6bd 0d60 2f3d
000001f0: 760e 4e3b 5b46 f0bd 5457 90bd 2eb4 813d
00000200: 7cc9 e83c 30bb f9bc 9c30 0abd d396 113c
00000210: 13f1 6d3c b381 50bd 8cf9 ce3d 8648 c2bd
00000220: d441 d9bc 0069 54bc e92f 12be e9c6 dd3b
00000230: a73a c63d 5233 ae3c 4fb6 56bd 68e9 9a3c
00000240: c26a 8a3e c29b bebe f95b 2ebd a631 04be
00000250: a96a 0f3e aaed 563e e4ad f33d b7fa ad3d
00000260: dc5f 343d 2dc6 d53c 7998 e4bd 5022 ae3d
00000270: 913d 323e b19c 1ebc d9c2 883d ae9e 10be
00000280: 7b23 ed3d 6506 49be 8269 663e 11e6 5dbe
00000290: 3c69 6e3b 84b2 36be ddf0 a13d 1b79 3abe
000002a0: ad46 473e e7de fdbc 0688 67be 4391 9a3d
000002b0: 0194 923d 3c0b 6ebd ddff 0bbe 4343 9a3d
000002c0: 33b2 133e 870e f53b 6806 71be f94e b0bd
000002d0: 72cc 2bbd 277e 02bd abcb 3cbd bc9a 2cbd
000002e0: 17bc febd e538 823c 2295 7cbd 321d a2bd
000002f0: 45ac 1f3e f89e 5b3d 7fec 903c 5d4f 323d
00000300: 80b9 bcbd 0f9a 163e 0368 8fbd aea2 ca3b
00000310: fb7e 373e 1a62 4fbe a059 bebd d027 31be
00000320: 6286 a13d 897c 35be 4020 033e 797a f33d
00000330: 6478 a53c 33aa 5dbe e6a1 d63d 1af0 5a3d
00000340: b870 0bbe 0ce0 6cbe acca 0cbd 04b6 0abe
00000350: 080d 333d 0c4d 053d 0e6f cebd 83fe a63d
00000360: 034a 703d f024 163e f859 8ebd dcb5 893d
00000370: fca2 553d e78f 4d3c 7195 a5ba 199d 373d
00000380: 51f1 b33d a938 a7bd f187 6a3c dbb9 bc3d
00000390: ddc9 16bd f004 e53d 0ec3 ae3d 94d1 42bd
000003a0: 683d 883d 827b 7dbc ed00 0d3e e834 9ebd
000003b0: 83b9 cbbb 2b82 c1bd 613c 6e3d 7159 d2bd
000003c0: 33ab 403d e902 abbd f5de 273e a89e 893e
000003d0: 247b c9bd f016 26be a543 30be 75f2 3abd
000003e0: 34cc 163e 7c8d ec3c aa8f 2ebd afbe 2fbe
000003f0: 4f76 4f3c 4ecd d8bd 0327 61be 7a1e 52be
-0.088320345 -0.13825488 -0.11383999 -0.079471275 0.010898524 -0.016239522 0.08868153 -0.072801724
0.006727461 0.02888963 -0.101429254 -0.01762946 -0.19001855 0.034605935 -0.16179946 0.14549826
-0.1474231 0.021123018 0.02187205 -0.1556175 -0.023993028 -0.0697596 -0.042514253 0.031188807
-0.103109255 0.14315416 0.0028156482 0.2338668 -0.12319211 0.23859257 -0.0382473 -0.11567093
-0.25949574 -0.075377755 0.22854675 0.18962134 0.2204933 -0.00916741 -0.091737434 -0.051208463
-0.053663004 0.03211064 0.039695233 -0.12450073 0.109761864 0.09347954 0.062239084 -0.10107491
-0.036643773 -0.12028053 0.17304191 -0.07786232 -0.13720706 -0.09981557 -0.003815415 0.12374295
0.035317708 -0.16802515 0.070789404 0.14607844 -0.07921938 -0.10275973 0.027228227 0.18927117
-0.21740198 -0.11943027 0.017213633 0.13471691 -0.07225764 0.10672969 0.088495605 -0.09683078
-0.11441581 -0.0987848 0.016285082 -0.09537634 -0.060097523 -0.062099144 -0.018682329 -0.020511232
-0.03588467 -0.05947758 0.21158905 -0.1268932 -0.18149908 -0.053493783 0.09931224 0.020008393
0.13334362 0.025369087 -0.12637517 -0.010077335 0.009815862 0.09294381 -0.107035674 -0.02493719
-0.16245697 -0.15581933 0.28032783 -0.11135408 0.07332567 -0.009408063 -0.036359508 0.09879003
-0.11227218 -0.05061033 -0.07165541 -0.04620097 -0.024045832 -0.14219378 0.18713471 -0.0071387477
0.11608219 -0.06518908 -0.116436414 -0.07987931 -0.020190548 -0.1109696 0.09657511 -0.14093226
0.0068698046 0.1233263 -0.11234204 0.04281621 0.0031441725 -0.11732169 -0.070479065 0.06333195
0.028416388 -0.030484766 -0.033737764 0.008886057 0.014522809 -0.05090494 0.10106191 -0.09486489
-0.026520647 -0.012964487 -0.14276089 0.0067680967 0.09679156 0.021264706 -0.052419957 0.018910125
0.27034575 -0.3722821 -0.04256818 -0.12909564 0.14005531 0.20989099 0.118984014 0.08495086
0.04403673 0.026095474 -0.11161894 0.08502638 0.17406298 -0.009680913 0.06677789 -0.14123031
0.11579033 -0.19631346 0.22501186 -0.21669795 0.0036378643 -0.17841536 0.07907269 -0.1821026
0.19460554 -0.030990077 -0.22610483 0.07547238 0.07157136 -0.058116183 -0.13671823 0.075323604
0.14423446 0.0074785384 -0.235376 -0.08608813 -0.04194302 -0.03185859 -0.04609267 -0.042139754
-0.12438219 0.01589627 -0.06166566 -0.07915725 0.1559306 0.0536184 0.017690895 0.043532718
-0.09215069 0.14707206 -0.070022605 0.0061839437 0.17919533 -0.20252267 -0.09294438 -0.17300344
0.078869596 -0.17723288 0.12805271 0.11888594 0.020199008 -0.21646957 0.104800984 0.053451635
-0.13617218 -0.23132342 -0.03437297 -0.13545996 0.0437136 0.03254418 -0.10079776 0.08154013
0.058664333 0.14662528 -0.06950754 0.0672414 0.052157387 0.012546516 -0.0012633038 0.044827554
0.08786262 -0.08165104 0.0143146375 0.092151366 -0.036813606 0.111825824 0.085332975 -0.04756315
0.06652337 -0.015471341 0.13769884 -0.07724935 -0.006217183 -0.09448656 0.05816305 -0.10270966
0.04703827 -0.083501644 0.16393645 0.26878858 -0.0983794 -0.16219687 -0.17213304 -0.04564138
0.14726335 0.028876059 -0.042617477 -0.17162584 0.012662484 -0.10586034 -0.21987538 -0.20519438

bias_ih_l0 f4 [160]
00000000: bd0f 023e 2119 9e3d 760d 2a3e 5163 e7bd
00000010: 155d 5a3c f22b 263e a358 ec3b 3e70 68bd
00000020: ad56 fd3c 1949 fdbc 061f 213e 3176 10be
00000030: ca31 a5bd fe3a 30bd 5eaf 913c ea29 c6bd
00000040: 9394 193e 07ac de3c 87eb 323e c448 7cbd
00000050: b284 afbc b7c8 08be bf8c d73d e8d5 953d
00000060: 63d4 dabd fa06 11be 9e02 243e ca3f 113d
00000070: 1ee7 9d3d 6404 9d3b 2b5d d8bd cc28 14bd
00000080: e0b8 7ebd f30b d1bc 0311 ab3d fdf9 df3d
00000090: 20ef ce3b e3a8 03be c738 a53c 8677 f03d
000000a0: 5631 a63d 9bfa d53d 8686 ebbd 36ea fcbd
000000b0: 574f 66bd 0249 08bd 8093 b6bd ae9b 813a
000000c0: 966a 5cbc 947f f03c 4282 1c3c 0959 e83c
000000d0: 8a0f b9bc ae8e 08be 19c9 a33d ae56 78bc
000000e0: ba2f 9ebd 563a d9bd 3f60 123d 6ace d0bd
000000f0: 28de 723c f855 943d 3377 4c3d 6c7c d63d
00000100: 4f0d 273e f3e4 b7bb a647 40bd bfea 09be
00000110: 0cb6 643d 0365 d1bc 6dea 2d3e 202d 16bc
00000120: 0cd4 7d3c a4ff 973d db35 883d 61c5 db3a
00000130: 1ade d53d bed8 73bd c4c7 b2bd dc06 fe3d
00000140: 24b7 11bd 9366 833b 9760 52bd 8bea 97bd
00000150: 2089 ecbd a97a b93c 649c 5c3d e822 05be
00000160: f4e8 2c3e a31d b9bd 70fa 05be 72a8 5a3d
00000170: 75a5 7abd 1fa7 ffbd 0bbd 06be 2fd6 dbbd
00000180: 557e 97bc f663 0ebe 7ccf 4a3d fda7 f7bd
00000190: 39ae 1c3e be3e 153e 0dcb 50bc 9f72 033e
000001a0: 7923 ee3d ca55 043e a5a3 00be eea5 bf3d
000001b0: dc8d d0bb 7ab3 bfbd dc62 cb3c 0f91 d33d
000001c0: 45fb 253e 4424 14bd fbff 0b3e 2b69 c5bc
000001d0: 79a8 733d c126 39bd 7883 b2bd 7fcc cc3d
000001e0: 506a 033e c466 b9bd 705b 73bd de18 aebc
000001f0: a59e 8dbd 6703 c73d 2598 843b c947 abbd
00000200: 95f8 573d 4414 f9bd 9ebe 1b3e bdf0 00be
00000210: b0bc cebd 7219 8cbc f73c e0bd b1ff ad3c
00000220: 0d41 313c 2252 303d 86e9 2dbb 4b8c 1d3e
00000230: b929 b33d 7921 503d f864 e6bd 664e 083e
00000240: 28ad 0ebc b5f8 99bd 787e 173c 1e01 273d
00000250: 7f0c 213e 2e0e cfbd 1d19 8ebc 0726 0c3e
00000260: 845e d2bd 09de 183d 57b5 703d 2ddc 113c
00000270: c684 03be 90f2 9c3d 08af 0a3e 9c00 063e
0.12701316 0.07719637 0.16606697 -0.1129824 0.013327857 0.16227701 0.0072127148 -0.056747667
0.03092512 -0.030918645 0.15734491 -0.14107586 -0.08066137 -0.04302501 0.017783817 -0.09675963
0.14998083 0.027181638 0.17472659 -0.061592832 -0.021425579 -0.13357817 0.10524892 0.0731619
-0.10685041 -0.14162818 0.16016623 0.035461225 0.07710098 0.004791783 -0.105646454 -0.03617172
-0.06218803 -0.025518393 0.08352854 0.10936353 0.006315127 -0.12857394 0.020168675 0.11741547
0.08114879 0.1044819 -0.11500268 -0.1234936 -0.056228008 -0.03327275 -0.08914852 0.0009888315
-0.013453146 0.029357709 0.00955254 0.028362768 -0.022590417 -0.13335678 0.07997341 -0.015157385
-0.07723947 -0.1060683 0.03573632 -0.1019562 0.014823474 0.0724296 0.049918365 0.1047295
0.1631367 -0.0056120097 -0.04694333 -0.13468455 0.055837676 -0.025560861 0.16983958 -0.009166032
0.01549245 0.074218065 0.06650897 0.0016767198 0.10442753 -0.059532873 -0.087295085 0.12403652
-0.035575047 0.0040100305 -0.051361647 -0.074177824 -0.11549592 0.022641497 0.053860083 -0.13001597
0.1688574 -0.09038856 -0.13083816 0.0533833 -0.06119295 -0.12483048 -0.13158052 -0.10734212
-0.018492857 -0.1390532 0.04951428 -0.12092588 0.15300836 0.14574715 -0.012743724 0.12836693
0.116278596 0.12923351 -0.12562425 0.093578205 -0.006364567 -0.09360404 0.024827413 0.10330402
0.16209133 -0.036167398 0.13671868 -0.024098 0.05948684 -0.045202974 -0.08716482 0.09999942
0.12833524 -0.09052804 -0.059413373 -0.021252092 -0.06915025 0.09717446 0.0040464574 -0.08363301
0.0527273 -0.121620685 0.15209433 -0.12591834 -0.10094583 -0.017101977 -0.10949128 0.021240087
0.010818732 0.043047078 -0.0026536896 0.15385549 0.08748192 0.050813172 -0.11249727 0.13311157
-0.008708276 -0.0751814 0.009246461 0.04077255 0.15727423 -0.101101264 -0.01734596 0.13686381
-0.10271934 0.037321124 0.05876669 0.008902592 -0.12843618 0.076634526 0.13543332 0.1308617

bias_hh_l0 f4 [160]
00000000: 44b5 263e 544c c13d 5c52 a63d ff4f 053e
00000010: 00f6 e5bd b3e0 ad3d 57bd 653d 9150 dd3d
00000020: a0c4 a0bd f4e7 a0bd 00e6 873d f77e 7ebd
00000030: a376 353e 52ae 753d 06b3 db3c 07d6 d4bd
00000040: fc5e 84bd 1303 c3bc 01bc 073e 82b5 70bc
00000050: f4a8 2a3e 6782 0dbe dbf0 d9bd 86ca 293e
00000060: 5005 033e 1f40 fcbd 49ea 51bd 388d 253e
00000070: 5230 92bd cb4a 003d 74ae 883d db7c 333b
00000080: fe35 243b c4e9 13bc 7ed2 96bc 5ef9 053e
00000090: 7e1f fa3b 31ed 2f3e 8001 2f3e a87f 203d
000000a0: cb6d dc3d cbca 513d 633b 2a3d e65f 083e
000000b0: 9263 78bd fe74 193e b661 433d fc30 34be
000000c0: 09c4 cf3d 5863 e83d a9fc 08bd 0402 4abd
000000d0: 7870 04be 7d8d 0f3e 15f2 f9bc 8e6d e8bd
000000e0: cccf 76bd fb07 95bc 3b3e dc3b 1971 d4bd
000000f0: fd74 0abd c335 dcbc e17c c0bd 41cf 353d
00000100: 26a0 1e3c 59b8 343d 6424 333c b364 95bd
00000110: 5cdb e23d 3a7d 173e fc00 ee3d 9357 1dbd
00000120: ce06 1dbd 956a c5bd 15ec 713d b47b 92bd
00000130: 4333 743d 6c56 8c3c e38a 993c 56d1 fbbc
00000140: e576 febd dd88 d7bd dcd8 ac3d 2536 92bd
00000150: a393 79bd c7b7 12be 8abf 753b 2981 dfbd
00000160: 4c07 a23c 2cda 1dbe bfc1 043d 2f97 203e
00000170: 6c94 20be fbd8 943d 3cfa d9bd 51e5 d23d
00000180: 5129 09be be8b b63d 3b95 af3d bcc1 0c3e
00000190: 923f 2a3d e4bd c03c 6605 d3bd e498 0f3e
000001a0: 5993 513b 4ae3 ff3d 5814 ad3d 4fe6 08be
000001b0: 8992 0b3e 7bc9 683c 2184 223d b96c d5bd
000001c0: e316 863d aafc a2bc b2a2 67bd 6b71 f7bb
000001d0: 09e1 af3d 9848 713d b7f9 aebb b349 db3d
000001e0: c5ac 363e 5d2f ed3b 1dbc ef3d 15e5 cf3d
000001f0: b7c7 54bd 9adb eabd ab7e 163d 56e0 c5bd
00000200: 01c9 a3bd 12b4 b3bd 14e1 07be cd36 b2bd
00000210: a35d 04bd d4d1 203b aa71 073e 90df 233d
00000220: 2a99 c33d a4ca 70bc b20a 5d3d 3a04 433e
00000230: e4e8 eb3d cba3 bd3d 830a d03b 3008 163e
00000240: 4cad 16bd 704d 583c 5706 e2bc 3041 13be
00000250: ec72 043e 045b 083e 6f25 b13d de1b 1d3d
00000260: 24c3 0ebe 6289 09be 6842 cb3c 781b f63d
00000270: fd28 85bc 4ff0 b5bd 25c4 3e3d ffd2 c93d
0.16280085 0.094383866 0.081211776 0.13018797 -0.112285614 0.084901236 0.05608877 0.108063824
-0.07850003 -0.078567415 0.06635666 -0.0621328 0.17721038 0.059980698 0.026818763 -0.10392385
-0.06463429 -0.023805177 0.13255312 -0.014691712 0.16666013 -0.13819276 -0.10641643 0.16581163
0.12794995 -0.12316918 -0.051248822 0.16167152 -0.071381226 0.031321328 0.06673899 0.0027387652
0.0025056596 -0.009027902 -0.018410917 0.13083407 0.0076331487 0.17180325 0.17090416 0.039184242
0.10763129 0.05121879 0.04156054 0.13317832 -0.060641833 0.14986035 0.047700606 -0.17596811
0.101448126 0.11347073 -0.03344408 -0.04931833 -0.12933528 0.14018817 -0.030510942 -0.11349021
-0.060256764 -0.018192282 0.0067212856 -0.10373134 -0.033802975 -0.026881104 -0.09398819 0.044387106
0.009681737 0.04412112 0.010933969 -0.072945975 0.11076996 0.14793864 0.116212815 -0.038413595
-0.038336568 -0.096394695 0.059063036 -0.07152501 0.0596192 0.017131053 0.018742984 -0.030739468
-0.12425021 -0.105241515 0.084398 -0.071392335 -0.060931813 -0.14327918 0.00374982 -0.10913307
0.01977887 -0.15415257 0.032411333 0.15682672 -0.15681618 0.07267948 -0.106434315 0.10297645
-0.13394667 0.089133725 0.08573385 0.13745779 0.04156453 0.023528047 -0.10303764 0.14023167
0.0031978695 0.12494524 0.08451146 -0.13369106 0.13630117 0.014208193 0.03967679 -0.10421128
0.06547334 -0.01989587 -0.056551643 -0.0075513623 0.08587844 0.05890712 -0.005339827 0.107074164
0.17839344 0.007238312 0.11705802 0.10151116 -0.051948275 -0.11467667 0.036741894 -0.09661929
-0.07997323 -0.0877458 -0.13269454 -0.08701859 -0.03231586 0.002453913 0.13226953 0.040008128
0.09550698 -0.014696751 0.053965278 0.19044581 0.1151903 0.09259757 0.0063489093 0.14651561
-0.036786363 0.013202056 -0.027590914 -0.14380336 0.12934464 0.1331597 0.08649718 0.038356654
-0.13941628 -0.13431314 0.024811938 0.12016958 -0.016254896 -0.08883726 0.046573777 0.098546974

weight_ih_l0_reverse f4 [160, 3]
00000000: ad07 91bd bc2f cc3d 201a 72bd 8df4 1cbd
00000010: ce55 ea3c 8dc6 29be 35a6 743d afcb 34bc
00000020: fe37 ee3d 60aa 4dbd cb0b 6abd 972d dbbd
00000030: 90e8 333d 3577 04be cecf c1bd 0d2e 03bc
00000040: 95b4 073e b914 6ebd f5a0 ec3b 57b2 31be
00000050: fd4e 28be 8169 81bc ee77 25bd 9547 7f3d
00000060: 7d08 8bbd b7c2 0fbd 6283 2ebd ce40 99bd
00000070: 6247 40bd b95e d7bd 474c c13b 3737 3c3d
00000080: 732e e2bd 9521 f0bd f4f7 e4bd 0691 a13d
00000090: e79e 063e 5d5b d8bd 2dba 9fbd f25e 2ebe
000000a0: 0c3e 05be 9911 a23d bc6e a33d 9739 f53d
000000b0: 6c2b 7b3d a802 73bd 0d7b 61bc 742a be3d
000000c0: bb41 bebc bc25 80bd 827e 95bc acd2 dfba
000000d0: 69bd 673d 397e fcbd 1305 96bd 4488 86bd
000000e0: 026e 83bd 80cc 3e3d 1c8b 55bd 00ec a9bd
000000f0: 7a93 c03b 6894 93bd 5132 6bbd a2ae 983d
00000100: 492f cfbd adc1 1fbd ef20 dcbb c0d6 92bd
00000110: d345 e73d d18b 363e 3be1 b1bd 248b 0ebd
00000120: d405 083d 9720 32be 200c f13d d84e 143e
00000130: 6ee3 62bd 4b60 093e b8a7 babd 050d 24be
00000140: c856 c23d 5adc d73d 1f9d 39bd dd91 f1bd
00000150: bb48 b33d 7f38 b4bd 2ae7 11be 437d 2fbd
00000160: b886 c9bd c8c1 d1bd 358a 16bd 2c74 e33d
00000170: 8176 24be 8854 833d f697 273d 56c5 61bd
00000180: 0156 8e3d 0c3e bd3d ec90 05be b5c3 30bd
00000190: 59ab a53d fbd8 a83d f425 8d3d c402 c63d
000001a0: 7bce 633d 903a ffbc ab4d dcbd ef43 09be
000001b0: 1da6 41bd 5b63 0b3d c842 47bd cdc1 153d
000001c0: ff7f 993d a759 fabc 34be 293e 9811 04be
000001d0: 5d90 15be b3f2 923d 359d 903d e0e2 3e3e
000001e0: 3a1c 3fbe 01f7 8cbb 9030 f53d cd00 153e
000001f0: ed1f fdbd f96d febd 5c9a 3fbd 6b6c c6bd
00000200: eed6 553d d36c 8bbd c555 37be 6882 eb3d
00000210: 75d4 b6bd 1a2a ceb9 e402 a3bd 01f1 8ebd
00000220: 4e78 ffbc b529 a2bd d7f9 28bd b218 28be
00000230: 1637 9a3c 3019 37be 4f3e a3bd b6b3 f8bd
00000240: 1140 31bd bc7e f43d c6d3 79bd e779 6c3d
00000250: 69ac 19be 42f7 d3bb ae99 49bd a089 d0bd
00000260: 4834 0bbe aeb2 683d 6b4a b5bd 1434 16bd
00000270: 0c16 db3d 10ba 653d 2db0 bd3d e2b3 b6bd
00000280: 45c0 9bbd 6639 063e 80e3 2e3e 5098 35be
00000290: 562f 813d 9a39 ac3d 3f3d 44bd 295d 83bd
000002a0: e6d0 83bd bbc2 00be e05d fcbd 0740 39bd
000002b0: 398b 34be f91a e7bd 35f9 233e 6eb0 52bd
000002c0: 9e43 8fbd 11f8 d2bb b4a6 153e d685 583d
000002d0: 194d 05be f612 d2bd b469 30be 8feb 773d
000002e0: 1eb7 853d 1758 f4bc fe81 b3bd 45da d7bc
000002f0: a57a 10bd 766c 81bd 3281 593d dfde 42be
00000300: e6d8 5fbc 55bc 33be 1a91 dd3d 7c3c 3dbe
00000310: 7968 8d3d 2708 c03d ece5 d9bd ed59 a0bb
00000320: 2ff8 3fbd c296 08bd fc8c 25bd b016 acbc
00000330: 29b6 09be eecd 31be 13d4 20be 29be 0f3e
00000340: 3382 a63c 244a cbbd 6d3e bc3c d339 08be
00000350: 31a2 12be 4cac fcbd fe27 373c 9f10 153d
00000360: 333d 5c3d 86b4 023e 3b72 86bd b935 eebc
00000370: c641 6d3d 854f a33d e1f2 1a3e 3629 5fbd
00000380: 1ec6 563d a575 a83d 7cfe 15be cfa3 8b3d
00000390: a5f8 b93d 8527 9bbd 7751 6d3d 1ffc c43b
000003a0: 053e 273e 85e8 ba3a 1130 cdbc fe79 27be
000003b0: c518 14be 1ef9 213c 8458 2c3e 3dc5 063c
000003c0: 6bb1 153c 2661 a0bd 8769 813d d866 a7bd
000003d0: c808 c73d e821 573d 126b 00be 6773 ecbd
000003e0: 138f 0d3d 8f76 ce3d 4b14 dabd 18cc f53d
000003f0: 0124 8a3d e2d1 c3bc a8e7 963d 9ab6 38be
-0.07081542 0.09970042 -0.059106946 -0.03831916 0.028605368 -0.16579647 0.05972882 -0.01103489
0.116317734 -0.05021131 -0.057140153 -0.10702055 0.04392296 -0.12936099 -0.09463464 -0.008006585
0.1325248 -0.05812523 0.007221336 -0.17353188 -0.16436382 -0.015797378 -0.040397577 0.062324125
-0.067887284 -0.035097804 -0.042605765 -0.07483064 -0.046943076 -0.10516114 0.0058989855 0.045951094
-0.11044016 -0.11725155 -0.11180106 0.07888989 0.13146554 -0.10564301 -0.07799182 -0.17028406
-0.1301195 0.07913513 0.07980105 0.11973875 0.061320707 -0.059328705 -0.013762248 0.09285441
-0.023224702 -0.06257197 -0.0182488 -0.0017076335 0.05657712 -0.123287626 -0.073251866 -0.06568959
-0.06417467 0.046581745 -0.05213462 -0.082969666 0.0058769556 -0.072060406 -0.057421032 0.074551836
-0.10116441 -0.039003063 -0.006717793 -0.071698666 0.11292615 0.17826773 -0.086855374 -0.034800664
0.033208683 -0.17395245 0.11769891 0.14483202 -0.055392675 0.13415639 -0.09114021 -0.16020592
0.094892085 0.105400756 -0.045315858 -0.11795399 0.087541066 -0.08799838 -0.14248338 -0.04284407
-0.09840149 -0.10242039 -0.0367529 0.111061424 -0.1606083 0.064126074 0.040916406 -0.055119835
0.06949998 0.0924035 -0.13043565 -0.04315539 0.080893226 0.08244511 0.068920046 0.09668496
0.055616837 -0.031155854 -0.107570015 -0.13404821 -0.04727756 0.0340303 -0.048647672 0.036561776
0.074951164 -0.030560328 0.16576463 -0.12897336 -0.14605851 0.071751975 0.07061235 0.18641233
-0.18663111 -0.004301906 0.11972153 0.14551087 -0.12359605 -0.12423319 -0.046778068 -0.09688648
0.052206926 -0.06807866 -0.17903812 0.114994824 -0.08927242 -0.0003932275 -0.07959536 -0.069795616
-0.031185295 -0.07918111 -0.04125389 -0.1641567 0.018825095 -0.17880702 -0.07970869 -0.12143652
-0.04327399 0.11938235 -0.06099298 0.057733443 -0.15007176 -0.0064686844 -0.049218826 -0.101825
-0.13594162 0.056811027 -0.08852085 -0.03667076 0.106975645 0.056085646 0.092621185 -0.08921029
-0.07605032 0.13107833 0.17078972 -0.17733884 0.06307857 0.08409424 -0.04790997 -0.06414253
-0.064363286 -0.12574284 -0.12322593 -0.045227077 -0.17631234 -0.112844415 0.16013034 -0.051437788
-0.06995319 -0.006438263 0.14614373 0.05286201 -0.13017692 -0.10257523 -0.17227823 0.06052738
0.065290675 -0.02982716 -0.087650284 -0.026349196 -0.035273213 -0.063195154 0.053101726 -0.19030331
-0.013662552 -0.17552312 0.108186916 -0.18480104 0.06904692 0.09376555 -0.10639557 -0.0048935325
-0.046867546 -0.0333469 -0.040417656 -0.021006912 -0.13448395 -0.17363712 -0.157059 0.14037384
0.020325756 -0.099262506 0.022978986 -0.13303308 -0.14319684 -0.123375505 0.0111789685 0.036392804
0.0537693 0.12764177 -0.065647565 -0.029078351 0.057924055 0.079741515 0.15131713 -0.05448266
0.052435033 0.08225564 -0.1464786 0.068183534 0.09080628 -0.07575897 0.05793902 0.0060115005
0.16332252 0.001425997 -0.025047334 -0.1635513 -0.14462574 0.009886054 0.16830641 0.008225736
0.009136538 -0.078310296 0.06318956 -0.08173913 0.09718472 0.05252257 -0.12540844 -0.11545449
0.034560274 0.10081207 -0.10648402 0.120018184 0.067451485 -0.02390379 0.07368404 -0.18038407

weight_hh_l0_reverse f4 [160, 40]
00000000: 4d2b 7bbb 40c2 ca3d 73e2 293e 314a 0c3c
00000010: 3cfb acbc 3a96 f3bd 186b 4fbd e50e 04be
00000020: 837c 273e cd9a 9e3d d1e8 cfbd 0439 1dbc
00000030: b159 82bd 9064 083e 4f94 553d dadf 4d3d
00000040: 94b4 0f3e d953 9abd 0d71 b63d 7d0d 72bd
00000050: 459c 1b3c 151d 86bd c8d6 693d 1eab 2d3e
00000060: 0bbb 233e 4d97 cfbd b96b 1c3e 59b1 e1bc
00000070: 0880 383b 2674 fdbd 4e6e d7bd 5835 d9bc
00000080: 26e4 61bd b3e3 f0bd 9fb2 ce3d 930b 01bc
00000090: 0f57 173d 9ae0 10be e62f 823c 8874 4abd
000000a0: d524 c9bd c979 7cbc 26fe 40be 98f7 c5bd
000000b0: 5de3 51bc 2796 b13d d462 9d3b 3ac9 453c
000000c0: c4b4 03bd da7c ea3d a04e 2c3e 7352 afbd
000000d0: 5fff 523d 2cd8 39be e753 4abc 9e15 083e
000000e0: 3148 52be 5f61 32be 0024 f03c 738b 4dbe
000000f0: a198 f8bd 84b1 f6bd 8c65 07be 98c9 43bc
00000100: 9751 053c 2366 77bc 8573 08be 87a3 99bd
00000110: fe76 f9bd 4bb0 3f3e 6687 f63c fb4a 41be
00000120: 4424 0fbe fe44 023e 1a63 08bd a830 d8bd
00000130: fec6 2a3e 6acd 46bc 0b8d 683d 26ba 31be
00000140: 8422 2cbe dc2d 43be 88ae 8b3d e720 0f3e
00000150: 7529 87bd c866 993d dff9 453e 59b9 9f3c
00000160: 9ef3 bd3c 8193 49bd 2c0d 803d d40b 1a3e
00000170: 4269 ec3d 2f3a 2ebe f9de 923d d8f6 37bd
00000180: 80d7 153e a4cd 14be 7f27 3dbe 2460 bf3d
00000190: 35cd 05bd a05f c1bc 735a ee3b 7e50 5d3d
000001a0: 5b03 99bd a40a 113c f4c2 60bd c2df 8e3d
000001b0: 7bb5 a13d bbdc d5bd 3ec7 2e3a 74ef 20bb
000001c0: 4d0a d6bc 42fc 1c3e f917 5fbd d8e9 893d
000001d0: 1593 a6bd 6793 3f3b 9721 8abd bf5a 43bd
000001e0: 7e84 483d 4a89 8abd 059d b43d 70ab a7bb
000001f0: e9ae f13d a24b 67bd d9f2 a6bd afff 533d
00000200: c942 d0bd 850b 313d 3ff1 e2bc d195 25be
00000210: cd72 303e cfe2 34be fb3f 7c3d a0b4 3c3e
00000220: f73e 08be 3e1f 45be 6c9a 9b3d e4a1 93bb
00000230: 75a4 813d e082 d03c 5c54 ae3c 2d7a a03d
00000240: 5973 3ebe 99d5 c03d 6886 b4bd 8409 07be
00000250: 511e 513c bec1 403d 12f0 1b3e f0e8 fabd
00000260: 3f9c 0cbe ee6c e7ba d4ba efbc 1e4a e9bd
00000270: b49c e1bc 16a0 0d3e ccec 243e 0beb d0bd
00000280: f98b 44bd b53b 5ebd 3fbf b4bd 1556 c83b
00000290: 2a9d 983d dfcb cebd a93a b3bc f592 1bbe
000002a0: febe a43d ca76 63bd 6af8 fbbd 7018 ea3d
000002b0: 7908 5c3d 48c9 d43d df8a ef3d fb69 793d
000002c0: ab29 c4bd abdb 24be 96c0 8abd 8aa4 10bd
000002d0: 3f17 6abd c592 aa3d 2603 0fbe 1e6d ac3d
000002e0: 520c 933d b737 883c 6a4e 08bd e4c8 953d
000002f0: 871b ddbd de83 773c f20f 3c3d 116e b53c
00000300: bcfd 973b d0df 193d 610c 13be 91f6 c83d
00000310: 630e ebbd bdd8 cb3d 2484 b5bc b969 adbd
00000320: dd25 a63b bd2d 86bd 22b2 113e 16e2 103e
00000330: e0f0 5f3d bb8c 04bd 5fdb 333e 2b7e 00be
00000340: 010e 0a3e e3f0 803d c52c 1e3e fb89 433e
00000350: 55e5 763d 6127 ebba 5bb5 dd3d b7eb 9dbd
00000360: 30a2 233e a954 47bd deae b03c d5b8 05be
00000370: 29d7 103e 891c c23c a9f4 07be 95da 153e
00000380: 3029 4d3d f66e b53d 56eb e2bc aedb 653c
00000390: b91a f8bd afc7 f03d 01b8 183e 1b18 e6bb
000003a0: 48ab 12be 0867 b0bd b449 d8bd a7c7 6c3d
000003b0: c4b7 b6bd 460d d6bd 8bb5 87bc fbb4 f5bd
000003c0: 664f 903d 987d f93c e309 25be f559 143e
000003d0: 6872 d93c 2862 05be e6bf 1d3d d32d 4b3d
000003e0: 7566 693c 0ddd e5bd 0a7b 213e 346e 0b3e
000003f0: b896 3f3e bf61 17bd ecc1 b63c f423 c8bd
-0.003832537 0.099003315 0.1659029 0.0085626105 -0.021115892 -0.11893888 -0.050639242 -0.12896307
0.16356091 0.0774437 -0.10151828 -0.009596113 -0.063647635 0.13319612 0.05214339 0.05026231
0.14033729 -0.07535524 0.089082815 -0.059094895 0.009497707 -0.06548516 0.057089597 0.16959807
0.1598932 -0.1013628 0.15275468 -0.027550386 0.0028152484 -0.12375669 -0.10519086 -0.026514694
-0.05514922 -0.1176218 0.10092663 -0.007876295 0.03694826 -0.14148179 0.01589198 -0.04942754
-0.09821478 -0.015409895 -0.1884695 -0.096663654 -0.012810555 0.086712174 0.004803041 0.012071902
-0.032154813 0.11449595 0.16826868 -0.08560648 0.051513072 -0.1814887 -0.012349105 0.13289496
-0.20535351 -0.17419957 0.029314041 -0.20072727 -0.12138487 -0.12045577 -0.13222331 -0.011949919
0.008137128 -0.015100035 -0.13325317 -0.075018935 -0.12180899 0.18719594 0.03009386 -0.18876259
-0.13978678 0.12721631 -0.033297636 -0.105561554 0.16677472 -0.0121339355 0.056775134 -0.17356166
-0.16810042 -0.19060463 0.068203986 0.13977395 -0.06599704 0.07490307 0.193336 0.01949756
0.023187455 -0.049212936 0.06252512 0.15043575 0.11543514 -0.17014383 0.07171435 -0.044913143
0.14632988 -0.1453157 -0.18472098 0.09344509 -0.032666404 -0.023605168 0.007273966 0.05403184
-0.07471343 0.008852635 -0.05487342 0.06976272 0.07895943 -0.104424916 0.00066672626 -0.0024556788
-0.026127959 0.15330604 -0.05446622 0.06734055 -0.081335224 0.0029232146 -0.06744688 -0.047693964
0.04895448 -0.06764467 0.088190116 -0.0051168725 0.118009396 -0.056468613 -0.08151788 0.05175751
-0.10168988 0.043223877 -0.027702926 -0.16170432 0.17231293 -0.17664646 0.061584454 0.18428278
-0.13305269 -0.19250199 0.07597813 -0.004505383 0.06330196 0.025453031 0.02128046 0.07835803
-0.18598689 0.094157405 -0.088146985 -0.13187224 0.012763576 0.047059767 0.15228298 -0.122514606
-0.13731478 -0.0017656365 -0.029263891 -0.1139109 -0.027540542 0.13830599 0.16105956 -0.10201081
-0.04798505 -0.05425616 -0.0882554 0.0061137774 0.07451852 -0.10097479 -0.021878557 -0.15192778
0.08044241 -0.055533208 -0.123032406 0.11430442 0.053719018 0.10389954 0.116964094 0.060892086
-0.0957826 -0.16099422 -0.06775014 -0.035313167 -0.057151075 0.08328775 -0.13966045 0.0841925
0.07180084 0.01662813 -0.033277906 0.073137075 -0.10796266 0.015107123 0.045913644 0.02214721
0.004638402 0.03756696 -0.14360191 0.09812654 -0.114773534 0.09953449 -0.022157736 -0.084674306
0.0050704316 -0.06551693 0.14228109 0.14148745 0.054673076 -0.032360774 0.17564152 -0.1254813
0.13481905 0.062959455 0.15446766 0.19095604 0.0602773 -0.0017940813 0.108256064 -0.07710975
0.15979838 -0.048664723 0.021567758 -0.13058789 0.14144577 0.023695247 -0.13276924 0.14634164
0.050088108 0.08859055 -0.027700108 0.0140294265 -0.12114472 0.117568366 0.14913942 -0.0070219166
-0.14323151 -0.08613402 -0.10560933 0.05780759 -0.08921769 -0.104517505 -0.016566059 -0.1199741
0.07046394 0.030455396 -0.16117053 0.14487441 0.026543811 -0.13025725 0.038513087 0.04960425
0.014245619 -0.11223803 0.15769592 0.13616258 0.18709838 -0.036958452 0.022309266 -0.097724825

bias_ih_l0_reverse f4 [160]
00000000: a68d 9ebd a0e2 c6bb dd8f 0d3e 1c43 0db9
00000010: 98eb b0bd 971a eb3d 0bb8 14bc f3e3 3bbb
00000020: 7d23 17bd 1aea bc3d 39aa 53bd 476d d13d
00000030: 7c4a 50bd 56e3 87bd c995 133e 71ee 3d3e
00000040: 8252 f93d 70c6 25bc 4c5f 133e 8e97 07be
00000050: 4e08 edbd f603 523d 5e40 813d 0664 cebc
00000060: 2600 a63c be14 ab3d f798 043e 7e26 97bd
00000070: ab60 ae3c 88ca a83d 7538 f9bd 34a8 c5bd
00000080: a98b 323d 0978 7abd 39cb bfbd 3783 403e
00000090: 87ac fb3d c91d 2e3c 5895 423c fa9f fcbd
000000a0: ed06 d4bd 22cd 5cbd 6b8e 8cbd 0a40 cf3d
000000b0: 64b0 023e 43ac ed3d 3bcb 583d 0922 2d3e
000000c0: feca 033c 2bda f13d ef56 f43d e823 14be
000000d0: 028a 953d 1152 37bd a634 79bd 17db 3a3d
000000e0: 3e41 0f3e f0ee 343d 1c58 e83d 9c34 db3d
000000f0: 52fb 563d f16f 7dbc 92ac 7b3c 848a f6bd
00000100: e87c d43c af36 d63c 1f19 273e 5e03 64bd
00000110: 0ca0 9e3d fdff 553e 7417 90bd 1970 77bc
00000120: f483 163e 29f1 56bd df78 6cbd fbf1 183e
00000130: c3f4 f43d e7e8 70bd 0d55 66bb a5d9 b5bd
00000140: 7e30 a9bd 2125 19be e90d 73bd 8ed8 df3d
00000150: e25c 05bd 4d23 eebd 6a1d 2fbc 5414 21be
00000160: 1ff7 85bd 50a4 eb3b b195 a4bd 2f13 75bc
00000170: a040 fd3c 9e64 8c3d c40b 97bd 559a 093d
00000180: e0dd d33d c1d5 18be a4df df3c 7bbe 1e3e
00000190: da66 e9bd 4994 2abe fa0d 6e3d 432a d63d
000001a0: eadd b6bd 9bd9 6c3c bbc5 ed3d bd55 e7bd
000001b0: 709b 453d d2a0 a5bc e87b 20bd 76d3 613b
000001c0: d070 b8bd 9833 fdbc c7a7 0e3e 1990 28bc
000001d0: 48cf a23d fc19 163e 106a 873b 99bc 2ebe
000001e0: 0051 08be c3fb 4b3c 32d4 cf3d 7991 cd3d
000001f0: 8d8f 7c3d fca5 aabd 12b5 e4bd f97b 0dbe
00000200: 5ee3 9b3c 95e5 df3d fb38 6bbd f6a8 2e3d
00000210: 4476 243e e702 9e3d 66e3 e23c 88c8 973d
00000220: e767 1f3e eab2 52bc 10b1 f63d 675b ac3d
00000230: dd65 91bd 3ca9 033e ab39 613d 062d ae3d
00000240: 2940 4f3d a576 943c 2e8a 343d 3944 1abd
00000250: 85dd 9f3d 1bee 143e bc1a 0a3d 863f cabd
00000260: a60d b0bd 2753 1c3e 0d87 7fbd 804f ecbd
00000270: 05bb 253e ba92 0a3d 4b6f 29bc df59 243e
-0.07741861 -0.0060694963 0.1382441 -0.00013471808 -0.08638686 0.11479681 -0.009077082 -0.0028669804
-0.03689908 0.09224339 -0.05167601 0.10225921 -0.050852284 -0.06635158 0.14412607 0.1854799
0.1217394 -0.010118112 0.14391822 -0.13241407 -0.115738496 0.05127331 0.06311105 -0.02519418
0.020263743 0.08353566 0.12948976 -0.07380389 0.02128633 0.08241755 -0.121689714 -0.09651223
0.04359022 -0.06114963 -0.093649335 0.18800054 0.12288766 0.0106272185 0.011876427 -0.123352006
-0.103528835 -0.053906567 -0.068631016 0.10119636 0.127626 0.11605122 0.05292819 0.16907515
0.008044003 0.1180919 0.11930644 -0.14466822 0.073017135 -0.044756 -0.060841225 0.045619097
0.13989732 0.04417318 0.113449305 0.10703394 0.05248577 -0.015468583 0.015360968 -0.120381385
0.025938466 0.026149122 0.16318177 -0.055667274 0.0774537 0.20898433 -0.07035723 -0.01510241
0.14698774 -0.052476082 -0.05773246 0.14936058 0.11960747 -0.058815863 -0.003514591 -0.08879403
-0.08261202 -0.1495557 -0.059339438 0.109299764 -0.032559283 -0.11627827 -0.010688165 -0.15730411
-0.06541275 0.0071912184 -0.08036364 -0.014958187 0.030914605 0.06855129 -0.07375291 0.033594448
0.10345054 -0.1492529 0.02732832 0.1550235 -0.113965705 -0.16658129 0.058118798 0.104572795
-0.089290455 0.014456178 0.1160998 -0.1129565 0.04824394 -0.020218287 -0.039180666 0.0034458316
-0.09005892 -0.03090839 0.1393119 -0.010288262 0.07949692 0.1465835 0.0041325167 -0.17064132
-0.13312149 0.012450161 0.10147895 0.10037512 0.06166034 -0.0833244 -0.11167349 -0.13816823
0.019029316 0.10932461 -0.057427388 0.042641602 0.1606074 0.07715397 0.027696323 0.07411295
0.1556698 -0.012860039 0.12045491 0.08415871 -0.07099507 0.12857527 0.054986637 0.08504681
0.050598297 0.01812298 0.04407709 -0.03766272 0.07805923 0.14543955 0.033716902 -0.098753974
-0.08596353 0.15266095 -0.062384654 -0.11538601 0.16184624 0.033831336 -0.010341476 0.16049908

bias_hh_l0_reverse f4 [160]
00000000: 3a7f d7bd ddad d93d 99e4 603d afe4 263e
00000010: d6fe ad3d a09c 0ebe 8999 b1bd 84ca 223e
00000020: c8ec f03d 45a9 a8bd fc2b 59bd a2e3 bebd
00000030: 001a 3e3e a5b7 1c3b fea0 713d 6c39 2c3d
00000040: d076 eb3d 36ee a9bd 38f8 b03d 0c52 fc3d
00000050: 5342 ec3d 0eb2 9cbd 60ae ae3c 55fa 93bd
00000060: 2155 1b3e 2ac0 17bd e39d d0bd 8703 0b3a
00000070: 4db0 2e3e 4b17 db3d 466c 2d3e bd31 923d
00000080: 1260 f2bd fe0a ffbd e609 cc3d 1980 453d
00000090: a74b fa3c 69a9 85bb e6ca fb3d 5b69 533c
000000a0: 5f13 b53d 1512 0f3e 4edf a53d 7f06 a8bd
000000b0: d633 2a3e 95d8 263e a531 1a3d bbfc 9e3d
000000c0: 2eba 3d3e 4a4e 363e 8061 06be a4d0 923d
000000d0: a1a2 2f3e 8506 143e 93ef e2bd 6b22 8b3d
000000e0: b2c3 cf3b 364f c43d 8629 bc3d bea2 d6bd
000000f0: f357 bb3c 5b37 bb3d da11 12be cb23 43bd
00000100: d117 83bd c779 bfbd 4a28 123e ad1e 813c
00000110: 94d4 d93d 4de5 3f3e 9bd0 083e 1315 0abe
00000120: f44b adbd 3129 43bd 79d4 61bc e9f6 b1bc
00000130: 7b16 f13d e0f6 723d ae56 19bd 4025 d93d
00000140: 4a6a 22be 8188 f9bc bcee 693d f28e 133c
00000150: 6ada f73d 14fd 063e 490a 5d3d 0346 9ebc
00000160: e179 a83d ce12 06bd 628b ef3d f5fc 8d3d
00000170: a588 fdbd 4ea7 80bd b0c1 163e 135b 3b3e
00000180: 3acf 993d 83d8 093d 185d 7ebd 2807 813d
00000190: 1998 233e 8f9d 17be aeb8 4b3d ac6c 7a3d
000001a0: 43ce 7abd 0aa7 e8bd 98f0 173c b21d 95bd
000001b0: ab06 d03d b8fd a33d 5aa1 033e b807 77bd
000001c0: c328 aebd 96be 073e 0505 c1ba 60f0 bb3d
000001d0: 2a92 233e 0b72 f4bd 6a6e bebc c907 28bc
000001e0: d3e4 083c 1416 62bd 445c 443d 0dc9 95bd
000001f0: 2162 033e 8b3e 0bbd 83cd 26bc c685 3c3d
00000200: a117 00be 5f20 803c a6fc d7bd ba13 043e
00000210: d5a4 433e 964d 063e 4846 8fbd 9f49 f6bd
00000220: 5bca fe3d bbee b33d 1727 843d d05d 8dbd
00000230: 45aa a33c 5ebc b43d fdec 5a3d 4854 243e
00000240: 550e f6bd f0bd cdbd 2eeb 353d 9348 853b
00000250: 8661 9abd 4e4f 223e 0bec 97bd 2577 993d
00000260: 9bb3 7fbd c2fe e8bd 6341 363c 0034 c9bd
00000270: caa5 6a3d 1fb3 81bd 95e9 ab3d 4991 cebd
-0.105223134 0.10628865 0.054905508 0.16298173 0.08495872 -0.13926935 -0.08671863 0.15897566
0.117639124 -0.082354106 -0.053020462 -0.09320761 0.18564606 0.0023913172 0.058991425 0.04204695
0.11497271 -0.08297388 0.08641094 0.12320337 0.11536088 -0.07651149 0.021323383 -0.072254814
0.15169193 -0.037048496 -0.101863645 0.0005302955 0.17059441 0.10697802 0.16935834 0.07138393
-0.1183473 -0.124532685 0.099628255 0.048217867 0.030553652 -0.004079033 0.12294559 0.012903537
0.08841585 0.13971741 0.080992326 -0.08204364 0.16621336 0.16293557 0.037645 0.07763048
0.18528053 0.17803302 -0.13123131 0.07168701 0.17151882 0.14455612 -0.110808514 0.06793674
0.0063404674 0.09585421 0.091876075 -0.10480259 0.022869086 0.091414176 -0.14264622 -0.047641557
-0.06401027 -0.09349399 0.14273182 0.015761698 0.10636249 0.18739815 0.13360827 -0.13484602
-0.084617525 -0.047646705 -0.013783568 -0.021724181 0.11771866 0.05931747 -0.03743618 0.10602808
-0.15860859 -0.030460598 0.05711244 0.009006249 0.12102206 0.13182479 0.053964887 -0.019320494
0.082263716 -0.032732777 0.11696507 0.06933013 -0.123795785 -0.06281911 0.14722323 0.18296461
0.075102285 0.033653747 -0.0621005 0.06300193 0.1597599 -0.14806198 0.04973667 0.061138794
-0.061231863 -0.11359985 0.009273671 -0.072810546 0.10157522 0.080073774 0.1285452 -0.060310096
-0.085038684 0.13256297 -0.0014726227 0.09176707 0.15973726 -0.119358145 -0.023246009 -0.010255762
0.008355337 -0.055196837 0.047939554 -0.07313738 0.12830402 -0.033995192 -0.010180834 0.046026014
-0.12509014 0.015640436 -0.10546236 0.1289815 0.19105847 0.13115534 -0.06995827 -0.12025761
0.1244094 0.087857686 0.06452768 -0.06902659 0.019978652 0.08824991 0.053448666 0.16047776
-0.12014452 -0.10045993 0.044413738 0.0040674894 -0.07538132 0.15850565 -0.074180685 0.07493428
-0.062427144 -0.11376716 0.011123988 -0.09824371 0.057287015 -0.06332993 0.083941616 -0.10086305

weight_ih_l1 f4 [160, 80]
00000000: 34e1 93bd 720a babd bc82 72bd 0ed9 4dbd
00000010: c159 04be fd31 eebd 6f1b 0e3e 05dc c53d
00000020: 6c0b e8bd 4578 213d ff61 3bbe d0a0 013d
00000030: ecef 12be 4180 0cbd 0737 1ebe f0f3 033e
00000040: a5d0 5ebc c76f fd3c 3d00 bb3c 365a 28be
00000050: c320 7d3c 26ff 203e 9a55 89bd 8a2f 783d
00000060: f602 713d 14dd f33d 0879 87bc d28c 41bd
00000070: 4fee 5e3d b431 cc3c acca b13d 15a8 e23d
00000080: e8ab 353e 6f16 023d cb29 8f3d 0861 8b3d
00000090: 96fc b4bc 0c6a e3bd 3ef8 973d 17e9 dc3b
000000a0: b719 33be d4f2 f33c cb7a d83d 0cf1 c4bd
000000b0: 21db 9b3d 7b50 063e 630f f53d d40e 9fbd
000000c0: 02f2 753d cc18 0b3e 5339 203d b768 18be
000000d0: 16b1 97bc 8555 4a3b 1cbc 8cbd 4c82 b23d
000000e0: bfc4 02be 88a0 73bd d0e4 993d afc5 b73d
000000f0: 69cb 1ebd 5c14 52bd 1a68 36bd 8f6e 03be
00000100: e3fa 3abe 4635 ab3d e519 293d 7870 9f3d
00000110: ce47 083e 59e8 083e 3832 c73d 2457 cc3d
00000120: 732d f03d 3be3 963c d5e5 333e 265f 63bd
00000130: bdb6 3f3e 3c31 a5bd ad4e 05be 68f4 1ebe
00000140: b398 8bbd cdd8 9b3d dc2e 1b3b 8a84 213e
00000150: 7da9 fe3d 2de7 483d 10e0 c13d 9080 d6bd
00000160: c7f0 213e b2fd 803d 5a18 573d 6efb 303e
00000170: 1321 ecbb d01a c33d 0fa1 293d 6395 ac3d
00000180: 65ae cf3d 85e3 0bbe 2cc5 9fbc 8ecc dfbd
00000190: d62d 253e 8475 1b3e 0ba2 533d 96e3 253e
000001a0: 4d0b 853d f0fe 72bd 2d01 f43b 315c ed3d
000001b0: 4672 6e3c 00da 36be c6d1 32be decd 8ebb
000001c0: ee31 a13d acb6 693d 765e f43d 80ee f6bd
000001d0: 99a2 93bd eeeb 8b3d 96bb dd3d be07 ed3d
000001e0: cc57 16be d91a 55bd 600e 12bd 295c f13d
000001f0: 565f 1d3e 625f b03d 72c1 a33d e346 1d3e
00000200: 4a27 bebd eff8 09be d2dc 383d e356 ffbd
00000210: cdb0 3bbd fd63 14be 5c79 283e 95bf 30bd
00000220: e873 2dbd 1bdc 673c a68f ff3d eae2 be3d
00000230: 3e41 94bd 0261 e5bd 030a a13c c594 4cbc
00000240: b593 97bd e87d 1b3e becf 0abe ea63 a33a
00000250: 689e 07bd 616a d83d 7e3f 09be 26c4 06be
00000260: 39a3 423d d7fc 34bc 6c1d 59bd 32d8 38be
00000270: 4708 e7bd 81bf 08bd 392c 2d3d f09b f83d
00000280: 9217 06be 4c05 183d a008 693d 1104 a63b
00000290: 634f 6dbd 87b9 5c3d 02f4 8a3c 1f89 3abe
000002a0: 0d68 933d 075f 0abe 37a3 303e 817e 1e3e
000002b0: 8729 d5bc be6d a53d 2899 eb3d c354 213d
000002c0: c355 03bd 150b 503d bd19 88bd 5c6f 03be
000002d0: 95ba a43d baa1 93bd bbc2 193d fdad 153e
000002e0: 1dba 24bd cb05 ea3c 3b5f ab3d 28d5 f53d
000002f0: fb28 cbbd 0938 3d3e a95c 8abb 5c0a 7ebd
00000300: 832e 84bd 6805 903d 69a9 873b 58b0 e13d
00000310: f640 1c3e edba 88bb 58b2 053d 58b4 f1bd
00000320: a534 1bbc 670f e4bd 62ca 303e 6141 02be
00000330: 3975 9dbd 3a5a 253d 1dcf b6bd 21df 2abe
00000340: ffd0 f53d 57f7 9dbd 447d 4dbd 7fb4 8d3d
00000350: 7409 14be b5e4 573e 7842 62bd 1cbb 023e
00000360: 8ca0 9b3d 76f7 d1bc 5a8d 023e feaa 053e
00000370: d961 e7bc 6375 b4bd aba5 293d ca07 463d
00000380: c583 083d c22f fd3d cecf 83bb 7a3e c33c
00000390: 99d1 413c 335e e1bd dc9f 923d 7fbd f9bd
000003a0: 5424 cd3d 7330 9fbd e6a0 f3bd 1c76 173e
000003b0: fd88 153e f791 0a3e df51 d83c 48b8 07be
000003c0: aef9 d83d d3bc 72bd f2b6 01be b2ca 9bbd
000003d0: 7f6d 053e 583d 80bd e19a e03c d5d1 12be
000003e0: 0d22 383d df06 b9bd 5abd f3bd 097e e33c
000003f0: b63a 32be 8157 003e ca50 8dbd fe3c b83c
-0.072206885 -0.090840235 -0.05920671 -0.050255828 -0.12924863 -0.11630628 0.13877653 0.09661106
-0.113303035 0.03942134 -0.18299101 0.031647503 -0.14349335 -0.034302 -0.15450679 0.12886024
-0.013599549 0.030937089 0.022827262 -0.16440663 0.0154497055 0.15722331 -0.0670578 0.06059221
0.058840714 0.11907402 -0.016537204 -0.047253437 0.054426488 0.024926044 0.08681235 0.11067215
0.17741358 0.031759676 0.06990393 0.068056166 -0.022093099 -0.11104211 0.07420395 0.0067416537
-0.17490278 0.029778875 0.10570296 -0.096162885 0.07610155 0.13116638 0.119658254 -0.077665
0.06004525 0.13583678 0.03911717 -0.14883696 -0.018517058 0.0030873728 -0.068718165 0.087162584
-0.12770365 -0.059479266 0.07514346 0.08973252 -0.038768206 -0.051288947 -0.044532873 -0.12835144
-0.18259768 0.083597705 0.04128446 0.077851236 0.13308641 0.13369884 0.09726375 0.09977558
0.11727419 0.018418899 0.17568143 -0.055510662 0.18722053 -0.08066031 -0.13018294 -0.15522921
-0.068162344 0.07609711 0.0023679053 0.15773216 0.12434671 0.04904859 0.09466565 -0.1047374
0.15814506 0.062983885 0.052513458 0.17283413 -0.007206091 0.095265985 0.041413363 0.08426931
0.10140685 -0.1366101 -0.019503199 -0.109276876 0.16130766 0.15181547 0.051668208 0.16200098
0.06496296 -0.05932516 0.007446429 0.1158985 0.014553612 -0.17856598 -0.17462835 -0.0043580374
0.078708515 0.057058975 0.119320795 -0.12057209 -0.072087474 0.068321094 0.10826795 0.11573742
-0.1468193 -0.052027557 -0.03565824 0.11785156 0.15368399 0.08611943 0.07995881 0.15359072
-0.092848375 -0.13473867 0.045132466 -0.12467744 -0.045822907 -0.14491268 0.16452545 -0.043151457
-0.042346865 0.014151598 0.12478571 0.09320624 -0.072390065 -0.112001434 0.019658094 -0.012486641
-0.0740122 0.15184748 -0.1355581 0.001246569 -0.033110052 0.10567165 -0.13403127 -0.13160762
0.047518943 -0.01104661 -0.053006575 -0.18051222 -0.11280876 -0.033385757 0.042278502 0.12139118
-0.13094929 0.037114426 0.05689299 0.0050664027 -0.057937037 0.05388787 0.016962055 -0.1821637
0.071975805 -0.13512813 0.17249762 0.15477945 -0.026020778 0.08077572 0.115038216 0.039387476
-0.03206421 0.05079182 -0.06645534 -0.12835449 0.080434 -0.07208581 0.037539225 0.14617153
-0.040216554 0.028567215 0.08367773 0.12003547 -0.09919926 0.18478407 -0.0042224717 -0.0620216
-0.06454184 0.07032281 0.0041400683 0.11019963 0.15259156 -0.004172674 0.032640785 -0.11801976
-0.009473001 -0.1113575 0.17264703 -0.12720253 -0.07688374 0.04036925 -0.089262225 -0.1668668
0.120027535 -0.07713192 -0.05016829 0.069191925 -0.14456731 0.21083339 -0.05523917 0.12766689
0.07598981 -0.025630694 0.12749234 0.1305351 -0.0282449 -0.08811452 0.04141776 0.048347272
0.03332879 0.12362625 -0.004022575 0.023833502 0.011829757 -0.11004295 0.07159397 -0.12194347
0.10016695 -0.07772913 -0.11895923 0.14791149 0.14603038 0.13532244 0.026406227 -0.13253891
0.105944976 -0.059262108 -0.12667444 -0.076070204 0.1303005 -0.062617004 0.027417602 -0.14337857
0.04495435 -0.09034514 -0.1190135 0.02777006 -0.17405209 0.1253338 -0.06900175 0.02249002
