models/autoencoder.pt (torch_old, 236144 bytes, 24 tensors)

weight_ih_l0 f4 [160, 3]
0	0x3ea0485a	0.313052
1	0x3eba927f	0.36439893
2	0x3d3491fe	0.04408454
3	0xbe2a4f08	-0.1663171
4	0xbe85824d	-0.26075974
5	0xbe0771df	-0.13227032
6	0xbde18e39	-0.11013455
7	0xbf776f2d	-0.96654016
8	0x3eb56680	0.35429764
9	0xbf2c70b7	-0.6735949
10	0xbf4c8561	-0.7989102
11	0x3d2a929a	0.041643716
12	0xbdc6ac64	-0.0970085
13	0x3f2b6234	0.6694672
14	0x3f2872b7	0.6580004
15	0x3f0a130f	0.5393533
16	0xbf12e27d	-0.57376844
17	0xbf0f5387	-0.5598683
18	0x3e2dc693	0.16970281
19	0xbe9645d7	-0.2935016
20	0x3d425c4b	0.0474513
21	0x3eba5ecc	0.3640045
22	0x3f273933	0.65321654
23	0x3e869a6f	0.26289698
24	0x3e718b37	0.23588262
25	0x3e79df2c	0.2440154
26	0xbc03de6e	-0.008048637
27	0xbe39aa6e	-0.1813142
28	0x3f1ef32f	0.6208982
29	0x3edbcf56	0.42931622
30	0xbf40e07c	-0.75342536
31	0x3e78ec24	0.2430883
32	0x3e808dfd	0.25108328
33	0x3d5c840f	0.05383688
34	0x3ec16d1e	0.37778562
35	0x3ef3ee32	0.47642666
36	0x3e408ff1	0.1880491
37	0x3ef3781c	0.47552574
38	0x3eb82532	0.35965878
39	0xbee26f68	-0.4422562
40	0xbd818c75	-0.06325618
41	0x3f199bf0	0.60003567
42	0x3d10a9ee	0.035318308
43	0x3f08f29d	0.534952
44	0x3ef4a4b2	0.47781903
45	0x3ec17b1f	0.37789246
46	0xbe85f32b	-0.26162085
47	0x3eca7375	0.39541212
48	0x3e28be2c	0.16478795
49	0x3e8ad186	0.2711298
50	0x3f3ac88b	0.72962254
51	0xbeaa79bc	-0.33296
52	0xbe1c6479	-0.15272702
53	0xbf19b260	-0.60037804
54	0x3e6c7b9a	0.23094025
55	0xbf334208	-0.7002263
56	0xbead5247	-0.33851835
57	0xbe8172f2	-0.2528301
58	0x3f47b819	0.78015286
59	0x3f15dd92	0.58541214
60	0x3e12c730	0.14333797
61	0x3f39d9e5	0.72598106
62	0x3eff1326	0.49819297
63	0xbeb8fa30	-0.36128378
64	0xbe2ec68e	-0.1706793
65	0x3df27922	0.118395105
66	0xbeb81d3d	-0.35959807
67	0x3ecad6c9	0.39616993
68	0x3e37f792	0.17965534
69	0xbe254b14	-0.16141921
70	0xbe99ea94	-0.3006178
71	0xbc903b06	-0.01760627
72	0xbf0f0115	-0.55861026
73	0x3e8a820f	0.27052352
74	0xbe065dc0	-0.131217
75	0x3d6fa477	0.058506455
76	0xbeb0509d	-0.34436503
77	0xbdaf57a2	-0.085616365
78	0xbe039aef	-0.12852071
79	0x3e9068b4	0.28204882
80	0xbe5533e2	-0.20820573
81	0x3cc5a4e4	0.024126478
82	0xbec454c7	-0.3834593
83	0x3dcd4910	0.10023701
84	0x3ec9d39a	0.39419252
85	0xbcfe9c0e	-0.031080272
86	0xbecc954f	-0.39957663
87	0xbe67c97d	-0.22635455
88	0x3f2e0d2e	0.6798886
89	0x3f370f7b	0.71507996
90	0x3ce4acc6	0.027914416
91	0xbe15aa03	-0.14615636
92	0xbcc74011	-0.024322541
93	0x3f51ab41	0.8190194
94	0xbeb40036	-0.3515641
95	0xbe7ff0d1	-0.24994208
96	0xbe8d37e0	-0.27581692
97	0x3e51acb3	0.20476036
98	0x3fae585d	1.3620716
99	0x3eb4fe96	0.35350484
100	0xbeb68c3e	-0.3565387
101	0xbed1d8e5	-0.4098579
102	0x3c96f61f	0.018427907
103	0x3eb55299	0.3541458
104	0xbc88f9d3	-0.016720688
105	0xbf45cfdf	-0.7727031
106	0xbebde2a3	-0.37086973
107	0xbd1ac3e8	-0.037784487
108	0xbf037768	-0.51354074
109	0xbeb4ab6c	-0.35287035
110	0xbe696051	-0.22790648
111	0xbdf4db58	-0.11955899
112	0x3ea5969e	0.32341474
113	0x3ebaf1de	0.36512655
114	0xbd9817b5	-0.07426397
115	0xbf40fd98	-0.75386953
116	0x3d932af5	0.07185928
117	0xbf69cb04	-0.913254
118	0x3eb2d88d	0.3493084
119	0x3e0d012e	0.13769981
120	0x3c42c6f8	0.011888258
121	0x3f11fb74	0.5702431
122	0x3f6ffe2c	0.9374721
123	0xbf7d04d7	-0.9883551
124	0xbe7cadcc	-0.24675673
125	0x3e44bfdc	0.19213814
126	0x3ed25c31	0.4108596
127	0xbe21243c	-0.15736479
128	0x3f499dbe	0.7875632
129	0xbd6df1e2	-0.058092006
130	0x3f2632f4	0.649215
131	0x3f2f94ff	0.68586725
132	0x3eafa342	0.34304243
133	0xbe95458b	-0.2915462
134	0x3f03cb1b	0.5148179
135	0x3e0a4e0d	0.13506337
136	0x3e3e0477	0.1855639
137	0x3d08c78a	0.03339342
138	0xbc874fc4	-0.016517527
139	0xbf2b2ab6	-0.66862047
140	0xbeb47195	-0.35242906
141	0xbe62832c	-0.2212035
142	0x3fdbb0ac	1.7163291
143	0x3f559c71	0.83441836
144	0x3f94a861	1.1613885
145	0xbfc43d96	-1.5331295
146	0xbfb236f6	-1.3923023
147	0x3f1cddd5	0.6127599
148	0xbf51b766	-0.8192047
149	0xbe467398	-0.19380033
150	0x3f977dc9	1.1835262
151	0xbf89dd50	-1.0770664
152	0xbececa38	-0.40388656
153	0x3f33bdb5	0.70211345
154	0x3f1d2814	0.6138928
155	0xbcc95f8d	-0.024581695
156	0xbf84fe85	-1.0390173
157	0x3e1325b1	0.14369847
158	0xbf615ea3	-0.8803503
159	0x3d965570	0.07340515
160	0x3f790404	0.9727175
161	0x3f21cce4	0.63203263
162	0xbe89f522	-0.26944834
163	0xbe8cfd11	-0.27536824
164	0x3f977fbe	1.1835859
165	0x3ee83692	0.45354134
166	0xbd18a9f1	-0.037271444
167	0x3dae2f39	0.08505101
168	0x3f42706f	0.7595281
169	0xbf784ed0	-0.9699526
170	0xbf0f0c14	-0.55877805
171	0xbeb18966	-0.3467514
172	0x3e5f1883	0.21786694
173	0xbf3ff050	-0.7497606
174	0xbea6c1b6	-0.32569665
175	0x3f2c5b47	0.6732678
176	0x3f142eee	0.5788411
177	0xbf764490	-0.9619837
178	0x3f2c0dfc	0.6720884
179	0xbe2622e7	-0.16224252
180	0x3f46e90f	0.7769937
181	0x3e497dbf	0.19676875
182	0x3e5e9266	0.21735534
183	0xbfdbf5d3	-1.7184395
184	0x3f251415	0.6448377
185	0x3f88b599	1.0680419
186	0x3c3596e1	0.011083336
187	0xbf424111	-0.75880533
188	0xbef50d29	-0.47861603
189	0xbf39e6dd	-0.72617894
190	0x3f0fe953	0.562154
191	0x3f1e54e9	0.6184831
192	0xbf226196	-0.63430154
193	0xbf309fb3	-0.6899368
194	0xbf46d90c	-0.7767494
195	0x3c6c5efd	0.014426944
196	0xbfa2bff2	-1.2714827
197	0xbf30ad32	-0.69014275
198	0xbed6da03	-0.41963205
199	0x3f2954cd	0.6614502
200	0xbe9ee310	-0.3103261
201	0xbf2e2cb3	-0.68036956
202	0xbf02828d	-0.50980455
203	0x3f2526f1	0.64512545
204	0xbf362501	-0.71150213
205	0x3ebb8672	0.3662601
206	0x3dd3c990	0.10341179
207	0x3e7901d0	0.24317098
208	0xbf8e83db	-1.1133989
209	0xbfaca2dc	-1.3487201
210	0x3e8ce010	0.27514696
211	0x3f3f627c	0.7475965
212	0x3f502cb3	0.81318206
213	0x3e93ce31	0.2886825
214	0xbd99f5f9	-0.07517619
215	0xbe884785	-0.26617065
216	0xbf6c73a7	-0.9236397
217	0x3e482328	0.19544661
218	0x3c94e221	0.018174233
219	0xbeaae129	-0.3337491
220	0xbf83ee3e	-1.0307081
221	0xbf4a4d89	-0.7902456
222	0x3f1f0861	0.6212216
223	0xbf28b7b2	-0.65905297
224	0xbefb1892	-0.49042183
225	0x3f46eb4b	0.7770278
226	0xbf7ec7f0	-0.9952383
227	0xbf0844ab	-0.5322978
228	0xbf758397	-0.95903915
229	0x3f08d605	0.5345157
230	0x3e6946ce	0.22780916
231	0x3ec06e06	0.3758394
232	0xbfe5432f	-1.7911128
233	0xbf182610	-0.5943308
234	0xbf142a8e	-0.57877433
235	0x3f42d65c	0.76108336
236	0x3f428cf9	0.7599636
237	0xbf3db1f8	-0.74099684
238	0x3e2f282f	0.17105173
239	0x3edd3cdc	0.43210495
240	0x3ec9f515	0.39444795
241	0xbe860429	-0.2617505
242	0xbf97e70c	-1.1867385
243	0xbf3d8ac1	-0.74039847
244	0x3edcd4b7	0.4313104
245	0x3f0cddc1	0.5502587
246	0x3faee4d4	1.3663583
247	0x3f702b54	0.93816113
248	0xbf466cc2	-0.775097
249	0x3e0323e5	0.12806661
250	0xbfb46eef	-1.4096354
251	0xbe7cb452	-0.24678162
252	0xbf05efa5	-0.52318794
253	0x3f914782	1.1349947
254	0xbeaf4385	-0.342312
255	0xbf9222e2	-1.1416895

weight_hh_l0 f4 [160, 40]
0	0xbf7b2321	-0.9810048
1	0x3e755567	0.2395836
2	0xbe4a3a0a	-0.19748703
3	0xbef65449	-0.4811118
4	0xbe47ce63	-0.19512324
5	0xbed5d0d6	-0.41760892
6	0xbf23f283	-0.6404192
7	0xbf147c65	-0.5800231
8	0x3e9bd8c4	0.30438817
9	0xbeef2e9a	-0.46715242
10	0xbea62b2f	-0.3245482
11	0x3f0bc9c9	0.54604775
12	0xbe930214	-0.28712523
13	0xbe9cdc9e	-0.30637068
14	0xbf6c9fb9	-0.9243122
15	0x3f0a6a77	0.540687
16	0xbf397265	-0.7244018
17	0x3f04bbdf	0.5184917
18	0xbd3fdfb9	-0.046844218
19	0x3f325b37	0.6967043
20	0x3f0f7e6f	0.560523
21	0x3ccde73c	0.025134675
22	0xbf735277	-0.95047706
23	0xbe66c5e5	-0.22536428
24	0x3e51bfc2	0.20483306
25	0x3ed94a52	0.42439514
26	0xbf1c0b3b	-0.60954636
27	0xbd7d9d83	-0.061917793
28	0xbe2f4978	-0.1711787
29	0xbe460023	-0.1933599
30	0xbe896859	-0.26837423
31	0xbf120d32	-0.57051384
32	0x3e79df94	0.24401695
33	0xbe8b5d9d	-0.2721986
34	0xbef42b02	-0.47689062
35	0x3f045bb6	0.5170244
36	0x3e419997	0.18906246
37	0xbee68148	-0.4502051
38	0xbf521bab	-0.8207347
39	0xbe2fbad3	-0.17161112
40	0x3ddaf286	0.10690789
41	0x3eda5093	0.42639598
42	0x3e0186c5	0.12649067
43	0xbeb3f022	-0.35144144
44	0x3ee53974	0.44770396
45	0x3f9a21c4	1.2041554
46	0xbebeb80b	-0.3724979
47	0xbf32dc01	-0.6986695
48	0x3c5d02dd	0.013489452
49	0xbe3c58fb	-0.18393318
50	0x3f13f896	0.5780119
51	0x3dab12dc	0.083532065
52	0x3da0e071	0.07855309
53	0xbf32d6ec	-0.69859195
54	0x3d87e72b	0.06635889
55	0xbea7f57c	-0.32804477
56	0xbe666a62	-0.2250152
57	0x3ee3815e	0.44434637
58	0x3eb608a8	0.3555348
59	0x3eab3fb6	0.33447045
60	0xbd93a98b	-0.07210072
61	0xbeef692d	-0.4675993
62	0x3f2b6d77	0.66963905
63	0xbe0c658e	-0.13710615
64	0xbf064609	-0.52450615
65	0xbef6993a	-0.48163778
66	0xbe934aa8	-0.28767896
67	0x3dce8589	0.100840636
68	0xbed087ac	-0.4072851
69	0x3f79f1c1	0.9763451
70	0x3ed5877e	0.41704935
71	0x3f2faff6	0.6862787
72	0x3e972dfb	0.29527268
73	0xbf03ac40	-0.5143471
74	0xbe0fea95	-0.1405433
75	0x3ed18c86	0.40927523
76	0x3ef8920b	0.48548922
77	0xbe452501	-0.19252397
78	0xbefdd629	-0.49577454
79	0x3e3eecdf	0.18645047
80	0x3f2bcc29	0.671084
81	0x3c4d97f4	0.0125484355
82	0x3f27d42b	0.6555812
83	0x3e529dde	0.20568034
84	0x3d986c20	0.07442498
85	0x3fa8bdfd	1.318298
86	0xbd7010bb	-0.058609705
87	0x3e8739b8	0.26411223
88	0xbe716932	-0.23575285
89	0x3e13e2d5	0.14441998
90	0xbeb208ef	-0.3477244
91	0xbeb8de2a	-0.36106998
92	0xbe85f02b	-0.26159796
93	0x3ee6e569	0.450969
94	0x3ed40c93	0.41415843
95	0x3f511814	0.81677365
96	0xbe0cedea	-0.13762632
97	0xbebdb7ba	-0.37054235
98	0x3d245f23	0.040129792
99	0x3e1c60d3	0.1527131
100	0xbf0f265e	-0.5591792
101	0x3e179553	0.14803056
102	0xbeaef999	-0.34174803
103	0x3e1bcb65	0.15214308
104	0x3ee1b219	0.4408119
105	0xbe8f944f	-0.28042838
106	0x3e1222ac	0.14271039
107	0x3e2b42df	0.16724728
108	0xbe2aeebf	-0.16692637
109	0xbe88147a	-0.26578122
110	0x3f52c3a9	0.82329804
111	0x3f2363aa	0.6382395
112	0x3e0ae68b	0.13564508
113	0xbf430502	-0.76179516
114	0x3e883867	0.26605532
115	0x3f20b848	0.6278119
116	0x3f0850b3	0.5324814
117	0xbe4aef3e	-0.19817826
118	0x3eb7c192	0.3588987
119	0x3d940880	0.07228184
120	0xbe4e2850	-0.20132565
121	0xbefc1710	-0.49236345
122	0x3e4d7664	0.20064694
123	0xbed85f56	-0.42260236
124	0xbe3d835d	-0.18507142
125	0xbf5bbd16	-0.858354
126	0xbefc162d	-0.4923567
127	0xbf5df33c	-0.8669927
128	0x3aee07f7	0.0018160333
129	0xbeee5867	-0.4655182
130	0x3f09dc42	0.5385171
131	0xbeab6456	-0.33474988
132	0x3eb9333f	0.3617191
133	0xbe743bbb	-0.2385091
134	0xbf5ff1e4	-0.8747847
135	0xbde79133	-0.113069914
136	0x3ee8fdbf	0.45506093
137	0x3f1845a0	0.5948124
138	0xbf167164	-0.5876677
139	0x3fb54654	1.4162087
140	0x3f607ecf	0.87693495
141	0xbf89e5a4	-1.0773206
142	0xbf2df9fa	-0.6795956
143	0xbe810cbd	-0.2520503
144	0xbc3c0c02	-0.011477472
145	0xbecca0fb	-0.39966568
146	0xbfa31f8d	-1.2744004
147	0xbf527ea6	-0.822245
148	0x3e861eba	0.26195318
149	0x3f073470	0.5281439
150	0xbf04cf26	-0.51878583
151	0x3fafb22a	1.3726246
152	0xbf118036	-0.5683626
153	0x3f4f4b8f	0.8097467
154	0x3e96d79f	0.2946138
155	0x3dfd4f99	0.12368698
156	0x3e21c918	0.15799367
157	0x3f6978bd	0.91199857
158	0x3f2094c1	0.6272698
159	0xbf231726	-0.63707197
160	0x3ebb737e	0.3661155
161	0xbf7e6182	-0.99367535
162	0xbf265ee0	-0.6498852
163	0x3ca7bd83	0.020476108
164	0x3e637f92	0.22216633
165	0xbf14f051	-0.58179194
166	0xbefbb412	-0.4916082
167	0xbf18f121	-0.59742934
168	0x3e9ea46a	0.30984813
169	0xbe2223e1	-0.15833999
170	0xbdf0c262	-0.117558256
171	0xbf2c39c9	-0.67275673
172	0x3ed3ef67	0.41393587
173	0xbc8353b5	-0.016031126
174	0xbf34b28d	-0.70584947
175	0x3eb711c7	0.3575575
176	0xbdf68cd4	-0.120385796
177	0x3f60c380	0.8779831
178	0x3d9f7e41	0.07787753
179	0xbc29cde1	-0.010364027
180	0xbd2aebcf	-0.04172879
181	0xbf66a332	-0.90092766
182	0xbf04764f	-0.51743025
183	0xbec63672	-0.38713413
184	0xbef1c7d4	-0.4722277
185	0x3df2954b	0.118448816
186	0x3b273d0b	0.0025518562
187	0xbd62fb6c	-0.055415556
188	0x3f003378	0.50078535
189	0x3eb2f511	0.34952596
190	0xbf569e43	-0.8383524
191	0x3eb8ef47	0.36120054
192	0xbf6ebeb8	-0.93259764
193	0x3d8cdd8f	0.068781964
194	0xbcd7e3d2	-0.02635375
195	0xbe9eab7f	-0.30990216
196	0xbe2ff402	-0.17182925
197	0x3e2273ac	0.15864438
198	0x3e8e48a8	0.27789807
199	0xbf9660f0	-1.1748333
200	0x3f1e6cef	0.6188497
201	0xbded9f6b	-0.11602672
202	0xbde49820	-0.11161828
203	0xbf1e5649	-0.6185041
204	0x3f95f989	1.1716777
205	0xbeb5c4a0	-0.35501575
206	0x3f20acdb	0.62763757
207	0xbe4b1dff	-0.19835661
208	0xbe37c388	-0.17945683
209	0x3e915d38	0.28391433
210	0xbeaa43d7	-0.33254883
211	0xbf747b77	-0.9550089
212	0x3f10fe15	0.566377
213	0x3e1c1d81	0.1524563
214	0xbf0ea84a	-0.5572554
215	0xbd2e4d6a	-0.042554297
216	0x3f3caf2b	0.73704785
217	0x3ee74705	0.4517137
218	0xbf574369	-0.84087235
219	0xbd947f0c	-0.07250795
220	0xbd1ef3ee	-0.03880685
221	0xbe2e6360	-0.17030096
222	0x3e23f3eb	0.16011016
223	0x3df5b4b3	0.11997356
224	0x3eb91265	0.36146846
225	0xbef62bda	-0.4808033
226	0xbed9a77d	-0.42510596
227	0x3e1951d1	0.14972617
228	0xbf4ec4e1	-0.80769163
229	0x3e8453e8	0.25845265
230	0x3f64b2a0	0.8933506
231	0xbec3af9a	-0.3821991
232	0x3f50a891	0.8150721
233	0xbd37d19a	-0.044877626
234	0x3e15d48d	0.14631863
235	0x3d9f12f3	0.07767286
236	0x3e7606c5	0.2402602
237	0x3f3d7ab9	0.74015385
238	0x3f117aec	0.5682819
239	0xbed033e6	-0.40664595
240	0xbd42f6fd	-0.047598828
241	0xbe59feaf	-0.2128856
242	0x3f41e2da	0.75736773
243	0x3fb6743d	1.4254223
244	0x3e677846	0.22604474
245	0xbe8a4816	-0.27008122
246	0xbea956fd	-0.3307418
247	0x3d9eca14	0.07753387
248	0x3f6dc080	0.92871857
249	0x3e86900a	0.26281768
250	0xbf841ad3	-1.0320686
251	0x3ec2315d	0.37928286
252	0xbe1f194e	-0.15536997
253	0x3ef02903	0.4690629
254	0x3cbc1c20	0.02296263
255	0x3f894185	1.072312

bias_ih_l0 f4 [160]
0	0xbe8be644	-0.27324116
1	0xbeb93afd	-0.36177817
2	0xbdd08283	-0.10181143
3	0xbe6f1a71	-0.2334993
4	0xbead7cec	-0.3388437
5	0xbe000bdc	-0.12504524
6	0xbf03d720	-0.5150013
7	0xbeabc8a9	-0.3355153
8	0xbe6b6498	-0.22987592
9	0x3d7768cf	0.060402688
10	0xbef65237	-0.481096
11	0xbf3da505	-0.74079925
12	0xbf0c8eaa	-0.5490519
13	0xbf39e778	-0.7261882
14	0xbea80b27	-0.3282101
15	0xbf3006a4	-0.6876013
16	0xbab9b420	-0.0014168061
17	0xbebe3d64	-0.37156212
18	0xbe885d04	-0.26633465
19	0xbe9b3d39	-0.30320147
20	0xbe9064b8	-0.28201842
21	0xbe930326	-0.2871334
22	0xbe0e245b	-0.13881056
23	0x3df7905c	0.12088081
24	0xbf4f7c1b	-0.81048745
25	0x3e93331a	0.28749925
26	0x3e835f19	0.2565849
27	0xbeb752ed	-0.35805455
28	0x3db921ba	0.09039636
29	0xbe8f3b8c	-0.27975118
30	0xbde9f86c	-0.11424336
31	0xbf2464e1	-0.6421643
32	0xbeaeee4f	-0.3416619
33	0xbf1401ef	-0.5781545
34	0xbdb13309	-0.08652312
35	0xbed0fa74	-0.4081608
36	0xbf2250d7	-0.634046
37	0xbd902daf	-0.070399635
38	0xbec42f10	-0.38317156
39	0xbf166472	-0.5874702
40	0x3ee8ff0d	0.45507088
41	0x3f34e79a	0.70665896
42	0xbd6652b2	-0.05623121
43	0xbd82a7d6	-0.063796684
44	0x3da0b706	0.07847409
45	0xbe2e2b57	-0.1700872
46	0x3f0ecf07	0.5578465
47	0x3d206944	0.03916289
48	0xbe4b7720	-0.19869661
49	0x3e22831c	0.15870327
50	0x3eb1b3b6	0.3470742
51	0x3eb4b7a5	0.3529636
52	0x3f1f2759	0.62169415
53	0xbe9aa708	-0.3020556
54	0x3edaa9d8	0.42707705
55	0x3e7fec76	0.24992546
56	0x3f105a71	0.56388
57	0x3d014aa1	0.031565312
58	0x3e2d1852	0.16903809
59	0x3ef8c951	0.48591092
60	0x3e0b1396	0.1358169
61	0x3f12710d	0.5720375
62	0x3ed01835	0.40643468
63	0x3f88cb5b	1.0687059
64	0xbd33aa71	-0.043863717
65	0x3d4caee1	0.049971465
66	0x3f0ddf34	0.55418706
67	0xbe286088	-0.16443074
68	0x3f19ca7f	0.6007461
69	0x3e7ee0b0	0.24890399
70	0x3f148fe7	0.5803208
71	0xbdec082c	-0.11524996
72	0x3eb38ca9	0.35068253
73	0x3f056151	0.5210162
74	0x3f225042	0.63403714
75	0xbec8c3b3	-0.39211807
76	0x3f0e9214	0.5569165
77	0xbdaff055	-0.085907616
78	0x3ec28f80	0.38000107
79	0x3efb6b64	0.4910537
80	0x3dcc14ac	0.0996488
81	0xbe1c045c	-0.15236038
82	0x3c93ccec	0.01804205
83	0xbda47119	-0.08029384
84	0xbe78f33c	-0.24311537
85	0x3e8cbf5f	0.27489755
86	0x3e04b88f	0.12961029
87	0x3c816864	0.015796848
88	0xbd46f2d8	-0.048571438
89	0x3e84b263	0.25917348
90	0xbd10fde7	-0.03539839
91	0xbe4240c8	-0.18970025
92	0x3e36daf2	0.17856959
93	0x3e33bb0d	0.17551823
94	0x3dc03061	0.093842275
95	0xbea78c34	-0.32724154
96	0xbc6c1cb6	-0.014411142
97	0xbda16b3e	-0.07881783
98	0x3c100c28	0.008791961
99	0x3df160d2	0.11786045
100	0x3d1d07ff	0.038337704
101	0x3e0c7e9b	0.13720171
102	0x3d8631ea	0.06552489
103	0x3e5b118d	0.21393414
104	0x3e14c4c9	0.14528193
105	0x3e85480d	0.26031533
106	0xbe1c07ab	-0.152373
107	0xbe77a6e3	-0.24184756
108	0x3df7c116	0.12097375
109	0xbdcb27ee	-0.09919725
110	0x3d1538d8	0.036431164
111	0xbda59fdf	-0.080871336
112	0x3ea32724	0.318658
113	0xbe7a0e3d	-0.24419494
114	0x3d0b3010	0.033981383
115	0xbea46641	-0.32109264
116	0x3d2b946a	0.041889586
117	0xbd91f17f	-0.0712614
118	0x3e00633a	0.12537852
119	0x3cd23c6b	0.025663575
120	0xbc030c73	-0.007998574
121	0xbee6d904	-0.45087445
122	0xbd99e923	-0.075151704
123	0x3eda5ba5	0.42648044
124	0xbe93139a	-0.28725892
125	0x3dd739ee	0.10509096
126	0xbe34a8c0	-0.17642498
127	0xbee1fef4	-0.44139826
128	0xbf0f61f4	-0.5600884
129	0x3cfc124d	0.030770445
130	0xbecdca31	-0.40193322
131	0xbe970d09	-0.29502133
132	0xbecc5adf	-0.3991308
133	0xbf2a5059	-0.6652885
134	0xbf44a063	-0.7680723
135	0xbf2dbc9a	-0.6786591
136	0xbedc1803	-0.4298707
137	0xbea205a4	-0.31644928
138	0xbe728938	-0.23685157
139	0xbd85096f	-0.0649594
140	0x3b636551	0.003469784
141	0x3c41ba27	0.011824167
142	0xbf0ce498	-0.55036306
143	0xbe294960	-0.16531897
144	0xbee429ff	-0.4456329
145	0x3e560b42	0.20902732
146	0x3ed61df5	0.4181973
147	0xbeefeb03	-0.46858987
148	0x3dddf7e9	0.10838301
149	0x3d789b3c	0.060694918
150	0xbd8acdb1	-0.06777514
151	0xbecaec2f	-0.3963332
152	0xbaddb394	-0.001691448
153	0xbd32e2a5	-0.043673176
154	0x3c5b03a6	0.013367569
155	0xbd4d3ab0	-0.050104797
156	0xbecc23ec	-0.39871156
157	0x3f0fbda4	0.56148744
158	0xbe3b5351	-0.18293501
159	0x3d950c94	0.0727779

bias_hh_l0 f4 [160]
0	0xbe73273c	-0.23745435
1	0xbeb06e0f	-0.34458968
2	0xbe3f2502	-0.18666461
3	0x3c1e91c4	0.009678308
4	0xbeedcc9e	-0.46445173
5	0xbe4f477c	-0.20242113
6	0xbeeea7b8	-0.46612334
7	0xbe2ece64	-0.1707092
8	0xbeadb801	-0.33929446
9	0x3c50ea4e	0.012751175
10	0xbf1273ec	-0.5720813
11	0xbf296f57	-0.66185516
12	0xbe95173d	-0.29119292
13	0xbf1f894b	-0.6231887
14	0xbea36ac7	-0.31917402
15	0xbf31dc26	-0.69476545
16	0xbe5d3800	-0.21603394
17	0xbed85800	-0.4225464
18	0xbe9df48c	-0.30850637
19	0xbe8339db	-0.25630078
20	0xbdc06228	-0.09393722
21	0xbe95600e	-0.29174846
22	0xbeb37159	-0.35047415
23	0x3e5aa9cc	0.21353835
24	0xbf136032	-0.5756866
25	0x3e9ca6c4	0.30595982
26	0x3d38fe5e	0.04516446
27	0xbe6d6918	-0.23184621
28	0xbd6dec27	-0.05808654
29	0xbe81a5ff	-0.25321957
30	0x3d6e284c	0.0581439
31	0xbf1a6ecf	-0.6032533
32	0xbe8dceac	-0.2769674
33	0xbf0fc933	-0.5616638
34	0xbe40fc25	-0.18846186
35	0xbec5fc32	-0.38668972
36	0xbf21fa6f	-0.63272756
37	0x3e6b7f97	0.2299789
38	0xbe6e04b7	-0.23243986
39	0xbf2a6bab	-0.6657054
40	0x3ef68e47	0.48155424
41	0x3f27450e	0.65339744
42	0x3dcd7af4	0.10033217
43	0x3e457f92	0.19286945
44	0x3d97acee	0.074060306
45	0x3c55c634	0.013047744
46	0x3f31d710	0.69468784
47	0xbe0d1a34	-0.13779527
48	0xbdab9d5b	-0.083796225
49	0x3e78a56c	0.24281853
50	0x3e9bb03f	0.30407903
51	0x3e8cf1ad	0.27528134
52	0x3f03d3e0	0.5149517
53	0xbce98a5d	-0.02850836
54	0x3ea218f1	0.31659654
55	0x3e1b3ace	0.15159151
56	0x3f14b375	0.5808633
57	0x3df49e09	0.11944205
58	0x3e0f6207	0.14002238
59	0x3ef7e084	0.4841348
60	0x3db29054	0.08718935
61	0x3ef208f7	0.47272465
62	0x3e866a2a	0.26252872
63	0x3f8111d8	1.008357
64	0xbe4a0de9	-0.19731869
65	0x3dcc31a7	0.09970408
66	0x3f1cb095	0.6120694
67	0xbdd24faa	-0.10269101
68	0x3f27da9e	0.6556796
69	0x3ed844fa	0.42240125
70	0x3f06d60a	0.5267035
71	0xbe13f692	-0.14449528
72	0x3e97fce3	0.29685125
73	0x3eb368e8	0.35040975
74	0x3f20686d	0.6265934
75	0xbeee3e68	-0.46531987
76	0x3f03198a	0.51210845
77	0xbc177bd7	-0.009245834
78	0x3ef8da68	0.4860413
79	0x3eac2bc6	0.33627146
80	0x3c33d16f	0.010975226
81	0xbe85f235	-0.26161352
82	0x3e1d7dbf	0.1538
83	0xbd9ebca7	-0.07750826
84	0xbe411401	-0.18855287
85	0x3ddf2e61	0.10897518
86	0x3da2d0d9	0.07949991
87	0x3d163d47	0.036679532
88	0xbe4a6589	-0.19765295
89	0x3e481927	0.19540845
90	0x3e02eb4f	0.12785076
91	0xbdb0a854	-0.08625856
92	0x3da9e045	0.08294729
93	0x3ebefdeb	0.373031
94	0x3df3b008	0.1189881
95	0xbdef746e	-0.11692129
96	0xbe04fc46	-0.1298686
97	0x3e18f4b7	0.14937101
98	0x3d385de7	0.045011427
99	0x3ec0a2d6	0.37624234
100	0xbd95b8ce	-0.07310639
101	0x3c757cac	0.014983337
102	0xbccae746	-0.024768483
103	0x3e67377a	0.22579756
104	0x3d03e408	0.03219989
105	0x3e8315fb	0.25602707
106	0x3d6c9ca3	0.057766568
107	0xbef030ce	-0.46912235
108	0x3e86fcc2	0.26364714
109	0x3c0d2b29	0.008616247
110	0x3d520c1a	0.051281072
111	0xbe93a794	-0.2883879
112	0x3e635f4c	0.22204322
113	0xbe696517	-0.22792469
114	0xbe231c44	-0.15928751
115	0xbe9bed1d	-0.3045434
116	0x3d8bd696	0.068280384
117	0x3d068bdd	0.032848228
118	0x3e542c42	0.20720008
119	0x3d0618c1	0.03273845
120	0x3d2c469f	0.042059537
121	0xbeb4ca82	-0.3531075
122	0x3dcf80e8	0.10132009
123	0x3f0c9bbb	0.54925126
124	0xbe8a4506	-0.27005786
125	0xbddaa479	-0.10675902
126	0xbe132dec	-0.14372987
127	0xbee8a52d	-0.4543852
128	0xbf315aef	-0.6927938
129	0x3d8465f6	0.0646476
130	0xbf2fcc3a	-0.68671
131	0xbe832269	-0.2561219
132	0xbea9372f	-0.33049914
133	0xbf254e97	-0.64573044
134	0xbf06bbef	-0.52630514
135	0xbf28eef0	-0.6598959
136	0xbeb0bbd5	-0.34518304
137	0xbebf96f1	-0.37419847
138	0xbe388eb5	-0.18023188
139	0xbce866bd	-0.028369302
140	0x3cff6945	0.031178126
141	0x3d5b938a	0.0536075
142	0xbedcef7a	-0.43151456
143	0xbe1b8f7c	-0.15191454
144	0xbef2897a	-0.4737051
145	0x3e984698	0.2974136
146	0x3ec3418e	0.38135952
147	0xbf273611	-0.65316874
148	0x3da4c51e	0.080454096
149	0x3e970351	0.29494718
150	0x3d13bc8d	0.036068488
151	0xbefd5bc2	-0.49484068
152	0xbd1d3e9b	-0.038389783
153	0xbe5c78fa	-0.21530524
154	0xbca8a8e1	-0.02058834
155	0x3d7a858d	0.06116252
156	0xbe92b475	-0.28653303
157	0x3ecac1e0	0.3960104
158	0xbe8b28e4	-0.27179635
159	0x3d25bec7	0.040465143

weight_ih_l0_reverse f4 [160, 3]
0	0xbe55852d	-0.20851584
1	0x3e4423b9	0.19154252
2	0xbea19b2d	-0.31563702
3	0xbfbf46e6	-1.4943511
4	0x3f125f05	0.5717624
5	0x3e2ab92d	0.16672201
6	0xbf25a204	-0.6470034
7	0xbe3fc2a3	-0.18726592
8	0x3f03c32e	0.51469696
9	0x3b846709	0.004040603
10	0x3f4e05a9	0.80477387
11	0x3e9bb9cb	0.30415186
12	0x3f769cf7	0.9633326
13	0x3e2ceddc	0.16887611
14	0xbec2931c	-0.3800286
15	0xbe589099	-0.2114891
16	0x3d9df2ed	0.0771235
17	0xbf0b6415	-0.5444959
18	0x3dfa407e	0.12219332
19	0xbe1439bb	-0.14475147
20	0xbe667f2a	-0.22509447
21	0x3d13e884	0.036110416
22	0x3e63ea1c	0.22257274
23	0x3e8166c8	0.25273728
24	0xbe67481e	-0.22586104
25	0xbeafdced	-0.3434824
26	0xbe751cb9	-0.23936738
27	0xbf4561b7	-0.77102226
28	0x3ad92995	0.0016568179
29	0x3f46f8b4	0.7772324
30	0xbe772dfd	-0.24138637
31	0xbe904be3	-0.28182897
32	0xbef61b3a	-0.48067647
33	0xbee010cd	-0.43762818
34	0xbdf03e86	-0.117306754
35	0x3e48f9dd	0.19626565
36	0xbdbb98f6	-0.09160034
37	0x3d798dd5	0.060926277
38	0x3d452d02	0.048138626
39	0xbef7beb9	-0.48387697
40	0xbecb4ea1	-0.39708427
41	0xbd0c34ea	-0.03423015
42	0xbee741a0	-0.45167255
43	0x3f341490	0.70343876
44	0x3f3fbb68	0.74895334
45	0xbf81045a	-1.0079453
46	0x3fb7e1db	1.4365801
47	0x3f64d00d	0.8937996
48	0x3d0b0790	0.03394276
49	0xbeea6eb2	-0.4578758
50	0xbe53f572	-0.20699099
51	0x3e6c7a14	0.23093444
52	0x3e81c764	0.25347435
53	0xbf16d961	-0.58925444
54	0xbe52f6e5	-0.20601995
55	0xbe96eb4c	-0.29476392
56	0xbe7ef646	-0.24898633
57	0xbe59612b	-0.21228473
58	0xbf281532	-0.6565734
59	0xbf0437e6	-0.51647794
60	0xbe1261c9	-0.14295115
61	0xbf05f212	-0.52322495
62	0xbf0a2e84	-0.5397723
63	0x3e01cf29	0.12676682
64	0x3dc53c25	0.09630612
65	0x3e36650d	0.17811985
66	0x3d620a53	0.055185627
67	0xbf8e8eff	-1.1137389
68	0xbe9e70fc	-0.30945575
69	0xbdd47b6d	-0.10375104
70	0x3da34ec0	0.07974005
71	0x3ed804a1	0.42191032
72	0x3f17cf9a	0.5930115
73	0xbfa3578b	-1.2761091
74	0x3e93c0bd	0.28857985
75	0x3dff99d9	0.12480516
76	0xbde34374	-0.1109685
77	0x3da624ca	0.08112486
78	0xbf146b70	-0.57976437
79	0xbeb9c677	-0.3628423
80	0xbe7d40cb	-0.24731748
81	0x3ea26f10	0.3172536
82	0xbe862f64	-0.2620803
83	0x3f4953d6	0.7864355
84	0x3e36eca2	0.17863706
85	0x3f18a835	0.59631664
86	0xbf04dd11	-0.5189982
87	0xbf1228c6	-0.57093465
88	0xbf0de1f5	-0.5542291
89	0xbe5904a3	-0.21193175
90	0xbf6566d2	-0.89610016
91	0xbf1637b9	-0.58678776
92	0xbdb2ce29	-0.08730728
93	0x3f36a457	0.7134451
94	0x3e12e79b	0.14346163
95	0xbf7f1415	-0.9964002
96	0x3fd9f873	1.7028946
97	0xbf0387ba	-0.5137898
98	0xbe34d498	-0.17659223
99	0xbf503872	-0.8133613
100	0xbe6255c1	-0.22103025
101	0x3cf71fcf	0.030166535
102	0xbf370f6c	-0.71507907
103	0xbd5c23a8	-0.053744942
104	0x3d6030eb	0.05473415
105	0xbe165823	-0.14682059
106	0xbe2e4fd3	-0.17022638
107	0x3e1a120d	0.15045948
108	0x3e527816	0.20553622
109	0x3ea1fd57	0.31638595
110	0xbe49fbae	-0.19724914
111	0x3b4a40f5	0.0030861471
112	0xbeaf141a	-0.34195024
113	0xbd5aeab7	-0.053446498
114	0x3ea605ff	0.3242645
115	0xbe978ea7	-0.29601023
116	0xbf14d556	-0.58138025
117	0x3f13e76f	0.57775015
118	0x3ea7acc1	0.32748988
119	0x3f199e97	0.60007614
120	0xbf7f1f50	-0.99657154
121	0x3f85293a	1.0403206
122	0x3e77e6c8	0.2420913
123	0xbf52b1a3	-0.823023
124	0x3ef0d093	0.4703413
125	0x3ef204f1	0.47269395
126	0xbeedc0b0	-0.4643607
127	0x3e7a294e	0.24429819
128	0x3ef0cba3	0.47030362
129	0xbef1336b	-0.4710954
130	0xbf09af43	-0.53783053
131	0x3f2a41b4	0.66506505
132	0xbda68bab	-0.08132108
133	0x3f756e99	0.95871884
134	0x3db6b35a	0.08920927
135	0xbf8ef96f	-1.1169871
136	0x3f1bed74	0.609092
137	0xbf15bc84	-0.58490777
138	0x3f60190b	0.8753821
139	0xbf8d691e	-1.1047704
140	0xbf9e5180	-1.2368622
141	0xbf0facc1	-0.56122977
142	0xbef7ae3d	-0.4837512
143	0x3ebe49a6	0.37165564
144	0xbf68d286	-0.90946233
145	0x3f0f2352	0.5591327
146	0x3e6cfc67	0.23143159
147	0xbd7b090e	-0.061287932
148	0xbfc39b50	-1.5281773
149	0xbf2677c4	-0.650265
150	0xbf5116d4	-0.8167546
151	0xbee6f073	-0.45105323
152	0xbf52f152	-0.82399476
153	0xbf5f5327	-0.87236255
154	0x3f94f59d	1.1637455
155	0x3f6f375a	0.93443835
156	0x3f3e7f84	0.74413323
157	0xbe06c297	-0.13160168
158	0x3e8c0c87	0.27353308
159	0xbfac597b	-1.3464807
160	0xbe81d5b0	-0.25358343
161	0x3d5d6200	0.05404854
162	0xbef2beaf	-0.47411105
163	0xbeb37e78	-0.35057425
164	0x3ec147ad	0.37749997
165	0x3fc90285	1.5703894
166	0xbee74136	-0.4516694
167	0xbf278542	-0.6543771
168	0x3e74a65c	0.23891586
169	0xbf216ab3	-0.63053435
170	0xbed5ad0e	-0.41733593
171	0xbf8506b2	-1.0392668
172	0xbe0b37f4	-0.13595563
173	0xbe23e8c6	-0.16006765
174	0xbd317c20	-0.043331265
175	0xbf542af9	-0.8287807
176	0xbf040bca	-0.5158049
177	0xbf267303	-0.65019244
178	0x3f108207	0.56448406
179	0x3d416fe6	0.047225855
180	0xbf7b66a1	-0.98203474
181	0xbed89771	-0.4230304
182	0xbf31c094	-0.69434476
183	0xbe114d78	-0.14189708
184	0xbd0da76d	-0.034583498
185	0xbea81742	-0.32830244
186	0xbf5e2369	-0.8677278
187	0x3e31bafe	0.17356488
188	0x3f2f50af	0.6848249
189	0x3ebf0bbd	0.37313643
190	0xbfa785f9	-1.308776
191	0xbf9c3ab1	-1.2205411
192	0x3de8d7f3	0.11369314
193	0x3d8d3629	0.06895096
194	0x3f9d6e8f	1.2299365
195	0xbf3244da	-0.6963631
196	0x3f787449	0.9705244
197	0x3f594a56	0.8487905
198	0xbf99ed98	-1.2025633
199	0x3cd6bfb6	0.026214462
200	0xbf9b35a4	-1.2125745
201	0x3d93a7b2	0.0720972
202	0xbf640e3e	-0.8908423
203	0xbe12fa59	-0.14353313
204	0x3f4a7a33	0.7909271
205	0xbe449a78	-0.1919955
206	0xbf65d9b5	-0.8978532
207	0x3e84d4d7	0.25943634
208	0x3da8df1c	0.0824568
209	0xbec65315	-0.38735262
210	0xbf97e47e	-1.1866605
211	0xbf252dca	-0.64522994
212	0xbeb786ba	-0.35844976
213	0x3e099b41	0.13438131
214	0xbf135dc6	-0.5756496
215	0xbf837d4d	-1.0272614
216	0xbe5563a9	-0.20838799
217	0x3efc7321	0.49306586
218	0x3e472a49	0.19449724
219	0xbf9e3188	-1.2358866
220	0xbe646a7f	-0.2230625
221	0xbf14845e	-0.58014476
222	0x3d9bb227	0.07602339
223	0xbf4bdea8	-0.7963662
224	0xbf0a3afb	-0.5399625
225	0x3f453b2b	0.7704341
226	0xbfb10927	-1.3830918
227	0xbebec62f	-0.37260577
228	0x3dc55182	0.09634687
229	0x3f556027	0.8334984
230	0x3e08f443	0.13374428
231	0xbf7e5ee5	-0.9936355
232	0x3f231d12	0.6371623
233	0x3f6248eb	0.88392514
234	0xbd7b7ca6	-0.06139817
235	0xbf0bd434	-0.5462067
236	0xbe5541df	-0.20825909
237	0xbe11cd48	-0.14238465
238	0x3fdd9091	1.7309743
239	0x3f104b13	0.56364554
240	0x3cbec582	0.023287538
241	0xbeaa634b	-0.3327888
242	0x3dbbf1f2	0.09177007
243	0x3e9e3f70	0.30907774
244	0x3ed28525	0.41117206
245	0x3f1b3874	0.60633016
246	0xbf0db143	-0.55348605
247	0xbea2b132	-0.31775814
248	0xbd587899	-0.052849386
249	0x3ea25c7e	0.3171119
250	0xbf4af56c	-0.79280734
251	0x3f6e70ff	0.9314117
252	0x3ed06486	0.40701693
253	0x3efb9262	0.4913512
254	0x3f6c64ae	0.92341125
255	0xbf4200c2	-0.75782406

weight_hh_l0_reverse f4 [160, 40]
0	0xbf19fcbf	-0.60151285
1	0x3f123711	0.57115275
2	0x3f236364	0.63823533
3	0x3ee99c3a	0.45627004
4	0xbcdc7115	-0.02690939
5	0x3f092c3f	0.5358314
6	0x3e9026d0	0.28154612
7	0x3f00f252	0.5036975
8	0x3dd18c37	0.10231822
9	0xbf2e664b	-0.68124837
10	0x3f0598d1	0.52186304
11	0xbe41c501	-0.18922807
12	0xbe4351c4	-0.1907416
13	0xbee9891a	-0.45612413
14	0x3f62b439	0.8855625
15	0x3ddeca76	0.1087846
16	0x3fb3041e	1.3985631
17	0xbf156643	-0.58359164
18	0xbcb37624	-0.02190692
19	0xbf6ef03c	-0.9333532
20	0x3e974c8b	0.29550585
21	0x3efc66fd	0.49297324
22	0xbef85c3f	-0.48507878
23	0xbe28d863	-0.16488795
24	0xbe801744	-0.2501775
25	0xbee9ee8d	-0.45689812
26	0xbb9b8a5c	-0.0047467183
27	0xbd721b58	-0.05910811
28	0xbe3fa4e3	-0.18715243
29	0xbf499716	-0.78746164
30	0x3de8acd8	0.11361092
31	0x3e8bf518	0.2733543
32	0x3e03bc85	0.12864883
33	0x3ed161f6	0.4089505
34	0xbd3f29e0	-0.046670794
35	0xbdfe3308	-0.12412077
36	0xbeec288b	-0.46124682
37	0xbe04586d	-0.12924357
38	0x3e90ee02	0.28306586
39	0xbdc223f0	-0.09479511
40	0xbe9f5896	-0.31122273
41	0x3f2ec166	0.6826385
42	0xbf1bbe84	-0.6083758
43	0xbe8b18ca	-0.2716735
44	0xbe90b813	-0.28265437
45	0xbefd568e	-0.49480098
46	0xbf289f12	-0.6586772
47	0x3eb8e661	0.36113265
48	0xbe9af17f	-0.30262372
49	0x3edff3b7	0.43740627
50	0x3dbed880	0.09318638
51	0xbe9c622c	-0.3054365
52	0xbf0dcfaf	-0.55395025
53	0x3e9a661e	0.30156034
54	0xbefa3a98	-0.48872828
55	0x3edc0e28	0.4297955
56	0xbe19c9ee	-0.15018436
57	0x3dc8f560	0.098124266
58	0xbdd0a865	-0.10188369
59	0x3e233c72	0.15941027
60	0xbfabaf79	-1.3412925
61	0xbece74d3	-0.40323505
62	0x3e58c3c1	0.21168424
63	0xbf09cb99	-0.5382629
64	0xbeb3fbe4	-0.35153115
65	0xbeb3400b	-0.35009798
66	0x3dfa7b8b	0.12230595
67	0xbde8a298	-0.11359137
68	0x3c6f6558	0.014611565
69	0x3f1868a4	0.5953467
70	0x3e7a2b2a	0.24430528
71	0xbf1bef0e	-0.60911644
72	0x3e578a47	0.21048842
73	0xbf0252e7	-0.5090775
74	0xbe9e93de	-0.3097219
75	0x3efd00e8	0.49414754
76	0x3e5401c8	0.20703804
77	0xbe1d3cde	-0.1535525
78	0x3d52c616	0.05145844
79	0x3ef592b7	0.47963497
80	0x3d2ae787	0.041724708
81	0xbe7155a5	-0.23567827
82	0xbd403a2d	-0.04693048
83	0xbe87c6d1	-0.26518872
84	0x3f510c5f	0.816595
85	0xbf2aef2c	-0.667712
86	0xbdc4e2e6	-0.0961359
87	0x3db3bc54	0.08776155
88	0xbc80dfd3	-0.015731728
89	0xbe90d158	-0.28284717
90	0x3e0be472	0.13661364
91	0xbeeb3910	-0.45941973
92	0x3ea9758d	0.33097497
93	0xbd0d5c52	-0.03451187
94	0xbe92a9d3	-0.2864519
95	0x3e6db1fa	0.23212424
96	0x3d54c8fc	0.051949486
97	0xbec6ce26	-0.38829154
98	0xbf9436c3	-1.1579212
99	0x3f0c680a	0.5484625
100	0xbda85cb3	-0.08220806
101	0xbf2b6821	-0.66955763
102	0xbeb5d4b9	-0.35513857
103	0x3eb29738	0.34880996
104	0x3f877548	1.0582666
105	0x3e037faa	0.12841669
106	0xbe8ea9dd	-0.2786397
107	0x3cca7d2c	0.02471789
108	0xbd17c643	-0.03705431
109	0xbe76d5c5	-0.24104984
110	0xbe710f8b	-0.23541085
111	0x3e926ca7	0.2859852
112	0x3eaddde9	0.33958367
113	0x3d0027d9	0.031288
114	0xbee59034	-0.4483658
115	0xbf119b30	-0.5687742
116	0xbee4944b	-0.4464439
117	0x3f2475a9	0.64242035
118	0x3e6809d9	0.22660007
119	0xbf298405	-0.6621707
120	0xbeeb02a0	-0.4590044
121	0x3f2a83fe	0.66607654
122	0x3e657a30	0.22409892
123	0x3e3465b8	0.17616928
124	0x3f722772	0.9459144
125	0xbf51e971	-0.8199683
126	0xbbf6451a	-0.0075155618
127	0xbe49bea6	-0.19701633
128	0xbf51c3d2	-0.81939423
129	0x3e57d98a	0.21079078
130	0xbe1a1457	-0.15046822
131	0xbf538c60	-0.8263607
132	0x3e44bd62	0.19212869
133	0x3e64d824	0.22348076
134	0xbeda88c0	-0.42682457
135	0x3e7baf1b	0.24578516
136	0xbf02c165	-0.51076347
137	0xbea32577	-0.3186452
138	0xbda0a7a6	-0.078444764
139	0x3f093716	0.5359968
140	0xbe9aeb1d	-0.30257502
141	0x3e8d319a	0.27576905
142	0x3ef0c729	0.47026947
143	0xbe806dd3	-0.2508379
144	0xbf1a12d9	-0.6018501
145	0xbf1352c6	-0.5754818
146	0xbe1e2197	-0.15442501
147	0xbf40119b	-0.75026864
148	0x3f318d32	0.6935607
149	0xbd64083b	-0.05567191
150	0xbdfdd143	-0.12393429
151	0xbf56513f	-0.8371772
152	0x3efdb504	0.49552166
153	0xbe9496b3	-0.29021224
154	0x3e65bbc6	0.22434911
155	0x3f4a751d	0.7908495
156	0x3eae85d6	0.34086484
157	0x3ecc7a99	0.39937285
158	0x3e80e7dd	0.25176898
159	0xbef94513	-0.48685512
160	0x3e838afa	0.25691968
161	0xbd4b986a	-0.0497059
162	0xbebfa47d	-0.37430182
163	0x3d119418	0.035541624
164	0x3eb5f91b	0.35541615
165	0xbedff411	-0.43740895
166	0x3d87bbfe	0.066276535
167	0xbe9ec15e	-0.31006902
168	0xbf32e6b0	-0.6988325
169	0xbd71cb73	-0.059031915
170	0xbf0e4c65	-0.5558532
171	0xbea410f8	-0.32044196
172	0x3e1f8f8e	0.15582106
173	0xbd1464a3	-0.036228787
174	0x3ee15198	0.44007564
175	0xbe5e52ba	-0.21711245
176	0xbea320a5	-0.31860843
177	0xbe2fc028	-0.17163146
178	0xbf0bbb51	-0.545827
179	0x3f1230b6	0.57105577
180	0xbf25fc79	-0.6483837
181	0xbf40d71b	-0.75328225
182	0x3eb5c8f3	0.35504875
183	0xbf5ce18d	-0.86281663
184	0xbee7320b	-0.45155367
185	0x3f0c1668	0.5472169
186	0x3d3ba7ec	0.04581444
187	0x3e60b871	0.21945359
188	0xbeff693c	-0.49884975
189	0x3f40940c	0.752259
190	0x3e1435e4	0.14473683
191	0x3f953b2f	1.1658686
192	0x3f846b2c	1.0345206
193	0x3cd94527	0.026522232
194	0xbfa0b027	-1.2553757
195	0x3e8de891	0.27716497
196	0xbd92c7ff	-0.071670525
197	0x3f8b062f	1.0861262
198	0x3cc9fec0	0.024657607
199	0xbf39107c	-0.7229078
200	0xbd99a823	-0.07502773
201	0x3e812a1a	0.25227433
202	0x3ddaabf7	0.10677331
203	0x3f1e8dff	0.6193542
204	0x3eeebe8b	0.46629748
205	0x3ebf3f93	0.3735319
206	0x3e4dfecf	0.20116733
207	0xbebb970a	-0.3663867
208	0xbe403a03	-0.1877213
209	0xbea2dbce	-0.31808323
210	0xbd086831	-0.03330249
211	0xbe83d60f	-0.2574925
212	0xbe179669	-0.1480347
213	0x3e1c6527	0.15272962
214	0xbf8eb8cb	-1.1150144
215	0x3e8da6c5	0.27666298
216	0x3e37752e	0.17915794
217	0x3f1b28a9	0.6060892
218	0x3f17660b	0.5914008
219	0xbec4bb7c	-0.3842429
220	0x3d3f2edb	0.046675544
221	0x3f617a63	0.8807737
222	0xbf2bdc87	-0.67133373
223	0xbe51a12a	-0.20471635
224	0x3d335c61	0.04378927
225	0x3d04dedb	0.032439094
226	0x3efa8322	0.4892817
227	0x3d8575d0	0.065166116
228	0xbf902c51	-1.1263524
229	0x3e8049fe	0.25056452
230	0x3e701cd5	0.23448499
231	0xbda923b8	-0.08258766
232	0xbdb76deb	-0.08956512
233	0x3dae483d	0.08509872
234	0x3cf5cb7c	0.030004255
235	0xbe644aa6	-0.22294101
236	0xbf37f658	-0.71860266
237	0x3c40f10a	0.011776218
238	0xbf3319eb	-0.6996142
239	0x3d901cd3	0.07036748
240	0x3ed295a4	0.41129792
241	0xbe89a805	-0.26886
242	0x3ed7386a	0.42035228
243	0x3ede7429	0.43447998
244	0x3eb0d23c	0.34535396
245	0xbda3b139	-0.07992787
246	0x3f6e2490	0.9302454
247	0x3e48556f	0.1956384
248	0xbe82fc33	-0.25583038
249	0x3e9c5519	0.30533674
250	0xbe623f28	-0.22094405
251	0xbe8fe305	-0.2810289
252	0x3d2f61ad	0.04281776
253	0xbf00ef5d	-0.5036524
254	0xbda83558	-0.082132995
255	0x3e3f4c95	0.18681557

bias_ih_l0_reverse f4 [160]
0	0xbf3df742	-0.7420541
1	0xbe17ef2b	-0.14837329
2	0xbf37ae13	-0.7174999
3	0x3dcbd41f	0.09952568
4	0xbeff91e4	-0.49915993
5	0xbf077677	-0.5291514
6	0xbf6bdd76	-0.921348
7	0x3f5f56c7	0.87241787
8	0xbdcb29af	-0.0992006
9	0xbcd333bf	-0.02578151
10	0xbe8574ae	-0.26065582
11	0xbe5c47e8	-0.21511805
12	0xbd4b1dfd	-0.049589146
13	0xbf2f39a7	-0.68447345
14	0xbec8d3a9	-0.39223984
15	0xbe3257cb	-0.17416303
16	0xbeb0d20b	-0.3453525
17	0xbefa6593	-0.4890562
18	0xbee65dfa	-0.44993573
19	0xbef81226	-0.48451346
20	0xbf1ce42e	-0.61285675
21	0xbe78a9c4	-0.2428351
22	0xbc5a036b	-0.013306479
23	0xbf205ee0	-0.6264477
24	0xbf1dc735	-0.6163209
25	0xbef4cd05	-0.47812667
26	0xbe4cd868	-0.20004427
27	0xbf32fddf	-0.69918627
28	0xbf3806ba	-0.71885264
29	0xbe84ed42	-0.25962263
30	0xbeb68e8c	-0.3565563
31	0xbe21759c	-0.1576752
32	0xbe82cfa1	-0.25549033
33	0xbeadb414	-0.3392645
34	0xbeee4837	-0.4653947
35	0xbee78e13	-0.45225582
36	0x3eb5e3c0	0.35525322
37	0xbf1f7b73	-0.62297744
38	0x3e7082de	0.23487422
39	0x3e263487	0.16230975
40	0x3daf8c9b	0.0857174
41	0xbedde04e	-0.43335193
42	0x3c1b1239	0.009464794
43	0x3cf064a6	0.029344868
44	0x3e726c77	0.23674189
45	0x3e202168	0.15637743
46	0x3d920eab	0.07131704
47	0x3e0433a4	0.12910324
48	0xbe2bde98	-0.16784132
49	0x3d82b059	0.06381292
50	0x3e377966	0.17917404
51	0xbe8176f5	-0.2528607
52	0x3f215893	0.6302578
53	0xbe286a9b	-0.16446917
54	0xbec9f106	-0.394417
55	0x3e2ce366	0.1688362
56	0x3dadabe1	0.08480049
57	0xbe9c076c	-0.30474412
58	0x3ce66fa5	0.028129408
59	0x3e52ae96	0.20574412
60	0x3d468869	0.048469935
61	0xbe436574	-0.1908167
62	0xbe16676f	-0.14687894
63	0x3d527bd0	0.051387608
64	0x3e94789a	0.28998262
65	0x3dba05ea	0.09083159
66	0x3e3c6290	0.18396974
67	0xbee04630	-0.4380355
68	0xbe9bb1af	-0.30409
69	0x3f829573	1.0201858
70	0x3d9de90f	0.07710468
71	0xbe5a18d7	-0.21298538
72	0x3ec379cd	0.38178864
73	0xbec035e1	-0.37541106
74	0x3ddc1139	0.107454725
75	0x3eab59e8	0.3346703
76	0x3ef676aa	0.48137408
77	0x3da328a9	0.0796674
78	0x3ec576b9	0.3856714
79	0xbddef020	-0.10885644
80	0x3e84ab47	0.25911924
81	0xbe33a860	-0.17544699
82	0xbec8e771	-0.39239076
83	0x3d5cdeb8	0.05392334
84	0xbf00c271	-0.50296694
85	0xbe99d51c	-0.30045402
86	0xbea90a82	-0.3301583
87	0x3e00398c	0.12521952
88	0xbde7d94e	-0.113207445
89	0x3d20e503	0.039280903
90	0xbeb45e49	-0.35228184
91	0x3e75093b	0.23929302
92	0xbdcdc19b	-0.10046693
93	0x3ed2aff2	0.4114986
94	0xbe717395	-0.23579247
95	0x3e19ae6b	0.15007941
96	0xbdf05d68	-0.11736566
97	0xbd985bc2	-0.074393764
98	0x3e1f08d4	0.15530711
99	0x3e9bb4d0	0.30411386
100	0xbe569151	-0.20953871
101	0x3cb546d4	0.0221285
102	0x3e9404c7	0.28909895
103	0x3cecb926	0.02889688
104	0xbe097f52	-0.13427475
105	0x3ec9b3f7	0.39395115
106	0x3de07544	0.10959867
107	0x3e3edc2e	0.1863868
108	0x3e5def26	0.21673259
109	0x3db0123d	0.08597229
110	0xbd5ea004	-0.05435182
111	0xbd4a5bd0	-0.049403965
112	0xbdd6e204	-0.10492328
113	0xbed59fa7	-0.41723368
114	0x3ec445ae	0.3833441
115	0x3e17538e	0.14777967
116	0x3e981395	0.2970244
117	0xbe2ce60d	-0.16884632
118	0xbe99a836	-0.30011147
119	0x3db967b6	0.090529844
120	0xbf3b40a3	-0.731455
121	0xbdd6c285	-0.104863204
122	0xbee117a2	-0.43963343
123	0x3e1a564a	0.15071979
124	0xbe24f01e	-0.16107222
125	0xbede848c	-0.434605
126	0xbefaf2c7	-0.4901335
127	0x3f02f8e1	0.5116101
128	0x3d5b325b	0.05351482
129	0x3e714530	0.23561549
130	0xbef36c19	-0.4754341
131	0xbea7d373	-0.3277851
132	0x3e63bab6	0.22239193
133	0xbed70cac	-0.42001855
134	0xbef21fcc	-0.47289884
135	0x3eca64aa	0.39529926
136	0xbe66df15	-0.22546037
137	0xbe445f63	-0.19177012
138	0xbe4c041a	-0.1992344
139	0xbeef2215	-0.4670569
140	0xbf096a03	-0.53677386
141	0xbe3ada13	-0.18247251
142	0xbd3342da	-0.043764926
143	0xbe17bb86	-0.14817628
144	0xbcc4ba63	-0.024014657
145	0xbf5e6bfc	-0.8688352
146	0xbeaf1306	-0.341942
147	0xbeb61746	-0.3556463
148	0xbeac3d85	-0.33640686
149	0xbc122db8	-0.008922033
150	0xbf089f74	-0.53368306
151	0xbb6c0252	-0.0036012125
152	0x3d568dca	0.052381314
153	0xbeebf691	-0.46086553
154	0xbed6c103	-0.4194413
155	0xbf224ead	-0.634013
156	0x3d931aa3	0.07182815
157	0xbe77f272	-0.2421358
158	0x3ea5dba3	0.32394132
159	0xbd925d81	-0.07146741

bias_hh_l0_reverse f4 [160]
0	0xbf451539	-0.7698551
1	0xbd138143	-0.036011945
2	0xbf4d03cd	-0.80083925
3	0x3e86789e	0.262639
4	0xbea7d770	-0.32781553
5	0xbf48808b	-0.7832114
6	0xbf7fbda2	-0.9989873
7	0x3f8462ad	1.0342613
8	0x3d62a952	0.055337258
9	0xbe4d2fb4	-0.20037729
10	0xbe8624e4	-0.2620002
11	0xbed23836	-0.4105851
12	0x3e3f6568	0.18691027
13	0xbf1da0a8	-0.61573267
14	0xbef4698e	-0.47736782
15	0xbea29c9a	-0.31760103
16	0xbeb448c7	-0.35211775
17	0xbf0fd940	-0.5619087
18	0xbf01e7da	-0.507444
19	0xbe6a61ff	-0.22888945
20	0xbec3740c	-0.38174474
21	0xbebdc189	-0.37061718
22	0xbd61a81d	-0.055091966
23	0xbf2c6ae0	-0.6735058
24	0xbef84312	-0.4848867
25	0xbf19457d	-0.59871656
26	0xbedcdff6	-0.4313962
27	0xbf1ff64e	-0.62485206
28	0xbf11cd5e	-0.5695399
29	0xbe70b423	-0.23506217
30	0xbd862899	-0.06550712
31	0x3c277399	0.010220432
32	0xbed5b915	-0.4174277
33	0xbece2799	-0.40264586
34	0xbe8b536a	-0.27212077
35	0xbf178fa9	-0.59203583
36	0x3e869d89	0.26292065
37	0xbf233f42	-0.637684
38	0x3eb11f6a	0.3459428
39	0x3e98ddfa	0.29856855
40	0x3e8e295c	0.2776593
41	0xbe757c3d	-0.23973174
42	0x3e22e7c5	0.15908726
43	0xbe1d9650	-0.15389371
44	0x3e8cf7fc	0.27532947
45	0x3e502403	0.20326237
46	0x3d658373	0.056033563
47	0x3d1a3d12	0.037655897
48	0x3c19f678	0.009397142
49	0x3dfd737c	0.123755425
50	0xbd92252a	-0.07135995
51	0xbd157f57	-0.036498394
52	0x3f3a9008	0.72876024
53	0x3ccb7b4f	0.024839072
54	0xbee38668	-0.4443848
55	0x3e43be64	0.19115597
56	0xbd47b727	-0.048758652
57	0xbe8191a2	-0.25306422
58	0x3bd6db20	0.0065568835
59	0xbbc76efd	-0.006086229
60	0x3c9a72c1	0.018853547
61	0xbdabe5be	-0.08393429
62	0xbe9c199a	-0.30488282
63	0x3dfe34eb	0.12412437
64	0x3e4cd5fa	0.200035
65	0xbcec08d8	-0.02881281
66	0x3e277191	0.16351916
67	0xbebbb3b4	-0.3666054
68	0xbe8ce487	-0.27518103
69	0x3f7fa438	0.9985995
70	0x3e8fe86a	0.28107005
71	0xbeaa5b7b	-0.3327292
72	0x3e19c921	0.15018131
73	0xbebdbce0	-0.37058163
74	0x3e1b0962	0.15140298
75	0x3e278349	0.16358675
76	0x3ef57f24	0.47948563
77	0x3e4a89ef	0.1977918
78	0x3eb418ce	0.35175174
79	0x3db00ec7	0.085965686
80	0x3e3b8406	0.18312082
81	0xbd66d443	-0.056354772
82	0xbe8d47f0	-0.27593946
83	0xbd3ded5c	-0.04636894
84	0xbeb2e30c	-0.34938848
85	0xbd566d3d	-0.05235027
86	0xbe87f030	-0.26550436
87	0x3e86c1fa	0.26319867
88	0x3d0d2eef	0.034468587
89	0xba286f89	-0.00064253114
90	0xbe1eac86	-0.154955
91	0x3ea5ad01	0.32358554
92	0xbe82a61f	-0.25517365
93	0x3e8f6d04	0.2801286
94	0xbc72c1a2	-0.0148166735
95	0x3e995156	0.29944867
96	0xbe153621	-0.1457143
97	0x3dde3c24	0.10851315
98	0x3d86ebf7	0.065879755
99	0x3e593000	0.21209717
100	0x3d8374c8	0.06418759
101	0x3d267f10	0.04064852
102	0x3e8fba5d	0.2807187
103	0xbc6e2f39	-0.014537626
104	0xbdd987d3	-0.106216095
105	0x3e8823d4	0.26589835
106	0x3b35aa21	0.0027719813
107	0x3e67f927	0.22653638
108	0x3e8a459e	0.2700624
109	0x3e3ebb88	0.18626225
110	0x3de8309d	0.11337397
111	0xbde7bfca	-0.11315878
112	0xbdcc99cd	-0.09990273
113	0xbe81ec6c	-0.25375688
114	0x3e786099	0.24255599
115	0x3e7fd4ca	0.24983516
116	0x3ec12937	0.37726757
117	0xbede9c76	-0.43478745
118	0xbea7ac9b	-0.32748875
119	0x3e807872	0.25091892
120	0xbf170958	-0.5899863
121	0xbe30a686	-0.17251024
122	0xbefc81b3	-0.49317703
123	0xbcbab59d	-0.022791678
124	0xbdc1633f	-0.09442758
125	0xbec542de	-0.38527578
126	0xbec6fc95	-0.3886458
127	0x3f32207e	0.6958083
128	0xbdb98ea4	-0.0906041
129	0x3e115609	0.14192976
130	0xbf0601df	-0.52346605
131	0xbe773e3b	-0.24144833
132	0x3e817429	0.25283936
133	0xbebb667e	-0.36601633
134	0xbf120fb7	-0.5705523
135	0x3e4dc1ee	0.2009351
136	0xbe8370a8	-0.25671887
137	0xbdba7af9	-0.091054864
138	0xbe82a4db	-0.255164
139	0xbf1ec8ab	-0.62024945
140	0xbee4405b	-0.4458035
141	0xbe642563	-0.22279887
142	0xbd398f45	-0.045302648
143	0xbd94fb7d	-0.0727453
144	0xbe476edf	-0.19475888
145	0xbf7cc7a5	-0.98742133
146	0xbeaee6e1	-0.34160522
147	0xbea0b99b	-0.31391606
148	0xbefacc5b	-0.48984036
149	0x3b87cc03	0.004144193
150	0xbf243eaa	-0.6415812
151	0x3e2e2b1c	0.17008632
152	0x3d9b7a3a	0.07591672
153	0xbf3a2ffa	-0.72729456
154	0xbeb11f56	-0.3459422
155	0xbf1deb09	-0.6168676
156	0xbd060e73	-0.032728624
157	0xbeadb89e	-0.33929914
158	0x3ed620d9	0.41821936
159	0xbeaa690c	-0.3328327

weight_ih_l1 f4 [160, 80]
0	0xbe393d28	-0.18089736
1	0xbbf658e6	-0.0075179217
2	0xbf056e9f	-0.5212192
3	0x3e1c4f87	0.15264712
4	0x3ec56f9c	0.38561714
5	0xbfa5f026	-1.2963912
6	0x3eabf67f	0.335865
7	0x3cc779a3	0.024349993
8	0xbf4909e5	-0.7853072
9	0xbf5e17d4	-0.8675511
10	0xbe645d8e	-0.22301313
11	0xbf0a116a	-0.5393282
12	0xbd40f2ad	-0.047106434
13	0x3f04b59d	0.5183962
14	0xbf18a070	-0.5961981
15	0x3e911a00	0.2834015
16	0xbe6ff2dc	-0.23432487
17	0x3da04e1d	0.07827399
18	0x3ca7d02d	0.020485008
19	0x3af1ce9b	0.0018448414
20	0xbe320ae5	-0.17386968
21	0x3ea4b598	0.32169795
22	0x3ead126d	0.3380312
23	0x3e2f8f20	0.17144442
24	0x3f606941	0.87660605
25	0x3f423a19	0.758699
26	0xbf380114	-0.71876645
27	0xbe99ba58	-0.30024981
28	0x3f1dac0f	0.61590666
29	0xbf89dec9	-1.0771114
30	0x3e9d6903	0.3074418
31	0xbefc1f59	-0.49242666
32	0x3f413d28	0.7548394
33	0xbf06ed27	-0.52705616
34	0xbe27be28	-0.16381133
35	0x3f94ae1b	1.1615633
36	0x3e6f5093	0.2337058
37	0x39c4f879	0.0003756916
38	0xbcb28bd1	-0.021795185
39	0x3f3b1ad3	0.73087806
40	0xbf913a08	-1.1345835
41	0x3f2691f6	0.6506647
42	0xbc8e92d0	-0.01740399
43	0xbe802862	-0.2503081
44	0xbeee8d3e	-0.46592134
45	0x3e96c8f1	0.2945018
46	0x3f115bee	0.567809
47	0x3db20415	0.08692185
48	0xbda87931	-0.082262404
49	0x3e95188b	0.29120287
50	0x3ef09d84	0.46995175
51	0xbf014e86	-0.5051044
52	0x3f32a44a	0.69781935
53	0xbd0121dc	-0.03152643
54	0x3d000e7e	0.03126382
55	0x3f720f49	0.94554573
56	0x3e1d5a32	0.15366438
57	0x3e390651	0.18068816
58	0xbdb96d8b	-0.09054097
59	0x3f50180a	0.8128668
60	0xbf6ed6af	-0.9329633
61	0x3eb22be8	0.34799123
62	0x3eb4abe7	0.352874
63	0xbed645e9	-0.41850212
64	0xbf68f0d8	-0.909925
65	0xbddd9bcb	-0.10820731
66	0xbe0a517e	-0.1350765
67	0xbd5ed935	-0.054406364
68	0xbf125048	-0.5715375
69	0xbee19bb5	-0.44064108
70	0x3f6e5f09	0.9311376
71	0xbeaa4c4e	-0.3326134
72	0x3f03be42	0.51462185
73	0xbed19670	-0.40935087
74	0x3f18a115	0.5962079
75	0xbef30b60	-0.47469616
76	0x3f3a37bb	0.7274129
77	0x3c7421ed	0.014900667
78	0x3e6df7da	0.23239079
79	0x3ed797e0	0.4210806
80	0xbc098540	-0.008393586
81	0x3cab363a	0.02089988
82	0x3f061e1f	0.5238971
83	0xbd44394a	-0.047906198
84	0x3f82aef3	1.020964
85	0xbf0ad123	-0.5422537
86	0xbc046a07	-0.0080819195
87	0xbeccc131	-0.39991143
88	0x3f79e187	0.9760975
89	0xbf1b7d37	-0.6073794
90	0xbe45580d	-0.1927187
91	0x3e3a7259	0.18207683
92	0x3ea3c2d7	0.31984589
93	0xbf0ba8da	-0.5455452
94	0xbd2bd61d	-0.04195224
95	0x3ecaccc5	0.39609352
96	0x3ea02935	0.31281438
97	0x3f2ddde7	0.6791672
98	0x3b345d51	0.0027521441
99	0x3f13560c	0.5755317
100	0xbe9cbe3d	-0.3061389
101	0x3bfeea20	0.0077793747
102	0xbea261d3	-0.3171526
103	0xbef24a32	-0.47322232
104	0x3f90bce6	1.1307647
105	0x3e93c7d0	0.28863382
106	0xbf360479	-0.71100575
107	0xbe5e520b	-0.21710984
108	0xbeaf81aa	-0.34278613
109	0xbf27b123	-0.65504664
110	0xbe299218	-0.16559637
111	0x3cc6afe0	0.024253786
112	0xbf58385b	-0.8446099
113	0xbeb972e5	-0.3622047
114	0x3ecc5f13	0.39916286
115	0x3dd3f397	0.103491955
116	0xbf518ef3	-0.8185875
117	0xbd8253ed	-0.06363664
118	0x3f04e383	0.51909655
119	0xbef3cf25	-0.47618976
120	0xbf83b9c0	-1.0291061
121	0xbb335320	-0.0027362779
122	0x3f6a953c	0.91633964
123	0x3f991270	1.1958752
124	0xbdbd3e25	-0.09240369
125	0x3ea37ef4	0.31932795
126	0xbeedd48a	-0.46451217
127	0x3e05a91a	0.13052788
128	0xbe687cab	-0.22703807
129	0x3ec14ee2	0.37755495
130	0x3f48c165	0.78420097
131	0xbfba445f	-1.4552115
132	0xbe74a920	-0.23892641
133	0x3d6b08b3	0.057381343
134	0xbf305ed1	-0.6889468
135	0xbf008152	-0.5019733
136	0xbea0f279	-0.31434992
137	0xbf434bcb	-0.76287526
138	0xbd894297	-0.06702154
139	0x3e5d99ba	0.21640673
140	0xbeea823c	-0.45802486
141	0x3ebf8e9d	0.37413493
142	0x3e593839	0.21212853
143	0xbed3538e	-0.41274685
144	0xbdce79b0	-0.10081804
145	0x3e58743e	0.21138093
146	0x3dceeff5	0.10104362
147	0xbf342e37	-0.7038302
148	0xbf0a330a	-0.5398413
149	0x3cc30b81	0.023809196
150	0x3f48b5ff	0.78402704
151	0x3de3f292	0.11130251
152	0x3ee48ad0	0.44637156
153	0x3e649dc9	0.22325815
154	0x3f107cd7	0.5644049
155	0xbba20b12	-0.0049451673
156	0xbf083f38	-0.53221464
157	0x3f4cdffe	0.80029285
158	0xbf3aed76	-0.73018587
159	0x3d07e7b8	0.03317997
160	0xbdd82a28	-0.10554916
161	0x3e60f92a	0.21970049
162	0xbf6fe0d6	-0.9370245
163	0x3e3861f8	0.18006122
164	0x3ee9c467	0.45657656
165	0xbf67cd20	-0.9054737
166	0x3f34bb01	0.70597845
167	0x3e74e7dc	0.23916572
168	0xbf0279d6	-0.50967157
169	0xbf5f33d8	-0.8718848
170	0x3e84ab44	0.25911915
171	0x3e96dacd	0.29463807
172	0xbf66702c	-0.9001491
173	0xbea7d57e	-0.3278007
174	0xbefa321b	-0.48866352
175	0x3e9e7cbb	0.30954537
176	0x3eb0cd40	0.34531593
177	0xbeef833c	-0.4677981
178	0xbe56cf36	-0.20977482
179	0xbf4f67d8	-0.8101783
180	0xbddde09f	-0.10833859
181	0x3c0a6303	0.008446458
182	0x3e3ca4db	0.18422262
183	0x3ec8f4cd	0.39249268
184	0xbe01438f	-0.12623428
185	0x3ee4234a	0.44558173
186	0xbe8d7a2a	-0.27632266
187	0x3e0f82ba	0.14014712
188	0xbed87fec	-0.42285097
189	0xbf0333e1	-0.51251036
190	0x3f23e14b	0.64015645
191	0xbf79b52d	-0.9754208
192	0xbd381e5b	-0.044950824
193	0x3eb6075c	0.3555249
194	0xbe8d022c	-0.2754072
195	0x3ea278f4	0.31732905
196	0xbc4f42d0	-0.012650207
197	0x3ec90bfd	0.3926696
198	0xbef6c19e	-0.48194593
199	0xbe5cef7a	-0.21575728
200	0x3f5991a3	0.8498785
201	0x3ee33525	0.44376484
202	0x3d7e7323	0.06212152
203	0x3e6f7ba4	0.23387009
204	0x3d81416c	0.06311306
205	0x3e526241	0.20545293
206	0x3ebe0792	0.3711515
207	0xbfa51be1	-1.2899133
208	0xbd61e54d	-0.05515032
209	0x3f29bd09	0.6630407
210	0x3ce85c6d	0.028364385
211	0xbe886867	-0.26642153
212	0x3ec8f4f9	0.392494
213	0x3ea01032	0.31262356
214	0x3e20c738	0.15700996
215	0xbe2cd122	-0.16876653
216	0xbe944572	-0.28959233
217	0x3f0177a4	0.5057318
218	0x3ee58d01	0.4483414
219	0x3ec12bf0	0.37728834
220	0xbe8dc8ab	-0.2769216
221	0xbfc20b72	-1.5159743
222	0x3e8d7e9b	0.27635655
223	0xbf0d02c0	-0.5508232
224	0x3e56d7ad	0.20980711
225	0xbd0cf1b6	-0.0344102
226	0x3d802d8f	0.062586896
227	0x3eaa76e4	0.3329383
228	0xbe99aa9f	-0.30012986
229	0xbe4b3875	-0.19845755
230	0xbd381fdd	-0.044952262
231	0xbe661b6c	-0.22471398
232	0x3d12c22e	0.035829715
233	0xbf02e110	-0.5112467
234	0xbf288faa	-0.65844214
235	0xbe35685e	-0.17715594
236	0x3d8427f5	0.06452934
237	0x3e88555d	0.26627627
238	0xbe557482	-0.20845225
239	0x3e3a0a68	0.18168032
240	0x3f694c4e	0.91132057
241	0x3ea6028e	0.32423824
242	0x3ec157fb	0.37762436
243	0xbe7bf516	-0.24605212
244	0xbe6573b7	-0.22407423
245	0xbccf3005	-0.025291452
246	0xbed2f624	-0.41203415
247	0x3f2cee89	0.67551476
248	0xbf48c873	-0.7843086
249	0xbecc4d2d	-0.3990263
250	0xbf42768f	-0.75962156
251	0xbf5cf654	-0.86313367
252	0xbd4696ff	-0.048483845
253	0xbc8378ef	-0.016048877
254	0x3d675d78	0.056485623
255	0x3f0a0b30	0.5392332
