models/encoder.pt (torch_old, 797100 bytes, 4 tensors)

weight_ih_l0 f4 [768, 1]
00000000: cbbe 2bbd 380d 5a3c bbbe 44bd 15da 523d
00000010: ca39 b7bc 0696 123d 7806 6437 7b7b ddbb
00000020: 3aee 81bb 955f 4c3c bbfb fb3c d450 043c
00000030: 1661 8f3c 6a31 60bd ea5d 413d b124 573d
00000040: fc34 563d 0901 453d cbba 3fbd b858 b0bc
00000050: 990c 653d 4e0f 40bd ee87 603d 8ef2 50bd
00000060: 92b6 2cbd 5229 023d 74f9 3cbd 12b1 84bc
00000070: 1355 323d b431 433d c193 6a3d 91b3 6dbc
00000080: 54ec 3ebd 638a 763d 988e 3dbc 0469 e1bc
00000090: 5318 8c3c acf9 3abd 7106 2f3d c9d4 1b3d
000000a0: 5bc1 52bd a45b 4abd d36b e9bb 99dd c93c
000000b0: 2309 69bb b7c2 02bd 560a ddb9 3bfe 77bd
000000c0: a84f 2fbd 624c 23bd 85d4 5a3d 11bc 683d
000000d0: 1d2e 9ebc d6b0 923b 3840 f43c 7289 073c
000000e0: 8424 08bd 6ca1 1b3d 0449 1b3d 084f e0ba
000000f0: 1216 1dbc 6e36 703d ae7b 583d edb0 18bd
00000100: 4d1c 733d 57e0 5f3c af4b 2cbd 7a88 0d3d
00000110: b46d 46bd 8b20 6f3d 8f5e 23bd 5f1f 813c
00000120: c557 ab3c a00a 703c 6832 5c3d 73f6 c7bc
00000130: 7a0a e5bc 4ee0 55bd c443 afba f3bf 00bd
00000140: b558 923b 6601 6ebc cba5 b93c 310a 583d
00000150: 5dee a33c feb5 b4bc a7af ebbc 0081 66bd
00000160: f3f3 5e3d f81f 61bc 4241 2f3c 458b bd39
00000170: a08b 29bd 4f6a 0d3d 99d1 143d 0183 8b3b
00000180: 3263 19bd d811 cebc f822 ddb8 026e 0cbd
00000190: 3536 11bd 0405 39bc e401 8cbc 90c5 5b3c
000001a0: 49e3 8fbc 6cf4 d2bb f37b cebc 3bd2 71bd
000001b0: a1ab 573d 888c 263c c14e 5e3d 3b0f 0bbc
000001c0: c8a9 62bc 13a2 76bd 2475 b2bc c294 2f3d
000001d0: 43d0 74bd 2945 a7bc 8a1c 223d 9ea3 193d
000001e0: 724b ad3c 1c66 2cbc 16bb d8bb c93e 5fbc
000001f0: 72c5 cbbc da3b c63c a07e 9ebc 4283 16bd
00000200: 3b4d 4b3c 7f5e 31bd 7af3 7abc b225 0a3d
00000210: 32e9 b13c 5ed4 523d 7f2d 35bd 6e3d b1ba
00000220: 8b44 a7bc 9f7c 16bd d3bd 15bd 9516 8f3c
00000230: d6aa 993b ff1a 09bd 9e84 3bbd c4a2 4dbd
00000240: 2fec 723d a18c 1fbc 5616 83bc a3bc acbc
00000250: 1bea f4bc 52a5 71bd c8ac 1dbd 3b22 1b3d
00000260: b02e 403c 0a82 c2bc b224 d1bc 6f0b 1c3d
00000270: 3434 373d 28e0 6e3d 6153 853c 3ff0 023d
00000280: 9735 e4bb a231 0ebd 823d 73bd c676 213d
00000290: 7223 35bc c6ce c33c 4e59 953a e19b 67bd
000002a0: 1c6c 03bd 4449 9f3c edb5 6bbc 4231 7ebd
000002b0: 4870 c23c 6bde f339 9c34 b3bc 1a92 be3c
000002c0: ec7e 393c 0639 bdbc ecd3 5e3d 9b2d 063d
000002d0: c7db 1d3c a0d6 64bc c788 60bd 7d4a 3e3d
000002e0: 7414 90bc 9cac 2cbd ae2e 1f3d 2727 a93c
000002f0: 3eb7 5f3c 946f 2bbc 391a a7bc b7f4 153c
00000300: edbc 4d3d 1b59 313c 828f e3bc 2950 763d
00000310: cef1 b4b9 82e9 433d af5c 5b3c 99d4 6c3d
00000320: 0def 1a3d 978e 0abd d37e 3b3d fd34 b93a
00000330: bee1 46bd 02d4 38bc 56e6 6ebd dc74 f9bc
00000340: 0b11 3dbd 447b 273d 0615 3bbc 7c30 50bc
00000350: 01ff 013d 50bd df3c d77d 21bd 7faf c73c
00000360: 00d1 e73c d781 53bd dc60 573d 3362 14bd
00000370: 8b3b d8bc 414a 59bd 7deb 613d 4772 233c
00000380: 8749 563d fd8b ba3b e457 033d 3676 adbc
00000390: 028f 50bd d732 063c b154 f5bb 6cba 06bc
000003a0: 5722 05bd 516d 29ba b7a4 833c d3f4 a93c
000003b0: 6440 46bd 127e ea3c ea6b dc3b 3e80 363d
000003c0: d917 2e3d 8b68 51bd 3440 7c3d 0e4a 7cbd
000003d0: 1617 0b3d 617c a03b a340 013d 769f 02bd
000003e0: 5c0e 123d 4688 fdbc f00d 6abd d94b b13c
000003f0: 7824 143d 4493 823d d979 d8bb 1fff 7a3d
-0.04193 0.013308816 -0.048033457 0.05147751 -0.022366423 0.035787605 1.3591365e-05 -0.006759105
-0.0039651664 0.01247396 0.030759683 0.008075912 0.017502349 -0.054734625 0.047208704 0.052525226
0.052296624 0.04809669 -0.046809 -0.02152668 0.055920217 -0.046889596 0.054817133 -0.05101257
-0.0421663 0.031777687 -0.046136335 -0.016197715 0.043538164 0.047654822 0.057269815 -0.014508144
-0.0466121 0.06019057 -0.0115696415 -0.027515896 0.017101442 -0.045648262 0.042730752 0.038044725
-0.05145393 -0.0494038 -0.0071234494 0.024641799 -0.0035558424 -0.031923976 -0.00042160106 -0.060545187
-0.042800575 -0.039867766 0.05342533 0.05681998 -0.019309098 0.004476647 0.029815778 0.008272516
-0.03323795 0.03799574 0.03791143 -0.0017113397 -0.0095877815 0.05864566 0.052852325 -0.037278105
0.05935316 0.013664327 -0.042064365 0.034553982 -0.048444465 0.058380645 -0.0398851 0.01576203
0.020915875 0.014650971 0.05375901 -0.024409508 -0.027959097 -0.052215867 -0.0013371636 -0.031433057
0.004466141 -0.014526701 0.022662064 0.052744094 0.020011121 -0.022059437 -0.028770281 -0.056275368
0.054431867 -0.013740532 0.010696711 0.00036152653 -0.041392922 0.034525212 0.0363327 0.0042575602
-0.037448116 -0.025154993 -0.000105446146 -0.0342846 -0.035452086 -0.0112927 -0.017090745 0.013413802
-0.017564433 -0.0064378288 -0.025205588 -0.059038382 0.052653912 0.010165341 0.054274324 -0.008487518
-0.013834424 -0.06021316 -0.021784373 0.042866476 -0.059768926 -0.02041872 0.039578 0.037509553
0.02115414 -0.010522392 -0.0066140993 -0.013625809 -0.024874423 0.024198461 -0.019347489 -0.03674627
0.01240855 -0.04330301 -0.015316838 0.033727355 0.021717642 0.05147206 -0.04423284 -0.0013522336
-0.020418426 -0.03673994 -0.036557984 0.017466823 0.0046895547 -0.03347301 -0.04578077 -0.050204054
0.059307273 -0.009738118 -0.016001862 -0.021086043 -0.029896786 -0.058995552 -0.038494855 0.03787444
0.011729881 -0.023743648 -0.025530193 0.03809684 0.04472752 0.05831924 0.01627511 0.031967398
-0.006964396 -0.034715302 -0.05938483 0.03941991 -0.011055814 0.023902308 0.0011394413 -0.056545142
-0.032085523 0.019444115 -0.014386636 -0.062058695 0.02373518 0.00046514286 -0.021875672 0.023263026
0.011321764 -0.02309848 0.054401323 0.032758337 0.0096349185 -0.013967186 -0.05481794 0.046457756
-0.017587878 -0.0421568 0.038862877 0.020648552 0.013654528 -0.010463614 -0.020398246 0.009152583
0.050229 0.010824467 -0.02777839 0.06013504 -0.00034512434 0.047830112 0.013388797 0.057819936
0.037825633 -0.03382739 0.045775246 0.0014130172 -0.04855513 -0.011281015 -0.058325134 -0.03045123
-0.04615883 0.04088904 -0.011418587 -0.012706872 0.03173733 0.02731195 -0.03942665 0.024375675
0.028297901 -0.051637497 0.052582607 -0.036226463 -0.02639558 -0.05304933 0.05515622 0.009975976
0.052316215 0.0056929574 0.03206624 -0.021174531 -0.050917633 0.008190832 -0.0074869026 -0.008223157
-0.032503452 -0.0006463128 0.016069753 0.020746624 -0.04840125 0.028624568 0.0067267315 0.044555895
0.04250321 -0.05112509 0.061584666 -0.06159406 0.033957563 0.0048976396 0.031555783 -0.031890355
0.035658225 -0.03094877 -0.057142198 0.021642612 0.03616759 0.06375745 -0.0066063222 0.06127846

weight_hh_l0 f4 [768, 256]
00000000: 97f7 87bc a8e8 593d 7060 7ebc 26d7 343d
00000010: faf8 afba 8425 f8bc 0757 93bc 658e 51bc
00000020: 4e5b 6fbd b7a4 a13c ed09 93bc ea57 f23c
00000030: d196 203d 332e 30bc 3feb 003d ea81 613c
00000040: 6d74 2e3d a60f 27bd a9cd bebb 8ee8 b1bc
00000050: f32f 643d 8e3b 6abd a2bb 0fbd 4f81 ce3b
00000060: 6470 683d 2142 323d 9153 74bd 1b5a 2fbd
00000070: 316a 743d c109 243c 7bbf 5dbd 46f3 9bbc
00000080: 461f e53c e329 4abc fca7 46bd bd2d 20bd
00000090: 7d95 00bd f191 31bb 4d4d d13c ad36 fc3c
000000a0: cfc9 eebc 43d5 1fbc 6bd3 4abd 3871 423d
000000b0: a161 823d c2e8 793d 6af2 d03c 7d8f 4bbc
000000c0: 2dc4 2dbb 2bf7 b03c 55a1 5fbd 4f1a 9c3b
000000d0: 2d40 55bd 9360 82bd 4270 1bbb 6f9f aabc
000000e0: 5ab6 23bd 898f 293c dc93 1e3b 5282 263c
000000f0: f65c 10bd 8b84 7fbd 4e24 eb39 26aa c6bc
00000100: 523e b1bc 1b80 3a3d 1dfe 303c 1be0 ef3c
00000110: 8f16 95bc 35ee 47bd d86e 3d3c 51a6 2abd
00000120: b29b f93b 017a 46bd e1c4 3d3d f196 33bd
00000130: 5e55 623d 618f 333d da73 3e3d 62ea 153d
00000140: 0fcd 603c 97a4 69bb bac8 e4ba c36b c2bc
00000150: 2639 67bd 9f0e 6c3d 9e7b 8c3b 6f12 e83c
00000160: ba06 c33a 0bc5 9b3c a69d 1abd 7f14 44bd
00000170: 5305 473d 0b44 bc3c 09e0 023d 8149 81bd
00000180: 973e a33b 1fd5 73bd bae5 febb 4c62 2fbb
00000190: e81b 32bd 3922 80bd fe4f 29ba 75b3 663d
000001a0: c583 6a3d 937b 1cbd 8cc4 42bc dea1 53bd
000001b0: 4819 4dbd e086 8bbc 6c25 7a3d 5d06 7abc
000001c0: 1fc8 7a3b c688 6c3d effb 493c bf92 4a3d
000001d0: b609 293d 9f23 6e3d 55b5 1d3c e06f 52bd
000001e0: eeec 5ebd 4848 ffbc b32e 573d 6d5e 0f3d
000001f0: 9715 913c 688d 41bd fe8f 3dbd aa01 4d3d
00000200: b421 aebb 5616 81bd b325 0abc d47d 85bc
00000210: ddcd da37 3133 dc3c eb71 bc3c 6e9c 40bd
00000220: 72fd 72ba fbae 02bd c934 2d3d 46f0 f53c
00000230: 8220 093d 51c4 6c3d 0600 f33c ae4b 7ebd
00000240: d924 763c 5362 2ebd 9e9a eb3b 5f82 c73a
00000250: 1ecd 793d 0593 33bd 4f51 79bd 24af 81bc
00000260: 2bd0 133c 2512 3c3d e692 4e3d 2dae 433d
00000270: d16a 983c 23c5 88bc 55e2 6abc 50ee 0ebd
00000280: 5ca7 3f3c 9eaf 31bd 9b2a a93c 6ea2 223d
00000290: 0a31 573d 25d0 7dbd 8641 523d ed16 25bd
000002a0: b45b cdbb e45d 6b3d 7be4 053d 9bdc 99bc
000002b0: 5283 1a3d e4d0 79bd ea22 4b3d 408b 7c3d
000002c0: 01e5 d6ba a71a 213c 1bff 7fbc 1bbc 21bd
000002d0: 965d debc 7734 81bb 0229 4fbd 516f 52bd
000002e0: f878 c03b 0ea4 24bd 7d90 06bd 2fd4 bdba
000002f0: 167b 06bd 0273 6c3d 3e4b b0bc c230 13bd
00000300: 052d 85bc c752 4bbd b34f 003d 5320 5f3d
00000310: 227b 14bd d2d2 babc 0000 6d3d 3bd7 34bd
00000320: 0925 913c b594 4dbd 57ea 65bd fa00 933a
00000330: 1214 0fbd 7073 0f3d d179 9ebc 2a56 cab9
00000340: 84d1 02bd 84b6 ca3c 558c 723d bbe9 2fbc
00000350: fb96 1cbd 6c93 7dbd 7d29 713d 8aac e13c
00000360: ee95 da3c 7845 263c b0c3 043d ce86 b13c
00000370: 003e ef3c 293a 243d f21c 243c db6d 573d
00000380: 477b 203d b109 9cba 98b8 debc 9470 9f3b
00000390: c69d 433d 80ca 1f3d 87b1 d6bc ea8b 44bc
000003a0: cc4a d53c 0e05 c83c 6e35 6f3d 596e fc3c
000003b0: 5e07 993c ea7d 793c 126e 6ebd 1afa bdbc
000003c0: acc7 b03b 1da5 34bd 4854 5bbd eccd 293d
000003d0: 428f a43c 78ab 49bd d2a3 6a3b f9e0 153d
000003e0: dcf6 113d 9c54 653d e20f c6bc 9958 db3c
000003f0: 91b8 4cbd a014 d4bb 89e6 26bd f471 4fbc
-0.016597552 0.053200394 -0.015525922 0.044150494 -0.0013425641 -0.030291326 -0.017985834 -0.012790297
-0.058436684 0.019731862 -0.017949069 0.029582936 0.03920633 -0.010753202 0.03147435 0.013763884
0.0425915 -0.040786408 -0.0058228564 -0.021717336 0.05570979 -0.057185702 -0.03509105 0.006302036
0.05674781 0.043520097 -0.059650008 -0.04281054 0.059671585 0.010012091 -0.054137688 -0.0190369
0.027969014 -0.012339088 -0.048500046 -0.03910612 -0.031392563 -0.0027095044 0.025549555 0.03078779
-0.029148964 -0.009755435 -0.04951803 0.047471255 0.063662775 0.06101299 0.025506217 -0.012424347
-0.0026514635 0.021602234 -0.054597218 0.0047638784 -0.052063156 -0.06366076 -0.0023718034 -0.020827977
-0.039968826 0.010349163 0.0024197018 0.010162907 -0.035244904 -0.062382262 0.00044849742 -0.024251055
-0.021636162 0.045532327 0.010802773 0.029281667 -0.018199233 -0.048811156 0.011562072 -0.041662518
0.0076174373 -0.048456196 0.046330336 -0.04384512 0.055257194 0.04383791 0.046497203 0.036600478
0.013720765 -0.0035651082 -0.0017454841 -0.023733025 -0.056450985 0.05763113 0.0042871973 0.028329102
0.0014879324 0.019014856 -0.037748 -0.04787111 0.048589062 0.022981664 0.031951938 -0.06312848
0.0049818265 -0.05952942 -0.0077788504 -0.002676147 -0.043483645 -0.062565275 -0.0006458758 0.056323487
0.05725457 -0.038203787 -0.011887681 -0.05166804 -0.05007294 -0.017032087 0.061070845 -0.015260306
0.0038266254 0.057747625 0.012328132 0.049456354 0.041269027 0.05813944 0.009625752 -0.051376224
-0.054425173 -0.031162396 0.05253477 0.03500216 0.01771049 -0.047253996 -0.0462799 0.050050415
-0.0053140763 -0.06303088 -0.00843184 -0.016295351 2.6083488e-05 0.026879879 0.02300354 -0.047024183
-0.00092693337 -0.031905156 0.042286668 0.030021798 0.033478267 0.05780441 0.029663097 -0.062083893
0.015023434 -0.042574238 0.0071900627 0.0015221349 0.06098663 -0.04384138 -0.060868558 -0.015830584
0.009021799 0.04591574 0.050433062 0.04777353 0.018605622 -0.016695565 -0.014336188 -0.03489524
0.011697616 -0.043380372 0.020650199 0.039705686 0.052537 -0.06196608 0.05133202 -0.040305067
-0.0062670354 0.057462588 0.0326886 -0.01878195 0.037722893 -0.06099023 0.049593844 0.061656237
-0.0016395153 0.009833015 -0.015624787 -0.039486032 -0.027144235 -0.003943022 -0.050576217 -0.05137569
0.0058737956 -0.040195517 -0.03285264 -0.0014482791 -0.032832228 0.057726867 -0.021520253 -0.03593517
-0.016256819 -0.04963949 0.031326007 0.054474186 -0.03625024 -0.022805605 0.057861328 -0.044150572
0.017717855 -0.050190646 -0.056131687 0.0011215501 -0.03493125 0.0350222 -0.019345196 -0.0003859264
-0.03193809 0.024745233 0.059215862 -0.010736878 -0.038229924 -0.06190817 0.058877457 0.027548093
0.02668282 0.010148399 0.032413185 0.021670725 0.029204369 0.04009453 0.010016667 0.052595
0.039180066 -0.0011904744 -0.02718763 0.0048657153 0.047757886 0.03901148 -0.026207699 -0.011996249
0.026036642 0.024416473 0.058400564 0.030814337 0.01868027 0.015227774 -0.05821044 -0.023190547
0.0053948965 -0.044102777 -0.053547174 0.041456148 0.020087842 -0.04923579 0.003580321 0.036591504
0.035635814 0.055988893 -0.024177495 0.026775645 -0.049980704 -0.0064721853 -0.0407472 -0.012661446

bias_ih_l0 f4 [768]
00000000: 550d 3c3d 5003 163d 52e7 53bd 2b80 33bd
00000010: ca0f 39bd 3e6e df3a d1de cc39 d8be 33bd
00000020: d15d b9bc 0ec0 2c3d aaa1 bfbc 81f6 213c
00000030: 9d9c 10bd fa18 193c a7a7 5a3c 8631 933c
00000040: 8fc3 313c 9621 7cbc ebd3 73bc 4585 1bbd
00000050: ebe8 433d 0398 44bc 093d eabc 0036 913c
00000060: 248e e4bc 71f9 48bd b582 4b3d cb9d bd3c
00000070: b5f6 803d 6876 523d 21ab 42bc 4e47 95bc
00000080: ba0b 8d3c ba3f e439 7292 c43c d041 c53b
00000090: 4de4 0f3c a98a 503d 1a28 613d 76d1 f33c
000000a0: 8343 823d 07d8 523c 8857 23bd 150a 4ebd
000000b0: fc5d 273d 7043 123d ca22 8abc dea0 4b3d
000000c0: 911a f4bc af9b 453d 445f 71bd 02f5 64bd
000000d0: 2513 6c3d 8e53 e33c 852e 7d3b 5d32 39bd
000000e0: 706e 6cb9 4462 073d 57eb 70bd 1db4 2fbd
000000f0: fe76 483d 65c1 153d cf79 f43c 7d3b 183d
00000100: 4e84 5c3d 11c0 6b3d 0fb2 00bc 98b5 e1bb
00000110: 681c aa3b 50e2 4bbd 13f0 513c b77a b63a
00000120: a1b9 56bd 0741 b6bb 0a98 0abc 545e 4abd
00000130: 0eae e0bc 59ef 6f3d e998 383d 1acd 3f3d
00000140: 0ded 5b3d 6554 833d eec1 e0bc 71b3 0bbd
00000150: 1d13 ad3c 41f0 6b3b fe25 2ebb 3b96 03bd
00000160: 9d70 c5bb 13e8 98bc 8cc4 47bd de39 38bd
00000170: 5446 2ebd 3ad3 a83c 239f a43c 1bda 6cbd
00000180: 42de 2b3d 32f5 653d e6c1 34bd ad45 d33c
00000190: fd5e 703d c3e8 1e3d 2d64 d4bb 4a67 debc
000001a0: 5d6b 9ebc 2c7a 96bc 4176 d53b 5212 2cbd
000001b0: 8a3c c4bb d188 15bc 2be2 11bd 99ef cfbc
000001c0: 0697 9c3c 61b8 b83c 8323 d6bc cb27 de3c
000001d0: f48a 57bd f4b6 e83c 5f08 cf3c 693c 4a3b
000001e0: 646c 3fbc ab89 55bd e485 293d 9df6 0fbd
000001f0: a2dd 1d3d 14e5 00bd 237c 043d 9ec0 0ebd
00000200: ac6f bbbc c2cb 503d f35c bcbc 0e10 403d
00000210: a5b6 3e3d 9e24 6d3d 29a7 2a3d 0225 143d
00000220: b138 303c 1263 53bd 99fd 57bd b128 303d
00000230: 4c6f 3ebd 63b2 5cbd 85a7 d2bc bc78 28bc
00000240: dbe1 803d bfb5 26bd bff4 56bd f101 01bb
00000250: b14c 8b3c e0cd 4ebd 9bcf c23c b21a 81bc
00000260: a366 be3c 0da2 643d cd5b ad3c 5562 643c
00000270: 05d3 5d3c cc63 0e3d ccae 44bd 5e16 453c
00000280: 61f0 193d dcd8 c93b 5bcc 22bd b80d 28bc
00000290: 8dd4 4f3d dbd4 733b 77f7 52bd b8ea 69bd
000002a0: ef3c 6fbd be29 7b3d 9c6d 2dbc bd3a f93b
000002b0: e308 1f3d 2fa9 5abd d900 76bd 116e dfbc
000002c0: bc44 9d3a a121 04bd ceb5 0f3d d644 2c3d
000002d0: c660 dfbc 945c 013d 9e8c e53c 6699 2abc
000002e0: 30c3 7ebc e050 e9bc baa8 1b3d d69c 60ba
000002f0: bc57 ae3b c43f 213c 5333 15bd c887 36bd
00000300: ed3f d3bc 80db 3dbd 9a06 4a3b e5e8 02bd
00000310: d807 42bd 3ce8 503c c29a afbc 0d0d 88bc
00000320: 98f6 3bbd 9d82 e6bc c37f f53c ec2d b23c
00000330: 44a0 49bd ec65 033b 8c25 b0bc cabc d8bc
00000340: 355a 36bd 783d 8d3a 99f2 173d 9fcd 66bd
00000350: 23f8 5f3d 0722 7bbd 8944 113c 73d7 503d
00000360: cb73 f63c ca46 67bd 70d1 b8bb 425c 98bc
00000370: 2554 5bbd 0bb1 56bd e40b 5fbd d1b7 2b3d
00000380: a8d6 683d d929 e43b f811 66bd ae96 e2bc
00000390: 8754 bd3a e312 c9bc 69dd 13bc 13ba 76bd
000003a0: c104 0e39 aeeb 4dbd 71e4 17bd 5888 dbbc
000003b0: 5ee3 61bd 7095 b63c 6a6b f9bb 29cf c43a
000003c0: 55a0 64bb d101 31bc 055f c5bc 8a76 5dbd
000003d0: d071 b53c aab6 51bd 33a6 2e3d 7df2 443c
000003e0: 39f3 403c 5978 133d e092 61bc 17d1 f1bc
000003f0: 6094 7b3a 759f 8cbc f525 8038 e1e3 183d
0.045911152 0.036624253 -0.051734276 -0.043823402 -0.045181073 0.0017046405 0.00039075923 -0.043883175
-0.022627743 0.042175345 -0.023392517 0.009885431 -0.035305608 0.009344334 0.0133456355 0.01796795
0.010849847 -0.015388867 -0.014882068 -0.037968893 0.04782955 -0.011999133 -0.028593557 0.017725945
-0.02789981 -0.04906601 0.0496852 0.02314653 0.06297056 0.051382452 -0.011881621 -0.018222477
0.017217506 0.0004353503 0.023995612 0.0060198084 0.0087824585 0.050913487 0.054969884 0.029762965
0.06360533 0.012868888 -0.0398784 -0.050302584 0.040861115 0.035708845 -0.016862292 0.04971396
-0.029797824 0.048244175 -0.058928743 -0.05589772 0.057635445 0.027749803 0.0038632464 -0.045214046
-0.00022547855 0.033052698 -0.058818188 -0.04289638 0.048941605 0.03656139 0.02984324 0.037166107
0.053837113 0.057556216 -0.0078549525 -0.0068881027 0.0051913746 -0.049776375 0.012813586 0.001392207
-0.052423123 -0.005561951 -0.0084591005 -0.049406365 -0.027426746 0.05857787 0.0450677 0.04682646
0.053692866 0.06412581 -0.027436223 -0.034106676 0.021127278 0.0036001357 -0.0026572938 -0.032125693
-0.0060253874 -0.01866535 -0.048771426 -0.04497706 -0.04254754 0.020608533 0.020095414 -0.05782519
0.04196001 0.05614204 -0.04413023 0.02579006 0.058684338 0.038796198 -0.0064816684 -0.027148861
-0.019338304 -0.018368803 0.006514341 -0.04200966 -0.005988662 -0.009126858 -0.03561608 -0.025382804
0.019114982 0.022548856 -0.02613998 0.027118584 -0.05262275 0.028407551 0.025272546 0.0030858761
-0.011683557 -0.052133244 0.041387454 -0.035147298 0.038541444 -0.031468466 0.03234495 -0.034851663
-0.022880398 0.05097557 -0.02299354 0.04689031 0.046560902 0.05789625 0.041663323 0.036168106
0.010755704 -0.051608153 -0.052732084 0.043007556 -0.04649286 -0.05388106 -0.025714645 -0.010282692
0.062930785 -0.04070067 -0.0524795 -0.0019684995 0.017004343 -0.050489306 0.023780635 -0.0157598
0.0232423 0.055818606 0.021161938 0.01393946 0.0135390805 0.034763142 -0.04801826 0.0120292585
0.03758276 0.006159885 -0.03974567 -0.010257177 0.050739814 0.003720573 -0.051505532 -0.05710861
-0.05840772 0.061319105 -0.010585215 0.007605879 0.038826834 -0.053384002 -0.060059402 -0.027274163
0.0011998634 -0.032258634 0.03508549 0.042057835 -0.027267825 0.03158243 0.028021153 -0.01041255
-0.015549466 -0.028480947 0.038002707 -0.0008568292 0.0053205173 0.009841863 -0.0364259 -0.044563085
-0.025787318 -0.04635191 0.0030826689 -0.031960387 -0.04737076 0.0127506815 -0.021436099 -0.016607786
-0.045889467 -0.028138453 0.029968148 0.021750413 -0.049225107 0.0020049764 -0.021502279 -0.02645721
-0.044519622 0.0010775765 0.037096594 -0.05634844 0.05468 -0.061311748 0.008866438 0.05098672
0.030084511 -0.056463994 -0.0056402013 -0.01859868 -0.053547043 -0.052414935 -0.0544547 0.041923348
0.056845337 0.0069629964 -0.05616948 -0.02765974 0.0014444747 -0.024545139 -0.009024956 -0.060236048
0.00013543946 -0.05027359 -0.037083093 -0.026798412 -0.055148475 0.022288054 -0.0076116817 0.0015015352
-0.0034885604 -0.010803656 -0.02409316 -0.054068126 0.022148997 -0.051199593 0.04263897 0.012020704
0.011776739 0.036003444 -0.013767928 -0.029518647 0.0009597 -0.017165879 6.110586e-05 0.037326697

bias_hh_l0 f4 [768]
00000000: ed45 353d a121 873c c583 6c3b 158a 2bbd
00000010: bedd 2cbd e09c 473c af88 4a3d 38fe 39bc
00000020: d905 3e3b 4ae3 093d f67b be3c 2345 9abc
00000030: a338 103d d1c3 d33c 9e3f 283d ef49 0d3d
00000040: c24d 28bd 68f2 ed3c 2726 473d 9489 003c
00000050: b9dc 163d 8d84 4d3c 9367 5a3b d611 1c3d
00000060: 0ca5 303d 17ea 153d abe7 e63b 0b84 b93c
00000070: 5d31 9d3c e4af 3fbc b84b 5cbd e750 37bd
00000080: 5822 44bd a15d 4d3d cb1f 7abd 56e4 69bd
00000090: 5b64 42bc b57f cb3b 7e2d 2cbd a1b1 d7b9
000000a0: c852 58bd c880 713d fd67 dabc 1dae 083d
000000b0: 2145 b3bc e6b8 12bd 4a99 cbbc b02a 363d
000000c0: 05e7 353c dac6 86bc 35bf fa3c 6a52 0ebd
000000d0: 7301 1dbd 0f1b 2dbd 406e 4e3d 86fb 78bb
000000e0: 5543 16bd f63d b1bc 716d 633d 4b4a 563d
000000f0: ec28 5b3d 47e6 4abd b5c4 58bd 718b 5ebd
00000100: e9ad 6f3c 3f88 0b3d 6848 4bbd 1aed cbbc
00000110: 6fbc 66bd d7e8 523c 5d3a e13c f1a8 4b3d
00000120: c958 e33c 393b 42bd b463 a53a d8b6 eabc
00000130: 5754 45bd f5a8 733c 655f 6f3d 619b efbc
00000140: 5a85 ffbb 7b0b 7b3d 9e19 c93c 1d1e 583d
00000150: 32f0 5abd 6a10 413d acdf 22bd 7135 eabc
00000160: f166 7b3c faea 0abd 26ef 80bd a4c4 253d
00000170: 3645 67bd 5b5c 62bd c6b5 6c3c 8d35 6abc
00000180: 0c5d 2b3d 34c4 6f3d e8c1 15bd 4831 56bd
00000190: e186 093d bfd8 d13c 33ff bfbc be6f 82bc
000001a0: 6272 68bd 31cd 05bc 641c e2bc fa44 35bc
000001b0: 5112 563d 0927 c5bc cd72 f83c 5653 713d
000001c0: 6bfa 7d3c cfa0 543d 6e46 22bd 59c0 dfbc
000001d0: fc10 06bd 10d3 e8bb fa06 3cbd 9bac 31bd
000001e0: 4998 623d 5354 053d 70d8 6e3c add6 45bd
000001f0: 0850 71bd eeba 3dbc 185c e1bb 4606 1abc
00000200: c17f 4bbc 80c5 583d e6b7 c93b e826 0cbd
00000210: edf1 0fbd 303a 0abd d752 d53b f63e 4b3c
00000220: e4e7 1c3d 9949 d0ba d570 55bd 8388 263d
00000230: ddf3 e3bc 49ea 503d ba93 6ebd c967 373d
00000240: 77cc 6bbd 080b 7dbc 8b4a db3a 4212 61bd
00000250: c983 e63c a433 72bd 41e1 9cbc 5d32 46bc
00000260: d5bc acbc 6e09 61bc 56fa 23bd 35f9 183b
00000270: 16f8 b3bc 4f1f d9bb 3865 2b3d 9e54 4ebd
00000280: 6e63 023d aee9 173c 5067 c5bc a6f4 113d
00000290: 7120 313c 58b1 513d dbb4 2cbd 9206 2f3d
000002a0: b50a 49bd 6e48 aabb d1d4 5cbd 6ef7 893b
000002b0: b526 e83c 3b3a 3b3d a53a a33b 130e 203d
000002c0: 50df 003d 97be e33b faa4 273d 18bd 43bd
000002d0: b5ce 36bd c1a2 c63b 1723 febb 1ffe c0bc
000002e0: a8a4 73bc 8e59 5abd 1262 783d ba84 f4bb
000002f0: 719b a2bc 8125 cd39 bbe6 443d bb20 1a3b
00000300: 3a52 10bc 25b7 02bd f320 a0bb 134e 9d3c
00000310: 9e72 2c3d 89d0 f23b 902d 183d f9bc a4bc
00000320: cce8 643d 25bd c2bc 51c0 42bd 1002 503d
00000330: 2ef6 faba 199f bc3c 24b3 603d 59ce 62bd
00000340: 9afc 2dbb 1a72 173d d57f 65bd 3fff 073d
00000350: 1376 14bd 64e7 97bc 2f5b 3c3d 07e5 58bd
00000360: 0279 3d3d 3873 123d 18de 2abd bcbe 4cbc
00000370: 6af9 a23c 5a53 aebc 3c9b d33c 5d47 45bd
00000380: ebd3 83bc 724e 4a3b 03b4 2f3b bd05 12bd
00000390: 6fe5 0dbc 91f8 903c f93c 2fbc d37a 503d
000003a0: 4c0f 193b b68b 3ebd 0bfa 74bd d863 3a3c
000003b0: c0e6 9d3b 335b f1bb 9319 1e3d 9308 21bd
000003c0: 4a2f 3bbd d7e1 263c e390 3ebd bac6 173d
000003d0: 3e1a 9cbb fe88 913c dffd 62bd 7dce 6b3c
000003e0: c31b dcbc 8a00 2dbb 888e 0ebd d65d 45bd
000003f0: bfbe 883c 3f07 743d b493 6dbc d13e 2f3b
0.04425614 0.016495528 0.0036089283 -0.041879732 -0.042203657 0.012183398 0.049446758 -0.011352114
0.0028995185 0.033664025 0.023252469 -0.018831795 0.035210263 0.025850208 0.041076295 0.034494337
-0.04108978 0.029046252 0.04862037 0.007845301 0.03683159 0.01254381 0.0033325895 0.038102947
0.04312615 0.0366002 0.00704666 0.02264597 0.019188577 -0.01169965 -0.05378315 -0.04475489
-0.047884315 0.05013812 -0.061065476 -0.057102524 -0.011864747 0.006210292 -0.042035572 -0.0004114034
-0.05281332 0.058960706 -0.026660914 0.033369172 -0.02188355 -0.035820864 -0.024853367 0.044474304
0.011102443 -0.016452242 0.030608753 -0.034746565 -0.03833146 -0.042262133 0.05039811 -0.0037991717
-0.036685307 -0.02163599 0.055524293 0.052316945 0.053505823 -0.049536016 -0.05292197 -0.0543322
0.014628866 0.03406548 -0.0496296 -0.024893332 -0.056332048 0.012872896 0.02749365 0.049721662
0.027752297 -0.04741976 0.0012618215 -0.02865164 -0.048176136 0.014871825 0.058440585 -0.029248895
-0.007797879 0.061290246 0.024548348 0.052763093 -0.053451724 0.047134794 -0.03976409 -0.028589936
0.015344367 -0.033915497 -0.06295614 0.040470734 -0.05646249 -0.05526386 0.014447635 -0.014294994
0.041836783 0.058536723 -0.036561877 -0.052293092 0.033575896 0.025616048 -0.023437118 -0.015922423
-0.05674971 -0.008166597 -0.027601428 -0.011063809 0.05226356 -0.024066465 0.030328179 0.058917366
0.015501599 0.05191117 -0.03961795 -0.027313398 -0.03273104 -0.0071052387 -0.04590509 -0.0433775
0.05532101 0.03255112 0.01457797 -0.048300434 -0.058914214 -0.011580212 -0.0068774335 -0.00940091
-0.012420596 0.052922726 0.0061559556 -0.03421679 -0.035142828 -0.0337469 0.0065101194 0.012405148
0.038307086 -0.0015891074 -0.052109558 0.04065753 -0.027826244 0.05100468 -0.05824635 0.04477671
-0.05756804 -0.015444525 0.001673059 -0.054949053 0.028139012 -0.05913128 -0.019150378 -0.0120969685
-0.021086136 -0.013735158 -0.04003366 0.0023341898 -0.021968883 -0.0066260467 0.041844577 -0.050373666
0.031833105 0.009272022 -0.024097115 0.035633706 0.010810957 0.05119452 -0.042164665 0.042730875
-0.049082477 -0.0051966226 -0.053913895 0.004210404 0.02833877 0.04570983 0.004981356 0.039075922
0.031462967 0.0069502103 0.04092882 -0.047787756 -0.044630725 0.0060618822 -0.007755648 -0.023558674
-0.0148708 -0.053308062 0.060640402 -0.0074621113 -0.01984951 0.0003912859 0.048071604 0.0023518044
-0.008808667 -0.03191294 -0.0048867404 0.019202268 0.042101495 0.0074101132 0.037152827 -0.02010964
0.055886075 -0.023771832 -0.04754669 0.050783217 -0.0019146854 0.023025082 0.05485834 -0.05537257
-0.0026548267 0.03697405 -0.056030113 0.033202406 -0.036245417 -0.018542953 0.045985397 -0.052952792
0.04625798 0.035754412 -0.04171571 -0.0124966465 0.01989432 -0.02127998 0.025830857 -0.04816376
-0.016092261 0.003086951 0.0026810176 -0.035650004 -0.008660658 0.01769665 -0.010695689 0.050898384
0.0023355065 -0.046519957 -0.059808772 0.011376344 0.0048187673 -0.007365608 0.03859861 -0.039314818
-0.045699395 0.01018568 -0.046524893 0.037054755 -0.0047638705 0.017765518 -0.05541789 0.014392492
-0.026868707 -0.0026398026 -0.034803897 -0.048185192 0.016692517 0.059577223 -0.014500547 0.0026740322
