models/triplet.pt (torch_old, 797472 bytes, 4 tensors)

weight_ih_l0 f4 [768, 1]
000000 33 26 d7 3c 39 9c 48 be 9b a2 72 3c 52 63 0b 3e
       0.026263332 -0.19590844 0.014809276 0.13612106
000010 33 55 2b be 46 8f 46 be 7b 3f 27 3e c4 cd 9e bd
       -0.1673172 -0.19390592 0.1633281 -0.077540904
000020 df 8b bf bd 86 d7 8f 3e 5d ec 8f 3d a9 6d 4b be
       -0.0935285 0.2809412 0.070275046 -0.19866051
000030 89 d0 37 be 79 c5 68 3e 4a f3 37 be 6a 2d 86 3c
       -0.17950644 0.2273158 -0.17963901 0.016379077
000040 21 0d 46 bd 66 84 0b be e7 1c 29 be a3 41 61 3e
       -0.048352364 -0.13624725 -0.16514932 0.21997695
000050 34 4d 62 be d3 bf 21 3e 00 c3 19 be eb 49 30 3d
       -0.22099763 0.15795831 -0.15015793 0.043039244
000060 bb 12 8e 3c a1 e9 d1 3d 10 b6 33 bd 82 61 23 3e
       0.017342916 0.10249639 -0.0438748 0.15955165
000070 6b be 69 be 79 29 f0 bc 2d 38 4c be 4d f0 b4 bd
       -0.22826545 -0.02931665 -0.19943304 -0.08834896
000080 d2 9a 5f be 07 c6 f6 bd d4 44 19 3e b2 31 52 bd
       -0.21836403 -0.120494895 0.14967662 -0.051316924
000090 0a 4e 2f 3d 13 4c 72 3d 41 af b9 3d d0 3b c2 bd
       0.042799033 0.05915458 0.0906663 -0.094840646
0000a0 b6 93 98 bd 96 4a 8e 3d 4a 2c 16 be 05 3d 48 be
       -0.074500486 0.0694782 -0.14665332 -0.19554527
0000b0 e9 eb c9 3d 9d 66 29 be 51 c4 ce bd ed f2 27 be
       0.098594494 -0.1654305 -0.10096038 -0.16401263
0000c0 21 3a ea bc 0d a4 21 3e 52 b6 88 be f5 db 2b be
       -0.028592171 0.15785237 -0.267016 -0.16783126
0000d0 05 e3 89 bd 99 cf e7 3b 5b 8a 8a be 4f 0c ad 3c
       -0.06732754 0.007074308 -0.27058682 0.021124033
0000e0 45 d6 22 3e 64 e9 4a be 3f ce c2 bd 7c 65 a8 bd
       0.1590205 -0.19815594 -0.095119946 -0.082224816
0000f0 10 d3 82 3c d8 c0 0a be da 27 15 be d5 6a 46 bd
       0.015969783 -0.13550127 -0.14565983 -0.048441727
000100 89 9c db bd 67 c4 52 3e f0 09 36 3e f9 ac 92 be
       -0.10723216 0.20582734 0.17777228 -0.28647593
000110 44 6f 3a be 8f c6 96 bd e6 73 1e 3d be 42 ff 3d
       -0.18206507 -0.07362091 0.038684748 0.12463902
000120 ef f0 18 be 57 29 01 3e 11 8d 29 3d d9 c3 71 3d
       -0.14935659 0.12613426 0.041394297 0.059024666
000130 71 d2 16 bd b4 95 4a bd 66 f0 05 be 0a 2f 10 3c
       -0.036821786 -0.049459174 -0.13079986 0.0088002775
000140 6e b4 89 be 55 d3 a0 bd 8b 70 1c be 03 42 09 be
       -0.2689547 -0.078528084 -0.15277307 -0.13404088
000150 65 3a ec bd 39 b9 85 3e ef 3c 43 be 98 7b 19 3e
       -0.115345754 0.26117876 -0.19066213 0.14988554
000160 a8 d0 21 bd cf 43 8a 3e da 8b 93 bd 54 ed c7 bd
       -0.03950563 0.2700486 -0.07204409 -0.097620636
000170 f0 0f 45 bc ec a8 61 3e bc 91 26 3e 63 20 ae bd
       -0.012027726 0.22037095 0.16266531 -0.08502271
000180 23 6b 17 be b1 b4 3b 3e 48 6c aa bd 4a 45 67 be
       -0.14786963 0.18330647 -0.08321434 -0.22585025
000190 b1 f0 0b bd c7 e6 77 be 2c 0a 03 be 7a c5 6f 3d
       -0.034165088 -0.24209128 -0.12796849 0.058537938
0001a0 81 65 9c 3d 91 72 c1 3d 09 1a 87 be 50 53 50 3e
       0.07636548 0.0944568 -0.2638705 0.20344281
0001b0 7d 31 6e be 8e 62 fc bd aa f5 47 3e 30 6a b2 bc
       -0.23261066 -0.12323485 0.19527307 -0.02177915
0001c0 0d fb a8 bd fb 31 d6 3d 69 df 8b 3e d5 15 b0 3d
       -0.08251009 0.10458752 0.27318886 0.08597914
0001d0 92 f4 81 be 93 1e 80 be 47 a8 5b 3e 6c b6 07 be
       -0.25381905 -0.25023326 0.21450911 -0.13253182
0001e0 aa a5 62 3e 20 68 06 be 73 3a db bd 49 b7 6b 3d
       0.22133508 -0.13125658 -0.10704508 0.05754784
0001f0 63 7b 2b 3d 39 0d 76 be 21 a1 e8 bd 1f d8 0d be
       0.041865718 -0.24028482 -0.11358858 -0.13851975
000200 7b 04 36 3e 55 5d 6f be b3 04 8a be 41 7f 00 be
       0.17775147 -0.23375447 -0.2695671 -0.12548544
000210 b2 37 39 be 06 98 8f bd 2a 59 1a be 0f d7 42 bd
       -0.18087652 -0.07011418 -0.15073076 -0.047568377
000220 81 da 10 bd ae 9b fa 3d db 81 0b bd 66 f1 00 be
       -0.03536463 0.12236725 -0.034059387 -0.12592086
000230 9d 25 f0 bd e4 9a cb bd 59 65 43 3e 40 79 f6 bd
       -0.11725924 -0.099416524 0.1908163 -0.12034845
000240 13 48 0e 3e 7b 26 d7 3d 00 11 70 bb 26 0b 6a 3d
       0.13894682 0.105053864 -0.0036631227 0.05713954
000250 a6 7b aa bd 11 aa 86 bd 51 ca 8d bd 18 43 69 be
       -0.08324365 -0.06575406 -0.069233544 -0.227795
000260 0d b4 4b 3e a0 27 0b be 98 60 3e 3e 6f 0a 68 3e
       0.19892903 -0.13589334 0.18591535 0.2266023
000270 11 4f 1e be ab 4b 96 bd 66 fe 24 3d 06 6e bc bd
       -0.15459849 -0.07338651 0.040281676 -0.09200673
000280 bb 7b 82 be c9 41 17 be 12 b1 4c 3d 31 05 df bd
       -0.25485024 -0.14771189 0.049973555 -0.10889662
000290 29 2f 66 be 04 8b 01 be 23 ba 37 be 7c a6 14 be
       -0.22478928 -0.12650687 -0.179421 -0.14516634
0002a0 6e 0d d9 3d 4a 6c 52 be 3a 6e 39 3e 58 a6 a2 bd
       0.10598265 -0.20549121 0.18108454 -0.07941884
0002b0 77 33 58 be a0 37 80 be 78 fa 55 3e 22 3f e2 bd
       -0.21113382 -0.25042439 0.20896327 -0.11047198
0002c0 a9 04 39 be e1 34 f6 bc aa 99 71 be 9d 10 da bd
       -0.18068184 -0.030054512 -0.23593774 -0.106477
0002d0 52 a1 3c bd 8d d0 06 be fb 16 57 be b7 c4 ee bd
       -0.046052285 -0.13165493 -0.2100486 -0.11658614
0002e0 10 de e3 3d 23 7e 37 be 25 4e ca 3d 35 d8 ad bd
       0.111263394 -0.17919211 0.09878186 -0.08488504
0002f0 1d bb 90 3e ca cc a5 3a 80 a7 44 be 8a ea 40 be
       0.28267756 0.0012649533 -0.19204521 -0.1883947
000300 e2 12 8c 3e bd 9f 21 be 59 dc 02 be 7b ba 72 be
       0.27358156 -0.15783592 -0.12779368 -0.23703949
000310 3f 60 1e be 16 4c ac bd d7 e5 ae bc fd c8 0a be
       -0.15466402 -0.0841295 -0.02134983 -0.13553233
000320 e4 f4 58 3e e2 29 19 be 4b 46 49 3e 73 aa 85 3e
       0.21187168 -0.14957383 0.19655721 0.26106605
000330 7c c6 fe bd 53 b5 e4 bd 07 66 25 be d1 ae b6 bd
       -0.12440202 -0.11167397 -0.16152202 -0.08920062
000340 e9 60 c5 3d e3 1c e3 bd bb 43 11 be d1 f4 a9 3b
       0.09637625 -0.11089494 -0.14185993 0.005186655
000350 93 14 57 3d 7e 16 a7 3d 91 c4 01 3e 64 83 a3 bd
       0.052509855 0.08158587 0.1267264 -0.07984045
000360 ab f9 70 3e 8a e5 4d be e6 db fa 3d 01 37 b8 3d
       0.23532741 -0.20107093 0.122489735 0.08994866
000370 59 0c de bd 1b 03 8a bd d1 e0 65 be 43 b5 27 be
       -0.10842199 -0.067388736 -0.22449042 -0.1637774
000380 82 99 81 3d 30 17 03 be 92 5f 63 bd 31 ab 84 bd
       0.063281074 -0.12801814 -0.055511065 -0.06477965
000390 b0 a5 83 bd 61 a2 16 be 04 5f 5f bd 03 1e d4 bd
       -0.06428087 -0.1471038 -0.054533973 -0.10357287
0003a0 fb 83 1a 3e 0f 99 9a bd 6e c1 8c bd 80 13 38 bd
       0.15089409 -0.07548725 -0.06872831 -0.04494047
0003b0 20 d9 43 3e af 3d 32 3e 55 e5 9b bd 07 82 4b be
       0.19125795 0.17406343 -0.07612101 -0.1987382
0003c0 f6 7a a6 3d 3a ed 83 be f5 b8 e8 bd 11 92 6b 3e
       0.08128922 -0.25766927 -0.11363403 0.23004939
0003d0 02 2c c7 bd 8d 57 65 be b1 7f f5 3c 07 4d 7c be
       -0.09725191 -0.22396679 0.029968115 -0.24638759
0003e0 1d ec 88 3d ac 75 50 be b5 ce 6b be 62 72 20 be
       0.0668566 -0.20357388 -0.23028071 -0.15668634
0003f0 40 e6 26 bd f5 15 4a be 50 f9 85 be bd 62 8e be
       -0.040746927 -0.19734938 -0.26166773 -0.27809706

weight_hh_l0 f4 [768, 256]
000000 80 5d a4 3d 6b 2a 9c bd 44 33 a5 ba 88 72 64 3d
       0.08025646 -0.07625278 -0.0012603779 0.055773288
000010 b1 3a de 3c 00 2d ad 3d 42 d2 62 3d 22 ac a9 3c
       0.027127596 0.08455849 0.0553763 0.020711962
000020 8b 94 0b bd eb 54 05 3e 49 5a 0a 3e 15 70 26 bd
       -0.03407721 0.13020675 0.13511004 -0.040634234
000030 28 67 5a 3c 42 66 e1 3c 71 0c d0 bc 09 1e ac 3d
       0.013330258 0.02751458 -0.025396558 0.08404166
000040 b7 47 8c 3d 3e d6 81 bd 67 c1 92 3d cb c9 98 bd
       0.06849616 -0.063396916 0.07165795 -0.07460364
000050 8b c0 8c bc b6 83 00 3e 94 4c 18 3d 5a 80 81 bc
       -0.017181655 0.12550244 0.037182406 -0.015808273
000060 ef be 0d 3e 83 3c 53 bd d1 f2 7b bd 79 54 84 bd
       0.13842367 -0.05157138 -0.061510865 -0.064614244
000070 7c fe b7 3c 0b 32 ae bb 01 fd 15 bd 04 23 64 bd
       0.022460215 -0.005316024 -0.036618236 -0.055697456
000080 e4 aa 67 3d c6 25 76 3d c5 79 17 bd 5b ad 78 bb
       0.05655946 0.060094617 -0.036981363 -0.0037945125
000090 c6 ef fa bc 1e 90 0b 3d 76 61 43 3c 75 6c 10 3d
       -0.030631911 0.034072988 0.011925092 0.035259683
0000a0 bd f6 da bb 18 dd e3 bd 54 b2 a1 bc be 6a 1d 3c
       -0.0066822455 -0.11126155 -0.019738354 0.009607969
0000b0 4a 96 28 bd ef b3 96 3c f4 29 87 bc d6 ac 66 bc
       -0.04115895 0.018396346 -0.016499497 -0.014079293
0000c0 cd 8c 49 3c ec eb e0 bc 20 b2 91 bc 0d 50 25 3d
       0.012301636 -0.027456246 -0.017785132 0.040359545
0000d0 16 9c f3 bd bd c1 6c 3d df ab 2a bd dc 92 b6 3c
       -0.118950054 0.05780195 -0.041667815 0.022286825
0000e0 8a 12 4f bd dc 59 91 3d ff 63 01 be 08 06 31 bc
       -0.05055479 0.070972174 -0.12635802 -0.010804661
0000f0 37 08 07 3d 0b 77 d8 bc 79 5f d0 bd d8 f0 86 3d
       0.03296682 -0.026423952 -0.1017446 0.06588906
000100 81 ad 82 bb 99 8e 2a 3e 9b 24 07 be b6 40 66 3d
       -0.0039879684 0.16655959 -0.13197558 0.056214057
000110 ef f1 ab 3b d7 3c 6f 3c 8c d6 ac 3d 1d 6a 6d 3d
       0.0052473466 0.014601908 0.08439359 0.057962526
000120 59 95 36 3b 97 41 02 3d ff a8 bd bd e7 57 d0 bc
       0.0027860014 0.031800833 -0.09260749 -0.02543254
000130 a4 2d 37 bd 02 b4 05 be dd 22 00 bd 92 64 a9 bb
       -0.04472126 -0.13056949 -0.03128325 -0.0051694596
000140 b7 3d fd 3c 32 56 b5 bc 10 29 d3 bd fe a3 5d bc
       0.030913217 -0.022135828 -0.103105664 -0.013527868
000150 d1 89 ae 3d c2 3f 18 3e 70 82 d8 bd 7a 4d 8a bd
       0.0852238 0.14868072 -0.10571754 -0.06753059
000160 8b bb 25 bc f4 10 0a be e8 69 88 3c a4 01 83 3d
       -0.0101155145 -0.1348303 0.016652063 0.06396797
000170 09 54 af bd 70 49 62 bd 04 04 3a bc 87 82 49 bc
       -0.0856095 -0.055245817 -0.011353496 -0.012299187
000180 3c cc 75 bd f6 78 01 bd f4 6f 66 bd 36 1d 71 3d
       -0.060009226 -0.031609498 -0.05625911 0.05886575
000190 a1 c9 c5 3d 2b 13 b0 3c 01 10 84 3d fc 0d d3 bd
       0.09657598 0.021493515 0.06448365 -0.10305402
0001a0 d5 d5 90 3d 21 38 06 3e 6b 3d f9 bb 24 97 0e 3d
       0.07072035 0.13107349 -0.0076061985 0.034812108
0001b0 ec f8 a7 bd 39 ee 3a bd ab d8 0f bb 92 ab 13 bc
       -0.08201775 -0.045637343 -0.0021949213 -0.0090130735
0001c0 ff 0d c6 bc c3 c6 b6 3d 10 6f 7f 3d 2a b4 18 3d
       -0.024176596 0.089246295 0.062361777 0.037281193
0001d0 51 c1 60 bd 62 1c 24 3d b0 28 18 bc 77 92 8f 3d
       -0.05487186 0.04006613 -0.009287044 0.07010358
0001e0 d8 b3 f2 3d dd 72 1d 3d b8 43 9b 3d 93 90 10 3e
       0.11850709 0.03843962 0.07581276 0.1411765
0001f0 62 0d cd bc 3a 27 2f bc 9d c2 0b bd a5 37 13 bd
       -0.025030795 -0.010690505 -0.034121145 -0.03594174
000200 7f a9 95 3d 47 2c 3b bd e9 0b 09 3d b5 81 fe 3b
       0.073077194 -0.045696523 0.033458624 0.007766927
000210 06 6e 09 bc ad b3 7d 3c a9 46 e8 bc 78 94 17 bd
       -0.008388048 0.015484733 -0.028354006 -0.037006825
000220 e9 1b be 3d 73 9a e2 bc 5b 94 8a 3c cd 88 5b 3c
       0.09282667 -0.027661538 0.016916445 0.013399315
000230 fa 80 59 3d 78 46 6b bc 3e 40 94 bd 2e 58 8b bd
       0.053101517 -0.014360063 -0.07238816 -0.06803928
000240 80 ef d1 3c 3f 85 a7 3d 14 20 19 3c 01 c5 8b 3d
       0.025626898 0.081797116 0.009346027 0.06824685
000250 28 f8 22 bd dd 7f 10 3d 00 6c c0 3c 3f 79 aa bc
       -0.03978744 0.03527819 0.023488998 -0.020809768
000260 34 d7 09 be 7b 15 e1 bd cd ed 07 bd fb 0e d0 bd
       -0.13461 -0.10990425 -0.03318577 -0.10159107
000270 d9 8f ee bb 81 b5 0b bd 50 ea f2 3d fc e0 9c 3c
       -0.0072803316 -0.034108642 0.11861098 0.01915025
000280 96 14 18 bc a7 04 b4 bc 69 8a d6 bd 0f 40 45 bd
       -0.009282252 -0.021974875 -0.104756184 -0.048156794
000290 d5 73 24 bd 3f 02 e3 bc 30 0b 44 3d 99 6f 49 bc
       -0.04014953 -0.027711032 0.04786223 -0.012294673
0002a0 00 46 ca 3d 23 f2 bc 3c 26 61 a7 3d 97 40 d8 bb
       0.09876633 0.023064679 0.081728265 -0.0065994966
0002b0 37 9f 61 3d bc 3e c4 bc e4 0b ec 3d fc 19 b7 bc
       0.05508348 -0.023955695 0.115257055 -0.022351258
0002c0 ee 0d 6e bd 96 a1 58 3d b3 66 e3 bc 7b e4 91 bd
       -0.058118753 0.052888475 -0.027758932 -0.07123657
0002d0 81 da 8b 3d 22 60 7a bc 91 79 10 3c 26 1e bc 3d
       0.06828786 -0.015281709 0.008818046 0.09185438
0002e0 20 8a ac bd 88 8f cf bd 6e 6b d5 bd 78 a7 b0 3d
       -0.08424783 -0.10134798 -0.10420881 0.08625692
0002f0 8c 1d de 3d be 3f 81 3c f4 4a 0f 3d da 4f 60 bc
       0.10845479 0.015777465 0.03498359 -0.013690913
000300 11 d1 f2 3d af fe 90 3c 3c bb b4 3d 9c fa 14 bd
       0.118562825 0.017699568 0.088247746 -0.036371812
000310 fd d1 85 3d 92 4f eb 3d 13 b2 bb 3c 82 fa 65 bc
       0.06534193 0.11489786 0.02291206 -0.0140367765
000320 1f 7d 01 3e 02 26 83 3c 4f 3b 68 3d 64 03 31 3d
       0.12645386 0.016009334 0.056697186 0.043216124
000330 32 c8 d3 bc 00 72 30 bc fe b9 6b bd 03 c8 8c 3d
       -0.025852297 -0.010769367 -0.057550423 0.06874087
000340 ab ea 11 3e e1 46 c8 3d 77 20 44 3d 1e 40 de 3d
       0.14249675 0.09779144 0.047882523 0.10852073
000350 51 08 f2 bc 07 80 2d bd 81 10 aa bd 9e 12 14 bd
       -0.029544981 -0.042358425 -0.08303929 -0.036150567
000360 74 6e a5 3d 83 d9 b4 bc dd c0 a7 3c 35 8e 83 3d
       0.08077708 -0.022076374 0.020477707 0.06423608
000370 5e c6 84 3d 6e 92 6b bc ac 9c 6d 3c f1 f8 87 bd
       0.06483148 -0.014378173 0.0145026855 -0.06639279
000380 7b 1d bb bd b4 e4 89 3d 7c 43 4f 3d 43 1e eb bc
       -0.09136482 0.06733075 0.050601467 -0.028700953
000390 25 d5 19 3c dd 71 f9 bd cf 01 22 3d 50 bb 86 bc
       0.0093891965 -0.12179921 0.039552506 -0.01644674
0003a0 9d 62 a2 bd 0c ec 53 3d f8 81 2c bd cd ad f6 bc
       -0.07928965 0.051738784 -0.042116135 -0.030112172
0003b0 3f 09 0c be 40 06 fe bd c2 c1 a1 bd 30 6e 68 3d
       -0.13675402 -0.12403536 -0.078982845 0.056745708
0003c0 da 42 1d 3d e9 4c d9 bc 9a fb 3d 3d 03 08 84 bd
       0.038393833 -0.026525931 0.046382524 -0.064468406
0003d0 56 92 9b 3d 3b 7c 85 bd 01 f7 07 be 01 21 71 bd
       0.07596271 -0.06517836 -0.13277818 -0.058869366
0003e0 41 1c e5 bd 67 e3 91 3c 0e b3 d7 3c dc 95 af 3d
       -0.1118703 0.01780863 0.026330497 0.08573505
0003f0 6e 36 f1 bd c8 e0 86 3c f3 df 68 bc ff 9e d4 ba
       -0.1177796 0.016464606 -0.01421355 -0.0016221701

bias_ih_l0 f4 [768]
000000 5e 0a a0 bd bd 8f df bd 4b 6f f3 3c 01 12 83 3b
       -0.078144774 -0.10916088 0.029716155 0.003999949
000010 75 14 ec bd 06 97 cb bd 48 9b d9 bc 38 63 63 bd
       -0.11527339 -0.09940915 -0.026563302 -0.055514544
000020 55 bf 6c bd 2a 8f 09 ba 85 88 1b 3d d8 78 0e be
       -0.057799656 -0.00052474684 0.037971992 -0.13913286
000030 62 c8 16 bd 42 d5 7a bd 3e c6 e6 bd 72 78 07 3d
       -0.036812194 -0.061238535 -0.112682804 0.03307385
000040 53 17 dc bb ff 74 32 be f9 ee a5 bd fd ae e9 bc
       -0.0067166477 -0.17427443 -0.08102221 -0.028525824
000050 90 11 df bd d3 42 60 bd ba ad 11 be a1 62 ce 3c
       -0.10892022 -0.05475123 -0.14226428 0.025193514
000060 79 d0 62 3d f1 e9 81 bc 1f 82 f1 bc 69 bb 26 bd
       0.055374596 -0.015858622 -0.029480992 -0.040706072
000070 88 1a b2 bd 2a 65 33 bd 96 14 98 bd cc 82 f7 bd
       -0.08696467 -0.04379765 -0.074258015 -0.120854944
000080 67 11 94 bd 8a f9 e6 bd d5 cd e8 bc 12 4f 83 bd
       -0.07229882 -0.112780645 -0.02841846 -0.06411566
000090 1e 39 59 bd 89 fb 91 bc 96 8d 1d bc b0 04 97 bd
       -0.053032987 -0.017820137 -0.009616276 -0.07373941
0000a0 8a 5d d5 bd e6 3b 8c bc fd 85 ba bd 1c 96 e6 bd
       -0.10418232 -0.017118406 -0.091075875 -0.112591
0000b0 17 08 83 3c 30 62 46 be 86 78 7d bc 85 02 bd bd
       0.015995068 -0.19373393 -0.01547063 -0.09228996
0000c0 5c 9c 21 bc 95 fe 25 3d 2c ec c6 bd b5 83 11 be
       -0.009863939 0.04052599 -0.09713015 -0.14210398
0000d0 4b ca 1d bd 03 75 70 bd 62 2c ea bd a4 81 64 3d
       -0.038523 -0.05870534 -0.114342466 0.055787697
0000e0 7c b0 ae 3b 63 5c ce bd 36 06 e5 3c 01 6b aa bd
       0.005331097 -0.10076215 0.027957063 -0.083211906
0000f0 94 3e 00 3d 55 3b a5 bd c7 4a 7b 3d b6 9f 3c bd
       0.03130968 -0.08067957 0.06135061 -0.04605075
000100 65 c8 f0 bc 07 62 cd bc dc 3f 3f 3d c6 3d 10 bd
       -0.02939243 -0.025071157 0.04669176 -0.03521516
000110 40 00 ef bd 56 ca 68 3d fd 79 65 bc a9 c3 0c 3d
       -0.116699696 0.056833588 -0.014006135 0.034366284
000120 13 6e b2 bc ff 6a b2 bd 48 02 c8 bc 35 97 70 3d
       -0.021781003 -0.08711814 -0.02441515 0.058737952
000130 6e 57 b3 bd 2c 2b 7e 3c 36 7a 08 bd 99 4f 28 bd
       -0.0875691 0.015513223 -0.033319674 -0.041091535
000140 b0 de 2a be d2 db 92 3c c6 eb 7e bd bb 1c 03 be
       -0.16686511 0.017927084 -0.06223657 -0.12803929
000150 e3 e1 aa bd a9 6d 0d bd 5e d6 82 bd 41 1e 7d bc
       -0.08343866 -0.03452841 -0.063885435 -0.015449108
000160 b8 5b 9e bd 65 78 05 3d 30 62 7f bd 48 23 44 bd
       -0.07732338 0.03258552 -0.0623495 -0.04788521
000170 a0 8b bd bc ce 58 06 3a 6f b1 56 bc 86 8e a6 bc
       -0.023137867 0.0005124927 -0.013103827 -0.020331632
000180 74 ec 2d bd 1e c5 36 bd 6b 66 30 bc 63 cb db bd
       -0.042461827 -0.04462158 -0.010766606 -0.10732152
000190 26 b4 d2 bc 56 53 9c bd 8e ce 21 3a 92 32 40 3d
       -0.025720667 -0.076330826 0.00061724416 0.046923228
0001a0 3e 3d c0 3c eb d1 67 bd c7 db 03 be bf 9c d1 bc
       0.023466703 -0.056596678 -0.12876807 -0.025587438
0001b0 33 9e b3 bd 6a f2 87 bc 69 9c 19 3d 42 50 31 bd
       -0.087704085 -0.016595084 0.03750268 -0.04328943
0001c0 0a a9 cf bd a9 a4 25 bd b0 87 08 bb d9 d4 65 3b
       -0.101396635 -0.040440235 -0.002083283 0.0035069494
0001d0 53 5f 5f bd b6 39 0d be 4f 1f 60 3d 97 7d 33 bd
       -0.054534268 -0.13791546 0.05471736 -0.043820944
0001e0 4e 0e 32 bd cb 51 b7 3a 37 3d 40 39 a0 a7 4b bd
       -0.043470673 0.0013986168 0.00018333351 -0.049720407
0001f0 86 50 43 3d 58 d0 01 be e3 4b a7 bd 67 c1 02 bd
       0.047684215 -0.12677133 -0.08168771 -0.031922724
000200 30 38 1b bd 87 07 73 bd ce fd a4 bd a4 54 ee 3c
       -0.03789538 -0.05933335 -0.08056222 0.029093094
000210 e3 b7 b3 bd 7e af bb bc 67 9b f0 bd 22 f6 50 bd
       -0.08775308 -0.02291083 -0.11748391 -0.05101598
000220 e3 f9 8e bd 12 73 2c 3d 9b ac 06 3d ce 3c 7b bd
       -0.06981256 0.042101927 0.032879453 -0.061337285
000230 51 19 56 bd 92 b6 36 be 85 8b f6 bc 97 81 c5 bd
       -0.052270237 -0.17843083 -0.030095825 -0.09643858
000240 88 46 1c bd c5 87 11 3c 5f d7 10 bd 12 4b 2e bd
       -0.0381532 0.008882468 -0.035361644 -0.04255206
000250 53 4d c4 bd ee 17 03 bd ad 40 19 bd 2c 3c 8c bd
       -0.09585061 -0.032005243 -0.037415195 -0.068474144
000260 f4 dd 2e bc 9f ae cf bd a5 19 b7 3c 5b 65 4e bd
       -0.010673035 -0.10140728 0.022351095 -0.05038963
000270 a4 ef 8f bd 40 85 fd bd dd 33 4c 3d 55 4c 2b bc
       -0.0702813 -0.12378931 0.04985415 -0.010455211
000280 9b 80 02 be 5f f5 a0 bc ff d8 17 bd 5b a8 02 38
       -0.12744372 -0.019648252 -0.037072178 3.115121e-05
000290 94 96 eb bd 67 b1 80 bd 60 6e b1 bd 2e e1 08 bd
       -0.1150333 -0.06283837 -0.086636305 -0.033417873
0002a0 d8 b4 bb bc df 3c 80 bd 27 a5 a7 bc 42 07 4c bd
       -0.022913381 -0.0626161 -0.020464493 -0.04981161
0002b0 cc 4f 33 bd 27 74 aa bd d4 6b e3 3c 01 b7 97 bd
       -0.043777272 -0.083229356 0.027761377 -0.07407952
0002c0 fa 97 68 bd e0 d3 c4 bd 33 7d 87 bd d2 74 cc bd
       -0.05678556 -0.096107244 -0.06615677 -0.09983219
0002d0 31 32 29 3d 47 58 05 be 06 21 7b bd 08 d7 cb bd
       0.041307632 -0.13021956 -0.06131079 -0.09953123
0002e0 72 4b 93 bb 52 f2 c4 bd 19 4d 5b bd 42 ef 5a bc
       -0.0044950778 -0.096165314 -0.053540323 -0.013362708
0002f0 93 39 80 bc 2c 2d a3 3c bf 34 73 bd af 94 97 bd
       -0.015652454 0.019919 -0.059376474 -0.07401406
000300 ed 7b 03 3d 1c 89 80 bd e9 1e e6 bc b0 f1 d4 bd
       0.032100607 -0.062761515 -0.028090911 -0.10397661
000310 70 f1 92 bd 93 3c 9e bd 1f ed 0d bd 77 6b eb bc
       -0.07174957 -0.07726397 -0.034649964 -0.028737767
000320 47 18 a4 bb e9 25 ef bd 47 0e e2 bc 84 b8 12 3d
       -0.005007777 -0.11677153 -0.027594699 0.0358205
000330 98 d0 e4 bc b6 96 48 bd fe 50 c5 bd 5c 85 0c be
       -0.027931497 -0.048971854 -0.09634589 -0.13722748
000340 f0 f1 0e 3d 6c 16 b2 bb 16 78 71 bd e4 d4 51 bc
       0.0348987 -0.005434802 -0.058952413 -0.012807105
000350 96 46 1a 3c 2a e8 51 3d bd 10 5b 3d 55 5d e9 bb
       0.009416243 0.0512468 0.05348276 -0.0071217217
000360 07 76 cf bb 7c 0c bc bd 83 6f b4 ba 4a 59 48 bd
       -0.0063312086 -0.09182069 -0.0013766143 -0.048913278
000370 4e 51 02 be 0a 5a 3d 3a 38 df 0c bd d4 a4 80 bd
       -0.12726328 0.00072231947 -0.034392565 -0.062814385
000380 ac c7 04 3d 5b 05 d5 bd 6b 62 f5 bd 83 cd ca bd
       0.032416984 -0.10401412 -0.11981662 -0.099024795
000390 ce 3a 57 bc da 0e 3f bd df 05 dd bc ba f7 2f bd
       -0.013136579 -0.046645023 -0.026980339 -0.04296086
0003a0 51 b5 b0 3c 2c f7 86 bd 70 2f 8e bd c2 04 24 3a
       0.021570833 -0.06590113 -0.06942642 0.00062568125
0003b0 75 30 20 3c 59 a8 b6 bb 26 e6 60 bd a7 0f ce bd
       0.009777178 -0.005574268 -0.054906987 -0.10061579
0003c0 84 e6 33 bd 7b a5 00 be e6 18 5f bd a5 ef 57 bd
       -0.04392101 -0.12563126 -0.054467104 -0.052718777
0003d0 c1 c2 99 bd 5a 16 5c bd 98 c1 11 bd d5 00 12 bd
       -0.075078495 -0.053732254 -0.035585016 -0.035645325
0003e0 d5 c4 b7 ba ad 13 23 bd ff 11 1a be 25 7e 9e bd
       -0.0014020453 -0.039813686 -0.15045927 -0.07738904
0003f0 30 c4 8f bd c3 2f c8 bc ee 43 4f bd 31 9e 29 be
       -0.07019842 -0.024436837 -0.050601892 -0.16564251

bias_hh_l0 f4 [768]
000000 9f 95 c1 3c 5f 9e d6 bd 91 c8 43 bd 6b 4d 07 3d
       0.023630915 -0.10479426 -0.047798697 0.033032816
000010 42 30 8b bd 6b 8a a0 bd 42 f8 4b 3d 96 e9 ac bd
       -0.06796314 -0.07838901 0.049797304 -0.084429905
000020 91 89 82 bc ee e1 10 3d d4 e9 61 bd 86 16 4b bd
       -0.015934737 0.035371713 -0.055154637 -0.049582027
000030 a0 cd 02 be ca 4d 97 bc 4b c1 9a bd f8 21 91 bd
       -0.12773752 -0.01846971 -0.07556399 -0.07086557
000040 ca f0 1a 3c e9 0c a8 bd f6 d0 ef bd 26 b2 b7 bc
       0.009456823 -0.082055874 -0.11709778 -0.022423815
000050 62 52 11 bd d5 76 c1 bc 52 dd 7d bd e7 e6 84 bd
       -0.035478957 -0.023616234 -0.061978646 -0.064893536
000060 7f e0 8f bc 97 aa a1 bc 5b 98 f0 3c d3 75 47 bd
       -0.017563103 -0.019734664 0.029369524 -0.04869635
000070 90 cc c6 bd b1 ea cb ba 89 80 9b bd c1 42 1f bc
       -0.09706986 -0.0015557614 -0.075928755 -0.009720505
000080 ec 8f 8f bd 80 49 df bd 80 7c 51 bd 20 82 d4 bc
       -0.07009873 -0.10902691 -0.051144123 -0.025940955
000090 29 39 e3 3b ee 73 42 bd ac e3 15 3d 45 9c ea bd
       0.0069343043 -0.04747384 0.036594078 -0.11455587
0000a0 1c e8 15 be e0 af 7d 3b ac 76 e8 bd 09 de af bc
       -0.14639324 0.0038709566 -0.1135076 -0.02146818
0000b0 9e e0 32 bc b4 86 ff bd 21 81 e8 bd 04 27 b8 bd
       -0.010917811 -0.124768645 -0.113527544 -0.08991817
0000c0 bd b1 46 bd 08 c9 f6 3a 28 01 f2 bd 08 a1 24 be
       -0.04850935 0.0018828223 -0.11816627 -0.16077054
0000d0 8c b2 ba bc ec c3 93 3c 87 ff 03 be 66 23 ad 3c
       -0.022790216 0.018037759 -0.12890445 0.021135043
0000e0 2d 27 66 bc 69 0d de bc 6d cd 3e bd 4a 07 71 bd
       -0.014047426 -0.027106004 -0.046582628 -0.058844842
0000f0 ac 2b 85 bc d8 2e 10 bd 5a 1d 9b 3c 87 1a 15 bd
       -0.016256176 -0.035200924 0.018934894 -0.03640225
000100 74 1b e2 bc 98 7f 16 bd 0d 97 34 3d fd 6c cc bd
       -0.027600981 -0.036742777 0.044089366 -0.09981725
000110 b9 bf 2f bd f0 4c 43 3d 02 85 95 3c c6 62 45 bc
       -0.04290745 0.047680795 0.0182519 -0.012047475
000120 b8 67 8b bd c7 44 b4 3b b2 ab d1 3c b5 51 22 bd
       -0.06806892 0.005501363 0.025594566 -0.039628703
000130 98 15 37 bc cc 62 99 bd 3e f1 9d bd db 8f 42 bc
       -0.011174582 -0.07489547 -0.07712029 -0.011875118
000140 96 cd a9 bd 52 76 c2 bd c3 a6 97 bd 3e 0f 7e bd
       -0.082911655 -0.09495224 -0.07404854 -0.062026255
000150 b9 0e c7 bd e2 1d 01 3d ca dd a3 bd a5 5e 34 bd
       -0.09719605 0.03152264 -0.08001287 -0.044035573
000160 bf fb 51 bd 51 40 40 3d 23 65 c3 bb c7 ab 30 bc
       -0.051265474 0.046936337 -0.005962984 -0.010783142
000170 e2 47 8f bc 00 1c 2f 3d 63 49 9d bc 25 95 20 bd
       -0.017490331 0.042751312 -0.019200033 -0.039204735
000180 ef e5 46 bc f7 f7 ca bc ba 01 20 bd 3e 1b 5e be
       -0.012139781 -0.024776442 -0.039064147 -0.2169008
000190 8d 62 4d bd 8a 17 17 be f9 d0 3f bd 4c 44 dd 3c
       -0.050142813 -0.14755073 -0.04683015 0.027010106
0001a0 0e 2e c8 3c 59 e2 79 3d de 3f 2c be 93 96 8e bd
       0.024436023 0.061006878 -0.16821238 -0.069623135
0001b0 5e 88 c5 bd b3 38 44 bd 0c 29 8c bd 62 77 ea bb
       -0.096451506 -0.047905635 -0.068437666 -0.007155345
0001c0 73 ab 57 bd bc 30 bd bc 3d 34 7c bc 8b 7b 1a 3d
       -0.05265374 -0.023094527 -0.015393314 0.037715476
0001d0 c9 20 f1 bd 3e f1 98 bd 62 0f 5f bd 5f 14 93 bd
       -0.117738314 -0.07467888 -0.05445803 -0.0718162
0001e0 dd 0e 1c bd 66 23 24 3c 9e 94 ab 3c a8 30 ba bc
       -0.038100112 0.010018205 0.02094489 -0.02272828
0001f0 2b 0d cd bc 9a 20 16 be 40 9a 4b bd d5 f9 80 bd
       -0.025030693 -0.14660874 -0.04970765 -0.06297652
000200 a8 cf 84 bd 48 c6 bc bc 2b 4c d8 bd 63 30 59 bd
       -0.0648492 -0.023043767 -0.10561403 -0.05302466
000210 2d 90 dd bd 3e b3 ac bd f1 1e 7d bc 2a 78 06 be
       -0.10818515 -0.08432625 -0.015449272 -0.13131776
000220 18 35 d1 3b 51 ba 0b 3d aa 77 16 bd f8 d2 5a bd
       0.006384503 0.034113232 -0.036735214 -0.05342385
000230 f8 ad e4 bd dc be 1b be 33 13 ea bc 38 e2 81 bd
       -0.111659944 -0.15209526 -0.028573608 -0.06341976
000240 71 f6 a4 bb 97 2f b5 3c 48 fc 45 bd 14 bb 5a 3d
       -0.005034261 0.02211742 -0.048336297 0.053401068
000250 7b 20 8a bd 51 07 35 3d 88 40 cc bd 05 3f fb bd
       -0.067444764 0.04419643 -0.09973246 -0.122678794
000260 23 7a 51 bd 9f 3c 10 be 8d bc 21 3d 80 33 58 3d
       -0.05114187 -0.14085625 0.039486457 0.05278349
000270 a9 4b 86 bd 22 77 33 bc 6f 17 45 3d 38 cd 81 3c
       -0.065574 -0.010953696 0.04811805 0.015844926
000280 4a e3 c2 bd 93 76 fc bd 9e 13 e6 3c 20 6e 59 bc
       -0.09516008 -0.12327304 0.028085526 -0.013270885
000290 62 f9 aa bd ae e4 c8 bd 75 5a b1 bd 05 19 16 be
       -0.08348347 -0.09809242 -0.086598314 -0.14657982
0002a0 bd d8 40 bd af 2c d8 bc 92 3a 48 3c b7 31 e7 bd
       -0.047081698 -0.026388494 0.0122209955 -0.11288779
0002b0 71 76 20 bd 02 87 5f bd 88 e6 64 bd ab de 98 3c
       -0.039175455 -0.054572113 -0.055883914 0.018660864
0002c0 fb 0e d5 bc 54 ad 14 be 5d 9c 6f bd 84 e9 e2 bd
       -0.02600812 -0.14519244 -0.05849873 -0.11079696
0002d0 9a 8f 29 3d 29 92 07 be b0 e7 a1 bc 21 5b 31 bd
       0.041396715 -0.1323935 -0.019763798 -0.043299798
0002e0 e6 24 2b bd 3d 8f fb bd b5 26 89 3c c9 b3 30 bd
       -0.041783236 -0.1228318 0.01674209 -0.043140206
0002f0 78 5e 23 3d 62 54 27 bd ad 19 5e bd 95 29 9c bd
       0.039885014 -0.040851958 -0.054223705 -0.07625119
000300 71 ff c8 3c f9 06 12 bd 00 e4 f4 bd c2 74 21 be
       0.024535866 -0.03565118 -0.1195755 -0.15767196
000310 4f 66 80 bd cb 1e d8 bd c6 f2 13 3c a0 12 a9 bd
       -0.06269514 -0.10552748 0.00903005 -0.082555056
000320 1a 37 2b 3c c3 82 e5 bd 45 01 57 bc ac a8 3a 3d
       0.010450149 -0.112065814 -0.013122861 0.045571014
000330 ce 55 48 bd 1b f4 d6 bd fa 8f 06 be a7 44 f4 bd
       -0.048909955 -0.10495778 -0.1314086 -0.11927157
000340 61 c2 c8 3c 5a 91 f4 bc 89 5d b0 bd 58 58 ed bc
       0.02450675 -0.029854465 -0.086115904 -0.02897279
000350 f7 0a 0d bd f5 79 b0 bc cd ba 10 3d de ab 28 bd
       -0.034434285 -0.021542529 0.035334397 -0.04117953
000360 17 09 1f 3c 85 d4 17 bd ee d1 1f bd d1 c8 83 bd
       0.009706757 -0.03706791 -0.039018564 -0.06434787
000370 76 cb 74 bd 26 ae a5 bd 3a 6c f2 bd d7 ba 9f bc
       -0.059764348 -0.08089857 -0.11837049 -0.019498272
000380 4b 93 ff 3c 44 fe fa bd 5e 0e 57 bd 25 45 c1 bd
       0.031198164 -0.122555286 -0.052503936 -0.094370164
000390 92 62 93 bd fb 2a b4 bb eb 1d c2 bb c3 e9 9e bd
       -0.07196535 -0.0054982877 -0.0059239767 -0.0775943
0003a0 82 d7 36 3d f9 43 36 bc d4 31 fa bd 0b f3 3b 3d
       0.044639118 -0.011124604 -0.12216535 0.04588608
0003b0 a1 71 bb bb e4 6e dc 3c 84 6a 35 3c 4c fa 39 bd
       -0.0057203327 0.026908346 0.011072759 -0.045404717
0003c0 79 f4 b1 bc 85 63 69 bd 00 5a f8 bb 76 73 ba 3b
       -0.021723019 -0.056979675 -0.007579088 0.0056900335
0003d0 15 84 49 bd a0 89 32 bd e6 91 0f bd 01 71 8f bd
       -0.04919823 -0.04358828 -0.03505125 -0.07003976
0003e0 44 1a 5a 3d 67 53 c5 bc 8d 6e a1 bd 5f 65 ed bc
       0.053247705 -0.02408762 -0.07882414 -0.028979002
0003f0 59 85 b7 bb 47 43 f6 bd 6d ac e5 bd bf 37 31 be
       -0.005600613 -0.12024551 -0.11214528 -0.17306422
