models/triplet_encoder.pt (torch_old, 797128 bytes, 4 tensors)

weight_ih_l0 f4 [768, 1]
00000000: 2b4b 9bbe 52c7 b33e 951c 9bbe 4c2c b03e
00000010: 7b7c 96bd 6cae 9abe 40cc 30bd 44da 86be
00000020: 0f83 4fbd c0d0 b0bd c8c9 423d 462c 30be
00000030: bfad 1ebe 5948 1fbe defc 59be 0741 72bd
00000040: d10a 38be 8610 92be 3cf1 66be b41e 1c3d
00000050: 6117 58bb 9bda 28be 805f 343e 623e a83d
00000060: 90c5 8d3d 65aa 82be 7aaf 12bd 4273 43be
00000070: ab99 b8bd 3625 9ebe b8db edbd 0c04 e2bc
00000080: e004 d93e eae1 683e 356e 28be a5f9 95be
00000090: beda 703e a116 bebd b84f 0ebd 881b b5be
000000a0: 8dda 36be 3f2e 97be dc0e 61bd 4cab 96bd
000000b0: da40 3fbe f528 60be aab4 83bd 18c5 9bbe
000000c0: fcbd 1bbd aa66 5dbc 1c06 81be 8eb3 56bf
000000d0: 8f75 11be 4b53 c1be d9a8 c6be c96e 24bd
000000e0: d409 64bd 289e 33be 524b ac3e 86bd 4fbe
000000f0: fb30 e7be 4745 fbbd 2f70 573d ef4e 86be
00000100: 2bd6 283e baf8 fabe b510 9f3e 8c01 c33e
00000110: 714b dcbd 15ba 00bf dde1 fcbe 94c8 0cbf
00000120: 57ac e5be bd97 a4be 1be6 bfbd d030 30be
00000130: 8134 c83d c5b1 06bd d151 70be 167b fbbd
00000140: b467 6bbe 3e41 93bd 1647 1a3c 0bb8 c1be
00000150: 4b12 4cbd f554 383d 5680 4abe 0df0 6fbd
00000160: cca0 9f3c 376f f6bd 8ca3 e7be b2c5 fe3b
00000170: 7de8 8ebe 2ab8 6abe f892 26be 1f91 61be
00000180: 94ef 68be c45b 883c 842d 9fbe 1080 16be
00000190: cbdd 3c3e 24be 3cbe 7dff 85be b1bd 1ebe
000001a0: eaa5 3e3d 9179 d33e 8858 abbe 9811 28be
000001b0: d650 3fbe 6d62 23be 73fc 88be 99fb 0abf
000001c0: 937b 8fbc 21b8 4abe 83eb 68be 3543 6bbd
000001d0: 10aa 13be 5b77 b5bd 787d 1abf 6f8a 1abe
000001e0: 7b0e 92bc 1435 11be e1e3 5c3e 347f b2be
000001f0: 6cca 8dbe f4e5 88be bd8c b5be 1664 6ebe
00000200: 1037 72bd 974f 87be b0d5 553d 4b6f 1a3e
00000210: 807c 29bc 3740 4fbe 0b3b babb 55ae 8ebd
00000220: 336f 2b3d c687 d1be 480f 97be dc03 cb3c
00000230: 45a8 7f3e c1cd 8bbd 6e52 4ebd b298 1fbd
00000240: f738 c8be aa04 883d 2ec6 42be a2e1 dd3d
00000250: a214 c1bd c193 213e 4567 21be 0db3 febd
00000260: 72f1 063e c1d1 38bf 4005 053e ef94 473e
00000270: b3fa 533e e2ee 82be 1d14 b9bd 7851 04be
00000280: ddb1 2fbe d290 96be b9bc d4be d2fc 47be
00000290: f459 8c3b 5ea7 babd d170 f8bd b7c8 a9bd
000002a0: 4a22 57bd 23c7 9cbd 9bcd 4fbe 92d4 4cbe
000002b0: 3b00 543c e9a0 f13e 8907 41be 730f 2fbe
000002c0: 2578 683d 443d b9bd 9d0a 64bd 3616 09be
000002d0: fdcd 36bd 3cd6 56be cdde 51bf a151 27be
000002e0: fa72 e0bd 3d28 54be e2c9 a7be 92ad 133c
000002f0: 6aa2 69be d061 983e 6732 13be efce b7bd
00000300: 6ae4 de3d 0b7e 593e 27a8 1fbd 2c35 babd
00000310: 556f ecbd 2ad4 b9be 5dbf c0bd 5a4c d5be
00000320: a924 8dbe 5641 d53c 6b4f a3be d77b 47be
00000330: d13c a9bd a1db 173d b0ba febd 231c 073e
00000340: bc68 0cbe e54d 27be dbc7 11bc bd01 bbbd
00000350: 2e3f dabd e80f 8b3e 3bd9 61bd 4c90 d4be
00000360: a08b 66be 6f12 5ebd 4ce4 88bd bd50 a4bd
00000370: 97ee 26be 36a4 e83d a7c3 9bbe 42bf edbe
00000380: b640 62be 30bc 79be af9e 01bf 3095 5f3e
00000390: 5ac8 2bbd 8b98 3d3e 8d4b 3dbe 67d8 4dbe
000003a0: 1cb6 0f3e 5507 933e 28f7 4abe f32f e1bd
000003b0: 81a8 71bc f159 93bd 7d53 2c3e a4d9 00be
000003c0: 5be4 3cbe 9bf7 5d3c 0fad 0d3e 5925 f33b
000003d0: 74c4 0ebe 26a8 7fbe 23ae c53d 2954 b93d
000003e0: 85d5 aebe 4a9f 9abe 6307 0bbe 70ac 1fbe
000003f0: 57fc ca3c abc0 12be 0d41 5fbe 0771 f9bd
-0.30330786 0.35113007 -0.30295244 0.34408796 -0.073479615 -0.30211198 -0.043163538 -0.26338398
-0.050662097 -0.08633566 0.047555715 -0.17204389 -0.15495966 -0.15554942 -0.21287867 -0.059144046
-0.17972876 -0.2852823 -0.22552961 0.03811522 -0.003297292 -0.16489641 0.17614555 0.082150236
0.06922448 -0.25520626 -0.03581188 -0.19086936 -0.09013685 -0.30887765 -0.11614174 -0.02758982
0.42386532 0.2274243 -0.1644829 -0.29292026 0.23520944 -0.0928166 -0.034743994 -0.35372567
-0.17856808 -0.2952747 -0.05494581 -0.07356891 -0.18677083 -0.21890624 -0.06430943 -0.30423808
-0.03802298 -0.013513247 -0.25199974 -0.8386773 -0.14205001 -0.3775886 -0.38800696 -0.040144715
-0.055673435 -0.175408 0.33651215 -0.20287141 -0.45154557 -0.12269073 0.05259722 -0.26232097
0.16487949 -0.49017888 0.31067434 0.38087118 -0.10756577 -0.5028394 -0.4939107 -0.5499356
-0.44858047 -0.32147017 -0.09370061 -0.1720612 0.09775639 -0.032884378 -0.2346871 -0.12279336
-0.22988778 -0.07190178 0.009416362 -0.37835726 -0.049822133 0.045002896 -0.19775519 -0.05857854
0.019485854 -0.12032931 -0.45241964 0.007775032 -0.2791175 -0.22921816 -0.16267002 -0.22028016
-0.22747642 0.01664532 -0.31089413 -0.1469729 0.18443982 -0.18431908 -0.26171485 -0.15502049
0.046544947 0.41303685 -0.3346598 -0.16412961 -0.1868318 -0.15955515 -0.26755103 -0.5429016
-0.01751498 -0.19796802 -0.2274609 -0.05743714 -0.14420342 -0.08860656 -0.603477 -0.1509187
-0.01782917 -0.14180404 0.21571304 -0.34862673 -0.27693498 -0.2673794 -0.35458937 -0.23280367
-0.059134543 -0.2642791 0.05220574 0.15081517 -0.0103446245 -0.2023934 -0.005683308 -0.06966845
0.041854095 -0.409239 -0.29503846 0.024782114 0.24966533 -0.06826354 -0.05037158 -0.03896398
-0.3910596 0.066415146 -0.19020912 0.10834052 -0.094277635 0.1577902 -0.1576205 -0.12436495
0.13178042 -0.7219506 0.12990284 0.19490407 0.20701103 -0.25572878 -0.090370394 -0.12921703
-0.17157693 -0.29407364 -0.41550234 -0.19530037 0.004283184 -0.09113954 -0.12130893 -0.082902364
-0.052522935 -0.0765517 -0.20293276 -0.20002964 0.012939508 0.47193077 -0.1885053 -0.17095737
0.056755204 -0.090448886 -0.055674184 -0.13387379 -0.04463004 -0.20980161 -0.8198059 -0.16339733
-0.1095943 -0.20718475 -0.32771212 0.00901355 -0.22815862 0.29762125 -0.14374696 -0.08975016
0.1088341 0.21239488 -0.038978722 -0.09092173 -0.115446724 -0.3629468 -0.094115 -0.41659814
-0.27567032 0.026032131 -0.3189653 -0.19480835 -0.08263553 0.03707469 -0.124379516 0.13194327
-0.13711828 -0.16338308 -0.008897747 -0.09131191 -0.10656582 0.27160573 -0.055138808 -0.4151634
-0.225142 -0.0542168 -0.06684169 -0.08023212 -0.16301952 0.11359446 -0.30422708 -0.4643498
-0.22094998 -0.24388194 -0.50632757 0.21834254 -0.041939117 0.18515222 -0.18485852 -0.20102082
0.14034313 0.2871653 -0.19820845 -0.10995474 -0.014749647 -0.07194889 0.16828723 -0.12583023
-0.18446486 0.013547803 0.13835548 0.0074202237 -0.13942128 -0.24966487 0.096523546 0.090492554
-0.34147277 -0.30199653 -0.13577037 -0.15593123 0.024778528 -0.1433131 -0.21802159 -0.121797614

weight_hh_l0 f4 [768, 256]
00000000: 48d4 1bbe 1e05 673e 6fe8 753e 1f0d 393e
00000010: 1e2a ebbd 49cf 033d 687d 4d3d 8c1b fc3d
00000020: 6f7d 193c ab14 713d 7af9 103e 1d77 00be
00000030: f0e8 65bd bf8d 2ebe cd76 8c3e 07cf 723d
00000040: 8f5d 8bba f507 2d3e 7eb0 9f3d 0976 b83c
00000050: 12aa 41be 237c 07be 64ed 7f3e e15e 803d
00000060: d1c7 64bd 0e26 44bd 8174 ddbc ab6c cebd
00000070: 6678 05be 62be 0d3c f368 e63c ff2e 103e
00000080: 40cb 033e a20d 20be b419 32be 60ee 5b3e
00000090: 64b5 a93d e37e 943d 9ee8 22bd f0d5 b9bd
000000a0: f8a8 433d bc69 68bd 2d8b 293d 601f fdbd
000000b0: 673e 7d3e 56e9 1d3e 5dd7 2cbe 9f4b 61bd
000000c0: 67f4 ff3d ec6f 43be 81a6 8739 14e5 87bd
000000d0: 9e23 0d3e 2b56 32be f897 163b 7965 82bd
000000e0: fa0c 873d aab2 c93b bca1 cebd cc10 6fbc
000000f0: e28e 10be 9b49 fa3d 67c3 d33c 7165 db3b
00000100: c727 99be 388b b23e 8417 e9bd f574 67be
00000110: 028c 37bb 3969 1d3d 039e c7be 5408 423e
00000120: a8c3 9a3d 1efd 5dbe 8f56 283c d193 72bc
00000130: 6aa4 c13d 4f98 a5bc ea4f 73bd 8983 d63c
00000140: 49ac eabd fed8 bcbc 9aa1 bebd 49be f33d
00000150: 4dfa e8bd 97d0 153e a164 ec3c 070d 87bd
00000160: c8f0 80bd ecf4 30bd a9a6 1f3e 7d12 d53d
00000170: 2977 1abe 95de ff3d 3194 8f3d f0cd 47bc
00000180: 4733 79be 5030 26be 72d8 893d 7eac 263e
00000190: e050 cdbd baaf 7fbd 2664 26bd 0485 b93c
000001a0: 86a6 71bc cd63 1bbe 7562 313d fc9b 103e
000001b0: 4b0b ad3b 011f 27be 4c21 39be b418 99bd
000001c0: 097c 13be 3ecc 023e e7ae 9bbc 6d2b edbd
000001d0: 85f7 883d 2270 83bc 13c5 55be d0a8 dd3d
000001e0: bb09 933d b45a 07be d923 a03d d385 ad3d
000001f0: 83a6 913d e3d3 a2bd 79b2 83be 4862 603d
00000200: 74a7 0dbe d562 c33d a1a4 89bc 915d 633c
00000210: 2350 f0bb d924 f4bc 66f8 b33d 2cb3 43be
00000220: 0432 f53d 00cb 163e 96ab 11be 2ca1 f0bc
00000230: bef5 52bd c981 a33d 2a61 45bd cc88 123e
00000240: 5fad b5bd a4fc 043e c4ff edbd 9da2 10be
00000250: 5e9c 8dbd 8eb8 ffbd 19ee e1bd 7876 c93d
00000260: f257 223d 2f52 b43d 57cc 96be 9e91 3a3c
00000270: 7cf1 a6bd 6c56 bebd acb7 9e3c 5071 363d
00000280: f4e9 2e3c bfe0 4f3e 78cd 033e 1106 89be
00000290: a6c3 02bd 31d8 a7bd 8323 14be bb5f da3d
000002a0: 9f8e 85bd d99f e6bb 28ac 2cbe 1be8 fa3c
000002b0: 46cc ddbd a49c 49be d893 8ebd bfa6 2a3e
000002c0: 78b5 15bd 4713 d3bd e32b 82bc e1ea 963c
000002d0: be67 7d3d 5ecd 81bd b439 e43b 7cf2 2ebe
000002e0: b3d6 debc 3b42 02bd e067 d9bd a2ca eebd
000002f0: 8f75 5abe fd48 893e 4075 f0bd ca23 223d
00000300: 799f 0a3e 793e 0f3d 68aa 483e 8082 d63d
00000310: 5812 b5bd 9356 50be 8f4d 063e 88e9 31be
00000320: 9d68 3abe b2c2 dabd 313a f13c 9cf6 363e
00000330: a997 56bd 2d0e 95bd 634c 7d3c d38b d5bc
00000340: d34d afbd 6494 a83a 8d7b 11be a40d b43c
00000350: 4c8a 8f3e 67c3 1dbe 5415 b23d 4043 043e
00000360: f2f1 babe 690a 7ebd 5783 a2bd 0793 de3d
00000370: c20f 57bd 23fe c9bd e459 123e 4ffb 283e
00000380: 5f59 57be 9705 73bc bd6c a7bd 3aad 443e
00000390: 3c38 f03d ad39 78bd f68e b23d 1573 a6bd
000003a0: 1492 d0bd 4876 1bbe 0ca1 53be 714b f1bd
000003b0: fddb 3fbe 9a8c 9bbc 99bd 1d3e c221 91bc
000003c0: a2f3 1abd 5e28 2bbd 73b5 51bd 09bf 613c
000003d0: ce1b 773d f277 05be 143d 9abd af05 1d3e
000003e0: b751 f33d 7c1e 62be 052a 1dbe 4dda 1ebe
000003f0: 7fbf 28be baf5 933d 8193 5bbe e30a f73d
-0.15217698 0.22560546 0.24014448 0.18071412 -0.114826426 0.032180104 0.050168425 0.12309942
0.009368285 0.0588576 0.14157668 -0.12545438 -0.05613035 -0.1704626 0.27434388 0.059279468
-0.0010632741 0.16897567 0.07797335 0.022517221 -0.18912533 -0.13230948 0.24992901 0.06268097
-0.055854622 -0.047887854 -0.027033092 -0.100793205 -0.1303421 0.008651348 0.028126216 0.14080428
0.12870502 -0.156302 -0.17392617 0.21477652 0.08286551 0.07250764 -0.039772622 -0.090740085
0.047768563 -0.05674146 0.041392494 -0.123595 0.24730836 0.15421042 -0.1687903 -0.05500376
0.12497788 -0.19085664 0.00025873262 -0.0663549 0.13783118 -0.17415683 0.0022978764 -0.063670106
0.06594272 0.0061553316 -0.10089442 -0.014591407 -0.14117005 0.122210704 0.025850011 0.0066954424
-0.2991316 0.3487184 -0.113814384 -0.2260321 -0.0028007035 0.038430426 -0.3898774 0.1894849
0.0755685 -0.21678588 0.010274543 -0.01480575 0.094551876 -0.020214228 -0.059402384 0.026185768
-0.11458642 -0.023052689 -0.09308167 0.119015284 -0.11375866 0.14630352 0.028856577 -0.06594282
-0.062959254 -0.043202326 0.1559092 0.10403917 -0.15084518 0.12493626 0.07010687 -0.012195095
-0.24335967 -0.16229367 0.06730737 0.16276738 -0.10025191 -0.062423445 -0.040622853 0.022646435
-0.014749175 -0.1517479 0.043306787 0.14122003 0.0052808872 -0.16320421 -0.18079108 -0.07475415
-0.14402784 0.12773225 -0.019004298 -0.115805484 0.066878356 -0.01604468 -0.20875959 0.10823214
0.0717959 -0.13218194 0.078193374 0.084727906 0.07111838 -0.079505704 -0.257221 0.05478123
-0.1383341 0.09540335 -0.016802134 0.013877288 -0.007333772 -0.029802727 0.087876126 -0.19111317
0.1197243 0.14725876 -0.14225611 -0.029373728 -0.05150389 0.07983739 -0.048188366 0.14309996
-0.088709585 0.12987 -0.11621049 -0.14124532 -0.0691459 -0.12486373 -0.11031742 0.09837049
0.039634652 0.08804738 -0.29452774 0.011387257 -0.08151528 -0.092938274 0.019374691 0.044541657
0.010675896 0.20300578 0.12871349 -0.2676244 -0.031924866 -0.08195532 -0.14466672 0.106627904
-0.065213434 -0.0070380983 -0.16862547 0.030628255 -0.10829978 -0.1968866 -0.06961793 0.16665171
-0.036550015 -0.10306411 -0.015890067 0.018422546 0.061866514 -0.06337999 0.0069648866 -0.17084688
-0.027201986 -0.031801444 -0.10615516 -0.11659743 -0.21333908 0.26813498 -0.11741114 0.039584912
0.13537396 0.034971688 0.19596255 0.1047411 -0.088413894 -0.20345525 0.13115524 -0.17374241
-0.1820397 -0.106816664 0.029446693 0.17867512 -0.05239073 -0.072780944 0.015460107 -0.02606765
-0.08559766 0.0012861607 -0.14207287 0.02197916 0.280352 -0.15406571 0.08695474 0.12916279
-0.36512715 -0.062021647 -0.07935207 0.10867887 -0.052505262 -0.09862926 0.14292103 0.16502117
-0.21030186 -0.014832876 -0.08175037 0.19206706 0.11729476 -0.06060188 0.08718674 -0.08127419
-0.10184112 -0.1518184 -0.20666903 -0.117819674 -0.18736263 -0.018987942 0.15404357 -0.017716292
-0.037830003 -0.041786544 -0.051198434 0.0137784565 0.06032925 -0.13034037 -0.07531181 0.153342
0.1188082 -0.22081941 -0.1534806 -0.15512963 -0.164793 0.07224603 -0.21442987 0.12062623

bias_ih_l0 f4 [768]
00000000: e964 1abe 1eb2 6939 859d 9fbc 5581 17bb
00000010: 52f8 493e 9e8e 59bd ff45 37bd 8890 22be
00000020: 232e 8b3d d7aa 8fbd 6e40 593d c14c 97bd
00000030: 33b1 543c 101a 3cbe 9dc5 30be fc5a 9cbd
00000040: de62 dd3d 77a2 16be 97e5 6fbd 7b55 5fbd
00000050: 1777 fdbd d4d9 b7bd cbd4 bd3b 24c7 36be
00000060: 7610 0dbe 4d74 c33d 2341 ab3d add4 eabd
00000070: 32d6 abbb 15f3 c3bb 52ca 20be c236 803d
00000080: b6c8 923c d606 473d 7230 753d 0959 6dbb
00000090: 9e21 133d 6a8b 2e3d af22 1e3c b774 bbbd
000000a0: 6a92 0fbe 50e4 92bd dc2f 5fbd 6e0b 02bc
000000b0: fb78 23be bdc9 20be 9d29 003e 8c94 bdbd
000000c0: 8eff 64be e7d0 85bc 7ce3 bfbd 4976 bcbc
000000d0: 6302 09bd 1f19 95be 0698 d6bc 62d6 4c3c
000000e0: 15d9 a5bd 6e7f 673d f675 e9ba aca9 bdbd
000000f0: 331e 16bd e275 80bd 655c b0bc ae51 0dbe
00000100: 2f09 293d 4e16 9cbd c244 df3d 0808 163d
00000110: c535 2abd 5f4d 963c c6a3 0fbd 116e 84bd
00000120: 29ff f8bd 0f8a 6d3d f8cc ae3d f3d1 04bc
00000130: 9198 2dbe 8513 7b3c bd02 66bd 8b07 dfbd
00000140: 1bc0 92bd f822 74bd 2f1b 613d e317 1ebe
00000150: 9792 59bd b8de 973c d4bb 22be b996 95bd
00000160: 4cc6 263c 6e5d b2bd 906c eabd 876a 9bbc
00000170: 1c15 523d 4c2b 88bd faff f8bc 4688 16be
00000180: 572e abbd 4903 d73d 5104 a43d 79f1 883d
00000190: 3399 223d 9904 90bb a26e f6bd a465 73bc
000001a0: 3c02 d63d 4ab5 913d 6101 c7bd 7db3 89bd
000001b0: f45c 77bd ae40 7cbd 7223 ea3d 6c09 883c
000001c0: a948 cc3d 067e d3bb a8bc 3ebc c899 24be
000001d0: bf6b 8bbd 920c d9bc 964a eabd 6a86 f6bd
000001e0: b427 853d 8d7c 363b 0fd2 043c 238d 713d
000001f0: a181 d7bc 2068 debc 73bb 6ebd 1812 1e3d
00000200: fb76 efbd 4107 a7bd 1e06 d13d c839 32bd
00000210: 758d 35be 029f 6c3d 32b6 6a3d 2a30 c7bd
00000220: 31cc 27be b1dd bbba f33a 553d a31b 57bd
00000230: 70ff edbd 9512 763b 5c47 f5bd 891a a93d
00000240: 5165 aebd 8102 e9bd 3dc7 fabd fe9f 0cbe
00000250: 6a36 613c 1bff 69bd f04a d33c 9e3d 9cb9
00000260: fa2c 1dbe d6db 8fbd 7a0c 3ebe d562 183d
00000270: 794d 95bd 7c9b c0bd b9cb 973d e594 aebd
00000280: 25a6 3d3d e1f2 d7bc 8fce f23c f759 32be
00000290: f838 25bd bab6 81bc b183 07bb 6b39 753d
000002a0: 466c fabc a013 f83c 75a9 ecbc a0d1 91bc
000002b0: f8b8 7e3c bb9c f43d 318e 40bd b352 d0bc
000002c0: 9d3f 8c3a 1082 f33d 890f 64bd 5123 9bbd
000002d0: 3e52 2b3c e98d efbd f3ed 11be 87b3 443d
000002e0: fff9 253c 37eb 02be a19a 61bc 0e13 00be
000002f0: 02ca a13c fabd 983d 88d8 cdbd 62b6 66bd
00000300: 9e20 0cbe b0ce 47bd 8f92 18be dd89 293d
00000310: 0962 503d 556b 5bbd 8d46 c1bd 35d4 5fbd
00000320: c629 d0bd 9d2b 21bb da98 b63c ffee bdbc
00000330: 8c78 e4bc f90c 98bd 98cd 0abe bd7f 15be
00000340: 92e2 79bd 160a 9cbc cf03 fdbd 0a06 e5bd
00000350: 31e2 1ebe c324 68bd c0cb 703d 3cf7 39be
00000360: 8a0e a5bd c375 4bbd aae5 7f3d c7e6 b2bd
00000370: 19d6 b2bd 725e b73d 4153 07be c2f6 d4bd
00000380: 8d0b 4d3d c24c cfbd 7b03 513c 088a 8d3d
00000390: f44a 3fbd a652 683c a108 073d c4dd 3bbd
000003a0: 81e9 2e3d e9da c43d 8a55 81bc fd65 013d
000003b0: 702e 9ebc e491 9d3d b7e2 533d 2bda 783c
000003c0: bd1f babc 128a 96bc 1a56 923d cce7 85bd
000003d0: 4c31 bfbc 9c22 54bd 6c59 013d d7f2 1cbc
000003e0: 93a7 abbb fdb4 8abd 0a36 2cbd f7b3 3b3d
000003f0: 6e5c 35be f194 81bd 5b5b 75bd 3f9a 31bc
-0.15077557 0.00022286965 -0.01948429 -0.002311786 0.19723633 -0.053114526 -0.044744488 -0.15875447
0.06795909 -0.07015007 0.05303996 -0.073876865 0.012981701 -0.18369317 -0.17262883 -0.076345414
0.10809873 -0.14710413 -0.058568563 -0.05452488 -0.1237623 -0.08977094 0.005793189 -0.17849404
-0.1377581 0.09543667 0.08362033 -0.11466346 -0.00524404 -0.0059799054 -0.15702179 0.06260444
0.017917972 0.048590504 0.059860654 -0.00362164 0.03592073 0.042613424 0.009651824 -0.09153121
-0.14020696 -0.071724534 -0.054489 -0.007937295 -0.15964119 -0.15701957 0.12515874 -0.09256849
-0.22363111 -0.016334964 -0.09369561 -0.023005622 -0.03344954 -0.29120728 -0.026195537 0.012502285
-0.08098046 0.05651801 -0.0017811644 -0.09260878 -0.036649894 -0.06272484 -0.021528432 -0.1380069
0.041268524 -0.07621442 0.109017864 0.036628753 -0.041555185 0.01834744 -0.035068296 -0.06466306
-0.12158043 0.05799299 0.085351884 -0.008106696 -0.1695273 0.015324478 -0.056154955 -0.108901106
-0.071655475 -0.05960366 0.054957565 -0.154388 -0.053118315 0.018538818 -0.15891963 -0.07304139
0.010179114 -0.087092265 -0.11446488 -0.018971695 0.051289663 -0.06648883 -0.030395497 -0.14700422
-0.08358448 0.104986735 0.08008636 0.06686682 0.039696883 -0.0043950793 -0.1203282 -0.014855776
0.10449645 0.07114656 -0.0971706 -0.06723688 -0.06039138 -0.06158512 0.11432542 0.016606055
0.09974796 -0.006454232 -0.011641659 -0.16074288 -0.0680766 -0.026495252 -0.114400074 -0.12037356
0.065017134 0.0027845234 0.0081067225 0.05897249 -0.026306929 -0.02714926 -0.058284234 0.038591474
-0.116926156 -0.081556804 0.10206245 -0.043512136 -0.17729743 0.05776883 0.05730266 -0.097259834
-0.16386487 -0.0014333037 0.05205817 -0.05251659 -0.116209865 0.0037547697 -0.11976501 0.08257014
-0.08515418 -0.11377431 -0.12245033 -0.13732907 0.0137458835 -0.057128053 0.025792569 -0.00029800547
-0.15349188 -0.07024352 -0.18559447 0.03720363 -0.07290167 -0.09404656 0.07411904 -0.08524493
0.046301026 -0.02636093 0.02963951 -0.17417131 -0.040337533 -0.015834201 -0.002067786 0.05986921
-0.030569207 0.030282795 -0.028889397 -0.017800152 0.01554703 0.119439565 -0.047010604 -0.025430059
0.001070011 0.11890042 -0.055678878 -0.075750954 0.01045662 -0.11696989 -0.14250927 0.048022773
0.0101304045 -0.1278504 -0.013769777 -0.12507269 0.019749645 0.0745811 -0.10051066 -0.056326278
-0.13684317 -0.048781097 -0.14899658 0.041391242 0.050874744 -0.053569157 -0.094372846 -0.054645736
-0.10164218 -0.0024592646 0.022289682 -0.023185251 -0.027889512 -0.07424349 -0.1355499 -0.1459951
-0.06100709 -0.019047778 -0.12354242 -0.111827925 -0.15515973 -0.056675684 0.05878806 -0.18160719
-0.08059414 -0.049672853 0.062474884 -0.087354235 -0.08732242 0.08953561 -0.13215353 -0.10398628
0.050059844 -0.10122062 0.012757177 0.06911093 -0.04670234 0.014179861 0.032967214 -0.04586579
0.042703155 0.09612066 -0.015787859 0.031591404 -0.019309253 0.07693842 0.051729884 0.015188734
-0.022720212 -0.018376384 0.07145329 -0.06538352 -0.023338936 -0.05179082 0.03157942 -0.009579382
-0.0052384823 -0.06772802 -0.042043723 0.045825925 -0.1771104 -0.063272364 -0.059901576 -0.010839998

bias_hh_l0 f4 [768]
00000000: f2c8 16be 5b52 72bc 3e61 3fbd 9165 28bd
00000010: e1f0 2f3e 7b21 77bc abae c9bd a83d f1bd
00000020: 3466 d23c bdce 82bd 15fa f73d 25e0 81bd
00000030: 5cf8 053c bebd 3bbe adf7 1ebe 56c0 b53b
00000040: 46ec 34bc ae03 dcbd c7b1 a4bd e99d bebc
00000050: 72ea cdbc ebbc acbd 4e8d 32bb 18ab 75be
00000060: bace b1bd 90af 523d cfed b53d 4a75 c2bd
00000070: 4a8a 0fbc 88a0 3a3c 27a4 01be 02c7 573d
00000080: d1f9 933d a3f2 a33c b5a0 293d ec90 e4bd
00000090: 5603 05bd 0055 c43d 3785 1ebc 0b94 d0bd
000000a0: 4cb8 2fbd aca2 2d3c 486d d7bc 4675 113c
000000b0: 2794 cdbd 0b67 f8bd 956b 013e da5b afbd
000000c0: acc8 78be dbe7 79bd 0629 14be d071 2bbb
000000d0: 559d dbbd 1cc9 36be 9415 35bc 258b d53c
000000e0: 04ea 03be 8a3d 6b3d 9951 5e3d 4c99 c0bd
000000f0: 2670 923c 75b8 3cbd 4b2e b8bd 743f 4ebe
00000100: 7354 5abc d4af 30bd 2e42 163e 2599 8e3d
00000110: 0d32 e33b 10c7 be3c 59af 1cbd 7157 2fbe
00000120: 1590 15be f0e8 053c e8ed ad3d 4130 88bd
00000130: a220 0abe 2036 cebc 2c98 aabd 0a80 0bbe
00000140: 3a9e b1bd 509b a0bd 925d d33d acd4 80bd
00000150: 5e81 3c3d 7679 e23c c441 0bbe 03b1 0cbe
00000160: 55aa b8bd 89ca f6bc 1ee5 cebd 2688 5ebc
00000170: 6232 533d 88b5 dcbd de9b 1abd 558e 35be
00000180: 4a7a ecbd 0e82 eb3d c1db 9c3c 2ef0 53bd
00000190: 5972 473d 4613 0dbc 702a 5cbd 05e4 97bb
000001a0: d4d8 643d cef1 103e ef18 80bd 1516 76bd
000001b0: b875 263d d1f9 96bd a4f6 b03d 66dc f238
000001c0: 73c5 d33d 1fbc 7e3d 29ce 57bd 5827 03be
000001d0: acd5 1bbd 6d8b e63c 6886 f5bc 73b8 bcbc
000001e0: d997 443d 1229 14bb edf2 1ebc 70bb be3d
000001f0: 47f8 ad3c 57b6 c2bd 09b0 dfbc 6bd8 33bd
00000200: 9005 dcbd 0a7c 9bbd cd3b 263e a0f0 7bbd
00000210: b2c2 aabd 2402 e23d 4cab bebc 44c2 fdbd
00000220: 34b4 e4bd 73c7 e5bc d0b5 6ebd 21fe 1fbd
00000230: 2f9b 68bd f0e5 a8bd a6e4 31be 0d55 093e
00000240: 6048 6dbd 12c7 f7bd 7d44 1fbe 925b 29be
00000250: 0139 383a ddc9 17be eb70 1e3d 2bb6 ffbc
00000260: 10c0 4abe 850f e7bd 0f3a 77be 522c d83b
00000270: 78b3 51bd 4517 e8bd e18e d83d 4b6d c4bd
00000280: 4b64 15bd 41cf 32bc 576d ef3c 3eac a0bd
00000290: e122 3ebd 3ca5 ea3c 7b81 76bd c266 4fbb
000002a0: 42da d13a 2de0 86bd 5fac 003b 9eb4 35bd
000002b0: 7817 89bc b61e ff3d 1d63 8fbd 745e 163d
000002c0: 5970 62bc 1cd4 f13d 7e1f 94bd 7348 953b
000002d0: 15f1 f0bc 50cd 01be 473b 3bbe 4656 003d
000002e0: a030 96bc 0bf7 90bd 712b 263d 5379 15be
000002f0: a43c d3bb 9dc2 9d3d 96d1 87bd b7a8 ce3c
00000300: 71d2 abbd 6a08 82bd 4a65 c0bd df05 333d
00000310: 67e9 6e3d 5642 5abc 7117 bdbc 36ed e9bd
00000320: 1b8f c9bd ed4f 1fbd 798c 8a3b 9dc4 75bd
00000330: 1550 16bd afcc 21bd e864 9fbd d100 fdbd
00000340: 4d38 b6bd ae68 70bd 5688 00be fd82 8bbd
00000350: 0223 75be 6324 20be a373 04bd 976d c7bd
00000360: 8415 11be a247 05be e297 4a3d 3df9 64bd
00000370: 1cf7 57bd 344e fe3c d852 0ebe 26b0 93bd
00000380: baea 6bbc 9d5c d7bd dc6e 30bd b9bb 3a3d
00000390: 5de5 333c 0a12 81bd 7e75 ba3d a0ee 6d3c
000003a0: 3867 5d3d c8ea 7b3d 7bc8 a6bd e64e c63b
000003b0: 5b94 bdbc 69c1 3d3d 8d3d bd3d 6de1 5bbb
000003c0: 2880 8ebb ed22 c1bd 278b 16bc f88b 00be
000003d0: 666e 65bd 1050 433d aa95 46bc f793 c13b
000003e0: f37b 803d a6bc a5ba d270 90bd 63bf be3d
000003f0: 4523 43be 8bda d1bd eeda 7b3c 139e 14bc
-0.14725092 -0.014790143 -0.046723597 -0.041112486 0.17181732 -0.015083666 -0.098477684 -0.11779338
0.0256835 -0.063870884 0.12108246 -0.0634158 0.008176889 -0.183341 -0.15524168 0.00554661
-0.01104266 -0.10742889 -0.08041721 -0.023268657 -0.025136206 -0.08434471 -0.0027244869 -0.23991048
-0.08682008 0.05143696 0.08883249 -0.09495027 -0.008760998 0.011390813 -0.12660275 0.052680023
0.07225383 0.02001316 0.041413028 -0.11160454 -0.032473885 0.09586525 -0.009675316 -0.10184487
-0.04290037 0.010597866 -0.026297227 0.008878058 -0.100380234 -0.12129029 0.12638696 -0.08562441
-0.242953 -0.06101213 -0.14468774 -0.0026160367 -0.10723368 -0.17850155 -0.011052508 0.026067326
-0.12882239 0.057431735 0.054277036 -0.09404239 0.017875742 -0.04607435 -0.08993205 -0.20141393
-0.013325798 -0.043136433 0.14673683 0.06962804 0.0069334568 0.02328828 -0.038253162 -0.171232
-0.14605744 0.008173212 0.08492643 -0.06649829 -0.13489011 -0.025172293 -0.08329806 -0.13623062
-0.086727574 -0.078421235 0.103205815 -0.06290564 0.04602181 0.027645808 -0.13599306 -0.137394
-0.09016863 -0.030125873 -0.101022944 -0.013582265 0.05156172 -0.10776812 -0.037746303 -0.17730077
-0.11546762 0.11499415 0.019147756 -0.051742725 0.048693035 -0.008610552 -0.05375141 -0.0046353363
0.055870846 0.14154741 -0.06254756 -0.060079653 0.04063961 -0.073718674 0.08640793 0.00011580512
0.10340395 0.062191125 -0.052686844 -0.12807977 -0.03804557 0.028142655 -0.029971316 -0.023037171
0.047996376 -0.0022607488 -0.009701473 0.093130946 0.021236552 -0.09507435 -0.02730562 -0.043907564
-0.107432485 -0.07592018 0.1623375 -0.061508775 -0.083379164 0.110355645 -0.02327504 -0.12390569
-0.111671835 -0.028049206 -0.05827886 -0.039060716 -0.05678862 -0.08246982 -0.17372379 0.1341135
-0.05793035 -0.120985165 -0.1555347 -0.16538838 0.0007027537 -0.14823098 0.038681906 -0.031214794
-0.19799829 -0.11282257 -0.24143241 0.0065970803 -0.051196545 -0.11332563 0.10574127 -0.095911585
-0.0364726 -0.010913671 0.029226942 -0.078453526 -0.046419982 0.028643243 -0.060182076 -0.0031646942
0.001601048 -0.06585727 0.0019633991 -0.044361703 -0.016734824 0.124570295 -0.07001326 0.03671117
-0.013820731 0.11808035 -0.07232569 0.0045557558 -0.029411832 -0.12675977 -0.18284331 0.031332277
-0.018333733 -0.0707837 0.040568773 -0.14597063 -0.006446438 0.07703135 -0.06631772 0.025226934
-0.08389748 -0.06349261 -0.09394319 0.04370677 0.05832806 -0.01332148 -0.023082467 -0.114221975
-0.09841748 -0.038894583 0.0042281714 -0.06000196 -0.036697466 -0.039501842 -0.07782918 -0.12353671
-0.08897457 -0.05869358 -0.12552008 -0.068120934 -0.23939136 -0.1563888 -0.032336842 -0.097376995
-0.14168364 -0.13015607 0.049461253 -0.055901755 -0.052725896 0.03104315 -0.1389879 -0.07211332
-0.014399225 -0.105157115 -0.043074474 0.045589183 0.010979977 -0.06302269 0.09104441 0.014522225
0.054053515 0.0615032 -0.08143707 0.006051886 -0.02314203 0.04632703 0.092402555 -0.0033551112
-0.0043487735 -0.0943049 -0.00918845 -0.12553394 -0.056013487 0.047683775 -0.012120644 0.0059075314
0.062736414 -0.0012644723 -0.07052769 0.09313848 -0.19056423 -0.10246762 0.015372021 -0.009070891
