models/triplet.pt (torch_old, 16166 bytes, 3 tensors)

weight f4 [16, 3, 3]
0	0xbe1af3ed	-0.15132113
1	0x3e57dea1	0.2108102
2	0xbe8b8f85	-0.27257934
3	0xbb903aae	-0.0044015264
4	0xbc6a7006	-0.014308935
5	0xbe337e8d	-0.17528744
6	0xbe6f3964	-0.23361737
7	0x3ed21194	0.41029036
8	0xbd6872fe	-0.05675029
9	0x3f11fc13	0.5702526
10	0x3e8464d2	0.2585817
11	0x3d7fadfb	0.06242178
12	0x3cc42a06	0.02394582
13	0xbda1d218	-0.079014
14	0xbd848ab6	-0.064717695
15	0x3c9d248d	0.019182468
16	0xbe6ae5a6	-0.22939166
17	0xbd87ebbf	-0.06636762
18	0x3e595e2d	0.21227331
19	0xbe6a903c	-0.22906584
20	0x3e95b68c	0.29240835
21	0x3e1c52a5	0.15265901
22	0xbeb0f023	-0.3455821
23	0x3ee296db	0.4425572
24	0x3dd861f4	0.10565558
25	0xbd04b425	-0.03239836
26	0x3e487d8c	0.19579142
27	0xbd6fadc7	-0.058515336
28	0x3df64baf	0.12026154
29	0x3ebb7b93	0.36617717
30	0x3e22b21e	0.15888259
31	0x3de85d69	0.113459416
32	0x3e875993	0.26435527
33	0x3ef69ab5	0.48164907
34	0x3debacc0	0.11507559
35	0xbdb349d2	-0.087543145
36	0x3dfa895b	0.1223323
37	0x3ea1c12d	0.31592694
38	0x3e7b4298	0.24537122
39	0x3f0effbc	0.5585897
40	0xbe8edbb1	-0.27901986
41	0x3dae2439	0.08503003
42	0x3dfa09f5	0.122089304
43	0x3e9b0b32	0.3028198
44	0x3e318e11	0.1733935
45	0x3eb4d020	0.35315037
46	0x3dd4f57f	0.10398387
47	0x3e0e8da6	0.13921222
48	0x3ef9fb87	0.48824713
49	0x3e092c44	0.13395792
50	0x3e8b506e	0.272098
51	0x3e8fc9e7	0.28083727
52	0x3dcc5d65	0.09978751
53	0x3d322ed5	0.043501694
54	0x3f027360	0.509573
55	0x3db3fa47	0.08787971
56	0xbe3ac7ab	-0.1824023
57	0x3dfc3cac	0.1231626
58	0x3e67797e	0.2260494
59	0x3e2f5352	0.17121628
60	0x3e840aed	0.25789586
61	0xbe36c755	-0.17849477
62	0x3c934b5d	0.017980272
63	0xbeabf71c	-0.33586967
64	0xbe40ff21	-0.18847324
65	0xbe2765bf	-0.16347407
66	0xbe8046de	-0.25054067
67	0x3e04f04c	0.12982291
68	0xbd3c8efc	-0.046034798
69	0xbe7da211	-0.24768855
70	0xbe52d790	-0.20590043
71	0xbea51fd4	-0.32250845
72	0x3ebba0e0	0.36646175
73	0xbe9947c5	-0.29937568
74	0x3e36c99b	0.17850344
75	0x3d8ca6c0	0.068677425
76	0xbe821b68	-0.25411534
77	0x3eee041c	0.4648751
78	0x3d699deb	0.057035368
79	0x3dbe615f	0.09295916
80	0x3e535025	0.20636041
81	0x3dedcdb1	0.11611498
82	0x3e939de3	0.28831396
83	0xbeb8776b	-0.3602861
84	0x3dde093b	0.10841604
85	0x3e689f80	0.22717094
86	0xbe87d47c	-0.265293
87	0xbcc0e4d6	-0.023546617
88	0x3e81eaaf	0.25374362
89	0xbef65b48	-0.48116517
90	0xbe757b4d	-0.23972817
91	0x3f04b817	0.518434
92	0x3babec29	0.0052466583
93	0xbda59739	-0.08085484
94	0x3e69e6bd	0.22841926
95	0xbcbd56f1	-0.023112746
96	0xbe3cdf32	-0.18444517
97	0x3e82e980	0.2556877
98	0xbe284f60	-0.16436529
99	0x3ef93efd	0.4868087
100	0xbdb6cfe1	-0.089263685
101	0x3d0b1014	0.03395088
102	0x3ef36a17	0.47541878
103	0xbe72f0c1	-0.23724653
104	0x3d0431ab	0.03227393
105	0x3f00e343	0.50346774
106	0xbcfdda68	-0.030987933
107	0xbc16cf59	-0.009204709
108	0xbead3401	-0.33828738
109	0xbe7744c0	-0.2414732
110	0x3e652fe0	0.22381544
111	0xbe24364e	-0.1603634
112	0x3d410bca	0.047130384
113	0x3e79d3e4	0.24397236
114	0xbe2e079b	-0.16995089
115	0xbe899cd3	-0.2687746
116	0xbe18ce3e	-0.14922425
117	0x3e7d4293	0.24732427
118	0x3c3cef2c	0.011531632
119	0xbdaf13f1	-0.085487254
120	0x3e7b968b	0.24569146
121	0xbe2a82f7	-0.16651522
122	0xbd862171	-0.06549347
123	0x3f1323ce	0.5747651
124	0x3e24e798	0.16103971
125	0x3c1fe972	0.009760248
126	0xbcaf4c27	-0.021398617
127	0x3e4c9835	0.19979937
128	0x3e97abd6	0.29623288
129	0xbbe61567	-0.0070215943
130	0x3e21a06a	0.1578385
131	0x3e99a26a	0.30006725
132	0xbe6e68ab	-0.23282115
133	0x3c56901f	0.013095885
134	0x3eb1e845	0.3474752
135	0xbc43db42	-0.011954131
136	0x3ee1a1e9	0.4406884
137	0xbec77efc	-0.3896407
138	0x3caeef12	0.021354232
139	0x3ea1b417	0.3158271
140	0xbe93fd57	-0.2890422
141	0xbe085be1	-0.13316299
142	0x3ed44fd7	0.41467163
143	0xbf04e7d3	-0.51916236

bias f4 [16]
0	0xbf10866b	-0.56455106
1	0xbf1656eb	-0.58726376
2	0xbeace0e3	-0.33765325
3	0xbda1258f	-0.07868492
4	0xbe07b44a	-0.13252369
5	0xbf2890c1	-0.65845877
6	0xbe9f26b9	-0.3108423
7	0x3f143548	0.578938
8	0xbe9b68fe	-0.3035354
9	0xbf8338b2	-1.0251677
10	0xbee239c2	-0.4418469
11	0xbf4100ce	-0.7539185
12	0x3d684c78	0.05671355
13	0xbf0d7ac1	-0.5526543
14	0xbdf78496	-0.12085836
15	0xbf97fcc9	-1.1874019

weight f4 [1, 16, 1]
0	0xbe177f21	-0.1479459
1	0xbddb9512	-0.10721792
2	0xbe48874c	-0.19582862
3	0x3dc157c2	0.094405666
4	0x3db67e8c	0.08910856
5	0xbe523ce4	-0.2053104
6	0x3db46f70	0.088103175
7	0xbdf6711a	-0.12033291
8	0x3e15005c	0.14550918
9	0xbf27ef50	-0.65599537
10	0xbe0ca941	-0.1373644
11	0x3e85c94a	0.26130134
12	0x3db89f7b	0.090147935
13	0xbe3ed50b	-0.18635957
14	0x3dc3c561	0.095591314
15	0x3f34d376	0.70635164
