test/2-classes/version_131/checkpoints/epoch=42.ckpt (torch_old, 13040 bytes, 21 tensors)

exp_avg f4 [24, 3, 3]
0.002122759 0.0026497364 0.0013051503 -0.0027790288 -0.0006893536 0.0012077712 0.00038468145 -0.0047428906
0.00079465983 0.0017237517 -0.0031501437 -0.0032403767 0.0020681203 -0.0034504198 0.0017835238 0.001574167
-0.0053373817 -0.00065146596 0.003165709 0.0048628454 -0.00058577006 0.00064212 0.0018312315 -0.0066123093
-0.0007953857 0.001614655 0.00081312057 0.0051405504 -0.00015181146 -0.00019977817 0.0025345765 -0.0002899717
-0.0013580064 0.0015971282 -0.0041305586 0.0009969674 -0.0024665764 0.00053004187 5.433821e-05 -0.0033442283
-0.001535158 0.0007257202 -0.001241074 0.0036632637 -0.0011052651 -0.0023076274 0.0010157404 0.0063129636
-0.0042556715 -0.0018882249 0.0020870958 -0.0012775223 -0.0005713369 0.0011036361 -0.00061437895 -0.0045915106
0.0023544522 -0.0005849045 -0.00023730274 0.003586962 0.0008884343 -0.0033338817 0.00042245246 -0.0022600149
-0.0054902453 -0.0013162878 7.2816742e-06 -0.0010092611 0.0057015526 0.0033265573 -0.005202953 -0.0008481387
-0.00026044552 0.00032151974 -0.0010603111 0.0011840431 -3.558467e-05 -0.00021112898 0.0010731845 -0.0024359783
0.0008422503 0.0016536932 0.0012117346 0.00078401214 -0.0035564383 -0.0009560189 0.0024367885 -0.00013293164
-0.00044884405 0.00015730987 -0.002516857 -0.0011610741 0.0018533936 0.002330834 0.0033562833 -0.002461887
-0.0015788823 -0.003016157 0.0028026472 -0.0031429923 -0.0023496856 0.0028205775 0.00041151437 -0.002260833
-0.00080057717 0.0015864795 -0.0026099696 0.00062585616 0.000113345384 0.00091518596 0.00036716956 0.00024919052
-0.0008970669 -0.0011341004 -0.0011220884 0.0018023174 0.0007572616 -0.00013170796 0.0009849772 0.00089348364
-0.0006512153 -0.0005108247 -0.00053045613 -0.0003117593 -0.00014498182 0.0015573315 0.0010627052 -0.0031597284
-0.00097223424 0.00040215702 -0.000105908344 0.0015076248 0.0024738533 -0.0011122872 -0.00173719 -0.0008886352
-0.0017973953 0.002449441 -0.0008493647 -0.0025693984 0.0034978657 0.001295921 -0.0023606028 0.00072498387
0.0008539479 0.002654735 -0.0009835162 0.0011086959 0.0020027491 -0.004170116 0.00041525843 -0.00028102103
0.0004709162 0.0014541104 0.0035679284 -0.0015390815 0.0033181498 -0.0008320312 -0.002128462 0.00019497794
-0.0017979743 -0.00032156397 0.001669482 -0.0037620377 0.0041838377 0.0011159396 -0.0010322807 0.0011963315
-0.0014299001 0.0038891162 -0.0037545988 0.0033865923 0.0017941085 -0.0025047292 -0.0010322393 -0.0017626662
-0.00066075934 -0.0018342648 0.0021522306 0.00067048473 -0.004976054 0.0071186535 -0.0017995787 0.00048628618
0.004270782 -0.0015302609 -0.0032920635 0.0036438198 -0.0005652234 -0.0018934917 -0.00036203014 0.0004969042
-0.0026681654 0.00034573965 0.0015296723 0.00043441565 -0.0018499307 0.0032474948 0.00070717273 0.0009529693
0.0002798695 -0.001590805 0.0016998294 -0.00064975576 -0.0021270108 0.0032331382 0.00084853946 -0.0032799852
0.0018961929 -0.00045289652 -0.001153341 -0.0010563448 0.0009625598 0.00066140527 -0.000109617875 0.0020503697
00000000: fc1d 0b3b 33a7 2d3b 9411 ab3a 5e20 36bb
00000010: bdb5 34ba 144e 9e3a 12af c939 406a 9bbb
00000020: b850 503a 82ef e13a a472 4ebb 805c 54bb
00000030: 4d89 073b 7020 62bb 21c5 e93a 4854 ce3a
00000040: 34e5 aebb 24c7 2aba c977 4f3b 8158 9f3b
00000050: 5d8e 19ba f253 283a ef05 f03a 12ac d8bb
00000060: 6e81 50ba d5a2 d33a 9927 553a 1072 a83b
00000070: 942f 1fb9 8b7b 51b9 231b 263b 5807 98b9
00000080: 22ff b1ba bb56 d13a a359 87bb adac 823a
00000090: 49a6 21bb 82f2 0a3a 35e9 6338 d72a 5bbb
000000a0: 5b37 c9ba 423e 3e3a 88ab a2ba 5e13 703b
000000b0: 8bde 90ba 903b 17bb 9822 853a fadc ce3b
000000c0: 2973 8bbb 507e f7ba a8c7 083b 8972 a7ba
000000d0: c5c5 15ba e2a7 903a 460e 21ba 6274 96bb
000000e0: 274d 1a3b 4754 19ba 78d4 78b9 3c13 6b3b
000000f0: d1e5 683a 417d 5abb 9c7c dd39 c21c 14bb
00000100: 84e7 b3bb 4a87 acba 1b55 f436 2f49 84ba
00000110: 17d4 ba3b 5f02 5a3b 887d aabb a055 5eba
00000120: 688c 88b9 a691 a839 23fa 8aba e531 9b3a
00000130: c040 15b8 8162 5db9 19aa 8c3a efa4 1fbb
00000140: 76ca 5c3a bcc0 d83a 11d3 9e3a 2a86 4d3a
00000150: 2213 69bb 589d 7aba 87b2 1f3b 9163 0bb9
00000160: d452 ebb9 8cf3 2439 dbf1 24bb 2f2f 98ba
00000170: 92ed f23a e8c0 183b 17f5 5b3b 9c57 21bb
00000180: 80f2 ceba b8aa 45bb 9eac 373b a9fa 4dbb
00000190: 2ffd 19bb 70d9 383b 86c0 d739 7c2a 14bb
000001a0: d3dd 51ba 6bf1 cf3a 060c 2bbb 7f10 243a
000001b0: d7b3 ed38 17e9 6f3a aa80 c039 c9a5 8239
000001c0: 2429 6bba 18a6 94ba 0a13 93ba bd3b ec3a
000001d0: f782 463a 161b 0ab9 5a1a 813a ac38 6a3a
000001e0: 52b6 2aba dee8 05ba 4f0e 0bba a073 a3b9
000001f0: 4306 18b9 601f cc3a 784a 8b3a 7213 4fbb
00000200: 89dd 7eba 9ad8 d239 1c1b deb8 7e9b c53a
00000210: 5f20 223b 2aca 91ba 6cb2 e3ba 4cf3 68ba
00000220: 9496 ebba cd86 203b e6a7 5eba 5a63 28bb
00000230: 733c 653b e5db a93a 58b4 1abb d80c 3e3a
00000240: 79db 5f3a 10fb 2d3b 54e9 80ba a951 913a
00000250: 8e40 033b 78a5 88bb 0bb7 d939 0156 93b9
00000260: 4de5 f639 d997 be3a e8d3 693b 01bb c9ba
00000270: 5175 593b ab1c 5aba ab7d 0bbb fe72 4c39
00000280: 02aa ebba 9697 a8b9 85d2 da3a 858c 76bb
00000290: 9318 893b b844 923a 984d 87ba 39ce 9c3a
000002a0: 7c6b bbba 8be0 7e3b b70f 76bb 97f1 5d3b
000002b0: 4b28 eb3a 6226 24bb 344c 87ba 4309 e7ba
000002c0: cf36 2dba b76b f0ba 700c 0d3b 78c3 2f3a
000002d0: 2b0e a3bb 9843 e93b d7df ebba 3af4 fe39
000002e0: ebf1 8b3b 0993 c8ba a9bf 57bb 27cd 6e3b
000002f0: 802b 14ba 0a2f f8ba ddce bdb9 ad42 023a
00000300: 63dc 2ebb 6444 b539 497f c83a 48c2 e339
00000310: 6079 f2ba ecd3 543b 8f61 393a b0d0 793a
00000320: 73bb 9239 8f82 d0ba cfcc de3a 5f54 2aba
00000330: 5265 0bbb 0fe3 533b 8570 5e3a 05f5 56bb
00000340: ad89 f83a be72 edb9 b42b 97ba 0d75 8aba
00000350: 4b54 7c3a 2862 2d3a a6e2 e5b8 7f5f 063b

exp_avg_sq f4 [24, 3, 3]
0.00035704285 0.0002572164 0.00031397515 0.0003736193 0.00020333806 0.00032337222 0.00035058457 0.00021109203
0.0003120605 0.0002745417 0.00031406895 0.0004530908 0.00024817503 0.0003921198 0.00046719948 0.00026435967
0.00033299817 0.0004302433 0.00024468824 0.00034160528 0.00028090083 0.0002554364 0.00028079265 0.00030288304
0.00026989222 0.00032890163 0.00030494234 0.0002179824 0.00013360522 0.00017508982 0.0001870079 0.00013465174
0.00021779507 0.00019509508 0.00014698583 0.00020093234 0.00014093657 0.000151448 0.000118406075 0.00012459392
0.00014108888 0.00012019666 0.00011795031 0.00014293379 0.000119431745 0.00024369573 0.00021915452 0.00019964499
0.000225907 0.00018214133 0.00017868547 0.00022166762 0.00018400146 0.00022416754 9.549874e-05 9.4379306e-05
0.000109398294 9.524208e-05 7.59064e-05 0.00010900464 9.351923e-05 8.376571e-05 0.000101586724 0.00024563645
0.00027214523 0.0002436163 0.0002565234 0.00022935012 0.00026717887 0.00023989429 0.000252708 0.00022789961
6.800683e-05 5.8984046e-05 8.936436e-05 5.768994e-05 5.9675935e-05 7.937936e-05 6.7513516e-05 5.0581995e-05
8.8768305e-05 0.00023709526 0.0001424623 0.0002011582 0.00022889626 0.00014368717 0.00021084814 0.00020750714
0.0001350685 0.0001817023 0.00013826016 0.00011611306 0.0001460761 0.00012046947 0.000107051506 0.00012878183
0.00014278907 0.00012915397 0.00013085302 0.00070498826 0.0004785327 0.00048074505 0.00065995706 0.0005607887
0.0005642691 0.00068086677 0.00051435584 0.0005707997 3.6209833e-05 3.1676518e-05 3.813466e-05 2.981466e-05
2.9649691e-05 3.0289584e-05 3.0109324e-05 3.0676543e-05 3.9455346e-05 6.590138e-05 7.812728e-05 6.843921e-05
5.1193674e-05 7.52253e-05 6.808988e-05 4.937718e-05 5.82684e-05 6.76591e-05 0.00012581731 0.0001372766
0.00014319476 0.00014593145 0.00010704259 0.00012673803 0.00011552325 0.00012120414 0.00013499633 6.803304e-05
6.312431e-05 7.301485e-05 6.446534e-05 6.351537e-05 7.027189e-05 6.713646e-05 4.9419737e-05 6.275037e-05
7.5026204e-05 7.5424454e-05 9.8887605e-05 7.9013e-05 7.6922486e-05 0.00010585003 8.386499e-05 8.531361e-05
9.458293e-05 0.0005040284 0.00033380894 0.00042476968 0.0005107652 0.00032385654 0.0005282501 0.00051500334
0.00034341903 0.0005110008 0.00011676608 0.0001461199 0.00015532711 0.000101784826 0.00013932533 0.00016168859
0.00013458788 0.00012755474 0.00014156172 0.00012962618 9.928891e-05 0.000104845996 0.00011719928 0.0001014185
0.00010794516 0.00011613114 7.7698714e-05 0.00011996389 0.00021020201 0.00027558324 0.00021903474 0.00019043959
0.00026416892 0.00022453802 0.00017418661 0.00027588473 0.00024582478 6.3608364e-05 5.7272864e-05 6.1809034e-05
5.8795813e-05 6.797983e-05 6.340895e-05 6.899978e-05 7.1087845e-05 5.880929e-05 0.00013801998 0.000121573845
0.00015477576 0.000111403686 0.00011224767 0.00014942039 0.00014177596 0.0001095082 0.00016962973 5.4750322e-05
5.2108782e-05 6.0833034e-05 4.0823394e-05 3.798354e-05 4.44728e-05 5.1890966e-05 5.4286644e-05 6.204282e-05
00000000: 7b31 bb39 00db 8639 089d a439 55e2 c339
00000010: 2537 5539 498a a939 aace b739 9658 5d39
00000020: 0d9c a339 5df0 8f39 9fa9 a439 d18c ed39
00000030: 7d1d 8239 6e95 cd39 74f2 f439 c199 8a39
00000040: 4296 ae39 4792 e139 8049 8039 7c19 b339
00000050: df45 9339 18ec 8539 5a37 9339 46cc 9e39
00000060: 5280 8d39 6e70 ac39 abe0 9f39 3492 6439
00000070: 6118 0c39 5198 3739 8d17 4439 4d31 0d39
00000080: eb5f 6439 7092 4c39 3520 1a39 5db1 5239
00000090: 5fc8 1339 03ce 1e39 c750 f838 6da5 0239
000000a0: 42f1 1339 1712 fc38 175c f738 7fe0 1539
000000b0: 6e77 fa38 9388 7f39 d8cc 6539 cb57 5139
000000c0: 73e1 6c39 31fd 3e39 845d 3b39 736f 6839
000000d0: 84f0 4039 840e 6b39 7f46 c838 81ed c538
000000e0: c36c e538 b4bc c738 f02f 9f38 6c99 e438
000000f0: c11f c438 60ab af38 f50a d538 c4c8 8039
00000100: b7ae 8e39 4173 7f39 fd7d 8639 b47d 7039
00000110: 2414 8c39 228c 7b39 e57d 8439 56f8 6e39
00000120: e49e 8e38 a365 7738 2069 bb38 1af8 7138
00000130: 8c4c 7a38 7878 a638 0b96 8d38 0128 5438
00000140: 1f29 ba38 c69c 7839 ef61 1539 feed 5239
00000150: df03 7039 bbaa 1639 1e17 5d39 4696 5939
00000160: 2da1 0d39 5787 3e39 eef9 1039 b981 f338
00000170: 012c 1939 8ea4 fc38 d780 e038 9c09 0739
00000180: a6b9 1539 816d 0739 9735 0939 f6ce 383a
00000190: 92e3 fa39 820c fc39 f800 2d3a e501 133a
000001a0: 75eb 133a 327c 323a d6d5 063a b8a1 153a
000001b0: 03e0 1738 67dc 0438 c8f2 1f38 7f1a fa37
000001c0: 3ab8 f837 6316 fe37 4893 fc37 b0aa 0038
000001d0: db7c 2538 8934 8a38 44d8 a338 0587 8f38
000001e0: cab8 5638 47c2 9d38 7acb 8e38 581a 4f38
000001f0: 3865 7438 34e4 8d38 d4ed 0339 e8f1 0f39
00000200: 8d26 1639 2d05 1939 0e7c e038 fbe4 0439
00000210: 1345 f238 fa2e fe38 cd8d 0d39 f6ac 8e38
00000220: 9b61 8438 8d1f 9938 9131 8738 8e33 8538
00000230: ef5e 9338 9dcb 8c38 0a48 4f38 d998 8338
00000240: 6357 9d38 322d 9e38 e161 cf38 c8b3 a538
00000250: 7251 a138 cdfb dd38 ace0 af38 65ea b238
00000260: d35a c638 c620 043a 1403 af39 9fb3 de39
00000270: dfe4 053a 4acb a939 447a 0a3a 4a01 073a
00000280: ec0c b439 aff4 053a 50e0 f438 c337 1939
00000290: 4edf 2239 5075 d538 dc17 1239 f38a 2939
000002a0: 2920 0d39 37c0 0539 2f70 1439 43ec 0739
000002b0: 5439 d038 c4e0 db38 e2c8 f538 a5b0 d438
000002c0: 9e60 e238 6e8b f338 2ef2 a238 1f95 fb38
000002d0: ac69 5c39 287c 9039 b1ac 6539 bdb0 4739
000002e0: 2780 8a39 f771 6b39 dda5 3639 9fa4 9039
000002f0: 0be2 8039 7b65 8538 4538 7038 799f 8138
00000300: 869b 7638 6590 8e38 6cfa 8438 fab3 9038
00000310: ff14 9538 ffa9 7638 75b9 1039 76f5 fe38
00000320: 4d4b 2239 66a1 e938 8266 eb38 bbad 1c39
00000330: b2a9 1439 c4a7 e538 a2de 3139 b6a3 6538
00000340: 618f 5a38 f926 7f38 c939 2b38 8450 1f38
00000350: 4e88 3a38 80a5 5938 d7b1 6338 fc1c 8238

exp_avg f4 [24]
-5.8629597e-05 4.6580873e-05 -5.6975307e-05 -5.1350642e-05 2.3300528e-05 1.13609685e-05 2.456957e-05 4.751743e-05
7.809008e-06 -4.2763815e-05 -1.6790631e-05 7.7306024e-05 -5.6803233e-06 -1.1848517e-05 2.6717431e-05 8.502542e-06
-2.8141005e-05 -6.616748e-05 6.636706e-06 -1.2109036e-05 -5.5741362e-05 1.1974083e-05 -2.3331644e-05 1.1842216e-05
00000000: 0de9 75b8 d55f 4338 c5f8 6eb8 5561 57b8
00000010: 8175 c337 fd9a 3e37 c01a ce37 744d 4738
00000020: 6f03 0337 4c5d 33b8 9bd9 8cb7 5b1f a238
00000030: 9b99 beb6 fec8 46b7 3f1f e037 24a6 0e37
00000040: 5910 ecb7 65c3 8ab8 dfb0 de36 ea27 4bb7
00000050: d5cb 69b8 4be4 4837 53b8 c3b7 eead 4637

exp_avg_sq f4 [24]
3.7928035e-06 5.6051604e-06 3.823835e-06 3.068006e-06 1.7581716e-06 2.242706e-06 1.3471338e-06 3.491507e-06
1.31348e-06 2.569281e-06 3.0259616e-06 5.2578034e-06 5.2312555e-07 2.0830272e-07 1.7259893e-06 5.297647e-07
1.1025086e-06 4.897069e-06 6.5390867e-07 6.1411566e-07 2.5452491e-06 2.617936e-07 1.7362192e-06 2.0889932e-07
00000000: de87 7e36 f613 bc36 7e4e 8036 f1e3 4d36
00000010: 51fa eb35 6581 1636 2acf b435 a24f 6a36
00000020: d44a b035 e96b 2c36 a011 4b36 306c b036
00000030: ea6c 0c35 d1a9 5f34 8aa8 e735 2735 0e35
00000040: e8f9 9335 8151 a436 4388 2f35 b5d9 2435
00000050: 0ccf 2a36 a38c 8c34 0a08 e935 cf4d 6034

exp_avg f4 [1, 24, 3]
-0.0077021425 -0.008166635 -0.0038102395 -0.0038842158 -0.0035047417 -0.01565359 -0.009536318 0.0043905694
-0.013874123 -0.011098415 -0.005605908 0.00554677 -0.0037421547 -0.0001577267 -0.0039360924 -0.0029817042
-0.008893384 -0.0031043722 -0.0049187355 -0.013269783 -0.01144444 0.0010022008 -0.0077633457 -0.0032425278
0.0032786834 0.00027222148 -0.006779355 -0.00029519945 -0.0043738256 -0.0021505167 0.0047243163 0.0035253265
-0.0034451722 0.0110876355 -0.011045387 -0.0008176316 0.0045379507 0.0021810753 -0.0038566794 0.007130635
-0.002944366 -0.0026831846 0.0038923945 -0.006422464 -0.004033498 0.0017028663 -0.008279833 -0.012742535
-0.0011991163 -0.001573186 -6.942932e-05 0.0063463943 -0.008768948 -0.002562352 0.0019172552 0.0114418045
-0.01156615 -0.01347558 -0.009025635 -0.00052407355 0.004440027 -0.0031548303 -0.010802134 0.0020975964
0.0074271588 -0.0019835026 0.008378091 -0.0015322168 -0.0013918219 -0.004754991 -0.00047076537 -0.0032870206
00000000: 4162 fcbb 5acd 05bc 36b5 79bb 548e 7ebb
00000010: cfaf 65bb f53b 80bc 373e 1cbc c4de 8f3b
00000020: 4a50 63bc 20d6 35bc c4b1 b7bb aec1 b53b
00000030: f03e 75bb 7063 25b9 56fa 80bb b268 43bb
00000040: 8eb5 11bc b972 4bbb 582d a1bb 8169 59bc
00000050: 7681 3bbc 475c 833a aa63 febb 9780 54bb
00000060: 2edf 563b f3b8 8e39 5a25 debb 00c5 9ab9
00000070: 4f52 8fbb afef 0cbb 70ce 9a3b 2a09 673b
00000080: 66c8 61bb eaa8 353c b6f7 34bc 5456 56ba
00000090: 17b3 943b 5ff0 0e3b 58c0 7cbb 1aa8 e93b
000000a0: 44f6 40bb 5ed8 2fbb 8b17 7f3b 8873 d2bb
000000b0: 6f2b 84bb b632 df3a 23a8 07bc 11c6 50bc
000000c0: ab2b 9dba 5d33 ceba 959a 91b8 6af5 cf3b
000000d0: a2ab 0fbc 22ed 27bb 694c fb3a 6876 3b3c
000000e0: f37f 3dbc aec8 5cbc 42e0 13bc fb61 09ba
000000f0: a57d 913b 45c1 4ebb 6ffb 30bc d477 093b
00000100: 865f f33b a7fd 01bb 4344 093c aad4 c8ba
00000110: cb6d b6ba c1cf 9bbb 0fd1 f6b9 0e6b 57bb

exp_avg_sq f4 [1, 24, 3]
0.0015471659 0.0017027194 0.0009564155 0.0014129708 0.001451628 0.0012322833 0.0029204164 0.0025029
0.002907131 0.00094912725 0.0011065099 0.00067593384 0.0016774947 0.0014456852 0.001238249 0.0019186706
0.002001207 0.0019355993 0.00095019425 0.0011274806 0.0011487263 0.00094237586 0.0010089183 0.0012938643
0.00062404474 0.0005214981 0.00053563283 0.0014208675 0.0016183658 0.0012941312 0.0010509542 0.0012210506
0.0011913815 0.0020643238 0.0022002263 0.0023592666 0.0005833102 0.00059307565 0.00063905737 0.00064817606
0.00041210995 0.00051004963 0.000728677 0.0007617766 0.0007684761 0.0007357718 0.00088227657 0.00078411173
0.00051145675 0.00034190947 0.0003845414 0.0015951549 0.0013973765 0.0012152016 0.0013613338 0.0011146418
0.001599273 0.0010157289 0.0012851005 0.0008727758 0.0017010701 0.0012562338 0.0021825614 0.00059859833
0.0005548686 0.00049451314 0.00050656055 0.00033559653 0.00037221788 0.00067427213 0.00075534696 0.0005348228
00000000: 46ca ca3a c82d df3a f5b7 7a3a 6f33 b93a
00000010: 8e44 be3a 9184 a13a 7564 3f3b b207 243b
00000020: 9185 3e3b dace 783a 5008 913a 2731 313a
00000030: 62df db3a 257d bd3a be4c a23a e77b fb3a
00000040: af26 033b efb3 fd3a 7516 793a f9c7 933a
00000050: dc90 963a c609 773a ae3d 843a e296 a93a
00000060: ef96 233a 25b5 083a b669 0c3a 673c ba3a
00000070: 581f d43a d69f a93a 2cc0 893a a90b a03a
00000080: 2128 9c3a 9b49 073b ac31 103b ed9d 1a3b
00000090: 49e9 183a a278 1b3a 6a86 273a 5cea 293a
000000a0: 7610 d839 dab4 053a b004 3f3a f6b1 473a
000000b0: 8f73 493a cfe0 403a 9448 673a d98c 4d3a
000000c0: 4813 063a 5042 b339 469c c939 8414 d13a
000000d0: 2d28 b73a 6647 9f3a c86e b23a 2c19 923a
000000e0: b29e d13a 3522 853a d170 a83a feca 643a
000000f0: 71f6 de3a 36a8 a43a 4e09 0f3b 41eb 1c3a
00000100: 9a74 113a 37a2 013a b4ca 043a 01f3 af39
00000110: 3d26 c339 a3c1 303a 7a02 463a 5a33 0c3a

exp_avg f4 [1, 24, 3]
0.0029420166 0.00048154237 -0.0035452414 -0.00012257094 4.0077273e-05 0.00021330664 -4.575362e-05 -0.0013346409
0.0038887952 0.0045121405 -0.0019851015 -0.0033346426 0.00509018 -0.0021384375 -0.0009642201 -0.0030400534
0.0027058355 6.9982074e-05 0.0017299759 -0.0008423677 -0.001615348 0.0030149608 -0.001595583 -0.004047733
0.0008389029 -0.0006145018 0.00048020744 6.059982e-06 -0.00015748314 0.0018756607 0.0015716952 6.719013e-05
-0.0030477531 0.0012370809 6.782712e-05 -0.0035943913 0.001294484 -0.0010136507 -0.0025563964 0.00089383865
-0.0012127281 0.0024045594 0.0009581686 -0.00082351244 0.002535955 -0.0020333591 -0.00093551195 0.0077261026
-0.0030928194 0.0043216604 0.00077045785 -0.0008192788 -2.0714535e-05 0.0018648129 -0.003189804 0.0031674714
2.7829046e-05 -0.0025106452 0.0011583989 0.0053786896 -0.0010472846 0.0019069103 -0.0013981388 -0.0038087305
0.00020976459 0.0039791493 0.0051301704 -0.0018844244 -0.0037677826 0.0014161443 0.0005972438 -0.0050394707
00000000: d9ce 403b 8677 fc39 4857 68bb 6386 00b9
00000010: a518 2838 11ab 5f39 93e7 3fb8 1eef aeba
00000020: 28db 7e3b 94da 933b 7a18 02bb 058a 5abb
00000030: 86cb a63b 0725 0cbb b7c3 7cba a23b 47bb
00000040: 6354 313b 57c3 9238 5cc0 e23a 57d2 5cba
00000050: 16ba d3ba a696 453b e222 d1ba d8a2 84bb
00000060: d2e9 5b3a 8516 21ba 5ac4 fb39 d956 cb36
00000070: 0f22 25b9 bbd8 f53a 5701 ce3a 6de8 8c38
00000080: d0bc 47bb 8c25 a23a 683e 8e38 e18f 6bbb
00000090: adab a93a 79dc 84ba 3789 27bb 7f50 6a3a
000000a0: 67f4 9eba d095 1d3b 9b2d 7b3a fce0 57ba
000000b0: 4432 263b 1b42 05bb 253d 75ba 3f2b fd3b
000000c0: e6b0 4abb b79c 8d3b 8df8 493a dfc4 56ba
000000d0: 20c4 adb7 bd6c f43a 080c 51bb 5a95 4f3b
000000e0: 6c72 e937 a389 24bb 6bd5 973a b83f b03b
000000f0: 0a45 89ba 4bf1 f93a c141 b7ba e59b 79bb
00000100: 41f4 5b39 8663 823b fd1a a83b cafe f6ba
00000110: e7ec 76bb eb9d b93a 5a90 1c3a 2522 a5bb

exp_avg_sq f4 [1, 24, 3]
0.000110218 0.00016301151 0.00018948664 3.0151634e-06 1.6301009e-06 2.3069101e-06 0.00014134617 0.0002136231
0.00031974315 0.00031569117 0.00016538713 0.0001560008 0.0005469387 0.00031194667 0.00020480902 0.00030842592
0.00025008965 0.0001234258 0.00012626474 9.210404e-05 0.000117196476 0.00028180596 0.00013027944 0.00012736718
1.1706906e-05 2.193584e-05 1.3521461e-05 6.335953e-05 7.492251e-05 7.6638586e-05 5.3495933e-05 6.7730856e-05
7.666668e-05 7.401976e-05 9.618266e-05 6.5870765e-05 0.00013151641 0.000102333936 0.00021057088 0.0001421829
0.00017359247 0.00029794028 0.00021113979 0.00018565443 0.00016315733 0.00024589183 0.00035124875 0.0004233812
0.0004137764 0.00039507812 0.00021349535 4.348873e-05 3.0722695e-05 3.9030092e-05 0.0005881401 0.0005046035
0.00022183805 0.0003432884 0.00016275099 0.0002764883 0.0001194057 0.00013299524 8.9044726e-05 0.0002605434
0.00021171528 0.0004480418 0.0006743434 0.0003194842 0.0002976127 8.466794e-05 0.00017299899 0.00019974408
00000000: d724 e738 12ee 2a39 efb0 4639 1d58 4a36
00000010: d7c9 da35 6ad0 1a36 5336 1439 0400 6039
00000020: 33a3 a739 5a83 a539 c56b 2d39 2594 2339
00000030: 6f60 0f3a c68c a339 01c2 5639 3ab4 a139
00000040: 771e 8339 dc6b 0139 ef65 0439 fb27 c138
00000050: 61c7 f538 5bbf 9339 9f9b 0839 de8d 0539
00000060: c768 4437 dc02 b837 3cda 6237 e3df 8438
00000070: b71f 9d38 07b9 a038 d260 6038 ba0a 8e38
00000080: 1cc8 a038 0e3b 9b38 acb5 c938 1924 8a38
00000090: abe7 0939 1d9c d638 b1cc 5c39 ee16 1539
000000a0: 6006 3639 de34 9c39 6865 5d39 3bac 4239
000000b0: 3615 2b39 0beb 8039 cf27 b839 43f9 dd39
000000c0: 21f0 d839 7d22 cf39 b9dd 5f39 ab67 3638
000000d0: 3edc 0038 3eb4 2338 6a2d 1a3a 5e47 043a
000000e0: 339d 6839 64fb b339 23a8 2a39 a2f5 9039
000000f0: 7269 fa38 a374 0b39 86bd ba38 8b99 8839
00000100: e3ff 5d39 27e7 ea39 6bc6 303a 7280 a739
00000110: e708 9c39 c18f b138 1067 3539 6572 5139

exp_avg f4 [24]
0.001577021 -8.153505e-05 0.0012244339 0.0020596297 0.0034174293 -0.0012103964 -0.0020518901 0.0036061173
-0.0005802558 0.001787729 0.00024185868 0.0039865994 -0.0025684251 0.0028914737 0.004439383 -0.0028485782
0.0014178093 -0.0028678756 -0.0005732406 -0.0019357522 -0.0015417495 0.0016324199 0.003565512 0.0017971287
00000000: 0bb4 ce3a ccfd aab8 2f7d a03a dafa 063b
00000010: f3f6 5f3b 2aa6 9eba 0179 06bb 9c54 6c3b
00000020: 4f1c 18ba 3b52 ea3a 729b 7d39 05a2 823b
00000030: 0653 28bb e17e 3d3b 3e78 913b 36af 3abb
00000040: c9d5 b93a f8f2 3bbb 8745 16ba 11b9 fdba
00000050: 8714 caba ecf6 d53a 5dab 693b a28d eb3a

exp_avg_sq f4 [24]
0.00042711635 8.089103e-06 0.00030320953 0.00024583167 0.00080963934 0.00025628295 0.00043326407 0.0006012069
7.506357e-05 0.00052635866 6.240872e-05 0.0007524669 0.00027189168 0.00072262017 0.0018041783 0.0004668979
0.00026488112 0.00032554084 0.0004838238 0.00046563882 0.0004574956 0.00048094423 0.0005784436 8.272699e-05
00000000: 96ee df39 6fb6 0737 18f8 9e39 f8e2 8039
00000010: fa3d 543a b75d 8639 b827 e339 509a 1d3a
00000020: 736b 9d38 55fb 093a 6de1 8238 3341 453a
00000030: af8c 8e39 386e 3d3a 2e7a ec3a fac9 f439
00000040: bedf 8a39 5aad aa39 bba9 fd39 fc20 f439
00000050: 05dc ef39 3e27 fc39 b1a2 173a b77d ad38

exp_avg f4 [24, 3, 3]
-0.0010291376 0.00054330117 -5.4925487e-05 -0.000114460905 0.000987529 -0.00015512582 -0.0011769249 0.00011954954
-0.00074732344 -5.699203e-06 -4.143976e-06 4.2104834e-06 3.791146e-06 -5.788192e-06 3.2566984e-06 -8.391968e-07
4.0000605e-06 2.6610786e-07 0.0013163708 -0.00083697494 -0.00063825864 -0.00018772985 -0.0014745968 -0.00089666975
0.0013413966 -0.00041790513 -0.00094622286 7.476933e-05 0.0005691878 -0.0008468115 -0.00028767862 0.0006002014
-0.00092761056 -0.00015409432 0.00038345132 -0.0019241078 0.00057143805 0.00038251723 -0.0006724814 0.00018000187
0.00045702208 -0.00089754286 0.00025684774 0.00068573345 -0.0019889679 -0.00037021743 -0.00028722928 0.0015031258
0.0006914891 -2.7683422e-05 0.0017781116 -0.000114935916 -3.7496866e-05 0.0031588534 -0.00066701666 0.00022170352
-0.00035135177 -0.0007948749 8.1886166e-05 -0.00012857583 -0.0005315215 -0.0005318777 2.894849e-05 0.00019229855
0.00033447234 -0.00028478334 0.00028126952 0.0005531038 -0.00051889557 -8.122089e-05 0.0005595875 -0.0013419818
-1.9720814e-05 -5.9157055e-06 -9.863776e-05 -0.00023529274 -0.00014318828 6.173303e-05 7.3383635e-05 -0.00016764953
0.00029120938 0.00059801334 -0.00036592482 -0.000496484 -1.0859335e-05 -0.0005594044 -0.0008932483 0.00044421153
-8.174364e-05 -0.0014634551 -0.00048664576 0.00028436686 0.00014310771 7.814252e-06 0.00051392574 0.00019363656
-0.0005128235 8.434096e-05 0.00014479642 -7.816131e-05 0.00021800201 0.00012127648 0.00047554527 0.0005829474
-0.00012940803 -0.00030946502 0.00047726344 -0.0006946838 -0.0010243724 0.0010986398 0.00019955271 -8.400788e-05
0.001554058 0.0006612208 -0.0010239073 0.0005618098 0.00060153625 0.002184724 -0.00068263523 -3.1888325e-05
0.0008014352 -0.0011396483 -0.000157503 0.0021180268 0.0005509716 -4.750269e-06 0.0009762567 -0.0003598597
-0.0012584926 -0.00046547496 -0.0008462492 -0.0016756052 0.00079421105 -0.00021279136 -0.0026565765 0.0010908912
-0.00056039693 -0.00010084513 -9.759061e-05 -0.0011524492 0.0001424355 0.001323969 -0.00024274833 0.000865332
-0.00023066056 -0.00048698156 0.001266338 0.0008361475 -0.0001526887 0.001102345 -0.0001857135 -2.2157123e-05
0.001840718 -0.00025566816 -4.112462e-06 -4.997814e-05 -0.0003710176 -0.00014985845 0.00012491517 -0.00011096133
-0.0003159036 0.00041766115 -0.0006259767 -0.0003162293 0.0012237347 0.0005328994 5.0389103e-06 0.0012696873
-0.0004711802 -0.00019855276 0.0021965224 0.001017663 -0.00065353897 0.0009899839 0.0006139483 -0.00097552565
0.0013904098 0.0013391945 1.8278439e-05 0.002917379 -0.0006684981 0.00018421556 0.0010418314 0.00041731566
0.0005398953 0.0013526969 -0.0005162169 0.00014781192 0.0021819833 0.0014759795 -0.0011488599 -0.00037153778
0.00010291671 -0.0017503602 -0.0008056954 0.0014820913 -0.00045338125 -0.0007726238 4.3562468e-05 0.00082167354
-0.00096716813 -0.00019347967 0.0009804046 -0.0010884589 -0.00028897048 0.0006774103 -0.0024486901 -0.000823568
0.0005742105 0.00010442625 3.9309358e-05 0.0010022838 0.000113434755 -0.000949972 0.0002729363 -0.00026491372
00000000: 21e4 86ba 536c 0e3a cb5f 66b8 bb0a f0b8
00000010: fa6f 813a 45a9 22b9 0c43 9aba acb6 fa38
00000020: 07e8 43ba c83b bfb6 7c0c 8bb6 c747 8d36
00000030: 646b 7e36 3138 c2b6 a78d 5a36 2a45 61b5
00000040: 4238 8636 96dd 8e34 138a ac3a 7068 5bba
00000050: d050 27ba 59d9 44b9 4247 c1ba 7d0e 6bba
00000060: cdd1 af3a 471a dbb9 f10b 78ba 7acd 9c38
00000070: 8c35 153a 8ffc 5dba 92d3 96b9 d656 1d3a
00000080: e42a 73ba 6194 21b9 f709 c939 5832 fcba
00000090: 8fcc 153a 988c c839 7649 30ba e2be 3c39
000000a0: 779c ef39 1549 6bba 85a9 8639 cbc2 333a
000000b0: 5859 02bb be19 c2b9 4397 96b9 8804 c53a
000000c0: 0c45 353a b239 e8b7 860f e93a c009 f1b8
000000d0: f445 1db8 c404 4f3b bbda 2eba 1679 6839
000000e0: a335 b8b9 275f 50ba 4dba ab38 50d2 06b9
000000f0: ce55 0bba b56d 0bba 69d6 f237 c0a3 4939
00000100: 1e5c af39 f94e 95b9 5b77 9339 2bfe 103a
00000110: 7e06 08ba 2255 aab8 48b1 123a 70e5 afba
00000120: 206e a5b7 867f c6b6 bfdb ceb8 eab8 76b9
00000130: d024 16b9 ab76 8138 8ae5 9938 14cb 2fb9
00000140: 76ad 9839 ffc3 1c3a 99d9 bfb9 7a26 02ba
00000150: 7d30 36b7 fea4 12ba e128 6aba 10e5 e839
00000160: c86d abb8 68d1 bfba 7d24 ffb9 1317 9539
00000170: 2f0f 1639 f519 0337 f9b8 063a eb0a 4b39
00000180: 016f 06ba 35e0 b038 7ed4 1739 89ea a3b8
00000190: 7897 6439 d055 fe38 9b52 f939 f0d0 183a
000001a0: b4b1 07b9 b13f a2b9 3739 fa39 711b 36ba
000001b0: 3c44 86ba 3c00 903a 063f 5139 632d b0b8
000001c0: 89b1 cb3a c755 2d3a a134 86ba 6b46 133a
000001d0: 6ab0 1d3a 962d 0f3b e0f2 32ba d4bf 05b8
000001e0: 6817 523a 4060 95ba 6427 25b9 98ce 0a3b
000001f0: 146f 103a 8064 9fb6 7aeb 7f3a 8dab bcb9
00000200: 01f4 a4ba fe0a f4b9 d3d6 5dba fb9f dbba
00000210: 9a32 503a bf20 5fb9 f519 2ebb 3cfc 8e3a
00000220: 9ae7 12ba d17c d3b8 8fa9 ccb8 c70d 97ba
00000230: bd5a 1539 0789 ad3a 428a 7eb9 73d7 623a
00000240: 79dd 71b9 8f51 ffb9 41fb a53a e930 5b3a
00000250: 101b 20b9 8f7c 903a 17bc 42b9 0fde b9b7
00000260: 3f44 f13a 330b 86b9 c8fd 89b6 9f9f 51b8
00000270: 2485 c2b9 5223 1db9 a9fb 0239 e9b3 e8b8
00000280: dd9f a5b9 88f9 da39 9618 24ba 94cb a5b9
00000290: b965 a03a 46b2 0b3a e913 a936 a36b a63a
000002a0: bc08 f7b9 9a32 50b9 88f3 0f3b 1b63 853a
000002b0: 4252 2bba 59c2 813a 5ff1 203a 6bba 7fba
000002c0: 693e b63a e987 af3a a654 9937 7f31 3f3b
000002d0: 263e 2fba fd29 4139 108e 883a 29cb da39
000002e0: c387 0d3a fa4c b13a bb52 07ba f6fd 1a39
000002f0: 9bff 0e3b a775 c13a 5795 96ba f5ca c2b9
00000300: fdd4 d738 586c e5ba 4e35 53ba bb42 c23a
00000310: cdb3 edb9 e889 4aba d8b6 3638 9465 573a
00000320: 8e89 7dba cee0 4ab9 eb80 803a 9faa 8eba
00000330: f680 97b9 3c94 313a 347a 20bb b7e4 57ba
00000340: 9d86 163a 6bff da38 1ae0 2438 105f 833a
00000350: d2e3 ed38 8b07 79ba e418 8f39 1ee4 8ab9

exp_avg_sq f4 [24, 3, 3]
2.5918149e-05 2.4495006e-05 1.679637e-05 2.6307669e-05 2.2888335e-05 1.7157596e-05 2.1787024e-05 2.3318094e-05
1.7082819e-05 2.7727934e-08 2.9614256e-08 3.0178708e-08 3.1291943e-08 2.9160176e-08 3.1934334e-08 2.9726323e-08
2.7818205e-08 2.9391956e-08 3.7735183e-05 5.2036637e-05 3.9440125e-05 3.9025286e-05 5.3772776e-05 4.1438656e-05
3.3919685e-05 5.318569e-05 3.8193823e-05 1.8054241e-05 2.1344127e-05 2.3151775e-05 2.0267882e-05 2.2714526e-05
2.3934414e-05 1.9683468e-05 2.1677464e-05 2.5608464e-05 2.0414747e-05 2.416841e-05 1.8377814e-05 2.1963602e-05
2.3584662e-05 1.9933292e-05 2.182778e-05 2.4494586e-05 1.9114841e-05 3.5002766e-05 3.0370034e-05 5.617288e-05
3.972315e-05 3.4049885e-05 5.7109155e-05 4.2626943e-05 2.7942837e-05 5.7330697e-05 1.5810074e-05 7.364668e-06
1.2024911e-05 1.5216669e-05 5.7878724e-06 1.2366643e-05 1.4458428e-05 6.051272e-06 1.1280515e-05 8.64028e-06
1.23108e-05 7.3356728e-06 9.409405e-06 1.2380905e-05 7.672383e-06 8.659314e-06 1.2380106e-05 7.868926e-06
1.2175541e-06 1.2924573e-06 1.3068027e-06 1.4691759e-06 1.2934438e-06 1.3451682e-06 1.384645e-06 1.1717884e-06
1.2476181e-06 1.3531805e-05 1.4649742e-05 1.4710699e-05 1.40152015e-05 1.6650067e-05 1.6398088e-05 1.3637682e-05
1.4201421e-05 1.4960683e-05 5.406807e-06 6.129979e-06 4.3349905e-06 5.480547e-06 5.9937292e-06 4.61131e-06
4.6892537e-06 6.172478e-06 4.198219e-06 5.041236e-06 8.544442e-06 5.588671e-06 5.979817e-06 8.512447e-06
5.30199e-06 5.164607e-06 8.429697e-06 5.1600637e-06 4.0360977e-05 6.243684e-05 4.1581487e-05 4.087198e-05
6.803913e-05 4.4625842e-05 3.3905264e-05 6.474295e-05 4.437976e-05 9.78332e-05 6.5414e-05 5.34648e-05
9.472819e-05 5.3618704e-05 5.76603e-05 8.415792e-05 5.9464797e-05 5.018675e-05 3.3951514e-05 3.798001e-05
5.013266e-05 3.701965e-05 4.1877956e-05 5.2519415e-05 3.8682912e-05 3.670659e-05 4.815294e-05 3.066998e-05
3.2806944e-05 2.118865e-05 3.2343698e-05 3.067632e-05 2.1317754e-05 2.6814581e-05 3.1055573e-05 2.0617772e-05
2.2880442e-05 2.2622016e-05 4.1089508e-05 2.7343356e-05 2.3905237e-05 4.1474923e-05 2.910568e-05 2.2584878e-05
4.1797546e-05 3.1319657e-06 2.2864408e-06 2.0288012e-06 3.1813033e-06 2.0189098e-06 2.2493216e-06 3.0782894e-06
2.0971122e-06 1.8798729e-06 2.3512483e-05 2.4410136e-05 3.7512607e-05 2.7586666e-05 2.4972873e-05 3.875701e-05
2.9929482e-05 2.4389847e-05 3.743753e-05 6.422412e-05 4.8250717e-05 5.4332875e-05 6.6074856e-05 4.853478e-05
5.4178847e-05 5.8922134e-05 4.046465e-05 5.8102385e-05 2.0369558e-05 2.178054e-05 3.205366e-05 2.2525861e-05
2.4333454e-05 3.328913e-05 2.4065504e-05 2.065019e-05 3.1056545e-05 5.539814e-05 7.272746e-05 5.035374e-05
5.5704535e-05 7.668409e-05 5.455587e-05 4.6591864e-05 7.5060685e-05 5.236638e-05 3.1161373e-05 4.213187e-05
3.6294863e-05 3.457298e-05 4.440936e-05 3.758612e-05 3.2240343e-05 4.3284912e-05 4.090582e-05 1.7080492e-05
2.1225593e-05 1.3365061e-05 1.75331e-05 2.093957e-05 1.3759424e-05 1.4127496e-05 2.1357511e-05 1.3596608e-05
00000000: cd6a d937 a07a cd37 eee5 8c37 4aaf dc37
00000010: 5300 c037 a8ed 8f37 47c3 b637 3a9b c337
00000020: 134d 8f37 5f2e ee32 7062 fe32 d79d 0133
00000030: db65 0633 e87b fa32 2c28 0933 e058 ff32
00000040: e1f4 ee32 9879 fc32 d845 1e38 ea41 5a38
00000050: 836c 2538 15af 2338 148a 6138 6bce 2d38
00000060: fc44 0e38 b313 5f38 4e32 2038 3073 9737
00000070: 2a0c b337 0f36 c237 f204 aa37 138b be37
00000080: c3c6 c837 ed1d a537 00d8 b537 c2d1 d637
00000090: 5640 ab37 44bd ca37 0e2a 9a37 7a3e b837
000000a0: add7 c537 6b36 a737 cd1a b737 b979 cd37
000000b0: cf58 a037 efcf 1238 27c3 fe37 2c9b 6b38
000000c0: 689c 2638 c9d0 0e38 7d88 6f38 55ca 3238
000000d0: c966 ea37 5e76 7038 e09f 8437 041e f736
000000e0: 99be 4937 194b 7f37 7235 c236 547a 4f37
000000f0: 7a92 7237 080c cb36 7141 3d37 b8f5 1037
00000100: 7c8a 4e37 f324 f636 16dd 1d37 95b7 4f37
00000110: a2b8 0037 7847 1137 27b4 4f37 c804 0437
00000120: d76a a335 7f78 ad35 6665 af35 8030 c535
00000130: 649a ad35 a18b b435 0ad8 b935 5846 9d35
00000140: d573 a735 a906 6337 2ac8 7537 f9cd 7637
00000150: d522 6b37 bfab 8b37 a08e 8937 66cd 6437
00000160: a442 6e37 a5ff 7a37 1e6c b536 1eb0 cd36
00000170: 4975 9136 8ae5 b736 be1d c936 daba 9a36
00000180: 6258 9d36 2f1d cf36 6dde 8c36 e327 a936
00000190: 195a 0f37 5186 bb36 3da6 c836 aed0 0e37
000001a0: bfe7 b136 a34b ad36 466d 0d37 9c24 ad36
000001b0: 4549 2938 86f0 8238 c867 2e38 f46d 2b38
000001c0: 3bb0 8e38 a22c 3b38 8035 0e38 9bc6 8738
000001d0: 6824 3a38 cd2b cd38 e02e 8938 643f 6038
000001e0: cfa8 c638 a5e4 6038 47d8 7138 f07d b038
000001f0: d769 7938 9d7f 5238 2967 0e38 ba4c 1f38
00000200: 8945 5238 8c45 1b38 1da6 2f38 4b48 5c38
00000210: 763f 2238 67f5 1938 d3f7 4938 a4a3 0038
00000220: 309a 0938 48be b137 c8a8 0738 73aa 0038
00000230: 87d3 b237 e0ef e037 ab41 0238 54f4 ac37
00000240: 60ef bf37 69c4 bd37 8657 2c38 695f e537
00000250: 1b88 c837 5cf5 2d38 f927 f437 a874 bd37
00000260: c64f 2f38 c32e 5236 c170 1936 8a26 0836
00000270: 607e 5536 9b7c 0736 0df3 1636 9c94 4e36
00000280: 1dbc 0c36 f14f fc35 ac3c c537 5ec4 cc37
00000290: db56 1d38 ea69 e737 d67c d137 068f 2238
000002a0: 1311 fb37 cc98 cc37 3e06 1d38 10b0 8638
000002b0: d060 4a38 7be3 6338 ab91 8a38 d391 4b38
000002c0: 183e 6338 2923 7738 96b8 2938 f6b2 7338
000002d0: 4bdf aa37 5ab5 b637 5b71 0638 ebf5 bc37
000002e0: b21f cc37 ee9f 0b38 47e0 c937 f239 ad37
000002f0: b642 0238 4d5b 6838 4285 9838 eb32 5338
00000300: 4aa4 6938 75d1 a038 ebd2 6438 a26b 4338
00000310: e669 9d38 f9a3 5b38 45b3 0238 c0b6 3038
00000320: 503b 1838 7402 1138 3044 3a38 caa5 1d38
00000330: ce39 0738 d28c 3538 4a92 2b38 1448 8f37
00000340: 9d0d b237 803a 6037 0c14 9337 62a7 af37
00000350: 47d8 6637 2205 6d37 e828 b337 fd1c 6437

exp_avg f4 [3]
0.0061518243 0.0077614323 0.010286174
00000000: 3e95 c93b 9d53 fe3b 5787 283c

exp_avg_sq f4 [3]
0.004730765 0.0044690473 0.004213169
00000000: 8804 9b3b 1671 923b a00e 8a3b

model.conv1.weight f4 [24, 3, 3]
0.017492913 -0.22673047 0.016297143 -0.0028169525 -0.35640454 0.116095595 0.30943364 -0.3030134
0.2209915 -0.09450052 0.20845118 0.07388151 -0.17902991 0.22879902 0.07219651 -0.42283505
0.21008117 -0.0037361574 0.4685566 0.08152682 -0.11470024 0.30082098 0.02121356 -0.28728345
0.25923574 -0.080848955 -0.3007421 -0.116055526 -0.3383306 -0.10862154 0.06983521 -0.03453312
0.109444425 0.21865039 -0.20369765 -0.004420037 0.047900014 -0.11211858 -0.3199077 -0.18698122
-0.25315922 -0.18104497 0.37954357 -0.21599635 -0.041512445 -0.0049499325 -0.38520664 0.09697172
0.199762 -0.3204859 0.44288933 -0.103026204 -0.22714731 0.102388576 0.17389946 0.024845995
0.08438317 0.12630297 0.29347736 -0.19994895 -0.24418953 0.10235291 -0.36545274 -0.1262857
-0.030331582 -0.30553558 -0.101959884 0.017047063 -0.30290267 0.12012705 0.10383274 -0.28759813
-0.07210592 0.06782728 0.0147587415 -0.199454 0.08698737 -0.013441712 0.031079274 0.29172468
0.059551157 0.13872479 -0.36394164 0.005334878 -0.061265413 -0.21409214 0.007784882 0.09359054
-0.21621287 0.4155613 -0.08508205 0.3205059 -0.08873006 -0.36325428 0.3115552 0.05284684
0.19723287 -0.02385463 -0.1315814 -0.10280686 -0.45215628 0.33158246 -0.13027076 -0.08519891
0.103934534 0.072631314 -0.01569076 0.44367644 -0.063441716 -0.06552107 -0.045062743 0.30193833
-0.09448582 -0.13944374 -0.2819637 -0.048459705 0.060902663 0.16691422 -0.09042392 -0.057810824
-0.10819934 0.043421227 0.06844695 -0.005214509 0.30482236 0.09080145 -0.2290716 0.0878218
0.056520216 0.030701814 -0.35963482 0.13469543 -0.13099518 -0.16816351 0.011729014 0.18807647
0.20184165 0.06819467 -0.053854 0.016192388 -0.09981749 -0.18295206 0.30808368 -0.16087374
0.13089895 -0.15948877 0.1037443 0.12894104 0.15879367 -0.03433961 -0.12881769 0.08952349
-0.16851437 0.06690322 -0.14166361 0.35492918 0.108562216 -0.45572826 -0.021804258 -0.00818497
-0.09219493 0.13968138 -0.23443812 0.32105723 0.22503518 -0.30149066 0.16952741 0.082887344
-0.032392193 -0.035410475 0.11775706 -0.013840885 -0.29135218 -0.027711457 0.14495943 0.04077577
0.25681666 0.04674783 -0.38234004 0.053297654 -0.1490284 -0.007760618 0.3170612 -0.09731873
0.06905809 0.15979032 -0.33396003 0.14843248 0.2315401 -0.04509879 0.29330254 -0.12909977
-0.124708496 0.04453081 -0.010685426 0.23796988 0.04400921 0.18749695 0.17399353 -0.064240344
0.027144087 -0.2825693 0.11198644 0.07927833 -0.02245383 0.068585545 -0.08682699 0.025121711
0.008864578 -0.049826708 -0.051622503 0.4024785 -0.20648026 -0.098342806 -0.026711823 0.18077202
00000000: 4c4d 8f3c 082c 68be 9681 853c 9f9c 38bb
00000010: a87a b6be 87c3 ed3d 166e 9e3e 9324 9bbe
00000020: 994b 623e 7d89 c1bd 3a74 553e 304f 973d
00000030: 9e53 37be 4a4a 6a3e c4db 933d d67d d8be
00000040: 851f 573e 52da 74bb a7e6 ef3e 89f7 a63d
00000050: f6e7 eabd 3505 9a3e 0fc8 ad3c d116 93be
00000060: 8cba 843e 2394 a5bd defa 99be 85ae edbd
00000070: ab39 adbe f874 debd c305 8f3d 9a72 0dbd
00000080: 6624 e03d e3e5 5f3e 1e96 50be f5d5 90bb
00000090: ce32 443d 6d9e e5bd f1ca a3be 0178 3fbe
000000a0: 169e 81be da63 39be 8953 c23e 262e 5dbe
000000b0: f408 2abd 0b33 a2bb ce39 c5be 1c99 c63d
000000c0: 698e 4c3e ba16 a4be 64c2 e23e 67ff d2bd
000000d0: 4e99 68be 1ab1 d13d b312 323e d489 cb3c
000000e0: 15d1 ac3d 9155 013e aa42 963e 6bbf 4cbe
000000f0: d20c 7abe 679e d13d 9f1c bbbe 0a51 01be
00000100: f079 f8bc 296f 9cbe 58d0 d0bd 48a6 8b3c
00000110: 0f16 9bbe 2c05 f63d 42a6 d43d 1040 93be
00000120: 45ac 93bd 07e9 8a3d a6ce 713c ab3d 4cbe
00000130: 6f26 b23d a03a 5cbc f699 fe3c f05c 953e
00000140: eaeb 733d df0d 0e3e 8f56 babe 33d0 ae3b
00000150: 71f1 7abd f83a 5bbe 5318 ff3b 66ac bf3d
00000160: e866 5dbe 73c4 d43e 7f3f aebd 5919 a43e
00000170: 1bb8 b5bd 77fc b9be 2a84 9f3e ee75 583d
00000180: 6af7 493e c96a c3bc 46bd 06be 678c d2bd
00000190: 0781 e7be 2dc5 a93e b365 05be c47c aebd
000001a0: a1db d43d babf 943d e989 80bc 8f29 e33e
000001b0: bbed 81bd e92f 86bd b693 38bd a997 9a3e
000001c0: c881 c1bd 57ca 0ebe 8c5d 90be af7d 46bd
000001d0: 1275 793d 90eb 2a3e 2d30 b9bd 0bcb 6cbd
000001e0: 9e97 ddbd 75da 313d ea2d 8c3d 79de aabb
000001f0: ad11 9c3e 1cf6 b93d bf91 6abe eadb b33d
00000200: be81 673d 5f82 fb3c 0e22 b8be 99ed 093e
00000210: 9a23 06be 0e33 2cbe 0d2b 403c 1e97 403e
00000220: 94af 4e3e a6a9 8b3d 0396 5cbd e6a5 843c
00000230: 1d6d ccbd c957 3bbe 25bd 9d3e 16bc 24be
00000240: 600a 063e 0651 23be e477 d43d 1f09 043e
00000250: cf9a 223e b1a7 0cbd c9e8 03be 1758 b73d
00000260: 088f 2cbe 8e04 893d 4410 11be 47b9 b53e
00000270: de55 de3d 3755 e9be d89e b2bc 411a 06bc
00000280: b2d0 bcbd a308 0f3e 8c10 70be 9d61 a43e
00000290: 9f6f 663e fc5c 9abe 9898 2d3e d7c0 a93d
000002a0: adad 04bd 930a 11bd 9d2a f13d e1c4 62bc
000002b0: 1d2c 95be 2303 e3bc 3f70 143e 7e04 273d
000002c0: 797d 833e a77a 3f3d 13c2 c3be a44e 5a3d
000002d0: e79a 18be c84c febb d855 a23e 0b4f c7bd
000002e0: 546e 8d3d 13a0 233e cffc aabe affe 173e
000002f0: d918 6d3e 82b9 38bd c02b 963e bb32 04be
00000300: 2b67 ffbd f065 363d ed11 2fbc 60ae 733e
00000310: 0043 343d 33ff 3f3e 5c2b 323e 7190 83bd
00000320: 475d de3c ecac 90be 2659 e53d ad5c a23d
00000330: 18f1 b7bc 9476 8c3d 59d2 b1bd 0ccc cd3c
00000340: bc3c 113c 1717 4cbd 1e72 53bd a911 ce3e
00000350: 906f 53be f467 c9bd c1d2 dabc 4d1c 393e

model.conv1.bias f4 [24]
1.009136 -1.0413766 0.863565 0.87766373 -0.03176476 -0.048382953 -0.7035736 -0.6116861
-0.26141152 0.99226296 -0.044700325 -0.9302168 -0.35597777 0.9051965 -0.8989521 -1.233716
1.1506891 1.4389474 0.61851543 0.64909667 1.1490915 -0.72659713 0.88490283 -0.97231025
00000000: 5e2b 813f d44b 85bf 9912 5d3f 92ae 603f
00000010: c41b 02bd 342d 46bd 661d 34bf 7697 1cbf
00000020: bbd7 85be f204 7e3f b017 37bd b022 6ebf
00000030: b842 b6be f5ba 673f ba21 66bf 68ea 9dbf
00000040: c849 933f 6e2f b83f 0757 1e3f 332b 263f
00000050: 6e15 933f 4502 3abf fe88 623f 53e9 78bf

model.conv2.weight f4 [1, 24, 3]
-0.00065774785 -0.06063558 -0.27428854 -0.10011801 -0.06791699 0.29138446 0.00491946 -0.049619637
-0.26781344 -0.12923053 -0.020608148 -0.15990035 0.126689 -0.12100984 0.01458127 0.13720426
-0.17747512 -0.03885208 -0.039167166 0.015649665 0.1436253 -0.06394313 -0.0072566564 0.24543972
-0.07950335 0.038760167 0.08832994 0.03011968 0.025573041 -0.2185128 -0.17377803 0.034596223
0.041699383 0.06826577 -0.20361392 0.30531773 0.05494199 0.037493516 -0.045833707 0.0055621406
0.0932325 -0.064193554 -0.050995767 -0.055582155 0.16341376 -0.039982587 0.08773735 0.08050651
0.008167814 -0.014467204 -0.13858666 0.007497005 0.109076686 -0.30523333 0.08331867 -0.17117637
-0.018079642 0.043022823 0.14019825 -0.08854245 -0.062671535 0.11465608 -0.20872286 0.03727615
0.11299001 0.03429218 0.065511435 -0.050456457 -0.15656643 0.01774317 0.0998548 0.04939748
00000000: b66c 2cba 045d 78bd 8c6f 8cbe ac0a cdbd
00000010: 1018 8bbd 5830 953e 6c33 a13b f63d 4bbd
00000020: d81e 89be 0255 04be 6bd2 a8bc ebbc 23be
00000030: c3ba 013e 02d4 f7bd 47e6 6e3c 467f 0c3e
00000040: 0abc 35be 5c23 1fbd c06d 20bd ba33 803c
00000050: 8312 133e 9ef4 82bd 3fc9 edbb 8d54 7b3e
00000060: a7d2 a2bd fbc2 1e3d 54e6 b43d 8cbd f63c
00000070: 8e7e d13c d2c1 5fbe def2 31be c5b4 0d3d
00000080: f9cc 2a3d edce 8b3d 2b80 50be 9b52 9c3e
00000090: da0a 613d cd92 193d 20bc 3bbd 9e42 b63b
000000a0: aef0 be3d e977 83bd f0e0 50bd 1daa 63bd
000000b0: f055 273e c8c4 23bd a4af b33d 99e0 a43d
000000c0: 4cd2 053c da07 6dbc a9e9 0dbe 70a9 f53b
000000d0: 9963 df3d 8b47 9cbe fba2 aa3d dc48 2fbe
000000e0: c21b 94bc b338 303d 2190 0f3e be55 b5bd
000000f0: ef59 80bd cfd0 ea3d 72bb 55be e0ae 183d
00000100: 4e67 e73d f575 0c3d dc2a 863d 6eab 4ebd
00000110: f352 20be 205a 913c ac80 cc3d 0355 4a3d

model.t_conv1.weight f4 [1, 24, 3]
0.20386948 -0.104907975 0.11042431 0.0017980796 0.0009580512 -0.0012419947 -0.2620351 0.17803074
0.013159838 -0.017516831 -0.11776876 0.21346639 -0.015512216 -0.004365104 0.24660085 0.1166278
0.08277831 -0.279491 -0.036279295 -0.1727827 -0.055691835 0.0654904 0.014951256 0.1892861
-0.061016478 -0.05062629 -0.05221416 -0.06309856 0.12969598 0.11800038 0.09148834 -0.06268493
0.011696583 0.14085272 0.055940945 0.13369976 0.14936978 -0.28069633 0.016472664 -0.26769242
0.25574183 0.017277932 -0.19693497 0.08297305 0.19826971 -0.2719714 0.061292145 -0.14464705
0.17328969 0.20109057 -0.14781338 -0.042780533 -0.07228358 -0.078941986 0.17039564 0.10158875
-0.19744264 -0.17521055 0.133594 -0.29510513 0.14362645 -0.04076737 -0.16858797 -0.23093283
0.29414865 -0.0012788528 0.0231433 -0.14530991 0.2935735 0.17787269 -0.10628368 0.07750395
00000000: 29c3 503e fed9 d6bd 2426 e23d 8aad eb3a
00000010: ba25 7b3a 6dca a2ba 7729 86be b14d 363e
00000020: 5c9c 573c 757f 8fbc bf30 f1bd ef96 5a3e
00000030: f326 7ebc 2509 8fbb ef84 7c3e 8eda ee3d
00000040: ad87 a93d 7219 8fbe 9999 14bd f3ed 30be
00000050: 1f1d 64bd d51f 863d 1df6 743c 37d4 413e
00000060: 6aec 79bd 835d 4fbd 84de 55bd d139 81bd
00000070: 06cf 043e 2faa f13d 3d5e bb3d f560 80bd
00000080: 06a3 3f3c b23b 103e 5522 653d 97e8 083e
00000090: 64f4 183e 6eb7 8fbe aef1 863c fb0e 89be
000000a0: 98f0 823e 738a 8d3c 52a9 49be c6ed a93d
000000b0: 3707 4b3e d63f 8bbe 790d 7b3d 5b1e 14be
000000c0: da72 313e b0ea 4d3e 645c 17be a43a 2fbd
000000d0: 6a09 94bd 56ac a1bd 327c 2e3e c30d d03d
000000e0: 672e 4abe 656a 33be decc 083e 0518 97be
000000f0: d012 133e b0fb 26bd 53a2 2cbe a879 6cbe
00000100: a79a 963e 2e9f a7ba 0597 bd3c 1fcc 14be
00000110: 444f 963e 4224 363e 42ab d9bd 64ba 9e3d

model.t_conv1.bias f4 [24]
-0.043022625 3.8549242e-05 -0.04015496 0.00664189 0.044911 0.059235383 -0.06243083 0.027046466
-0.0006108229 -0.047637545 0.00089247397 0.017730953 0.07920488 0.1270317 -0.07087489 0.045603964
0.0052889534 -0.02214686 -0.004067493 0.120001875 0.057268325 -0.050746366 0.026395457 -0.0019694844
00000000: 7e38 30bd efaf 2138 8779 24bd 36a4 d93b
00000010: 99f4 373d cda0 723d 78b7 7fbd 8d90 dd3c
00000020: a21f 20ba 961f 43bd eaf4 693a 8140 913c
00000030: 2b36 a23d 9914 023e db26 91bd 39cb 3a3d
00000040: f54e ad3b 556d b5bc 9b48 85bb 8bc3 f53d
00000050: 3192 6a3d 6cdb 4fbd 493b d83c 7712 01bb

model.t_conv2.weight f4 [24, 3, 3]
-0.20677963 -0.23770064 0.20108612 0.2243835 0.061448146 0.43518987 -0.07836524 -0.15437327
0.025583724 0.00036538593 0.004776994 -0.000120092 -0.00258216 -0.009924234 -0.0033551524 0.010643568
0.011373519 -0.021313842 0.094932675 0.28756732 -0.27413186 0.2101759 0.37076274 -0.32785115
0.0060212393 0.11024667 -0.045888178 -0.23039587 0.0881043 0.24447915 -0.026445081 0.24495673
0.049877 -0.31596288 0.08144116 0.28271756 -0.2820452 -0.044483956 0.23752704 -0.04062467
0.3730114 0.40472436 -0.2894223 0.41307178 -0.091030836 0.095118865 -0.2857105 0.07129454
0.1067417 -0.14967911 -0.19312833 0.3787234 -0.25385678 -0.02564234 0.12634595 0.036702987
0.2885889 -0.038595106 0.1530124 -0.2803169 -0.3846781 -0.3809807 0.1760272 -0.018338898
0.20140427 0.104918525 -0.15567505 0.18147412 0.21145754 -0.14679724 0.065008625 0.37265423
-0.0744448 0.0019045105 -0.096370384 0.10440342 0.044346344 -0.047975786 -0.15988474 0.022829194
-0.0030737487 0.12463184 0.26451227 0.19846977 -0.026940044 0.026639344 -0.1969624 0.0013295582
0.26648054 -0.0699551 -0.09641705 -0.12170937 0.13167536 0.094137974 0.10526696 -0.029690834
-0.04310738 -0.2542544 0.23966846 0.13227034 0.113796756 -0.14423865 0.15338239 0.10438601
0.36626196 0.034050513 -0.16283327 0.29386827 -0.3324708 -0.15675968 0.22899681 -0.3236901
0.010466899 0.12820625 0.022982484 -0.18896155 0.033856235 -0.060645655 0.14230734 -0.22366132
0.26020136 0.5447327 -0.29572284 0.17515936 0.123085245 0.075174525 0.28281215 0.31775516
0.2556738 -0.10564294 0.33036035 0.051415805 0.007193948 0.37436888 -0.18570675 -0.13417508
0.16457315 -0.43417314 0.17328084 -0.01012274 -0.22779977 0.03810598 0.3173845 -0.5340385
0.3627906 -0.2922105 0.23311424 0.3349026 -0.28251928 -0.3055892 0.23296955 0.019234037
-0.034483753 -0.07780253 0.112630814 0.13631469 -0.07069376 -0.22040716 -0.0027865805 -0.011856085
-0.055294506 -0.29951787 0.29402223 -0.17696804 -0.22479542 0.40765268 -0.26249394 0.21854392
0.23129342 -0.46631777 -0.13474244 0.15165189 -0.37978712 -0.3454938 0.23463058 0.1620854
-0.14809884 0.059525725 0.068490356 -0.39066875 -0.05629333 -0.419408 0.059731442 0.04648196
-0.21183205 -0.0016929116 0.07377308 -0.09343609 0.021435289 0.3837551 0.4152087 -0.38706765
0.022914851 0.06339781 -0.28724813 0.35265496 0.07677699 -0.016988385 -0.3341987 0.06929525
0.43012452 -0.17565106 0.1435123 0.21936889 -0.2613756 0.40275654 0.2125235 0.12579022
-0.20868003 -0.054258652 0.017434536 -0.1195154 0.2195867 -0.26761642 -0.05754339 0.42929792
00000000: 0abe 53be cc67 73be 85e9 4d3e cac4 653e
00000010: 0db1 7b3d 35d1 de3e f47d a0bd 0714 1ebe
00000020: f594 d13c 4591 bf39 5588 9c3b e7d9 fbb8
00000030: 7539 29bb 4199 22bc 1ee2 5bbb 5c62 2e3c
00000040: ff57 3a3c 5e9a aebc 106c c23d 063c 933e
00000050: 035b 8cbe 5a38 573e 9dd4 bd3e 1bdc a7be
00000060: d14d c53b 02c9 e13d 3ef5 3bbd e5ec 6bbe
00000070: 0770 b43d be58 7a3e 5ba3 d8bc f0d5 7a3e
00000080: d34b 4c3d e3c5 a1be 9fca a63d 5bc0 903e
00000090: 3a68 90be cf34 36bd 4a3a 733e 0e66 26bd
000000a0: 5afb be3e 0838 cf3e 292f 94be 257e d33e
000000b0: 606e babd aecd c23d a648 92be df02 923d
000000c0: 649b da3d 7b45 19be 6fc3 45be 09e8 c13e
000000d0: 84f9 81be e20f d2bc d560 013e df55 163d
000000e0: edc1 933e e715 1ebd 48af 1c3e b285 8fbe
000000f0: 87f4 c4be e70f c3be 7940 343e 753b 96bc
00000100: ec3c 4e3e 86df d63d 4869 1fbe 5ad4 393e
00000110: 5388 583e 0452 16be 3e23 853d 89cc be3e
00000120: 8476 98bd c5a0 f93a d65d c5bd 76d1 d53d
00000130: 83a4 353d 4282 44bd d3b8 23be 4a04 bb3c
00000140: f270 49bb fa3e ff3d 276e 873e a93b 4b3e
00000150: 5eb1 dcbc c13a da3c 83b0 49be 9244 ae3a
00000160: 2370 883e 9f44 8fbd 4d76 c5bd c342 f9bd
00000170: e8d5 063e 69cb c03d 3496 d73d 313a f3bc
00000180: 5d91 30bd a22d 82be a66b 753e e071 073e
00000190: 460e e93d 4cb3 13be 4610 1d3e 55c8 d53d
000001a0: b086 bb3e 8d78 0b3d c4bd 26be e775 963e
000001b0: 9d39 aabe 9c85 20be 247e 6a3e b5ba a5be
000001c0: 5b7d 2b3c 8048 033e c345 bc3c 237f 41be
000001d0: d6ac 0a3d 9467 78bd 04b9 113e 7907 65be
000001e0: 1d39 853e 9a73 0b3f fc68 97be fa5c 333e
000001f0: 1e14 fc3d 1af5 993d c1cc 903e ceb0 a23e
00000200: ade7 823e 535b d8bd fe24 a93e 6199 523d
00000210: 36bb eb3b 47ad bf3e e929 3ebe 3165 09be
00000220: dd85 283e f14b debe 8870 313e d9d9 25bc
00000230: 5844 69be 0415 1c3d 3980 a23e bfb6 08bf
00000240: b1bf b93e 9d9c 95be 80b5 6e3e 5b78 ab3e
00000250: 5ea6 90be 3076 9cbe 928f 6e3e b390 9d3c
00000260: d63e 0dbd ef56 9fbd fcaa e63d 1496 0b3e
00000270: e4c7 90bd 6ab2 61be 109f 36bb 0640 42bc
00000280: 7e7c 62bd 685a 99be 158a 963e 1c37 35be
00000290: c530 66be dab7 d03e 9b65 86be fac9 5f3e
000002a0: 2fd8 6c3e 34c1 eebe ecf9 09be a24a 1b3e
000002b0: 7573 c2be 90e4 b0be 0043 703e b7f9 253e
000002c0: 39a7 17be 3fd1 733d ac44 8c3d bc05 c8be
000002d0: d693 66bd a5bc d6be f5a8 743d de63 3e3d
000002e0: 80ea 58be b0e4 ddba 5716 973d 6c5b bfbd
000002f0: 0f99 af3c 8c7b c43e 3c96 d43e bb2d c6be
00000300: edb7 bb3c b6d6 813d 3012 93be 318f b43e
00000310: 413d 9d3d 3a2b 8bbc 181c abbe abea 8d3d
00000320: 4839 dc3e dfdd 33be e3f4 123e 3da2 603e
00000330: 06d3 85be 1b36 ce3e c39f 593e 27cf 003e
00000340: 38b0 55be 523e 5ebd dfd2 8e3c 7dc4 f4bd
00000350: 56db 603e 0505 89be 9eb2 6bbd f0cc db3e

model.t_conv2.bias f4 [3]
0.09941801 -0.063592106 -0.04350817
00000000: ab9b cb3d 943c 82bd 9f35 32bd
